results/arousal/classification_3/20251225_163454_898105/best_model.pt (torch, 273845 bytes, 16 tensors)

conv1.weight f4 [16, 1, 3, 3]
0.16862056 0.6043774 -0.25086325 0.16220969 -0.10449052 0.049746178 -0.04371842 0.04412182
0.41850436 -0.28322458 0.45752898 0.04236979 0.18371183 0.07569768 0.21444462 -0.09823644
0.33179098 0.03539772 -0.13320428 0.27174282 -0.2203566 -0.15527098 -0.1595874 0.41456178
-0.17084274 -0.113851056 -0.095024236 -0.04552289 -0.043037694 -0.47067285 0.2656984 -0.36542937
0.3643758 0.11187561 -0.22029947 0.2674681 0.081879094 0.407978 -0.1415871 -0.18575066
0.0020227942 -0.29663697 0.06343272 0.22373258 0.32356316 -0.0013561965 0.2673356 0.10350329
0.08819794 -0.3477192 -0.45169494 -0.040349893 -0.25960824 0.42157838 0.09918511 0.0869977
0.23618372 -0.014643419 0.33670402 -0.2963602 -0.010333825 -0.38250163 0.059275854 -0.06807055
-0.007042476 -0.05619778 0.24393539 -0.1640242 -0.45253554 -0.15216573 0.32048616 0.37945285
0.21854419 -0.4513231 -0.25803757 -0.117830254 -0.39172435 0.105901346 0.1692296 0.46411356
0.016573315 -0.22410084 0.3098099 -0.107892975 0.2773465 -0.04775495 0.23088951 -0.2343547
-0.38855964 0.06687225 0.1872638 -0.11561943 0.37327778 0.122975074 -0.30223528 -0.23584822
0.37209746 -0.1121566 -0.16140759 -0.06206726 -0.2835723 0.39046133 -0.020408046 -0.24141446
0.19903435 -0.18469654 -0.29202452 -0.2807128 -0.21634395 -0.27391163 0.43429756 0.120289445
0.13463879 -0.47701052 -0.20097762 0.01815456 0.03341319 -0.24195899 -0.23610838 -0.43544814
0.10277291 -0.13242278 -0.10332287 -0.24840553 -0.23506457 -0.18863586 -0.1224151 -0.4044366
0.40717205 -0.104190074 0.35624185 0.10276889 -0.24286935 0.17697135 -0.13927375 -0.20066553
-0.22973908 -0.4383789 0.26162222 -0.029526867 0.24970222 -0.18828474 0.28569254 -0.37625858
00000000: deaa 2c3e 7ab8 1a3f 2671 80be 4c1a 263e
00000010: 20ff d5bd a6c2 4b3d 1612 33bd 15b9 343d
00000020: 3446 d63e d002 91be 3d41 ea3e f28b 2d3d
00000030: f41e 3c3e 6307 9b3d 5f97 5b3e 3030 c9bd
00000040: 82e0 a93e 33fd 103d b466 08be e021 8b3e
00000050: 29a5 61be 5bff 1ebe e16a 23be 7141 d43e
00000060: 66f1 2ebe be2a e9bd 119c c2bd 3676 3abd
00000070: 4b48 30bd 08fc f0be 9f09 883e 8f19 bbbe
00000080: 778f ba3e 0a1f e53d 2f96 61be 94f1 883e
00000090: 3ab0 a73d 7ee2 d03e 35fc 10be 6c35 3ebe
000000a0: db90 043b cde0 97be 04e9 813d 271a 653e
000000b0: 12aa a53e 67c2 b1ba 36e0 883e 88f9 d33d
000000c0: 1fa1 b43d 4008 b2be 8f44 e7be ee45 25bd
000000d0: 5feb 84be 1fd9 d73e 9021 cb3d da2b b23d
000000e0: 25da 713e f3ea 6fbc 7864 ac3e 86bc 97be
000000f0: 344f 29bc 41d7 c3be 3dcb 723d 9368 8bbd
00000100: 92c4 e6bb a52f 66bd 33ca 793e f6f5 27be
00000110: bdb2 e7be 55d1 1bbe c316 a43e a547 c23e
00000120: 0cca 5f3e d213 e7be 801d 84be fd50 f1bd
00000130: 1890 c8be cee2 d83d 864a 2d3e 4ba0 ed3e
00000140: c3c4 873c b17a 65be 679f 9e3e fef6 dcbd
00000150: 5c00 8e3e b29a 43bd 4d6e 6c3e aefa 6fbe
00000160: 4af1 c6be 51f4 883d 15c2 3f3e e1c9 ecbd
00000170: 441e bf3e 5bda fb3d 95be 9abe 3282 71be
00000180: 8f83 be3e 5cb2 e5bd 0848 25be 3d3a 7ebd
00000190: 6330 91be 8cea c73e c62e a7bc 5a35 77be
000001a0: a9cf 4b3e 1721 3dbe 3d84 95be 97b9 8fbe
000001b0: 4589 5dbe 253e 8cbe 405c de3e 505a f63d
000001c0: c0de 093e b93a f4be 14cd 4dbe dfb8 943c
000001d0: 45dc 083d 19c4 77be 65c6 71be 0ff3 debe
000001e0: 9a7a d23d d699 07be f19a d3bd 055e 7ebe
000001f0: c4b4 70be c229 41be c5b4 fabd 5012 cfbe
00000200: db78 d03e 9b61 d5bd 5565 b63e 7f78 d23d
00000210: beb2 78be fa37 353e c79d 0ebe 447b 4dbe
00000220: b940 6bbe 3373 e0be 59f3 853e 54e2 f1bc
00000230: f0b1 7f3e b7cd 40be 4b46 923e f7a4 c0be

conv1.bias f4 [16]
5.2946423e-05 3.4444958e-05 -0.00031210185 0.00052760565 -0.0013810024 -0.00019474441 -0.0012166635 -0.0012882198
-0.001585896 -0.0009619653 0.00055786263 0.00010783262 -3.4285622e-05 0.0009274244 -0.00042933752 -0.000850251
00000000: ca12 5e38 fe78 1038 9aa1 a3b9 044f 0a3a
00000010: c002 b5ba 4e34 4cb9 7478 9fba 7cd9 a8ba
00000020: d7dd cfba 662c 7cba 873d 123a 3224 e238
00000030: e8cd 0fb8 661e 733a b518 e1b9 61e3 5eba

bn1.weight f4 [16]
0.8815857 0.7474881 0.8988866 1.0844051 0.97585815 1.1498199 1.1371181 1.1406617
1.1344748 0.9522625 1.0198302 0.85527986 0.97421056 0.67646676 0.93867683 1.007178
00000000: 9aaf 613f 615b 3f3f 6f1d 663f c9cd 8a3f
00000010: d7d1 793f 4c2d 933f 168d 913f 3401 923f
00000020: 7836 913f 7ac7 733f cc89 823f 9ff3 5a3f
00000030: dd65 793f ed2c 2d3f 204d 703f 35eb 803f

bn1.bias f4 [16]
-0.35610163 -0.21334442 -0.11014714 -0.25411057 0.04193829 -0.2069791 -0.15094393 -0.14878914
-0.038980864 -0.35216963 -0.11682882 -0.25318095 -0.010201288 -0.060889382 -0.16481493 -0.21176559
00000000: f452 b6be f676 5abe d394 e1bd c81a 82be
00000010: 7cc7 2b3d 54f2 53be 0c91 1abe 2e5c 18be
00000020: 66aa 1fbd 944f b4be f343 efbd efa0 81be
00000030: 4e23 27bc 2567 79bd 3fc5 28be 14d9 58be

bn1.running_mean f4 [16]
-0.0010171416 -0.00022971933 0.00038335344 0.00061835244 0.00016980851 0.0005877202 -0.0017720687 0.0013042733
1.5772384e-05 -0.0010584024 -0.0010810931 -0.0007589753 0.00017670798 0.0024384 0.0006915573 -3.0108058e-05
00000000: 9c51 85ba d0e0 70b9 d4fc c839 ee18 223a
00000010: a00e 3239 3c11 1a3a c244 e8ba 26f4 aa3a
00000020: f04e 8437 17ba 8aba 77b3 8dba f8f5 46ba
00000030: b04a 3939 90cd 1f3b a049 353a 9090 fcb7

bn1.running_var f4 [16]
0.41365632 0.47813913 0.16003722 0.22373445 0.19104771 0.28667057 0.1479083 0.20067635
0.42071918 0.16407423 0.24732046 0.43374547 0.15207866 0.78604364 0.2256357 0.21736252
00000000: c3ca d33e a7ce f43e cce0 233e a51a 653e
00000010: 03a2 433e 7cc6 923e 4675 173e 1a7e 4d3e
00000020: 8168 d73e 1303 283e 9341 7d3e e313 de3e
00000030: 82ba 1b3e 283a 493f 0c0d 673e 4894 5e3e

conv2.weight f4 [32, 16, 3, 3]
0.048329223 -0.18572009 0.11347211 -0.28057918 -0.06568254 0.05125057 0.016802331 0.124240115
0.15568854 -0.002311722 -0.16281293 -0.23200917 0.05925132 -0.2792049 -0.11355093 0.06323129
-0.12863179 0.005747906 0.12870866 -0.0017545464 0.15373515 0.19670366 -0.27673006 0.030588172
0.0484683 0.22230151 -0.17370164 -0.16333327 0.06435282 0.08317887 -0.235768 0.035780884
0.17377998 0.22486235 0.0076334206 0.06511464 0.17740038 0.0042981235 0.27311155 0.10633655
-0.105972044 -0.0009013833 0.1982586 -0.08099648 -0.012195023 0.03492068 -0.34972078 -0.47734812
-0.05681803 -0.20502803 0.025834925 0.18518795 -0.0772377 0.49948615 0.022907436 -0.12824237
0.31950316 -0.15917815 -0.047146488 -0.02980519 -0.08090418 -0.04613296 0.021993538 0.12872615
0.07987533 0.3770359 0.15680271 0.15245308 0.022492472 -0.12818983 -0.17912315 0.25881478
0.039925672 0.022949954 0.37712055 -0.22404309 -0.09667836 -0.057849336 -0.050118174 -0.031486873
-0.038675148 0.050698206 -0.058806974 0.1936917 -0.030869098 0.0672564 -0.15250137 0.016617293
-0.15738797 -0.12517814 -0.13264479 -0.1256044 -0.080162965 -0.2910162 -0.059357993 -0.13816136
0.13665375 -0.054303125 -0.08497511 -0.11572574 0.14992484 -0.1619788 -0.09170926 0.038921162
-0.20390533 0.23095168 -0.005447696 -0.11517682 -0.045829106 -0.024346022 0.10462226 0.008565152
0.1013314 0.2849113 0.117934 -0.05984241 -0.15217124 0.030536864 -0.05976477 0.027762912
0.07681966 -0.21346444 0.0035500391 0.03688817 -0.07743235 0.0068722903 0.1303284 0.26091242
0.028938476 -0.15155359 -0.23789418 -0.28681803 -0.19742905 -0.104641885 0.22794753 -0.05749455
-0.25343928 -0.14240925 0.10151688 -0.14231536 -0.23385888 0.119244106 0.20014572 0.035959378
0.08632456 0.039714567 -0.01948787 0.016560925 -0.106174655 0.027631853 0.1488125 0.008086733
-0.28151712 -0.19586477 0.022455597 -0.003027269 0.010329871 0.08758405 0.19931075 -0.15278742
-0.0038260445 -0.15535155 0.064473525 0.14993472 -0.22677028 -0.16724105 0.02270275 -0.30508047
-0.08520451 -0.25941625 0.41592443 0.08476865 -0.051429547 0.21392845 0.04457924 -0.37439936
-0.061855 0.11752332 -0.1119687 -0.09997325 0.0049675326 -0.10740721 0.0021824646 -0.11620002
-0.3496018 0.06646951 -0.0062176413 0.03215679 -0.21786465 -0.101198606 -0.21410084 0.075631164
-0.019754412 -0.032202248 -0.2003054 0.11141722 -0.19722907 0.051972065 -0.11430689 0.21124522
0.042747155 -0.056564633 -0.10466401 0.07142158 0.22538447 0.28483194 -0.4370272 0.03122173
-0.11697658 -0.19391102 0.28400812 0.009309712 -0.010019364 -0.0716415 -0.16712672 -0.0036133195
-0.09268818 -0.030697845 0.11309429 -0.14543338 -0.0028105448 -0.33036977 0.10291025 -0.009875873
-0.11384623 0.2132219 -0.07602653 -0.16573814 0.013624816 0.03872625 -0.27811936 0.094347425
-0.300229 -0.10105386 0.084836125 -0.1104371 0.02378634 -0.08987879 -0.0033577553 -0.17375061
0.21469016 0.079146355 0.12195108 -0.028030394 -0.27609614 0.03903879 -0.22245203 -0.23957093
-0.24314393 0.073675744 -0.21011914 0.05198542 0.06656096 0.18543412 0.06894475 0.063002065
00000000: ddf4 453d 682d 3ebe 1164 e83d 13a8 8fbe
00000010: 9184 86bd 1eec 513d 0ba5 893c 9a71 fe3d
00000020: d16c 1f3e 4280 17bb 6fb8 26be d093 6dbe
00000030: 83b1 723d f2f3 8ebe 648d e8bd 687f 813d
00000040: 0db8 03be ee58 bc3b 34cc 033e cff8 e5ba
00000050: bf6c 1d3e af6c 493e 90af 8dbe 0c94 fa3c
00000060: b286 463d 02a3 633e d8de 31be d640 27be
00000070: 69cb 833d af59 aa3d 2b6d 71be fa8e 123d
00000080: 61f3 313e 5142 663e c621 fa3b d35a 853d
00000090: 72a8 353e 46d7 8c3b 47d5 8b3e fac6 d93d
000000a0: df07 d9bd cf4a 6cba 4d04 4b3e 7ce1 a5bd
000000b0: a2cd 47bc fd08 0f3d 9a0e b3be f966 f4be
000000c0: 06ba 68bd def2 51be c4a3 d33c e9a1 3d3e
000000d0: cd2e 9ebd a6bc ff3e 60a8 bb3c f851 03be
000000e0: eb95 a33e 99ff 22be ad1c 41bd 042a f4bc
000000f0: 17b1 a5bd eaf5 3cbd cb2b b43c cad0 033e
00000100: ad95 a33d d90a c13e e490 203e a91c 1c3e
00000110: 2242 b83c 3244 03be 0f6c 37be 5f83 843e
00000120: 1a89 233d 8b01 bc3c f215 c13e 8d6b 65be
00000130: 4eff c5bd 6df3 6cbd b748 4dbd 61f8 00bd
00000140: d569 1ebd eca8 4f3d 95df 70bd 1e57 463e
00000150: 31e1 fcbc b9bd 893d 5229 1cbe fd20 883c
00000160: 502a 21be b32e 00be 09d4 07be 719e 00be
00000170: 7b2c a4bd 1300 95be 5e21 73bd 2c7a 0dbe
00000180: f6ee 0b3e f46c 5ebd 6e07 aebd 9e01 edbd
00000190: e685 193e c5dd 25be 11d2 bbbd cc6b 1f3d
000001a0: 8fcc 50be 997e 6c3e 9682 b2bb d3e1 ebbd
000001b0: 4db7 3bbd 4f71 c7bc 3244 d63d da54 0c3c
000001c0: d686 cf3d e5df 913e 6287 f13d 511d 75bd
000001d0: c7d2 1bbe 7228 fa3c e7cb 74bd 0c6f e33c
000001e0: a053 9d3d 6c96 5abe c6a7 683b 0d18 173d
000001f0: da94 9ebd f330 e13b cf74 053e 5096 853e
00000200: 6210 ed3c dd30 1bbe 889a 73be d0d9 92be
00000210: d72a 4abe 7c4e d6bd 146b 693e 687f 6bbd
00000220: cbc2 81be bbd3 11be 15e8 cf3d 1ebb 11be
00000230: b478 6fbe 4136 f43d 00f3 4c3e 244a 133d
00000240: eeca b03d beab 223d 07a5 9fbc c7aa 873c
00000250: 1972 d9bd 325c e23c 4e62 183e 377e 043c
00000260: 0323 90be c690 48be cdf4 b73c 2565 46bb
00000270: 9f3e 293c 445f b33d 1e18 4c3e 4e74 1cbe
00000280: 60be 7abb 7a14 1fbe b20a 843d 7d88 193e
00000290: 7836 68be 3d41 2bbe 1efb b93c 8233 9cbe
000002a0: b47f aebd 35d2 84be 0cf4 d43e 309b ad3d
000002b0: caa7 52bd 0f10 5b3e b998 363d 46b1 bfbe
000002c0: ab5b 7dbd 11b0 f03d d94f e5bd c6be ccbd
000002d0: afc6 a23b 50f8 dbbd ae07 0f3b 47fa edbd
000002e0: 02ff b2be 2b21 883d 5bbd cbbb d7b6 033d
000002f0: e917 5fbe 3741 cfbd 403d 5bbe 83e4 9a3d
00000300: 01d4 a1bc 81e6 03bd dc1c 4dbe b62e e43d
00000310: 6bf6 49be a9e0 543d bb19 eabd ab50 583e
00000320: a417 2f3d 51b0 67bd 165a d6bd 7a45 923d
00000330: 30cb 663e 7ed5 913e 07c2 dfbe b7c4 ff3c
00000340: 6b91 efbd 9c90 46be 8369 913e c387 183c
00000350: 4228 24bc c7b8 92bd 4423 2bbe 71cd 6cbb
00000360: 4dd3 bdbd 0c7a fbbc fb9d e73d 7dec 14be
00000370: 1e31 38bb 3a26 a9be 9cc2 d23d 6ace 21bc
00000380: 3628 e9bd d756 5a3e ccb3 9bbd 42b7 29be
00000390: 9f3a 5f3c 6b9f 1e3d a965 8ebe 3939 c13d
000003a0: 9eb7 99be 53f5 cebd 90be ad3d d92c e2bd
000003b0: 92db c23c 5f12 b8bd c90d 5cbb aeeb 31be
000003c0: bdd7 5b3e 7c17 a23d 7dc1 f93d ff9f e5bc
000003d0: 795c 8dbe 23e7 1f3d 77ca 63be 1552 75be
000003e0: b9fa 78be 4fe3 963d 7929 57be aaee 543d
000003f0: 1d51 883d 71e2 3d3e e832 8d3d 3a07 813d

conv2.bias f4 [32]
0.00021629516 0.00056387397 -0.0009028717 -1.2941455e-06 -0.00067352806 -0.00039514518 -0.0005277168 1.5369653e-05
3.1863376e-05 -5.7753543e-05 0.0001530124 -0.00017327169 -0.0007502253 0.00016837401 -0.0003313685 -1.8544612e-05
0.0006119459 0.0004857655 -0.00044933398 -0.00010634841 -0.00060300395 -0.00036736636 0.00021421563 -0.00065013923
0.00038062455 -0.000844833 -0.0010684648 -0.00045664224 0.00015872948 -1.3586265e-05 -8.84118e-05 0.0006124886
00000000: 4acd 6239 f1d0 133a b2ae 6cba 80b2 adb5
00000010: b48f 30ba 7d2b cfb9 7a56 0aba 14ee 8037
00000020: 0aa5 0538 653c 72b8 f471 2039 44b0 35b9
00000030: c5aa 44ba 8e8d 3039 87bb adb9 4090 9bb7
00000040: ff6a 203a 57ae fe39 9694 ebb9 5e07 dfb8
00000050: e912 1eba 149b c0b9 129f 6039 1b6e 2aba
00000060: 908e c739 c877 5dba bb0b 8cba 7c69 efb9
00000070: 9f70 2639 90f0 63b7 b969 b9b8 6a8f 203a

bn2.weight f4 [32]
1.393383 1.5975282 1.543339 1.4458058 1.5786709 1.5156577 1.5149925 1.6381134
1.5267736 1.6529006 1.3812574 1.6059436 1.5773698 1.5498443 1.4074308 1.7115887
1.5335634 1.4726402 1.679705 1.3759348 1.6277307 1.4994506 1.4664301 1.474524
1.5496635 1.5095549 1.6766758 1.5761459 1.6086572 1.600471 1.5214514 1.6630222
00000000: 605a b23f ce7b cc3f 228c c53f 2a10 b93f
00000010: e311 ca3f 1201 c23f 46eb c13f b3ad d13f
00000020: 516d c33f 3f92 d33f 0bcd b03f 8f8f cd3f
00000030: 41e7 c93f 4c61 c63f b126 b43f 5715 db3f
00000040: ce4b c43f 797f bc3f 9300 d73f a21e b03f
00000050: 7b59 d03f ffed bf3f fbb3 bb3f 34bd bc3f
00000060: 605b c63f 1839 c13f 509d d63f 26bf c93f
00000070: 7be8 cd3f 3cdc cc3f ebbe c23f e9dd d43f

bn2.bias f4 [32]
-0.44590437 -0.44184414 -0.482033 -0.5283916 -0.46029055 -0.48337102 -0.7795611 -0.5520449
-0.5267787 -0.8729648 -0.5107084 -0.7810655 -0.49330008 -0.5200062 -0.28814274 -0.6232907
-0.47906062 -0.6057083 -0.5507121 -0.5338322 -0.5866516 -0.6324565 -0.539178 -0.5511038
-0.4792521 -0.54272574 -0.894044 -0.8240336 -0.62707025 -0.3443751 -0.3714238 -0.7454147
00000000: 944d e4be 6539 e2be 08cd f6be ac44 07bf
00000010: 34ab ebbe 687c f7be 5191 47bf d152 0dbf
00000020: f8da 06bf 9f7a 5fbf c9bd 02bf e9f3 47bf
00000030: d491 fcbe 201f 05bf 7287 93be fb8f 1fbf
00000040: 6f47 f5be b30f 1bbf 78fb 0cbf 3aa9 08bf
00000050: cd2e 16bf abe8 21bf 9207 0abf 2315 0dbf
00000060: 8860 f5be 13f0 0abf 11e0 64bf def3 52bf
00000070: ad87 20bf ef51 b0be 432b bebe 7fd3 3ebf

bn2.running_mean f4 [32]
-0.47702378 -0.94303316 -0.010094747 -0.2053308 -0.5110062 -0.42667633 -0.052118372 -0.3742108
-0.71060264 0.44729933 0.09473557 -0.14672795 -1.1591871 0.7853076 -0.8458106 -0.19149917
0.24391685 -0.46451184 -0.76793003 0.023046661 -0.52181184 0.15864137 -0.45632017 -0.7471049
-1.2488836 -0.5108394 1.2341628 0.17504291 -0.29704285 -1.213289 -0.90710706 0.115842484
00000000: 763c f4be 9f6a 71bf 7064 25bc 3d42 52be
00000010: 4dd1 02bf 5275 dabe 137a 55bd 8f98 bfbe
00000020: 0eea 35bf 6b04 e53e b904 c23d da3f 16be
00000030: 3e60 94bf eb09 493f 0b87 58bf 5c18 44be
00000040: 57c5 793e 7fd4 edbe 1097 44bf 5acc bc3c
00000050: 7695 05bf e272 223e cca2 e9be 4442 3fbf
00000060: 6bdb 9fbf 5fc6 02bf 0cf9 9d3f 733e 333e
00000070: 0016 98be 0e4d 9bbf 2b38 68bf d33e ed3d

bn2.running_var f4 [32]
0.52083784 0.837972 0.45301446 0.47030962 0.42108193 0.6153281 0.37507492 0.5468521
0.729949 0.48815185 0.547196 0.4900504 0.6123863 0.54741013 0.84724265 0.3491188
0.5275204 0.49041745 0.63345814 0.47551483 0.5908173 0.61049837 0.7329858 0.49778202
0.7931791 0.6212069 0.6369493 0.4388913 0.48569572 1.1219124 0.624581 0.4346148
00000000: a155 053f 5585 563f 83f1 e73e 6ccc f03e
00000010: 0d98 d73e 2486 1d3f d209 c03e 80fe 0b3f
00000020: f0dd 3a3f 0aef f93e 0915 0c3f e3e7 fa3e
00000030: 59c5 1c3f 1223 0c3f e5e4 583f b3bf b23e
00000040: 940b 073f ff17 fb3e 502a 223f ae76 f33e
00000050: cd3f 173f 9f49 1c3f f5a4 3b3f 49dd fe3e
00000060: c90d 4b3f 6a07 1f3f 1c0f 233f 5cb6 e03e
00000070: 1cad f83e d39a 8f3f 8ae4 1f3f d585 de3e

fc1.weight f4 [128, 480]
-0.12196247 0.063925385 -0.038905434 -0.119614065 0.10547822 0.07939628 -0.0635429 -0.10274998
-0.043448854 -0.22570136 0.14201507 0.06984139 -0.16919483 0.018530454 -0.20694438 -0.0043866364
-0.33931148 -0.078662366 0.028871268 -0.10796499 -0.14450885 -0.057366744 -0.05201907 0.34628078
-0.060207997 0.1326542 0.28694826 -0.09599021 0.26585922 -0.057918683 0.069413275 0.07292903
0.025868451 -0.011058702 -0.11182113 -0.010256046 -0.06269748 0.037657734 0.27357566 -0.24698713
0.041275233 0.19937699 -0.0075172787 -0.20368436 0.09265391 0.02949264 -0.052584503 0.17644127
0.04504368 -0.08414097 0.002733868 0.21474263 0.11614252 0.17062022 0.03025273 -0.11139013
-0.11337783 -0.39514798 0.2115333 -0.040372852 0.21851961 -0.10652881 -0.07126284 0.016387263
-0.05150123 0.14095438 -0.06857385 0.0093764905 -0.095269956 0.09966531 0.038961697 0.20432125
-0.11348437 -0.16761689 -0.1561166 -0.08873845 0.16822445 -0.022257805 -0.03308236 0.04042997
0.21493366 -0.06216115 0.10700095 -0.15997148 0.055575125 -0.09042403 0.062335566 -0.13357385
-0.18923157 0.056835394 0.0903586 0.14948554 -0.052462775 -0.2197967 -0.091155864 0.030820029
0.1743254 -0.03747523 0.025481153 -0.17146531 -0.09342731 -0.14691421 -0.097110674 -0.14042333
-0.013259454 0.08894546 0.107216775 -0.2640913 0.05266418 0.09699721 0.0068154926 0.024168931
0.10809973 -0.28775918 -0.1587904 -0.06750081 0.26994753 -0.066388726 0.1882861 0.2546058
-0.047438227 -0.027440261 0.14392658 -0.2598944 0.11223709 -0.15160765 -0.04332613 0.1348385
0.050267573 0.1551048 0.022353215 -0.17707545 -0.051056392 -0.098871894 0.1712898 -0.123683296
-0.05314151 0.0355509 0.20255336 -0.024788212 0.12714127 -0.0722237 -0.028761974 0.07909122
0.031692527 0.18906146 0.09976097 -0.12559938 0.34784526 0.0023721831 -0.03662494 0.009427875
-0.06321528 -0.016273273 0.098064385 0.22003536 0.15877421 -0.047593676 0.13890499 -0.13914298
-0.25901222 0.22859247 0.06497031 0.1226931 0.4478869 0.00672228 -0.05373211 -0.16516851
-0.1029685 0.19274779 0.0837134 -0.20210984 -0.125178 -0.010264471 0.2006386 -0.047964815
-0.03785736 0.19017161 0.02636945 0.08137732 0.0444768 0.022528881 -0.089845106 0.08762582
-0.06960144 -0.10318479 -0.06123299 -0.11523216 -0.016436059 0.048476778 -0.029537518 -0.09197222
-0.15928751 0.20713452 0.14517224 -0.056578048 0.13183174 0.035500523 0.14335229 0.21352704
0.17541485 -0.24566403 -0.09240604 0.12624983 0.1518685 -0.056947447 0.023154516 -0.08632965
0.032236494 0.61166304 -0.07342881 0.02324709 -0.08473398 0.18479498 -0.063726306 0.00976474
-0.006951313 0.15885937 -0.22804552 -0.079354584 -0.11534302 0.1242398 -0.101547375 0.25442165
0.00021243819 -0.0053330897 0.046681512 -0.0022413481 0.06480363 0.3361254 -0.069276534 0.026012192
0.06814088 -0.17296223 0.1785612 0.055472918 -0.17944211 -0.04858773 -0.095984116 0.23708616
0.28024384 -0.047641043 -0.18290977 0.04822754 0.09636664 0.12384382 0.026375193 -0.034013655
-0.28594998 0.023417244 -0.024261445 0.12040373 0.24265543 -0.3216194 0.2043638 -0.03775562
00000000: 76c7 f9bd 50eb 823d 4e5b 1fbd 38f8 f4bd
00000010: f704 d83d 849a a23d c822 82bd 956e d2bd
00000020: 6df7 31bd 421e 67be 666c 113e 0109 8f3d
00000030: 6941 2dbe 2ecd 973c 3ae9 53be c6bd 8fbb
00000040: 3cba adbe bc19 a1bd 7083 ec3c c01c ddbd
00000050: 21fa 13be 64f9 6abd f311 55bd b74b b13e
00000060: a99c 76bd 81d6 073e e2ea 923e 8496 c4bd
00000070: b31e 883e 243c 6dbd 8c28 8e3d d15b 953d
00000080: 13ea d33c 8f2f 35bc 7a02 e5bd fa08 28bc
00000090: 8967 80bd ff3e 1a3d 1c12 8c3e 32ea 7cbe
000000a0: 3810 293d 7b29 4c3e 8153 f6bb a292 50be
000000b0: 55c1 bd3d 8d9a f13c d962 57bd 05ad 343e
000000c0: b97f 383d 1a52 acbd b22a 333b 7ee5 5b3e
000000d0: 21dc ed3d 11b7 2e3e 93d4 f73c 8220 e4bd
000000e0: a332 e8bd d650 cabe 2f9c 583e 015e 25bd
000000f0: 9bc3 5f3e c72b dabd 40f2 91bd 953e 863c
00000100: f4f2 52bd 5856 103e 7270 8cbd da9f 193c
00000110: e51c c3bd 531d cc3d 4d96 1f3d 9739 513e
00000120: 7e6a e8bd c3a3 2bbe 08dd 1fbe 81bc b5bd
00000130: 0843 2c3e 0056 b6bc 5e81 07bd e599 253d
00000140: 9217 5c3e b19c 7ebd 5023 db3d 90cf 23be
00000150: bea2 633d 3c30 b9bd 9453 7f3d 95c7 08be
00000160: ecc5 41be 3bcc 683d ee0d b93d bd12 193e
00000170: 35e3 56bd 6312 61be edaf babd 497a fc3c
00000180: 5c82 323e a07f 19bd dabd d03c 9a94 2fbe
00000190: d156 bfbd ae70 16be f6e1 c6bd 22cb 0fbe
000001a0: 2e3e 59bc 0a29 b63d 7894 db3d fa36 87be
000001b0: 65b6 573d 79a6 c63d 7f54 df3b ecfd c53c
000001c0: 6463 dd3d 2c55 93be f399 22be dd3d 8abd
000001d0: 9036 8a3e d0f6 87bd 12ce 403e b15b 823e
000001e0: 964e 42bd 66ca e0bc 7d61 133e e110 85be
000001f0: 8fdc e53d 093f 1bbe bd76 31bd 1b13 0a3e
00000200: 5fe5 4d3d cbd3 1e3e 171e b73c 4453 35be
00000210: 8220 51bd 597d cabd 9866 2f3e ab4d fdbd
00000220: e9aa 59bd d29d 113d 266a 4f3e a610 cbbc
00000230: 5231 023e 05ea 93bd 3b9e ebbc 94fa a13d
00000240: 06d0 013d 5499 413e 7b4f cc3d 209d 00be
00000250: c618 b23e a176 1b3b 0804 16bd 6077 1a3c
00000260: 0377 81bd 874f 85bc fbd5 c83d f350 613e
00000270: b595 223e 96f1 42bd 1c3d 0e3e 7f7b 0ebe
00000280: 409d 84be 2514 6a3e 270f 853d 8546 fb3d
00000290: 6f51 e53e 9246 dc3b 3316 5cbd ef21 29be
000002a0: 26e1 d2bd ad5f 453e ee71 ab3d e2f5 4ebe
000002b0: a92e 00be 502c 28bc 3574 4d3e c176 44bd
000002c0: 5210 1bbd 59bc 423e bf04 d83c 27a9 a63d
000002d0: 4e2d 363d 7d8e b83c b600 b8bd 2a75 b33d
000002e0: 338b 8ebd 8c52 d3bd 72cf 7abd d7fe ebbd
000002f0: eaa4 86bc 968f 463d aaf8 f1bc ee5b bcbd
00000300: 441c 23be 121b 543e 08a8 143e 62be 67bd
00000310: e6fe 063e ff68 113d f1ca 123e d5a6 5a3e
00000320: f39f 333e 5a8f 7bbe 613f bdbd a347 013e
00000330: 6b83 1b3e ba41 69bd 8aae bd3c 99cd b0bd
00000340: 6a0a 043d f395 1c3f d861 96bd ae70 be3c
00000350: 0289 adbd e53a 3d3e f082 82bd 4afc 1f3c
00000360: d7c7 e3bb 08ac 223e c484 69be a884 a2bd
00000370: f638 ecbd 7071 fe3d 12f8 cfbd 8e43 823e
00000380: f1c1 5e39 33c1 aebb 1d35 3f3d 95e3 12bb
00000390: c4b7 843d a118 ac3e dbe0 8dbd 8517 d53c
000003a0: 728d 8b3d 031d 31be bfd8 363e 9237 633d
000003b0: acbf 37be ed03 47bd 5293 c4bd b7c6 723e
000003c0: 1f7c 8f3e 4123 43bd b34c 3bbe 3e8a 453d
000003d0: df5b c53d d4a1 fd3d ca10 d83c e751 0bbd
000003e0: 0968 92be 85d5 bf3c f0bf c6bc 3b96 f63d
000003f0: aa7a 783e 4cab a4be be44 513e a3a5 1abd

fc1.bias f4 [128]
-0.064688325 0.055124 0.05943881 0.04811222 -0.033304326 0.07012614 0.05412699 -0.006469316
0.051928274 -0.0090594655 0.068013914 0.099947505 0.05419343 -0.008852567 0.0072717792 0.016452476
-0.06769313 0.026907705 -0.06829044 -0.01786209 -0.063373975 -0.0028701145 0.001229107 -0.029331218
0.01053189 -0.06261255 0.039933406 -0.02526193 -0.023455705 0.0032181446 0.062973484 0.0016514007
-0.07249122 -0.024931122 0.042611722 -0.03618124 -0.0029909478 0.014527579 -0.062176403 -0.021197496
-0.006054454 0.099463224 -0.027049454 -0.028053375 -0.048561063 0.004013449 0.08013422 -0.08300267
0.03604691 0.042757418 -0.0486829 -0.023717852 0.038129203 -0.010119375 0.04034785 -0.014285038
-0.049035303 -0.13170041 -0.10418803 0.08719838 0.064757906 0.04463179 -0.04025578 0.02399743
0.011100049 -0.040248994 0.0045038657 -0.066833064 0.09815405 -0.023076653 0.06272476 -0.1314562
-0.0027255677 4.970731e-05 0.0021991928 -0.059171364 0.025449496 -0.018170137 -0.06283375 0.011534392
-0.020015078 -0.03401223 -0.040003125 -0.0833649 0.00082839903 -0.07420951 0.06715915 -0.020785725
0.031720936 0.03941714 -0.035943396 -0.03797354 -0.009706766 -0.03878496 -0.0033422085 0.052599452
-0.01463829 0.010759463 -0.016620204 -0.08439371 -0.0012619036 -0.0039748005 0.025430065 -0.004186941
0.0419455 0.054692414 0.002277214 0.03812557 0.046673056 0.019393953 -0.007277759 0.023255726
-0.019723356 -0.003883088 -0.033102952 -0.07155919 0.05148374 -0.036198568 0.03029063 -0.03612732
-0.042790256 0.060392894 -0.030375887 -0.024392972 -0.03660316 0.05900312 0.006547156 -0.0139353825
00000000: 507b 84bd b4c9 613d 1c76 733d 5211 453d
00000010: 1e6a 08bd 4b9e 8f3d 43b4 5d3d 8efc d3bb
00000020: beb2 543d 276e 14bc e14a 8b3d 47b1 cc3d
00000030: eef9 5d3d 5b0a 11bc 1b48 ee3b 58c7 863c
00000040: b2a2 8abd 8c6d dc3c dcdb 8bbd 8553 92bc
00000050: 37ca 81bd 8818 3cbb fd19 a13a 0648 f0bc
00000060: f38d 2c3c 023b 80bd 3691 233d 1bf2 cebc
00000070: 2e26 c0bc 82e7 523b 3ef8 803d d073 d83a
00000080: 4776 94bd 5a3c ccbc a189 2e3d c832 14bd
00000090: c703 44bb 1505 6e3c afac 7ebd 5fa6 adbc
000000a0: 7164 c6bb 60b3 cb3d d196 ddbc 31d0 e5bc
000000b0: f7e7 46bd 4083 833b 691d a43d 4efd a9bd
000000c0: eda5 133d 6722 2f3d b867 47bd f14b c2bc
000000d0: 5e2d 1c3d bccb 25bc ca43 253d cb0b 6abc
000000e0: 3ed9 48bd 79dc 06be 8960 d5bd 1095 b23d
000000f0: cb9f 843d d3cf 363d 3fe3 24bd 4296 c43c
00000100: fbdc 353c 21dc 24bd 2a95 933b c6df 88bd
00000110: fe04 c93d 400b bdbc d775 803d 749c 06be
00000120: 709f 32bb d17c 5038 5520 103b ac5d 72bd
00000130: 767b d03c 8ad9 94bc fbae 80bd bffa 3c3c
00000140: a9f6 a3bc 6850 0bbd 51da 23bd 37bb aabd
00000150: eb28 593a 28fb 97bd bd8a 893d d346 aabc
00000160: d0ed 013d de73 213d 6239 13bd 258a 1bbd
00000170: 2109 1fbc fadc 1ebd f408 5bbb 8672 573d
00000180: 70d5 6fbc 7548 303c 1827 88bc 9cd6 acbd
00000190: 7566 a5ba 0b3f 82bb b652 d03c 9b32 89bb
000001a0: 0bcf 2b3d 2705 603d 503d 153b 8f29 1c3d
000001b0: 3f2c 3f3d 11e0 9e3c 447a eebb cb82 be3c
000001c0: e092 a1bc 687b 7ebb f696 07bd a08d 92bd
000001d0: 9de0 523d f344 14bd 0e24 f83c 3efa 13bd
000001e0: d644 2fbd 8a5e 773d dad6 f8bc c5d3 c7bc
000001f0: 32ed 15bd 41ad 713d 8689 d63b 3b51 64bc

fc2.weight f4 [3, 128]
-0.027041906 0.052921303 -0.08790863 0.043508522 0.07374444 -0.0017427591 0.048794646 0.057272974
-0.073337466 0.10523094 -0.07511012 0.051544785 -0.022819586 -0.06343371 0.081601314 0.028862622
0.08780387 -0.087153174 -0.06724002 0.09540434 -0.024379348 0.101211496 0.11969262 0.10313165
-0.093633845 0.021989452 -0.05212554 -0.09234616 -0.01257271 -0.039203294 0.0637215 -0.0025354659
-0.07004724 -0.015230464 0.10008541 0.025464533 0.04403844 0.10945242 0.036596242 -0.040078327
0.048937436 -0.12720574 0.022154052 -0.014675479 0.023222445 0.040989403 0.030945593 -0.027246648
-0.043033388 -0.054928087 0.002943323 0.073137306 0.017895507 0.11554774 0.048136067 0.051548664
-0.05533055 -0.05585627 -0.05082274 -0.040955592 -0.04521738 0.058684047 0.028477646 0.027667807
0.07774689 -0.013028308 0.05542032 -0.0015004042 -0.07743777 0.07134079 -0.003411949 0.1377154
0.07992108 -0.049902987 -0.07560055 -0.10287581 0.026743932 0.059681386 -0.010241974 -0.053801075
0.060606193 -0.07850035 -0.025969755 -0.05104746 -0.083590165 -0.09802781 -0.05137001 0.049137503
0.041941024 -0.11174355 0.0023320406 0.09677238 -0.044786777 0.071337186 0.064716086 -0.06400587
0.054761298 0.13816045 0.0016107176 -0.019588232 -0.10534977 -0.07346746 -0.011131315 -0.018164814
-0.038697906 -0.017936934 0.038038407 0.02744124 0.00019885352 -0.052867 0.009823632 0.071113445
0.029151736 0.00073844683 -0.08963843 -0.017996157 -0.031760886 -0.027617581 0.11578246 -0.04634272
-0.038101926 -0.061652802 -0.061158355 0.06341793 0.042264197 -0.039204825 0.05162751 0.046106223
0.053663988 -0.05103321 0.035458148 -0.07170619 -0.06361778 0.08400892 -0.049939316 -0.013868127
0.06692116 0.06442743 -0.066635065 -0.032974225 -0.037207037 0.05564408 0.054626774 0.0069492594
0.072730705 -0.004343163 0.033715706 -0.007619811 -0.018268256 -0.017783565 -0.008294805 0.015673405
0.01779529 0.04529045 -0.009510239 0.048575047 0.073091544 0.03759524 -0.07368001 -0.024284387
0.03384596 0.020472808 -0.011481984 0.020444922 0.010164724 -0.0053657307 -0.10291534 0.047630303
0.02903685 -0.0057376577 -0.021624422 0.05321805 0.03881057 -0.07118691 -0.09306587 0.11329053
0.013698951 -0.022565052 -0.075904205 0.07841075 -0.071991175 0.009635746 -0.06709287 -0.038333155
-0.050295856 0.06444548 0.0710696 -0.04726907 0.08204718 -0.04072799 -0.10065591 0.09341954
0.046794567 0.036806405 -0.0103236195 0.06801211 -0.03794877 0.019828321 -0.02613667 0.017641338
-0.014823198 -0.039133493 0.03935706 0.004660259 0.06545818 -0.015108758 0.027458621 0.06914964
-0.0445607 -0.023654776 0.090868995 -0.024048286 0.0200866 0.03512556 0.021012465 0.086262666
0.043755848 0.0010312027 0.0065410286 -0.028718561 0.08735768 0.046395496 -0.027197162 0.029072035
0.068304785 0.012894557 0.071066536 0.028748773 0.010242238 -0.0328015 -0.049867902 0.093319006
0.090046965 -0.009026331 -0.04496423 0.038577 -0.04506323 0.08467667 -0.039837804 -0.058380187
-0.025485532 0.05717183 0.04613511 0.0557732 0.031822816 0.05615294 0.061697952 0.06549789
0.060032893 -0.060377643 -0.0053751525 0.0084406175 0.09135773 -0.039538115 -0.03995821 -0.06232668
00000000: fd86 ddbc 02c4 583d 7109 b4bd fe35 323d
00000010: 5307 973d 4b6d e4ba e5dc 473d 1197 6a3d
00000020: f431 96bd 5283 d73d 56d3 99bd a020 533d
00000030: 24f0 babc 88e9 81bd 971e a73d 4e71 ec3c
00000040: 84d2 b33d 5d7d b2bd 23b5 89bd 5a63 c33d
00000050: 33b7 c7bc f947 cf3d 6821 f53d b036 d33d
00000060: 1ac3 bfbd 3923 b43c 9781 55bd fc1f bdbd
00000070: c5fd 4dbc a293 20bd 6b80 823d 0f2a 26bb
00000080: ed74 8fbd 3289 79bc 94f9 cc3d ff9a d03c
00000090: a761 343d 9728 e03d f1e5 153d 2c29 24bd
000000a0: 9f72 483d 3942 02be 6a7c b53c 6c71 70bc
000000b0: ff3c be3c 81e4 273d 9d81 fd3c 5d34 dfbc
000000c0: c743 30bd 46fc 60bd c4e4 403b 03c9 953d
000000d0: 9999 923c 4ba4 ec3d 532a 453d b124 533d
000000e0: 49a2 62bd 8bc9 64bd 812b 50bd 0dc1 27bd
000000f0: dc35 39bd af5e 703d f449 e93c 99a7 e23c
00000100: c339 9f3d af74 55bc 6b00 633d 36a9 c4ba
00000110: b297 9ebd 1f1b 923d 019b 5fbb 4405 0d3e
00000120: aaad a33d 1367 4cbd 76d4 9abd 8db0 d2bd
00000130: 1716 db3c 7874 743d f4cd 27bc 845e 5cbd
00000140: 333e 783d cbc4 a0bd 86be d4bc 2417 51bd
00000150: 5231 abbd cec2 c8bd 5c69 52bd 6844 493d
00000160: 5aca 2b3d cdd9 e4bd 26d5 183b 9930 c63d
00000170: 5772 37bd 3b19 923d de89 843d 8215 83bd
00000180: 624d 603d ef79 0d3e b71e d33a 8077 a0bc
00000190: 9fc1 d7bd 1c76 96bd 1e60 36bc 60ce 94bc
000001a0: b281 1ebd 7af0 92bc 29ce 1b3d 74cc e03c
000001b0: 5683 5039 118b 58bd 4df3 203c eda3 913d
000001c0: 9fcf ee3c 5494 413a 5a94 b7bd ad6c 93bc
000001d0: b417 02bd 443e e2bc 5b1f ed3d ddd1 3dbd
000001e0: c410 1cbd a687 7cbd 2f81 7abd 42e1 813d
000001f0: 391d 2d3d 3d95 20bd 5e77 533d e1d9 3c3d
00000200: c5ce 5b3d 3308 51bd 903c 113d b2da 92bd
00000210: 0a4a 82bd de0c ac3d 2b8d 4cbd 2437 63bc
00000220: f60d 893d 87f2 833d f777 88bd fb0f 07bd
00000230: 6866 18bd 0ceb 633d 53c0 5f3d 9db6 e33b
00000240: d6f3 943d 1851 8ebb 7b19 0a3d 9caf f9bb
00000250: 4fa7 95bc d7ae 91bc efe6 07bc 8365 803c
00000260: 6ec7 913c 7b82 393d d5d0 1bbc a1f6 463d
00000270: 05b1 953d 77fd 193d 8ce5 96bd 0df0 c6bc
00000280: 10a2 0a3d 97b6 a73c ee1e 3cbc 1c7c a73c
00000290: f189 263c 03d3 afbb 47c5 d2bd fe17 433d
000002a0: b0de ed3c f602 bcbb b325 b1bc 2cfb 593d
000002b0: d5f7 1e3d 71ca 91bd 5299 bebd de04 e83d
000002c0: 9171 603c 58da b8bc aa73 9bbd d195 a03d
000002d0: 1c70 93bd 3fdf 1d3c fd67 89bd 3a03 1dbd
000002e0: 0703 4ebd fefb 833d f08c 913d 369d 41bd
000002f0: 5a08 a83d 65d2 26bd b024 cebd be52 bf3d
00000300: a9ab 3f3d 50c2 163d 6624 29bc ef49 8b3d
00000310: 2b70 1bbd 016f a23c 921c d6bc 9184 903c
00000320: 00dd 72bc 714a 20bd de34 213d 16b5 983b
00000330: f00e 863d b98a 77bc e7f0 e03c 549e 8d3d
00000340: 4885 36bd a9c7 c1bc 8619 ba3d e900 c5bc
00000350: a78c a43c d2df 0f3d 5522 ac3c 7baa b03d
00000360: 5539 333d 6c29 873a 2056 d63b 3043 ebbc
00000370: 95e8 b23d 3409 3e3d 95cc debc 7a28 ee3c
00000380: 61e3 8b3d b143 533c 558b 913d 8c82 eb3c
00000390: 0fcf 273c de5a 06bd 4942 4cbd 091e bf3d
000003a0: 8b6a b83d 2de3 13bc 6a2c 38bd eb02 1e3d
000003b0: 3994 38bd f66a ad3d f72c 23bd 1020 6fbd
000003c0: 09c7 d0bc 022d 6a3d 2bf8 3c3d 7072 643d
000003d0: a458 023d a000 663d feb6 7c3d c223 863d
000003e0: 0de5 753d 8c4e 77bd 0c22 b0bb 844a 0a3c
000003f0: c319 bb3d b8f2 21bd 38ab 23bd 434a 7fbd

fc2.bias f4 [3]
-0.11170309 -0.021318976 -0.009136639
00000000: 97c4 e4bd 22a5 aebc d7b1 15bc
