results/valence/classification_3/20251225_133003_675610/best_model.pt (torch, 683445 bytes, 16 tensors)

conv1.weight f4 [16, 1, 3, 3]
000000 c3 2a 9c 3e 1a 7a 84 3e 7e 67 ae be b4 65 6b 3e
       0.30501375 0.25874406 -0.34063333 0.22988015
000010 63 4d ff bc 00 90 2d 3d 52 34 a4 be 46 7d af 3c
       -0.03116483 0.042373657 -0.32071167 0.02142204
000020 fd da da 3e 73 74 a0 be 4a 28 b9 3e 45 d3 e5 3c
       0.427452 -0.31338844 0.3616355 0.028054843
000030 7a 71 64 3e 98 af 71 bd ff e3 89 3e f9 36 78 bd
       0.22308913 -0.05900535 0.2693176 -0.0605993
000040 ba fe db 3e b0 5c 25 be cf 74 d1 3c 5e 8e 26 3e
       0.42967778 -0.16148639 0.025568394 0.16265246
000050 f1 80 6e be de 01 93 bd 12 9c 8b be 01 ec c1 3e
       -0.23291375 -0.071780905 -0.2726751 0.3787537
000060 da f6 2c be 8a b1 97 be 39 13 2c be 79 3c f8 bd
       -0.16891041 -0.2962764 -0.16804208 -0.12120909
000070 68 cf a4 bb a0 97 f3 be ab 79 92 3e 0e e3 9e be
       -0.0050296076 -0.47576618 0.2860845 -0.31032604
000080 92 f1 c3 3e d1 31 b5 3d 7e 19 ce bd bf d4 b4 3e
       0.3827024 0.08847392 -0.10063456 0.35318562
000090 b0 87 d4 3c 75 c0 b1 3e 5c f4 f3 3b 9f 15 73 be
       0.025943607 0.34717146 0.0074449014 -0.23738717
0000a0 ac 2b 55 3d 00 a7 8c be 58 cc e8 3d fc dd a1 3e
       0.052043602 -0.2747116 0.113671005 0.31614673
0000b0 7d dd aa 3e 9d 4f ed bc 3b c3 61 3e b8 d6 1b 3e
       0.33372107 -0.028968627 0.22047131 0.15218627
0000c0 7f 6f e6 3d b3 da 6a be 34 6e e2 be 0d 79 5c bd
       0.11251735 -0.2293499 -0.44224703 -0.05382638
0000d0 5e aa b9 be 62 af e3 3e 65 b8 b2 3d 46 3c 66 3e
       -0.36262792 0.44469744 0.08726577 0.2248393
0000e0 06 03 75 3e 9c 0d 9c 3c a4 35 95 3e 40 76 cc be
       0.23926935 0.019049458 0.29142487 -0.39933968
0000f0 3b 27 3b bd b1 60 99 be 2d c8 d1 3d e6 94 13 bd
       -0.04569171 -0.29956582 0.102432586 -0.036030672
000100 6b 2e ca bd 21 ec 45 be b3 83 7d 3e 39 20 e0 bd
       -0.09872135 -0.19328357 0.2475727 -0.10943646
000110 83 91 cb be 4d 9a 3c be 79 a9 f9 3e 7e 12 52 3e
       -0.39759454 -0.18418236 0.4876211 0.20514867
000120 cf e7 61 3e 6f 0f a0 be 1d f2 ad be 7f 38 55 be
       0.22061084 -0.31261775 -0.3397378 -0.20822333
000130 f6 da 8c be f8 0f ef 3d 0b 84 84 3e 64 78 fa 3e
       -0.27510804 0.11672968 0.2588199 0.48919976
000140 a6 b8 80 be a7 c7 0f be e3 31 5a 3e 3a b3 3b be
       -0.25140876 -0.14041005 0.21308093 -0.18330088
000150 04 e8 19 3e b5 76 44 bd 34 4e df 3e 60 ac 75 be
       0.15029913 -0.04796477 0.43614352 -0.23991537
000160 63 1c c1 be ed 3b ff 3d bd 55 3a 3d b3 05 ed 3c
       -0.3771697 0.12462602 0.045491923 0.028933382
000170 a7 fb e3 3e 4f 22 74 3e 5a ef 9f be 4e 38 64 be
       0.44527933 0.23841213 -0.31237298 -0.22287104
000180 e2 97 9d 3e f2 2b 0d be d8 60 4e be bc 00 35 be
       0.3077994 -0.13786295 -0.2015413 -0.17676061
000190 6e 58 82 be fd 47 c2 3e b4 5d 25 3e 8c 7f c8 be
       -0.25458091 0.37945548 0.16149026 -0.3915981
0001a0 01 4b b7 3d 68 63 52 3c 48 d2 dc be 07 0f 0a be
       0.08949853 0.012841083 -0.43129182 -0.13482295
0001b0 c7 97 02 be 45 93 61 be ae 38 0e 3f 72 4f 06 bc
       -0.12753211 -0.22028835 0.55555236 -0.008197652
0001c0 69 6d 14 3e 7d 95 e9 be 80 e8 9d bd bf 1f b5 bc
       0.14494862 -0.45621863 -0.077103615 -0.022109864
0001d0 66 a6 e8 bd b5 c5 4a be 3c 32 78 bd ac 44 10 bf
       -0.11359863 -0.19801982 -0.060594782 -0.56354785
0001e0 c6 b2 dd bc 81 11 00 3e 2c 88 99 bd d3 9d 80 be
       -0.027062785 0.12506677 -0.07496676 -0.2512041
0001f0 8a 48 a3 be 41 3e 13 be cd 63 59 be 28 8f bf be
       -0.3189128 -0.14379217 -0.21229477 -0.37413907
000200 c6 46 9e 3e ff 93 db bd c2 0d b6 3e fd b2 a2 3e
       0.3091337 -0.107215874 0.3555737 0.31777182
000210 79 83 5d be cf 17 70 3e d4 66 ee bd b4 31 d1 bd
       -0.21632184 0.23446582 -0.11640707 -0.10214558
000220 c9 ac b8 be 74 7d ac be f2 0a 48 3d c8 39 0e bd
       -0.36069325 -0.33689463 0.048838563 -0.034723073
000230 a6 35 85 3e 6f d5 fd bd db 0b d7 3e 26 2e c6 be
       0.26017493 -0.12394225 0.42001233 -0.38707083

conv1.bias f4 [16]
000000 08 c5 3f b9 54 86 2e 38 00 82 bd ba 12 c9 71 b9
       -0.0001828858 4.1609936e-05 -0.0014458299 -0.00023058456
000010 b0 d2 33 b9 d4 a7 69 ba 20 44 18 3a 17 7a 49 3b
       -0.00017149257 -0.0008913253 0.0005808491 0.0030742937
000020 37 b6 3f ba 80 34 0b 3a ef ec bf b9 ee c0 10 3a
       -0.0007313224 0.00053102523 -0.00036606888 0.0005521913
000030 a4 9f 3d 39 60 dc 4e 37 00 e8 ff b7 f5 13 7d 3b
       0.00018083915 1.2329867e-05 -3.0506402e-05 0.0038616632

bn1.weight f4 [16]
000000 f8 3d 4a 3f 37 78 3c 3f 09 7f 45 3f e2 92 89 3f
       0.79000807 0.73620933 0.77146965 1.074795
000010 92 78 68 3f d8 67 9d 3f c1 c9 9f 3f c4 81 8c 3f
       0.90808976 1.2297316 1.2483445 1.0977101
000020 65 9b 87 3f 6b a0 88 3f e5 56 62 3f 40 b9 56 3f
       1.0594298 1.0673956 0.8841384 0.8387642
000030 dd d9 90 3f 7b ad 2b 3f 55 9e 76 3f 36 6c 87 3f
       1.1316487 0.67061585 0.96335346 1.0579898

bn1.bias f4 [16]
000000 6d 2c ce be 3a 8a 8d bd 65 47 67 be e9 be 9a 3b
       -0.4026827 -0.0691113 -0.22585829 0.0047224653
000010 52 93 9d be 2d 0a 35 be a7 61 c1 3d 91 8c 8c bd
       -0.3077646 -0.17679663 0.09442454 -0.068627484
000020 48 72 1d be 1b ca 83 be 56 26 b6 bd 47 f4 9b bc
       -0.15375626 -0.25740132 -0.08894031 -0.019037379
000030 1e 2b bf 3a 20 36 55 be 8c b2 2c bd df cf 99 bd
       0.0014584993 -0.20821428 -0.042162463 -0.075103514

bn1.running_mean f4 [16]
000000 4c a2 0f 3c 34 e1 37 3c bc 3d 39 bc ae dd f3 39
       0.008766722 0.011223126 -0.0113062225 0.00046513736
000010 fd be 19 3c 69 a3 8b bb 70 01 95 3b cd b6 b2 3a
       0.009383914 -0.0042614234 0.0045472905 0.0013634801
000020 b4 98 b1 bb 8d 93 c5 ba 10 44 99 3a 4e 49 42 bc
       -0.005419815 -0.0015073881 0.0011693258 -0.0118582975
000030 b5 2c 87 bb 0e b3 b1 bc 3d 07 e4 3a da db d5 bb
       -0.0041252025 -0.021691825 0.0017397177 -0.0065264525

bn1.running_var f4 [16]
000000 ab 9e 86 3e 3f cd d9 3e 73 be 9b 3e 7c e3 37 3e
       0.2629293 0.42539403 0.3041874 0.17957872
000010 7c 88 d5 3e 44 5f 4f 3e 0a 4b 16 3e 4c 95 57 3e
       0.41705692 0.20251185 0.14677063 0.21053046
000020 b4 4d a7 3e 0a 6b 44 3e d1 c7 6c 3e 4e 9f 27 3f
       0.3267647 0.19181457 0.23123099 0.65477455
000030 a7 cb 1a 3e ad b6 73 3f 76 4d b5 3e 07 2e 91 3e
       0.1511675 0.95200616 0.3541066 0.2835543

conv2.weight f4 [32, 16, 3, 3]
000000 50 90 83 3e 20 c9 3c 3d 14 66 45 3e a4 90 a0 bd
       0.2569604 0.046090245 0.19277221 -0.07840088
000010 fd 6d 02 3e 39 fb 59 be 55 ee 38 3d cc 9e 6b 3e
       0.1273727 -0.2128724 0.045149166 0.23009795
000020 6a c3 95 bd e4 dd 62 bd 4c bd 16 be 7d 60 d7 bd
       -0.07312663 -0.055387393 -0.14720649 -0.105164506
000030 82 58 db 3c 44 54 f8 bd 53 eb 8a 3d 93 d8 0f 3e
       0.026775602 -0.121254474 0.06783166 0.1404746
000040 09 1a 50 bc 1a 45 b6 bc 48 4a 1f 3e e3 ab 62 be
       -0.01270152 -0.022249747 0.1555568 -0.22135882
000050 f8 df 9f bb 5f 44 17 3e e2 74 16 3e d6 23 ff 3d
       -0.004878994 0.14772175 0.14693025 0.12458007
000060 d0 be 19 bd 8a cb 35 3e 34 6c 91 3e b0 ca ba bd
       -0.03753549 0.17753425 0.28402865 -0.09120691
000070 c8 e2 2c be e5 8c da bd 06 1d 89 bd 19 a6 b6 3d
       -0.16883385 -0.10671405 -0.06694989 0.08918399
000080 bc 32 b2 bd 42 7d 60 3e 60 c3 b9 3d 7e 56 16 3e
       -0.08701083 0.21922782 0.09070468 0.14681432
000090 f1 af fa bc c2 0e ea bc ee d4 f7 3c a1 7e 14 3e
       -0.030601474 -0.02857149 0.0302529 0.1450143
0000a0 28 39 49 be 38 a9 92 be 8e 24 f8 3d cf 48 d7 3a
       -0.1965071 -0.2864473 0.12116347 0.0016424897
0000b0 50 5b 2a bd 3f 3f 25 be a0 40 96 be e7 78 e3 bd
       -0.04159099 -0.16137408 -0.2934618 -0.11107045
0000c0 71 ea fc bd 64 cb 17 be 27 19 52 3e 54 1c d8 3c
       -0.12349404 -0.14823681 0.20517407 0.026380695
0000d0 52 43 a5 be 85 e2 20 3c 5e 2c 23 be 51 9a 9b 3e
       -0.32277924 0.009819631 -0.15934893 0.30391172
0000e0 39 3c ab 3e e7 e6 e8 3c 4f 1c bc bb 39 96 0b be
       0.33444384 0.028430415 -0.0057406793 -0.13631524
0000f0 e1 65 51 be 8f ec 7c 3d 02 ce f1 bd 3e a8 4c bc
       -0.2044902 0.061749037 -0.11806871 -0.012491284
000100 49 c9 79 3d 51 64 93 bd 81 9b 67 3d f0 ef ae 3d
       0.060982976 -0.07196868 0.056544784 0.08541858
000110 a2 e9 ae be 81 a3 2e be 89 2f cb be 17 a8 a2 3e
       -0.34162623 -0.1705456 -0.39684704 0.31768867
000120 92 48 4b 3e ed 0b 09 3d e5 00 33 3e 4f 65 12 3e
       0.19851902 0.03345864 0.1748081 0.14296459
000130 f5 72 aa 3d 7c c0 5b be d3 8a 06 be d2 79 9e be
       0.083227076 -0.21460146 -0.13138895 -0.30952317
000140 52 bc 13 bc 67 de 25 be 59 b6 1e 3e d2 7b 11 be
       -0.009017067 -0.16198121 0.15499248 -0.1420739
000150 9e 5a a7 3d 72 2a 9b bd 49 76 7d be 52 7a bb bc
       0.08171581 -0.07576455 -0.24752153 -0.022885475
000160 a2 9f 36 be 76 f8 5e 3e 5f 09 d0 3d 81 e3 d1 bd
       -0.17834333 0.21774468 0.101580374 -0.10248471
000170 fc 0b 8b be 72 70 78 3d 3b ac 43 be ce 76 47 be
       -0.2715758 0.06065411 -0.1910867 -0.19478914
000180 b6 7e d6 3c b5 8c af bc df d8 f4 3d ba 3c 22 3e
       0.026183467 -0.021429399 0.119554274 0.15843478
000190 4c bd 7d bd d8 3f e3 be 5f 32 1f 3e c6 d1 39 be
       -0.061948106 -0.44384646 0.15546559 -0.18146428
0001a0 e4 75 47 be 76 2e 72 bd de 2a 0f 3c 6c 3f ac 3d
       -0.19478565 -0.05912634 0.008738248 0.08410534
0001b0 e6 d6 a3 3c 23 55 34 be 54 17 83 3e 9f 4f 14 bd
       0.019999932 -0.17610602 0.25603735 -0.036208745
0001c0 50 89 58 3e e9 90 93 3d cd 65 99 3e cd 40 56 3e
       0.2114613 0.07205374 0.2996048 0.20923157
0001d0 e3 53 e3 be ee 40 6f 3d 8b 07 e2 bd 68 71 fb bd
       -0.44399938 0.05841153 -0.11036595 -0.1227749
0001e0 ca 0a b9 bd 9b f5 ae bd 30 c7 75 3d 1b 8c 44 be
       -0.09035261 -0.08542939 0.060004413 -0.19194071
0001f0 ce 2b 33 bd 46 40 99 3c a4 2c 59 be 7f f9 b5 3d
       -0.043742947 0.018707406 -0.21208435 0.08885478
000200 ec ff ad 3e e4 c4 0e be 81 d3 0d be b3 3f b8 3d
       0.33984315 -0.13942295 -0.13850214 0.08996525
000210 44 50 3a bd f1 67 47 bd ee 81 10 bd 27 27 9d bd
       -0.045486704 -0.04868311 -0.03528016 -0.07673483
000220 50 ec 07 3d 26 18 51 3e 4e ce 0b 3c c9 72 4f be
       0.03318435 0.20419368 0.008533074 -0.20258631
000230 7c 7e f8 3d a4 68 d3 bb 40 82 01 be 98 74 1a bd
       0.121335 -0.006451683 -0.12647343 -0.03770885
000240 ac f0 ca bc fc 78 14 3e aa e9 17 3c 12 92 e7 bb
       -0.024772964 0.14499277 0.009272018 -0.0070669735
000250 d0 e4 83 be 4c 14 d8 3d 08 21 02 3e 02 48 49 bd
       -0.25760508 0.10550746 0.12707913 -0.049140938
000260 86 5c 5f bd 17 f2 42 3d a8 2b 39 3e bb 3a 50 3e
       -0.054531597 0.047594156 0.1808306 0.20334904
000270 e2 56 e8 3d 97 c2 3e bd d1 b9 8c bc f9 9e 87 bd
       0.113446966 -0.046572294 -0.017178448 -0.066221185
000280 65 72 d2 bd 03 4e ca 3d b8 a8 6e 3d 1d 73 a7 3d
       -0.10275725 0.09878161 0.05826637 0.08176253
000290 4f c8 06 be b6 cb 0c 3d bd fd dd be b7 da 41 be
       -0.13162349 0.03437396 -0.4335765 -0.1893109
0002a0 34 6d 28 3d 15 24 87 be fd e0 17 3e a3 34 42 bc
       0.04111977 -0.26394716 0.1483192 -0.01185337
0002b0 85 0b 84 be 95 af 2a be 2c 57 b1 3c d2 45 a1 be
       -0.2579004 -0.16668542 0.021648012 -0.3149858
0002c0 a5 2d 06 bd 4b 70 b0 3e e2 50 11 be d6 79 d5 bd
       -0.032758374 0.34460673 -0.1419101 -0.10423629
0002d0 cd 0a fc bd 7f 3f cf 3b 9b 64 b1 3c 2b 2c 84 3e
       -0.123067476 0.006324708 0.021654418 0.25814947
0002e0 1d 75 bf 3c 70 4d 05 be 79 ad e1 3d 86 ae f5 be
       0.023371274 -0.13017821 0.110194154 -0.47984713
0002f0 2c 44 46 be b7 37 05 3e 28 9f c1 3d 4e e9 b8 be
       -0.19361943 0.13009535 0.09454185 -0.36115497
000300 48 25 a1 bd de 5d d2 3c 96 07 0a bf b8 4a 19 3e
       -0.07868439 0.025679525 -0.53917825 0.14969909
000310 be e4 a5 3c 66 f6 09 bd a8 0c 09 be 31 32 be 3d
       0.020250674 -0.03368225 -0.13383734 0.09286917
000320 f4 95 a7 bd 16 46 b2 bd 32 64 85 be d1 2b 80 3e
       -0.08182898 -0.08704774 -0.26053005 0.2503343
000330 97 f9 f1 3d 14 83 24 3d a3 4d 19 3c 21 b8 95 bd
       0.118151836 0.04016407 0.009356889 -0.073105104
000340 48 a3 53 be ab a3 93 bd db 60 14 3e 73 19 c5 3d
       -0.20667756 -0.072089516 0.14490072 0.09623995
000350 f2 43 a4 be 9b f6 ff bb 1f 64 de be a6 3a d4 bc
       -0.32083088 -0.00781138 -0.4343576 -0.025906872
000360 13 0f c0 3d 1a 2c 1e 3e d9 e6 63 3e fe 9b 22 be
       0.09377875 0.15446511 0.2225603 -0.15879819
000370 6e ea 70 3d f0 6f 40 bd 77 36 d8 bc ae e3 19 3e
       0.05881732 -0.046981752 -0.026393158 0.15028259
000380 8e f6 83 be a3 97 bb 3d 6e 37 9b 3d f2 39 b6 be
       -0.25774044 0.09159782 0.07578932 -0.35591084
000390 66 6e a6 3c d7 af 09 3e 15 73 c5 3d 68 69 10 be
       0.020316314 0.13445984 0.09641091 -0.1410271
0003a0 70 b5 ea bd 5b 88 b5 3d 3e e5 54 3d 29 09 4d bd
       -0.11460388 0.08863898 0.051976435 -0.050057564
0003b0 19 13 8e be da 09 c5 3c 9c 45 0a bc a1 d1 12 3d
       -0.27748945 0.02405255 -0.008439448 0.03584445
0003c0 28 50 00 be 1b 93 08 3e 09 0e 34 3e ea 17 b4 3d
       -0.12530577 0.13337366 0.17583479 0.08793624
0003d0 46 3a 88 bc 83 dd d3 3a 59 52 ca bd 71 65 0f bf
       -0.01662935 0.0016164038 -0.09878988 -0.5601416
0003e0 71 76 00 be 28 d5 92 bc 6d af 58 be bd 67 8b 3d
       -0.12545182 -0.017923906 -0.2116067 0.06806896
0003f0 a0 e1 26 3a eb ae 16 3e 6b 3b 83 3e 44 f3 4c be
       0.0006366018 0.14715163 0.2563127 -0.20014673

conv2.bias f4 [32]
000000 64 fa 42 b8 6d 58 25 39 c2 aa ee 38 09 15 cf 3a
       -4.64864e-05 0.00015768567 0.000113805305 0.0015799116
000010 e2 45 60 3a b4 a5 82 ba 4e df 00 3a 4e 00 9e ba
       0.0008555335 -0.0009967596 0.00049160875 -0.0012054534
000020 93 fb 1d 3b 61 0b a0 b9 3e 78 f1 b9 be a1 87 39
       0.0024106249 -0.00030526056 -0.0004605669 0.00025869714
000030 12 c1 8f ba cc f5 f8 b9 75 50 e9 ba ea 8d 58 3a
       -0.0010967574 -0.0004748538 -0.0017800467 0.0008260893
000040 ce ff d4 b9 62 41 04 ba 90 82 40 ba 66 cb 8b ba
       -0.0004062638 -0.0005045143 -0.0007343674 -0.0010665476
000050 05 0c e2 b8 3d 60 85 b9 e6 56 45 38 1d 0a 32 ba
       -0.000107787586 -0.0002543944 4.704939e-05 -0.0006791668
000060 ac 6a 98 3a d6 c1 04 39 28 63 3a b9 d8 83 19 3a
       0.001162847 0.0001266071 -0.00017775281 0.0005856133
000070 89 85 b8 39 84 fb 7f 3a 1e 54 ba ba d0 f0 64 ba
       0.00035194706 0.0009764957 -0.0014215743 -0.00087333936

bn2.weight f4 [32]
000000 aa 72 08 40 d5 81 f6 3f dd e3 fd 3f 91 4d 07 40
       2.1319985 1.9258372 1.9835163 2.1141093
000010 50 f2 e8 3f 7e d1 fa 3f 7a 0a 06 40 a8 dc ee 3f
       1.8198948 1.9595182 2.0943894 1.8661089
000020 92 f8 05 40 f1 9b ef 3f d3 d6 ef 3f 58 91 f3 3f
       2.0932965 1.8719465 1.8737434 1.902873
000030 80 5e e4 3f 64 96 00 40 a6 6f f1 3f 8d 7e f1 3f
       1.7841339 2.009179 1.8862197 1.8866745
000040 f8 8b fa 3f d5 56 f0 3f 9c 1d 04 40 c3 03 f4 3f
       1.9573965 1.8776499 2.0643072 1.9063648
000050 d0 ce 02 40 6c 30 ed 3f 50 cc e9 3f ea 1f f0 3f
       2.0438728 1.8530402 1.8265476 1.8759739
000060 fd bf e0 3f 0e dd f0 3f 33 ff fc 3f e1 70 f2 3f
       1.755859 1.881746 1.9765381 1.8940698
000070 10 51 f9 3f 49 90 02 40 3e f7 fb 3f a2 2c f1 3f
       1.9477863 2.0400565 1.9684827 1.8841746

bn2.bias f4 [32]
000000 0e 58 61 bf be a5 27 bf 96 fc 51 bf 8f ee 5a bf
       -0.88024986 -0.6548728 -0.8202604 -0.8552026
000010 5d 75 54 bf ff 36 5b bf 41 4f 8d bf e0 56 75 bf
       -0.8299158 -0.8563079 -1.1039811 -0.95835686
000020 c1 71 77 bf 3d 85 7c bf df 20 56 bf ee c5 7a bf
       -0.9665795 -0.98640805 -0.8364391 -0.97958267
000030 41 dc 3a bf 32 4b 89 bf 8c 82 10 bf cd b2 2f bf
       -0.7299233 -1.0726073 -0.564492 -0.68632203
000040 83 13 90 bf 13 3d 80 bf 24 72 5c bf 1c 56 81 bf
       -1.1255955 -1.0018638 -0.86111665 -1.0104403
000050 b8 7c 64 bf 0b 91 68 bf b2 23 3e bf 6b d6 5f bf
       -0.89252806 -0.9084632 -0.74273217 -0.8743655
000060 79 9e 52 bf 56 87 57 bf 76 ea 79 bf d7 da 83 bf
       -0.8227306 -0.8419088 -0.97623384 -1.030116
000070 39 00 77 bf b3 fd 3b bf 8e c5 53 bf 80 d5 85 bf
       -0.96484715 -0.7343399 -0.8272332 -1.045578

bn2.running_mean f4 [32]
000000 6a 5e 40 bf d3 e6 77 bf d4 b8 b6 be 58 7c 09 bf
       -0.75144064 -0.96836585 -0.35687888 -0.5370536
000010 02 c8 6f be ae 5e 9d bf a6 fb b6 3d 56 18 c6 3e
       -0.2341614 -1.2294519 0.08934717 0.38690442
000020 04 85 7e bf 22 39 2a 3f 5d c2 95 be 7a 0a b7 bd
       -0.99421716 0.6649343 -0.2924985 -0.08937545
000030 de 8b 83 bf 0f d8 37 3e 75 38 54 bf 5f 3b 20 bf
       -1.0277059 0.17953514 -0.82898647 -0.62590593
000040 2e eb fe 3e 2a ad 8c 3d d2 e4 4a bf bc 66 8a be
       0.49788803 0.06868966 -0.792554 -0.27031505
000050 cd a3 fa bc 2a 87 99 3e 4b 47 09 bf cd c2 46 bf
       -0.030595684 0.29985934 -0.5362441 -0.7764099
000060 8c e6 a2 bb 03 79 c0 be 26 75 88 bb 1f 8b df bd
       -0.004971331 -0.37592325 -0.004164356 -0.10915207
000070 38 98 46 3e fe d1 98 bf 68 01 e9 be 9a c8 ac 3e
       0.19394004 -1.1939085 -0.45508885 0.33746797

bn2.running_var f4 [32]
000000 5c 45 25 3f ec 5f 61 3f cf a9 47 3f 16 f3 23 3f
       0.6455896 0.8803699 0.7799348 0.64042795
000010 b1 bb 30 3f 56 e9 82 3f 30 cc f3 3e 3e 21 40 3f
       0.69036394 1.0227458 0.4761672 0.75050724
000020 13 4c 61 3f e1 70 33 3f 06 02 fe 3e e9 c9 45 3f
       0.88006705 0.70094115 0.4961092 0.77261215
000030 81 54 43 3f 80 09 2e 3f 15 3b 3f 3f a1 a7 45 3f
       0.7630082 0.67983246 0.7469953 0.77208906
000040 4b a0 db 3e a5 eb 32 3f e9 4f 5d 3f e3 84 4b 3f
       0.4289573 0.69890815 0.8645006 0.79499644
000050 93 0f 30 3f d9 91 63 3f 56 d3 27 3f eb e9 3c 3f
       0.68773764 0.8889442 0.6555685 0.7379443
000060 75 75 07 3f 92 f8 14 3f 65 08 2a 3f 72 2a 1f 3f
       0.529136 0.5819179 0.6641906 0.6217414
000070 27 0b fa 3e 57 64 42 3f 32 32 2f 3f 29 d8 18 3f
       0.48836634 0.75934356 0.68435967 0.59704834

fc1.weight f4 [128, 1280]
000000 c6 c2 e4 bd 90 09 cb 3d 97 de 08 be 75 3b be 3d
       -0.111699626 0.09913933 -0.13366161 0.09288684
000010 b2 cd 8f bd 5e ce de bd 96 0a 85 3e 80 0d f8 bc
       -0.07021655 -0.10879205 0.2598464 -0.030279875
000020 9c c1 90 bd ea 03 cc bd d8 d4 31 3e 4c c5 5f 3d
       -0.07068178 -0.09961684 0.1736635 0.054631516
000030 be 55 de bc 3d 7e a9 3d 32 cc bd bd 54 86 1e 3e
       -0.027140494 0.08276031 -0.09267463 0.1548093
000040 53 d3 23 be 2b 95 9a bd f8 09 6d be 11 45 49 bd
       -0.15998583 -0.07547983 -0.23148334 -0.049138132
000050 11 35 cc bc bf f4 0d 3d ec e9 28 3e 4b 12 22 3e
       -0.024927648 0.034657236 0.16495484 0.1582729
000060 35 91 66 3e ea a7 0e 3e b3 f1 20 bd a9 c2 a7 bd
       0.2251633 0.13931242 -0.039293002 -0.08191425
000070 82 a7 38 3e c9 42 19 bd fd bf 93 bd 53 1c 7a 3d
       0.18032649 -0.037417207 -0.07214353 0.06106217
000080 09 e3 62 be a2 12 ab bc 86 dc 54 be e1 e6 dd bd
       -0.2215692 -0.020882908 -0.20787248 -0.10835052
000090 92 f4 9b bc a7 c8 80 3c 65 71 19 3d cd c6 27 3c
       -0.019037519 0.015720678 0.037461657 0.010240269
0000a0 c1 f1 c7 3d 10 9a f5 bc e8 3f 1c 3d 80 8a 9b bd
       0.09762908 -0.02998069 0.038146883 -0.07594776
0000b0 8c c2 e5 bd 4b 51 0e 3e 16 db 2e bd 56 c3 76 3d
       -0.112187475 0.13898198 -0.042689405 0.06024488
0000c0 2c 30 d2 3c af b4 82 3c 9c 2d ff 3d 42 dc f6 bc
       0.025657736 0.015955297 0.12459871 -0.030134324
0000d0 05 97 5a be 4b 54 d1 be fe 21 f5 bd cf f6 37 be
       -0.21346672 -0.40884623 -0.11969374 -0.17965244
0000e0 64 59 42 3e cb fc df 3d 48 4c 1f be 74 7a 23 3c
       0.18979412 0.10936888 -0.15556443 0.009977926
0000f0 7b 12 23 3e 0a 82 ac 3e ed 68 9d bd e6 67 19 be
       0.15925018 0.33692962 -0.07686029 -0.1498104
000100 8b 49 e4 bc 97 cf cd 3d fa be ca 3d 6a fe 05 bd
       -0.0278671 0.1004936 0.09899707 -0.03271333
000110 df cc 43 3e 42 8e 2b 3e 6d d4 b6 be c1 25 65 3d
       0.19121121 0.16753486 -0.35708943 0.055944208
000120 ff 42 ac bd 49 84 aa 3e b8 35 7d 3d 86 12 a2 bd
       -0.08411216 0.3330405 0.06181881 -0.07913689
000130 31 91 cc 3c 38 a0 c5 3e f4 4f 24 bd a8 38 da 3b
       0.024971576 0.385988 -0.04011531 0.006659586
000140 a7 27 9d 3d 7b 40 b7 3d 8e 6e b1 bd 53 2d e1 bd
       0.07673579 0.089478455 -0.08663665 -0.10994973
000150 f1 17 8a bd c0 e6 ea bd 3b b7 8b 3d c7 23 6c bd
       -0.06742848 -0.11469793 0.06822058 -0.057651307
000160 ea 42 b2 bc e0 ac b4 be 82 1b b4 3e 84 86 b3 bc
       -0.021760423 -0.35288143 0.35177237 -0.021914728
000170 2e 40 46 3e 68 50 76 3c ac 11 eb bd 3c 5b 7f 3e
       0.1936042 0.015033819 -0.1147798 0.24937147
000180 42 fe 30 bd d7 92 14 3c 43 22 5a 3e c4 7e 06 bd
       -0.04321123 0.0090682125 0.21302132 -0.032835737
000190 ee 21 1e 3e 48 0e 95 3e f3 bd 16 bd bb 03 02 be
       0.1544263 0.29112458 -0.036802243 -0.12696736
0001a0 74 be 9e be 50 35 5f be d4 3b 0d 3d 92 0f db bd
       -0.3100468 -0.21797681 0.034480885 -0.10696329
0001b0 aa 27 fc 3d 74 26 a2 3e 9d 22 4d 3c e7 fb 13 3e
       0.12312253 0.31669962 0.0125204595 0.14451562
0001c0 a8 97 5b 3e de 40 3e be 98 47 f3 bc 07 f6 4c 3d
       0.21444571 -0.18579432 -0.029697224 0.050039317
0001d0 aa fd 2b be f7 ee 87 3d 1a 81 bc be cb 44 18 bd
       -0.16795984 0.06637376 -0.36817247 -0.03717498
0001e0 a5 9f 5d 3d ae 70 11 3e 6a 92 0c be 6c 06 a2 bd
       0.054107327 0.1420314 -0.13727728 -0.07911381
0001f0 e6 0d 1f 3e c2 f5 d1 3d ab 96 c2 3d a5 22 0d 3d
       0.15532646 0.10251953 0.09501394 0.034456868
000200 db 1b 85 3e 39 b4 74 be b8 e0 2e be 05 29 1b bd
       0.25997815 -0.23896874 -0.17077911 -0.037880916
000210 b4 02 60 bd 18 da 29 be 77 14 70 3e 62 0f 30 be
       -0.054690078 -0.16587102 0.23445307 -0.17193368
000220 42 56 96 bd 11 e9 6c 3e 9f fc 2a 3e 27 22 21 bd
       -0.07340671 0.23135783 0.1669793 -0.03933921
000230 c8 62 4b be e7 da f4 bd 1e 47 ba 3c f6 72 88 be
       -0.19861901 -0.11955815 0.02273899 -0.26650208
000240 7d 3c 8f be a2 64 f5 3d 78 ea 37 bc 69 9d 9f 3e
       -0.27975836 0.11982085 -0.011225335 0.31174782
000250 5e 18 2f be 6e 27 36 3e 3f ee 98 bd c2 ba 54 3d
       -0.17099139 0.17788479 -0.07467317 0.05193592
000260 1e 90 62 be 35 65 13 3e c8 e8 40 bc 17 c3 4c 3d
       -0.22125289 0.14394076 -0.011774249 0.04999074
000270 f1 f3 9e 3e f0 f0 be 3d d4 dc bb be ef 3b 3d be
       0.31045488 0.09323299 -0.36691916 -0.18479894
000280 24 ee 0a bd cc 4c 97 3d 04 23 bc bd 90 93 40 3e
       -0.033918515 0.07387695 -0.09186366 0.1880629
000290 2d 92 99 bd 8e 80 aa bd d9 6a 0c bc 64 6a 5f be
       -0.07498584 -0.08325301 -0.008570396 -0.21817929
0002a0 0b d8 0d bd 53 36 d2 bc ec f3 31 be c7 28 f5 3d
       -0.034629863 -0.02566067 -0.17378205 0.11970668
0002b0 f5 39 41 3e 17 b0 cd 3e 18 71 0f 3d b7 e2 a0 bd
       0.18869765 0.40173408 0.035019964 -0.078557424
0002c0 ac 80 3b bc b9 7c 51 3b 78 1e 79 3e b6 39 d0 be
       -0.011444252 0.003196521 0.24328029 -0.4066903
0002d0 ef 03 9a bd b2 03 f7 3d ee 4c 9e be 33 fc 1d 3e
       -0.075202815 0.12061252 -0.30918068 0.15428238
0002e0 ba b3 2a be 54 7c 5e bd 3a ec 8c 3d 42 1d 44 3e
       -0.16670123 -0.054317787 0.06880994 0.19151786
0002f0 89 15 d6 3e 44 66 5a bc 3d 87 09 3e 2f cd 9f bd
       0.41813305 -0.013330046 0.13430496 -0.078028075
000300 ad d2 83 bd fa f6 f2 bd df 9b 19 bd 3f 6c 98 3d
       -0.064366676 -0.11863513 -0.037502166 0.07442521
000310 cc 9e 91 3c 7d 79 d9 bd ca bb f5 3d b0 b8 cd 3d
       0.017775916 -0.10618875 0.119987085 0.10044992
000320 46 0c 2f 3d b0 79 ce bd 73 10 2b be 05 25 07 be
       0.042736314 -0.10081804 -0.16705494 -0.13197716
000330 ec 3e 03 bd 59 75 3c 3e 1b fd 88 3e f9 68 d1 be
       -0.03204243 0.1840414 0.26755604 -0.409004
000340 fc da 34 bd f6 f6 ae 3e 1d ae 0d be f9 9f a7 3d
       -0.044154152 0.3417279 -0.1383595 0.08184809
000350 87 71 11 3e 7d 29 fa bc 65 3e 5d 3d 2f df ee bc
       0.14203463 -0.030537361 0.054014582 -0.029159157
000360 f4 be 30 3e c2 27 87 be 04 cd 48 be a3 7f 19 be
       0.17260343 -0.2639752 -0.19609457 -0.14990096
000370 31 74 07 be 07 78 b9 bd df bc 70 3d cd e1 55 bc
       -0.13227917 -0.090560965 0.05877387 -0.013054323
000380 7a 88 8e bd 91 06 89 3e 84 56 15 3d 6f 28 8d 3e
       -0.069596246 0.26762822 0.03645946 0.2756991
000390 a4 95 83 be 41 dd b0 be 34 67 7e bd 4d a1 8c be
       -0.25700104 -0.34543803 -0.06211014 -0.27466813
0003a0 2f 69 61 be cb 48 59 bd 5c 78 59 3c 8b 48 4b 3c
       -0.2201278 -0.053047936 0.013273325 0.012407432
0003b0 37 c2 8f bd dc 58 c8 3c 4a c5 b7 bd 1a 4c 59 3e
       -0.070194654 0.024456434 -0.08973177 0.21220437
0003c0 5d 78 7e 3a b5 f2 59 be 84 57 ee bd e8 9d 4a be
       0.00097072666 -0.21283992 -0.11637786 -0.19786799
0003d0 fb eb fb bc db e6 88 be 87 87 98 3d ff e4 45 3e
       -0.030752173 -0.2673863 0.07447725 0.19325636
0003e0 9d fc c2 3e a4 83 04 3d 41 e6 24 bc 0a 65 24 3d
       0.38083354 0.032352105 -0.010064662 0.04013542
0003f0 06 27 56 be cf 3a 99 3e 63 55 01 be 76 47 b6 bd
       -0.20913324 0.2992768 -0.12630229 -0.08900349

fc1.bias f4 [128]
000000 93 41 7f 3c 04 de f5 bc ef dd 6e bc dd e7 bb bd
       0.015579599 -0.030013092 -0.01457928 -0.09175084
000010 a5 8a d2 3d 39 3b c2 3c 03 eb 0d bc 34 6a e0 bb
       0.102803506 0.02370988 -0.008661988 -0.006848598
000020 dc 7c 18 3d de 84 ca bd 18 7b 4e 3d 97 f9 9f bd
       0.03722845 -0.09888624 0.05041036 -0.07811277
000030 6e dc 75 3d 6d a8 a3 3c 8d 12 d0 bd 0c 67 3a bb
       0.06002467 0.019977773 -0.10159788 -0.0028442768
000040 44 32 7d 3c 22 e8 1f 3d f4 83 34 ba ba 9e cf bc
       0.015453879 0.03903974 -0.00068861176 -0.025344241
000050 54 f7 f6 3c c6 bc 97 3d 81 05 62 3c 0b f0 0f 3d
       0.030147232 0.074090526 0.013795258 0.035141032
000060 55 2a 56 3c 43 68 18 bd 02 09 0f 3d cf c4 36 bc
       0.013071616 -0.037208807 0.0349207 -0.011155321
000070 08 ac 72 bc c4 ee 05 bd 8e e6 c7 bd 9a db 2b 3d
       -0.014811523 -0.032698408 -0.09760772 0.041957475
000080 08 02 20 3d af 4b 9d bd 68 b9 cc 3c 9a 89 2f bd
       0.039064437 -0.07680451 0.024990752 -0.042855836
000090 1b 97 ae 3d 06 fb 2a 3c 84 39 f2 3c 32 95 fe 3c
       0.08524915 0.010435825 0.029568441 0.031077001
0000a0 5e 87 d3 3b c7 14 f9 bc 30 20 80 bd 7e d0 5b bc
       0.006455346 -0.030405415 -0.06256139 -0.013416408
0000b0 c0 82 44 3d d5 ac 6c 3d 1e 0b 85 3d 6f f7 90 bc
       0.047976255 0.057782013 0.06496261 -0.01769611
0000c0 05 d4 05 3d f2 8a 50 bd 73 b0 a3 bd a0 bb 95 bd
       0.0326729 -0.05091376 -0.079926394 -0.07311177
0000d0 47 67 96 bb e5 b5 b3 bd 65 38 0b 3d 80 f7 2f bc
       -0.0045899483 -0.08774928 0.03398933 -0.010740161
0000e0 f6 d8 85 3d f0 7f 8c 37 14 b9 78 bb f6 be d5 3d
       0.06535523 1.6748876e-05 -0.0037952112 0.104368135
0000f0 1e 66 4b bd 41 9b 50 bd 45 54 c1 3c 4c 91 88 bc
       -0.049657933 -0.05092931 0.023599753 -0.016670845
000100 f3 8d 4e bd 3b 71 29 bc ce c9 01 bd 85 a4 d8 bd
       -0.050428342 -0.010341938 -0.031686597 -0.105782546
000110 57 35 51 3c 56 ac f2 bd 3d ef 48 bb 5e 24 64 bd
       0.012769065 -0.11849277 -0.0030660175 -0.055698745
000120 91 64 39 bd 80 bb 7b 3d b1 30 5c bd e7 41 b8 bd
       -0.045261923 0.06145811 -0.053757373 -0.08996945
000130 b2 28 5e bd 9c a5 6f 3b f0 70 7a bc f2 f7 9c 3d
       -0.05423803 0.0036567217 -0.015285715 0.07664479
000140 64 54 e8 3c bf 6d 83 bc c6 20 e7 bb 5f da bb 3d
       0.028360553 -0.016043542 -0.0070534674 0.0917251
000150 9d 6d 85 bb 66 b9 fb bc f7 da 8a 3c 6c 61 d8 3d
       -0.004071905 -0.030728053 0.016950114 0.10565457
000160 a3 8f 95 bd 58 88 e5 bb 7c d8 65 3c 97 7f 90 3b
       -0.07302787 -0.007004779 0.014028665 0.004409741
000170 75 b1 42 bd e1 ba f2 bc 2f d9 6c 3c f9 e1 5d 3d
       -0.047532517 -0.029630126 0.0144560775 0.054170582
000180 1d a9 89 bb 96 72 ae bc 95 1d 94 bd 7e 47 c0 3c
       -0.004201068 -0.021294873 -0.07232205 0.02347159
000190 d3 b3 fa bc f0 1c a1 bd 5a f7 ea 3d f6 b0 ca 3b
       -0.030603325 -0.078668475 0.1147296 0.006185646
0001a0 a6 d1 02 bd a0 f8 df bc 91 0e 86 3d 25 eb b9 bd
       -0.031938218 -0.027340233 0.06545747 -0.090780534
0001b0 8c 45 5c bc 3b 80 f5 bc f6 7a de bc 07 76 5e bd
       -0.013444316 -0.029968372 -0.027158242 -0.05431178
0001c0 87 0b 09 3d a2 5a a4 bc cf d8 c1 3d 8f fb 97 3d
       0.03345826 -0.020062748 0.09465181 0.07421028
0001d0 12 0c 61 3c ce 1a c4 bc 4a 6a 8d bd 14 38 86 3d
       0.013735788 -0.023938563 -0.06905039 0.06553665
0001e0 4b 37 60 bc 76 3b c6 bc e0 cd 8a bd be 5f 54 bd
       -0.013685058 -0.024198275 -0.06777549 -0.05184912
0001f0 dc 79 2d bd 96 b6 b8 bc db 42 e8 3c dd 4f 81 3d
       -0.042352542 -0.022548001 0.028352192 0.06314061

fc2.weight f4 [3, 128]
000000 20 50 9f bd 38 14 25 3e ce 82 41 bc 95 e5 03 3e
       -0.077789545 0.16120994 -0.011810971 0.12880547
000010 cc 6d 13 3e 40 99 97 bd c3 e4 09 3e cd ab ec 3d
       0.14397353 -0.07402277 0.13466172 0.11556206
000020 1e 69 3a be 01 06 2f 3d 93 c9 d5 bd 9e 12 37 3e
       -0.18204162 0.042730335 -0.10438838 0.17878196
000030 13 3f e9 bd 4f 97 7b bd 87 9e 10 3e 7c 25 9d 3c
       -0.113889836 -0.061423596 0.14122973 0.019182913
000040 15 a6 77 3e 7b 4d f3 bd 98 5b f3 bd b3 39 1a 3e
       0.24184449 -0.118800126 -0.118827045 0.15061073
000050 47 59 13 be f2 14 3b 3d 99 fc a3 3d cf a5 cb 3d
       -0.14389525 0.045674272 0.080071636 0.09943735
000060 66 92 42 be 94 e1 89 bd e2 e8 5e be 7b 94 d2 bd
       -0.19001159 -0.06732479 -0.21768525 -0.10282227
000070 c8 fc fc bb 4b 7b a0 bd cb d9 08 3e 1e ee 39 3d
       -0.0077205636 -0.07836016 0.13364331 0.045393102
000080 81 2a 32 be f7 96 a4 3d 13 4d 31 3e 0d 45 2d bd
       -0.17399026 0.08036607 0.17314558 -0.04230218
000090 66 d3 b2 3d a0 a0 0f 3e 54 48 58 3d b8 5a 1a be
       0.08731727 0.14026117 0.052803352 -0.15073669
0000a0 31 c1 3c 3e 23 d8 b1 bd 31 26 5e 3e e9 fc 18 bd
       0.18433072 -0.08683803 0.21694256 -0.03735057
0000b0 32 9f 48 3d 7f 21 f1 bd f9 d5 2a bd 07 2d 4b bd
       0.048979945 -0.11773967 -0.041707966 -0.04960349
0000c0 44 c0 21 be 69 2f 35 be 13 86 f5 3d 27 06 2c 3e
       -0.15796 -0.17693867 0.11988463 0.16799222
0000d0 ec 03 22 3e f5 ee 64 3d ff 83 f0 3c 5a d6 d1 3d
       0.15821809 0.05589195 0.029359816 0.102459624
0000e0 f0 34 8d bd 29 f4 a2 bd 23 ad b2 bd f1 dd 14 3e
       -0.06894863 -0.07956726 -0.087244295 0.14537789
0000f0 f8 b1 26 be 5c af 25 3d f0 1d f5 3d 82 20 6d 3b
       -0.16278827 0.04045044 0.11968601 0.0036182706
000100 7e 7b 5c 3e a9 21 a6 3d 14 a1 0e 3e 1d 5e df bc
       0.21531484 0.08111889 0.13928634 -0.027266556
000110 04 d2 57 be e9 c1 db 3c 2b 66 17 3e a5 2a 65 3e
       -0.21076208 0.026825862 0.14785068 0.22379549
000120 e1 9b 18 3e ee b9 e7 3d 07 0e 2f be de 0c d6 bd
       0.14903213 0.1131476 -0.17095195 -0.10451673
000130 c3 12 ac 3d 17 12 2f 3e f5 be 0c be 72 c8 11 be
       0.08402016 0.17096744 -0.1374472 -0.1423662
000140 bc 6f da 3d 72 8a 24 be ba a3 8f bd 68 0c 17 be
       0.10665843 -0.16068438 -0.0701365 -0.14750826
000150 fb 56 25 be 45 b1 55 bd 00 b7 05 be 92 fe 05 3e
       -0.16146462 -0.05217101 -0.1305809 0.13085392
000160 f5 7e cb 3d 3a 54 0b be 37 4e 1e be 70 63 e1 3d
       0.099363245 -0.13606349 -0.15459524 0.11005294
000170 93 d3 e8 bd dd 77 58 bd 9d 38 75 3d e4 e1 8b bb
       -0.113684796 -0.052848686 0.059868444 -0.0042688716
000180 14 ba a9 bd bf 78 42 3e 5c 35 c0 3d 11 a9 d6 bd
       -0.08287445 0.18991373 0.093851775 -0.104814656
000190 e8 89 1f be ae a0 40 be 57 15 c2 bd 0e b6 b6 3d
       -0.15579951 -0.18811294 -0.094767265 0.08921443
0001a0 dd 3a 4f bd 6b af 0d 3e bf 84 bb 3d f0 88 dd bd
       -0.050593246 0.13836448 0.09156179 -0.108171344
0001b0 76 dc 05 bd 2d 1f d5 bd 5f b1 fa 3d 05 55 34 3e
       -0.03268095 -0.10406337 0.12240862 0.17610557
0001c0 7b 3e 8f bc f5 de ab 3d e9 96 b6 bd 86 b6 fb bd
       -0.017485848 0.08392135 -0.089155026 -0.12290673
0001d0 38 4c 35 be 4b 5d 05 be a5 92 e3 3d 00 11 04 be
       -0.17704856 -0.1302387 0.111119546 -0.1289711
0001e0 43 54 12 be e4 08 23 be b4 57 a4 bd 3e 50 39 3e
       -0.14289956 -0.1592136 -0.080245405 0.18097016
0001f0 5b 8f e4 3d 5e 5e 60 bd 40 fc 1c bc 2d fd 09 3e
       0.111601554 -0.054777496 -0.009581625 0.13475485
000200 f7 f8 f9 3d 21 ea f4 bd 9f 87 b2 3d ea b6 0b be
       0.122056894 -0.11958719 0.08717274 -0.13643995
000210 a4 d0 ec bd 02 02 1e 3e 6f ee ac bd 54 b8 bd bd
       -0.115632325 0.15430453 -0.08443915 -0.092636734
000220 50 aa d0 3c 7b 02 29 3e a2 7d f0 bd 0a a9 70 bd
       0.025471836 0.16504852 -0.117427126 -0.05875496
000230 b1 1d 05 bd 11 48 0c 3e 95 6d a5 3d 2a c9 8e 3d
       -0.03249902 0.13699366 0.08077542 0.06971963
000240 0e 4c 48 bd b3 29 46 bd 27 57 1b 3e 80 2d 40 3d
       -0.048900656 -0.04837961 0.15169965 0.046918392
000250 52 c3 61 3d fb 03 96 bd 02 ca 38 bd 0f 54 d3 3d
       0.055117913 -0.07324978 -0.045114525 0.10318767
000260 30 e7 92 3c 43 3c 02 3e c5 11 16 3d db 79 e3 3d
       0.017932504 0.127183 0.03663804 0.111072265
000270 2a 76 1d 3e 13 58 d0 3d 05 33 33 bd ba 73 c9 bd
       0.15377107 0.10173049 -0.043749828 -0.09836526
000280 30 ee 53 3d 0e 45 ea 3c 9f 2e 8c bd df df d5 3d
       0.051740825 0.028597381 -0.0684483 0.10443091
000290 b6 4e 6f bd 2e 26 bb bd e1 84 32 be f1 54 98 3d
       -0.058424674 -0.091381416 -0.17433502 0.07438076
0002a0 a9 a9 8e bd 17 76 a2 3d 67 40 b5 bd e4 41 01 3e
       -0.06965954 0.0793268 -0.088501744 0.12622792
0002b0 21 38 99 3d 19 60 6c bd d4 60 06 be 15 0e cf 3c
       0.07481409 -0.057708833 -0.13122874 0.02527527
0002c0 79 56 c3 3d 3f 41 95 3d a4 d2 15 be fb 01 8d 3d
       0.09537978 0.07287835 -0.14631134 0.06885143
0002d0 a0 f8 f1 bc 7c 6d f1 3d fd 51 0e be a4 a4 d7 bd
       -0.029537499 0.117884606 -0.13898464 -0.105294496
0002e0 86 b9 b8 bd ed 25 19 3e 19 d5 1a 3e 22 0c 03 be
       -0.09019761 0.14955874 0.15120353 -0.12797597
0002f0 f7 b7 14 3e 12 57 a9 bd e2 c4 3f bd 95 15 85 bd
       0.14523302 -0.082685605 -0.04681862 -0.06498257
000300 5d 4d f5 39 9d d1 10 3d db 07 a0 bb 78 df 14 3e
       0.00046787682 0.035356153 -0.004883749 0.14538372
000310 3b 23 c4 ba 0d 94 e4 3d d3 c0 d7 bd fc c2 a6 bb
       -0.0014964113 0.11161051 -0.10534825 -0.005089162
000320 fd 41 c6 3c f4 54 fd bd 5e 59 bd 3d 36 f6 4b 3d
       0.024201388 -0.12369719 0.09245561 0.049795352
000330 f2 34 9d 3d 7e cd 93 bd 21 f9 f0 3d 22 d3 bf 3d
       0.07676114 -0.07216929 0.117662676 0.09366442
000340 a9 e4 de bd 66 64 0b bd b5 6a 1a 3d 1f ec f9 bc
       -0.10883457 -0.034031294 0.03769942 -0.0305081
000350 b9 47 d3 3c 02 cf bd 3d 64 b4 c4 3c fc d8 e0 3d
       0.025791036 0.09267999 0.024011798 0.109788865
000360 5e c4 bb 3d 3a 33 b4 3d 5a bd a5 3d 4e 46 f6 bd
       0.091683134 0.08798833 0.080927566 -0.12025128
000370 e4 8c 16 3e fa 02 1a 3e 93 72 b3 bd 5b 98 86 3d
       0.14702183 0.15040198 -0.08762088 0.06572028
000380 1d 26 23 3e 73 60 88 3d cd a2 99 3d 00 aa 1b 3d
       0.15932508 0.06659021 0.07501755 0.03800392
000390 2d 69 9b 3d d7 3c 0f 3d c6 63 91 bd c3 e1 d0 3d
       0.0758842 0.03497013 -0.070991084 0.10199311
0003a0 e1 e3 29 3e ec 39 9f bd 0d 53 ed bd 9b e5 08 3e
       0.16590835 -0.077747196 -0.11588106 0.13368838
0003b0 01 81 cf bd dc c9 28 3d 02 b0 ae bd 5a 84 8f bd
       -0.101320274 0.041208133 -0.085296646 -0.07007666
0003c0 f5 f7 79 bd 07 b9 d2 3d 3b d0 08 bd 6a 95 54 3d
       -0.061027486 0.102891974 -0.03340171 0.051900305
0003d0 8d 5e ad 3d 15 66 c7 3d b2 f5 03 3e f4 58 05 3e
       0.084653 0.097362675 0.12886694 0.13022214
0003e0 e5 7c 18 3e 24 de 50 bd 33 df 7e bd 72 2e f8 bc
       0.14891393 -0.0509931 -0.062224578 -0.030295584
0003f0 b8 cd e3 3d 11 de 9e bd 76 10 b7 bd 8a 45 f2 bd
       0.11123222 -0.077571996 -0.089386865 -0.1182967

fc2.bias f4 [3]
000000 3b 0b be 3e 98 6c 68 be 41 d5 20 be
       0.37117943 -0.22697675 -0.1570635
