results/arousal/classification_3/20251209_034501_479997/best_model.pt (torch, 648053 bytes, 22 tensors)

conv1.weight f4 [128, 1, 3]
00000000: ea49 e33e 3f33 d63e 07dc 4dbe 9710 233f
00000010: 8e92 85be 1e56 8d3d faf3 3abe fbb6 463e
00000020: 3c31 093f 8ca8 efbe e6e3 0a3f aa79 8439
00000030: 8645 f23e 98fe c1bd cba4 9f3e 345a 9cbd
00000040: 16b4 003f f45e 65bd d968 a0be 93c7 5e3e
00000050: ae5b 80be af47 33be e5f5 46be fb43 c23e
00000060: 6a75 a5be f42a dabe 62f8 24be bf2d 3abe
00000070: 9304 873e d7ee e1be e48e fe3e b156 22bf
00000080: 3c4c 8a3e 64c9 e93d b11b 27be 1b50 c73e
00000090: 6bda 3a3d 2d63 db3e 2232 85bd ccce 2ebe
000000a0: 77a1 963e 4f1e 1dbe 91ff ca3d 7968 213f
000000b0: de4d 8b3e a8b8 68be 810b a73e eb73 613d
000000c0: a820 a33e dd45 3ebe 1421 29bf 3021 dabd
000000d0: 97e7 e8be d64e eb3e fef7 9b3e 7498 3f3e
000000e0: ab60 413e 1e01 963d 5bad 0c3f 09ff c9be
000000f0: 503b af3c a035 0bbf 3c8b 353e b610 87be
00000100: 5e38 7b3e 840e 1ebe 6278 0c3f 0bb2 27be
00000110: 20be 89be 0d80 a6be b980 0e3f fd0f 8c3e
00000120: daa5 2d3f 7c8d d2be f8d2 fbbe f528 d7be
00000130: da02 aabe c0f3 b43e 09a5 ff3d bbe6 e93e
00000140: d882 93be e69a 9dbe 1393 ca3e 286e 96be
00000150: 0adb bc3e 05f7 6fbe f424 913e a01f dcbe
00000160: c228 6abe 8aa6 803e d0c4 f33d dfa3 9bbe
00000170: 208c 8e3e 41b8 0a3f 409a dcbe 2488 9dbd
00000180: 15e5 183f d52c 79be bab5 1dbe 7d10 03bf
00000190: a0da b3be 76a1 793e 47c1 a4bc efe3 f0be
000001a0: ad15 fd3d 23fc 89be b403 a4be 3cb8 aabe
000001b0: e568 01bf d327 93be 88a0 203f 3c5a 053e
000001c0: 1151 873e 9ced fdbe 1949 9ebe b100 8ebe
000001d0: 1476 233e e626 f0be 9f50 a9be 5756 92be
000001e0: 7f4a 283e 640d 99be 0ba5 c73b 377d d4be
000001f0: a9be 94be 3b0f b0be ddb9 99be 3c7d c2be
00000200: 760b 0b3f 7fe5 89bd a584 da3e b783 643e
00000210: 37cb debe aad1 0f3f 0f19 dcbd 07d4 02be
00000220: 6261 17bf 460b adbe 4403 333e 45d4 8dbe
00000230: dfee 5f3e cab9 cdbe 5eef 0e3f ef1d c3be
00000240: 2666 e7ba b07e e33b 6ee8 bf3e 1748 e83e
00000250: 2971 093f d44a e1be db7b 6b3e 97b1 afbe
00000260: 58cb f1bc 5ac0 a9be e4a0 253f 3c71 a4be
00000270: 40dd 9c3e f3b1 2e3e 0c69 323e d7c0 c1be
00000280: b8e4 0d3f e372 8f3d 1b47 023e 0d0b 29bf
00000290: c7b0 3b3e 4d37 12bd 072b aabe a42b 063f
000002a0: 6c65 533e 4e62 c6be c140 72be e253 d3bd
000002b0: 69da ca3e b776 30be 1b62 e0be 543a 36be
000002c0: f9cf 9fbe 9a14 103e 8852 d93e a762 16bf
000002d0: 801f 3e3d 2df4 e23e ff01 cf3d 50f9 50be
000002e0: d9cc 493e 6c9b ec3e c839 943e 530d 60bd
000002f0: ada0 acbd 5e40 7c3e 5e62 fcbd f4d5 21be
00000300: 7391 6f3e 3398 ff3e ebd0 b4bd f1d0 01be
00000310: a26f 7bbd a493 a1bd ebf9 493e 615e 823e
00000320: 9120 08bf f1b8 f4bd 10fc af3e 5f6e 843e
00000330: 883a 5fbd eda8 93be 746d 90be bd3f 0bbf
00000340: 156f 23be 5a6e 733e bfbf 9f3e e9d2 823e
00000350: 6e62 1bbf 704e a9be 6751 13bd 474f 2a3f
00000360: 21ca f73d d615 60be 5fd0 b23e 98c3 79be
00000370: 6a58 9dbe af58 d13e 6d0d 85be e78d fbbc
00000380: ae61 f3be 071d 973e 84ea 9d3e a5de 1f3e
00000390: acf4 b7be 0f20 eabe f6be b2be 1fe2 c43e
000003a0: 906d 203e a486 0c3f a128 ea3e 7775 8b3d
000003b0: a692 173d 5585 aebe 1e09 afbe b742 0cbf
000003c0: 62ca 923e 5b2e b8be 26c6 8bbd e998 92be
000003d0: 70df 23be 3c51 d9be 3b63 dcbe c563 353e
000003e0: 6df4 20be d505 043f 4fb2 25bd 5b6e aabe
000003f0: 7a56 573d 061a f2be 93de e4bd 4bc0 f8be
0.4439233 0.41835973 -0.20103465 0.6369719 -0.26088375 0.06901191 -0.18257132 0.19405739
0.5359075 -0.4680828 0.54253995 0.0002526765 0.47318667 -0.09472388 0.31180415 -0.076343924
0.5027479 -0.055998757 -0.31329992 0.21755819 -0.25069946 -0.17507814 -0.19429739 0.3794249
-0.32316142 -0.42610896 -0.16110376 -0.18181513 0.26370677 -0.44127533 0.49718392 -0.6341353
0.27011287 0.11415365 -0.16319157 0.38928303 0.045618456 0.42849103 -0.06503703 -0.17071074
0.29420063 -0.15343593 0.09912027 0.6305004 0.27207845 -0.22726691 0.32625964 0.05504219
0.31860852 -0.18581338 -0.660661 -0.10650861 -0.4548919 0.45958585 0.3046264 0.187105
0.18884532 0.07324432 0.5495202 -0.3945239 0.021390587 -0.543787 0.17728895 -0.26379937
0.24533221 -0.15435225 0.5487119 -0.16376512 -0.26902866 -0.3251957 0.55665165 0.27355948
0.67831194 -0.4112357 -0.49184394 -0.42023435 -0.332053 0.35342216 0.1248265 0.45683846
-0.28810763 -0.3078224 0.39565334 -0.29380918 0.36885864 -0.23434074 0.28348505 -0.42992878
-0.2286711 0.2512706 0.119027734 -0.3039846 0.27841282 0.541874 -0.43086433 -0.076919824
0.5972455 -0.24333508 -0.15401354 -0.51197034 -0.35127735 0.24377999 -0.020111693 -0.470489
0.1235765 -0.26950178 -0.32034075 -0.33343685 -0.5055068 -0.2874132 0.6274495 0.13022703
0.26429036 -0.49595344 -0.30915144 -0.27734903 0.15963012 -0.46904677 -0.33069322 -0.28581497
0.16434668 -0.2989303 0.0060926727 -0.4150178 -0.29051712 -0.3438662 -0.30024615 -0.3798617
0.54314363 -0.06733226 0.42679325 0.2231587 -0.43514416 0.56179297 -0.10746967 -0.12776195
-0.5913297 -0.33797663 0.17481714 -0.2770101 0.21868466 -0.40180808 0.55833995 -0.38108775
-0.0017654344 0.0069425926 0.37482017 0.453675 0.53688294 -0.44002402 0.22996466 -0.34315178
-0.029515907 -0.33154565 0.64698625 -0.3211764 0.3063755 0.1706007 0.17422885 -0.37842438
0.5542712 0.07004335 0.12722437 -0.6603249 0.18329154 -0.03569727 -0.33235952 0.5241034
0.20644158 -0.38746876 -0.23657514 -0.10318734 0.3961976 -0.17232786 -0.4382485 -0.17795688
-0.31213358 0.14070359 0.4244578 -0.5874428 0.04641676 0.44326916 0.101078026 -0.20407605
0.1970705 0.46212327 0.28950334 -0.054700207 -0.08429084 0.24633929 -0.123234496 -0.15804273
0.23395328 0.49920806 -0.088289104 -0.12677361 -0.06138576 -0.07889488 0.19724242 0.2546263
-0.5317469 -0.11949337 0.34371996 0.25865456 -0.05449918 -0.28839818 -0.28208506 -0.5439413
-0.15960343 0.23772565 0.31200978 0.25551537 -0.60697067 -0.33067656 -0.035966303 0.6652722
0.120991 -0.2188333 0.349246 -0.2439102 -0.30731517 0.40887973 -0.25986806 -0.030707313
-0.4753546 0.29514334 0.30842984 0.15612276 -0.35928857 -0.45727584 -0.34911317 0.38453767
0.15666795 0.54892945 0.45734122 0.06809514 0.03700509 -0.340861 -0.34186643 -0.547893
0.2867003 -0.35972866 -0.06824903 -0.28632286 -0.16003203 -0.4244479 -0.43044457 0.1771384
-0.15718241 0.515714 -0.04045325 -0.3328732 0.052572705 -0.4728548 -0.11175265 -0.48584208

conv1.bias f4 [128]
00000000: 9020 3dbe 373b 5f3e a9a9 1dbf ebc8 68be
00000010: 3bfa 4b3e d8a5 87be 1b5d 7abe a1d4 d3be
00000020: 6673 403e cbd4 bf3e 1952 7f3e 4162 e7be
00000030: 4496 1abf 4a48 933e ab57 9c3c 9739 ecbe
00000040: a8dc 63be fd35 333f 24ee 15be c720 88bc
00000050: 6906 2cbe 92f4 0ebf 166f 2dbf dc76 8ebe
00000060: 89d4 11be 862b 303e 50cd d4be 138e 9ebe
00000070: 435a ce3e a77f a03e 3da1 013f f262 81be
00000080: fba4 90be f5b9 2e3e d0ac dfbe fd02 0cbf
00000090: aeca f23d 62c4 b8be d041 07bf cb31 343e
000000a0: 1504 e73e 7786 823d b00a 14be 8795 25bf
000000b0: 69af 8ebc 7a6f f43d df05 b53e 8bb2 35bb
000000c0: 8ed1 b8be 2194 9b3e 4b4a f3be 2b2c fa3e
000000d0: 4388 bfbe 482c 503d fd73 febd 8087 0a3e
000000e0: b847 79be f629 f83e 7dca ca39 acf3 023f
000000f0: 32e9 e93e 121f abbe 8027 0abf 9ce7 f23e
00000100: de7e ae3e e481 27bf a358 adbb 6999 41bf
00000110: 5ae4 19bf 3671 103e e677 193e a959 c23c
00000120: a4aa 5cbe f592 543f 8b73 053e cbcc 0fbf
00000130: 4761 fd3c 4de6 e3bb 59fe 403e 23f6 c3be
00000140: 87f0 913e 4da8 b6be 3cce 0bbf 0f9e b9be
00000150: 3d88 f23e cb6f 2c3f 78cc c83e 2044 143f
00000160: 4543 5f3e c651 1cbd 2d40 0bbf 2b40 ac3d
00000170: bc37 d0be 8647 05bf ec78 bcbe 6066 a23e
00000180: e680 053f 0cb1 94be 90fc ecbe 1bfa 5d3e
00000190: 1145 f2be a5a1 e4be 4b12 053f 7e80 3cbe
000001a0: 36b6 323f a93f 853e 55ef af3e 9394 933e
000001b0: e4ea d63d ce48 323b 0239 2ebd 8301 f33d
000001c0: 0f25 2e3e 86ec f43e 2e42 b8bd 4adc c0be
000001d0: 7732 14be 4c93 c3be 1454 923e 5f71 263f
000001e0: 94d8 ad3e 355f 953e e4ac e6be a310 e3be
000001f0: 19f2 14be 5eeb eabd e009 183e 074d 37bf
-0.18469453 0.21799932 -0.61587006 -0.22732894 0.19919674 -0.26493716 -0.2444958 -0.4137316
0.18794021 0.37467036 0.24933662 -0.4519215 -0.6038554 0.2876609 0.019084772 -0.46137688
-0.22252142 0.70004255 -0.14641625 -0.016617192 -0.1679932 -0.55841935 -0.6774763 -0.27825058
-0.14241232 0.17204103 -0.4156289 -0.3096777 0.4030324 0.3134739 0.50636655 -0.25270802
-0.2825087 0.17063124 -0.43686533 -0.5469206 0.11855064 -0.36087328 -0.52834797 0.1759712
0.45120302 0.063733034 -0.14457202 -0.64681286 -0.017417626 0.11935325 0.35356042 -0.0027724828
-0.36097378 0.3038645 -0.4751762 0.48861822 -0.37408647 0.05082348 -0.12424467 0.13528252
-0.24343765 0.48469514 0.00038679308 0.51153064 0.45685726 -0.33422142 -0.5396652 0.4744233
0.34081167 -0.6543257 -0.0052901073 -0.7562471 -0.6011406 0.14105687 0.14987144 0.023724394
-0.21549469 0.8303674 0.13032357 -0.56171864 0.030930175 -0.006954944 0.18847026 -0.38273725
0.2850382 -0.35675278 -0.54611564 -0.36253402 0.47369567 0.6735808 0.39218497 0.5791645
0.21803005 -0.038163923 -0.543948 0.084106766 -0.40667522 -0.5206226 -0.36811006 0.3171873
0.5214981 -0.29041326 -0.4628644 0.21677439 -0.47318318 -0.44654575 0.5198104 -0.18408391
0.6980928 0.2602513 0.34362283 0.2882429 0.104940206 0.002720404 -0.042534836 0.11865523
0.17006324 0.47836703 -0.08996998 -0.37668067 -0.14472376 -0.38198316 0.28579772 0.6501674
0.33954298 0.291742 -0.4505378 -0.4434863 -0.14545478 -0.11470674 0.14847517 -0.7160191

bn1.weight f4 [128]
00000000: e8de 2e3f 8e00 5f3f 3b6d 963f 31d9 373f
00000010: 6afb ce3e 6b3b 8a3f da37 1d3f fdc7 9e3f
00000020: c313 1b3e 40e0 063e d8f2 8b3f fb49 c43f
00000030: 5a0e b33f 46a1 273f aa56 e93e d666 a43f
00000040: 9ae3 3c3f 34ff 613f 1c76 bd3e 4d01 853f
00000050: dcbd 6a3f 34c3 963f ef25 c03f dfb0 523f
00000060: 2398 4b3f 03e4 113f 6d9c ba3f 613a 3e3f
00000070: e51e a73e a30e e43e bf1e 313f 2765 743f
00000080: 9008 9e3f 7a4f 2f3f fcfe 893f 52d9 1f3f
00000090: c66f 3a3f 22bb 8a3f 36b2 a93f add5 963e
000000a0: 7a97 393f 0acc c03e 9ae4 5b3f f825 8f3f
000000b0: 5a9d 3b3f 971b 713e 2ae1 373f eaf1 3d3f
000000c0: 7e1c 803f 504e 3d3f 5102 a33f fdb6 533f
000000d0: 87ca 523f 57a7 743f 065c 573f b80c 663f
000000e0: 7da5 5a3f 239d 3f3f a7bd a03e 61c3 843f
000000f0: b822 ce3e 1317 653f 1263 e93f 1829 883f
00000100: caee 013e 5e82 953f 6164 453f b6a8 ae3f
00000110: 1b18 743f 7cec e43e 75e0 753f 93d0 693f
00000120: d448 9f3f 34b5 673f 5b90 323e 0156 803f
00000130: 0412 793e d6b7 023f fe28 163e 961b d73e
00000140: 196f 9e3f ba8a 333f dd07 a93f 236a 7d3f
00000150: 1cdf 233f b1ec 2d3f 71e1 9a3e 3737 803f
00000160: 4a9e 223f d87d 0d3f 94af b23f d03f 063f
00000170: 4515 8a3f 32a8 243f b999 413f aed3 3c3f
00000180: e439 833f dc5c 033f 3599 923f 3a28 723f
00000190: 990a 9c3f 9f00 a93f 9d9b e33e d4e3 043f
000001a0: 08e8 883f bf0e 5f3e 0de8 e33e cff2 0a3f
000001b0: d3c9 8a3e 8db0 ca3e a810 5e3f 1162 043f
000001c0: 0c10 653f 4870 903e d64c 883e 1d5a b03f
000001d0: 0306 5f3f c636 2e3f 2a83 4e3f 04e5 373f
000001e0: 7b93 6f3e 4778 f13e ec24 5f3f 6f91 2b3f
000001f0: a3f0 ae3e 849a 653f 51a2 973f 683a aa3f
0.6830888 0.8711022 1.1752084 0.7181578 0.4042619 1.0799383 0.6141335 1.2404782
0.15144257 0.13171482 1.0933485 1.5335077 1.3988755 0.6548046 0.45573932 1.2843883
0.7378479 0.88280034 0.37004173 1.0391022 0.9169595 1.1778321 1.5011576 0.82301134
0.7952902 0.56988543 1.4578987 0.7430783 0.32640758 0.44542417 0.6918754 0.95466846
1.2346363 0.68480647 1.078094 0.6244098 0.728268 1.0838358 1.3257511 0.29459897
0.7249676 0.3765567 0.85895693 1.1183462 0.73286974 0.23545681 0.7182795 0.74197257
1.0008695 0.7394762 1.2735082 0.8270109 0.8234028 0.9556784 0.8412479 0.8986316
0.85408765 0.74849147 0.31394693 1.0372125 0.40260863 0.89488333 1.8233359 1.0637541
0.12688747 1.168041 0.7710629 1.3645236 0.9534928 0.44711673 0.9604562 0.91333884
1.24441 0.9051087 0.1743788 1.0026246 0.24323279 0.5106176 0.14664075 0.42013234
1.2377654 0.70133555 1.3205525 0.98990077 0.6401231 0.6793929 0.30250123 1.001685
0.6352278 0.5527015 1.3959832 0.5244112 1.0787741 0.64319146 0.7562519 0.737605
1.0252042 0.5131357 1.1453005 0.9459263 1.2190734 1.3203315 0.4445466 0.5191014
1.069581 0.21782969 0.44512978 0.54276747 0.27107105 0.39587823 0.86744165 0.5171214
0.8947761 0.28210664 0.2662112 1.37775 0.8711855 0.6805233 0.8066889 0.71833825
0.23396103 0.47162077 0.87165713 0.6701879 0.34167966 0.896889 1.184641 1.3299074

bn1.bias f4 [128]
00000000: 816b cfbc 14cd a9bd 697f ac3d e480 f4bc
00000010: bea9 3fbc 1d36 21bc 716e 40bd 2aff a23e
00000020: 4320 bc3d 28e8 a4bc 9075 053e 3863 3b3e
00000030: c556 65bd ef7b f93c b14e 65bc af1a 7f3e
00000040: 8625 6e3c 7b56 473e 2bd1 0e3c acd2 6a3e
00000050: b1a5 983d 1e13 9b3c 46f1 a53e 5040 b5bc
00000060: b9d3 c33d 5fdc 003e 7c95 743d 56ff 5e3c
00000070: a00c 0c3d 1012 513d c4b2 5abd ff3b ab3d
00000080: 6f70 153e 1f91 8e3e b294 413e ba31 4d3d
00000090: 2682 913e e721 6d3e 5114 1b3d cbe7 203e
000000a0: 0766 ff3d 2062 2d3e adb4 9d3e 57ba 97bc
000000b0: df70 0abe ff0a 883d ba85 d9bd 576b 03be
000000c0: 954e f1bc fdea 72bc 384d 323e 4f31 3f3e
000000d0: 4acb 8abc ab22 10be 90b3 413e cb14 103d
000000e0: d71f 3e3e 092d 443d c143 d23d d76a 503e
000000f0: c44f 483e bc51 693e be07 953e ffbc 903e
00000100: d040 4d3c 4791 d63c 8e65 913d a7f9 8e3d
00000110: 2ff8 193e c6c3 ac3c 743a f23d 6cfb 0d3e
00000120: 071a 2d3d 2d00 803e 7393 4bbc 5218 763d
00000130: c659 153e 9a6c 893c 2468 62bc 0c8f 093e
00000140: 28b3 733e 0ec6 483d 8554 7f3e 9d62 663e
00000150: 1ef2 ba3e 84f7 6e3c 473d 963d 2d16 3a3d
00000160: 7d66 133d 2693 92bd 4988 223e 1fdf b13d
00000170: 35f1 473e 83ae 983d 4b49 4e3e 6e56 5d3e
00000180: 164e 7fbc 0580 393e bd80 733e 497c 563e
00000190: 2f76 3b3e 9d3b 8e3e 39b3 e53c f5e3 a93d
000001a0: 1a15 223e b096 2cbc 0cd0 f4bd f6d8 02bd
000001b0: f6f3 143e b028 843c 7182 193e a13c 0bbe
000001c0: f657 0a3e bd96 a13e a6f1 343e ea1e 803e
000001d0: 12f6 4e3e 4cb3 013e 6a50 b53d 0690 d93c
000001e0: c046 5c3d a38d 01bd df7a a03d 76d6 2a3d
000001f0: 3c5e fb3d 1c3d 243e 42c5 67bc 3d45 983e
-0.025319817 -0.08291069 0.08422739 -0.029846616 -0.011698185 -0.009839562 -0.046980325 0.318353
0.09185841 -0.020130232 0.13033128 0.18299568 -0.055990953 0.030454604 -0.013995812 0.24912523
0.0145353135 0.19466583 0.008716862 0.22931927 0.07453478 0.018930014 0.3241064 -0.022125393
0.09561867 0.12584065 0.059712872 0.0136106815 0.034191728 0.051042616 -0.05339314 0.08361053
0.14593671 0.27845094 0.18904379 0.05009625 0.28419608 0.23157464 0.037861172 0.15713422
0.12470632 0.16931963 0.30801907 -0.018521471 -0.1351962 0.06642722 -0.106212094 -0.12833916
-0.029456416 -0.014826533 0.17412269 0.18671153 -0.016942639 -0.14075725 0.18916154 0.03517608
0.18566833 0.04789451 0.10266829 0.20353256 0.19561678 0.22785085 0.2910747 0.28269193
0.01252766 0.02619232 0.07099448 0.06981211 0.15036081 0.021089446 0.11827555 0.13865441
0.04226115 0.25000134 -0.012425291 0.060081787 0.14585027 0.016775418 -0.013818774 0.13433474
0.23798811 0.049017005 0.24934585 0.22498555 0.36512846 0.0145853795 0.073359065 0.045431305
0.035986412 -0.071569726 0.15872301 0.08685135 0.19525607 0.074551605 0.20145147 0.21615002
-0.015582582 0.18115242 0.23779579 0.20945849 0.18306802 0.27779856 0.028039562 0.082954325
0.15828362 -0.010533974 -0.11953744 -0.03194519 0.14546189 0.016132683 0.14991166 -0.13597347
0.13510117 0.31560317 0.17670307 0.25023586 0.20211056 0.12666053 0.088532284 0.026557934
0.05377841 -0.031629216 0.07835936 0.041708432 0.12273833 0.16038936 -0.014146151 0.29740325

bn1.running_mean f4 [128]
00000000: fd60 483e 1ee4 aa3e 1787 803d 04c2 b03d
00000010: c698 b23e 6acc a33d bbf1 303d 6460 983c
00000020: a833 d03e 302b d43e 9f64 ae3e 16da cc3c
00000030: 6e5f b93c 6a3a 983e 1e9b bb3e 3ceb 3a3c
00000040: 7e0e 233e 1897 363f 521c 2c3e dd54 343e
00000050: da1d c33d f78b 633a cee5 b13c 1f23 0f3e
00000060: b4d3 4e3e cd02 a33e aedb 473d f95a 033d
00000070: 4b9a de3e e708 cd3e b17f 033f 2ff8 a13d
00000080: 844c b23d 38bd b73e d09f b43c 76f2 ae3d
00000090: 33dd a23e 2973 0f3d 4073 8b3c b1dd e43e
000000a0: 7638 e93e ab79 bc3e 2142 0f3e f7fa 393d
000000b0: d338 1e3e 9e99 d63e 7333 b93e 29fe 323e
000000c0: 5570 3b3d 8f98 ea3e e29e a43b 4c43 053f
000000d0: a6d4 b83d 2220 573e 98a3 0a3e 97de 713e
000000e0: 2e2f 9e3d 1952 fb3e 4c66 973e 5cff 0c3f
000000f0: 8393 023f 04dd c13d 7167 733b 60e6 f33e
00000100: 0653 e43e cc29 ad39 0ad1 2c3e de40 ac3c
00000110: b488 d53c d3c3 9b3e 61e7 943e b6b7 7c3e
00000120: 2904 483d 871b 563f a0fb a43e 3f65 a43d
00000130: 780a c83e a5ed b93e 34b3 9e3e db0d 633e
00000140: 9c5a a43e eb4a ff3d 556d 323c 1ec9 843d
00000150: 5f87 073f d5dd 2f3f b495 093f 9aa7 183f
00000160: f47a e13e 66a7 803e 1777 8b3c 7191 af3e
00000170: e102 3f3d b418 763d 84cd 363d e3df d73e
00000180: 14b9 073f 9cb5 6b3e c09d f33c ae70 983e
00000190: 9ec4 ba3b 3688 5c3d f8ca 053f ceb9 5c3e
000001a0: 9640 393f 0f36 fa3e 8350 b83e 99cc bb3e
000001b0: f2aa ce3e 4d74 ac3e 40b2 433e c558 693e
000001c0: 2e2c 623e cb79 f93e 7928 9c3e 5dcc 283d
000001d0: 0a82 c03d 9b1b 363e 18fe be3e 2ab7 293f
000001e0: d8e4 f43e c6d7 ad3e b2e8 013e c586 bc3d
000001f0: d5e0 423e 06b6 113e b348 8a3e 09f2 9f3c
0.19568248 0.33377165 0.06275766 0.086307555 0.34882182 0.07997973 0.043199282 0.01860065
0.4066441 0.414392 0.34061143 0.025006335 0.022628512 0.29732066 0.36641783 0.011408623
0.15923497 0.713243 0.16807678 0.17610498 0.09527178 0.0008680219 0.021716025 0.13978241
0.20197946 0.31838074 0.048793487 0.03206918 0.4347709 0.40045854 0.51366717 0.079086654
0.087060004 0.3588655 0.02204886 0.085423395 0.31809387 0.035021935 0.017022729 0.44700387
0.4555089 0.36811575 0.1399007 0.045405354 0.15451364 0.41914076 0.36172065 0.17479767
0.045761425 0.45819518 0.005023823 0.5205581 0.090249345 0.21008351 0.13538969 0.23620068
0.077238426 0.49086073 0.29570234 0.5507715 0.51006335 0.094659835 0.0037140513 0.476367
0.44594592 0.00033028272 0.16876617 0.021027025 0.026066162 0.3042284 0.29082778 0.24679455
0.048832092 0.83635753 0.32223225 0.08027124 0.39070487 0.3631412 0.30996096 0.22173254
0.3210038 0.12465461 0.010890325 0.064836726 0.52940935 0.68697864 0.53744054 0.5963074
0.44039118 0.25127715 0.01702456 0.3429065 0.046633605 0.060082152 0.04462959 0.42163
0.5301678 0.23018497 0.029738307 0.29773468 0.005699708 0.05384084 0.5226283 0.21555254
0.72364175 0.48869368 0.35998926 0.36679533 0.40364796 0.3368248 0.19110966 0.22787769
0.22087166 0.48725733 0.30499628 0.04121052 0.09399803 0.17783968 0.37303233 0.6629511
0.47830844 0.33953685 0.12686422 0.09205393 0.19031079 0.14229593 0.2700859 0.019524591

bn1.running_var f4 [128]
00000000: 31cb 183e 831f 333e 0096 343d bcf1 283d
00000010: 474e 4f3e 56f8 1e3d ed82 443c cef1 c63b
00000020: c09e 663e f8bb d73d 4a31 0e3e 608d 213c
00000030: b3dd 2d3c 0931 173d 2b6b af3e 0ea5 723b
00000040: 941e a43d c86d 273e 22c4 d13d fca6 b63d
00000050: ff12 ff3c 0623 3e39 92f1 3b3c 45df ca3d
00000060: d4b7 003e 2f0d 003e 7eba d03c dac5 233c
00000070: a349 0f3e 67a8 073e f92d 773d e4f5 253d
00000080: 57f2 433d 8d4f 2a3e 9bdd e23b 49fc 4e3d
00000090: b7a2 2c3e 777f 593c e289 c83b 4466 963e
000000a0: 26c9 493d e8bd 713e bd3c 863d 57bf e93c
000000b0: 1073 823d 3ea1 8d3e 873c 453d 44a3 8c3d
000000c0: 9a81 a23c 829c a63e 2ac5 c53a 9e21 223e
000000d0: 75e6 5f3d 8c87 d03d c090 4f3d 2ae6 bc3d
000000e0: 2c14 e33c 0c89 9b3d 9e6b 2d3e 6c4b 393e
000000f0: 67fa 6d3e 5ae5 6f3d 07c1 8c3a 3145 513d
00000100: 7041 853e 865b e938 07d2 813d 46ca 413c
00000110: a41f 413c f1d6 f53d 6601 023e e2ec 1d3e
00000120: 2bc0 8a3c 57b1 243e 5553 1b3e 5522 6d3d
00000130: 9e94 8f3e 8f0b ae3e 1e71 233e fc70 303e
00000140: b491 893d 45cb 8c3d 692a 723b 204d 083d
00000150: 1dcf 2a3e 3546 1c3e 599f c13e e22d 0b3e
00000160: ef9c bb3e d69e 003e efb8 f93b 1a8b 8c3e
00000170: 54c2 9f3c a506 f93c 748e 843c c1ee 263e
00000180: c71a d13d 04bc 273e 877a 363c 6374 a43d
00000190: fc25 ec3a 00e0 da3c c043 463d ee8f 2f3e
000001a0: 2d14 903e 5f92 da3e f239 703d 8e96 2d3e
000001b0: e975 883e b6a6 5b3e 36a5 d93d 2017 963d
000001c0: 24aa 4b3d 88d0 9f3d 8cce 543e 2113 9a3c
000001d0: 24ad 1c3d 941a 203e e759 203e 3148 153e
000001e0: 08db 623e bc0c f83d a397 9e3d 8084 803d
000001f0: fc1d c83d 97ca 9b3d 84bd eb3d 6609 253c
0.14921261 0.1749249 0.044088364 0.04124616 0.20244704 0.03881105 0.011994106 0.006071306
0.22521496 0.10533899 0.1388599 0.009860367 0.010611939 0.036911998 0.3426145 0.003702465
0.08013645 0.16350472 0.102424875 0.089185685 0.031136988 0.00018132859 0.011471169 0.099058665
0.12570125 0.12505029 0.025479551 0.009995902 0.13992934 0.13247834 0.060346577 0.040517703
0.047838535 0.16631909 0.00692339 0.050533567 0.16858946 0.013275019 0.0061199525 0.29374897
0.049264096 0.236076 0.06554554 0.02853362 0.06369603 0.2766208 0.048153426 0.06867078
0.01983719 0.3254128 0.0015088667 0.15833136 0.05466314 0.101821035 0.050675154 0.09223588
0.02771958 0.07594499 0.16935584 0.18095177 0.23240052 0.058568336 0.0010738679 0.051091377
0.26026487 0.00011127353 0.06338888 0.011828011 0.011787329 0.120038874 0.12695846 0.15422395
0.016937336 0.16083275 0.15168507 0.05789407 0.28043073 0.33993194 0.1596112 0.172306
0.06717244 0.06874708 0.0036951548 0.033276677 0.1668057 0.15261157 0.37816885 0.13591722
0.36643168 0.12560591 0.0076209228 0.27449876 0.019501843 0.030398676 0.016181208 0.16302015
0.102101855 0.16380316 0.011137611 0.080300115 0.0018016691 0.02671814 0.048404455 0.17144749
0.28140393 0.42689797 0.05864901 0.16951963 0.26652458 0.21450314 0.106272146 0.073286295
0.049722806 0.07803446 0.20781916 0.01880795 0.038251057 0.15635139 0.15659295 0.1457832
0.22153866 0.12111804 0.07743766 0.06275272 0.09771344 0.07607 0.115107566 0.010073042

conv2.weight f4 [128, 128, 3]
00000000: 5cbf 80be 52cd babd 58fa bcbd 300d 13be
00000010: 9a93 d3bc fb7b 96be 4e40 99be 277a d4bd
00000020: c89e 90bc 1113 1cbe 3180 cebb 29b1 b43d
00000030: 6191 bcbb f3f8 abbd 6412 303d 213f cdbe
00000040: d979 b5bc 258e 6a3d 8a75 f9bd 9f0b c63c
00000050: 2f5c 88bd 2d81 243e beed 33be 2e6a 2a3b
00000060: 28e7 2dbe e95c 123c b363 0abe 207a 243e
00000070: de15 30bd b532 abbd 2442 8fbd 0dd2 38bd
00000080: 95ac f5bc c522 953e 794c 0fbe 5afa c3bd
00000090: 5d5a 41be 9667 033e da84 383e 17d7 973d
000000a0: 249f 823d b40c b53d b2ef 04be 6b99 13be
000000b0: 7c37 6d3e 9fe1 7bbb d845 91bc 4d0a eebd
000000c0: be33 f53d a8ba 36bc 53ad 83be 5e1b a13d
000000d0: 9c58 83bd 2716 a73d ef16 23be 0aed 31be
000000e0: 202e 28bd 3862 b43d 0d95 343d 0244 dabd
000000f0: 253a 76be c122 473d d25c 07bd efe3 01be
00000100: 10aa 18bd 932e d2bd e7b2 97be cb5f a3bb
00000110: de9e 37be 65d7 e6be c4e4 85bd 6791 2b3e
00000120: b4cb cdbd 89b3 8fbc 6c7f dbbe ee1e 61bd
00000130: d264 ab3b be5f a03d e15a 16be 054d 113d
00000140: e860 4bbe 66d0 bebc 447c 8d3d 73f0 793c
00000150: 27e8 393a fdfc 5bbd d47c b53c eb3b c73c
00000160: 2df7 84bd 11b6 be3d fd9b 0f3a ecd0 48bd
00000170: e48e eb3d 7d52 49be eb28 9d3d aad6 2dbe
00000180: be87 0cbf 4f89 fe3d 097d bbbe 4552 afbd
00000190: 8c4f 06bc 6292 363d 9063 923d e083 fe3d
000001a0: 20f0 0cbe c9d7 ddbd 2374 51bd 8af0 4abe
000001b0: 3a12 31bd a324 cabc 9ce0 b63d bcc0 ccbc
000001c0: 951c ecbd 51de 80be 0d2c 84bd cd3b a73e
000001d0: 0d75 edbc b43e 3abd aafb 31bd 0c95 8abe
000001e0: da2b dbbd 3624 17bd 2f9c b8bd f1fb ebbd
000001f0: c7fe e2bd e6e4 cebe 9547 c7bd 5ed0 003a
00000200: b2ca b63c 919b ddbe 3482 713e 80b2 853e
00000210: e410 abbd 3a62 323e ecda 243e 6acb edbd
00000220: 6f7f 44bd 098a b9be 5f0f 143d bce7 1bbd
00000230: 6d39 433d 9573 213e 5b60 bc3d 812e 5f3d
00000240: d1bf 13be f93f 6cbe 4701 9a3c 7df8 473c
00000250: 1cbe 0abd 25cf 08be bcf2 7d3d 1db0 803e
00000260: 6987 96be 484f 683d 2519 c63d b7f0 b83d
00000270: a459 8fbd 968f 27be fc2c 01be 4977 67bd
00000280: 6a0f e93d 3178 c13e 283d 72be 44fb dc3c
00000290: e51d 99bd 9395 073e 3827 fabd 8e89 163e
000002a0: 9024 1b3e f11a 373d 42b0 73be 9446 993d
000002b0: dc3f a63d 53a1 623e b36d e1bd 001e f1bd
000002c0: 24d6 cdbe 40d6 963d f5e6 33bd a46d 40be
000002d0: 8250 fcbd 6e77 c03d e1e8 ae3e 06e5 d5be
000002e0: d8b3 87be 82cb 203e 42c9 ca3d 9869 ba3d
000002f0: bd84 e63d ada2 f2bd 1dea 09be d905 11bf
00000300: f32c 6abd 7c8c 743d 0bb2 503e 57a8 0a3d
00000310: 9b5e 69bd 2006 ba3d 5bcc 3bbc 5bc3 e3bd
00000320: 6520 37be 7142 f8be 68ed a93e 21e0 913e
00000330: e1b7 543d 0a44 fd3d d3ab 17be da00 8d3d
00000340: dfc2 87bc ec2c 233d 8fac f53c 44e7 3abd
00000350: b907 c1be d78d e93c d1f7 cdbd b91c f13d
00000360: 8f84 f33c e188 5abd 5462 453d 1ca1 623d
00000370: 835a 4dbd 43fe 0e3e 8bcf b93d 746e 01bd
00000380: 16fd b6be 7088 3cbe b107 513d 047a 773d
00000390: 180c e9bd 4e22 bdbd 7cd4 c0be db1b 443c
000003a0: 38c6 72be 1477 eb3d 7648 bdbd 0cc6 c73b
000003b0: 5b84 be3a f21c f5bd 519e 31be 28e9 b2be
000003c0: 3ad8 43be a300 99bd 8907 6fbe 3699 16be
000003d0: 0af1 25be c958 b3be dbf5 abbd 4444 aa3d
000003e0: 15d5 0e3e a197 88be 90be 91bd 2597 9fbd
000003f0: acdc babd 3302 0abc 1259 c4bd 1c57 39bc
-0.25145996 -0.09121193 -0.09227437 -0.143605 -0.025827218 -0.29391465 -0.29931873 -0.10374861
-0.017653838 -0.15241648 -0.0063019027 0.08822853 -0.005754635 -0.08397093 0.04298629 -0.40087226
-0.022152828 0.057264466 -0.12180622 0.024175463 -0.066582076 0.16064902 -0.1757116 0.002600323
-0.1698271 0.008933284 -0.13514595 0.16062212 -0.042989604 -0.08359281 -0.06995037 -0.045122195
-0.02998952 0.2912809 -0.13994016 -0.09569235 -0.18882127 0.12832484 0.18019429 0.07414072
0.0637801 0.088403136 -0.12982062 -0.14413993 0.23165697 -0.0038434041 -0.0177335 -0.116230585
0.1197276 -0.011152901 -0.25718173 0.07866548 -0.06413385 0.08158522 -0.15926717 -0.1737558
-0.041059613 0.08807796 0.04408746 -0.10657503 -0.24045618 0.04861713 -0.033047505 -0.12684606
-0.03727156 -0.102627896 -0.2962868 -0.0049857846 -0.17931697 -0.45086208 -0.06537774 0.16754685
-0.10048619 -0.017541664 -0.42870653 -0.054961137 0.0052305246 0.078307614 -0.14683105 0.035473842
-0.19861186 -0.023292731 0.069084674 0.0152550815 0.00070917833 -0.053708065 0.02215425 0.024320563
-0.064924575 0.0931207 0.0005478261 -0.04902737 0.115018636 -0.19660373 0.0767382 -0.16976419
-0.54894626 0.12428533 -0.36618832 -0.085606135 -0.008197676 0.044573195 0.07147896 0.12427497
-0.13763475 -0.108321734 -0.051136147 -0.19818321 -0.043230273 -0.024675673 0.089295596 -0.024994247
-0.11528889 -0.25169614 -0.064537145 0.32662812 -0.028986478 -0.045469955 -0.043452896 -0.2706684
-0.107017234 -0.036899768 -0.09014165 -0.115226634 -0.11083751 -0.4040901 -0.0973045 0.00049138616
0.02231345 -0.4328275 0.23584825 0.26112747 -0.08352831 0.17420283 0.16099137 -0.11611064
-0.047973093 -0.36238125 0.03614747 -0.038062796 0.047662187 0.15766747 0.09198066 0.05448771
-0.14428641 -0.23071279 0.018799437 0.01220524 -0.03387271 -0.1336027 0.061999068 0.25134364
-0.29400185 0.056716233 0.09672765 0.09030288 -0.069995195 -0.16363367 -0.12614816 -0.056510244
0.11379893 0.3778701 -0.23656142 0.026975282 -0.07476405 0.13240652 -0.12214512 0.1470091
0.15150666 0.044703428 -0.23797706 0.07484165 0.08117649 0.22131853 -0.110072516 -0.117733
-0.4020244 0.07365084 -0.04392143 -0.18791825 -0.12320043 0.093977794 0.34162048 -0.41776294
-0.26504397 0.15702632 0.09901668 0.09102172 0.112557866 -0.11847434 -0.13468213 -0.5664955
-0.057171773 0.05970429 0.20380418 0.033851948 -0.05697499 0.090831995 -0.011462296 -0.111212455
-0.17883451 -0.4848819 0.3318894 0.2849131 0.051933173 0.12366493 -0.1481164 0.06884928
-0.016572414 0.039837763 0.029989509 -0.04563071 -0.37701204 0.028510017 -0.10057033 0.117730565
0.029726295 -0.053353194 0.048189476 0.055329427 -0.050135147 0.1396418 0.09072789 -0.031599477
-0.35739964 -0.18411422 0.051032726 0.060419098 -0.1137926 -0.09235059 -0.37662113 0.011969532
-0.23708427 0.11497322 -0.092423365 0.006096607 0.0014535295 -0.119684115 -0.17345549 -0.3494351
-0.19125453 -0.074708246 -0.23342718 -0.14706883 -0.1620523 -0.35028675 -0.083965026 0.08313802
0.13948472 -0.26678184 -0.07116425 -0.077925004 -0.09124121 -0.008423376 -0.09587301 -0.011312272

conv2.bias f4 [128]
00000000: 1c37 fbbd 3b0d 83bc 2990 aa3d fea4 95be
00000010: 37fb 48be 1572 63be 1b47 42be f36f a1bd
00000020: a676 3ebe c610 193d 65b3 15bd 4547 5dbe
00000030: 6f95 cdbd 6301 bdbd 6d1a 18bd 6e4b b73d
00000040: 5bf3 83bd a877 2a3d 82c4 d03c 18f3 a5be
00000050: 7cc9 a1be e724 26be 4e07 9fbe 5747 d73d
00000060: 364f 57be 7487 c5be bb94 fdbe baee 6cbd
00000070: 4561 cdbb f7d0 2abe 17da 8abe a6a4 d03d
00000080: 3af4 9e3d 7c01 68be 6df2 66be 4530 87be
00000090: 7662 dc3d b88e 4fbe 46f0 48be ba80 ce3d
000000a0: c475 ccbe 9748 82be d078 31be b553 453d
000000b0: 0b90 36bd bea4 42be 5532 98be c6e7 f9bd
000000c0: 124a 893e 7bbf f2bd 741e 4ebe e203 2f3e
000000d0: 5fdc 0dbe 4628 1dbe 3872 22be 620d 3fbe
000000e0: f6aa 1abe 41b9 04be a976 abbe 6a6a 8bbe
000000f0: df09 9bbd 1ae8 0fbe d80c 463e 4ace 0fbe
00000100: 79e9 a2be 8a32 4ebe 72cb 9bbe 16b8 c1bd
00000110: 4790 66bd 2b27 dabd fb3d 1c3d 6f11 98be
00000120: 05a7 693c b4f4 93be 1e2f 253e 1a7f f8bd
00000130: d9c2 903d 6abc d8bd 33b2 40be 7d62 09bd
00000140: ad8e 883b e282 25be 2379 35be e11d 6cbe
00000150: cbda 9dbd 44b3 1dbe ce2a dc3c 404b 93bd
00000160: 1d25 c63c 393f 21be 170f 59be 047a 26be
00000170: edef a9bd d5ce 063b 4f2b 7ebe 67a3 fa3d
00000180: 804d 3cbe 6fb1 f7bc ef19 92bb 4ab8 3e3e
00000190: 0191 6cbe 437a 403d 801e afbe 53cb 49be
000001a0: 39e8 d3be 9f87 77bd b2da 2cbe f807 b23d
000001b0: a13b be3c c6a7 2cbd ad0c aabc 4dc2 b3bd
000001c0: 8c1b 1bbc a3a7 87be e7c6 30be 3b1c f3bc
000001d0: ea26 83be 7c06 11be 7eae ddbd 480a 0fbe
000001e0: c1db c1bd 23d4 b8bc 25e4 cdbd 9779 27be
000001f0: 6210 f8bd c1cc 3f3e 9571 66bd 3123 84bd
-0.12266371 -0.01599752 0.083282776 -0.29227442 -0.19627081 -0.22211488 -0.18972437 -0.07882681
-0.18599948 0.037369512 -0.036548037 -0.21609218 -0.10038268 -0.0922878 -0.037134577 0.08949934
-0.06442901 0.04161802 0.025484327 -0.32412028 -0.31599033 -0.16225015 -0.3106026 0.10511654
-0.2102631 -0.38579905 -0.49527535 -0.057844855 -0.006267699 -0.16681276 -0.27119514 0.10187654
0.07761426 -0.22656816 -0.22553416 -0.26404014 0.107609674 -0.20269287 -0.19622907 0.100831464
-0.39933598 -0.25446007 -0.17331243 0.048175532 -0.044570964 -0.19008157 -0.297259 -0.122024104
0.26814324 -0.11852928 -0.20128804 0.17091325 -0.13853596 -0.15347394 -0.15863883 -0.18657449
-0.15104279 -0.12961294 -0.33488968 -0.27229625 -0.07570242 -0.14053383 0.19340837 -0.14043537
-0.3181875 -0.20136467 -0.30428654 -0.0945894 -0.056289937 -0.10652002 0.038145047 -0.297008
0.014261012 -0.2889763 0.16131255 -0.12133618 0.07068414 -0.10582812 -0.18817978 -0.03354119
0.004167399 -0.16163209 -0.17721991 -0.23058273 -0.07707747 -0.15400416 0.02687588 -0.07192087
0.024187619 -0.15746774 -0.21197163 -0.16257483 -0.08297715 0.002057006 -0.24821208 0.12238198
-0.18388939 -0.030235974 -0.004458658 0.18624988 -0.2310219 0.046991598 -0.34202957 -0.19706468
-0.4138811 -0.060432073 -0.168803 0.08692926 0.023221793 -0.04215219 -0.020757997 -0.08777294
-0.009467017 -0.26495084 -0.17263375 -0.029676547 -0.25615627 -0.1416263 -0.10824297 -0.13968766
-0.09465743 -0.022562092 -0.10053281 -0.16354977 -0.121125 0.18730451 -0.056260664 -0.06452025

bn2.weight f4 [128]
00000000: ce23 663f 76b8 443f 9d95 703f 13db 663f
00000010: d148 503f 6033 573f cb7b 643f 626a 923f
00000020: a4d3 483f 728f 473f 9104 833f a9cd 593f
00000030: 81c0 643f 4273 503f f30c 6b3f 34c1 903f
00000040: f0a7 553f 2e91 5b3f c9ef 663f e651 853f
00000050: 2ac7 083f bbbf 813f 17ec 833f 7b3a 423f
00000060: 8950 013f fa29 2d3f 40db 803f afdd 7f3f
00000070: ec05 4a3f 1409 763f 85bf 273f ab0d 6f3f
00000080: f27b 6c3f c7d3 5b3f 04a2 483f 2826 4b3f
00000090: 246a 483f 6a19 483f 71f0 443f a9b5 813f
000000a0: d58f 5d3f 26e7 6f3f b6f3 823f 5840 6c3f
000000b0: 3d84 573f 1e6e 303f 5f4f 503f b8e8 333f
000000c0: 7302 323f cdad 4f3f e27e 7a3f ae09 353f
000000d0: f6e8 463f 1711 bb3e 0c8c 183f 537b 643f
000000e0: c41c 873f f311 563f a2c4 003f a874 323f
000000f0: eda1 643f 66b0 453f 9ecd 4f3f 7600 553f
00000100: 47fe 883f 59ce 463f ca1b 1c3f 7b13 8b3f
00000110: 5dfc 4d3f 0225 4d3f b88e 5a3f 48e4 903f
00000120: c2a8 5b3f 9eb0 6b3f ec23 473f 98ad 403f
00000130: 5503 463f e187 9d3f 7821 303f 39a2 323f
00000140: 2c3b 643f 7e40 153f 9a13 3d3f a95f 523f
00000150: 55db 313f 21fe 253f 4151 323f b83b 3c3f
00000160: cdd7 643f 72b0 723f 6bb3 093f b30c 363f
00000170: 26da 5c3f 8135 413f f506 653f c8bd 393f
00000180: c021 603f 0051 7f3f 16a2 383f dc37 4d3f
00000190: fed6 443f b47a 613f 5603 6a3f 4d13 3b3f
000001a0: df68 623f ce4f 683f 2de7 4b3f a1bb 2d3f
000001b0: 0f79 003f d444 343f ffc7 4b3f 2cf5 793f
000001c0: 514a 5d3f 32fd 4f3f 23cd 463f 229d 1a3f
000001d0: cf10 533f 658e 543f a8da 2a3f 5ccf 6b3f
000001e0: 2821 523f d0f1 5d3f 0c6a 593f e96b 843f
000001f0: 5d3f 373f be77 5d3f 06d4 483f 1be5 6f3f
0.89898384 0.76843965 0.9397829 0.9017803 0.8136111 0.8406277 0.89251393 1.1438715
0.7844794 0.77953255 1.0235769 0.8507944 0.8935624 0.8142587 0.91816634 1.1308961
0.8345938 0.857684 0.90209633 1.0415618 0.534289 1.0136636 1.0306424 0.75870484
0.5051351 0.67642176 1.006691 0.9994764 0.78915286 0.961076 0.6552661 0.9338023
0.92376626 0.8587002 0.78372216 0.79355097 0.7828696 0.7816378 0.76929384 1.0133563
0.86547595 0.9371208 1.0230625 0.9228568 0.84186155 0.68918025 0.8137111 0.70276976
0.6953499 0.81124574 0.9784986 0.70717895 0.7769922 0.36536476 0.59588695 0.8925068
1.0555654 0.8362114 0.5030004 0.69709253 0.8930958 0.7722229 0.8117312 0.8320383
1.0702599 0.7765861 0.609799 1.086532 0.804632 0.80134594 0.8537402 1.1319666
0.8580438 0.9206637 0.7778919 0.75264883 0.77348834 1.2307092 0.6880107 0.6977878
0.8915279 0.5830153 0.73858035 0.82177216 0.694753 0.64840895 0.69655234 0.73528624
0.89391786 0.94800484 0.53789395 0.7111313 0.8627037 0.75472265 0.8946374 0.7255521
0.875515 0.9973297 0.72122324 0.8016336 0.7689055 0.88077855 0.9141134 0.73076326
0.8844127 0.9074677 0.7964962 0.67864424 0.5018472 0.70417523 0.79602045 0.9763973
0.8644152 0.8124572 0.77656764 0.60396016 0.8244752 0.83029777 0.6673989 0.9211328
0.8208184 0.866971 0.8492744 1.0345432 0.7158106 0.8651084 0.7844852 0.9370896

bn2.bias f4 [128]
00000000: cb46 9abd 90d7 2f3e dfb6 1e3d 510f 7f3e
00000010: f79b bb3b 06a9 06be 0dcc 323d 8799 973e
00000020: 7a3c 2d3d fbac 86bc ad93 1fbe 7b76 5b3e
00000030: 7d2f 2f3e f660 63be 8174 32be ccf6 42bd
00000040: ad3a 4abe 8619 dd3d 225a f83b b24a 343e
00000050: cabf 1d3e a93e 7c3b 3849 143e 6a87 04bd
00000060: b101 14bd cce4 db3d 9d92 ba3d d8c3 353d
00000070: 6895 ecbc 1339 f4bd 413b 873d 5f92 47bb
00000080: 2282 453e 1d02 263d f4f3 8dbc 48dd 013e
00000090: 7dc3 c73c 35a1 433e 50db e23d d376 2f3e
000000a0: 22ab 263e 55a3 eb3c 4949 143e 04fd 7e3e
000000b0: e253 f03d f6c8 5b3c 7def 34be 82f8 a8ba
000000c0: 567a 8bbd 38ea 14be 53cf 053e 3d93 d53d
000000d0: 7def 7c3e d7c6 abbc cd94 b63d fcca 1fbe
000000e0: 7c2d 153e 6d2a 38bc 0ea2 983d d64f 8d3e
000000f0: 404c a23e ea54 c63c 45c0 55be 72ef 81bc
00000100: d78f 1fbd 2e35 d93d 7a36 6fbe 061d 023e
00000110: 32d2 bc3c f699 1bbd 2cbc fd3d 1e78 ff3d
00000120: 1120 9c3d 0634 443e bdcd cab9 4915 19bb
00000130: 556f 81be 4dc2 1bbd eed1 9d3c f898 79bc
00000140: 6aa3 58bd b547 abbd 25ee 7b3e 0be2 9a3c
00000150: 6635 563d 58c2 863d 7fce 18bc 8028 fabd
00000160: 65f5 133e 079e d1be d027 103c 2c32 513e
00000170: 7a84 3d3d 75d3 ad3d a500 1b3d 446b 0bbd
00000180: 197d 4e3e 64ac 1fbd 3c01 6f3d 964b b0bd
00000190: fb64 b0bc b819 433d 8b81 223e b23e 093e
000001a0: ce5f 023c 47ac 023e 6ede 9a3e fe91 233b
000001b0: ad6b a8bd be3e 96bd 15b1 0b3d df04 2cbe
000001c0: eb02 bfbc 3baf fa3c 0054 583c d888 133e
000001d0: 5161 6a3d 1e19 7bbe 87bb 0d3e e6e4 b23d
000001e0: 99a3 51bd 9432 c53e b0a2 1b3d fe7d 9c3d
000001f0: 3d53 cd3d 16f7 db3d e7f9 80be a424 54be
-0.07533034 0.17172074 0.03874862 0.24908186 0.0057253796 -0.13150415 0.04365163 0.2960932
0.042294003 -0.016439905 -0.15583678 0.21431915 0.17107959 -0.22204956 -0.17427255 -0.047598645
-0.19748946 0.10795884 0.007579104 0.17606619 0.15405193 0.0038489497 0.14481056 -0.032355703
-0.036134426 0.10736999 0.091099955 0.044376224 -0.028879836 -0.119249485 0.06603099 -0.0030452234
0.19287923 0.04052936 -0.01732824 0.12682068 0.024385208 0.19104464 0.11076987 0.17135172
0.1627622 0.028764406 0.14481081 0.24901205 0.117347494 0.013414612 -0.17669483 -0.0012891444
-0.06810443 -0.14542472 0.13067369 0.10428474 0.24700733 -0.020968838 0.089151 -0.15604776
0.14568132 -0.011240584 0.074527845 0.27599972 0.316988 0.024210412 -0.20874126 -0.015861247
-0.038955536 0.10605846 -0.23360625 0.12706384 0.023049448 -0.037988625 0.123894066 0.124740824
0.07623304 0.1916047 -0.0003868173 -0.0023358634 -0.25280252 -0.038027097 0.019265141 -0.0152342245
-0.05289022 -0.083632864 0.24602564 0.018906614 0.05229702 0.06580037 -0.009326576 -0.12214756
0.1444908 -0.40940878 0.008798555 0.20429295 0.046268918 0.08487598 0.03784241 -0.034037843
0.20164908 -0.038982764 0.058350787 -0.08608167 -0.021532526 0.04763195 0.15869729 0.13402823
0.007957412 0.12761031 0.30247825 0.0024958844 -0.082236625 -0.07336186 0.034104425 -0.16798733
-0.023316821 0.030601135 0.013203621 0.1440767 0.057221714 -0.245213 0.13841067 0.08735065
-0.05118141 0.3851515 0.037996948 0.076412186 0.10025642 0.10740487 -0.2519066 -0.20717102

bn2.running_mean f4 [128]
00000000: 6739 443f 5389 743f 3ecf 863f a40f ed3e
00000010: b3e2 853e 1f22 2b3f edd5 ca3e 98fa 5f3f
00000020: 78b5 203f d6f5 e33f 61d8 0240 5f31 873f
00000030: bbe8 793f 972f e73f 694b 993e 720c 0640
00000040: 3633 8c3f 42c7 ed3f ab9c 7e3f 5b41 d03e
00000050: 84b2 813e e8f2 fd3e 85ca 433e 837c b83f
00000060: b961 a03f 96fc 173f 91d6 a83e 325b 5f3f
00000070: 046a 223f d66d ca3f f877 923d 6f9f 2940
00000080: 1cf0 0940 6ef2 2b3f e5d8 503f 73fc ad3f
00000090: 6afa c83f c07f 183f 587b 4b3f fcc7 0140
000000a0: 3d34 d03e 3241 5b3f eabb c93f 90dc bf3f
000000b0: e10b 943f 0737 d63f 7eb0 063e 1566 6a3f
000000c0: dd89 0b40 1ef0 8c3f b202 093f c5cc 7440
000000d0: 1bdd 613f d675 ba3f 6cf9 d43e 3055 d93e
000000e0: 2641 bc3f 96da 133f a7f7 553d cd42 303f
000000f0: 7a25 1b3f 5749 263f 01e7 0040 d858 0340
00000100: 6c0e 3c3f fcb6 fc3f 50d4 9a3f c864 9e3f
00000110: 64cf 1640 97c1 c23f f58d 7c3f 26cc 323f
00000120: 41a8 1f3f 30ec 963e e2ed fb3f 85da 813e
00000130: 5808 4c40 60d7 8a3f 9ba2 be3e bc8d af3f
00000140: 27e4 9a3f 0913 343f 3c59 423e b29e 393e
00000150: 4a11 843f 251f 393f 4bb7 e93f d2e3 703f
00000160: b316 2b40 97c8 293f 6ca2 903f 8c22 cb3e
00000170: 7124 953f 1294 ad3e f5b4 ae3f 95ee 4440
00000180: bd7c 433f 88e1 323f dfd6 543f 3836 8940
00000190: 84c7 573f 6c17 0340 c23f 8b3f f385 9c3f
000001a0: c49c 903f 2379 993f 081e 493f dfb9 233f
000001b0: e535 2d40 e92d 1340 3e49 3040 3896 8a3f
000001c0: 27c5 583f 69cc 043f 6d0e 9c3f e3f9 e13f
000001d0: e215 8e3e 8b9a 313f bf01 b63d 8777 fb3f
000001e0: 5529 813f 35c4 a33f 42ad 8b3f 99a3 f53e
000001f0: b723 1b3f daa8 8940 d308 ec3f 388e 9e3f
0.7665009 0.9552204 1.0531995 0.46300995 0.2614952 0.6684894 0.39616337 0.8749175
0.627769 1.7809398 2.0444567 1.0561942 0.97620744 1.8061398 0.29940346 2.0945096
1.0953128 1.8576434 0.99457806 0.40674862 0.2533151 0.49599385 0.19120224 1.4412998
1.2529823 0.5936979 0.329762 0.8724853 0.63443017 1.5814769 0.071517885 2.650356
2.15528 0.67166793 0.81580955 1.3592666 1.570142 0.5956993 0.7948508 2.027831
0.40664855 0.85646355 1.5760472 1.4989185 1.1566125 1.6735543 0.13153264 0.91562015
2.1802895 1.1010778 0.5351974 3.8249981 0.88228005 1.4567211 0.41596544 0.42447805
1.4707382 0.5775541 0.052238133 0.6885193 0.6060406 0.6495566 2.0140994 2.0522976
0.73459506 1.9743342 1.2096043 1.2374506 2.356408 1.5215329 0.9865411 0.69842756
0.6236611 0.29477072 1.9681971 0.2536203 3.1880093 1.0846977 0.37233433 1.3715129
1.2100877 0.70341545 0.18979353 0.18126944 1.0317776 0.7231315 1.8259062 0.94097626
2.6732605 0.663217 1.1299567 0.39674795 1.1651746 0.3390203 1.3648974 3.077062
0.7636221 0.69875383 0.8314037 4.2878685 0.8428881 2.0483046 1.0878832 1.2228378
1.1297841 1.1990093 0.7856145 0.6395549 2.7064145 2.2996771 2.7544703 1.0827093
0.8467583 0.51874405 1.2191902 1.7654384 0.2775107 0.6937644 0.08887052 1.9645852
1.0090739 1.2794253 1.0912249 0.47976378 0.6060137 4.301862 1.8440193 1.2387152

bn2.running_var f4 [128]
00000000: 5c49 5340 a294 8640 8af1 8e40 fd6a 8440
00000010: fd6b 4b3f 22b0 5940 4158 0040 dd8b db40
00000020: 4e6e c140 887a 1241 b271 2441 5f8b 0441
00000030: 7852 a940 2a5e 3241 57f0 bd3f 5f9d 2d41
00000040: c6b9 8240 53ef 4141 4709 6940 ab49 a640
00000050: 7f88 ec3f 5870 0740 4c54 bc3f 278e e140
00000060: 2798 f940 05f2 b840 a3fb 4840 bfc6 5240
00000070: f73f 4840 a822 0841 a54c e13e 2340 2841
00000080: b5fd 3a41 7619 a640 d863 9540 f603 2b41
00000090: ad5f d440 5539 7340 c050 7e40 f0f9 0e41
000000a0: 9f6d 2340 10c2 9040 dd9d 1e41 3216 de40
000000b0: c65e b340 4c35 2641 49bf 233f 6277 5740
000000c0: 5b05 2541 5d72 d140 8f9c 3540 07a4 b941
000000d0: c4fa 9640 c3a7 0541 8345 4240 3040 2a40
000000e0: 6c23 4f41 a8ba 4a40 85d8 993e 1238 5f40
000000f0: 8d2e 1140 caa3 4d40 a2da 2141 8c5f 3341
00000100: 2af8 9f40 fff6 9341 5be3 ff40 dfd1 f340
00000110: c378 8141 10bc 1241 bae7 8540 8176 a840
00000120: bd40 0a40 b513 9d3f 33a5 0f41 cb0f b93f
00000130: a68d 9741 36f5 ba40 1397 7740 7d79 ee40
00000140: f6d8 aa40 af65 6f40 7826 0440 efd4 6b3f
00000150: 5316 9840 2645 7840 03ec 2841 f3c5 3e40
00000160: 3d59 4a41 7096 0a40 07a3 aa40 1480 1e40
00000170: ffd1 9740 739c 913f c323 d740 b204 8041
00000180: c928 5140 e626 3c40 ff2d 6740 26a4 ca41
00000190: d2b2 8740 5c01 7341 d888 d440 5a5d f240
000001a0: 0102 3641 513c 9740 abb1 b040 18f5 d53f
000001b0: 8622 7541 ccda 3441 70e0 5f41 8e35 9b40
000001c0: b3d2 8640 2194 8140 ef2c c640 bb2e 6041
000001d0: d331 1940 b43f 3840 7ffe 673e 8bfd f440
000001e0: 283a b940 3b6c 8040 0f18 8a40 572c 5b40
000001f0: a894 1040 3c19 cf41 4945 2041 4383 bc40
3.3013525 4.2056437 4.4669847 4.13806 0.7946165 3.4013753 2.0053866 6.860823
6.044715 9.154915 10.277758 8.284026 5.291317 11.147989 1.4838971 10.850921
4.0851774 12.120929 3.6411912 5.1964927 1.8479155 2.116232 1.4713225 7.0486026
7.7998233 5.7795434 3.1403587 3.2933805 3.128904 8.508461 0.44003788 10.515658
11.68694 5.190608 4.668438 10.688467 6.636679 3.8003743 3.9736786 8.93602
2.5535657 4.5236893 9.913541 6.9402094 5.605319 10.388012 0.63963753 3.3666615
10.3138075 6.5452104 2.8376806 23.205091 4.718111 8.353457 3.0354927 2.6601677
12.946148 3.1676426 0.30048004 3.4877973 2.2684662 3.213122 10.115877 11.210827
4.9990435 18.495604 7.9965034 7.619369 16.183966 9.170914 4.184537 5.264466
2.1602013 1.2271639 8.977832 1.4457945 18.944164 5.842433 3.8685958 7.45233
5.3389845 3.7405813 2.064848 0.92121786 4.752725 3.8792205 10.55762 2.9808319
12.646787 2.165432 5.332401 2.4765673 4.7443843 1.137587 6.7231154 16.002293
3.2681143 2.9398742 3.6121824 25.33015 4.2405787 15.187832 6.6417046 7.5738955
11.375489 4.726113 5.521688 1.6715422 15.320929 11.303417 13.992294 4.8502874
4.21322 4.049332 6.192985 14.011409 2.393666 2.8788881 0.22655676 7.65595
5.788349 4.0132117 4.315437 3.4245813 2.2590733 25.887321 10.016915 5.891023

conv3.weight f4 [64, 128, 3]
00000000: 12d9 763e 9430 1b3c 6005 90be 66cf 4fbe
00000010: ec59 333e b800 5b3d 612b 16be e6f1 c3be
00000020: ad41 d53d 00d7 bdbd 2c55 23bc 24e6 af3d
00000030: eaed 293e 5e05 bdbc 71e5 013e 9ee0 99bd
00000040: 3b8d 9dbc 158b fb3d af32 6d3d 514f 733d
00000050: c5d4 26bc 4a96 1dbe 52aa 743c 10ff cd3d
00000060: d83c 49bb fc3e 68be 4006 bcbc bbe6 a73a
00000070: 7558 ebbb ab02 4fbd 8a04 52bc 1415 f5bc
00000080: 7ef4 82bd faee 3cbe 280d 283c fce0 9b3d
00000090: c0db adbd c494 ba3d 4f24 54be 4678 1bbe
000000a0: 6e09 973d a7a7 39bd 3d9b d43d 2ab3 f4bb
000000b0: 11df f83d 8c37 4cbd 5c79 b2bd d6a2 b43d
000000c0: badf b83c 57ed 153d 8399 2fbd f93f d03b
000000d0: f451 88bd 562b b33d 0e05 d5bd d16b 2bbe
000000e0: b955 373e 449b fcbe 7bd8 a93e b5bb 5dbe
000000f0: aef4 68be 22f7 d6bc 2b70 84bc 9d8e 2c3e
00000100: d3c4 15be b6b7 12be 91ed ddbe 4283 853c
00000110: 03c2 26be 81fc 903b 2dea 413e b4ce e63d
00000120: c970 f1bd 97e8 84bd 0c19 bb3d 9562 7cbe
00000130: 829e 953d befd 48be 39c2 04be dfbc 11bc
00000140: 6291 40be a4c9 243e 0211 14be 8e04 bc3b
00000150: a795 173e f1af a6bd a0c6 f73d 11b3 0abe
00000160: 55ce 92be e35d cebd 517c 2bbd 45b2 eb3d
00000170: 877d 69be 474c 0e3e c093 e5bd 1259 52bd
00000180: 7832 37be c08f d93c 2677 463d 6363 babd
00000190: abb4 0b3e e628 9a3d 7562 d3bd 16ed 4f3c
000001a0: 7510 323e 9b0f f13c 191e 75be 2cbe 2abf
000001b0: 449e ac3d cc01 07be 7632 673e b942 07bd
000001c0: eba2 a23d 758a 8a3e 17ec 97be d545 f23d
000001d0: fd24 f93c 1f24 99be 5f2d d5bc 0b29 df3d
000001e0: 3b58 86be bcad 8dbd 00c8 37bd 0124 8d3e
000001f0: 13fa 67bd b182 82bd 7657 9abe b065 99bd
00000200: 78f2 803e a5bc 12be ce34 67be a88e a1bc
00000210: 3e2a 0cbe 6d6a a9be e56a 133e b90c d73a
00000220: 4821 e73d d219 e4bd b868 953d 811c 043e
00000230: cf76 39bc 5b3b 18be 99f8 cabd 6d67 153e
00000240: 8751 703d 7e82 1fbe b1a8 eabd a77a e4ba
00000250: d03b 1e3d c6e8 d83d a337 adbc 6053 553b
00000260: 445f 8abd 0521 033e 8653 d8bc 904b 0bbe
00000270: c0f0 3ebd 850f 84bd 11df a4be 7a0d 8a3d
00000280: 0916 46be 201b a6be 9af2 06be c1a6 dd3d
00000290: 8c5a 1ebe 2474 bdbd c9ca 643e 2da3 e53d
000002a0: 864f c4be 2c96 2abe 01cc a83a 8b4c 85be
000002b0: 5665 8a3c f094 4cbc ac51 263d 6055 95be
000002c0: 510a 66be a584 debc 91cb 663d ca9a 173d
000002d0: ca1e 35be 6494 0abe dd09 61be 4ba0 403e
000002e0: a596 013e a08e 13be d679 eb3d c621 2dbd
000002f0: 2f17 d2bd 20b2 6a3e 7d5c dabd e926 93be
00000300: 42cd c6bd 23c8 f9bd b648 95be 7845 4abe
00000310: fe52 f1bc 1f76 733d 5368 133d fe2a 0fbe
00000320: adfe 44bd 1839 8dbe fd03 0e3d 5fff 113c
00000330: 1444 bc3d ee73 aabb 65aa 003e 9b71 c73c
00000340: 8217 6dbe 6622 c7bd d14e 8fbe 24bd eabc
00000350: da3c 8dbd 4b92 5fbe d476 a5bd cbad e93d
00000360: cd31 a03c 2884 053e 1da4 10be a5a1 4abe
00000370: 328e 183e e10d 713e cf8e 5c3e b1d1 2bbe
00000380: 867b 82be 9314 c5bc c3d6 8cbe e1c5 163e
00000390: fcf4 ac3e 1282 433c 9b29 713d fc23 c3bd
000003a0: e96a 41be 0d90 633e 73e1 94bd b975 413d
000003b0: fc67 983d 97db 0fbc 89d4 87be e1ec 6b3d
000003c0: d5f2 52bd f173 96bd 407f 44ba 8cb3 71be
000003d0: f3b9 183e b53a e9bc 6f07 c03d 2086 103e
000003e0: ad20 463e 45d5 bdbe 1ef3 103e c615 283d
000003f0: 7c19 e9bd 29af 05bf 97a5 633e 4917 fabe
0.24106243 0.009472031 -0.281291 -0.2029396 0.17514771 0.053467482 -0.14664985 -0.3827049
0.10412917 -0.092695236 -0.009969037 0.08588818 0.16594663 -0.023073848 0.12685181 -0.075135455
-0.019232383 0.12282387 0.057909664 0.059401814 -0.010182564 -0.15389362 0.014933186 0.10058415
-0.0030706432 -0.22680277 -0.022952199 0.0012809852 -0.0071821758 -0.050539654 -0.012818465 -0.029917277
-0.063942894 -0.18450537 0.010257043 0.07611272 -0.084891796 0.09110406 -0.20716976 -0.151826
0.073748454 -0.0453259 0.10381172 -0.007467647 0.121519215 -0.04985766 -0.08714554 0.08820121
0.022567619 0.036603298 -0.04287101 0.0063552824 -0.06656256 0.087485 -0.10401355 -0.16740347
0.17903794 -0.49337208 0.33172974 -0.21653636 -0.22749588 -0.026240889 -0.016166767 0.16851278
-0.14625864 -0.14327893 -0.4334531 0.01629794 -0.16284947 0.004424632 0.18936987 0.11269894
-0.1178909 -0.064896755 0.09135637 -0.24646981 0.073056236 -0.19628045 -0.12964715 -0.008895128
-0.18805459 0.16092545 -0.14459613 0.0057378476 0.14803182 -0.08139027 0.120984316 -0.13544871
-0.28673044 -0.10076501 -0.041866604 0.115086116 -0.22801791 0.13896285 -0.11209822 -0.051354475
-0.17890346 0.026557803 0.048453473 -0.09100988 0.13643138 0.07527332 -0.103215136 0.012690803
0.1738909 0.029426387 -0.23937263 -0.6669643 0.08428624 -0.13184279 0.22577843 -0.033022616
0.079412304 0.2705876 -0.2967231 0.11829726 0.030413145 -0.2991037 -0.026022611 0.108965
-0.2623919 -0.06917903 -0.04486847 0.2756653 -0.056634974 -0.06372584 -0.30144852 -0.074900985
0.2518499 -0.14329775 -0.22578737 -0.019721344 -0.13687989 -0.3308901 0.14396246 0.001640699
0.11285645 -0.11137737 0.07295364 0.12901498 -0.01131983 -0.14866392 -0.099106975 0.14590235
0.0586715 -0.15577123 -0.114579566 -0.0017431573 0.03863126 0.10591273 -0.021144694 0.0032550916
-0.06756452 0.12805565 -0.026407015 -0.13603044 -0.046616316 -0.064482726 -0.32201436 0.06740852
-0.19344343 -0.3244257 -0.13178483 0.108228214 -0.15464228 -0.09250668 0.22342981 0.11212764
-0.38341922 -0.16658849 0.0012878181 -0.2603496 0.016894024 -0.012486681 0.040605232 -0.29166698
-0.22464873 -0.02716286 0.05634648 0.037012853 -0.17687526 -0.13533169 -0.21976419 0.18811147
0.12655123 -0.14409876 0.11497848 -0.042268537 -0.10258328 0.22919512 -0.10662172 -0.28740624
-0.097071186 -0.12196376 -0.29157037 -0.19753063 -0.02945852 0.05943882 0.035988163 -0.13981244
-0.04809444 -0.27582622 0.034671772 0.008910983 0.09192672 -0.005201808 0.12565 0.024346163
-0.23153499 -0.09723358 -0.2798982 -0.028654642 -0.06896372 -0.2183315 -0.08079305 0.114101015
0.019554997 0.13038695 -0.14125104 -0.19788225 0.14897993 0.2354045 0.21538852 -0.1677921
-0.25484866 -0.024057662 -0.275076 0.14723922 0.33780658 0.011932867 0.05887757 -0.09528348
-0.18888439 0.2222292 -0.072695635 0.04723141 0.074417084 -0.008780382 -0.2652934 0.057598952
-0.051501114 -0.07346333 -0.00074957684 -0.23603648 0.14914684 -0.028470377 0.09376418 0.14113665
0.19348402 -0.37076774 0.14155242 0.04103639 -0.11381814 -0.522204 0.22231136 -0.4884589
