results/valence/classification/20251226_123914_854784/best_model.pt (torch, 850357 bytes, 16 tensors)

conv1.weight f4 [16, 1, 3, 3]
0	0x3e6c804d	0.23095818
1	0x3e9cc4fd	0.3061904
2	0xbe7abfbb	-0.24487202
3	0x3e904a97	0.28181908
4	0xbe0bfb83	-0.13670163
5	0x3d841105	0.06448559
6	0xbe71be2d	-0.23607703
7	0xbc504c38	-0.0127134845
8	0x3f0cd2f5	0.55009395
9	0xbebac769	-0.36480263
10	0x3e97b324	0.2962886
11	0x3e0f3043	0.13983254
12	0x3e466d07	0.19377528
13	0x3dc9bd2f	0.09850537
14	0x3eae3388	0.3402369
15	0xbd5da70c	-0.054114386
16	0x3ec3ea0c	0.382645
17	0xbd281702	-0.041037567
18	0xbd7c72bc	-0.061632857
19	0x3e75f7ed	0.24020357
20	0xbe99e835	-0.30059972
21	0xbdbdea77	-0.09273236
22	0xbdd6cf59	-0.10488767
23	0x3ebc6a1e	0.3679971
24	0xbe175b59	-0.1478094
25	0xbe5bbbfa	-0.21458426
26	0xbe78e346	-0.24305448
27	0xbd8b6a3c	-0.06807372
28	0xbd780932	-0.060555644
29	0xbf0301f8	-0.5117488
30	0x3e5e6c3d	0.21720977
31	0xbe9e64a9	-0.30936173
32	0x3eb0ccb4	0.34531176
33	0x3d5112d8	0.05104336
34	0xbdccbe5a	-0.09997244
35	0x3ed8025b	0.42189297
36	0xbd171cb5	-0.03689261
37	0x3eb573d1	0.35439923
38	0xbd946bc2	-0.07247116
39	0xbe49719a	-0.19672242
40	0x3da007ed	0.07814012
41	0xbea1cfad	-0.31603757
42	0x3e0d8d8f	0.13823532
43	0x3eb0bf0f	0.34520766
44	0x3e9219c4	0.28535283
45	0xbc793015	-0.015209218
46	0x3ea9c9f7	0.331619
47	0x3e146ebc	0.14495367
48	0x3da5756d	0.08079038
49	0xbe72fa00	-0.2372818
50	0xbec35eec	-0.38158357
51	0xbd296668	-0.041357428
52	0xbed7d069	-0.42151192
53	0x3eb6aa86	0.35676974
54	0x3dbb259f	0.09138035
55	0x3e671c05	0.22569282
56	0x3e61de68	0.22057498
57	0x3cce4354	0.025178589
58	0x3ea37e88	0.31932473
59	0xbec4798c	-0.38373983
60	0xbd266a03	-0.040628444
61	0xbea07979	-0.31342676
62	0x3d2222f1	0.039584104
63	0xbe21aba7	-0.15788136
64	0xbc2600b2	-0.010132002
65	0xbe022ad2	-0.12711647
66	0x3e56f295	0.20990975
67	0xbdeafb00	-0.11473656
68	0xbebf1a1c	-0.37324607
69	0xbe0a091d	-0.13480039
70	0x3efd1b41	0.49434856
71	0x3ead83da	0.33889657
72	0x3e61913d	0.2202806
73	0xbee45d38	-0.4460237
74	0xbeb84934	-0.3599335
75	0xbe5b9960	-0.21445227
76	0xbe84997f	-0.25898358
77	0x3d766c51	0.060161892
78	0x3e2a1f03	0.16613393
79	0x3efe0bfb	0.49618515
80	0xbca942d9	-0.020661758
81	0xbe631dad	-0.22179289
82	0x3e72d0d3	0.23712473
83	0xbe44eb1b	-0.1923031
84	0x3e5cdc7b	0.21568482
85	0xbc6a1376	-0.014286866
86	0x3ed792f0	0.42104292
87	0xbe6f7332	-0.23383787
88	0xbea34a3e	-0.3189258
89	0x3dce96bd	0.10087345
90	0x3d1ebdc4	0.038755193
91	0xbd08a306	-0.033358596
92	0x3eef4fcb	0.46740565
93	0x3e473c07	0.19456492
94	0xbea3bcca	-0.31979972
95	0xbea22ff8	-0.31677222
96	0x3e88bfb8	0.2670877
97	0xbe1798a2	-0.14804319
98	0xbe192599	-0.14955749
99	0xbde94942	-0.11390926
100	0xbee58a2d	-0.44831982
101	0x3e86fcfb	0.26364884
102	0x3c267397	0.010159395
103	0xbdcadbfc	-0.0990524
104	0x3e1baf4a	0.15203586
105	0xbe8221d8	-0.25416446
106	0xbf04a0a9	-0.5180765
107	0xbe38e488	-0.18055928
108	0xbe2d6e2b	-0.16936557
109	0xbe6bcc81	-0.23027231
110	0x3f1956b3	0.5989792
111	0x3d4fb9ee	0.050714426
112	0x3dedf353	0.11618676
113	0xbecb78eb	-0.3974069
114	0xbdd81c80	-0.10552311
115	0xbd5c068a	-0.053717174
116	0x3cb94c4e	0.022619393
117	0xbeb40913	-0.35163173
118	0xbe8593b8	-0.26089263
119	0xbeb1e5b5	-0.34745565
120	0x3e2ec09c	0.17065662
121	0xbd0b5b36	-0.034022532
122	0xbe381c11	-0.17979456
123	0xbe898070	-0.26855803
124	0xbe272088	-0.16321003
125	0xbe6c3c49	-0.23069872
126	0xbdf7bd26	-0.12096624
127	0xbebc05e1	-0.36723235
128	0x3eba02a6	0.36330146
129	0xbd8b5abb	-0.06804415
130	0x3ecdf455	0.40225473
131	0x3dde3772	0.10850419
132	0xbe104dc8	-0.14092171
133	0x3e89462e	0.26811355
134	0xbe94c34a	-0.29055244
135	0xbe0806d9	-0.13283862
136	0xbec63d6c	-0.38718736
137	0xbf06269c	-0.52402663
138	0x3dccc27a	0.09998031
139	0x3cad8739	0.021182643
140	0x3e838e17	0.25694343
141	0xbe3db400	-0.18525696
142	0x3ebe3cb1	0.3715568
143	0xbe5209b0	-0.20511508

conv1.bias f4 [16]
0	0x3a82c5f0	0.0009977203
1	0x3b0f2de4	0.0021847421
2	0x3b118b8e	0.0022208425
3	0x3a765742	0.00093971577
4	0x39c4889a	0.0003748581
5	0xbbc748b9	-0.0060816673
6	0xbbc32a83	-0.0059559955
7	0x3a78f042	0.00094962504
8	0xbafb7e8a	-0.0019187492
9	0x3b240bd0	0.0025031455
10	0x3a9fee98	0.0012201844
11	0xba1848f4	-0.00058092107
12	0x3b1e4a26	0.0024153083
13	0xba025cbd	-0.00049729255
14	0x3aff409b	0.001947421
15	0xbaf6c3c2	-0.0018826651

bn1.weight f4 [16]
0	0x3f5f6fdb	0.8728005
1	0x3f608a7b	0.87711304
2	0x3f755ea8	0.9584756
3	0x3f91af2c	1.1381583
4	0x3f6f3176	0.93434846
5	0x3f8f3362	1.1187556
6	0x3f9899c0	1.1921921
7	0x3f8e9bfc	1.1141353
8	0x3f8afafd	1.0857846
9	0x3f77172c	0.9651973
10	0x3f86a764	1.0519834
11	0x3f5c5dde	0.8608073
12	0x3f7ef9de	0.9960002
13	0x3f39c7e4	0.72570634
14	0x3f7bd500	0.9837189
15	0x3f816d77	1.0111531

bn1.bias f4 [16]
0	0xbe5df764	-0.21676403
1	0xbeb5b900	-0.35492706
2	0xbdb79c16	-0.08965318
3	0xbb4ca0ba	-0.003122373
4	0xbeb4a5c7	-0.35282728
5	0xbdb5bd18	-0.088739574
6	0xbd550b45	-0.0520127
7	0xbd8ffe99	-0.070309825
8	0xbdf42e3f	-0.11922883
9	0xbde2d3f8	-0.11075586
10	0xbd96679e	-0.07343982
11	0xbe156263	-0.14588313
12	0xbe18c59b	-0.1491913
13	0xbdee05a4	-0.116221696
14	0xbdb502e5	-0.08838443
15	0xbd93928f	-0.07205688

bn1.running_mean f4 [16]
0	0x3c52d15a	0.012867296
1	0x3c7532c4	0.014965717
2	0xbb88ea23	-0.004178302
3	0xbaf8fc28	-0.0018996047
4	0x3bf94f46	0.007608327
5	0xbc2094ea	-0.009801129
6	0xbb04601a	-0.0020198883
7	0x3b0b7a1b	0.0021282497
8	0xbbefe228	-0.007320661
9	0x3b2917de	0.002580158
10	0xba921652	-0.0011145568
11	0xbc93312a	-0.01796778
12	0xbaaca012	-0.0013170263
13	0xbcacd6ac	-0.021098457
14	0x3bc4d744	0.006007107
15	0xbbf86e92	-0.0075815404

bn1.running_var f4 [16]
0	0x3eb494d2	0.3526979
1	0x3f3d928f	0.74051756
2	0x3e4bd96b	0.19907157
3	0x3e505834	0.20346147
4	0x3ed7bf91	0.4213834
5	0x3e58f616	0.21187624
6	0x3e1c568c	0.1526739
7	0x3e62abf8	0.22135913
8	0x3eb59a87	0.35469458
9	0x3e40e76f	0.18838285
10	0x3e8346e4	0.25640023
11	0x3f87fe89	1.0624553
12	0x3e1c5ded	0.15270205
13	0x3f95590c	1.16678
14	0x3e570e0b	0.2100145
15	0x3ebdab19	0.370446

conv2.weight f4 [32, 16, 3, 3]
0	0x3e83e2cd	0.25758973
1	0xbce3c466	-0.027803611
2	0x3de10470	0.109871745
3	0xbd7f0426	-0.062259816
4	0x3dd3c618	0.10340518
5	0xbe0e85cc	-0.13918227
6	0xbd8f4b6b	-0.06996807
7	0x3dde4ea2	0.10854842
8	0x3e56be49	0.20971026
9	0xbde75ac2	-0.112966076
10	0xbe105f5f	-0.14098881
11	0xbde8063d	-0.11329315
12	0x3dfbde3a	0.12298246
13	0xbe0ac20c	-0.13550586
14	0xbe3b369f	-0.18282555
15	0x3e051f27	0.13000165
16	0xbe7b3ba1	-0.24534465
17	0xbd9e6d70	-0.07735717
18	0x3dd05f51	0.1017443
19	0xbe4f28e3	-0.20230441
20	0xbd7d2538	-0.061803073
21	0xbdcb2b28	-0.09920341
22	0xbd892938	-0.06697315
23	0xbdbd813d	-0.09253166
24	0x3b9a4224	0.0047075916
25	0x3d861e23	0.06548717
26	0x3e0ae573	0.1356409
27	0x3da5437e	0.08069514
28	0xbdab935c	-0.08377716
29	0x3b77ecc1	0.0037830325
30	0xbd879b7f	-0.066214554
31	0xbe4fbb90	-0.20286393
32	0x3e3132a9	0.17304482
33	0x3db1814e	0.08667241
34	0xbddba211	-0.10724271
35	0x3ca68091	0.020324977
36	0xbd2da812	-0.042396612
37	0x3e119d20	0.14220095
38	0x3e04ca92	0.129679
39	0x3e727185	0.23676117
40	0xbea4d629	-0.3219464
41	0xbd530f6c	-0.05152838
42	0x3e34460d	0.17604847
43	0x3d1744b6	0.036930762
44	0x3dbd5a7c	0.09245774
45	0xbdd34c47	-0.10317283
46	0x3daf6969	0.08565027
47	0xbeaa72f0	-0.33290815
48	0xbe080777	-0.13284098
49	0x3ecac8a5	0.39606205
50	0x3db7a90c	0.0896779
51	0xbcebca16	-0.028782886
52	0xbd9c7a5c	-0.07640526
53	0x3e52a989	0.20572485
54	0x3d52abbc	0.05143331
55	0x3e6a8d0f	0.22905372
56	0x3e90f565	0.2831222
57	0x3bf67079	0.007520732
58	0x3e4324ab	0.19056956
59	0xbe4b96ee	-0.19881794
60	0xbdb9fa78	-0.09080976
61	0x3d82ad0f	0.063806646
62	0xbe28cf51	-0.16485335
63	0xbde14a0d	-0.11000452
64	0xbe3f86dd	-0.1870379
65	0x3d185a45	0.037195463
66	0x3e83b732	0.25725704
67	0xbd3df4d0	-0.04637605
68	0xbe65078f	-0.22366165
69	0xbd4769b9	-0.04868481
70	0xbde14bfd	-0.11000822
71	0x3e80cd8c	0.2515682
72	0x3e05a978	0.13052928
73	0x3e09f3e1	0.13471939
74	0x3e2174bd	0.15767188
75	0xbd79d11f	-0.06099045
76	0x3e7bdc88	0.24595845
77	0xbe7e5b01	-0.24839403
78	0xbe085c4f	-0.13316463
79	0xbe9e14c2	-0.30875212
80	0x3df0aba5	0.117514886
81	0xbe27584a	-0.16342273
82	0xbd15791f	-0.036492463
83	0xbe61229a	-0.21985856
84	0xbd1c62cf	-0.03818017
85	0xbe8c0e32	-0.2735458
86	0xbe518542	-0.2046099
87	0x3d8ca97d	0.06868265
88	0xbc27bdcd	-0.010238123
89	0x3e332277	0.17493616
90	0xbe6884ff	-0.22706984
91	0xbe28490f	-0.1643412
92	0xbe3afb25	-0.18259867
93	0xbdef0042	-0.11669971
94	0xbe8caa82	-0.27473837
95	0xbea5671c	-0.3230523
96	0x3e3f246d	0.18666239
97	0xbe1b8e47	-0.15190993
98	0xbc084267	-0.008316613
99	0xbbdfdfa7	-0.0068320814
100	0x3e5604c3	0.20900254
101	0xbe316359	-0.17323054
102	0x3e6977d8	0.22799623
103	0xbd4713be	-0.048602812
104	0x3dd25885	0.1027079
105	0x3e5a1878	0.21298397
106	0xbc151c2f	-0.009100958
107	0xbde5b3b5	-0.11215917
108	0xbe1afc09	-0.15135206
109	0xbe2fc8d5	-0.17166455
110	0x3da83cc0	0.08214712
111	0xbdf9a990	-0.121905446
112	0x3d873a29	0.0660289
113	0x3ef60fc6	0.4805891
114	0x3e126028	0.14294493
115	0xbde46bb5	-0.11153356
116	0xbebfebac	-0.3748449
117	0x3e29615a	0.16541043
118	0xbe26ceea	-0.16289869
119	0xbea30ea0	-0.31847095
120	0x3cbde76c	0.02318164
121	0xbcdaa148	-0.026688233
122	0x3d6dd00a	0.05805973
123	0xbcb5cb56	-0.022191685
124	0xbda9ae3d	-0.082851864
125	0xbe16c5ef	-0.14723943
126	0xbe95a500	-0.29227448
127	0x3e2cf877	0.16891657
128	0x3e5fd94d	0.21860237
129	0xbd00bd09	-0.031430278
130	0x3bd111c4	0.0063802917
131	0x3e0e520b	0.13898484
132	0xbe34249f	-0.17592095
133	0xbe0d8a8d	-0.13822384
134	0x3e3e9a5e	0.18613574
135	0x3e2483b9	0.16065873
136	0xbe90f451	-0.283114
137	0x3c98cf57	0.018653555
138	0xbd5073ec	-0.0508918
139	0xbd1f40b7	-0.038880076
140	0x3e6540d7	0.22388016
141	0x3dd03985	0.10167221
142	0x3d5e68e6	0.054299258
143	0xbe71b5d8	-0.23604524
144	0xbe7b011f	-0.24512146
145	0x3e5325ae	0.20619842
146	0x3e0d4e80	0.13799477
147	0x3e453c83	0.19261365
148	0xbdf34984	-0.11879256
149	0x3e5a72b9	0.21332826
150	0x3e2529bf	0.16129206
151	0xbe1f0afa	-0.15531531
152	0x3dea300e	0.11434947
153	0xbd0e3373	-0.034717035
154	0x3e6cbd69	0.23119129
155	0xbe162bc0	-0.14665127
156	0x3ca9e9f6	0.020741444
157	0xbda86ce6	-0.08223896
158	0xbd000dc8	-0.031263143
159	0x3e539f77	0.206663
160	0xbd87f22f	-0.0663799
161	0xbe1ea73c	-0.15493482
162	0x3dcd7086	0.10031228
163	0xbd582c57	-0.05277666
164	0xbe631a5c	-0.22178024
165	0x3dfb3d84	0.122675925
166	0xbee08f7b	-0.43859467
167	0xbe7e419a	-0.24829713
168	0xbe428999	-0.18997802
169	0xbe6e90ba	-0.23297396
170	0x3e04bad5	0.12961896
171	0x3d195eb5	0.037443835
172	0xbe53481f	-0.20632981
173	0xbe53f263	-0.20697932
174	0x3e560b07	0.20902644
175	0xbea77ccc	-0.327124
176	0x3cef46e5	0.02920861
177	0x3e00ab4b	0.12565343
178	0x3ce973ff	0.028497694
179	0xbd61bdfb	-0.05511282
180	0x3d912b24	0.070883065
181	0x3d07829d	0.033083547
182	0x3e4b73b8	0.19868362
183	0xbe288e72	-0.16460589
184	0xbe84145d	-0.25796786
185	0xbee88bc3	-0.4541913
186	0x3eb75f58	0.3581493
187	0xbdfa7dc0	-0.12231016
188	0xbeb6b68e	-0.35686153
189	0x3d2ad07c	0.041702732
190	0xbc7ba241	-0.015358509
191	0x3da71e62	0.08160092
192	0x3d50010f	0.05078226
193	0x3e225843	0.15853982
194	0xbe96733e	-0.29384798
195	0xbd8e3153	-0.069430016
196	0x3d4354b0	0.047688186
197	0x3ce314bf	0.027719853
198	0xbe33706f	-0.17523359
199	0x3e86fe79	0.26366022
200	0x3d600cae	0.054699592
201	0xbdb32872	-0.08747949
202	0xbe46eb83	-0.19425778
203	0x3e9d03fb	0.306671
204	0x3db3f5a3	0.08787086
205	0x3d5efdf1	0.054441396
206	0x3e1b128f	0.15143798
207	0xbdf9710b	-0.12179764
208	0xbea714df	-0.3263311
209	0xbe4baf54	-0.19891101
210	0x3d1a0f6d	0.037612367
211	0xbcdad8e0	-0.026714742
212	0xbe5526e7	-0.20815621
213	0x3cc34877	0.023838265
214	0xbe15ab2d	-0.1461608
215	0xbe4be121	-0.19910099
216	0x3e5d63e3	0.21620135
217	0x3da008f1	0.078142054
218	0x3daeb68f	0.08530914
219	0xbe3064b9	-0.17225923
220	0xbd9d3d9f	-0.07677769
221	0xbde903e7	-0.113776974
222	0x3d45cc6d	0.04829066
223	0x3dcd1879	0.100144334
224	0x3d4971fe	0.049180977
225	0x3dff70e0	0.12472701
226	0xbecc068b	-0.39848742
227	0xbd581cb4	-0.05276175
228	0xbd894a7d	-0.06703661
229	0xbdbf7692	-0.09348787
230	0xbd798dc8	-0.06092623
231	0xbe1107b8	-0.141631
232	0x3d83a904	0.064287215
233	0x3da03ee2	0.07824494
234	0x3dbf06dd	0.09327481
235	0xbe24fd36	-0.16112217
236	0xbe66dd68	-0.22545397
237	0xbdb6c4da	-0.08924265
238	0x3dc1853d	0.09449241
239	0xbea067b2	-0.31329113
240	0xbe318a9c	-0.17338032
241	0x3da82562	0.08210255
242	0x3ebb3501	0.36563876
243	0xbe0264f3	-0.12733822
244	0x3dfed01d	0.12442038
245	0x3dc3d7f0	0.09562671
246	0xbde280dd	-0.11059735
247	0xbe85e437	-0.26150677
248	0x3e0bd2da	0.13654652
249	0x3e47b17b	0.19501297
250	0xbc194ff2	-0.009357439
251	0x3d00bdb5	0.03143092
252	0x3e4726db	0.19448416
253	0x3e8a14bb	0.2696894
254	0x3e1c5a00	0.15268707
255	0x3dd51678	0.10404676

conv2.bias f4 [32]
0	0x3a9cab30	0.0011952873
1	0x397ec23c	0.00024295686
2	0x3a1c462e	0.00059613853
3	0xba9fcee3	-0.0012192394
4	0xbb579f20	-0.0032901242
5	0xb78327a1	-1.563487e-05
6	0xba87ffaa	-0.0010375876
7	0x392d1d28	0.00016509427
8	0x399b5b44	0.00029631902
9	0xbabd5180	-0.0014443845
10	0x3ab0c0f9	0.0013485245
11	0xb9a9dde6	-0.0003239952
12	0xba8bd09f	-0.0010667032
13	0xba84b96e	-0.0010126063
14	0x39da5674	0.00041644613
15	0xb5b97940	-1.3818862e-06
16	0xba97f2e6	-0.0011592775
17	0xba81624a	-0.0009871211
18	0x3aa5a9fb	0.0012639159
19	0xb9f62a9a	-0.00046952517
20	0x3a979922	0.0011566023
21	0x3a9d6fa8	0.0012011426
22	0xbadf8b01	-0.0017054976
23	0xbad02e5b	-0.0015882956
24	0xbac1c17e	-0.0014782397
25	0x3b103686	0.0022005155
26	0x3af3fcad	0.0018614732
27	0xb9e5bcda	-0.0004381899
28	0x39573591	0.00020523953
29	0xba309163	-0.00067355315
30	0x390c5493	0.00013382947
31	0xbb12b4a7	-0.002238551

bn2.weight f4 [32]
0	0x3ff51263	1.9146236
1	0x4005c63f	2.090225
2	0x3ffc6030	1.9716854
3	0x3ff01152	1.8755286
4	0x400213cc	2.0324583
5	0x3fec0ed9	1.8442031
6	0x40077c6f	2.1169698
7	0x40006d00	2.0066528
8	0x400277da	2.0385652
9	0x4000f6ec	2.015071
10	0x3ff4d173	1.9126419
11	0x3ff01851	1.8757421
12	0x400017ad	2.001445
13	0x3fe0a9bb	1.7551798
14	0x40035850	2.0522652
15	0x4007cd58	2.1219082
16	0x3ffadaf1	1.9598066
17	0x3ffcd0a2	1.975117
18	0x3ffc04fd	1.9689022
19	0x400aeffe	2.170898
20	0x3ffa787e	1.9568021
21	0x3ff5aa07	1.9192513
22	0x3ff7d129	1.9360706
23	0x3ff1ff1f	1.8905982
24	0x3ffe9967	1.9890565
25	0x40016017	2.0214899
26	0x3ffda3aa	1.9815571
27	0x3feedfb0	1.8662014
28	0x3ffc6889	1.9719402
29	0x3ff32e86	1.8998573
30	0x40005e5a	2.0057588
31	0x3ffaa8c8	1.9582758

bn2.bias f4 [32]
0	0xbf6ac1cb	-0.91701955
1	0xbf908822	-1.1291544
2	0xbf895c59	-1.0731307
3	0xbf78f1bc	-0.9724386
4	0xbf8d8a60	-1.1057854
5	0xbf8a7778	-1.0817709
6	0xbf7c4c61	-0.98554045
7	0xbf8daf56	-1.1069133
8	0xbf5ccae4	-0.86247087
9	0xbfb18e3a	-1.3871529
10	0xbf80bac8	-1.0057001
11	0xbf9c3ee9	-1.2206699
12	0xbf800882	-1.0002596
13	0xbf96baec	-1.1775794
14	0xbf535b41	-0.8256112
15	0xbf8786bc	-1.0587993
16	0xbf819282	-1.0122836
17	0xbf9c9cf6	-1.2235401
18	0xbf5fac64	-0.8737242
19	0xbf900796	-1.1252315
20	0xbf9107f6	-1.1330554
21	0xbf8398c5	-1.0280997
22	0xbf91fdef	-1.1405619
23	0xbf630685	-0.88681823
24	0xbf66962f	-0.9007291
25	0xbf893885	-1.0720373
26	0xbf9623ff	-1.1729735
27	0xbf7cb08c	-0.9870689
28	0xbf81de4e	-1.0145967
29	0xbf35e3cb	-0.7105071
30	0xbf4dcb8f	-0.8038873
31	0xbfa0c190	-1.255907

bn2.running_mean f4 [32]
0	0xbf25208c	-0.6450279
1	0xbf22e3bd	-0.6362875
2	0x3e6cd8d2	0.23129585
3	0xbf5983fc	-0.8496702
4	0xbf020f4e	-0.50804603
5	0xbe3b22ab	-0.18274944
6	0xbefda70e	-0.49541515
7	0xbc6ed2fa	-0.014576668
8	0xbfae7641	-1.3629838
9	0x3f8502a1	1.0391427
10	0xbed1120a	-0.40834075
11	0xbcaf4f72	-0.021400187
12	0xbf80887d	-1.0041653
13	0x3f19a778	0.6002116
14	0xbf997fba	-1.1992104
15	0xbeff935c	-0.49917114
16	0x3e22402c	0.15844792
17	0xbea50708	-0.32231927
18	0xbeadf442	-0.33975416
19	0xbf1f6aa9	-0.62272125
20	0xb9a65756	-0.00031727058
21	0xbf0a87e2	-0.5411359
22	0xbe3c9db4	-0.18419534
23	0xbf7f5f1a	-0.9975449
24	0xbf25ab07	-0.6471409
25	0xbecae406	-0.39627093
26	0x3ee32774	0.44366038
27	0xbf317750	-0.6932268
28	0xbdc33544	-0.09531644
29	0xbf989e72	-1.1923354
30	0xbf6dc558	-0.9287925
31	0x3ed5f6cb	0.4178985

bn2.running_var f4 [32]
0	0x3f055e34	0.5209687
1	0x3f3a8d62	0.72871983
2	0x3f0d2535	0.551349
3	0x3f26bcc7	0.651318
4	0x3f100251	0.56253535
5	0x3f0c347e	0.54767597
6	0x3f336e0d	0.700898
7	0x3f1cd513	0.61262625
8	0x3f8ce828	1.1008348
9	0x3f4b85f8	0.79501295
10	0x3f1b427c	0.6064832
11	0x3f553d71	0.8329688
12	0x3f4a0409	0.7891241
13	0x3f42212d	0.7583187
14	0x3f8f78d3	1.1208748
15	0x3f367998	0.7127929
16	0x3f301886	0.6878742
17	0x3f40163d	0.7503393
18	0x3f470ced	0.777541
19	0x3f6b5793	0.919305
20	0x3f01012a	0.503924
21	0x3f1a91b5	0.6037858
22	0x3f07f78f	0.5311212
23	0x3f496b63	0.78679484
24	0x3f0ba6df	0.545515
25	0x3f0e7fe5	0.556639
26	0x3f5f75d6	0.8728918
27	0x3f2d74a8	0.6775613
28	0x3f136347	0.5757336
29	0x3f852cb4	1.0404267
30	0x3f6f01e8	0.93362284
31	0x3ed350a6	0.41272467

fc1.weight f4 [128, 1600]
0	0x3e1c6616	0.15273318
1	0x3d40b627	0.047048714
2	0x3ea7f6ea	0.32805568
3	0xbd09d1ec	-0.033647463
4	0xbce8159a	-0.028330613
5	0x3e8603d2	0.2617479
6	0xbd8eed84	-0.06978896
7	0xbd1f3a09	-0.038873706
8	0x3e8e3542	0.27775007
9	0xbd9b3141	-0.07577754
10	0x3e339422	0.17536977
11	0x3d1be608	0.03806117
12	0x3e0b0a21	0.13578083
13	0xbe2e7170	-0.1703546
14	0xbe0239d8	-0.12717378
15	0xbe7f1c52	-0.24913147
16	0xbd51fa7e	-0.05126428
17	0x3d390031	0.0451662
18	0xbe0cc980	-0.13748741
19	0xbdb21274	-0.08694926
20	0x3e08e055	0.13366826
21	0xbde8845e	-0.11353372
22	0xbdd8dadf	-0.10588621
23	0xbd1969c6	-0.03745439
24	0x3e465238	0.19367301
25	0xbd80236e	-0.06256758
26	0xbd9b32f8	-0.07578081
27	0xbe11cf42	-0.14239219
28	0xbe0190ab	-0.12652843
29	0x3c9af331	0.01891479
30	0xbdf7a12c	-0.12091288
31	0xbd0406ed	-0.032233167
32	0xbbd3ecdd	-0.0064674453
33	0xbe825d74	-0.25461924
34	0x3d15290c	0.0364161
35	0x3d913847	0.07090812
36	0xbd94a938	-0.072588384
37	0xbe460a2c	-0.19339818
38	0xbdf252bc	-0.118321866
39	0x3e77e8b0	0.24209857
40	0x3e857719	0.26067427
41	0xbe38c965	-0.18045576
42	0xbdf09291	-0.11746705
43	0x3e3542d9	0.17701282
44	0xbaae5886	-0.0013301529
45	0xbcbe9ad5	-0.023267189
46	0xbe0815d9	-0.13289584
47	0xbc9352cb	-0.017983815
48	0xbe4145db	-0.18874304
49	0x3e02b86b	0.12765662
50	0xbc4ccaf3	-0.012499559
51	0xbe03d557	-0.12874351
52	0xbd6e8df6	-0.058240853
53	0xbe1e3fd1	-0.15454032
54	0x3dc639d8	0.096790016
55	0xbe63870f	-0.2221949
56	0x3d9653a7	0.07340174
57	0x3c9d5a97	0.019208236
58	0x3e611880	0.21982002
59	0x3de314b5	0.11087934
60	0xbb2e8c63	-0.002663397
61	0x3bac88a6	0.005265313
62	0xbdcb5154	-0.099276215
63	0xbe7978bc	-0.24362463
64	0x3c60b44a	0.013714859
65	0x3edd386d	0.43207112
66	0xbe47377d	-0.19454761
67	0xbd824976	-0.06361668
68	0xbe701fc9	-0.23449625
69	0xbe04089f	-0.12893914
70	0xbd4ba78f	-0.049720343
71	0xbea5998c	-0.3234371
72	0x3d82f26d	0.06393895
73	0xbeaf9d1a	-0.34299546
74	0x3e3779fb	0.17917626
75	0x3c9f1383	0.019418484
76	0xbdd92614	-0.10602966
77	0x3e2a66a2	0.16640714
78	0xbe2fc2bd	-0.1716413
79	0xbe74206a	-0.2384049
80	0x3e56fb4d	0.20994301
81	0x3e1e4e03	0.15459447
82	0xbd77b8d2	-0.060478993
83	0x3dc3e7c9	0.09565694
84	0xbdb94501	-0.090463646
85	0xbc4c336b	-0.012463431
86	0x3e6eaa13	0.23307066
87	0xbd9594f8	-0.07303804
88	0x3e06eb38	0.13175666
89	0x3ea6b44b	0.32559428
90	0xbe2e27be	-0.17007348
91	0x3e39b021	0.18133594
92	0xbdaf7479	-0.08567137
93	0xbdde816e	-0.108645305
94	0xbd8b313d	-0.06796501
95	0x3e7fb384	0.24970824
96	0x3d8d8164	0.06909445
97	0x3daf5405	0.08560947
98	0x3d8e3de4	0.069453984
99	0xbe1ee6fd	-0.15517803
100	0x3ce7525f	0.02823752
101	0x3d1ebd1f	0.03875458
102	0x3e7ffd65	0.24999006
103	0x3e7b8c17	0.24565159
104	0xbcdd40cc	-0.027008437
105	0x3e6c761c	0.2309193
106	0x3d586c0b	0.052837413
107	0xbe68b7ff	-0.22726439
108	0x3e9f6068	0.3112824
109	0x3ee80ebd	0.45323744
110	0xbe814cfb	-0.25254044
111	0x3d2a1d39	0.041531775
112	0xbd843399	-0.06455154
113	0x3eca2d9a	0.39487916
114	0x3e6314d8	0.2217592
115	0xbd0b8c25	-0.0340692
116	0x3b9a0a96	0.004700969
117	0xbdaf2abd	-0.085530736
118	0xbd35e827	-0.04441085
119	0xbd47c3c7	-0.048770692
120	0x3e05ca67	0.13065492
121	0x3d39ae81	0.045332436
122	0x3e09aa42	0.13443854
123	0x3c942433	0.018083667
124	0xbed0e3bd	-0.4079875
125	0xbd39d406	-0.045368217
126	0xbd214561	-0.039372806
127	0xbe09397a	-0.13400832
128	0x3dd27e91	0.10278047
129	0x3e31026f	0.17286085
130	0xbe43c52f	-0.19118188
131	0xbd009215	-0.031389315
132	0xbdd3f3ae	-0.103492126
133	0x3dabb286	0.0838366
134	0xbe94c2e7	-0.2905495
135	0xbcfa0906	-0.03052188
136	0xb97f448a	-0.00024344228
137	0xbd092731	-0.03348464
138	0xbda0c6af	-0.07850396
139	0xbd0f1ef8	-0.034941643
140	0x3e0fa6b0	0.1402843
141	0xbd458e02	-0.048231132
142	0xbe28feee	-0.16503498
143	0xbd3570af	-0.044296917
144	0x3c8f4207	0.017487539
145	0x3d0efd44	0.0349095
146	0xbdaad7cd	-0.08341942
147	0xbe8556a0	-0.26042652
148	0xbe34cb25	-0.17655618
149	0x3c463fd4	0.012100179
150	0xbe10fff0	-0.14160132
151	0x3e8a7f3c	0.27050197
152	0xbe64e13f	-0.2235155
153	0xbe3827cc	-0.17983931
154	0xbe963a6e	-0.29341453
155	0xbdeacc3e	-0.11464737
156	0xbed2cf36	-0.41173714
157	0x3d096683	0.03354503
158	0x3d964a47	0.07338386
159	0x3e61e620	0.22060442
160	0x3e0b54b6	0.13606533
161	0x3d949e98	0.07256812
162	0x3e3d2b94	0.18473655
163	0x3defce45	0.11709265
164	0x3e2061ac	0.15662259
165	0xbd3eded4	-0.046599224
166	0x3e046a9f	0.12931298
167	0xbe53af26	-0.20672283
168	0x3e069617	0.13143192
169	0x3c5246e3	0.0128342835
170	0x3d9a4a38	0.07533687
171	0xbcee5616	-0.029093783
172	0xbb28641c	-0.0025694435
173	0x3b30384e	0.002688903
174	0x3e54e0d1	0.20788886
175	0xbd3548b7	-0.0442588
176	0x3d875ea4	0.06609848
177	0xbd8ab790	-0.06773293
178	0xbce4b603	-0.027918821
179	0x3dbded50	0.092737794
180	0x3d7fb8a8	0.06243196
181	0x3e10dc2e	0.14146492
182	0xbd0011a4	-0.031266823
183	0x3e1ad84b	0.15121572
184	0x3e029506	0.1275216
185	0x3debbcd8	0.115106285
186	0xbcafa4cd	-0.021440888
187	0xbedca07a	-0.43091184
188	0x3d942760	0.07234073
189	0xbda1a031	-0.07891882
190	0x3d3a06c8	0.045416623
191	0x3e3c97d2	0.1841729
192	0x3d4bb521	0.049733285
193	0x3d9d587b	0.07682892
194	0xbdbe5cac	-0.092950195
195	0x3d4975d3	0.04918463
196	0xbdf1b9d7	-0.11803024
197	0x3d27647c	0.040867314
198	0xbe02db69	-0.12779011
199	0x3e2a3ca8	0.16624701
200	0x3d54b66c	0.051931784
201	0x3ddcb4ba	0.10776658
202	0x3e0d963f	0.13826846
203	0xbded1893	-0.11576953
204	0x3e726d69	0.23674549
205	0xbe066fc2	-0.1312857
206	0xbd20ba04	-0.0392399
207	0xbd220409	-0.03955463
208	0xbec97e5c	-0.39354217
209	0xbd7f41d6	-0.062318645
210	0x3c20bf34	0.009811211
211	0x3db7956c	0.08964047
212	0xbae2b7b0	-0.0017297175
213	0x3e0e55e5	0.13899954
214	0xbd9d55fa	-0.07682414
215	0x3e09b577	0.1344813
216	0x3db89c5e	0.090142
217	0x3dbb35b7	0.09141105
218	0xbdb34c8f	-0.08754837
219	0xbdb12df5	-0.08651344
220	0x3e0d42ca	0.1379501
221	0x3e900a6b	0.28132948
222	0x3d502e4c	0.050825402
223	0xbe0aaf3a	-0.13543406
224	0x3b8501ff	0.004059076
225	0xbe4463a2	-0.19178632
226	0xbd226d66	-0.03965511
227	0xbc8f7d31	-0.01751575
228	0xbbb909b6	-0.0056469096
229	0xbc7b524c	-0.015339445
230	0xbd9c47b8	-0.07630867
231	0xbe5e16d8	-0.21688402
232	0x3ca0e3f9	0.019639956
233	0xbd8be3fb	-0.06830593
234	0xbd258f16	-0.04041966
235	0xbc77b77b	-0.015119429
236	0x3dd37b80	0.1032629
237	0xbd04da9e	-0.032435052
238	0x3dad41af	0.08459794
239	0x3da6b663	0.08140256
240	0xbe831026	-0.25598258
241	0x3e106c12	0.14103726
242	0x3d5f941c	0.054584607
243	0x3d8053e2	0.062659994
244	0xbee9ebb9	-0.45687655
245	0x3da85201	0.08218766
246	0xbe092458	-0.1339277
247	0x3eaa0cf6	0.33213013
248	0xbe41a132	-0.18909147
249	0x3e28c2be	0.16480538
250	0x3bdf84f5	0.0068212696
251	0x3d3859dc	0.04500757
252	0xbe150e1e	-0.14556167
253	0x3dee1e4c	0.116268724
254	0xbf11f4e5	-0.57014304
255	0xbcbbf765	-0.022945115

fc1.bias f4 [128]
0	0x3cd86877	0.026417
1	0xbd6675df	-0.056264754
2	0x3be9a8fa	0.0071307393
3	0xbbacc28c	-0.005272215
4	0xbc3d8da2	-0.011569412
5	0x3c081188	0.008304961
6	0x3cd5a9e4	0.026081987
7	0x3db51bb8	0.088431776
8	0xbc412891	-0.011789457
9	0xbdf20f6d	-0.118193485
10	0x3c456e32	0.012050198
11	0xbd13db48	-0.036097795
12	0xb9e7fa5b	-0.00044246283
13	0x3d180a16	0.037118994
14	0xbc919871	-0.017772885
15	0xbd262bf1	-0.04056925
16	0x3c0078f6	0.007841339
17	0xbd950890	-0.07277024
18	0x3d396c7e	0.04526948
19	0xbd8f89e7	-0.07008725
20	0xbcb5f3cc	-0.022210978
21	0x3d898796	0.06715314
22	0xbc4d612f	-0.012535377
23	0xbce0a5bd	-0.02742278
24	0xbcd6c285	-0.026215801
25	0xbc63d453	-0.0139056025
26	0x3b6f7d6e	0.0036543268
27	0x3c735036	0.014850667
28	0xbd406855	-0.0469745
29	0xbc8793d2	-0.016549978
30	0x3dd7e0a8	0.10540897
31	0x3ca96a47	0.02068056
32	0x3d7f8eda	0.062392093
33	0x3d2714f7	0.040791478
34	0x3c61f214	0.013790626
35	0xbbe9b6e1	-0.0071323966
36	0xbd3d994c	-0.046288773
37	0xbd1ba0b0	-0.03799504
38	0xbbd0c44a	-0.0063710557
39	0xbc3f6269	-0.011681178
40	0xbd77f728	-0.06053844
41	0x3d3f558f	0.046712454
42	0x3d4ce06b	0.05001871
43	0xbd81c627	-0.06336623
44	0x3d139e0e	0.036039405
45	0x3d3f9e9b	0.046782117
46	0x3cd62eb6	0.02614532
47	0xbd89b724	-0.067243844
48	0xbd473aa2	-0.0486399
49	0xbadb04e6	-0.0016709834
50	0x3d1bd3ea	0.038043894
51	0xbd62982f	-0.055320915
52	0x3d80f1d5	0.06296126
53	0x3b9e0f6e	0.0048236167
54	0x3d6df24a	0.058092393
55	0xbd8e5f34	-0.06951752
56	0x3d237a8c	0.03991179
57	0xbd0dab1c	-0.03458701
58	0xbcdd87f4	-0.027042367
59	0x3b97e723	0.004635708
60	0xbacf0214	-0.0015793466
61	0x3c23f839	0.010007911
62	0x3d8c2fc4	0.06845048
63	0xbdd0af96	-0.1018974
64	0xbd1af754	-0.037833527
65	0xbc89c659	-0.016818212
66	0xbb5bac24	-0.0033519352
67	0xbccf9f3d	-0.025344485
68	0x3c6a68d5	0.0143072205
69	0xbc457cbe	-0.012053667
70	0x3c86c0cd	0.016449356
71	0x3d38c1d7	0.045106735
72	0xbcfa7f4f	-0.030578284
73	0xbb084a08	-0.002079608
74	0xbb3ecd1b	-0.0029113952
75	0xbcbd6c39	-0.023122894
76	0x3c0951f3	0.008381355
77	0x3d84578b	0.0646201
78	0x3cfdb411	0.030969651
79	0xbd4194a5	-0.0472609
80	0xbd3e836e	-0.04651206
81	0x3d0e84fe	0.0347948
82	0x3d1dc888	0.03852132
83	0x3d6b5751	0.05745632
84	0xbcd3eae1	-0.025868835
85	0xbdaf5065	-0.08560256
86	0x3d65b7c8	0.05608347
87	0xbd97bef9	-0.07409472
88	0x3cbfb23e	0.023400422
89	0xbc39fcc8	-0.011351772
90	0xbd2003cc	-0.03906612
91	0xbd90dfb7	-0.0707392
92	0xbd42fe59	-0.047605846
93	0xbda41074	-0.08010951
94	0xbc1dbabf	-0.009627043
95	0xbb857ed9	-0.0040739593
96	0xbcd7a98c	-0.026325963
97	0xbc695062	-0.014240356
98	0xbca6c5f4	-0.020358063
99	0x3c3af533	0.011410999
100	0xbc459a2f	-0.012060686
101	0xbd4df5a0	-0.050283074
102	0xbb94cd0f	-0.0045410465
103	0xbbca5c08	-0.0061755218
104	0xbc9ad29f	-0.01889926
105	0xbc694024	-0.014236484
106	0xbd27c06a	-0.040954985
107	0x3c21c024	0.00987247
108	0x3db4ab21	0.08821703
109	0x3d0a3fc0	0.033752203
110	0xbce53df0	-0.027983636
111	0xbccb9e83	-0.024855858
112	0xbc7bd939	-0.015371614
113	0xbd94cabc	-0.07265231
114	0xbb35ee19	-0.0027760325
115	0x3b0e8e7b	0.0021752405
116	0x3cc64ca8	0.024206474
117	0xbd5f5913	-0.054528307
118	0xbc179bf4	-0.009253491
119	0xbdd5c456	-0.10437839
120	0xbd5fc83e	-0.054634325
121	0x3d9487b1	0.072524436
122	0xba221abf	-0.0006183795
123	0xbbbab0c6	-0.0056973426
124	0x3cbd480e	0.023105647
125	0x3cccaf43	0.024985915
126	0x3baad260	0.005213067
127	0x3d97b157	0.07406872

fc2.weight f4 [9, 128]
0	0x3c9fac6c	0.019491397
1	0x3df80467	0.12110215
2	0xbe317a57	-0.17331825
3	0x3e22aa78	0.15885341
4	0x3e60cae3	0.21952395
5	0xbdc3d65e	-0.09562372
6	0x3db09ce5	0.08623675
7	0x3dc651c0	0.09683561
8	0xbd47da44	-0.04879214
9	0x3e117b75	0.14207251
10	0xbe6d4b1f	-0.23173188
11	0x3e858a67	0.26082155
12	0xbe99d927	-0.30048487
13	0xbd5f7de1	-0.054563407
14	0x3e816e30	0.2527938
15	0x3df5c0ec	0.119996876
16	0x3e95ec4a	0.29281837
17	0xbe088f98	-0.13336027
18	0xbe907b99	-0.28219298
19	0x3e9cee0e	0.3065037
20	0xbe0a0861	-0.13479759
21	0x3da6270e	0.08112918
22	0x3d7dc472	0.061954923
23	0x3e673f6d	0.22582789
24	0x3db93577	0.09043401
25	0x3cc7ef27	0.024406029
26	0xbe64e6c2	-0.22353652
27	0xbe2e86fc	-0.1704368
28	0xbdc0ff1c	-0.09423658
29	0xbde18001	-0.11010743
30	0x3d1eaa7d	0.03873681
31	0xbcf131f5	-0.029442767
32	0xbda94ada	-0.0826623
33	0xbccf1e4f	-0.025283007
34	0x3e4e457c	0.20143694
35	0x3d8e73fb	0.06955715
36	0x3e19f5a7	0.15035115
37	0x3e8725f8	0.26396155
38	0xbdff5d56	-0.12468974
39	0xbd4ce738	-0.050025195
40	0x3e983194	0.29725325
41	0xbe830c61	-0.25595382
42	0x3e64ffd6	0.22363219
43	0x3c8921cc	0.016739748
44	0x3cad3a2b	0.0211459
45	0x3e156eaf	0.14593004
46	0x3ca710fb	0.02039384
47	0x3e46c65c	0.19411606
48	0xbe4583f2	-0.19288614
49	0xbe7ff7c3	-0.24996857
50	0xbe339f34	-0.175412
51	0x3e5b23b4	0.21400338
52	0x3c947de0	0.018126428
53	0x3e243f76	0.16039833
54	0x3e105f97	0.14098965
55	0x3e5cab7e	0.21549794
56	0xbcd9ec99	-0.026602076
57	0xbdd3dee4	-0.103452474
58	0xbe0cd261	-0.13752128
59	0x3cc2e536	0.023790937
60	0x3dc4e499	0.09613914
61	0x3c28d708	0.010305174
62	0xbcfa8db7	-0.030585153
63	0xbe0cb050	-0.13739133
64	0x3e336bd1	0.17521597
65	0x3e28c104	0.1647988
66	0x3e9f304d	0.31091538
67	0xbe30e550	-0.17274976
68	0xbe31f99b	-0.17380373
69	0xbd60378b	-0.05474047
70	0x3e5fe504	0.21864706
71	0x3e397cac	0.18113965
72	0x3e785223	0.24250083
73	0xbc55b7fc	-0.013044354
74	0xbe5fc7a2	-0.21853498
75	0xbe2ae911	-0.1669047
76	0x3e0dc48d	0.1384451
77	0x3df6db95	0.12053601
78	0xbdebef4a	-0.1152025
79	0xbd00a23e	-0.031404726
80	0x3e74942a	0.23884645
81	0xbe0e0d2d	-0.13872214
82	0x3e1e98e7	0.15488015
83	0xbdf028e0	-0.11726546
84	0xbe323b4b	-0.17405431
85	0xbde032fa	-0.10947223
86	0xbe121258	-0.1426481
87	0x3d952876	0.07283108
88	0x3e9badef	0.30406138
89	0xbe3f2ba8	-0.18668997
90	0xbc5bb589	-0.013409981
91	0x3e65f45f	0.22456501
92	0xbd8c55e9	-0.068523236
93	0x3e0752c3	0.13215165
94	0x3e208b17	0.15678059
95	0xbdd6459c	-0.10462496
96	0x3e253ab3	0.16135673
97	0x3e292947	0.16519652
98	0x3da0b59e	0.07847141
99	0x3c584db6	0.0132021215
100	0xbe41444b	-0.18873708
101	0xbe123364	-0.14277416
102	0xbd03867e	-0.032110684
103	0x3d8c5f24	0.06854084
104	0x3c7984c6	0.01522941
105	0xbe1e3b71	-0.15452363
106	0x3dcbfceb	0.0996035
107	0xbd93357e	-0.07187937
108	0xbd6b9d75	-0.05752321
109	0xbe46c33a	-0.1941041
110	0x3db2e50c	0.087350935
111	0x3e523ef6	0.2053183
112	0xbcb8b39a	-0.022546578
113	0x3d8492f1	0.06473339
114	0xbe281a8f	-0.16416381
115	0xbde23173	-0.11044588
116	0x3d21fe85	0.03954937
117	0xbe20ee1c	-0.15715832
118	0xbc9ee373	-0.019395566
119	0xbd26378f	-0.04058033
120	0xbe03ee76	-0.12883934
121	0xbe8f536f	-0.27993342
122	0xbe0a6550	-0.1351521
123	0x3e28e50d	0.16493626
124	0x3ddeef82	0.10885526
125	0xbe3f0051	-0.18652464
126	0x3d55536f	0.05208152
127	0x3e29b42e	0.1657264
128	0x3e2c58bf	0.16830729
129	0xbe27fdac	-0.16405362
130	0x3cb52e08	0.022116676
131	0xbddc9f0e	-0.10772525
132	0xbe0a2147	-0.13489257
133	0x3e250316	0.16114458
134	0xbe7f6eac	-0.24944562
135	0xbd9c4453	-0.07630219
136	0x3d3df81b	0.04637919
137	0x3e952e6a	0.29136974
138	0xbd74c417	-0.05975732
139	0x3d92bdde	0.071651205
140	0xbdc36a43	-0.09541752
141	0x3e0214db	0.12703268
142	0x3e431715	0.19051774
143	0xbcbdb4d7	-0.02315752
144	0x3e367412	0.17817715
145	0x3ca96944	0.020680077
146	0x3e1f7b60	0.15574408
147	0xbd3b7415	-0.045765
148	0xbcf5eefe	-0.030021187
149	0x3cb80802	0.022464756
150	0xbc1cebf4	-0.00957774
151	0x3e069673	0.1314333
152	0xbd9cc53a	-0.076548055
153	0x3e2d3b8f	0.16917251
154	0xbd566268	-0.05233994
155	0x3e075fac	0.1322009
156	0x3e5bda97	0.21470104
157	0x3dc272b5	0.09494535
158	0xbd6e0f05	-0.058119792
159	0xbd5d0bdb	-0.053966384
160	0xbd755b86	-0.059901737
161	0xbe384fcf	-0.17999195
162	0x3e0ea926	0.13931713
163	0x3dee6d0b	0.11641892
164	0x3c114c1e	0.008868245
165	0xbe357bb3	-0.17722969
166	0xbe395e00	-0.18102264
167	0x3e03e3f1	0.12879921
168	0x3dfc1752	0.123091355
169	0xbe14b4f4	-0.14522153
170	0xbe090c97	-0.13383709
171	0x3e6d1ea4	0.2315622
172	0x3de2331e	0.11044906
173	0xbe81b251	-0.25331357
174	0xbdf5f463	-0.12009504
175	0x3e9a2386	0.30105227
176	0x3e27ed04	0.16399008
177	0x3d1b4859	0.037910793
178	0xbdccdb04	-0.100027114
179	0x3e0cd422	0.13752797
180	0xbe1336a5	-0.14376314
181	0x3c8d1d45	0.01722587
182	0xbe434831	-0.19070508
183	0xbe6cb790	-0.23116899
184	0xbe6643d7	-0.22486816
185	0x3cfc5b79	0.030805336
186	0x3ddb2f85	0.10702423
187	0xbd6fb0ee	-0.058518343
188	0x3e2e2256	0.17005286
189	0xbe4045a8	-0.18776572
190	0xbe647e8b	-0.22313897
191	0x3e0990b1	0.13434102
192	0x3df93474	0.12168208
193	0x3dd076e0	0.101789236
194	0xbd556ff4	-0.05210872
195	0x3e69fcdf	0.22850369
196	0xbe1bbe7f	-0.15209387
197	0x3d4f94ef	0.050679144
198	0x3dd22220	0.10260415
199	0x3e164c63	0.14677577
200	0x3e13644b	0.14393727
201	0xbe60fafb	-0.21970741
202	0x3e7750d0	0.24151921
203	0x3d5261f3	0.051362943
204	0xbd70f8c6	-0.058831
205	0x3d43027b	0.047609787
206	0x3e6448c5	0.22293384
207	0x3e4cfc36	0.20018086
208	0xbc88424e	-0.016633179
209	0xbe6bd3fb	-0.23030083
210	0x3dfcd989	0.12346179
211	0xbd0aaf90	-0.033858836
212	0x3d63dd15	0.055630762
213	0x3e48e69f	0.19619225
214	0xbd46f675	-0.048574883
215	0x3e24cf4d	0.16094704
216	0x3da6a6fa	0.08137317
217	0xbd6195a7	-0.05507436
218	0x3d2b0ce6	0.041760348
219	0x3dd862bf	0.10565709
220	0x3e962505	0.2932512
221	0x3e0ef2ee	0.13959858
222	0xbe341bf1	-0.17588784
223	0xbdab76c4	-0.08372262
224	0x3e135f5d	0.14391847
225	0x3e9cfd80	0.30662155
226	0xbdb830a3	-0.08993652
227	0xbd81005a	-0.06298895
228	0xbd3fd43a	-0.046833254
229	0x3b34b5d4	0.0027574198
230	0xbe43a022	-0.19104055
231	0x3e86dc20	0.26339817
232	0x3dedfc60	0.11620402
233	0xbe2faa78	-0.17154872
234	0xbe3401a6	-0.17578754
235	0x3e9effc8	0.3105452
236	0xbe415e5e	-0.18883654
237	0x3e8982da	0.26857644
238	0xbddf40e8	-0.10901052
239	0xbd95ae78	-0.07308668
240	0xbdea7d4d	-0.114496805
241	0x3e2e3769	0.17013325
242	0xbde37b70	-0.11107528
243	0x3e52a176	0.20569405
244	0x3e58dff7	0.21179186
245	0x3e3d6311	0.18494822
246	0x3e43e59f	0.19130562
247	0x3dd75935	0.10515062
248	0x3e27fb29	0.16404404
249	0xbe349f64	-0.17638928
250	0x3c480338	0.012207799
251	0x3d934ded	0.071925975
252	0x3e51b001	0.20477296
253	0x3bb22349	0.005436335
254	0xbd521fa3	-0.051299702
255	0xbe262d7d	-0.1622829

fc2.bias f4 [9]
0	0x3e04ce94	0.12969428
1	0xbd31e2c5	-0.043429155
2	0x3e8544af	0.26028964
3	0xbe24f277	-0.16108118
4	0xbdeb9257	-0.115025215
5	0x3e242ca7	0.16032659
6	0xbd8b4326	-0.06799917
7	0x3db9191b	0.090379916
8	0xbe475f36	-0.19469914
