results/arousal/classification_3/20251208_194359_789001/best_model.pt (torch, 402293 bytes, 22 tensors)

conv1.weight f4 [128, 1, 3]
0.36580405 0.46315873 -0.17442116 0.5897731 -0.25574127 0.00418521 -0.2770086 0.28787696
0.45917395 -0.45209575 0.577054 0.11887088 0.3976732 -0.08464075 0.33704033 -0.037934728
0.46487027 -0.024042046 -0.22652122 0.23859987 -0.31549406 -0.18681628 -0.16680314 0.44728467
-0.24154542 -0.33880863 -0.095812574 -0.36459103 0.11139059 -0.3607099 0.4969325 -0.62128127
0.2854802 0.10053989 -0.21324772 0.35573152 0.056452874 0.39820695 -0.07729691 -0.17807084
0.2856536 -0.19760962 0.11738552 0.3079166 0.48287845 -0.3216615 0.35016075 0.02735499
0.260727 -0.46964982 -0.5584536 -0.031656194 -0.46632853 0.4765175 0.21342891 0.11639493
0.3328825 -0.028095573 0.46509662 -0.464331 0.05524947 -0.49813256 0.1975466 -0.05870568
0.24622592 -0.106391914 0.49368694 -0.22848286 -0.29747447 -0.32551908 0.5744404 0.12355723
0.74278843 -0.40835539 -0.39754078 -0.3655302 -0.2561481 0.29996508 0.036608428 0.5063222
-0.28770128 -0.3696114 0.38784552 -0.1784468 0.31778893 -0.251034 0.22323607 -0.4685924
-0.21329014 0.26961985 0.1139733 -0.2637864 0.3253834 0.37981972 -0.5158289 -0.2587477
0.6065237 -0.2562931 -0.117692485 -0.52858144 -0.23206294 0.28217027 -0.06784453 -0.4469203
0.100703545 -0.44841504 -0.42699134 -0.19935837 -0.4281696 -0.2095922 0.7243517 0.13542974
0.24960086 -0.45837694 -0.3944059 -0.2034983 0.17660457 0.07504551 -0.023033613 -0.061404068
0.16578007 -0.2702515 0.006207344 -0.26505372 -0.45183793 -0.22406362 -0.13900818 -0.45569554
0.56332016 -0.13476183 0.48393613 0.24362999 -0.56173867 0.40578645 -0.18728028 -0.1961896
-0.4419399 -0.46347857 0.18795893 -0.25887454 0.18697901 -0.40557104 0.59485734 -0.2935932
0.02259591 0.06385528 0.36695114 0.5415563 0.46568874 -0.4129226 0.25837985 -0.18369319
-0.06908271 -0.4324509 0.6053761 -0.27755263 0.35678676 0.05005316 0.19767568 -0.40003586
0.47108838 0.111707844 0.11903763 -0.6642868 0.1800723 -0.098967895 -0.299822 0.5335418
0.17288412 -0.42773053 -0.3060428 -0.047691368 0.35564423 -0.22321713 -0.2943058 -0.15124759
-0.4623407 0.15249859 0.4102434 -0.58269596 0.06394959 0.40638217 0.119122915 -0.21887046
0.25761464 0.47551143 0.2629127 0.027693516 -0.1224312 0.23604888 -0.059971567 -0.20540214
0.18759187 0.6778556 -0.15218647 -0.20504846 -0.033399295 -0.005823993 0.07743462 0.20421211
-0.63093024 -0.1836873 0.5195568 0.24358453 0.0073951096 -0.37551823 -0.3859669 -0.6081198
-0.15124696 0.1972939 0.42123783 0.26887852 -0.5121959 -0.29920897 -0.07620848 0.62518996
0.08700515 -0.19602884 0.3948684 -0.049488343 -0.42525175 0.447763 -0.13162673 -0.03304977
-0.6331438 0.21672001 0.37037686 0.24929912 -0.41909006 -0.5189394 -0.27265188 0.43834424
0.17003728 0.47954267 0.6558686 -0.011148838 -0.07226293 -0.4503445 -0.42992774 -0.38223085
0.3550182 -0.28312743 -0.13203861 -0.29810357 -0.19525981 -0.2879417 -0.32193264 0.20969085
-0.253201 0.36124304 -0.0801618 -0.43229824 0.09198721 -0.33577424 0.0020466212 -0.53576183
00000000: ab4a bb3e 2423 ed3e 769b 32be 5ffb 163f
00000010: 85f0 82be 1624 893b 12d4 8dbe 9c64 933e
00000020: d918 eb3e 1879 e7be d0b9 133f 9372 f33d
00000030: d29b cb3e 2158 adbd 8d90 ac3e 7261 1bbd
00000040: 7a03 ee3e d3f3 c4bc 2ef5 67be 8653 743e
00000050: 7088 a1be c44c 3fbe 71ce 2abe 7f02 e53e
00000060: af57 77be 5378 adbe 6239 c4bd adab babe
00000070: c020 e43d f8ae b8be f06d fe3e 4a0c 1fbf
00000080: 762a 923e dce7 cd3d 9c5d 5abe 7122 b63e
00000090: 213b 673d c8e1 cb3e d84d 9ebd 3458 36be
000000a0: 3041 923e 2d5a 4abe d267 f03d 3fa7 9d3e
000000b0: d83b f73e d1b0 a4be 4548 b33e 9217 e03c
000000c0: 027e 853e f175 f0be d1f6 0ebf eda9 01bd
000000d0: 9dc2 eebe 1afa f33e 1c8d 5a3e 7760 ee3d
000000e0: 936f aa3e b028 e6bc 2521 ee3e cbbc edbe
000000f0: 454d 623d 3b0b ffbe a849 4a3e 5e75 70bd
00000100: a622 7c3e 01e4 d9bd 89c4 fc3e 69f7 69be
00000110: 934e 98be 70aa a6be 870e 133f 930b fd3d
00000120: 6227 3e3f f513 d1be 778a cbbe c626 bbbe
00000130: d825 83be 0695 993e b8f2 153d 559e 013f
00000140: 954d 93be b53d bdbe b093 c63e c2ba 36be
00000150: 3bb5 a23e 8787 80be ff97 643e 58eb efbe
00000160: bb68 5abe 9d0b 8a3e d56a e93d 030f 87be
00000170: a798 a63e bb77 c23e 5d0d 04bf 947a 84be
00000180: 2345 1b3f d938 83be c208 f1bd 1d51 07bf
00000190: e8a1 6dbe 9f78 903e 13f2 8abd bdd2 e4be
000001a0: a93d ce3d a896 e5be 9c9e dabe 9a24 4cbe
000001b0: 0c39 dbbe 569f 56be 1d6f 393f 18ae 0a3e
000001c0: 5e97 7f3e 62b0 eabe 92ef c9be dc61 50be
000001d0: d4d7 343e 76b1 993d fdb0 bcbc d582 7bbd
000001e0: 40c2 293e 685e 8abe fa66 cb3b 1fb5 87be
000001f0: 4d57 e7be ef70 65be 2958 0ebe ed50 e9be
00000200: c035 103f 01ff 09be 7ac6 f73e 247a 793e
00000210: 1bce 0fbf 3ec3 cf3e 67c6 3fbe ede5 48be
00000220: f245 e2be 104d edbe 4e78 403e 348b 84be
00000230: 6d77 3f3e 02a7 cfbe 9248 183f d951 96be
00000240: 0f1b b93c 8fc6 823d 05e1 bb3e 6fa3 0a3f
00000250: c16e ee3e 976a d3be 5d4a 843e 111a 3cbe
00000260: 3c7b 8dbd 346a ddbe eef9 1a3f 611b 8ebe
00000270: c1ac b63e 8b04 4d3d 7e6b 4a3e 80d1 ccbe
00000280: 7f32 f13e 15c7 e43d 00ca f33d b30e 2abf
00000290: df64 383e aeaf cabd 4582 99be 3296 083f
000002a0: 8908 313e 7fff dabe a4b1 9cbe 0658 43bd
000002b0: 0017 b63e 0893 64be 40af 96be a6e0 1abe
000002c0: ecb7 ecbe 9728 1c3e 6c0b d23e 902b 15bf
000002d0: 01f8 823d 5311 d03e b7f6 f33d 941f 60be
000002e0: 11e6 833e 3c76 f33e 7e9c 863e 83dd e23c
000002f0: 36bd fabd ccb6 713e bfa4 75bd f054 52be
00000300: 1518 403e f287 2d3f c5d6 1bbe 39f8 51be
00000310: b3cd 08bd 32d7 bebb 0b96 9e3d fb1c 513e
00000320: a584 21bf 8618 3cbe ad01 053f 396e 793e
00000330: ad52 f23b ed43 c0be 749d c5be bdad 1bbf
00000340: 7ce0 1abe 6a07 4a3e 7cac d73e 72aa 893e
00000350: 451f 03bf eb31 99be 3113 9cbd 730c 203f
00000360: c22f b23d c9bb 48be 312c ca3e 4ab4 4abd
00000370: 99ba d9be 3141 e53e 28c9 06be 325f 07bd
00000380: b615 22bf daeb 5d3e 09a2 bd3e 4548 7f3e
00000390: f992 d6be 36d9 04bf 0799 8bbe a86e e03e
000003a0: 411e 2e3e 9e86 f53e 01e7 273f 9ea9 36bc
000003b0: 96fe 93bd 8e93 e6be 7d1f dcbe c3b3 c3be
000003c0: f2c4 b53e 14f6 90be 2135 07be 08a1 98be
000003d0: 30f2 47be 186d 93be 5bd4 a4be 33b9 563e
000003e0: 90a3 81be d9f4 b83e df2b a4bd 3256 ddbe
000003f0: ca63 bc3d 9aea abbe 9b20 063b b027 09bf

conv1.bias f4 [128]
-0.2783556 0.22876145 -0.58772856 0.009029319 0.29390067 -0.29139787 -0.26765877 -0.3486227
0.2920926 0.28170097 0.22919795 -0.46755558 -0.6361046 0.18035801 -0.08406156 -0.3692689
-0.0021182 0.59370977 -0.1346783 -0.1563492 -0.2107313 -0.5997797 -0.69673586 -0.35510844
-0.14753245 0.49440554 -0.3837984 -0.36253098 0.5207693 0.24662739 0.43531907 -0.31538978
-0.26284224 0.22814097 -0.45854127 -0.44052595 -0.085927 -0.42460892 -0.49191728 0.009801436
0.46907678 0.10395458 -0.0037608421 -0.55881554 -0.19549 0.16005681 0.46573535 -0.1468681
-0.3738294 0.21158661 -0.54423994 0.5199864 -0.3523628 0.2218439 0.061256785 0.1473532
-0.1381534 0.49230245 -0.030150736 0.5249723 0.38734838 -0.27018777 -0.5551288 0.4861403
0.037666272 -0.48040968 -0.090954155 -0.5901468 -0.50218195 0.13184565 0.15052582 0.18399608
-0.18559018 0.5836493 0.046143413 -0.49137202 -0.059708305 -0.029582355 0.04917848 -0.40469888
0.24485958 -0.45968354 -0.59145 -0.47580013 0.4805626 0.5191511 0.3003348 0.43198183
0.35165256 -0.009658068 -0.39829797 0.07064689 -0.3555165 -0.4829172 -0.23396486 0.22998786
0.41581395 -0.34401 -0.4632862 0.047939073 -0.4772188 -0.48726663 0.5418163 -0.2815922
0.6988774 0.2322709 0.13729988 0.15766628 0.07151123 -0.032155264 -0.14888562 0.24846183
0.42119703 0.25527892 0.012245747 -0.3697054 -0.0065512047 -0.46409824 0.10563557 0.5209916
0.13904364 0.23099533 -0.5295624 -0.39992774 -0.16261017 -0.045307167 0.14767434 -0.6938892
00000000: a084 8ebe 7140 6a3e 6175 16bf b5ef 133c
00000010: 267a 963e 1a32 95be 920a 89be ad7e b2be
00000020: 298d 953e 1c3b 903e deb2 6a3e 7263 efbe
00000030: c0d7 22bf c5af 383e 7828 acbd d010 bdbe
00000040: 80d1 0abb 5dfd 173f 1ce9 09be 011a 20be
00000050: f2c9 57be 2a8b 19bf 485d 32bf c6d0 b5be
00000060: bf12 17be b922 fd3e 3981 c4be a99d b9be
00000070: 2351 053f e48b 7c3e 24e2 de3e c57a a1be
00000080: 4293 86be c99d 693e ecc5 eabe 9e8c e1be
00000090: 7ffa afbd 5766 d9be 95dc fbbe 3496 203c
000000a0: d52a f03e 24e6 d43d 7678 76bb 890e 0fbf
000000b0: 882e 48be efe5 233e dd74 ee3e 9764 16be
000000c0: 9166 bfbe 29aa 583e 4f53 0bbf d41d 053f
000000d0: e668 b4be 0c2b 633e 65e8 7a3d c2e3 163e
000000e0: 1678 0dbe 110f fc3e adfe f6bc 9664 063f
000000f0: 8752 c63e 0d56 8abe ec1c 0ebf 62e7 f83e
00000100: f347 1a3d 42f8 f5be 2c46 babd dc13 17bf
00000110: ff8e 00bf 8c02 073e 7123 1a3e 7869 3c3e
00000120: 5a0b 3ebe 0a6a 153f e000 3d3d 1d95 fbbe
00000130: b290 74bd b256 f2bc 606f 493d b134 cfbe
00000140: 78bc 7a3e a45b ebbe 4469 17bf 139c f3be
00000150: 4d0c f63e 16e7 043f 7cc5 993e b92c dd3e
00000160: ce0b b43e e03c 1ebc b6ed cbbe 51af 903d
00000170: 4206 b6be ec40 f7be 7c94 6fbe f081 6b3e
00000180: 91e5 d43e 1422 b0be d933 edbe c35b 443d
00000190: 0656 f4be 037b f9be 79b4 0a3f da2c 90be
000001a0: a1e9 323f 6cd8 6d3e 5798 0c3e 4573 213e
000001b0: 7b74 923d 3db5 03bd 7975 18be c76c 7e3e
000001c0: 23a7 d73e ebb3 823e 63a2 483c 074a bdbe
000001d0: 7dab d6bb 499e edbe 7657 d83d b55f 053f
000001e0: 7561 0e3e 0a8a 6c3e 6791 07bf 54c3 ccbe
000001f0: 4883 26be 0294 39bd f137 173e b9a2 31bf

bn1.weight f4 [128]
1.1073695 0.6956778 1.077903 0.8435501 0.43505403 0.96687627 0.85800683 1.4052616
0.060920563 0.11325813 0.9666375 1.6787039 2.0671618 0.66162586 0.28455442 1.2142768
0.83867586 0.71889263 0.38756746 0.99830776 0.9071086 1.414629 1.2474267 0.95315087
0.76706564 0.56796706 1.4618686 0.90730184 0.21356101 0.5335977 0.5664918 0.8783524
1.2178532 0.42099547 1.0585456 0.7590986 0.97029036 1.0992954 1.1015834 -0.0076020714
0.45464295 0.1976366 0.816541 0.8716811 0.806576 0.3803795 0.4668978 0.60777444
1.1994148 0.57109976 1.3790424 0.89098203 1.1054984 0.8504322 1.0265106 0.7252178
0.6384662 0.7570093 0.2989472 0.9218611 0.14996043 1.0066346 1.8896345 0.57594055
0.34048626 0.57834035 0.8815448 1.1340488 0.8559797 0.5672997 0.90007174 0.5876524
1.228792 0.6695503 0.3420941 0.66267014 0.3783099 0.5556773 0.6332198 0.40979692
1.2035307 0.7312219 1.3027594 1.1599412 0.109812096 0.4613398 0.2888183 0.8491531
0.34836772 0.6165222 1.3077444 0.62277937 1.2920634 0.7629348 0.3580036 0.82464033
0.8263303 0.38526464 0.99432766 0.619233 1.4620688 1.0456885 0.38976017 0.7358029
0.8684889 0.26348543 0.59503514 0.35695195 0.21223475 0.32339984 0.9534664 0.5382096
0.7443585 0.043539025 0.21369043 1.3885963 0.8060945 0.85782194 0.57248145 0.65374714
0.004451935 0.34528708 0.90621924 0.80682725 0.42841607 0.84403 1.034138 1.5845768
00000000: 49be 8d3f f117 323f baf8 893f e6f2 573f
00000010: 67bf de3e 3485 773f 56a6 5b3f 9ddf b33f
00000020: d787 793d e1f3 e73d 8e75 773f c5df d63f
00000030: 614c 0440 5060 293f 1eb1 913e 6c6d 9b3f
00000040: 76b3 563f 5909 383f 3e6f c63e 1991 7f3f
00000050: 4538 683f 9012 b53f aeab 9f3f b201 743f
00000060: 6a5e 443f 4a66 113f 831e bb3f ef44 683f
00000070: bdaf 5a3e dc99 083f 9b05 113f b4db 603f
00000080: 9de2 9b3f b88c d73e 6c7e 873f 4954 423f
00000090: f364 783f b6b5 8c3f af00 8d3f cc1a f9bb
000000a0: f6c6 e83e 4061 4a3e d508 513f 7e26 5f3f
000000b0: c47b 4e3f 1ac1 c23e 3a0d ef3e 1b97 1b3f
000000c0: 6d86 993f 9833 123f 7684 b03f 6617 643f
000000d0: f980 8d3f edb5 593f b364 833f e0a7 393f
000000e0: 8572 233f 5dcb 413f 9b0f 993e 17ff 6b3f
000000f0: 3a8f 193e 67d9 803f 8bdf f13f d770 133f
00000100: 3754 ae3e 1d0e 143f ecac 613f 8328 913f
00000110: 7c21 5b3f 8e3a 113f 1a6b 663f 6370 163f
00000120: 0e49 9d3f a667 2b3f f526 af3e c0a4 293f
00000130: d6b1 c13e de40 0e3f b11a 223f e7d0 d13e
00000140: 4b0d 9a3f 5c31 3b3f d2c0 a63f f478 943f
00000150: 2ae5 e03d bb34 ec3e fedf 933e 1962 593f
00000160: 415d b23e 66d4 1d3f 2b64 a73f 786e 1f3f
00000170: 5562 a53f b24f 433f 3f4c b73e a11b 533f
00000180: 628a 533f 6841 c53e 428c 7e3f 0e86 1e3f
00000190: 1225 bb3f 1fd9 853f a58e c73e 945d 3c3f
000001a0: 4a55 5e3f 90e7 863e 3954 183f 68c2 b63e
000001b0: 1154 593e aa94 a53e 6016 743f 1bc8 093f
000001c0: 478e 3e3f fa55 323d aad1 5a3e 86bd b13f
000001d0: 365c 4e3f 389a 5b3f 258e 123f f95b 273f
000001e0: 8ae1 913b 78c9 b03e fcfd 673f 3b8c 4e3f
000001f0: 5a59 db3e 5a12 583f a25e 843f 6ad3 ca3f

bn1.bias f4 [128]
0.31191537 0.09835036 -0.029526286 -0.061523292 -0.022585066 0.21163629 -0.22606078 0.31101155
0.06588035 0.072240956 -0.035047326 0.28047788 0.25979704 -0.12433012 0.10877245 0.26680303
0.20715252 0.24117105 -0.09210872 -0.15967526 0.09905105 0.06566953 0.31122994 0.041259218
0.20149998 0.16822276 0.21746553 0.26802713 0.036436208 0.09619434 0.2514892 0.1304388
0.3575514 0.026796674 0.09529862 0.033910166 0.33815703 0.41217393 0.13973185 0.0031325347
0.10921087 0.11886604 0.14847678 0.015621059 -0.070651144 0.21345699 -0.012931803 -0.23168994
0.10662171 0.09267239 0.098218895 0.012025673 0.12723339 -0.27353677 0.0048969467 -0.04901417
0.14144161 0.074826315 0.047451224 0.09760785 0.18467535 0.17781317 0.19853966 0.31505564
-0.04279983 0.15171684 0.11496235 0.13328174 0.09672371 0.1314303 0.18451704 0.1870753
0.16064076 0.2897363 0.046258748 0.115705185 0.20378003 -0.028287407 0.08305366 0.11774974
0.32408938 0.17384392 0.10164623 0.39221165 0.016809149 0.104073696 0.063037165 0.0054555363
0.16210943 0.06198229 0.34218758 0.084080204 0.23844428 0.12366216 -0.08043984 0.1702871
-0.0011072955 0.17753354 0.21755144 0.117102 0.3005816 0.21483348 0.11535293 0.19410758
0.11087981 -0.01097135 -0.0810159 0.03389711 0.07891966 0.09312899 0.30832478 0.12409525
-0.15637057 0.09672698 0.04927931 0.3515666 -0.025569856 0.1826706 0.14943562 0.24941972
-0.0035529102 -0.0056606755 0.1317494 0.17193983 0.07774963 0.23110196 0.04514298 0.32364687
00000000: 5fb3 9f3e ea6b c93d 1ce1 f1bc d9ff 7bbd
00000010: 5104 b9bc 2fb7 583e 7a7c 67be e83c 9f3e
00000020: 47ec 863d 11f3 933d c98d 0fbd cc9a 8f3e
00000030: 1e04 853e caa0 febd 17c4 de3d 689a 883e
00000040: ca1f 543e 8bf5 763e 7fa3 bcbd e981 23be
00000050: 47db ca3d bf7d 863d 8859 9f3e 6dff 283d
00000060: 0356 4e3e 9642 2c3e 49af 5e3e da3a 893e
00000070: 223e 153d 8a01 c53d 31c3 803e c091 053e
00000080: fa10 b73e b384 db3c ec2b c33d 63e5 0a3d
00000090: eb22 ad3e 7608 d33e de15 0f3e 364b 4d3b
000000a0: f3a9 df3d 0a70 f33d 4c0a 183e 78ef 7f3c
000000b0: 8cb1 90bd 7894 5a3e eadf 53bc 2140 6dbe
000000c0: 7c5c da3d 06cb bd3d fd26 c93d 5407 453c
000000d0: 7849 023e 030d 8cbe 9176 a03b 15c3 48bd
000000e0: 12d6 103e 8a3e 993d 375c 423d a0e6 c73d
000000f0: 891b 3d3e a814 363e fb4d 4b3e f94e a13e
00000100: e04e 2fbd a95b 1b3e 6171 eb3d 027b 083e
00000110: 1517 c63d aa95 063e 09f2 3c3e ab90 3f3e
00000120: 037f 243e 5158 943e d079 3d3d d7f6 ec3d
00000130: b6ab 503e feba e7bc 0a18 aa3d c726 f13d
00000140: 0bef a53e 2404 323e e62b d03d f7cf c83e
00000150: 57b3 893c 9724 d53d a119 813d 5bc4 b23b
00000160: 0400 263e 24e1 7d3d 3633 af3e 3e32 ac3d
00000170: bd2a 743e 9642 fd3d a5bd a4bd be5f 2e3e
00000180: ac22 91ba 5acb 353e cec5 5e3e 2cd3 ef3d
00000190: d5e5 993e 4ffd 5b3e 283e ec3d 23c4 463e
000001a0: f414 e33d 2dc1 33bc aaeb a5bd b2d7 0a3d
000001b0: a1a0 a13d 69ba be3d bfdc 9d3e a725 fe3d
000001c0: 9b1f 20be cb18 c63d 1ad9 493d 8a00 b43e
000001d0: e077 d1bc 000e 3b3e a705 193e e267 7f3e
000001e0: f1d7 68bb 307d b9bb 51e9 063e ff10 303e
000001f0: 333b 9f3d fea5 6c3e d8e7 383d 0bb5 a53e

bn1.running_mean f4 [128]
0.15197437 0.3159573 0.058022875 0.20248508 0.38658056 0.06984177 0.03099133 0.03915295
0.40982705 0.38233128 0.3245964 0.012498608 0.01600525 0.20702818 0.2682694 0.020200852
0.30810732 0.61575234 0.15886979 0.08887603 0.061439153 0.00039794538 0.015014552 0.08499616
0.19044672 0.53702635 0.0476118 0.021223787 0.5276335 0.3614473 0.44201702 0.08827566
0.09046428 0.37176898 0.02176184 0.15694684 0.21266098 0.02300511 0.022522755 0.035103522
0.47193164 0.3684773 0.18622741 0.0681246 0.09781667 0.4526635 0.46795171 0.10660845
0.04908617 0.40306866 0.0015794145 0.55014837 0.08001803 0.29931614 0.23480904 0.24655977
0.15336058 0.49777916 0.2749475 0.5625615 0.44441587 0.12293467 0.0034867974 0.48811275
0.30039057 0.00026294446 0.15261075 0.066209696 0.06686628 0.32270014 0.29621062 0.31359488
0.0627209 0.60291696 0.30064958 0.11164503 0.36393163 0.3363874 0.26349428 0.21697727
0.2875001 0.068756014 0.0038036827 0.027955523 0.49065378 0.55166 0.43399212 0.46339795
0.4362619 0.28739598 0.041629802 0.29742372 0.06240724 0.074203715 0.102862224 0.3218059
0.43658853 0.20283984 0.023674896 0.24344242 0.005922788 0.055209618 0.54398996 0.13842522
0.7228421 0.4207647 0.25448573 0.29698062 0.37745756 0.3172748 0.1277464 0.3403775
0.4288991 0.30946004 0.35617065 0.041878514 0.1689207 0.11327275 0.262109 0.54544896
0.19556898 0.2965739 0.06998781 0.14492825 0.19449785 0.17745134 0.2678921 0.015433195
00000000: 2b9f 1b3e 28c5 a13e 65a9 6d3d 4058 4f3e
00000010: e3ed c53e 3409 8f3d 88e1 fd3c d85e 203d
00000020: dad4 d13e edc0 c33e 8031 a63e f6c6 4c3c
00000030: 711d 833c 32ff 533e 9b5a 893e 427c a53c
00000040: 3ec0 9d3e f2a1 1d3f c3ae 223e a304 b63d
00000050: 9fa7 7b3d 53a3 d039 98ff 753c 7712 ae3d
00000060: 7704 433e 8f7a 093f 9704 433d 82dd ad3c
00000070: fd12 073f 9f0f b93e 0e50 e23e dfc9 b43d
00000080: 5645 b93d 8158 be3e e345 b23c acb6 203e
00000090: cdc3 593e 3675 bc3c a481 b83c b6c8 0f3d
000000a0: 06a1 f13e 0fa9 bc3e 66b2 3e3e e984 8b3d
000000b0: 1b54 c83d 83c3 e73e 5e97 ef3e 8855 da3d
000000c0: 940e 493d 045f ce3e 5b04 cf3a 86d6 0c3f
000000d0: 7ee0 a33d f73f 993e c871 703e 2a7a 7c3e
000000e0: 8e0a 1d3e e9dc fe3e ebc5 8c3e 0804 103f
000000f0: 7a8a e33e 2cc5 fb3d c182 643b eae9 f93e
00000100: cbcc 993e cfdb 8939 fe45 1c3e f398 873d
00000110: 30f1 883d f438 a53e eba8 973e 828f a03e
00000120: d173 803d c458 1a3f beee 993e 26a6 e43d
00000130: 3f55 ba3e f83a ac3e b9e8 863e 4a2f 5e3e
00000140: 3733 933e f4cf 8c3d 3547 793b fb02 e53c
00000150: f936 fb3e 9739 0d3f 3734 de3e 7f42 ed3e
00000160: b85d df3e 9125 933e 0384 2a3d ec47 983e
00000170: bc9e 7f3d 1ef8 973d 6ea9 d23d bec3 a43e
00000180: 8888 df3e 3fb5 4f3e dbf1 c13c f848 793e
00000190: f213 c23b 7b23 623d ed42 0b3f 57bf 0d3e
000001a0: 2e0c 393f 796e d73e f44b 823e d80d 983e
000001b0: 1e42 c13e d871 a23e f4cf 023e f645 ae3e
000001c0: aa98 db3e 8c71 9e3e 005c b63e ce88 2b3d
000001d0: 8cf9 2c3e 8bfb e73d 2733 863e 8ba2 0b3f
000001e0: 3c43 483e 89d8 973e c555 8f3d 1268 143e
000001f0: 722a 473e ceb5 353e 2729 893e 83db 7c3c

bn1.running_var f4 [128]
0.11346703 0.14331967 0.040481187 0.10954735 0.19274607 0.033191066 0.007466981 0.015497005
0.15268415 0.1309203 0.13566537 0.0043763313 0.007110255 0.03233397 0.22136746 0.007069549
0.16908723 0.14600608 0.09197027 0.039053943 0.017333094 9.061658e-05 0.007572818 0.052158363
0.12480987 0.14459759 0.024591845 0.006116537 0.097368695 0.12439827 0.069588624 0.040026903
0.050435554 0.1448488 0.005659944 0.09261624 0.13284515 0.008930898 0.006454485 0.002252619
0.041904923 0.19543104 0.08377553 0.046222568 0.03586194 0.2797758 0.04591523 0.044663712
0.022642428 0.31057793 0.00046537016 0.15551272 0.04360642 0.114399806 0.084718496 0.095535144
0.06064599 0.06599205 0.14054234 0.18266268 0.20571189 0.08284139 0.0009850833 0.05502742
0.23268811 2.6458902e-05 0.056975998 0.04640935 0.028178342 0.13544641 0.15400755 0.16424875
0.02361568 0.1310075 0.14442636 0.08529993 0.24885973 0.30856022 0.1758194 0.14957684
0.06797517 0.02777015 0.0007915203 0.010764876 0.06872618 0.14723612 0.27673677 0.116803296
0.23828451 0.14633393 0.021085149 0.21397428 0.028718704 0.032852896 0.03666749 0.11861874
0.10445469 0.125612 0.0081457365 0.089366145 0.0010536584 0.023700545 0.051872514 0.09477224
0.23884006 0.32603127 0.07730715 0.16883306 0.21939994 0.18225238 0.06123739 0.1109501
0.063592285 0.068004295 0.215162 0.019290108 0.056508288 0.08451026 0.11831589 0.15730044
0.03441783 0.11726196 0.03100776 0.11722545 0.09450069 0.10222388 0.11484913 0.006751019
00000000: 6761 e83d 64c2 123e 9acf 253d 5c5a e03d
00000010: 3a5f 453e 5bf3 073d 94ad f43b 26e7 7d3c
00000020: 3c59 1c3e f90f 063e ddeb 0a3e 5467 8f3b
00000030: 24fd e83b a070 043d 27ae 623e ada7 e73b
00000040: 3425 2d3e 9e82 153e e95a bc3d 07f7 1f3d
00000050: 22fe 8d3c 6809 be38 6725 f83b 02a4 553d
00000060: 519c ff3d 6411 143e d674 c93c 3b6d c83b
00000070: 3d69 c73d 85c4 fe3d 7b84 8e3d 40f3 233d
00000080: 8395 4e3d 3e53 143e 0d77 b93b 95ad bd3d
00000090: 8f08 083e e752 123c 2580 d33b ada0 133b
000000a0: 7fa4 2b3d 131f 483e 8192 ab3d e053 3d3d
000000b0: f8e3 123d c63e 8f3e 9c11 3c3d 4cf1 363d
000000c0: 9d7c b93c 1204 9f3e edfc f339 ba3e 1f3e
000000d0: a59c 323d 724a ea3d e480 ad3d eea7 c33d
000000e0: ee67 783d d726 873d 55ea 0f3e ed0b 3b3e
000000f0: 23a6 523e bfa8 a93d e91d 813a 6f64 613d
00000100: cb45 6e3e 0ff4 dd37 aa5f 693d bb17 3e3d
00000110: 44d6 e63c 77b2 0a3e 28b4 1d3e d330 283e
00000120: ac75 c13c d526 063e 81e4 133e bbb1 ae3d
00000130: 16d5 7e3e 9bfb 9d3e 000a 343e ac2a 193e
00000140: 9136 8b3d 3a7e e33c 077e 4f3a 2a5f 303c
00000150: 50c0 8c3d 11c5 163e 71b0 8d3e 9136 ef3d
00000160: db00 743e 90d8 153e c3ba ac3c 131c 5b3e
00000170: 7d43 eb3c c290 063d a630 163d 62ee f23d
00000180: 57ec d53d 6fa0 003e b275 053c 9905 b73d
00000190: e91a 8a3a a527 c23c 4678 543d f317 c23d
000001a0: 7d92 743e 92ed a63e 3653 9e3d 93e2 2c3e
000001b0: 61aa 603e 5ea0 3a3e 0fd4 7a3d ce39 e33d
000001c0: ac3c 823d d645 8b3d 6d53 5c3e 4a06 9e3c
000001d0: 3c75 673d b713 ad3d 9a4f f23d 5e13 213e
000001e0: b6f9 0c3d 0a27 f03d fc03 fe3c e613 f03d
000001f0: 9489 c13d c15a d13d 0536 eb3d a737 dd3b

conv2.weight f4 [128, 128, 3]
-0.19323896 0.036194142 0.15445022 -0.06456952 0.09757745 -0.0746975 0.0062587187 -0.039562028
-0.21004456 0.00788118 -0.05849686 0.07787496 0.03019154 0.041220117 0.004895229 -0.05177228
0.016623583 -0.004639561 0.10144838 0.11524196 -0.45181167 0.0041745016 -0.13541713 0.09504372
0.013589197 0.0025356903 -0.020334052 0.04219631 0.104692146 -0.13322362 -0.18620624 0.1137601
0.19249743 0.08126345 0.03855907 0.04331832 -0.20011483 0.058593463 -0.16839376 -0.17029
0.17635435 0.021836836 -0.0022971586 0.07408779 0.06022872 -0.013978288 -0.06257945 -0.09315051
0.13174503 0.032264676 -0.09387746 0.03691346 -0.18836348 0.3729716 -0.03073979 0.12377079
0.052747708 -0.13205963 -0.037374917 -0.05439773 -0.23714459 -0.021321781 0.14454971 -0.17329499
0.11136384 0.04118562 0.20861414 -0.18180421 -0.3598259 0.018565902 -0.24622226 -0.05592455
-0.048115507 -0.09171655 -0.0907419 0.17138888 -0.22450586 0.25571218 -0.15047756 -0.081906885
0.36863753 -0.0150534855 0.04688204 0.07047753 -0.09653123 0.023767482 0.085844524 0.20466621
-0.34019598 0.27165055 -0.04888931 -0.015499254 0.259635 0.14978246 0.066854976 -0.03894979
-0.060101878 0.03332949 0.054046705 0.16703138 -0.33744556 0.2425349 -0.11186758 -0.30112174
0.058531377 -0.0009868753 -0.030192157 0.067574635 0.09831622 -0.38114783 0.17243554 -0.025359275
-0.2278356 -0.108304664 0.03518406 0.21306562 0.06395528 0.0060690255 0.0018028249 -0.024845775
-0.16884048 0.16905561 0.15824217 -0.05815205 0.046956517 0.021382399 -0.09143065 -0.22932209
0.4358193 0.04357503 -0.16071935 -0.21424359 -0.03838986 0.21541812 -0.0016464018 0.005805647
0.046979837 -0.039020903 -0.12564972 0.021337165 0.17216529 -0.12429811 0.15341087 0.020046184
0.07772831 -0.026080802 0.09197906 -0.09137413 -0.06448137 0.08062422 0.30363905 -0.0700699
-0.14183429 -0.18707918 0.2872702 0.0038058346 -0.007413451 0.15771006 0.022132881 0.05156283
0.07085585 0.09423455 -0.26388714 0.07685319 0.24877109 0.02800997 -0.15670848 0.3413148
0.18404134 0.07075974 0.017155759 -0.123793826 0.051145375 0.012140406 -0.13188654 0.19159204
-0.1327155 -0.16361237 0.043209337 -0.0014511528 -0.08060515 0.017968586 -0.04829526 -0.015971014
-0.18610671 -0.003514995 -0.012587391 -0.053960603 -0.08970122 -0.04567489 -0.13257647 -0.063562535
-0.024220847 -0.061215855 0.112606384 0.065743625 0.11861338 0.04022682 -0.13919868 -0.034834377
-0.4423199 0.028595077 -0.17791814 -0.24555281 0.042432938 -0.005964232 0.09603638 0.23410408
-0.35214528 0.233021 -0.14944921 -0.00096620806 -0.04209297 0.15415756 -0.2080567 0.2532915
0.0058251913 0.12305195 0.20451891 0.04062125 -0.17939678 0.41018578 -0.033531286 0.09563558
-0.2579387 0.04250194 0.1196887 -0.14384656 -0.032082062 0.15969625 0.09033462 -0.047284447
0.10713633 0.04458604 -0.034247283 -0.11367434 0.08522686 -0.025019592 0.0982548 0.020452786
-0.012780656 -0.0072998437 0.08442775 -0.05321406 0.008324877 -0.11159251 -0.19587676 -0.06600902
-0.005719138 -0.18768409 -0.16456762 -0.27577797 -0.09441969 0.06794717 0.073703036 -0.10603659
00000000: 6fe0 45be 4f40 143d 3328 1e3e 063d 84bd
00000010: b0d6 c73d 01fb 98bd f015 cd3b cb0b 22bd
00000020: ec15 57be 1120 013c 679a 6fbd e87c 9f3d
00000030: 4054 f73c 6dd6 283d 2868 a03b 2c0f 54bd
00000040: 2e2e 883c 7507 98bb 2bc4 cf3d fa03 ec3d
00000050: dc53 e7be 42ca 883b caaa 0abe 48a6 c23d
00000060: 39a5 5e3c d32d 263b 9993 a6bc 0ad6 2c3d
00000070: d668 d63d c66b 08be d9ac 3ebe 0efb e83d
00000080: 0c1e 453e 746d a63d 1ef0 1d3d 8d6e 313d
00000090: e7ea 4cbe b3ff 6f3d 6a6f 2cbe 8060 2ebe
000000a0: 3c96 343e 2ae3 b23c ed8b 16bb 57bb 973d
000000b0: 64b2 763d 3005 65bc a829 80bd b2c5 bebd
000000c0: 2be8 063e f727 043d d342 c0bd 9132 173d
000000d0: 5be2 40be 22f6 be3e 03d2 fbbc 8a7b fd3d
000000e0: fb0d 583d a43a 07be 7116 19bd 27d0 5ebd
000000f0: 08d6 72be 04ab aebc d704 143e 3e74 31be
00000100: ba12 e43d 41b2 283d f29e 553e e22a 3abe
00000110: 1a3b b8be 8517 983c b021 7cbe 2411 65bd
00000120: c414 45bd e3d5 bbbd e4d6 b9bd 9180 2f3e
00000130: dde4 65be b5ec 823e ca16 1abe ccbe a7bd
00000140: 0fbe bc3e e5a2 76bc 6207 403d 8656 903d
00000150: 2ab2 c5bd 06b4 c23c 41cf af3d 0594 513e
00000160: 2b2e aebe c815 8b3e 2840 48bd 95f0 7dbc
00000170: e1ee 843e 9360 193e 43eb 883d d189 1fbd
00000180: 632d 76bd 8184 083d 1460 5d3d 460a 2b3e
00000190: aac5 acbe 125b 783e d41a e5bd a12c 9abe
000001a0: 99be 6f3d 0a5a 81ba 8b55 f7bc 9264 8a3d
000001b0: 045a c93d cf25 c3be f192 303e 41be cfbc
000001c0: bc4d 69be d6ce ddbd 291d 103d e02d 5a3e
000001d0: fcfa 823d adde c63b c44c ec3a 5e89 cbbc
000001e0: 85e4 2cbe ea1c 2d3e 3c0a 223e d830 6ebd
000001f0: 7a55 403d 242a af3c fe3f bbbd 69d3 6abe
00000200: b523 df3e bb7b 323d 9d93 24be ac62 5bbe
00000210: b03e 1dbd 9196 5c3e 14cc d7ba 4c3d be3b
00000220: ee6d 403d 62d4 1fbd 52aa 00be 47cb ae3c
00000230: 194c 303e 0290 febd bd17 1d3e e537 a43c
00000240: 0530 9f3d 68a7 d5bc 845f bc3d 5c22 bbbd
00000250: cf0e 84bd 501e a53d 9476 9b3e cf80 8fbd
00000260: 023d 11be af91 3fbe 1415 933e 4f6b 793b
00000270: 89ec f2bb bf7e 213e 0450 b53c 8c33 533d
00000280: df1c 913d 0bfe c03d 371c 87be 3565 9d3d
00000290: d9bd 7e3e 2a75 e53c 3078 20be d0c0 ae3e
000002a0: 5575 3c3e 7cea 903d 3c8a 8c3c 9e87 fdbd
000002b0: d07d 513d 8ee8 463c 440d 07be b430 443e
000002c0: 92e6 07be 008a 27be 46fc 303d 9c34 beba
000002d0: 5014 a5bd db32 933c 40d1 45bd a5d5 82bc
000002e0: c292 3ebe d55b 66bb 583b 4ebc cb05 5dbd
000002f0: 46b5 b7bd 9815 3bbd 20c2 07be 132d 82bd
00000300: cc6a c6bc 7abd 7abd 2d9e e63d 98a4 863d
00000310: 92eb f23d e1c4 243d 198a 0ebe 7eae 0ebd
00000320: c177 e2be 3940 ea3c 2c30 36be 3272 7bbe
00000330: 29ce 2d3d 9b6f c3bb b9ae c43d fbb8 6f3e
00000340: 634c b4be 0f9d 6e3e 3709 19be 2049 7dba
00000350: ae69 2cbd 7bdb 1d3e d10c 55be 6caf 813e
00000360: 3fe1 be3b a902 fc3d 686d 513e 7862 263d
00000370: cab3 37be df03 d23e 1a58 09bd 96dc c33d
00000380: 8b10 84be 8416 2e3d 591f f53d 834c 13be
00000390: 7b68 03bd 6a87 233e 5b01 b93d 56ad 41bd
000003a0: 4b6a db3d da9f 363d e146 0cbd 18ce e8bd
000003b0: 6c8b ae3d e3f5 ccbc d039 c93d 9a8c a73c
000003c0: f565 51bc 8733 efbb 75e8 ac3d fcf6 59bd
000003d0: 1165 083c 9d8a e4bd eb93 48be bd2f 87bd
000003e0: 9b67 bbbb 4230 40be 6a84 28be c532 8dbe
000003f0: 1c5f c1bd e327 8b3d 9ef1 963d b629 d9bd

conv2.bias f4 [128]
0.07732797 -0.10527265 -0.1149187 -0.22445881 -0.17787956 -0.22803646 -0.24091287 0.12651497
-0.29044777 -0.24439107 -0.20626613 -0.5083196 -0.23137288 -0.21354364 -0.014178022 -0.13972051
0.055436343 0.017330341 -0.096218884 -0.21317783 -0.19865899 0.056958556 -0.270652 -0.22360405
-0.06598294 -0.18106587 -0.3225645 0.15004247 0.00126963 -0.10806471 -0.09606992 -0.33135703
-0.24844049 -0.35548335 -0.11001231 -0.12256182 0.049297497 -0.047725737 -0.3107176 -0.11841424
-0.13798429 -0.17377625 -0.25534213 0.15653247 -0.06313338 -0.27302966 -0.11847649 -0.17240286
-0.10675419 -0.017568693 -0.16647318 -0.111730635 -0.06869653 -0.11900007 0.1412824 -0.23594548
-0.33602226 -0.17229372 -0.2511014 -0.009065498 0.11641451 -0.09135664 -0.023350507 -0.026743758
-0.032668453 -0.018290678 0.12271027 0.1359888 0.065553434 -0.07807568 -0.054662842 -0.25283548
0.10740606 0.028049018 0.023453694 -0.2536536 -0.12752406 0.017727792 -0.17555523 -0.30253187
-0.13719003 -0.47626647 0.00042498228 -0.01110739 -0.02204077 -0.28256395 0.011003571 0.068712056
0.29310885 -0.23546124 -0.16681756 -0.18101957 -0.22856094 -0.08223298 0.057506472 0.002982683
-0.106985025 -0.3793573 -0.12847432 -0.09253355 -0.117140405 -0.32147408 0.08145985 -0.04592766
-0.226163 -0.19684006 0.23361532 -0.1146811 -0.1199424 0.076228514 -0.010728511 -0.0387332
-0.055222236 -0.3622644 -0.2446733 0.08424711 -0.32614425 -0.04020108 -0.073948815 -0.022751251
-0.02499477 -0.11845906 -0.06597798 -0.11367527 0.030294297 -0.11014519 -0.12534876 -0.08323125
00000000: 205e 9e3d 3099 d7bd 7f5a ebbd 88d8 65be
00000010: 0f26 36be 6482 69be ddb1 76be 248d 013e
00000020: 92b5 94be a741 7abe 6e37 53be 3c21 02bf
00000030: 03ed 6cbe 2fab 5abe ef4a 68bc e512 0fbe
00000040: 3811 633d 5cf8 8d3c 680e c5bd 4a4b 5abe
00000050: 436d 4bbe 604d 693d e692 8abe 76f8 64be
00000060: 1022 87bd 5569 39be 2d27 a5be bca4 193e
00000070: b769 a63a 0851 ddbd 4ec0 c4bd a1a7 a9be
00000080: 2f67 7ebe ea01 b6be 224e e1bd b101 fbbd
00000090: 2cec 493d 107c 43bd 6116 9fbe 2a83 f2bd
000000a0: c14b 0dbe 67f2 31be 34bc 82be 0c4a 203e
000000b0: 134c 81bd 8bca 8bbe cda3 f2bd 608a 30be
000000c0: f1a1 dabd 38ec 8fbc f277 2abe 08d3 e4bd
000000d0: c4b0 8cbd 4fb6 f3bd 55ac 103e b19b 71be
000000e0: 1c0b acbe c46d 30be 5d90 80be 7487 14bc
000000f0: bb6a ee3d 3119 bbbd 9049 bfbc ba15 dbbc
00000100: 5bcf 05bd 55d6 95bc 864f fb3d a640 0b3e
00000110: e140 863d 24e6 9fbd 25e6 5fbd a773 81be
00000120: b5f7 db3d 0ec7 e53c f621 c03c e2de 81be
00000130: ab95 02be e039 913c c0c4 33be 75e5 9abe
00000140: 8b7b 0cbe 33d9 f3be 28d0 de39 c5fb 35bc
00000150: d88e b4bc 39ac 90be 5248 343c e8b8 8c3d
00000160: 5d12 963e c01c 71be 39d2 2abe 325d 39be
00000170: e10b 6abe c469 a8bd e88b 6b3d 1e79 433b
00000180: f71a dbbd 1f3b c2be c68e 03be 3b82 bdbd
00000190: 4fe7 efbd 4098 a4be 6cd4 a63d a41e 3cbd
000001a0: 4697 67be 7190 49be db38 6f3e eddd eabd
000001b0: 5ca4 f5bd b21d 9c3d a3c6 2fbc b4a6 1ebd
000001c0: b630 62bd b87a b9be a38b 7abe c089 ac3d
000001d0: 61fc a6be e3a9 24bd 7a72 97bd d560 babc
000001e0: d5c1 ccbc aa9a f2bd 771f 87bd 94ce e8bd
000001f0: bf2b f83c cd93 e1bd 6d5b 00be 2575 aabd

bn2.weight f4 [128]
0.7685236 0.9302016 0.95328665 0.9127843 1.0720234 0.9067499 0.9384767 1.0155421
1.1237823 1.1029844 0.9582834 0.9825758 1.0373071 0.9187479 0.96782625 0.9907744
0.6928664 0.8571418 0.8760957 0.88126314 1.083608 0.98539233 1.1957761 1.1025012
0.98107886 1.0051131 1.1026491 0.8859206 0.8660105 0.81732976 0.9787338 0.9223754
1.04419 0.97907686 1.0175915 0.76718 1.000326 0.9343164 1.1029373 1.1465662
0.9198219 0.90504205 1.0680486 0.94812745 0.8727145 1.0653886 0.89906275 1.1758997
1.1445813 0.9759367 1.0966991 0.8936559 1.0468704 0.91716063 0.9463869 0.94122964
1.0635015 0.82312256 0.82704246 0.98971695 0.8828788 1.0040747 1.4251958 0.8963841
0.85692006 0.9175301 0.89635974 0.851123 1.0492998 1.0483391 0.8556957 0.89910936
0.8367718 0.8687693 0.9183211 0.8690862 0.98267883 0.9923331 1.0129251 0.9861697
1.0919979 1.0422268 1.0595984 0.8050767 0.8658664 1.1151378 0.8717849 1.0634233
1.0826386 0.85044944 0.9157463 1.1062777 0.85497636 0.8353277 0.9126095 0.9666118
1.1002288 1.0098225 1.1048473 0.97244835 0.92147857 1.1480734 0.91933537 1.0373179
0.94392 0.8810257 0.9540741 0.94137424 0.843007 0.9673541 0.9784173 1.2290337
0.83190984 1.1375022 0.9520403 1.0603086 0.7907075 0.8595638 0.8495343 0.90714824
0.9669261 1.0334898 0.88430357 0.94440675 0.95750767 0.94104564 0.9108042 0.85700303
00000000: f6bd 443f b121 6e3f 980a 743f 3bac 693f
00000010: 1038 893f c320 683f 0240 703f 49fd 813f
00000020: 19d8 8f3f 982e 8d3f 1052 753f 168a 7b3f
00000030: 7bc6 843f 1033 6b3f 76c3 773f 64a3 7d3f
00000040: b15f 313f a56d 5b3f cf47 603f 769a 613f
00000050: abb3 8a3f ac42 7c3f 310f 993f c21e 8d3f
00000060: fc27 7b3f 8ca7 803f 9b23 8d3f b1cb 623f
00000070: ddb2 5d3f 863c 513f 4c8e 7a3f cb20 6c3f
00000080: 05a8 853f c8a4 7a3f 7040 823f e965 443f
00000090: af0a 803f 5c2f 6f3f 0d2d 8d3f aec2 923f
000000a0: 7379 6b3f d6b0 673f d1b5 883f 7bb8 723f
000000b0: 386a 5f3f a75e 883f fa28 663f e283 963f
000000c0: a481 923f fdd6 793f a360 8c3f a2c6 643f
000000d0: d9ff 853f 0acb 6a3f 6946 723f 6df4 703f
000000e0: d120 883f 29b8 523f 0eb9 533f 175e 7d3f
000000f0: 5804 623f 8585 803f d16c b63f 6e79 653f
00000100: 1d5f 5b3f 41e3 6a3f d577 653f 32e3 593f
00000110: 754f 863f fa2f 863f e00e 5b3f 082c 663f
00000120: ad36 563f aa67 5e3f 1717 6b3f 6f7c 5e3f
00000130: d790 7b3f 8b09 7e3f 88a7 813f 9e75 7c3f
00000140: 96c6 8b3f b067 853f eca0 873f 8219 4e3f
00000150: 6ca9 5d3f d6bc 8e3f 4c2d 5f3f 411e 883f
00000160: e793 8a3f 0eb7 593f 596e 6a3f 829a 8d3f
00000170: bbdf 5a3f 09d8 553f c7a0 693f df73 773f
00000180: 4cd4 8c3f dd41 813f a36b 8d3f 60f2 783f
00000190: 05e6 6b3f 12f4 923f 9059 6b3f d5c6 843f
000001a0: bea4 713f e68a 613f 333e 743f e7fd 703f
000001b0: 4fcf 573f 85a4 773f 8e79 7a3f fa50 9d3f
000001c0: 0bf8 543f ac99 913f eab8 733f 31b8 873f
000001d0: cf6b 4a3f 600c 5c3f 147b 593f de3a 683f
000001e0: 7888 773f 6549 843f b861 623f a4c4 713f
000001f0: 391f 753f 5ee8 703f 772a 693f 8d64 5b3f

bn2.bias f4 [128]
-0.2044234 0.027862892 0.0021180871 -0.23891747 -0.21986526 -0.051411163 -0.24675058 -0.17242582
0.033282537 -0.062007435 0.20029993 0.093594484 0.10498931 -0.057087768 0.01562064 -0.021015307
0.019904193 0.12667185 -0.21336584 -0.023977445 0.1101348 -0.05138041 0.13376881 0.12293644
0.0074651875 0.06302712 0.1456931 -0.2717663 -0.20458873 -0.13291192 0.1025736 -0.08501319
0.09572058 0.023985846 0.020268423 -0.18953234 -0.12586363 0.02932664 0.007233823 0.08198863
-0.3124518 0.1680396 0.08173133 0.10716132 -0.23311749 0.013781219 -0.19991139 0.27050033
-0.10955134 0.27088818 0.109187916 -0.04386595 0.13288969 -0.0660036 0.18869288 -0.19877023
0.034887686 -0.014726016 0.01092366 -0.04405716 0.026196424 -0.2916054 0.28011605 0.09153873
0.12620087 -0.033815335 -0.1533698 -0.06482739 0.06329366 0.089588515 -0.2909544 -0.08744562
-0.2731308 0.11388114 0.00041111946 5.3263822e-05 0.021333316 -0.16210204 0.12402274 0.0600716
0.062151078 0.114522785 0.10701177 0.03543011 -0.066221766 0.041551102 0.05147347 0.04320193
-0.10400707 0.084890805 0.0059728986 -0.18695424 -0.0851831 -0.06333175 0.17421468 0.019897537
-0.0005844332 0.0018241297 0.08980885 -0.13721788 -0.09129996 0.15478171 0.06689959 -0.010439537
-0.033172708 -0.15328825 -0.027652899 0.055962287 -0.25599915 0.019426325 -0.060728777 -0.036779456
-0.02719326 -0.07651681 -0.22795242 0.057764806 0.011107063 0.066691965 0.028313233 0.12445506
-0.2946461 -0.0024588117 -0.051766865 -0.042887084 0.037568722 0.010250237 0.3333474 0.09501352
00000000: 5e54 51be b840 e43c 9bcf 0a3b c8a6 74be
00000010: 5c24 61be 8394 52bd 2fac 7cbe 6590 30be
00000020: 4553 083d 82fb 7dbd 6d1b 4d3e 77ae bf3d
00000030: a304 d73d ddd4 69bd b6ed 7f3c 4b28 acbc
00000040: 1e0e a33c 44b6 013e 937c 5abe 596c c4bc
00000050: 5b8e e13d 4474 52bd b1fa 083e 1ac6 fb3d
00000060: 889e f43b 5d14 813d 9230 153e f424 8bbe
00000070: b57f 51be 101a 08be 1c12 d23d 651b aebd
00000080: 2709 c43d f77d c43c f709 a63c c414 42be
00000090: 65e2 00be 6c3e f03c b509 ed3b a8e9 a73d
000000a0: aff9 9fbe 9312 2c3e c162 a73d 6577 db3d
000000b0: 5ab6 6ebe 9fca 613c 92b5 4cbe 057f 8a3e
000000c0: 745c e0bd dbb1 8a3e ea9d df3d c8ac 33bd
000000d0: 3c14 083e e52c 87bd b538 413e 6c8a 4bbe
000000e0: 64e6 0e3d 6345 71bc 27f9 323c 4875 34bd
000000f0: e299 d63c 4e4d 95be 5f6b 8f3e a878 bb3d
00000100: cd3a 013e f381 0abd f90c 1dbe 39c4 84bd
00000110: 1ba0 813d 2f7a b73d faf7 94be b016 b3bd
00000120: cdd7 8bbe 843a e93d 858b d739 9867 5f38
00000130: 35c3 ae3c 14fe 25be a2ff fd3d a30d 763d
00000140: 2192 7e3d ec8a ea3d fd28 db3d 2a1f 113d
00000150: 479f 87bd 7d31 2a3d d8d5 523d 82f4 303d
00000160: a901 d5bd 3bdb ad3d 4eb8 c33b ef70 3fbe
00000170: 7a74 aebd 14b4 81bd 5565 323e 2900 a33c
00000180: a634 19ba a317 ef3a b4ed b73d d882 0cbe
00000190: 79fb babd 197f 1e3e a702 893d 980a 2bbc
000001a0: 1be0 07bd 98f7 1cbe 5588 e2bc b638 653d
000001b0: 5212 83be f523 9f3c bdbe 78bd 0ea6 16bd
000001c0: 66c4 debc d8b4 9cbd 5c6c 69be ca9a 6c3d
000001d0: 66fa 353c cc95 883d 27f1 e73c 4be2 fe3d
000001e0: dbdb 96be 0424 21bb 7e09 54bd 5eaa 2fbd
000001f0: a9e1 193d 9cf0 273c 83ac aa3e 7396 c23d

bn2.running_mean f4 [128]
2.2776923 0.70903075 0.38820624 1.0311584 1.2013605 0.15709037 1.3431473 0.9426392
0.5739212 0.82566273 0.40944237 0.62009996 0.51481026 1.3355367 0.4910586 0.9696058
0.5595972 0.8166229 0.89232373 0.7352834 0.67560565 1.0218625 2.057812 0.44557902
0.6713898 0.36458972 0.53268176 0.8977711 1.7774721 0.89441067 0.9867361 0.5276998
0.86608917 0.25037548 1.1529661 1.482942 1.2702031 0.78316385 1.7407806 1.4106762
1.851418 0.7678704 1.0044221 2.7449503 1.7794952 0.9262248 0.97928876 0.24263604
0.49500966 0.6084703 0.4311017 1.6109378 1.350238 1.4056699 1.038534 0.6553571
0.8974555 0.91930425 0.823372 0.6610494 0.41960406 0.6124834 1.9685323 1.1396449
0.66053474 1.5208771 0.62182665 2.5482454 1.45965 1.255727 0.38120836 0.85747546
1.1412783 0.16349179 0.22720803 0.2236338 0.69229645 0.7963093 0.719975 0.57724243
1.0809003 0.34326938 1.1040444 0.26794562 0.32092115 0.57992893 0.8295758 0.58384025
3.650056 1.1174635 1.1617982 0.8311183 0.5607568 0.37448347 1.7113876 1.3572795
1.1291124 0.83232427 0.21714401 1.122889 1.4155701 0.9075857 0.48196095 1.199388
1.5650527 1.3928274 3.5481906 0.53269315 0.25820115 0.31327683 1.4156891 0.9468406
0.36975375 1.1772188 0.958488 1.2874347 0.8969908 0.34095785 0.5141081 0.6860986
1.2702417 0.5339367 0.5005391 1.15552 0.8267751 1.3636503 0.45222938 0.34466672
00000000: b6c5 1140 0a83 353f f8c2 c63e 00fd 833f
00000010: 2ec6 993f 4cdc 203e 40ec ab3f cd50 713f
00000020: 80ec 123f a25e 533f 6ea2 d13e dfbe 1e3f
00000030: 9bca 033f def2 aa3f 086c fb3e 1638 783f
00000040: c341 0f3f 330e 513f 546f 643f 883b 3c3f
00000050: 7ef4 2c3f 64cc 823f 31b3 0340 ef22 e43e
00000060: 34e0 2b3f 81ab ba3e d55d 083f 54d4 653f
00000070: 3584 e33f 19f8 643f bd9a 7c3f 5617 073f
00000080: 05b8 5d3f 3731 803e 6594 933f 0bd1 bd3f
00000090: 0496 a23f 6d7d 483f e6d1 de3f 0a91 b43f
000000a0: 44fb ec3f 2893 443f e790 803f 44ad 2f40
000000b0: 80c6 e33f 121d 6d3f abb2 7a3f 9575 783e
000000c0: e871 fd3e b6c4 1b3f 5db9 dc3e 3633 ce3f
000000d0: 99d4 ac3f feec b33f afee 843f 7cc5 273f
000000e0: a5bf 653f 8657 6b3f 82c8 523f 893a 293f
000000f0: 58d6 d63e b6cb 1c3f def8 fb3f e2df 913f
00000100: ce18 293f 1aac c23f 0830 1f3f 7416 2340
00000110: d0d5 ba3f aabb a03f be2d c33e 8383 5b3f
00000120: 6815 923f 646a 273e 39a9 683e 4200 653e
00000130: 573a 313f edda 4b3f 4850 383f 29c6 133f
00000140: f15a 8a3f 01c1 af3e 5451 8d3f 2b30 893e
00000150: c74f a43e 3976 143f 145f 543f 8e76 153f
00000160: 849a 6940 0b09 8f3f ceb5 943f 2bc4 543f
00000170: c28d 0f3f 4cbc bf3e c00e db3f 56bb ad3f
00000180: c186 903f 3413 553f 005b 5e3e d4ba 8f3f
00000190: 6731 b53f 8957 683f 96c3 f63e 8c85 993f
000001a0: a653 c83f 2b48 b23f 8e15 6340 945e 083f
000001b0: f132 843e d265 a03e 4d35 b53f 2564 723f
000001c0: 5d50 bd3e 1baf 963f 785f 753f a9ca a43f
000001d0: 30a1 653f 0792 ae3e 979c 033f 28a4 2f3f
000001e0: 4897 a23f 13b0 083f 5523 003f 14e8 933f
000001f0: 88a7 533f 188c ae3f 9c8a e73e 2878 b03e

bn2.running_var f4 [128]
10.819595 2.7696166 1.4161273 5.409349 6.9527073 0.7358016 6.761957 3.8885555
3.3624794 4.9312687 2.2601433 4.0078692 2.5655143 7.217073 1.2678283 4.0223994
1.4409292 3.0266793 3.7464294 2.6804225 3.641501 5.1471977 12.7068 1.6269838
2.1670346 1.0531496 3.5832267 3.1127124 8.962532 2.4827147 2.7786207 2.2803326
4.1941953 1.922504 5.854907 8.239203 4.6341295 2.3874257 11.671791 9.383123
9.410408 2.3278456 4.627032 13.370851 8.231977 3.8082983 3.3137941 1.5048202
2.1072512 2.5910397 2.1833255 7.562367 8.238668 7.3939424 3.1056106 3.17641
5.0141487 4.9346013 3.502214 2.5127206 0.97642636 2.641082 11.450177 3.997778
2.589804 7.4560003 1.8310692 12.321936 7.4724708 7.409335 1.4192858 3.3703456
3.5608861 0.3754302 0.73418987 1.3305908 2.706565 2.9373558 3.9905846 4.73805
7.9265137 2.6428373 5.994564 0.76753396 0.7981878 3.825904 4.170419 2.3664227
16.98444 7.184431 10.823675 6.6209664 2.136516 1.1823081 9.566023 5.6818495
4.7278204 5.9777102 1.4184048 5.4647155 7.989728 8.958587 1.4127926 4.0159597
10.999037 6.535648 17.71414 1.6704284 0.87073725 0.96985626 5.1218786 3.9279435
1.0285381 8.182754 4.089606 5.1579933 5.617424 0.7181509 1.7154303 3.2357106
5.3076553 2.1071446 1.7773403 6.08803 2.5771146 8.517081 2.022344 1.2047492
00000000: 101d 2d41 6641 3140 a943 b53f 6319 ad40
00000010: 947c de40 7e5d 3c3f f461 d840 18de 7840
00000020: dd32 5740 f4cc 9d40 30a6 1040 7740 8040
00000030: 6331 2440 43f2 e640 3348 a23f 7fb7 8040
00000040: 5e70 b83f 1db5 4140 80c5 6f40 0b8c 2b40
00000050: 5a0e 6940 d8b5 a440 0e4f 4b41 0141 d03f
00000060: b2b0 0a40 9bcd 863f 9653 6540 ae36 4740
00000070: 8866 0f41 cce4 1e40 ecd4 3140 f8f0 1140
00000080: d936 8640 9c14 f63f 665b bb40 c7d3 0341
00000090: ca4a 9440 95cb 1840 a8bf 3a41 4621 1641
000000a0: 0891 1641 6cfb 1440 a510 9440 01ef 5541
000000b0: 2eb6 0341 29bb 7340 3415 5440 f39d c03f
000000c0: 34dd 0640 98d3 2540 9bbb 0b40 e9fe f140
000000d0: 96d1 0341 2d9b ec40 53c2 4640 4d4a 4b40
000000e0: e873 a040 41e8 9d40 4624 6040 6ad0 2040
000000f0: 14f7 793f 7d07 2940 ed33 3741 98db 7f40
00000100: 59bf 2540 8e97 ee40 7a60 ea3f a626 4541
00000110: 7b1e ef40 4619 ed40 28ab b53f beb3 5740
00000120: 8fe5 6340 6338 c03e def3 3b3f cd50 aa3f
00000130: 5c38 2d40 a3fd 3b40 bd65 7f40 1b9e 9740
00000140: 00a6 fd40 3f24 2940 78d3 bf40 1b7d 443f
00000150: 0956 4c3f 9cdb 7440 1374 8540 7873 1740
00000160: 22e0 8741 dce6 e540 c62d 2d41 f5de d340
00000170: aebc 0840 df55 973f 6e0e 1941 b6d1 b540
00000180: 4e4a 9740 6749 bf40 4a8e b53f f3de ae40
00000190: daab ff40 5f56 0f41 63d6 b43f be82 8040
000001a0: 0efc 2f41 0724 d140 8fb6 8d41 99d0 d53f
000001b0: a3e8 5e3f 8048 783f 6ee6 a340 6d63 7b40
000001c0: 23a7 833f 8fec 0241 0dde 8240 480e a540
000001d0: f0c1 b340 bdd8 373f 3893 db3f e215 4f40
000001e0: 50d8 a940 75db 0640 e37f e33f 24d1 c240
000001f0: 72ef 2440 f745 0841 166e 0140 3935 9a3f

conv3.weight f4 [64, 128, 3]
-0.048882466 0.11008392 -0.0015621395 -0.17023659 -0.18147972 0.059277613 0.054553885 0.3358675
-0.012082378 0.30535936 0.032555684 0.14130566 -0.012537616 -0.30738255 0.23751636 -0.07253744
-0.32433394 -0.29911497 0.16459753 0.1096693 -0.4558561 0.053904355 -0.10950806 0.06547118
0.2678882 -0.05595615 -0.11145847 -0.584075 -0.050997157 0.0403154 -0.13121597 0.11254385
-0.13391313 -0.20659237 0.18027645 -0.3350017 -0.010273295 -0.2924654 -0.30512688 0.03613087
0.018510614 0.0972715 0.027227098 -0.08921016 0.20675306 -0.07984455 -0.13637039 -0.03747299
-0.08781187 -0.06085719 0.33405957 -0.12397771 0.031681336 0.18116154 0.13556479 0.18746051
0.19332144 -0.035033867 -0.10734445 0.25233042 0.0918091 -0.025491297 0.12172598 -0.091693476
-0.13165894 -0.015113016 -0.3010419 -0.14930737 -0.39574257 -0.06419032 -0.0028581815 -0.22742558
-0.06770088 -0.31646353 -0.059315912 -0.10248258 -0.23905638 -0.027975649 -0.11751288 -0.39993748
-0.026639538 -0.11936662 0.17459336 0.088386215 0.13390075 -0.13602522 0.21810015 0.16703323
0.11759814 -0.28831238 -0.3259401 0.041467115 -0.010716844 0.07455562 0.19992946 0.20668668
-0.13761477 -0.031497575 0.10979707 -0.24939215 -0.10507669 -0.23079562 0.001959206 -0.064665526
0.06291035 -0.14828897 -0.21947408 -0.20761731 -0.018840661 0.15343726 -0.20728019 -0.055375464
0.078446925 0.1717324 0.015757807 -0.35843474 -0.28148547 0.018700324 -0.15350258 0.20797339
0.32153448 0.02399512 0.13934301 -0.058410984 0.043639436 0.01672058 0.10217425 -0.11580606
-0.28739616 -0.14568332 -0.042515036 -0.0673172 -0.065448985 0.18522908 0.18520439 0.09766603
-0.059716396 -0.08896137 0.10660777 0.03469596 -0.20977798 0.12640645 -0.22103967 -0.12904985
0.17148104 0.17242439 0.16543053 -0.19447224 0.10116365 -0.44808736 0.15825373 -0.12534153
-0.11929855 -0.029217103 -0.26528472 0.06898806 -0.2272906 -0.107543886 0.14720558 0.19454812
-0.22615281 -0.34084603 0.069894195 0.06360345 -0.21674769 0.06755597 0.37590393 -0.1407484
-0.031568572 -0.13722129 0.0509579 -0.13843177 -0.039226305 0.033308897 -0.089023486 -0.046552498
-0.2115412 -0.044028174 -0.21853453 -0.072404556 -0.12071283 -0.3028018 0.2237278 -0.036265086
0.0129076345 0.3438355 0.120069325 -0.43601614 -0.6011798 -0.046246946 -0.12498253 -0.17563538
0.027349574 -0.27747205 -0.046105586 0.21750727 0.06852684 0.049539912 0.2245706 -0.0044214963
0.11624903 -0.034717124 0.032399677 -0.22263785 -0.41181418 0.08602566 0.06041436 -0.068470344
0.15371102 0.09942257 0.056595363 0.044394538 -0.1124612 0.14670284 -0.22956195 0.077820316
-0.27610886 0.14731412 0.034009557 0.47158098 -0.26670134 0.15865153 0.082879454 -0.08895656
0.2152221 0.19080757 0.07078707 -0.42597774 -0.4467707 0.05595402 0.13206473 0.029796315
-0.02269267 0.18372999 -0.20279168 -0.1913799 -0.30589417 0.052919213 0.11788898 0.2197613
0.15806834 -0.060447197 -0.00046177898 -0.0010799887 -0.06569057 0.09775023 0.083999544 0.06124215
0.10696522 -0.0024511497 0.08384316 -0.12349232 0.11373098 -0.096945316 0.084687114 0.20031342
00000000: fb38 48bd ae73 e13d b4c0 ccba 8052 2ebe
00000010: d2d5 39be 15cd 723d e573 5f3d d3f6 ab3e
00000020: 2bf5 45bc 1058 9c3e 1c59 053d 6eb2 103e
00000030: 936a 4dbc 3f61 9dbe 7d37 733e 828e 94bd
00000040: 190f a6be 9925 99be 418c 283e 4c9a e03d
00000050: f965 e9be d0ca 5c3d c345 e0bd c115 863d
00000060: a428 893e 4732 65bd 5744 e4bd f085 15bf
00000070: 65e2 50bd c321 253d 7b5d 06be 647d e63d
00000080: 8620 09be f38c 53be 649a 383e 5885 abbe
00000090: 5351 28bc 06be 95be 9739 9cbe f7fd 133d
000000a0: 92a3 973c 4836 c73d 5d0b df3c d1b3 b6bd
000000b0: 13b7 533e 8a85 a3bd aea4 0bbe 477d 19bd
000000c0: b6d6 b3bd 6445 79bd db09 ab3e 07e8 fdbd
000000d0: 4ac4 013d 6982 393e 7fd1 0a3e a6f5 3f3e
000000e0: 0ef6 453e ac7f 0fbd 68d7 dbbd 7431 813e
000000f0: 6906 bc3d 20d3 d0bc 784b f93d cac9 bbbd
00000100: 9ad1 06be 959c 77bc 2a22 9abe 08e4 18be
00000110: c59e cabe 3776 83bd 5450 3bbb 40e2 68be
00000120: c2a6 8abd 8207 a2be 3ef5 72bd 63e2 d1bd
00000130: 32cb 74be 302d e5bc 98aa f0bd 9bc4 ccbe
00000140: 293b dabc 7d76 f4bd 9ac8 323e d503 b53d
00000150: 471d 093e 324a 0bbe a555 5f3e c20a 2b3e
00000160: 4bd7 f03d ae9d 93be 9fe1 a6be 6cd9 293d
00000170: b495 2fbc 9eb0 983d 4fba 4c3e aca5 533e
00000180: e3ea 0cbe 9a03 01bd 49dd e03d a860 7fbe
00000190: 7332 d7bd b055 6cbe 0666 003b 5c6f 84bd
000001a0: 24d7 803d 10d9 17be d0bd 60be a299 54be
000001b0: bb57 9abc a81e 1d3e 4241 54be 62d1 62bd
000001c0: c8a8 a03d 9eda 2f3e 8416 813c c284 b7be
000001d0: dd1e 90be 6c31 993c c82f 1dbe faf6 543e
000001e0: 2ba0 a43e 6a91 c43c efaf 0e3e 5b40 6fbd
000001f0: 44bf 323d 99f9 883c bc40 d13d ba2b edbd
00000200: 9725 93be 022e 15be 3f24 2ebd 9add 89bd
00000210: 1e0a 86bd b1ac 3d3e 38a6 3d3e 2105 c83d
00000220: 2e99 74bd 6131 b6bd 2d55 da3d 5a1d 0e3d
00000230: 0ad0 56be b170 013e 3958 62be a525 04be
00000240: ba98 2f3e 0590 303e 9f66 293e bb23 47be
00000250: e32e cf3d b56b e5be 440d 223e 8859 00be
00000260: cc52 f4bd b558 efbc 66d3 87be 9d49 8d3d
00000270: debe 68be f83f dcbd 0fbd 163e 9f37 473e
00000280: 9a94 67be 5f83 aebe b024 8f3d 8742 823d
00000290: 1bf3 5dbe c95a 8a3d 7b76 c03e 5920 10be
000002a0: 0c4e 01bd bd83 0cbe 3bb9 503d 0fc1 0dbe
000002b0: c3ab 20bd e96e 083d f251 b6bd d5ad 3ebd
000002c0: 429e 58be e356 34bd 84c7 5fbe d748 94bd
000002d0: 4a38 f7bd d608 9bbe e718 653e b38a 14bd
000002e0: 8b7a 533c 350b b03e e8e6 f53d 823d dfbe
000002f0: ebe6 19bf 706d 3dbd d7f6 ffbd c3d9 33be
00000300: 370c e03c d110 8ebe 36d9 3cbd 3aba 5e3e
00000310: cd57 8c3d 5dea 4a3d d6f5 653e 33e2 90bb
00000320: f913 ee3d 8b33 0ebd 86b5 043d 2dfb 63be
00000330: 4fd9 d2be 392e b03d 0c75 773d 2e3a 8cbd
00000340: 6c66 1d3e 0f9e cb3d 8ad0 673d 0cd7 353d
00000350: 0f52 e6bd 4539 163e 4a12 6bbe 4260 9f3d
00000360: 245e 8dbe 83d9 163e 9b4d 0b3d 1073 f13e
00000370: 148d 88be 8c75 223e b4bc a93d db2e b6bd
00000380: 2f63 5c3e 0f63 433e d0f8 903d c119 dabe
00000390: 21bf e4be 0b30 653d fa3b 073e 6717 f43c
000003a0: fae5 b9bc b723 3c3e 9fa8 4fbe 18f9 43be
000003b0: 299e 9cbe d1c1 583d c76f f13d 1b09 613e
000003c0: abdc 213e 7b97 77bd ed1a f2b9 688e 8dba
000003d0: c788 86bd 4631 c83d f407 ac3d 0cd9 7a3d
000003e0: 9510 db3d 78a3 20bb f6b5 ab3d 8be9 fcbd
000003f0: caeb e83d 448b c6bd 7070 ad3d f61e 4d3e
