results/valence/classification/20251208_200000_633291/best_model.pt (torch, 402677 bytes, 22 tensors)

conv1.weight f4 [128, 1, 3]
0	0x3eba0cce	0.36337894
1	0x3f033669	0.512549
2	0xbddbdfc5	-0.1073604
3	0x3f269dd8	0.650846
4	0xbe18a30f	-0.14905952
5	0xbc9b948f	-0.018991737
6	0xbe8b7324	-0.27236283
7	0x3e8e415d	0.27784243
8	0x3ecbbd8c	0.3979305
9	0xbedfdded	-0.43724003
10	0x3f1952fd	0.59892255
11	0x3c989721	0.018626751
12	0x3ed567d2	0.4168077
13	0x3e01e132	0.12683561
14	0x3ea8c832	0.32965237
15	0x3d2deef8	0.042464226
16	0x3f0e0c1f	0.55487245
17	0x3d806a7b	0.062703095
18	0xbe8f5247	-0.2799246
19	0x3e8789eb	0.2647241
20	0xbe9094d2	-0.2823854
21	0xbde130dc	-0.10995647
22	0xbe4da5d0	-0.20082784
23	0x3ed4f10c	0.41590154
24	0xbeb2b36a	-0.34902507
25	0xbeb569c4	-0.35432255
26	0xbd0fc7e0	-0.035102725
27	0xbe5816b3	-0.21102409
28	0x3de06d74	0.109583765
29	0xbf0f0bac	-0.55877185
30	0x3ec54d78	0.38535666
31	0xbf215b5f	-0.63030046
32	0x3eb54697	0.35405418
33	0x3e2f33ca	0.171096
34	0xbe59d312	-0.21271923
35	0x3eac906d	0.33703938
36	0x3c4a9cc1	0.012366475
37	0x3ed10379	0.40822962
38	0xbe1a2d64	-0.15056378
39	0xbe470e94	-0.19439155
40	0x3e7f916a	0.24957815
41	0xbe1b4310	-0.15162301
42	0x3e7e50fd	0.24835582
43	0x3ec0fa1b	0.37690815
44	0x3ed00c47	0.40634367
45	0xbe9b598a	-0.3034175
46	0x3eddaa42	0.4329396
47	0x3cf315ee	0.029673543
48	0x3e780c35	0.24223407
49	0xbe98d6c9	-0.29851368
50	0xbf2c4bc9	-0.6730314
51	0xbd6835d3	-0.056691956
52	0xbeeba56a	-0.46024638
53	0x3efd03cb	0.49416956
54	0x3e8fed17	0.28110573
55	0x3deb196b	0.114794575
56	0x3e849fe3	0.25903234
57	0xbd490246	-0.049074434
58	0x3f06d09d	0.5266207
59	0xbece53c9	-0.40298298
60	0x3e0b1dfd	0.13585658
61	0xbf11df3c	-0.56981254
62	0x3e2104a8	0.15724432
63	0xbe9068a8	-0.28204846
64	0x3e602dfa	0.21892539
65	0xbe403cb7	-0.18773161
66	0x3ef57427	0.4794018
67	0xbe17d7b3	-0.14828376
68	0xbeacca03	-0.33747873
69	0xbe7f32b2	-0.24921682
70	0x3f18344a	0.59454787
71	0xbbbc014f	-0.0057374607
72	0x3f2c6a66	0.6734985
73	0xbef19d38	-0.4719026
74	0xbed8f6ec	-0.42375886
75	0xbefbf2a8	-0.4920857
76	0xbeaf4596	-0.34232777
77	0x3e941a87	0.2892649
78	0x3e0a7b13	0.13523512
79	0x3edc8a46	0.43074244
80	0xbe93df62	-0.28881365
81	0xbeaa5983	-0.33271417
82	0x3ec538ac	0.385198
83	0xbe89b20c	-0.2689365
84	0x3ea2432f	0.31691882
85	0xbe8b523e	-0.27211183
86	0x3e7b3aa7	0.24534093
87	0xbecbbb5b	-0.39791378
88	0xbe9cd2d5	-0.30629602
89	0x3e4dccba	0.20097628
90	0x3e10bdd3	0.14134912
91	0xbe9d11a4	-0.3067752
92	0x3e8f8a46	0.28035182
93	0x3ef1c568	0.47220922
94	0xbee18ab1	-0.44051126
95	0xbe3adde2	-0.18248704
96	0x3f0b0b7a	0.54314387
97	0xbe45c58d	-0.19313641
98	0xbe0ba8c0	-0.13638592
99	0xbf0a6cdf	-0.54072374
100	0xbe839f12	-0.257073
101	0x3e5ec871	0.2175615
102	0xbd6769b9	-0.05649731
103	0xbf02e573	-0.5113136
104	0x3dd9fad9	0.106435485
105	0xbeaa75b8	-0.33292937
106	0xbee89789	-0.45428112
107	0xbea69587	-0.32535955
108	0xbefc9ae3	-0.4933692
109	0xbe6dcde6	-0.23223075
110	0x3f275bb1	0.65374285
111	0x3e1f35ef	0.15547918
112	0x3e72aa6e	0.23697826
113	0xbf0388a1	-0.51380354
114	0xbeaa9314	-0.33315337
115	0xbe4dfb18	-0.20115316
116	0x3e6ce7ec	0.23135346
117	0xbecee12d	-0.4040617
118	0xbe69d93c	-0.22836775
119	0xbe965359	-0.29360464
120	0x3e2c295f	0.16812657
121	0xbe8156f5	-0.25261655
122	0xbd917e7f	-0.07104205
123	0xbe741987	-0.23837863
124	0xbeeded2e	-0.46470016
125	0xbe76f6c4	-0.24117571
126	0xbe238bbf	-0.15971278
127	0xbeda557c	-0.42643344
128	0x3f13ea75	0.5777963
129	0x3c5d823f	0.013519823
130	0x3ec7b606	0.3900606
131	0x3d4d4a84	0.05011989
132	0xbf03479f	-0.5128116
133	0x3efc4199	0.49268797
134	0xbe153bcd	-0.14573593
135	0xbe897428	-0.26846433
136	0xbea26ee2	-0.31725222
137	0xbef39380	-0.4757347
138	0x3e0a250d	0.13490696
139	0xbe71aa46	-0.2360011
140	0x3e806299	0.25075224
141	0xbea26531	-0.31717828
142	0x3f194f92	0.5988704
143	0xbeb77006	-0.35827655
144	0xbd309c18	-0.043117613
145	0x3db61426	0.08890562
146	0x3ea4fee0	0.32225704
147	0x3f0480ab	0.5175883
148	0x3ee6246d	0.44949666
149	0xbefaae1b	-0.48960957
150	0x3e7ce9b6	0.24698529
151	0xbe8bb42c	-0.27285898
152	0xbdbddc02	-0.09270479
153	0xbed2065c	-0.41020477
154	0x3f1fb865	0.6239074
155	0xbea5d820	-0.32391453
156	0x3e71783e	0.23581025
157	0x3e273be9	0.16331448
158	0x3e17d09d	0.14825673
159	0xbebb8411	-0.36624196
160	0x3f0a0803	0.53918475
161	0xbd0aaaf2	-0.033854432
162	0x3e984ceb	0.29746184
163	0xbf0782f3	-0.5293419
164	0x3e15a4af	0.14613603
165	0xbd8078f6	-0.062730715
166	0xbe8f6ca5	-0.28012577
167	0x3f0fe8b8	0.56214476
168	0x3e35f252	0.17768219
169	0xbf01e11b	-0.5073411
170	0xbe25fbac	-0.16209286
171	0xbddbb19d	-0.107272364
172	0x3ec51016	0.38488835
173	0xbe36a901	-0.17837907
174	0xbeb9b0be	-0.36267656
175	0xbe0ec811	-0.13943507
176	0xbecafa6e	-0.39644188
177	0x3e0c3c92	0.1369498
178	0x3ee97de8	0.4560387
179	0xbf09e5f2	-0.53866494
180	0x3e0278f3	0.12741451
181	0x3ec46ad8	0.38362765
182	0x3d44bd4b	0.048032086
183	0xbe10dcab	-0.14146678
184	0x3e62f8bb	0.22165196
185	0x3ed5d7a7	0.41766092
186	0x3e9f7d27	0.3115017
187	0xbd3eaa45	-0.0465491
188	0xbdb8db44	-0.090261966
189	0x3e54320e	0.2072222
190	0xbe64df97	-0.22350918
191	0xbdd37946	-0.103258654
192	0x3eb5c68c	0.35503042
193	0x3f098e6a	0.5373293
194	0xbe2aa655	-0.16665013
195	0xbe0daf77	-0.13836466
196	0xbd901bac	-0.07036528
197	0xbd9aff74	-0.07568255
198	0x3e5c2603	0.21498875
199	0x3e16946b	0.14705054
200	0xbf1347d7	-0.57531494
201	0xbe2352b6	-0.1594952
202	0x3ed45a82	0.41475302
203	0x3d91f926	0.071275994
204	0xbd5e154e	-0.054219536
205	0xbe7b897d	-0.24564166
206	0xbe79ed82	-0.24407008
207	0xbf0b14e7	-0.5432877
208	0xbe5f01f9	-0.21778096
209	0x3e654287	0.2238866
210	0x3ec90301	0.39260104
211	0x3e8e4d41	0.27793315
212	0xbf03ca26	-0.5148033
213	0xbe9626ee	-0.29326576
214	0xbca975d0	-0.02068606
215	0x3f285a25	0.6576255
216	0x3e14e8e5	0.14541967
217	0xbe52ea6d	-0.20597239
218	0x3e9bed04	0.30454266
219	0xbe430180	-0.19043541
220	0xbea821bb	-0.32838234
221	0x3eea5da0	0.45774555
222	0xbe482048	-0.19543564
223	0xbdee2348	-0.11627823
224	0xbef53d03	-0.4789811
225	0x3e4aca49	0.19803728
226	0x3ee46ef1	0.44615892
227	0x3d1fdf26	0.03903117
228	0xbe2cb351	-0.16865279
229	0xbee483cc	-0.44631803
230	0xbed816ab	-0.42204794
231	0x3eb59bfc	0.3547057
232	0x3e019cd0	0.12657475
233	0x3f0e90bb	0.5568959
234	0x3eecefec	0.46276796
235	0x3ba594ac	0.0050531235
236	0xbd6c1d9a	-0.057645418
237	0xbe5fc2b3	-0.21851616
238	0xbeeadb6b	-0.45870528
239	0xbef5e183	-0.48023614
240	0x3ea7d650	0.32780695
241	0xbe907f40	-0.28222084
242	0xbdeca165	-0.11554221
243	0xbea7675e	-0.3269605
244	0x3d8a3c73	0.06749811
245	0xbeaf8186	-0.34278506
246	0xbe96d990	-0.29462862
247	0x3eb22930	0.3479705
248	0xbe013309	-0.12617125
249	0x3efdfe42	0.49608046
250	0xbdbd5278	-0.09244245
251	0xbebbac06	-0.3665468
252	0xbd355376	-0.044269048
253	0xbee83c4e	-0.4535851
254	0xbd79e6f1	-0.06101126
255	0xbed631ce	-0.41834873

conv1.bias f4 [128]
0	0xbe2190c6	-0.15777883
1	0x3ea747e1	0.32672027
2	0xbf26dad5	-0.6517766
3	0xbd326c97	-0.04356059
4	0x3df41238	0.119175375
5	0xbe449cde	-0.19200465
6	0xbe2b92bf	-0.16755198
7	0xbec9e385	-0.39431396
8	0x3eb55ae5	0.3542091
9	0x3e378251	0.17920806
10	0x3eb2ba98	0.34907985
11	0xbee1f5c0	-0.44132805
12	0xbf1b9294	-0.60770535
13	0x3ec2f0e9	0.38074425
14	0x3d8f5022	0.06997706
15	0xbe87469a	-0.26421052
16	0xbe2220e2	-0.15832856
17	0x3f05ded1	0.52293116
18	0xbdffba4c	-0.12486705
19	0xbb56aee8	-0.003275806
20	0xbd0749d4	-0.033029392
21	0xbf09b3ee	-0.53790176
22	0xbf364147	-0.71193355
23	0xbed30cef	-0.41220805
24	0x3d4a3f1c	0.049376592
25	0x3dfcfc3c	0.123527974
26	0xbed99517	-0.4249656
27	0xbea78124	-0.32715714
28	0x3eff8a05	0.49909988
29	0x3e8e2004	0.277588
30	0x3ec19d0f	0.3781514
31	0xbeaa4890	-0.33258486
32	0xbecb75bd	-0.39738265
33	0x3e84b51b	0.25919423
34	0xbeca517d	-0.39515296
35	0xbeafe796	-0.34356374
36	0xbd6ba6d6	-0.057532154
37	0xbeaf04e8	-0.3418343
38	0xbf050055	-0.5195363
39	0x3e234ff8	0.15948474
40	0x3eb2f857	0.34955093
41	0x3d6a68c4	0.05722882
42	0xbc19b0f9	-0.0093805725
43	0xbf415d87	-0.75533336
44	0xbd8f38cb	-0.06993254
45	0x3e057b8a	0.13035408
46	0x3ede91e1	0.43470672
47	0xbcbf40cd	-0.02334633
48	0xbec964ef	-0.3933482
49	0x3d5c84d2	0.053837605
50	0xbf0441a5	-0.51662666
51	0x3ec816ff	0.39080045
52	0xbee941a7	-0.455579
53	0x3e1f8a67	0.1558014
54	0x3e11be56	0.14232764
55	0x3de5e2f7	0.11224931
56	0xbe15b5f8	-0.14620197
57	0x3ee70ba8	0.4512608
58	0x3daf9727	0.08573752
59	0x3f12d6f1	0.57359225
60	0x3e7b5465	0.24543913
61	0xbec60553	-0.38675937
62	0xbf0121ce	-0.50442207
63	0x3eb840ab	0.35986838
64	0x3e50ed1c	0.2040295
65	0xbf15f9e1	-0.5858441
66	0x3d868707	0.06568723
67	0xbf43410e	-0.7627114
68	0xbf2a0f87	-0.6642994
69	0x3d8534a9	0.06504185
70	0x3e5a9df0	0.21349311
71	0x3d91d688	0.07120997
72	0xbe77a579	-0.24184217
73	0x3f29ec0c	0.66375804
74	0x3d919ebc	0.07110354
75	0xbf0440e8	-0.5166154
76	0xbcdfe4b7	-0.02733074
77	0xbdc6cfad	-0.0970758
78	0x3e621ab8	0.22080505
79	0xbee935d1	-0.4554887
80	0x3ea3889d	0.31940165
81	0xbedaf68d	-0.42766228
82	0xbf137bb9	-0.5761066
83	0xbebd8314	-0.37014067
84	0x3f032fe7	0.5124497
85	0x3f0f91df	0.56081957
86	0x3e9899ae	0.29804748
87	0x3ec6f7fb	0.3886107
88	0x3e4b75e8	0.19869196
89	0xbe32973c	-0.17440504
90	0xbec9ff60	-0.39452648
91	0x3d41bfe5	0.047302146
92	0xbecdf152	-0.40223175
93	0xbeec2a35	-0.4612595
94	0xbe90c0fc	-0.28272235
95	0x3e5ca0f7	0.21545778
96	0x3e3733fd	0.17890926
97	0xbdaec614	-0.08533874
98	0xbee52ecd	-0.4476227
99	0x3e2fab70	0.17155242
100	0xbee4f106	-0.44715136
101	0xbef7fb3f	-0.48433873
102	0x3f042595	0.51619846
103	0xbe2f397c	-0.17111772
104	0x3ef5dd7f	0.4802055
105	0x3e5c19b8	0.21494186
106	0x3e9e1a8a	0.30879623
107	0x3e131d45	0.14366634
108	0x3de933e7	0.11386853
109	0xbd8cc24a	-0.06872995
110	0x3cb124bc	0.021623962
111	0x3e0bb31c	0.13642544
112	0x3e107415	0.14106782
113	0x3eb962a3	0.36208066
114	0xbd1f0fa7	-0.038833287
115	0xbec46455	-0.38357797
116	0xbddf4aac	-0.109029144
117	0xbed05067	-0.40686342
118	0x3e93865a	0.2881344
119	0x3f20e736	0.628528
120	0x3ea1d47e	0.3160743
121	0x3dc3dee9	0.09564001
122	0xbf04ffd7	-0.5195288
123	0xbefef5b8	-0.49796844
124	0xbe8768bd	-0.26447096
125	0xbe03f525	-0.12886484
126	0xbc69251d	-0.01423004
127	0xbf323a4b	-0.696202

bn1.weight f4 [128]
0	0x3f3c305f	0.7351131
1	0x3f11dc95	0.56977206
2	0x3f8e21bc	1.1104045
3	0x3f5bc106	0.85841405
4	0x3e88ec2b	0.26742682
5	0x3f39842a	0.7246729
6	0x3f0743dd	0.52837926
7	0x3f991a78	1.1961203
8	0x3e876d7c	0.26450717
9	0x3e0d9b64	0.13828808
10	0x3f8436c0	1.0329208
11	0x3fb82f65	1.4389464
12	0x3fd33b9f	1.650257
13	0x3ec91979	0.39277247
14	0x3ee1fdbd	0.441389
15	0x3f61bdfa	0.88180506
16	0x3f389b97	0.7211241
17	0x3f4c049b	0.7969453
18	0x3ef39be0	0.4757986
19	0x3f3f9fa5	0.74852973
20	0x3f7f5cf8	0.99751234
21	0x3f94a506	1.1612861
22	0x3fc4c43b	1.5372385
23	0x3f58b24c	0.8464706
24	0x3f3851b0	0.71999645
25	0x3f249d89	0.6430288
26	0x3fa71298	1.3052549
27	0x3f701ef9	0.9379726
28	0x3edb82cb	0.42873225
29	0x3ee46a4e	0.44612354
30	0x3f3ce856	0.73792017
31	0x3f5fe5e6	0.8746017
32	0x3fa44059	1.2832137
33	0x3f128a62	0.57242405
34	0x3f959c0d	1.1688248
35	0x3edf4419	0.43606642
36	0x3f44e436	0.7691072
37	0x3f90c6d2	1.1310675
38	0x3f9537d1	1.1657659
39	0x3dffe566	0.12494926
40	0x3f43ec9b	0.76532906
41	0x3e3d5eb1	0.18493153
42	0x3f4b9e96	0.7953886
43	0x3fcb79c5	1.5896536
44	0x3f6374de	0.888502
45	0x3ea3d223	0.3199626
46	0x3ed9c21b	0.42530903
47	0x3ec4dcb7	0.38449642
48	0x3fa8e1cf	1.3193911
49	0x3f260d28	0.64863825
50	0x3fa7f90b	1.3122877
51	0x3f821589	1.0162822
52	0x3fa72b3f	1.3060073
53	0x3f6c7711	0.9236918
54	0x3f86ffcd	1.0546814
55	0x3f530fe6	0.82446134
56	0x3f2625f8	0.64901686
57	0x3f522369	0.8208528
58	0x3ecc0f2a	0.3985532
59	0x3f81006e	1.0078256
60	0x3d171d47	0.036893155
61	0x3f9042a2	1.1270335
62	0x3fd785e4	1.6837735
63	0x3f5bc9d8	0.85854864
64	0x3ec3159c	0.38102424
65	0x3f97a02c	1.1845756
66	0x3f5c7eff	0.8613128
67	0x3fbf3ee1	1.4941064
68	0x3fa207e9	1.2658664
69	0x3f0e5b0f	0.55607694
70	0x3f53e3a2	0.82769215
71	0x3f5aa87b	0.8541333
72	0x3fa38be2	1.2777064
73	0x3f2b9f9f	0.6704044
74	0x3e380183	0.17969327
75	0x3f8044e2	1.0021021
76	0x3e2c8f01	0.16851427
77	0x3f27aac7	0.6549496
78	0x3e8c1781	0.27361682
79	0x3eed37af	0.46331546
80	0x3f7b9692	0.9827663
81	0x3f497036	0.78686845
82	0x3f8ef64c	1.1168914
83	0x3f9d4b73	1.228865
84	0x3f1d7fef	0.61523336
85	0x3ee788f9	0.4522169
86	0x3e6c1723	0.23055701
87	0x3f777787	0.9666676
88	0x3f0e7116	0.55641305
89	0x3f4beb1d	0.7965563
90	0x3f960e95	1.17232
91	0x3edc8e6c	0.4307741
92	0x3f5f4685	0.8721698
93	0x3f4b6d93	0.7946407
94	0x3f0d45b1	0.55184466
95	0x3f424256	0.7588247
96	0x3f4ddb78	0.8041301
97	0x3ecf4679	0.40483454
98	0x3f539e04	0.8266299
99	0x3ee03759	0.43792227
100	0x3f973651	1.1813451
101	0x3f893138	1.0718145
102	0x3f25dcc1	0.6478997
103	0x3f219361	0.6311551
104	0x3f6174df	0.88068956
105	0x3eaf1107	0.34192678
106	0x3f2aeb10	0.66764927
107	0x3f1ff133	0.62477416
108	0x3e3d0597	0.18459164
109	0x3e4073fa	0.18794242
110	0x3f803ccd	1.0018555
111	0x3ebbf544	0.3671056
112	0x3f7e319a	0.99294436
113	0x3cc4f303	0.024041658
114	0x3ebc6423	0.36795148
115	0x3fa633db	1.2984575
116	0x3f5113b0	0.81670666
117	0x3f56fcdd	0.8397959
118	0x3f0f5c7a	0.56000483
119	0x3f2d6a8d	0.6774071
120	0x3c8393b7	0.016061647
121	0x3ed6eaca	0.41976005
122	0x3f396c31	0.7243071
123	0x3f880860	1.0627556
124	0x3f0a78ef	0.5409078
125	0x3f6328f4	0.88734365
126	0x3f586faa	0.84545386
127	0x3fb42d8b	1.4076399

bn1.bias f4 [128]
0	0x3d112944	0.035439745
1	0x3e279912	0.16366985
2	0x3e4ad4ac	0.1980769
3	0xbde87441	-0.11350299
4	0x3cfb5523	0.030680245
5	0x3937fd9c	0.00017546717
6	0xbd01c011	-0.03167731
7	0x3e3f88d9	0.18704547
8	0x3e3da7ed	0.1852109
9	0x3d845c6c	0.064629406
10	0x3c67bbd1	0.0141439
11	0x3deec8ba	0.11659379
12	0x3c6a2fcc	0.014293622
13	0xbcf7ddb6	-0.030257087
14	0x3dad4795	0.08460919
15	0x3da23928	0.07921058
16	0x3dc81191	0.097689755
17	0x3e691667	0.22762452
18	0xbcb0d62c	-0.0215865
19	0x3e10dc2a	0.14146486
20	0xbc62b9b2	-0.0138382185
21	0x3e06c16f	0.13159727
22	0x3ee69058	0.45032
23	0xbb1cbf94	-0.00239179
24	0x3e0ec868	0.13943636
25	0x3e933dc4	0.2875806
26	0x3e184437	0.14869772
27	0x3e13ade1	0.14421798
28	0x3dcbecc9	0.099572726
29	0x3e459986	0.19296846
30	0x3d68e467	0.056858446
31	0x3e249c1a	0.16075173
32	0x3e8fc86a	0.2808259
33	0x3e8bb1b2	0.27284008
34	0x3dd754d7	0.10514229
35	0x3ba11545	0.0049158656
36	0x3e4f535a	0.2024664
37	0x3e8400f4	0.25781977
38	0xbcfc3e13	-0.030791318
39	0x3d0ad375	0.033893067
40	0x3e4a3389	0.19746222
41	0x3cd3da48	0.02586092
42	0x3d0369a5	0.032083172
43	0x3e03ebf2	0.12882975
44	0xbe54664b	-0.20742147
45	0x3dba0e01	0.09084702
46	0x3d8b4947	0.06801086
47	0xbe0a3250	-0.13495755
48	0x3e53bfd8	0.20678651
49	0x3d8e5228	0.06949264
50	0x3e590423	0.21192984
51	0x3df0fd8a	0.11767109
52	0x3e389177	0.1802424
53	0xbe55547d	-0.20833011
54	0xbd19e6ef	-0.03757375
55	0x3cb9bdef	0.022673575
56	0x3c2cd709	0.010549315
57	0x3e063ebc	0.13109869
58	0x3ccd05d7	0.025027199
59	0x3e6a0cdf	0.22856472
60	0x3cb2c3ea	0.021821935
61	0x3ecc5119	0.39905623
62	0x3e851a28	0.25996518
63	0x3e6919eb	0.22763793
64	0x3dfa095c	0.122088164
65	0xbe0b0cf7	-0.13579164
66	0x3c0c849c	0.008576538
67	0x3e7a6aef	0.24454854
68	0x3e21f728	0.15816939
69	0x3caeb840	0.021328092
70	0x3e549343	0.20759301
71	0x3ecf3d6c	0.4047655
72	0xbdef6972	-0.11690034
73	0x3e571d1f	0.21007203
74	0x3cd49049	0.025947707
75	0xbc143262	-0.009045215
76	0x3d922384	0.0713568
77	0x3cb7a105	0.022415647
78	0x3b926f77	0.004468854
79	0x3da5cd19	0.0809576
80	0x3e5f826a	0.21827093
81	0x3df4be1b	0.11950322
82	0x3ec7470c	0.38921392
83	0x3e80a126	0.25122947
84	0x3e8f2087	0.27954504
85	0x3d6af930	0.05736655
86	0x3d9dc7a1	0.07704092
87	0x3d2d6064	0.042328253
88	0x3e44a0d7	0.1920198
89	0x3dddb907	0.10826307
90	0x3e24beba	0.16088381
91	0x3dd498ec	0.1038073
92	0x3e66c0bc	0.2253446
93	0x3e2148d3	0.15750436
94	0x3cebf1a9	0.028801756
95	0x3de7e302	0.11322595
96	0x3e4bafac	0.19891232
97	0x3b9ded00	0.0048195124
98	0x3dda0db7	0.10647147
99	0x3d7fc969	0.06244794
100	0xbdbdf626	-0.09275465
101	0x3db838d8	0.08995217
102	0x3de2c5e8	0.11072904
103	0x3e0caaa9	0.13736977
104	0x3e6c9921	0.23105289
105	0x3decbc66	0.11559372
106	0x3da14cb5	0.07875959
107	0x3e3d26ef	0.18471883
108	0x3d8db0d2	0.069184914
109	0x3d9f883c	0.077896565
110	0x3e5afffa	0.2138671
111	0xbd66c87a	-0.056343533
112	0xbd8c04f6	-0.06836884
113	0x3d71cb50	0.059031785
114	0xbd38d20e	-0.0451222
115	0x3e3d0b52	0.1846135
116	0xbd60a223	-0.054842126
117	0x3c84273e	0.016131993
118	0x3e65a306	0.2242547
119	0x3e0c73b1	0.13716008
120	0x3b152c59	0.002276203
121	0x3c84230f	0.016129998
122	0xbe0442da	-0.12916127
123	0x3e21bf3f	0.15795611
124	0x3dce51fb	0.1007423
125	0x3eb8222d	0.35963574
126	0x3cc908b1	0.024540277
127	0x3e8c9426	0.27456778

bn1.running_mean f4 [128]
0	0x3e59f783	0.21285824
1	0x3ecf9286	0.40541476
2	0x3d0e2695	0.034704763
3	0x3e2cf5ad	0.16890593
4	0x3ea963cd	0.33083954
5	0x3e287854	0.16452152
6	0x3d6d5efa	0.057951905
7	0x3cc4cedd	0.024024421
8	0x3ef53583	0.4789239
9	0x3eac77c1	0.33685115
10	0x3ed0ebe5	0.40804973
11	0x3c86ebff	0.016469954
12	0x3c2cd33b	0.010548408
13	0x3ec572b6	0.3856408
14	0x3eb86c0c	0.36019933
15	0x3d4fd676	0.050741635
16	0x3e6644cd	0.22487183
17	0x3f0ce8a8	0.55042505
18	0x3e1abeb4	0.1511181
19	0x3e1f391c	0.15549129
20	0x3e1ae0d6	0.1512483
21	0x3ad237e7	0.0016038389
22	0x3c64ae7c	0.013957616
23	0x3d7c2ccd	0.061566163
24	0x3e95b39d	0.29238597
25	0x3ea57462	0.32315356
26	0x3d27bbae	0.04095047
27	0x3ce729cd	0.028218174
28	0x3f011b34	0.50432134
29	0x3ec894cc	0.39176023
30	0x3ec59f7f	0.38598248
31	0x3d79f7c8	0.06102732
32	0x3d4f6147	0.05062988
33	0x3ed2b40b	0.41152987
34	0x3d340cb4	0.043957427
35	0x3e4e5838	0.2015084
36	0x3e666c6e	0.225023
37	0x3d2ed27a	0.042681195
38	0x3c4c2faf	0.0124625405
39	0x3ec5e3bc	0.3865031
40	0x3eb9e5e6	0.3630821
41	0x3eaf9964	0.34296715
42	0x3e3fc094	0.18725806
43	0x3c516188	0.012779601
44	0x3e0a62ca	0.13514248
45	0x3ed413b6	0.41421288
46	0x3edf9a54	0.4367243
47	0x3e20be37	0.15697561
48	0x3d0a5891	0.03377587
49	0x3e9b343c	0.3031329
50	0x3b603100	0.0034208894
51	0x3ee15a8e	0.440144
52	0x3d24e15f	0.040253993
53	0x3e7d4338	0.24732673
54	0x3e6d54b4	0.23176843
55	0x3e6b8120	0.22998476
56	0x3e0bafb4	0.13641244
57	0x3ee966f6	0.45586365
58	0x3ea9887c	0.33111942
59	0x3f1a3bc9	0.60247475
60	0x3ea82f83	0.3284875
61	0x3d9a21b6	0.07525961
62	0x3bc53b71	0.006019049
63	0x3ebf537a	0.37368375
64	0x3ec22545	0.3791906
65	0x39b6d2ef	0.00034870903
66	0x3e67c57a	0.22633925
67	0x3c08f938	0.0083602
68	0x3c200bdf	0.009768455
69	0x3e8da0c0	0.27661705
70	0x3ea954be	0.33072466
71	0x3e86b2f7	0.26308414
72	0x3d02b3de	0.031909816
73	0x3f2d5a46	0.6771587
74	0x3e977c98	0.29587245
75	0x3d97d946	0.074144885
76	0x3ea78209	0.32716396
77	0x3e90876e	0.28228325
78	0x3e95dc3b	0.29269585
79	0x3e353847	0.1769725
80	0x3eb204a1	0.34769157
81	0x3d3b66a9	0.0457522
82	0x3b1aa308	0.002359571
83	0x3d735df2	0.059415765
84	0x3f11c8cc	0.56947017
85	0x3f159f32	0.5844604
86	0x3ee562ff	0.4480209
87	0x3edbbe36	0.42918557
88	0x3eb1897f	0.34675214
89	0x3e2657a1	0.16244365
90	0x3d3c8854	0.04602845
91	0x3eb0c823	0.34527692
92	0x3d3d65b4	0.04623957
93	0x3dc0f6d7	0.09422081
94	0x3db8e4cc	0.090280145
95	0x3e9ed410	0.31021166
96	0x3e8879fd	0.2665557
97	0x3ea58fb8	0.3233621
98	0x3cfb803a	0.030700792
99	0x3e929b04	0.28633893
100	0x3c026856	0.007959446
101	0x3d418421	0.04724515
102	0x3f051dd0	0.51998615
103	0x3e57c1e2	0.21070054
104	0x3f0ac1a0	0.542017
105	0x3ed700dc	0.41992843
106	0x3eafc38e	0.34328884
107	0x3e9310fc	0.28723896
108	0x3ec18ab7	0.37801144
109	0x3e8e7c2c	0.2782911
110	0x3e540a08	0.20706952
111	0x3e801320	0.2501459
112	0x3e4b08e5	0.19827612
113	0x3ec0dd20	0.37668705
114	0x3eab1ce5	0.33420482
115	0x3d1aa5cf	0.037755784
116	0x3dc83bb5	0.09777013
117	0x3e112e99	0.14177932
118	0x3ebe5773	0.37176093
119	0x3f231f23	0.63719386
120	0x3ec72c34	0.38900912
121	0x3e63108c	0.22174281
122	0x3d8d7217	0.069065265
123	0x3d9ad255	0.07559649
124	0x3dcc2651	0.09968246
125	0x3e10838a	0.14112678
126	0x3e4404bd	0.19142433
127	0x3c514afe	0.012774227

bn1.running_var f4 [128]
0	0x3e2cb5d1	0.16866232
1	0x3e574c5c	0.21025223
2	0x3cafa657	0.021441622
3	0x3db07680	0.08616352
4	0x3e6afb2d	0.22947378
5	0x3de4ef25	0.11178426
6	0x3c6f3f9c	0.014602568
7	0x3c0d932c	0.008641046
8	0x3e4d3291	0.20038821
9	0x3e0acc20	0.1355443
10	0x3e105ae1	0.14097168
11	0x3bbdc955	0.005791823
12	0x3b979f9f	0.0046271826
13	0x3d1893f4	0.037250474
14	0x3e9e1a0f	0.30879256
15	0x3ca62fc6	0.020286452
16	0x3dfb519b	0.122714244
17	0x3e16f746	0.14742765
18	0x3dab93f3	0.083778284
19	0x3d86b7e6	0.065780446
20	0x3d3d8d52	0.04627735
21	0x3997aea7	0.0002893109
22	0x3be01b5d	0.0068391995
23	0x3d0871ae	0.03331154
24	0x3e2cfbdd	0.16892953
25	0x3e0ea99a	0.13931885
26	0x3cb226c7	0.021747006
27	0x3c0286b5	0.007966687
28	0x3dcb3ac6	0.099233195
29	0x3e0c7d96	0.13719782
30	0x3d6f3539	0.058400366
31	0x3ced0060	0.028930843
32	0x3cd2ff0d	0.025756383
33	0x3e2e1336	0.16999516
34	0x3c6924f4	0.014230002
35	0x3e07f9fd	0.13278957
36	0x3e030ade	0.12797114
37	0x3c8752ff	0.016519068
38	0x3b58aafb	0.0033060897
39	0x3e51e2dc	0.20496696
40	0x3d3b0f1e	0.045668714
41	0x3e4243c1	0.18971159
42	0x3db079d8	0.0861699
43	0x3bd4c57d	0.006493269
44	0x3d4dd552	0.050252266
45	0x3e821225	0.25404468
46	0x3d4c0738	0.04981157
47	0x3d8336a3	0.064069055
48	0x3c6bf178	0.014400832
49	0x3e6be9a2	0.23038343
50	0x3a8e0af7	0.0010837008
51	0x3e151753	0.14559679
52	0x3ca6cd27	0.020361496
53	0x3dc5a48e	0.09650527
54	0x3d86b4fc	0.06577489
55	0x3dcdbc85	0.10045723
56	0x3d507024	0.050888196
57	0x3d900850	0.070328355
58	0x3e306aee	0.1722829
59	0x3e425e2a	0.18981233
60	0x3e1dc774	0.15408117
61	0x3d3a75de	0.045522563
62	0x3af01d9b	0.001831937
63	0x3d409b93	0.047023367
64	0x3e8bf24d	0.27333298
65	0x38551d33	5.081035e-05
66	0x3da4e861	0.08052135
67	0x3b74c8be	0.0037351097
68	0x3b58f3a9	0.0033104217
69	0x3de97dd0	0.1140095
70	0x3e23bed6	0.15990767
71	0x3e267b47	0.16257964
72	0x3c21d6f9	0.009877914
73	0x3e1a9020	0.15094042
74	0x3e0d15a2	0.13777784
75	0x3d4fdd81	0.050748352
76	0x3e4d8b2e	0.20072624
77	0x3e7dd596	0.24788508
78	0x3dfebb04	0.12438014
79	0x3dfa7c48	0.12230736
80	0x3d8f9055	0.07009951
81	0x3c8de3bc	0.017320506
82	0x3a135f33	0.0005621791
83	0x3cea1bfa	0.028577793
84	0x3e2ed188	0.17072117
85	0x3e0cab35	0.13737185
86	0x3e9ef43f	0.3104572
87	0x3df4c580	0.11951733
88	0x3e62d1c7	0.22150336
89	0x3d92c27a	0.07166
90	0x3cb93bb3	0.022611475
91	0x3e9a8542	0.30179793
92	0x3ca2d2df	0.019875942
93	0x3d4b8892	0.04969079
94	0x3d0e6c50	0.034771264
95	0x3e03ea76	0.12882408
96	0x3ddccfb2	0.10781802
97	0x3e5b983a	0.21444789
98	0x3c326cf0	0.010890231
99	0x3db21d69	0.08697016
100	0x3af0bb64	0.0018366394
101	0x3ca1d89b	0.019756606
102	0x3d5788e4	0.052620783
103	0x3e2a43eb	0.16627471
104	0x3e8590b8	0.26086974
105	0x3eb0c29c	0.34523475
106	0x3d8e075b	0.06934997
107	0x3e279369	0.16364826
108	0x3e58e6a3	0.21181731
109	0x3e21546f	0.15754865
110	0x3dbd0872	0.092301264
111	0x3da2fad1	0.07957996
112	0x3d4cfa24	0.05004324
113	0x3d4d6f5b	0.050155025
114	0x3e5a3c36	0.21312031
115	0x3c87a587	0.016558422
116	0x3d0f45b1	0.034978572
117	0x3dedbe1d	0.11608527
118	0x3e1fd6fa	0.15609351
119	0x3e03d831	0.12875439
120	0x3de168a9	0.110062905
121	0x3dd46294	0.10370365
122	0x3d078f38	0.03309557
123	0x3d4e1aaf	0.050318416
124	0x3d270eaf	0.040785488
125	0x3da521ad	0.08063064
126	0x3dcdb1b1	0.100436576
127	0x3badbbf9	0.005301949

conv2.weight f4 [128, 128, 3]
0	0xbcfcdcbf	-0.030866979
1	0x3de761c5	0.11297945
2	0xbc5a13d0	-0.013310388
3	0x3e4f080c	0.20217913
4	0x3dae0d86	0.08498673
5	0xbd7c0849	-0.06153134
6	0xbe1358d4	-0.14389354
7	0xbe1e71bf	-0.15473078
8	0xbe4d38e7	-0.20041238
9	0x3e125a87	0.14292346
10	0x3e06aeb8	0.13152587
11	0x3e59bc12	0.2126315
12	0x3c87a590	0.016558439
13	0xbda19983	-0.07890608
14	0x3d7e2bb0	0.062053382
15	0xbe00f8e2	-0.12594941
16	0x3cdbb5f0	0.026820153
17	0x3e155dc3	0.14586549
18	0xbd10bed2	-0.03533823
19	0xbdc636d3	-0.09678426
20	0x3c291f53	0.01032241
21	0x3dbd037b	0.092291795
22	0xbe4cf109	-0.20013823
23	0xbe01111e	-0.12604186
24	0xbe2b70ab	-0.16742198
25	0xbddbbf42	-0.10729839
26	0xbd8a4589	-0.06751544
27	0xbe05f276	-0.13080773
28	0x3b9de8f6	0.004819031
29	0xbc9d9a82	-0.019238714
30	0x3c153218	0.009106182
31	0xbddea079	-0.108704515
32	0xbc7f4de4	-0.015582535
33	0x3db054a9	0.08609898
34	0xbd170fc1	-0.03688026
35	0xbb74afea	-0.0037336298
36	0xbe3c4e6d	-0.18389292
37	0x3e2497bf	0.16073512
38	0x3d69f0df	0.05711448
39	0xbd54117c	-0.051774487
40	0x3d8414d0	0.06449282
41	0x3e2589f6	0.16165909
42	0xbd159754	-0.03652127
43	0xbcfc80fe	-0.030823227
44	0x3dc3eb32	0.09566344
45	0xbca9c903	-0.020725733
46	0xbcd689b3	-0.026188707
47	0x3dc2e1ce	0.09515725
48	0x3e306746	0.17226896
49	0xbd40d88d	-0.04708152
50	0xbe870c67	-0.2637665
51	0xbeb55698	-0.35417628
52	0xbe1186f4	-0.14211637
53	0x3cc33503	0.023828989
54	0xbdda2869	-0.10652239
55	0x3d8f1e0b	0.06988152
56	0xbcc62f0f	-0.024192361
57	0xbdc91d7b	-0.09820076
58	0x3ce26878	0.027637705
59	0x3c6efff7	0.014587394
60	0xbe900554	-0.28129065
61	0xbc930dde	-0.017950948
62	0xbdbfefb9	-0.09371895
63	0x3e386262	0.1800628
64	0x3da5af43	0.08090069
65	0x3e86257c	0.26200473
66	0xbe17cca1	-0.14824153
67	0xbd90cfee	-0.070709094
68	0xbd932e5d	-0.071865775
69	0xbdbf3046	-0.09335379
70	0xbe230d54	-0.15923053
71	0x3e5986e7	0.21242867
72	0x3e2f2986	0.17105684
73	0xbd44a5fe	-0.048009865
74	0xbee9ecc2	-0.45688444
75	0xbf095bdb	-0.53655785
76	0xbe1b9921	-0.15195133
77	0xbc40a089	-0.011757025
78	0xbe76682b	-0.24063174
79	0x3e35d5b1	0.17757298
80	0x3c6e5ee6	0.014548993
81	0x3d45ab35	0.04825898
82	0xbd8b85ac	-0.06812605
83	0x3c871873	0.01649115
84	0x3de85904	0.113451034
85	0xbe1fa4bf	-0.1559019
86	0x3c48198d	0.012213123
87	0xbeca76d4	-0.39543784
88	0xbe2d7623	-0.16939597
89	0x3c97589e	0.018474873
90	0xbd65d739	-0.056113455
91	0xbe42a557	-0.19008385
92	0x3dc4f403	0.09616854
93	0xbdb979d6	-0.090564415
94	0xbd45be89	-0.04827741
95	0xbeeeb62f	-0.4662337
96	0xbe11c8e2	-0.14236787
97	0x3d4202ce	0.047365956
98	0xbee247e9	-0.44195488
99	0xbf0175d4	-0.50570416
100	0xbe3fb920	-0.18722963
101	0x3c4cef97	0.012508295
102	0x3e85c6af	0.26128146
103	0x3e03bb6c	0.12864465
104	0xbeaba389	-0.33523205
105	0xbe9c5f07	-0.3054125
106	0x3e818653	0.25297794
107	0xbe2e536b	-0.17024009
108	0xbe9f33b2	-0.31094128
109	0xbcde7e27	-0.027159764
110	0xbdd118d0	-0.10209811
111	0xbd443e98	-0.047911257
112	0xbd72a514	-0.059239462
113	0x3d017168	0.031602293
114	0xbdb2657e	-0.08710764
115	0x3eb1ebb0	0.34750128
116	0xbe02781f	-0.12741135
117	0xbe125c38	-0.14292991
118	0x3c9c98af	0.019115774
119	0x3d079c6e	0.033108167
120	0x3d0bccbe	0.034130804
121	0x3e137079	0.14398374
122	0xbe92f0d2	-0.28699356
123	0xbdc6a743	-0.096998714
124	0x3d32d14c	0.043656632
125	0x3b219784	0.002465696
126	0xbe842009	-0.2580569
127	0xbd897da8	-0.0671342
128	0xbc074840	-0.008256972
129	0xbd0b1b08	-0.033961326
130	0x3e73d320	0.23811007
131	0xbd065ab5	-0.03280135
132	0xbd4ddd53	-0.0502599
133	0x3d658a14	0.056039885
134	0x3e68a171	0.22717835
135	0xbc80cae5	-0.015721748
136	0x3dbd95cd	0.09257088
137	0xbd55630f	-0.052096423
138	0x3d4cce0e	0.050001197
139	0xbe3eaa67	-0.18619691
140	0x3df090d8	0.11746377
141	0xbd0b5194	-0.034013346
142	0x3e473590	0.19454026
143	0x3e764a01	0.24051668
144	0x3d2b8188	0.041871578
145	0xbe15a66f	-0.1461427
146	0xbe6d8347	-0.2319461
147	0x3eaa02fa	0.33205396
148	0x3d210be6	0.039317988
149	0xbd54ad35	-0.051922996
150	0x3d59da6e	0.053186826
151	0x3e3b2e65	0.18279417
152	0xbd2c9ab4	-0.042139724
153	0xbd5a83b5	-0.053348262
154	0x3de107bd	0.10987804
155	0x3e5203cc	0.20509261
156	0x3e4274b9	0.18989839
157	0xbdf4af14	-0.11947456
158	0xbe2db598	-0.16963804
159	0x3ca12d7a	0.019675005
160	0x3e938a89	0.2881663
161	0x3e8ea875	0.27862898
162	0xbe680924	-0.22659737
163	0xbd3ff2b8	-0.046862334
164	0xbe3056c6	-0.17220601
165	0xbd420f5a	-0.04737792
166	0xbda743e2	-0.081672445
167	0x3b9eed7a	0.0048500868
168	0x3dab34b2	0.0835966
169	0x3d86b55e	0.06577562
170	0xbf00b2fd	-0.50273114
171	0x3c0547ce	0.008134795
172	0x3d86244e	0.06549893
173	0x3e8490ef	0.25891826
174	0xbe5f8ad6	-0.21830305
175	0x3dd09bb3	0.10185947
176	0xbd888d6b	-0.06667598
177	0x3cdacc09	0.02670862
178	0x3dbdad10	0.09261525
179	0x3d999f78	0.075011194
180	0x3db7aad6	0.08968131
181	0xbc560fa1	-0.01306525
182	0x3d9cdf99	0.07659835
183	0x3dd6b7af	0.104842536
184	0xbe80ac2a	-0.2513135
185	0xbd8320d3	-0.06402745
186	0xbc99348d	-0.018701816
187	0xbe83d463	-0.25747976
188	0x3e887533	0.26651916
189	0x3db67c85	0.08910469
190	0x3dda6a7e	0.10664843
191	0xbecac59b	-0.39603886
192	0x3e30bd53	0.17259721
193	0x3b9340bd	0.0044938014
194	0x3d3b9582	0.04579688
195	0x3be9611e	0.007122173
196	0x3d701662	0.058615096
197	0x3c8c40e7	0.017120792
198	0x3dd61347	0.104528956
199	0xbd267d7a	-0.040647008
200	0xbd486ca4	-0.048931733
201	0xbd5f060f	-0.054449137
202	0xbddce664	-0.10786131
203	0xbd017a13	-0.03161056
204	0x3c666a0b	0.014063369
205	0xbe920f75	-0.28527418
206	0x3e131e4f	0.1436703
207	0xbeed36a6	-0.46330756
208	0xbe3669ec	-0.17813843
209	0xbcff65fa	-0.031176556
210	0x3e833f4d	0.25634232
211	0x3d94dd8b	0.072688185
212	0xbe387fea	-0.18017545
213	0x3d4cd30c	0.050005957
214	0x3b2a3a3f	0.0025974659
215	0xbd88c2ef	-0.06677806
216	0xbc729688	-0.014806397
217	0xbe0e3f3c	-0.1389131
218	0xbd4e8a42	-0.05042482
219	0xbe70119f	-0.23444222
220	0xbdd81caf	-0.10552346
221	0x3d89d38b	0.06729802
222	0xbb56ea3a	-0.0032793419
223	0x3d3a6eb4	0.04551573
224	0xbe09debb	-0.13463871
225	0xbddf9e78	-0.109188974
226	0x3d8d49ad	0.06898818
227	0x3d9d2d63	0.076746725
228	0xbd0b96df	-0.03407943
229	0x3e3129d6	0.17301115
230	0xbde96ac6	-0.113973185
231	0x3c8b2813	0.016986882
232	0x3d040131	0.0322277
233	0x3ca2b11b	0.019859841
234	0x3e9e2a49	0.30891636
235	0xbd22c9ed	-0.039743353
236	0xbdc129e6	-0.094318196
237	0xbe4443ec	-0.19166535
238	0x3e3e55e6	0.18587455
239	0xbe95df12	-0.29271752
240	0x3d9c6a12	0.07637419
241	0x3e2a6dea	0.16643491
242	0xbe8a1511	-0.26969197
243	0xbe1b2f4e	-0.15154764
244	0xbe941921	-0.28925422
245	0x3d93775a	0.07200499
246	0xbeaca0a0	-0.33716297
247	0xbe7297f0	-0.23690772
248	0xbd58d2e1	-0.052935485
249	0x3d457204	0.048204437
250	0xbe8b7a50	-0.27241755
251	0xbeb06a68	-0.34456182
252	0xbe2fc703	-0.1716576
253	0xbd478ef1	-0.048720304
254	0xbe3a7e8f	-0.18212341
255	0xbdd58952	-0.104265824

conv2.bias f4 [128]
0	0xbd95997f	-0.07304668
1	0x3d98bd10	0.07457936
2	0xbe5cf065	-0.21576078
3	0xbe805616	-0.25065678
4	0xbd883416	-0.066505596
5	0xbd2af43d	-0.04173683
6	0xbeae8a5d	-0.34089938
7	0xbeb64f80	-0.3560753
8	0x3e9901a7	0.29884073
9	0xbe0c9f80	-0.1373272
10	0xbdbaccfe	-0.091211304
11	0xbe974fbb	-0.29553017
12	0xbda7c519	-0.0819189
13	0xbec0a78b	-0.37627825
14	0x3c7ce66b	0.015435795
15	0x3d656f81	0.05601454
16	0xbe26af9c	-0.16277927
17	0x3e0c7f39	0.13720407
18	0xbe34a06a	-0.17639318
19	0xbe1ce494	-0.1532157
20	0xbe5dec50	-0.21672177
21	0xbdbaf9b1	-0.09129656
22	0xbde70064	-0.112793714
23	0x3d5613fd	0.052265156
24	0xbe6c415e	-0.2307181
25	0xbe16c69a	-0.14724198
26	0xbea8f1f3	-0.32997093
27	0xbe634240	-0.22193241
28	0xbe77e2a3	-0.24207549
29	0x3c704de7	0.014667011
30	0xbe64e764	-0.22353894
31	0xbe9fcc1b	-0.31210408
32	0xbe4e9709	-0.20174803
33	0xbdc7500c	-0.097320646
34	0xbde836a1	-0.11338545
35	0xbd2a38e9	-0.04155818
36	0xbcd38fa8	-0.025825337
37	0xbe953090	-0.29138613
38	0xbdc4ee17	-0.096157245
39	0xbe3f63f1	-0.18690468
40	0x3da42a5f	0.08015894
41	0xbdeeed86	-0.11666398
42	0xbe3c22d2	-0.18372658
43	0xbe32168d	-0.17391415
44	0xbea1bb41	-0.31588176
45	0x3cba51c0	0.02274406
46	0xbe8afe13	-0.27146968
47	0xbb5bcd06	-0.0033538952
48	0xbe4a9ddd	-0.19786783
49	0xbeb87af2	-0.360313
50	0xbe8602c7	-0.26173994
51	0x3d027f56	0.03185972
52	0xbd6a8df3	-0.05726428
53	0xbea72ed3	-0.32652912
54	0xbd9cdee3	-0.076597
55	0xbe12fe0e	-0.14354727
56	0xbd829ba1	-0.0637734
57	0x3e2a34a9	0.16621651
58	0xbeab1d9c	-0.33421028
59	0xbd9477bc	-0.072494
60	0xbcd080d3	-0.025452053
61	0xbe30ff27	-0.17284833
62	0xbe60679f	-0.21914528
63	0x3e8d3d68	0.27585912
64	0xbe900b27	-0.2813351
65	0xbb978d04	-0.0046249647
66	0xbd170d8e	-0.03687816
67	0x3ce06b0f	0.0273948
68	0xbda62589	-0.08112628
69	0xbe6f4059	-0.2336439
70	0xbd94713f	-0.072481625
71	0xbd68bf90	-0.056823313
72	0xbe88dad7	-0.26729462
73	0xbe39c02d	-0.18139715
74	0xbd7bf474	-0.061512426
75	0xbbed3374	-0.0072387997
76	0xbe66cf4d	-0.22540016
77	0xbd8d593f	-0.06901788
78	0xbe862516	-0.2620017
79	0x3ea8cc75	0.32968488
80	0x3d981915	0.07426659
81	0xbe6e05dc	-0.23244423
82	0x3cbbd2e2	0.022927705
83	0xbddcda31	-0.10783804
84	0xbc761fdf	-0.015022247
85	0xbe4666c2	-0.19375136
86	0xbda1137d	-0.07865045
87	0xbe1575f8	-0.14595783
88	0xbc5b390c	-0.0133803
89	0xbe98915b	-0.29798397
90	0xbe0c0dae	-0.13677093
91	0xbe3bb480	-0.18330574
92	0xbe933f9b	-0.28759465
93	0xbe88070a	-0.2656787
94	0xbdb9b63f	-0.09067964
95	0x3d905ad0	0.07048571
96	0xbd3ae908	-0.045632392
97	0x3d8279e2	0.063709036
98	0xbd671357	-0.05641493
99	0xbd9b235e	-0.07575105
100	0xbe990dae	-0.2989325
101	0x3d985416	0.07437913
102	0xbe0b88f4	-0.13626462
103	0xbe541cc4	-0.20714098
104	0xbeab653e	-0.3347568
105	0xbe450a47	-0.19242202
106	0xbd6c51af	-0.057695087
107	0xbe19ed99	-0.15032043
108	0xbe34e44a	-0.1766521
109	0x3e5570e6	0.20843849
110	0x3d1f412f	0.038880523
111	0x3d118857	0.035530414
112	0xbe870e9b	-0.2637833
113	0xbe6a6ec2	-0.22893813
114	0xbe884c15	-0.26620546
115	0x3e3f32eb	0.18671767
116	0xbe75bce6	-0.2399784
117	0xbd3802a6	-0.0449244
118	0xbdb10b8d	-0.08644781
119	0xbe601e6e	-0.21886608
120	0xbe90d2bd	-0.2828578
121	0xbe5d4fc9	-0.21612467
122	0x3d9ea31d	0.07745955
123	0xbdcb48fd	-0.09926031
124	0x3cd1a5a7	0.025591685
125	0xbe89eb6e	-0.2693743
126	0xbca869b9	-0.020558225
127	0xbe86de33	-0.263414

bn2.weight f4 [128]
0	0x3f6a9834	0.91638494
1	0x3f6022b2	0.8755294
2	0x3f8c8594	1.0978265
3	0x3f797924	0.9745047
4	0x3f5be5aa	0.85897315
5	0x3f4db804	0.8035891
6	0x3f66bcce	0.90131843
7	0x3f876c1c	1.0579867
8	0x3f7c121d	0.9846514
9	0x3f565321	0.83720595
10	0x3f6bc621	0.92099196
11	0x3f835cfd	1.0262753
12	0x3f541f62	0.82860386
13	0x3f5d5bed	0.8646839
14	0x3f77d674	0.96811604
15	0x3f1c2443	0.6099283
16	0x3f59b299	0.85038143
17	0x3f5397b1	0.8265334
18	0x3f3cdc00	0.73773193
19	0x3f807a37	1.0037297
20	0x3f65c72f	0.89757055
21	0x3f80679f	1.0031623
22	0x3f87bdcd	1.0604798
23	0x3f568d34	0.8380921
24	0x3f559b01	0.8343964
25	0x3f5944ac	0.8487041
26	0x3f793369	0.9734407
27	0x3f5b5e08	0.85690355
28	0x3f6e3786	0.9305347
29	0x3f663231	0.89920336
30	0x3f3b8a6a	0.7325808
31	0x3f5706d6	0.83994806
32	0x3f5cee32	0.8630096
33	0x3f597636	0.84946
34	0x3f664547	0.8994946
35	0x3f589d35	0.8461488
36	0x3f72adce	0.94796455
37	0x3f421054	0.75806165
38	0x3f8e5e4c	1.1122527
39	0x3f4d7533	0.80256957
40	0x3f85ff23	1.0468487
41	0x3f5d4371	0.8643103
42	0x3f894ec2	1.072716
43	0x3f55628b	0.8335349
44	0x3f3cb551	0.73714167
45	0x3f5e663a	0.86874735
46	0x3f7f32a9	0.99686676
47	0x3f6c1d60	0.9223232
48	0x3f5bda43	0.85879916
49	0x3e5aa92b	0.21353595
50	0x3f6bf3c1	0.92168814
51	0x3f43c777	0.76476234
52	0x3f82a05c	1.0205188
53	0x3f434592	0.7627803
54	0x3f69cf68	0.913321
55	0x3f69afa1	0.91283613
56	0x3f85da91	1.0457326
57	0x3f7d3663	0.9891111
58	0x3f608acf	0.87711805
59	0x3f67700d	0.9040535
60	0x3f42f462	0.7615415
61	0x3f68cf9c	0.90941787
62	0x3f5694bd	0.83820707
63	0x3f661e84	0.89890313
64	0x3f99b25b	1.2007555
65	0x3f6fe759	0.93712384
66	0x3f83fb7d	1.0311123
67	0x3f6dc492	0.9287807
68	0x3f660b85	0.8986133
69	0x3f5ed502	0.87043774
70	0x3f60cac6	0.8780941
71	0x3f82a0c7	1.0205315
72	0x3f726125	0.9467948
73	0x3f438cbd	0.76386625
74	0x3f8e6066	1.1123168
75	0x3f7f1374	0.9963906
76	0x3f72ed59	0.94893414
77	0x3f5b43e3	0.8565046
78	0x3f601b57	0.8754172
79	0x3f7e364e	0.9930161
80	0x3f4f2ab7	0.8092455
81	0x3f76ad31	0.9635802
82	0x3f6a9189	0.9162832
83	0x3f496567	0.7867035
84	0x3f4b7224	0.7947104
85	0x3f6d29c7	0.9264187
86	0x3f71131d	0.9416979
87	0x3f912d50	1.1341953
88	0x3f4a030a	0.7891089
89	0x3f589366	0.8459991
90	0x3f6ac0d7	0.917005
91	0x3f547956	0.82997644
92	0x3f841291	1.0318166
93	0x3f383dde	0.719694
94	0x3f39a429	0.72516114
95	0x3f619585	0.88118774
96	0x3f4fcfb1	0.81176287
97	0x3f4cfe48	0.800755
98	0x3f5cb829	0.86218506
99	0x3f7f853c	0.99812675
100	0x3f4a1577	0.78939
101	0x3f668f49	0.90062386
102	0x3f60adc7	0.87765163
103	0x3f8866c2	1.0656359
104	0x3f3a45fa	0.72763026
105	0x3f48fe7a	0.785133
106	0x3f5e6bcf	0.8688325
107	0x3f5b11ab	0.85573834
108	0x3f95be06	1.1698616
109	0x3f4cd823	0.800173
110	0x3f54515b	0.8293664
111	0x3f497ad1	0.7870303
112	0x3f34063e	0.70322025
113	0x3f8f3075	1.1186663
114	0x3f9835a4	1.189137
115	0x3f7d62f2	0.98979104
116	0x3f5ec13a	0.8701359
117	0x3f61e8dc	0.8824594
118	0x3f4b403c	0.7939489
119	0x3f566d61	0.8376065
120	0x3f618ec9	0.881085
121	0x3f6192de	0.88114727
122	0x3f76cb78	0.9640422
123	0x3f699059	0.9123588
124	0x3f6ee386	0.93315923
125	0x3f6a77b8	0.91588926
126	0x3f6e2810	0.9302988
127	0x3f6c8795	0.9239438

bn2.bias f4 [128]
0	0xb9a8c9c2	-0.00032193778
1	0xbc36fe05	-0.011168961
2	0x3c230a4d	0.009951186
3	0x3e05b7f7	0.13058458
4	0x3dcc742f	0.09983098
5	0xbebbeb53	-0.36702976
6	0xbe275eb6	-0.16344723
7	0x3da36800	0.07978821
8	0x3d5c201d	0.053741563
9	0x3dc9f547	0.09861236
10	0xbd18c5a8	-0.037297875
11	0x3dcbe48f	0.099557035
12	0x3e99a6ca	0.30010062
13	0xbc986b70	-0.018605918
14	0x3dc72e15	0.09725586
15	0xbe7b48a9	-0.24539436
16	0x3cb9b5e4	0.02266974
17	0xbd4700d0	-0.04858476
18	0xbda1d8fc	-0.079027146
19	0xbd998ff3	-0.07498159
20	0xbdc7740e	-0.097389325
21	0xbd427cb5	-0.04748221
22	0x3df82744	0.12116864
23	0x3da77e38	0.08178371
24	0x3d6b7b03	0.05749036
25	0xbdeeb2ea	-0.11655219
26	0xbe1dfc23	-0.15428214
27	0x3d822ea7	0.063565545
28	0x3b933ba7	0.004493195
29	0xbd62bb85	-0.055354614
30	0xbafbb57d	-0.0019203868
31	0x3cf1506c	0.029457293
32	0xbcc76583	-0.024340397
33	0x3d2944ca	0.041325368
34	0x3dcb9090	0.099396825
35	0x3db17c74	0.08666316
36	0x3dc09ddd	0.0940511
37	0x3dbdb65c	0.09263298
38	0xbde93c2d	-0.11388431
39	0xbb0d6207	-0.0021573321
40	0xbcbbf2ca	-0.02294292
41	0x3e0d0960	0.13773108
42	0x3d40080a	0.046882667
43	0x3d4714d2	0.04860384
44	0xbce1e560	-0.027575195
45	0x3e37459c	0.17897648
46	0xbd2f7940	-0.042840242
47	0x3d9998d4	0.07499853
48	0x3dae75dd	0.085185744
49	0x3bbd18b8	0.005770769
50	0xbe0b6090	-0.13611054
51	0x3e3a520f	0.18195365
52	0x3b210285	0.0024568152
53	0xbe0fa3b0	-0.14027286
54	0xbdc641fd	-0.09680555
55	0xbdd01cf9	-0.10161776
56	0x3dd11dad	0.10210738
57	0x3e55d75b	0.20882933
58	0x3e265aa4	0.16245514
59	0x3c72f379	0.014828556
60	0xbdd9585b	-0.106125556
61	0xbe65ff40	-0.22460651
62	0x3d211352	0.039325066
63	0x3d7986fa	0.06091974
64	0x3df0d4a1	0.11759306
65	0x3d8dc865	0.06922988
66	0xbd8089d1	-0.062762864
67	0x3bbe24bc	0.005802719
68	0xbd7567ce	-0.05991345
69	0x3dc1157b	0.09427925
70	0xbd207fb6	-0.039184295
71	0x3d3a5762	0.04549349
72	0xbd2b53d6	-0.041828
73	0xbd8a5b26	-0.067556664
74	0xbd91b2f0	-0.07114208
75	0xbcf8e95e	-0.030384716
76	0xbe6ba34e	-0.23011515
77	0x3dd7d741	0.10539103
78	0x3e2bc172	0.16773012
79	0xbbfe85d2	-0.0077674175
80	0xbdf13e64	-0.11779478
81	0x3dd36b77	0.10323232
82	0xbd72cb07	-0.059275653
83	0x3d94cfb2	0.07266177
84	0xbd4ba6fa	-0.049719788
85	0xbe6d168e	-0.23153135
86	0x3dc7df6a	0.0975941
87	0xbdcbb76a	-0.09947093
88	0x3e3c81c9	0.18408884
89	0x3e460dda	0.19341221
90	0xbd0771c1	-0.03306747
91	0x3d1f7d98	0.038938135
92	0xbe6563ad	-0.22401305
93	0xbdc6625f	-0.096867315
94	0xbcd8a717	-0.026446862
95	0x3d9aa8fd	0.07551763
96	0x3d6e0c08	0.058116943
97	0x3da77438	0.08176464
98	0x3e1faa90	0.15592408
99	0x3c938891	0.018009456
100	0x3d234c4c	0.039867684
101	0x3dad9519	0.08475704
102	0xbd8960f7	-0.06707948
103	0x3d2e031b	0.04248343
104	0xbde25062	-0.11050488
105	0x3cea76f3	0.028621173
106	0xbc17d1d6	-0.009266337
107	0x3e1f954a	0.15584293
108	0x3da09756	0.07841365
109	0xbd9ef715	-0.07761971
110	0xbe40f944	-0.18845087
111	0xbd465aa8	-0.0484263
112	0xbda45eb0	-0.08025873
113	0x3d98420a	0.07434471
114	0x3ce599aa	0.028027374
115	0x3e075ccd	0.13218994
116	0xbe3972b7	-0.18110166
117	0x3caf3ddf	0.021391807
118	0x3e4acbdb	0.19804327
119	0x3e177c32	0.1479347
120	0xbea9f6af	-0.33196017
121	0x3d232a7f	0.03983545
122	0x3e98ed61	0.29868606
123	0xbe60413b	-0.21899883
124	0x3cb92c0d	0.022604013
125	0x3d91440c	0.07093057
126	0xbe134b7d	-0.14384265
127	0xbddd507f	-0.10806369

bn2.running_mean f4 [128]
0	0x3f5f3730	0.87193584
1	0x3fe8ca12	1.8186667
2	0x3e401c63	0.18760829
3	0x3fa13183	1.2593235
4	0x3ffff341	1.999611
5	0x3fcb9035	1.5903383
6	0x3fa77bcd	1.3084656
7	0x3e041e3c	0.12902158
8	0x3f7cc79c	0.9874208
9	0x3ff6017a	1.9219201
10	0x3efda830	0.4954238
11	0x3e878064	0.26465142
12	0x3f4b04e5	0.79304343
13	0x3fbf4988	1.4944315
14	0x3ece7bc7	0.4032881
15	0x3fd2683b	1.6438059
16	0x3f49ea9b	0.78873605
17	0x401ee690	2.4828224
18	0x3f94fda8	1.163991
19	0x3fad7ea9	1.3554279
20	0x3ebe22fe	0.37136072
21	0x3ef3a3fc	0.47586048
22	0x3f09ec8e	0.5387658
23	0x3f3f22c8	0.74662447
24	0x3eb2a786	0.34893435
25	0x3e6cdcb0	0.2313106
26	0x3f345554	0.704427
27	0x3ff51aec	1.9148841
28	0x3ebb4c9c	0.36581886
29	0x3f3d117a	0.7385479
30	0x3ec9ec30	0.3943801
31	0x3e28bb0e	0.16477606
32	0x3f0fed78	0.56221724
33	0x3f0193ba	0.5061604
34	0x3eb9f67c	0.36320865
35	0x3f12c2f5	0.5732873
36	0x3f211d6f	0.6293554
37	0x3e624fc2	0.22100738
38	0x3f5cdcb9	0.86274296
39	0x3f3816ca	0.71909773
40	0x400f2542	2.236649
41	0x3f751fc3	0.9575159
42	0x3e96705a	0.29382592
43	0x3fe28b34	1.7698731
44	0x3e31a4aa	0.1734797
45	0x3f2efd4e	0.6835526
46	0x3ecde371	0.40212587
47	0x3fa8337e	1.3140714
48	0x3f50c2cb	0.8154723
49	0x354fe438	7.744561e-07
50	0x3f531595	0.82454807
51	0x3f4b845a	0.7949883
52	0x3e25f700	0.16207504
53	0x3f657b98	0.89641714
54	0x3ec1ae75	0.37828413
55	0x3e943edb	0.28954205
56	0x3f5c7a3c	0.86124015
57	0x3f9c7f6e	1.2226388
58	0x3efdc64b	0.49565348
59	0x3f980103	1.1875309
60	0x3e4a98bd	0.19784828
61	0x3f21c892	0.6319667
62	0x3f512268	0.81693125
63	0x403cc327	2.9494112
64	0x3f81bcef	1.0135783
65	0x3fb3e221	1.4053384
66	0x3ffc36d8	1.9704237
67	0x3f8c26fb	1.0949396
68	0x3f54ac54	0.8307545
69	0x3ecd776f	0.40130183
70	0x3f709072	0.93970406
71	0x3f4b149c	0.7932832
72	0x3ef6c360	0.48195934
73	0x3e6cf675	0.23140891
74	0x3fb51f66	1.4150207
75	0x3f2e1a34	0.6800873
76	0x3f493939	0.7860294
77	0x3eaa38b8	0.33246398
78	0x3e7b57c0	0.24545193
79	0x3fb3bc29	1.4041797
80	0x3fdedf1c	1.7411838
81	0x3f068b24	0.5255606
82	0x3f7c2cb8	0.98505735
83	0x3e16f4cd	0.14741822
84	0x3f76f118	0.9646163
85	0x3f42c319	0.76078945
86	0x3fa4ef31	1.2885495
87	0x3f6010fe	0.8752593
88	0x3e8f5c17	0.27999946
89	0x3e86bbfe	0.26315302
90	0x3eeaf0b6	0.45886773
91	0x3eb141af	0.34620425
92	0x3f93ab4e	1.1536653
93	0x3fb91622	1.4459879
94	0x3edce71e	0.43145078
95	0x3fb5a474	1.4190812
96	0x3f11554d	0.56770784
97	0x3f01f98c	0.50771403
98	0x3f0144a4	0.5049536
99	0x3fb97b1c	1.4490695
100	0x3ed07318	0.4071281
101	0x3fa60a56	1.2971904
102	0x3f510f75	0.8166421
103	0x3f8f9c8c	1.1219649
104	0x3efb92a1	0.49135306
105	0x3f48f565	0.7849944
106	0x3fdc0a88	1.7190714
107	0x3f92747f	1.1441802
108	0x3eecd12e	0.4625334
109	0x402e58b5	2.7241642
110	0x3fd8cb36	1.6937015
111	0x3fb1b8fe	1.388458
112	0x3f25bb61	0.6473904
113	0x3f26c707	0.6514744
114	0x3f1011d8	0.5627723
115	0x40250105	2.5781872
116	0x3f97a486	1.1847084
117	0x3ecd10c2	0.40051848
118	0x3eb55e56	0.35423535
119	0x3f8200f4	1.0156541
120	0x3fdd92cc	1.7310424
121	0x3f19ead6	0.60123956
122	0x3fdb3aeb	1.7127355
123	0x3ec5ae4b	0.38609537
124	0x3f8309ca	1.0237362
125	0x3e62e287	0.22156726
126	0x3f82f39d	1.0230595
127	0x3ef951b9	0.48695162

bn2.running_var f4 [128]
0	0x40560e2e	3.3446155
1	0x411a554d	9.645825
2	0x3f8d0e01	1.1019899
3	0x40a75d89	5.230168
4	0x415781a0	13.469147
5	0x410737cf	8.451125
6	0x40c03989	6.0070233
7	0x3fa26150	1.2685947
8	0x4056e391	3.3576396
9	0x416e55c5	14.89594
10	0x3fcc2459	1.5948592
11	0x3fed9838	1.8562078
12	0x402cf2cc	2.7023191
13	0x4183ffe5	16.499949
14	0x3f97fdb8	1.1874304
15	0x40fcdbb2	7.9018183
16	0x40cad8d9	6.3389707
17	0x41614219	14.078637
18	0x40d8c227	6.7737
19	0x40ae9391	5.4555135
20	0x3fdd9325	1.731053
21	0x4074239d	3.8146737
22	0x4004488d	2.0669281
23	0x4021e737	2.5297372
24	0x3fe9cd0a	1.8265698
25	0x3f6ab75d	0.9168604
26	0x405f29a3	3.4869163
27	0x415947c2	13.580019
28	0x3f9eea4b	1.241525
29	0x4064fe7e	3.578033
30	0x3fc423bc	1.5323405
31	0x3f8a019e	1.0781744
32	0x40026e3b	2.037978
33	0x3fc3eddf	1.5306967
34	0x3fd5f747	1.6716088
35	0x400cf05e	2.2021708
36	0x4042290b	3.033755
37	0x3fa54b8b	1.2913679
38	0x4050db3c	3.263381
39	0x4056314e	3.3467593
40	0x40ebca70	7.3684616
41	0x409c6b81	4.888123
42	0x401dc19f	2.4649427
43	0x412590c5	10.347844
44	0x3f29855b	0.6621911
45	0x400ea870	2.2290306
46	0x4009c59f	2.1526868
47	0x40bec764	5.9618397
48	0x409c3578	4.881527
49	0x34450c73	1.8351584e-07
50	0x405169dc	3.2720861
51	0x4025753c	2.5852804
52	0x3f2bc704	0.6710055
53	0x40b0f5e7	5.5300174
54	0x3f8049d1	1.0022527
55	0x3f5f01e0	0.87112236
56	0x40459886	3.0874343
57	0x40b9b372	5.803155
58	0x40767869	3.8510993
59	0x40d804dc	6.750593
60	0x3f830cab	1.0238241
61	0x4069e56d	3.654628
62	0x40893c3e	4.288604
63	0x41493c02	12.57715
64	0x40f0089c	7.501051
65	0x40e48d58	7.142254
66	0x4121066c	10.064068
67	0x4074206f	3.8144796
68	0x4085f348	4.1859474
69	0x3fe25bc1	1.7684251
70	0x405f292d	3.4868882
71	0x4087d55b	4.2447944
72	0x4017dd60	2.3728867
73	0x3f31b895	0.69422275
74	0x40b501db	5.6564765
75	0x4014dca3	2.3259666
76	0x400fa4bb	2.2444293
77	0x3f825e81	1.018509
78	0x4008d84c	2.1382017
79	0x40ab6531	5.3561025
80	0x40dba66e	6.864066
81	0x40310da3	2.7664573
82	0x407b3a43	3.925431
83	0x3f67dc35	0.90570384
84	0x40e375bc	7.108122
85	0x4078d891	3.8882182
86	0x40c29094	6.0801487
87	0x40bd935e	5.924239
88	0x3f4dc714	0.80381894
89	0x3fe0a107	1.7549142
90	0x401b9568	2.430994
91	0x402c38ef	2.690975
92	0x4074e6f6	3.8265967
93	0x4101216d	8.070661
94	0x3fb3b13e	1.4038465
95	0x409015ad	4.502646
96	0x402da863	2.7134025
97	0x3fba6bc0	1.4564133
98	0x3fd2e973	1.6477493
99	0x40f40670	7.625786
100	0x407beda6	3.93638
101	0x408941f5	4.2893014
102	0x40588246	3.3829513
103	0x40a3c5e6	5.1179075
104	0x40282567	2.6272829
105	0x4079e422	3.9045491
106	0x410b9c32	8.725634
107	0x4083afd0	4.1152115
108	0x404b00bc	3.1719198
109	0x40eb532d	7.3539033
110	0x40c75077	6.2285724
111	0x40b9a68e	5.8015814
112	0x407916bb	3.8920124
113	0x40528ea9	3.2899573
114	0x4072b925	3.7925503
115	0x4116e721	9.431428
116	0x40cdaf45	6.427645
117	0x3fd2d2cc	1.647058
118	0x3f986bb6	1.1907871
119	0x40924552	4.570962
120	0x411c34de	9.762907
121	0x401129d6	2.2681785
122	0x41179595	9.474019
123	0x3f845dd7	1.0341138
124	0x408d01e9	4.406483
125	0x3fc8f842	1.5700762
126	0x4089f749	4.311436
127	0x3fcd39ec	1.6033301
