results/arousal/classification_3/20251209_051520_423059/best_model.pt (torch, 353141 bytes, 22 tensors)

conv1.weight f4 [128, 1, 3]
0	0x3eb85f78	0.36010337
1	0x3f0a2af7	0.5397181
2	0xbe0db550	-0.13838696
3	0x3ee1af7d	0.440792
4	0xbe897e9e	-0.26854414
5	0x3c3b08e4	0.011415694
6	0xbe5c0632	-0.21486738
7	0x3e723049	0.23651232
8	0x3f02717b	0.5095441
9	0xbec6be99	-0.3881729
10	0x3f08b757	0.53404754
11	0x3dea3935	0.114366926
12	0x3f1078b6	0.5643419
13	0xbd2d756f	-0.04234832
14	0x3e8b0eb9	0.2715967
15	0xbe260a31	-0.16214825
16	0x3f103c98	0.5634246
17	0xbcdebb85	-0.027189026
18	0xbe7f57c2	-0.2493582
19	0x3e2ee9fe	0.17081448
20	0xbea861f3	-0.3288723
21	0xbd589a8f	-0.052881774
22	0xbe9a3916	-0.30121678
23	0x3ec8c092	0.3920942
24	0xbdf432a4	-0.119237214
25	0xbde45f17	-0.111509494
26	0xbc59fcb4	-0.013304878
27	0xbe5337eb	-0.206268
28	0x3e15847b	0.14601319
29	0xbf0b305c	-0.54370666
30	0x3ef99ed3	0.48753986
31	0xbf248b9b	-0.6427552
32	0x3e98e64e	0.2986321
33	0x3e35df94	0.1776107
34	0xbde360fa	-0.11102481
35	0x3ec5ba83	0.3861886
36	0x3d367cf9	0.044552777
37	0x3ee4053b	0.4453524
38	0xbe1ee252	-0.15516022
39	0xbe0e203c	-0.13879484
40	0x3ea6e3e4	0.32595742
41	0xbe4196b1	-0.1890514
42	0x3e8192dc	0.25307357
43	0x3ec3a9d0	0.38215494
44	0x3ecc9636	0.39958352
45	0xbe70e149	-0.2352344
46	0x3ec12ecd	0.3773102
47	0x3e21b669	0.1579224
48	0x3ec2b95a	0.38032037
49	0xbe9edafa	-0.3102644
50	0xbf0e6b73	-0.55632704
51	0xbe524ee4	-0.20537907
52	0xbeef30e7	-0.46716997
53	0x3edc69a6	0.43049353
54	0x3dea0767	0.11427193
55	0x3e82446a	0.2544282
56	0x3ea72d35	0.32651678
57	0x3d520a1d	0.051279176
58	0x3ee8aae9	0.45442894
59	0xbeedd9f5	-0.4645535
60	0x3d89cf16	0.06728952
61	0xbf057eda	-0.52146685
62	0x3e662aab	0.22477214
63	0xbe48caa6	-0.19608554
64	0x3e837122	0.2567225
65	0xbe482421	-0.19545032
66	0x3f0736c2	0.5281793
67	0xbe9eec78	-0.31039786
68	0xbea29a2c	-0.3175825
69	0xbedc6351	-0.43044522
70	0x3f073d53	0.5282795
71	0x3e37b500	0.1794014
72	0x3f2c4acc	0.6730163
73	0xbef127a3	-0.47100553
74	0xbee2216a	-0.44166118
75	0xbee36cad	-0.4441885
76	0xbed8a3db	-0.42312512
77	0x3e7a1055	0.24420293
78	0x3de8fc4a	0.11376245
79	0x3f0a1082	0.5393144
80	0xbe8c0f56	-0.2735545
81	0xbea49c7f	-0.32150647
82	0x3eb2ee17	0.34947273
83	0xbe6b17a2	-0.22958234
84	0x3e8488d8	0.25885653
85	0xbe3cc02a	-0.1843268
86	0x3ec743c7	0.38918898
87	0xbecb63b8	-0.39724517
88	0xbe65be7e	-0.22435948
89	0x3e9321f4	0.28736842
90	0x3e27e09c	0.16394275
91	0xbe7d74c3	-0.24751572
92	0x3e9b431e	0.30324644
93	0x3eed88ad	0.46393338
94	0xbef4c4c7	-0.4780638
95	0xbe6a2a71	-0.22867753
96	0x3f17e83b	0.5933873
97	0xbe7db5dd	-0.24776407
98	0xbe3f486a	-0.18679968
99	0xbf08b5b7	-0.53402275
100	0xbec3ecfe	-0.38266748
101	0x3e244716	0.16042742
102	0xbe1e0ad5	-0.1543382
103	0xbf01ba94	-0.5067532
104	0x3e1cae2b	0.15300815
105	0xbea1b24e	-0.31581348
106	0xbf01abf7	-0.5065302
107	0xbe2d4b4a	-0.16923252
108	0xbeff4f57	-0.4986522
109	0xbe92f8ab	-0.28705344
110	0x3f20e0fc	0.628433
111	0x3df77c65	0.12084273
112	0x3e3ad30d	0.18244572
113	0xbf079e1b	-0.52975625
114	0xbeb4c816	-0.35308903
115	0xbe854a12	-0.26033074
116	0x3e3c26b5	0.1837414
117	0xbe8aca87	-0.2710764
118	0xbe097589	-0.13423742
119	0xbe4aad2e	-0.19792625
120	0x3e19c0b3	0.15014915
121	0xbea1bc1a	-0.31588823
122	0x3d25752f	0.040394958
123	0xbee0cca5	-0.4390613
124	0xbe90e6d3	-0.28301105
125	0xbe875487	-0.26431677
126	0xbdf839a9	-0.12120373
127	0xbed9bd14	-0.42527068
128	0x3f135765	0.5755523
129	0xbe0d67cc	-0.13809127
130	0x3ee854ac	0.453771
131	0x3e4871ad	0.19574614
132	0xbf0f8ec0	-0.56077194
133	0x3ede80c5	0.43457618
134	0xbe047600	-0.12935638
135	0xbe121580	-0.14266014
136	0xbeb0be6f	-0.3452029
137	0xbef8c70c	-0.4858936
138	0x3e44d573	0.1922205
139	0xbe54543a	-0.20735255
140	0x3e6e9344	0.23298365
141	0xbec55191	-0.38538793
142	0x3f001f4d	0.5004776
143	0xbee692d6	-0.45033902
144	0xbe12ad64	-0.14323956
145	0xbc9ebade	-0.019376215
146	0x3ec6549f	0.38736436
147	0x3e2ffaa8	0.17185462
148	0x3f040a0b	0.51577824
149	0xbf0a1869	-0.53943497
150	0x3e241d07	0.16026698
151	0xbea3bb49	-0.31978825
152	0xbd9bd438	-0.07608837
153	0xbeb9f809	-0.36322048
154	0x3f27e8f3	0.6558983
155	0xbea5f037	-0.32409832
156	0x3e883197	0.26600334
157	0x3d2ba3d9	0.041904304
158	0x3e9e519c	0.30921638
159	0xbedd3486	-0.43204135
160	0x3ed607db	0.41802868
161	0x3dfa8bea	0.12233718
162	0x3e012349	0.12611116
163	0xbf252ba1	-0.645197
164	0x3e2659cd	0.16245194
165	0xbbc80e5a	-0.0061052265
166	0xbe9d8840	-0.30768013
167	0x3f08871e	0.5333117
168	0x3e488163	0.19580607
169	0xbecfcd11	-0.4058614
170	0xbe88bb2a	-0.26705295
171	0xbd86e349	-0.0658632
172	0x3eb81f83	0.35961542
173	0xbe53420a	-0.2063066
174	0xbe5016ff	-0.20321272
175	0xbe0fa8eb	-0.14029281
176	0xbee9b0cd	-0.456427
177	0x3e3c3532	0.18379667
178	0x3eb02ca5	0.3440906
179	0xbf271592	-0.6526729
180	0x3e0d20f2	0.13782099
181	0x3ee8ed46	0.45493525
182	0xbcc90ad9	-0.024541305
183	0xbe81f0b8	-0.25378966
184	0x3e9af717	0.3026664
185	0x3eeff2a7	0.46864817
186	0x3e90b806	0.282654
187	0xbda76b37	-0.081747465
188	0xbda9e3b9	-0.08295388
189	0x3e5460dc	0.20740074
190	0xbe1c9ccf	-0.15294193
191	0xbe28bb70	-0.16477752
192	0x3e60e660	0.21962881
193	0x3f120aea	0.57047904
194	0xbe16686f	-0.14688276
195	0x3d3c6589	0.04599527
196	0xbde0dbac	-0.10979399
197	0xbe34d82a	-0.17660585
198	0x3e15aa6e	0.14615795
199	0x3e2f4f4d	0.17120095
200	0xbf1e37da	-0.6180397
201	0xbe24d713	-0.1609767
202	0x3ebb3c07	0.36569235
203	0x3ea1cf88	0.31603646
204	0xbd04dddd	-0.032438148
205	0xbed04ee5	-0.40685192
206	0xbe89cbe3	-0.26913366
207	0xbf021498	-0.50812674
208	0xbe59310e	-0.21210119
209	0x3e7dd7aa	0.247893
210	0x3e8d925e	0.27650732
211	0x3e988aca	0.29793388
212	0xbf0ea2c3	-0.55717105
213	0xbeae8e89	-0.3409312
214	0xbd5ba467	-0.053623583
215	0x3f1d22be	0.6138114
216	0x3e202ef7	0.15642916
217	0xbe430c19	-0.19047584
218	0x3ec06717	0.3757865
219	0xbe3d6954	-0.1849721
220	0xbec4fff8	-0.3847654
221	0x3ec4377b	0.38323578
222	0xbe065968	-0.13120043
223	0x3d8dd37b	0.06925102
224	0xbf2a1ce1	-0.66450316
225	0x3eda57be	0.42645067
226	0x3ebb2ed0	0.36559153
227	0x3cc9504e	0.024574425
228	0xbeacadfe	-0.33726496
229	0xbf25043a	-0.64459574
230	0xbe5a4e53	-0.21318941
231	0x3ed36ac8	0.41292405
232	0x3e1bbb82	0.15208247
233	0x3eec7b34	0.46187747
234	0x3e89af26	0.2689144
235	0x3e8b3d44	0.2719518
236	0xbd47314a	-0.04863099
237	0xbebbe0b6	-0.36694878
238	0xbe82d84b	-0.25555643
239	0xbf08d15c	-0.5344446
240	0x3e8cfcf8	0.2753675
241	0xbebba984	-0.36652768
242	0xbd010a8e	-0.031504206
243	0xbe973099	-0.29529265
244	0xbcbed771	-0.02329609
245	0xbeab849d	-0.33499613
246	0xbeb9892c	-0.36237466
247	0x3e5ac4ee	0.21364185
248	0xbe370967	-0.1787468
249	0x3eee37c7	0.4652693
250	0xbd51a713	-0.051184725
251	0xbed3f4f0	-0.4139781
252	0xbd04ea15	-0.0324498
253	0xbece8f05	-0.4034349
254	0xbd1b98fe	-0.0379877
255	0xbf156efb	-0.5837247

conv1.bias f4 [128]
0	0xbdc97872	-0.09837426
1	0x3f072828	0.5279565
2	0xbf1ba331	-0.60795885
3	0xbea95463	-0.33072194
4	0x3db781da	0.08960314
5	0xbe04f442	-0.12983802
6	0xbe8ed767	-0.27898714
7	0xbeaf97e4	-0.3429557
8	0x3dc9bacc	0.09850082
9	0x3e4fcea2	0.20293668
10	0x3e3b4304	0.18287283
11	0xbedc1638	-0.42985702
12	0xbf0f6a07	-0.5602116
13	0x3e0188e0	0.1264987
14	0x3cf78e54	0.030219235
15	0xbeb57816	-0.3544318
16	0xbd12520c	-0.035722777
17	0x3eff604c	0.49878156
18	0xbd902f1e	-0.07040237
19	0x3de35ef8	0.11102098
20	0xbdab326e	-0.08359228
21	0xbf0ee690	-0.5582056
22	0xbf1536ed	-0.58286935
23	0xbe5bb044	-0.21453959
24	0x3cbc1eb4	0.02296386
25	0x3d6d59ef	0.057947095
26	0xbea0f0d5	-0.3143374
27	0xbed8c5e9	-0.42338493
28	0x3ee9b562	0.45646197
29	0x3ea63cbc	0.32468212
30	0x3efa8f1e	0.48937315
31	0xbe5a415a	-0.21313992
32	0xbe5762b9	-0.21033753
33	0x3d453a23	0.048151147
34	0xbeb08804	-0.34478772
35	0xbef921cc	-0.48658597
36	0xbdf16594	-0.117869526
37	0xbec4cc4c	-0.38437116
38	0xbefa6755	-0.4890696
39	0x3d6c7a45	0.057733793
40	0x3ee87c17	0.45407173
41	0xbd09d8b6	-0.033653937
42	0xbe0d8548	-0.13820374
43	0xbf1e568f	-0.6185083
44	0xbdddac2c	-0.10823855
45	0x3de632f0	0.11240184
46	0x3eeea94c	0.46613538
47	0xbe2fc9bf	-0.17166804
48	0xbea43710	-0.3207326
49	0x3eccb925	0.39985004
50	0xbf043814	-0.5164807
51	0x3e9ce6c4	0.3064481
52	0xbeb343f4	-0.35012782
53	0x3e8431a5	0.25819126
54	0x3e1073ae	0.14106628
55	0x3e0b830e	0.13624212
56	0xbe4f9c23	-0.20274405
57	0x3f0362a4	0.5132239
58	0xbe125e12	-0.14293697
59	0x3ed9435e	0.4243421
60	0x3e9ae852	0.3025537
61	0xbe35f568	-0.17769396
62	0xbf0660c1	-0.52491385
63	0x3f003797	0.50084823
64	0x3e97f31e	0.2967767
65	0xbdc99f83	-0.098448776
66	0xbd325998	-0.043542475
67	0xbf2fb188	-0.68630266
68	0xbf0b8f5f	-0.5451564
69	0x3d9b63a7	0.075873666
70	0x3e86f8de	0.26361746
71	0x3dc40510	0.09571278
72	0xbe22505e	-0.1585097
73	0x3f33ca30	0.7023039
74	0x3d8846b1	0.06654108
75	0xbee74123	-0.45166883
76	0xbda41e78	-0.08013624
77	0xbe3b7557	-0.1830648
78	0x3e41094c	0.18851203
79	0xbf033acb	-0.51261586
80	0x3eb40c80	0.35165787
81	0xbef5c0a8	-0.47998548
82	0xbf182314	-0.59428525
83	0xbeb75fa5	-0.35815158
84	0x3efacdfe	0.48985285
85	0x3ed3464e	0.41264576
86	0x3e86662a	0.2624982
87	0x3ed7c3fa	0.42141706
88	0x3e839011	0.2569585
89	0x3d256cc1	0.04038692
90	0xbed96eea	-0.42467433
91	0x3dda2eac	0.10653433
92	0xbec276d2	-0.37981278
93	0xbf107f21	-0.56443983
94	0xbe981155	-0.29700723
95	0x3ed5d068	0.41760564
96	0x3e4686f6	0.19387421
97	0xbe55d830	-0.2088325
98	0xbebd6927	-0.36994287
99	0x3d8c5a95	0.06853215
100	0xbeee56c1	-0.46550563
101	0xbef464cc	-0.47733152
102	0x3efaca9c	0.48982704
103	0xbe6ca982	-0.23111537
104	0x3f1b4816	0.6065687
105	0x3e164fda	0.14678898
106	0x3e28ac50	0.16471982
107	0x3e11e21f	0.14246415
108	0xbb323b59	-0.0027196018
109	0xbd6dbd2d	-0.05804174
110	0xbcfff0b9	-0.031242715
111	0x3d181a98	0.037134737
112	0x3ef8a3de	0.4856252
113	0x3edc1caf	0.42990634
114	0xbdd416f3	-0.1035594
115	0xbeae1303	-0.3399888
116	0xbe08d766	-0.13363418
117	0xbec8f6ad	-0.392507
118	0x3e1f866e	0.15578625
119	0x3f03f5de	0.5154704
120	0x3e783171	0.2423761
121	0x3e329c11	0.17442347
122	0xbed4f64e	-0.41594166
123	0xbef75792	-0.48308998
124	0xbe59bf43	-0.21264367
125	0xbdfe9ded	-0.12432466
126	0xbd4f2ad4	-0.050577953
127	0xbf368ad8	-0.7130561

bn1.weight f4 [128]
0	0x3f1f1e09	0.62155205
1	0x3f085e87	0.5326924
2	0x3f8f9db0	1.1219997
3	0x3f69f112	0.9138347
4	0x3f0b661f	0.544527
5	0x3f37c15b	0.7177941
6	0x3f4c8659	0.798925
7	0x3fb95f28	1.4482164
8	0xbb37e9a6	-0.002806285
9	0x3e0454b6	0.1292294
10	0x3f6fa19d	0.9360598
11	0x3fbc0737	1.4689702
12	0x3fe7424d	1.8067108
13	0x3f3040dc	0.6884897
14	0x3ede24e1	0.4338751
15	0x3f6c4cdb	0.9230477
16	0x3f2d020a	0.67581236
17	0x3f2c9fbb	0.6743123
18	0x3ebe90ba	0.37219793
19	0x3f581882	0.84412396
20	0x3f714d41	0.94258505
21	0x3f9f0c2d	1.2425591
22	0x3fb5a533	1.419104
23	0x3f4ec35b	0.8076684
24	0x3f4c7bd3	0.7987644
25	0x3eebf45a	0.46084863
26	0x3f88aa6a	1.0677006
27	0x3f825fdf	1.0185508
28	0x3eb5ecc7	0.3553221
29	0x3f0930c0	0.5359001
30	0x3f182519	0.59431607
31	0x3f47785b	0.7791802
32	0x3f7c565c	0.98569274
33	0x3ef1697f	0.471508
34	0x3f8421f3	1.032286
35	0x3f37e94c	0.7184036
36	0x3f67c9f1	0.90542513
37	0x3fa47609	1.2848521
38	0x3fa824f0	1.3136272
39	0x3b152816	0.0022759489
40	0x3f49c240	0.78812027
41	0x3e65f2ab	0.22455852
42	0x3f5f422d	0.8721035
43	0x3fca8984	1.5823216
44	0x3f494a1e	0.7862872
45	0x3e0a29a0	0.13492441
46	0x3ef9df24	0.48803055
47	0x3f3e61df	0.7436809
48	0x3f8d07eb	1.1018041
49	0x3efe65c7	0.49687025
50	0x3faa725a	1.3316147
51	0x3f4b0f06	0.793198
52	0x3f8ec140	1.1152725
53	0x3f8206c8	1.015832
54	0x3f60e910	0.87855625
55	0x3f2ed810	0.68298435
56	0x3f3a4f76	0.727775
57	0x3f2ba7c4	0.67052865
58	0x3e0878f4	0.1332739
59	0x3f77ac00	0.96746826
60	0x3e186b0b	0.14884584
61	0x3f834dde	1.0258138
62	0x3ff5143e	1.9146802
63	0x3f2ab4ec	0.66682315
64	0x3e9d7456	0.3075282
65	0x3d114450	0.03546554
66	0x3f5c1c5b	0.85980767
67	0x3fd214b5	1.6412569
68	0x3f83edd0	1.030695
69	0x3efe150d	0.49625435
70	0x3f3b23b4	0.73101354
71	0x3f468dbc	0.7756002
72	0x3f752b08	0.95768785
73	0x3f39ec8a	0.72626555
74	0x3ec26c85	0.3797342
75	0x3f8da561	1.1066095
76	0x3ed71ca3	0.42014036
77	0x3f0da2a0	0.5532627
78	0x3e2e2544	0.17006403
79	0x3f3172a7	0.6931557
80	0x3f873575	1.0563189
81	0x3f7fdfff	0.99951166
82	0x3f94f9ae	1.1638696
83	0x3f979f36	1.1845462
84	0x3e854bd8	0.26034427
85	0x3f4ebec9	0.80759865
86	0x3e60c623	0.21950583
87	0x3f5855f4	0.84506154
88	0x3f002c51	0.5006762
89	0x3f068f84	0.5256274
90	0x3faf0c92	1.3675711
91	0x3f0ed427	0.5579247
92	0x3f99fc4c	1.203012
93	0x3f8bc6aa	1.0920002
94	0x3f668d15	0.90059024
95	0x3f33de4c	0.70261073
96	0x3f5b6ca4	0.8571265
97	0x3e81f2d6	0.25380582
98	0x3f4faae9	0.81120163
99	0x3ea1ca16	0.31599492
100	0x3fce8935	1.6135622
101	0x3f759717	0.9593367
102	0x3f41ff1b	0.75779885
103	0x3f31b1ad	0.69411737
104	0x3f576b84	0.8414843
105	0x3ec61e8e	0.38695186
106	0x3f2eb686	0.6824726
107	0x3f3bec56	0.73407495
108	0x3eb39f8f	0.3508267
109	0x3f04e26d	0.51908
110	0x3f7c0354	0.9844258
111	0x3f225bbb	0.6342122
112	0x3f47d9d5	0.7806676
113	0x3e796660	0.24355459
114	0x3ea35c31	0.31906274
115	0x3f7b8160	0.98244286
116	0x3f1908a3	0.59778804
117	0x3f3867c2	0.7203332
118	0x3f4a10ce	0.7893189
119	0x3f3d5df6	0.739715
120	0x3e024eba	0.12725344
121	0x3e8c02e8	0.27345967
122	0x3f1aaf0c	0.6042335
123	0x3f76d44b	0.96417683
124	0x3f1bcc3e	0.60858524
125	0x3f76315b	0.9616906
126	0x3f724dc2	0.946499
127	0x3fc9005f	1.5703238

bn1.bias f4 [128]
0	0x3df500b8	0.11963028
1	0x3d0504e7	0.03247538
2	0x3e7ad8d9	0.24496783
3	0x3e5c813e	0.21533677
4	0x3e0e47c3	0.13894562
5	0xbd68f414	-0.056873396
6	0xbcb56a2b	-0.022145351
7	0x3e22c49f	0.15895317
8	0x3b46c297	0.0030328387
9	0xbd39c91c	-0.04535781
10	0xbdd81b52	-0.10552086
11	0x3e721cf4	0.23643857
12	0x3e876166	0.26441497
13	0xbe6e103e	-0.23248383
14	0x3d143973	0.0361876
15	0x3eab7b44	0.33492482
16	0xbe03f505	-0.12886436
17	0x3e257ae6	0.16160163
18	0x3dc7d19f	0.09756779
19	0x3d87bbee	0.066276416
20	0xbd428f41	-0.0474999
21	0x3e6f1117	0.23346363
22	0x3e856068	0.26050115
23	0x3cab0627	0.020876957
24	0x3daa4879	0.08314604
25	0x3da2a153	0.079409264
26	0x3e122eb1	0.14275624
27	0x3e9a1d5e	0.3010053
28	0x3d6ca5b6	0.05777522
29	0x3db25c9d	0.08709071
30	0x3dfae538	0.12250751
31	0xbd659016	-0.056045614
32	0x3e51b03d	0.20477386
33	0x3e652af8	0.22379673
34	0x3e7e755a	0.24849454
35	0xbd31d101	-0.043412212
36	0x3e59395f	0.21213292
37	0x3e5fdbb9	0.21861161
38	0x3e87197b	0.26386628
39	0x3c552594	0.013009448
40	0x3d93679b	0.071974955
41	0x3d884dbd	0.066554524
42	0x3e20898d	0.15677471
43	0x3e9e81b8	0.30958343
44	0xbe48a1db	-0.19592993
45	0x3ce609aa	0.02808078
46	0x3bd2616d	0.0064203055
47	0x3d0c2992	0.034219332
48	0x3e10d752	0.14144638
49	0x3bcce56e	0.006252936
50	0x3e8c97e2	0.27459627
51	0x3d3bb1a1	0.045823697
52	0x3e19f5a7	0.15035115
53	0xbd2f6901	-0.04282475
54	0x3db0c009	0.08630378
55	0x3db175a5	0.08665017
56	0x3e0fb2e4	0.14033085
57	0xbe225cad	-0.15855666
58	0xbacae10e	-0.0015478448
59	0x3ddfacd0	0.10921633
60	0x3debab89	0.11507327
61	0x3e632c15	0.22184785
62	0x3eaedb42	0.34151655
63	0x3e3fcbe7	0.18730126
64	0x3da58393	0.080817364
65	0xbf12377d	-0.5711592
66	0xbd018dcb	-0.031629365
67	0x3eb31a5f	0.34981057
68	0x3e38767e	0.18013951
69	0x3cd22be8	0.025655702
70	0x3de830c8	0.11337429
71	0x3e9ec474	0.31009257
72	0xbcd16ce1	-0.025564613
73	0x3e39f031	0.18158032
74	0x3dba10d5	0.09085242
75	0x3d64d461	0.055866603
76	0x3e24aeb0	0.16082263
77	0x3c570743	0.01312429
78	0x3d7b237d	0.06131314
79	0x3e4425e5	0.1915508
80	0x3e571e13	0.21007566
81	0x3d781a2c	0.060571834
82	0x3e3120e9	0.1729771
83	0x3ea0f6f8	0.31438422
84	0x3dc7db9c	0.09758684
85	0xbc4d8b36	-0.0125453975
86	0x3dcdec41	0.100548275
87	0x3cda6b77	0.026662571
88	0x3e69804a	0.22802845
89	0xbc3b7880	-0.011442304
90	0x3e59c80d	0.2126772
91	0x3e3b64a8	0.18300116
92	0x3e4b4a4d	0.19852562
93	0x3e11ff0d	0.1425745
94	0xbdb4f6e8	-0.08836156
95	0x3e606d54	0.21916705
96	0x3e606598	0.21913755
97	0x3d8308a5	0.06398133
98	0x3e322e78	0.17400539
99	0x3d4b9c9b	0.049709897
100	0x3e57b017	0.21063267
101	0x3e4ed13e	0.20197007
102	0x3e0b66d1	0.1361344
103	0x3e1fe18d	0.15613385
104	0x3df8da95	0.12151066
105	0x3dfa167d	0.122113205
106	0xbd02df6d	-0.031951357
107	0xbcda4e4f	-0.026648669
108	0x3e5fdd85	0.21861847
109	0x3d8303cc	0.063972086
110	0x3e253f27	0.16137372
111	0x3da3f24a	0.08005197
112	0xbd56ddd0	-0.05245763
113	0x3e517015	0.20452912
114	0x3dba2191	0.090884335
115	0x3d077093	0.033066344
116	0x3e166577	0.14687143
117	0x3dded745	0.10880903
118	0x3e84e770	0.25957823
119	0x3de6c972	0.112688914
120	0x3cd70777	0.026248677
121	0x3d671917	0.056420412
122	0x3d8f3e04	0.069942504
123	0x3e54c8bd	0.207797
124	0x3e0e41d9	0.13892306
125	0x3ea682df	0.32521722
126	0x3d840c4a	0.064476565
127	0x3e83085b	0.25592312

bn1.running_mean f4 [128]
0	0x3e7951fa	0.24347678
1	0x3f0a1d2c	0.5395076
2	0x3d7d9e4e	0.06191855
3	0x3daa81f3	0.08325567
4	0x3e99bc8b	0.3002666
5	0x3e0b5dee	0.1361005
6	0x3d1e5e9d	0.03866445
7	0x3d002d47	0.03129318
8	0x3e12a2fa	0.14319983
9	0x3ea9a435	0.33133093
10	0x3e9e4052	0.30908448
11	0x3d1a6398	0.037692636
12	0x3cd0a315	0.025468389
13	0x3e31d844	0.17367655
14	0x3eae2f00	0.34020233
15	0x3d4c2828	0.049842983
16	0x3e773c78	0.24144161
17	0x3f0ce649	0.5503889
18	0x3e451869	0.19247593
19	0x3e6fa270	0.23401809
20	0x3df5808e	0.119874105
21	0x3aa5af7f	0.0012640803
22	0x3d1e98ab	0.038719814
23	0x3e011e03	0.12609105
24	0x3e97b8ab	0.29633078
25	0x3e94cc54	0.2906214
26	0x3dbc8ad0	0.09206164
27	0x3c776730	0.015100285
28	0x3ef62a49	0.48079136
29	0x3ecd3229	0.40077332
30	0x3efc3c9c	0.4926499
31	0x3df25c25	0.118339814
32	0x3de97cb8	0.11400741
33	0x3e9e6f28	0.3094418
34	0x3d9091c7	0.07059055
35	0x3de9fad3	0.11424794
36	0x3e5ab9f8	0.21360004
37	0x3d1d3a94	0.038385943
38	0x3ce07186	0.027397882
39	0x3e5beafe	0.21476361
40	0x3eeb71c1	0.45985225
41	0x3e9106c4	0.28325474
42	0x3e0e223a	0.13880244
43	0x3d2e8b8c	0.04261355
44	0x3e089c14	0.13340789
45	0x3ebd5e55	0.36986032
46	0x3eef482a	0.46734744
47	0x3dee6e18	0.116420925
48	0x3d2e93ee	0.042621545
49	0x3ef30fa5	0.47472873
50	0x3b8dc15a	0.004326028
51	0x3ec5796f	0.3856921
52	0x3d9a1a01	0.07524491
53	0x3ea93403	0.33047494
54	0x3e9128c8	0.28351426
55	0x3e799b59	0.24375667
56	0x3dda0730	0.10645902
57	0x3f04b233	0.5183441
58	0x3e3310ca	0.17486873
59	0x3f0026bc	0.50059104
60	0x3ec4c954	0.3843485
61	0x3e24fe26	0.16112575
62	0x3b80ced2	0.003930905
63	0x3f027af6	0.50968874
64	0x3ed6f803	0.41986093
65	0x3d359cae	0.044338875
66	0x3e395880	0.18100166
67	0x3d18c808	0.03730014
68	0x3d393a0d	0.045221377
69	0x3e87ae07	0.2649996
70	0x3ebb7685	0.3661386
71	0x3e8de998	0.2771728
72	0x3d9c23bb	0.076240025
73	0x3f37a7a9	0.71740204
74	0x3e93598e	0.28779262
75	0x3dfa2304	0.1221371
76	0x3eaead34	0.34116518
77	0x3e760fb5	0.2402943
78	0x3e8ee77d	0.27910987
79	0x3e0a351a	0.13496819
80	0x3ec35c1c	0.3815621
81	0x3d0b42d6	0.033999287
82	0x3b772b29	0.0037714934
83	0x3d8f8238	0.07007259
84	0x3f06a057	0.5258841
85	0x3ef6328a	0.48085433
86	0x3ee1ca4b	0.4409965
87	0x3eeb3f49	0.4594672
88	0x3ec55dd8	0.3854816
89	0x3e85137b	0.25991425
90	0x3d401aaa	0.04690043
91	0x3eac87a6	0.33697242
92	0x3d7b5afa	0.06136606
93	0x3d039293	0.032122206
94	0x3d6115bc	0.05495237
95	0x3ef1c1a9	0.47218063
96	0x3e8f65a2	0.28007227
97	0x3e718b37	0.23588262
98	0x3da188f1	0.078874476
99	0x3e694677	0.22780786
100	0x3bd27680	0.0064228177
101	0x3d648024	0.055786267
102	0x3efd9bcd	0.4953293
103	0x3e1df0ee	0.15423939
104	0x3f26a928	0.6510186
105	0x3ed448a0	0.41461658
106	0x3e8a78e7	0.27045366
107	0x3e968c31	0.29403833
108	0x3ea87a2e	0.32905716
109	0x3e9f6ef5	0.3113934
110	0x3e489f0e	0.19591925
111	0x3e68313a	0.22675028
112	0x3efcfa01	0.49409488
113	0x3ee2773a	0.44231588
114	0x3e9348d0	0.2876649
115	0x3d638e9d	0.05555593
116	0x3dce2f67	0.10067635
117	0x3e193218	0.14960515
118	0x3e9a6ca5	0.30161014
119	0x3f09c000	0.53808594
120	0x3ede35ed	0.43400517
121	0x3e928234	0.28614962
122	0x3e04b92f	0.12961267
123	0x3da93c84	0.082634956
124	0x3e18fc22	0.14939931
125	0x3e1cd50a	0.15315643
126	0x3e3d58d6	0.1849092
127	0x3c5604e6	0.013062691

bn1.running_var f4 [128]
0	0x3e4faa5f	0.20279835
1	0x3df9b906	0.121934935
2	0x3d445ff5	0.047943074
3	0x3d4ecc44	0.05048777
4	0x3e5286bb	0.20559208
5	0x3d9a681f	0.07539391
6	0x3c2f1315	0.010685702
7	0x3c42be93	0.011886257
8	0x3c9c639f	0.019090472
9	0x3dfa9840	0.12236071
10	0x3e10705a	0.14105359
11	0x3c90153a	0.017588247
12	0x3c6177f0	0.0137615055
13	0x3d16acf9	0.036786053
14	0x3e9b5dd8	0.30345035
15	0x3ccef08e	0.02526119
16	0x3dfe4cc1	0.124169834
17	0x3e391d97	0.18077694
18	0x3df9101c	0.12161276
19	0x3dc7fd25	0.0976508
20	0x3d1d6627	0.0384275
21	0x399b705d	0.0002964762
22	0x3cbf26da	0.023333956
23	0x3da1b9c5	0.07896761
24	0x3e44d685	0.19222458
25	0x3e0baa82	0.13639262
26	0x3d7124ce	0.05887299
27	0x3b97a9fe	0.004628419
28	0x3e17b4c4	0.1481505
29	0x3e03ea49	0.12882341
30	0x3d9dc37c	0.07703301
31	0x3d79281b	0.060829263
32	0x3d88b03b	0.06674238
33	0x3e21e513	0.15810041
34	0x3cd65e2a	0.026167948
35	0x3d836b7b	0.06416985
36	0x3e0449b7	0.12918745
37	0x3c670d7e	0.014102338
38	0x3c10ced0	0.00883837
39	0x3d8e9667	0.06962281
40	0x3d62f7f4	0.055412248
41	0x3e1cfa5c	0.1532988
42	0x3d94ee54	0.0727202
43	0x3ce0fd83	0.027464634
44	0x3d5dd360	0.05415666
45	0x3e4beb46	0.19913968
46	0x3d78e9a2	0.060769685
47	0x3d51a5db	0.051183563
48	0x3c9c0a3e	0.019047853
49	0x3e5dd685	0.21663864
50	0x3a93a19f	0.0011263377
51	0x3e21a0b6	0.15783963
52	0x3d261161	0.040543918
53	0x3df93e70	0.12170112
54	0x3dd575e3	0.10422876
55	0x3dd47789	0.10374362
56	0x3d285bcf	0.04110318
57	0x3d9cae35	0.07650415
58	0x3da1b09a	0.07895012
59	0x3e4b4b41	0.19852926
60	0x3e44da38	0.19223869
61	0x3decd002	0.11563112
62	0x3ab2ce06	0.0013641722
63	0x3d6ac828	0.05731979
64	0x3e892436	0.2678544
65	0x3bf0deaa	0.0073507624
66	0x3d93755a	0.072001174
67	0x3ccede83	0.025252586
68	0x3c96e558	0.018419906
69	0x3ddd72e7	0.108129315
70	0x3e218f52	0.15777329
71	0x3e24e8bc	0.16104406
72	0x3cf97e2c	0.030455671
73	0x3e291b7b	0.16514389
74	0x3e08945b	0.13337843
75	0x3dcf2192	0.10113825
76	0x3e6da887	0.2320882
77	0x3e58da47	0.21177016
78	0x3dff9a4a	0.124806
79	0x3db083df	0.086189024
80	0x3d9fef3b	0.078093015
81	0x3c473cb7	0.012160472
82	0x3a59e1f4	0.00083115627
83	0x3d13d705	0.03609373
84	0x3e0829d2	0.13297203
85	0x3e275877	0.1634234
86	0x3eb0427e	0.3442573
87	0x3e07fc9c	0.13279957
88	0x3e7652e9	0.24055065
89	0x3de6e4d2	0.11274113
90	0x3ccaaeb2	0.024741504
91	0x3e86e526	0.263467
92	0x3cf13016	0.029441874
93	0x3c49cafa	0.01231646
94	0x3c8d6520	0.017260134
95	0x3e239eba	0.15978518
96	0x3dee831c	0.11646101
97	0x3e126d11	0.14299418
98	0x3d0e1592	0.03468854
99	0x3d9ab64d	0.07554302
100	0x3aad8678	0.0013238927
101	0x3cdd666b	0.027026376
102	0x3d7b5dc0	0.061368704
103	0x3de85545	0.11344389
104	0x3e867f0b	0.262688
105	0x3eca0b46	0.39461726
106	0x3da7bf71	0.081908114
107	0x3e301cda	0.17198506
108	0x3e475781	0.19466974
109	0x3e43327b	0.19062226
110	0x3dd9cdba	0.10634942
111	0x3dbc87f3	0.09205618
112	0x3da3f6aa	0.08006032
113	0x3d7f2e83	0.062300216
114	0x3e326f4d	0.1742527
115	0x3ce7a5f3	0.028277373
116	0x3d2f893c	0.042855486
117	0x3e01e5c5	0.12685306
118	0x3e0f00b7	0.13965116
119	0x3e27e3c7	0.16395484
120	0x3e5bd908	0.2146951
121	0x3e111ced	0.1417119
122	0x3d96aeb6	0.07357542
123	0x3d6fb500	0.058522224
124	0x3d8de4cb	0.069284044
125	0x3dc2c773	0.09510698
126	0x3dcf51b1	0.10123003
127	0x3bc1dc75	0.005916173

conv2.weight f4 [128, 128, 3]
0	0x3d48e5d0	0.04904729
1	0xbe113604	-0.14180762
2	0x3de654ef	0.112466685
3	0xbe5a349d	-0.21309133
4	0x3e36b083	0.17840771
5	0x3db582a0	0.08862805
6	0xbe24d257	-0.16095863
7	0x3cde2b6f	0.02712032
8	0xbd0ebd7d	-0.03484868
9	0xbe89e9d9	-0.26936224
10	0x3e1b8b8b	0.1518995
11	0x3d4ea709	0.050452266
12	0xbd0681fa	-0.0328388
13	0xbe37f4bd	-0.17964454
14	0x3e2f87f5	0.17141707
15	0x3dbe1006	0.092804
16	0x3bf6e331	0.0075344075
17	0xba806c46	-0.0009797893
18	0xbcfb02b2	-0.030640934
19	0x3e3761be	0.1790838
20	0x3e023c44	0.12718302
21	0x3e9c981b	0.30584797
22	0xbdad678f	-0.08467018
23	0x3d9e3e75	0.077267565
24	0xbc22e1b6	-0.009941509
25	0x3c1851fb	0.009296889
26	0xba40c0fb	-0.0007352975
27	0x3dcdb73f	0.10044717
28	0xbd70e189	-0.058808837
29	0xbd4c0857	-0.04981264
30	0xbcd32135	-0.02577267
31	0x3e0a202b	0.13488834
32	0x3d9ad373	0.07559862
33	0x3d7e1c60	0.06203878
34	0x3c844754	0.016147293
35	0x3e0311c4	0.12799746
36	0x3e98be09	0.29832485
37	0x3d5b3255	0.053514797
38	0xbe8ee993	-0.27912578
39	0x3ddcf8cf	0.10789644
40	0xbd932b04	-0.07185939
41	0x3c876570	0.016527861
42	0x3d88451a	0.06653805
43	0xbe1ea38c	-0.15492076
44	0x3e2d8986	0.16946992
45	0xbea92e66	-0.33043212
46	0x3c24ad01	0.010051013
47	0x3eb61791	0.35564855
48	0xbe05923c	-0.13044065
49	0x3db1a72e	0.08674465
50	0xbe4b6d49	-0.19865908
51	0x3dcb96fa	0.09940906
52	0xbd203a75	-0.03911825
53	0x3e26f427	0.16304074
54	0x3d6da2de	0.05801665
55	0xbdb3cf26	-0.08779745
56	0x3de5ebd5	0.11226622
57	0x3dc80955	0.09767405
58	0xbea2ce98	-0.31798244
59	0x3e39aadc	0.18131584
60	0x3ba5b401	0.0050568585
61	0x3dd1dc2c	0.102470726
62	0x3e426f06	0.18987665
63	0xbe9745ea	-0.29545528
64	0x3e3ce9ae	0.18448517
65	0xbebecd46	-0.37265986
66	0x3b1836ef	0.0023226102
67	0x3d48b362	0.048999198
68	0x3c40f2fd	0.011776683
69	0xbec4ebd3	-0.3846117
70	0x3e6fbaea	0.23411146
71	0xbc9bd10e	-0.019020583
72	0xbe5d11a5	-0.21588762
73	0x3d4943a3	0.04913677
74	0xbda456f8	-0.080244005
75	0x3dadaf09	0.08480651
76	0x3d1a597a	0.037682988
77	0xbd9a2e05	-0.07528309
78	0x3e16b252	0.14716461
79	0xbc41137a	-0.011784429
80	0x3c4aa14b	0.012367557
81	0x3d5e320d	0.05424695
82	0x3e009f64	0.12560803
83	0xbe7cd297	-0.24689709
84	0x3be3c000	0.0069503784
85	0xbe0a1681	-0.13485147
86	0x3e04a5b0	0.1295383
87	0x3d862651	0.06550277
88	0x3b63740b	0.0034706618
89	0xbc346e01	-0.011012555
90	0x3cfccc35	0.030859092
91	0xbdb51ba8	-0.08843166
92	0x3e2424b8	0.16029632
93	0xbe3f5c87	-0.1868764
94	0x3c72bb3c	0.014815148
95	0xbd6c42c5	-0.057680864
96	0xbcc2ca2a	-0.02377804
97	0x3e53d61a	0.20687142
98	0xbdd65ff4	-0.1046752
99	0x3d8b113f	0.06790399
100	0x3d948cc8	0.072534144
101	0xbd3f5679	-0.046713326
102	0xbe0a6c4f	-0.13517879
103	0x3e3db102	0.18524554
104	0x3c73215a	0.014839495
105	0x3a50e134	0.0007968128
106	0x3dbe337a	0.09287162
107	0x3c8b9a07	0.01704122
108	0x3dba23fe	0.09088896
109	0xbd4de0dd	-0.050263274
110	0xbd544079	-0.0518193
111	0x3c27fc9c	0.010253098
112	0xbd50a054	-0.05093415
113	0xbeb58ee4	-0.3546058
114	0xbe066d08	-0.1312753
115	0x3cca7db7	0.024718149
116	0x3ce765b5	0.02824674
117	0xbc2dd227	-0.010609186
118	0x3ca1fc62	0.019773666
119	0xbb87027e	-0.00412017
120	0x3dea563c	0.11442229
121	0x3e3b367f	0.18282507
122	0xbe283155	-0.16425069
123	0xbca98fee	-0.020698514
124	0x3df451c9	0.11929662
125	0xbe081233	-0.13288192
126	0x3e26bb49	0.16282381
127	0xbcae08ac	-0.02124437
128	0x3db76f91	0.089568265
129	0xbe0c89b5	-0.13724406
130	0x3d9b42fe	0.07581137
131	0x3cc9b6f4	0.024623372
132	0xbc53b5c4	-0.012921754
133	0x3e2fd862	0.17172387
134	0xbe377216	-0.17914614
135	0x3cea89b5	0.028630117
136	0x3de9aed2	0.114102975
137	0xbd743a07	-0.05962565
138	0x3c98dbe6	0.018659543
139	0xbd2d8bd6	-0.042369686
140	0x3e0bb13f	0.13641833
141	0x3da35cfc	0.0797672
142	0xbd750173	-0.059815835
143	0xbd85f74a	-0.06541307
144	0x3d85d89d	0.06535456
145	0xbe6c9c10	-0.23106408
146	0x3db5a62d	0.08869586
147	0x3d543b3c	0.051814303
148	0xbe91983b	-0.28436455
149	0x3e61b70f	0.22042488
150	0x3df01a4c	0.11723766
151	0xbe136bd3	-0.143966
152	0x3d16d358	0.036822647
153	0x3d1dd911	0.03853709
154	0xbc0c66d6	-0.00856944
155	0x3d3c7f66	0.046019934
156	0x3e074ae6	0.13212165
157	0xbda9e7a0	-0.08296132
158	0x3cffffc9	0.031249898
159	0xbe05b7bb	-0.13058369
160	0x3e4bccd8	0.1990236
161	0x3d44dfd5	0.048065025
162	0x3e0eeab4	0.1395672
163	0x3df152bb	0.11783358
164	0xbc3b903a	-0.0114479605
165	0x3e23291d	0.15933652
166	0xbc2b9b7c	-0.010474082
167	0x3def3acd	0.11681137
168	0x3cb42c9a	0.021993924
169	0xbd203c62	-0.039120086
170	0x3c279168	0.010227539
171	0x3db6de9d	0.08929179
172	0xbe4b64b4	-0.19862634
173	0x3e2304b7	0.15919767
174	0x3ceab179	0.028649079
175	0x3d5164d6	0.051121555
176	0x3ced958f	0.02900198
177	0x3cb6fd2d	0.02233752
178	0xbe813854	-0.25238287
179	0x3e894b9c	0.26815498
180	0xbd8ddf88	-0.06927401
181	0xbdcf3e7b	-0.10119339
182	0x3e0ac920	0.13553286
183	0xbd906c5b	-0.07051917
184	0x3dda61ee	0.1066321
185	0x3e6656c8	0.22494042
186	0x3d924156	0.07141368
187	0xbe9f7e3b	-0.31150994
188	0x3dbd0036	0.09228556
189	0xbe0e111b	-0.13873713
190	0x3e0b7657	0.13619362
191	0x3c2867e6	0.010278678
192	0x3b0ca200	0.0021458864
193	0xbe491712	-0.19637707
194	0x3e0db614	0.13838989
195	0x3e01071a	0.12600365
196	0x3d18e58c	0.037328288
197	0xbe4dce9c	-0.20098346
198	0xbcc60ac9	-0.024175065
199	0x3c8f1101	0.017464163
200	0x3e2a5069	0.16632237
201	0xbe58fb5d	-0.21189637
202	0x3e1a1e0d	0.15050526
203	0x3def11a0	0.116732836
204	0x3d7a4e4c	0.061109826
205	0xbd31f1cb	-0.043443482
206	0xbdb77b19	-0.08959026
207	0x3d7660e2	0.06015099
208	0x3cf27bc5	0.029600034
209	0xbdfaabd5	-0.122398056
210	0xbd63d35f	-0.0556215
211	0xbe19c874	-0.15017873
212	0x3e1cb4af	0.153033
213	0x3ca80e70	0.020514697
214	0x3dbe84a0	0.0930264
215	0x3ce9ced1	0.028541
216	0x3c775eda	0.015098298
217	0xbe7ef657	-0.24898659
218	0x3d4ded56	0.05027517
219	0x3dcbfe90	0.09960663
220	0xbd16d948	-0.03682831
221	0x3e55ad17	0.2086681
222	0x3dcd0d81	0.10012341
223	0x3d0289d4	0.031869724
224	0x3d4a140d	0.04933553
225	0x3da77101	0.08175851
226	0xbe8fbdf6	-0.28074616
227	0x3d90c4ce	0.070687875
228	0x3dd2c871	0.102921374
229	0x3e428673	0.18996601
230	0xbe19d5b3	-0.15022926
231	0x3e7e82bb	0.24854557
232	0xbe6cfb4e	-0.2314274
233	0x3db75832	0.08952369
234	0xbd25f416	-0.04051598
235	0xbddba9c8	-0.107257426
236	0x3dd7f9d1	0.105456956
237	0x39a1723c	0.00030793424
238	0x3e4380e2	0.19092134
239	0x3d0b4c3b	0.034008246
240	0xbc398d8a	-0.011325249
241	0x3e4d8554	0.20070392
242	0xbdff3f33	-0.12463226
243	0xbdd12acf	-0.10213243
244	0x3e81361e	0.252366
245	0xbd5e76f1	-0.05431265
246	0xbdf1ac9e	-0.11800502
247	0x3e1f18f9	0.1553687
248	0xbe8a1e6a	-0.2697633
249	0xbddc335d	-0.10751984
250	0x3dc31f44	0.09527448
251	0xbe9c8603	-0.30570993
252	0x3d28fb2a	0.041255154
253	0x3d53922a	0.051653065
254	0xbdef0a00	-0.11671829
255	0xbe07ad1e	-0.13249633

conv2.bias f4 [128]
0	0x3d070e66	0.032972716
1	0xbe3a2286	-0.18177232
2	0xbe48d7c7	-0.19613563
3	0xbecc9e28	-0.39964414
4	0xbe3d0a73	-0.18461017
5	0xbe3c697c	-0.18399614
6	0xbdd0ebe1	-0.1020124
7	0xbea0ceb6	-0.31407708
8	0xbe891625	-0.26774707
9	0xbe0de850	-0.13858151
10	0xbd75b7cf	-0.059989747
11	0xbe9536a5	-0.29143253
12	0xbe2bf061	-0.16790916
13	0xbe6d36f3	-0.23165493
14	0xbdb8aa85	-0.09016899
15	0xbdc7bf44	-0.09753278
16	0xbe18d177	-0.14923654
17	0x3e0639ff	0.13108061
18	0xbd900dca	-0.0703388
19	0xbe85bdbe	-0.26121324
20	0xbe855543	-0.26041612
21	0xbe2f0844	-0.17092997
22	0xbe3df6aa	-0.18551126
23	0x3d816e9a	0.06319924
24	0x3af14834	0.0018408359
25	0xbd253062	-0.040329345
26	0xbe66c6ed	-0.22536822
27	0xbb0fe195	-0.0021954526
28	0xbe6a0d67	-0.22856675
29	0xbd84408f	-0.06457626
30	0xbe41353b	-0.18867962
31	0xbe01e500	-0.12685013
32	0xbd6cc8b7	-0.057808604
33	0xbd93b2d8	-0.07211846
34	0xbeac7541	-0.33683208
35	0xbe0abee4	-0.13549381
36	0xbd6b0500	-0.057377815
37	0xbd1d6a52	-0.038431473
38	0x3e150dc8	0.14556038
39	0xbe15f3f7	-0.14643846
40	0x3d83da3e	0.06438111
41	0xbe87fe3e	-0.2656116
42	0xbd6e72c9	-0.058214936
43	0xbc7c6b55	-0.015406449
44	0xbdf395e7	-0.11893826
45	0x3cddc783	0.027072674
46	0xbe8fefb3	-0.28112563
47	0xbdecb07e	-0.11557101
48	0x3e3391e2	0.17536119
49	0xbdbe77eb	-0.09300216
50	0xbd89db89	-0.06731326
51	0x3d04ad37	0.032391753
52	0x3e5b4d36	0.21416172
53	0xbe91b881	-0.28461078
54	0xbe80ae76	-0.25133103
55	0xbe24c445	-0.16090496
56	0xbe756bff	-0.23966978
57	0xbe65b19d	-0.22431035
58	0xbe53ae48	-0.20671952
59	0xbe10313e	-0.14081284
60	0xbea1bfdb	-0.31591687
61	0xbe36d819	-0.17855872
62	0xbe26a070	-0.1627214
63	0x3d14f32d	0.036364723
64	0xbd5d2fd1	-0.05400068
65	0xbe3ae08e	-0.18249723
66	0xbec101b3	-0.3769661
67	0xbe29f566	-0.16597518
68	0xbddeaa88	-0.1087237
69	0xbe0c63ba	-0.13709918
70	0xbe08a976	-0.13345894
71	0x3d9b1f47	0.07574325
72	0xbe471ea6	-0.19445285
73	0xbdad492c	-0.08461222
74	0xbdceff3a	-0.10107274
75	0xbe6910d1	-0.22760321
76	0xbb0c73eb	-0.0021431397
77	0x3e00b659	0.1256956
78	0xbe9f4cf0	-0.31113386
79	0xbe8bad2f	-0.27280566
80	0xbea62ae5	-0.324546
81	0xbe187da7	-0.14891683
82	0x3c5f1560	0.013615936
83	0x3e2e58e3	0.17026095
84	0xbe8710bf	-0.26379964
85	0xbdd0b46d	-0.101906635
86	0xbea08db1	-0.31358102
87	0x3b8d0199	0.004303169
88	0xbe406cfc	-0.18791574
89	0xbe57eb13	-0.21085767
90	0xbd15db16	-0.03658589
91	0xbd3814c7	-0.04494169
92	0xbda005b2	-0.07813586
93	0xbd4681fb	-0.048463803
94	0xbd5b2a18	-0.05350694
95	0xbc906ad9	-0.017629074
96	0xbe45e88f	-0.19326995
97	0xbd22c756	-0.039740883
98	0xbd71817f	-0.058961388
99	0xbb4d509e	-0.003132857
100	0xbeb8ff92	-0.36132485
101	0xbc1396fa	-0.009008164
102	0xbdd3a919	-0.10334987
103	0xbd926ca9	-0.071496315
104	0xbe583d5c	-0.21117157
105	0xbe9960da	-0.29956704
106	0xbdd32a10	-0.10310757
107	0x3d32c603	0.04364587
108	0x3cbf8868	0.023380473
109	0xbea02f2f	-0.31285998
110	0xbdb81c5c	-0.08989784
111	0xbdb4153b	-0.08793112
112	0xbd806170	-0.06268585
113	0xbe59da0e	-0.21274588
114	0xbe2e0967	-0.16995774
115	0xbec5d5c5	-0.38639656
116	0xbe064b3e	-0.1311464
117	0xbc13209f	-0.008979945
118	0xba1f74aa	-0.0006082753
119	0xbd2e3710	-0.04253298
120	0xbe03ce25	-0.12871607
121	0xbbb58e61	-0.0055406545
122	0x3e8774ae	0.26456207
123	0xbe7c04b5	-0.2461117
124	0xbe3a02f9	-0.18165196
125	0xbe71c75b	-0.23611204
126	0xbe23d893	-0.16000585
127	0xbe14d7a3	-0.14535384

bn2.weight f4 [128]
0	0x3f5c39f5	0.86025935
1	0x3f71b56b	0.94417447
2	0x3f96ca01	1.1780397
3	0x3f6a0a1d	0.9142168
4	0x3f7f5b41	0.9974862
5	0x3f8ae6a9	1.0851642
6	0x3f82dbaa	1.0223286
7	0x3f420559	0.7578941
8	0x3f701264	0.9377806
9	0x3f625c0e	0.88421714
10	0x3f6b70ed	0.91969186
11	0x3f687387	0.9080128
12	0x3f6a18d4	0.91444135
13	0x3f999d9e	1.2001226
14	0x3f5d1fb3	0.86376494
15	0x3f5f3e78	0.87204695
16	0x3f88c677	1.0685567
17	0x3f7cb0c1	0.98707205
18	0x3f9dad99	1.2318603
19	0x3f72e640	0.94882584
20	0x3f866155	1.0498453
21	0x3f7fd5b7	0.9993548
22	0x3f861e7d	1.0478054
23	0x3f6ef584	0.9334338
24	0x3f7e0409	0.9922491
25	0x3f849271	1.035719
26	0x3f5f1c61	0.8715268
27	0x3f5f0347	0.87114376
28	0x3f717f0f	0.943345
29	0x3f8df530	1.109045
30	0x3f8757af	1.0573634
31	0x3f70d812	0.940797
32	0x3f6ba2c9	0.92045265
33	0x3f56738c	0.8377006
34	0x3f59eb79	0.8512493
35	0x3f7d2260	0.9888058
36	0x3f878358	1.0586958
37	0x3f8cb512	1.0992758
38	0x3f80e6e3	1.0070461
39	0x3f6b4363	0.918997
40	0x3f432f6e	0.76244247
41	0x3f8c0f86	1.0942237
42	0x3f48e7ac	0.78478503
43	0x3f467622	0.77524006
44	0x3f845564	1.0338559
45	0x3f715283	0.9426653
46	0x3f96a987	1.1770486
47	0x3f8efde6	1.1171234
48	0x3f5de8c8	0.8668332
49	0x3f63b5ae	0.88949096
50	0x3f717b79	0.9432903
51	0x3f6c8357	0.9238791
52	0x3f7f1853	0.9964649
53	0x3f83fdc2	1.0311816
54	0x3f643037	0.8913607
55	0x3f80ddfc	1.0067744
56	0x3f724e13	0.9465038
57	0x3f57837a	0.8418499
58	0x3f8ca914	1.0989099
59	0x3f760cf7	0.9611353
60	0x3f913082	1.1342928
61	0x3f5d401f	0.86425966
62	0x3f761154	0.9612019
63	0x3f88c841	1.0686113
64	0x3f5fc71d	0.874132
65	0x3f82545b	1.0181993
66	0x3f757eb2	0.95896447
67	0x3f70d35b	0.940725
68	0x3f704a3c	0.9386327
69	0x3f6bf5a3	0.92171687
70	0x3f46f26f	0.77713674
71	0x3f6521bd	0.89504606
72	0x3f67f7cf	0.906125
73	0x3f83e791	1.0305043
74	0x3f54a6ed	0.8306721
75	0x3fb6315d	1.4233814
76	0x3f6bd45e	0.9212092
77	0x3f728953	0.9474079
78	0x3f777677	0.9666514
79	0x3f6784c8	0.90436983
80	0x3f81f4e6	1.0152862
81	0x3f686d20	0.9079151
82	0x3f3fae88	0.7487569
83	0x3f5fb1b3	0.8738052
84	0x3f887bf2	1.0662825
85	0x3f8b17e9	1.0866672
86	0x3f8fa1fb	1.1221308
87	0x3f567c58	0.83783484
88	0x3f7e1904	0.9925692
89	0x3f8d3205	1.103089
90	0x3f4f70af	0.81031317
91	0x3f7eba34	0.99502873
92	0x3f6e9ea7	0.93210834
93	0x3f65dea9	0.8979288
94	0x3f730bc8	0.9493985
95	0x3f607613	0.87680167
96	0x3f848c41	1.0355302
97	0x3f8af692	1.0856497
98	0x3f6badc2	0.9206201
99	0x3f71d861	0.94470793
100	0x3f7122b3	0.9419357
101	0x3f7a55be	0.9778708
102	0x3f53e649	0.8277326
103	0x3f78c526	0.97175825
104	0x3f762f85	0.9616626
105	0x3f809b8d	1.004747
106	0x3f841e2b	1.0321707
107	0x3f8a365b	1.0797838
108	0x3f54ad8b	0.83077306
109	0x3f5deae3	0.86686534
110	0x3f821603	1.0162967
111	0x3f882298	1.0635557
112	0x3f801271	1.0005628
113	0x3f693c0a	0.9110724
114	0x3f7e1735	0.9925416
115	0x3f80b51e	1.0055273
116	0x3f5e71ac	0.868922
117	0x3f5b82e1	0.8574658
118	0x3f5504a4	0.83210206
119	0x3f5dd6b6	0.8665575
120	0x3f5781f2	0.84182656
121	0x3f7d2f5a	0.9890038
122	0x3f6c518a	0.9231192
123	0x3f6b3fd0	0.91894245
124	0x3f84408f	1.0332202
125	0x3f617449	0.8806806
126	0x3f933fd2	1.1503851
127	0x3f602057	0.87549347

bn2.bias f4 [128]
0	0xbba4f9a4	-0.0050346423
1	0x3e9ea6ae	0.30986542
2	0x3d90d346	0.07071547
3	0x3e29ab3f	0.16569231
4	0xbcea2c54	-0.02858559
5	0x3d675b80	0.056483746
6	0xbea673f3	-0.32510337
7	0xbd5c7326	-0.05382075
8	0xbd2df57a	-0.042470433
9	0x3d0b8402	0.03406144
10	0x3ca4ece2	0.020132486
11	0x3e5e8158	0.21729028
12	0xbcb98254	-0.022645153
13	0xbda8d067	-0.082428746
14	0xbdd47b19	-0.103750415
15	0xbe4d750d	-0.20064183
16	0x3d0a811f	0.033814546
17	0x3dfeed69	0.12447626
18	0x3e789da7	0.2427889
19	0xbdef8e3e	-0.116970524
20	0x3e6040db	0.2189974
21	0xbdf18d17	-0.11794489
22	0x3cd6c9a4	0.026219197
23	0xbe31b54b	-0.17354314
24	0x3d5b963b	0.053610068
25	0xbd123ca5	-0.035702366
26	0xbe2fbc3a	-0.17161646
27	0xbca65208	-0.020302787
28	0x3e162a23	0.14664511
29	0x3e35662d	0.17714758
30	0x3d9a69bb	0.07539698
31	0xbe865832	-0.26239163
32	0xbe4ef126	-0.20209178
33	0xbdeadb62	-0.11467625
34	0x3d965e6c	0.07342228
35	0xbdc5d98c	-0.096606344
36	0xbdd885ea	-0.10572417
37	0x3d1dc386	0.038516544
38	0xbd39e2e6	-0.045382403
39	0xbd1474da	-0.03624425
40	0xbde65e4e	-0.11248456
41	0x3e7bd1b2	0.24591711
42	0x3d1c87ab	0.03821532
43	0xbe0b6e2c	-0.13616246
44	0x3bcab918	0.0061866157
45	0xbe50cdd2	-0.20391014
46	0x3e2ba414	0.1676181
47	0xbe82aeba	-0.2552393
48	0xbd08abfe	-0.03336715
49	0xbe379b5d	-0.1793036
50	0xbada2c37	-0.0016645257
51	0x3db5df8b	0.08880528
52	0xbdb95c8f	-0.09050857
53	0x3de81103	0.1133137
54	0xbb6b35c1	-0.0035890194
55	0xbe2fc58d	-0.17165203
56	0x3e3be7ab	0.18350093
57	0xbd9ce456	-0.07660739
58	0x3d911658	0.0708434
59	0xbdab0410	-0.08350384
60	0x3e923a09	0.28559902
61	0x3b253733	0.0025209903
62	0xbde77611	-0.11301816
63	0xbc79e7f4	-0.015253056
64	0xbbe1a05b	-0.006885571
65	0xbc2cd5c6	-0.010549014
66	0xbdd43615	-0.10361878
67	0xbde406e1	-0.111341245
68	0x3d094a80	0.033518314
69	0xbd30d4cd	-0.043171693
70	0x3e0fe110	0.14050698
71	0xbcbaeb2d	-0.022817219
72	0x3d72c9ae	0.059274368
73	0x3d089ab4	0.03335066
74	0xbddff955	-0.10936228
75	0x3e38cdae	0.1804721
76	0x3b099755	0.0020994742
77	0xbe08bb1e	-0.1335263
78	0xbb6aac3f	-0.0035808233
79	0x3e659346	0.22419462
80	0xbc9828c9	-0.018574135
81	0xbdd3954a	-0.10331209
82	0xbe03e3e4	-0.12879902
83	0xbcc7ad12	-0.024374519
84	0x3d72d3b2	0.05928392
85	0x3db516a3	0.08842208
86	0x3ea10c78	0.31454825
87	0xbe6200b5	-0.22070582
88	0x3cc6d580	0.024271727
89	0xbd9f047c	-0.07764527
90	0xbd9228af	-0.07136666
91	0x3dc98172	0.09839143
92	0xbe9ac334	-0.30227053
93	0xbcc39fd8	-0.02387993
94	0xbc229d84	-0.00992525
95	0xbe6d5132	-0.23175505
96	0x3de6366b	0.11240848
97	0x3d64c336	0.05585023
98	0x3dc4a849	0.0960241
99	0xbe8985ce	-0.26859897
100	0xbe03fa58	-0.12888467
101	0xbd1d0ad6	-0.038340412
102	0x3d59340f	0.053028163
103	0x3e3ee2ce	0.18641207
104	0x3cdfe87e	0.02733254
105	0x3e9307dd	0.28716937
106	0x3c9e7e56	0.019347351
107	0x3ceb7ffd	0.028747553
108	0xbe3bc729	-0.18337692
109	0x3e079f6d	0.1324441
110	0x3e0c77ac	0.13717526
111	0xbe4ad742	-0.19808677
112	0x3d0c2fb3	0.034225177
113	0xbdbced56	-0.09224956
114	0x3dab5402	0.083656326
115	0x3eabc43d	0.33548155
116	0xbe1b28c6	-0.15152273
117	0x3d6dca7f	0.058054443
118	0xbda03a63	-0.078236364
119	0x3e8e558d	0.27799645
120	0x3d14cfd0	0.036330998
121	0x3d18a2e1	0.03726471
122	0xbe62d50f	-0.22151588
123	0xbe121c1a	-0.14268532
124	0x3c081562	0.008305879
125	0x3c9db7a9	0.019252615
126	0xbd0b341e	-0.03398525
127	0x3c442ab1	0.011973069

bn2.running_mean f4 [128]
0	0x402c2498	2.6897335
1	0x3e58837c	0.21143907
2	0x3ead3a65	0.33833614
3	0x3f8d9dde	1.1063802
4	0x3ee2cfbe	0.4429912
5	0x3ee03c8c	0.43796194
6	0x3f8e2dac	1.1107688
7	0x3ea5987b	0.32342896
8	0x3f108d16	0.5646528
9	0x3f212d2e	0.62959564
10	0x3eeae3ee	0.45877022
11	0x3fda31a2	1.7046397
12	0x3eb003d0	0.3437791
13	0x3ed01ecb	0.40648493
14	0x3eb1a80e	0.34698528
15	0x3f009429	0.50226074
16	0x3f3acecb	0.7297179
17	0x3fbaf59e	1.4606206
18	0x3e657048	0.22406113
19	0x3f0b5b8f	0.5443658
20	0x3ee1e631	0.44120935
21	0x3f66cb58	0.9015403
22	0x3f818062	1.0117304
23	0x3ef706bb	0.48247322
24	0x3e8acfc0	0.27111626
25	0x3f2f7dca	0.68551314
26	0x3e5a27b9	0.21304215
27	0x400fb038	2.2451305
28	0x3f060778	0.52355146
29	0x3e6f3a84	0.23362166
30	0x3e9e7770	0.309505
31	0x3f939cdd	1.1532246
32	0x3f94d385	1.1627051
33	0x3f246bdd	0.64227086
34	0x3f8ecdea	1.115659
35	0x3f5d4e03	0.8644716
36	0x3f1ac3dc	0.6045511
37	0x3f429295	0.76004916
38	0x3f53e1e0	0.8276653
39	0x3f757528	0.9588189
40	0x3f7fed8f	0.9997186
41	0x3f5590e2	0.834242
42	0x3fdb9861	1.7155877
43	0x3fb34b2b	1.4007314
44	0x3ee6dec0	0.4509182
45	0x3f69616c	0.9116428
46	0x3ef9603f	0.48706242
47	0x3f7f9bff	0.99847406
48	0x4026a1a5	2.603616
49	0x3e49b9ee	0.19699833
50	0x3f06c8bb	0.5265004
51	0x4031dd5c	2.7791357
52	0x3ebbc320	0.36672306
53	0x3f2b9afc	0.6703336
54	0x3ec018ed	0.37519017
55	0x3fb0794a	1.3787014
56	0x3f0c4274	0.547889
57	0x3f4d8b36	0.80290544
58	0x3eda928f	0.4268994
59	0x3f38d6b9	0.7220264
60	0x3e26ddf4	0.16295606
61	0x3eb5b417	0.3548896
62	0x3eb539ab	0.3539556
63	0x3f826f7e	1.0190275
64	0x3f9634d1	1.1734868
65	0x3ee9907d	0.45618048
66	0x3f5b7ded	0.8573902
67	0x3f612345	0.8794444
68	0x3f171209	0.59011894
69	0x40198588	2.398775
70	0x3e85578b	0.26043352
71	0x3f8d77e4	1.1052213
72	0x3e928a6c	0.28621233
73	0x3f0de680	0.5542984
74	0x40232b55	2.5495198
75	0x3ea60700	0.32427216
76	0x4058d41e	3.3879466
77	0x3e820da2	0.25401026
78	0x3f0a6b53	0.54070014
79	0x3f00a109	0.5024572
80	0x3ede3cda	0.434058
81	0x3e9a1ce7	0.30100176
82	0x3fba0b14	1.4534631
83	0x3f952a25	1.1653486
84	0x3ea13ac8	0.3149016
85	0x3eeda79c	0.46416938
86	0x3ed3a757	0.41338608
87	0x3f8299bf	1.020317
88	0x3eca4638	0.39506698
89	0x3f251abe	0.6449393
90	0x3f058b43	0.5216562
91	0x3ebb7c83	0.36618432
92	0x3fd65820	1.6745644
93	0x3f1c4418	0.610414
94	0x3f41617c	0.75539374
95	0x3f946e86	1.1596229
96	0x3fb5ac28	1.4193163
97	0x3f8252f7	1.0181569
98	0x3f575b5d	0.84123784
99	0x3fdf432b	1.7442373
100	0x3eb157ce	0.34637302
101	0x3fbfcdee	1.498472
102	0x3ee5d197	0.44886467
103	0x3f29ffc4	0.6640589
104	0x3f764321	0.9619618
105	0x3efcd2a5	0.4937946
106	0x3ef71a3f	0.48262212
107	0x3ee7d776	0.4528157
108	0x3f8caffd	1.0991207
109	0x3ed5f164	0.4178573
110	0x3fa37fcf	1.2773379
111	0x3f91f59c	1.1403079
112	0x3eccf9dc	0.40034378
113	0x3f4ce58f	0.8003778
114	0x3f6e65a2	0.9312383
115	0x3f7df30d	0.9919899
116	0x3fb0ed99	1.3822509
117	0x3f1b28b1	0.60608965
118	0x3fa76bfb	1.3079828
119	0x3ef369ee	0.47541755
120	0x3fa1ad12	1.2630942
121	0x3f111709	0.56675774
122	0x3fcc7692	1.5973685
123	0x3fcf2d1f	1.6185645
124	0x3f37350d	0.71565324
125	0x3f5593a2	0.83428395
126	0x3ebe4308	0.37160516
127	0x3fac0376	1.3438556

bn2.running_var f4 [128]
0	0x4149802f	12.593795
1	0x3f256f14	0.64622617
2	0x3feceb68	1.850934
3	0x40ad95a0	5.424515
4	0x3fc5bb09	1.5447704
5	0x3fb3aed7	1.4037732
6	0x4096a629	4.707783
7	0x3fda006e	1.7031381
8	0x4063dbce	3.5602908
9	0x401e1e9b	2.470618
10	0x3fbf37b0	1.493887
11	0x4127fec0	10.499695
12	0x3fb158c0	1.3855209
13	0x3ffba7d3	1.9660591
14	0x3f626896	0.88440835
15	0x3fbd85da	1.4806473
16	0x40806009	4.011723
17	0x40ba6f11	5.826058
18	0x3f81b5b6	1.0133579
19	0x4002df69	2.0448859
20	0x4040306d	3.0029557
21	0x4099a183	4.800966
22	0x40b56ffe	5.669921
23	0x3fbd7b87	1.4803323
24	0x3f5f9206	0.8733219
25	0x401bd628	2.434946
26	0x3f2b5623	0.6692831
27	0x4103bd53	8.233722
28	0x3ffdeee1	1.9838525
29	0x3f1c68d1	0.6109744
30	0x3f8d7b2d	1.1053215
31	0x40717b63	3.773156
32	0x409da4db	4.926374
33	0x3fdfab51	1.7474157
34	0x40a1c5f3	5.0554137
35	0x403e2a6b	2.971339
36	0x404c0543	3.1878211
37	0x4015ba7d	2.3395073
38	0x402c5600	2.692749
39	0x408d4877	4.415096
40	0x406eb488	3.7297688
41	0x4094484a	4.6338243
42	0x41148160	9.281586
43	0x40adba94	5.4290257
44	0x4038be65	2.8866208
45	0x40691e09	3.6424582
46	0x4055ec5e	3.3425517
47	0x407743b0	3.8635063
48	0x412ff3cc	10.997021
49	0x3ed000b7	0.40625545
50	0x400d17b8	2.2045727
51	0x4162012c	14.125286
52	0x3f8ae9a2	1.0852549
53	0x40bc8c5e	5.8921347
54	0x3f92474b	1.1428007
55	0x41080420	8.501007
56	0x402a2816	2.6586967
57	0x4055496c	3.3326063
58	0x40015920	2.0210648
59	0x408c91f0	4.3928146
60	0x3f42dc55	0.7611745
61	0x3f9d83a7	1.2305802
62	0x3f5c3e28	0.8603234
63	0x405b4c91	3.4265482
64	0x40b87e24	5.765398
65	0x3ff2a651	1.8957006
66	0x40568838	3.3520641
67	0x404e217e	3.2207942
68	0x40083b26	2.1286101
69	0x413d874c	11.845531
70	0x3f67286e	0.90296066
71	0x405012ea	3.2511544
72	0x3f95cc9e	1.1703069
73	0x3ff4d389	1.9127055
74	0x41477c6f	12.467879
75	0x4033e770	2.8110008
76	0x41633d71	14.2025
77	0x3f117c09	0.5682989
78	0x403f3129	2.9873755
79	0x4018c4ab	2.3870037
80	0x3fc990fb	1.574737
81	0x3f91d91c	1.1394382
82	0x40ae82ea	5.4534807
83	0x408e8d39	4.454739
84	0x3f82bd4c	1.0214019
85	0x3fd48483	1.6602939
86	0x400381db	2.0548007
87	0x404212c2	3.032395
88	0x3fb42eb4	1.4076753
89	0x405cfb5c	3.4528418
90	0x4000f8dc	2.0151892
91	0x3fa8c788	1.3185892
92	0x40c1f3ac	6.060995
93	0x3fca46af	1.5802821
94	0x403abc80	2.9177551
95	0x4086f9b9	4.2179837
96	0x40e26ef0	7.076042
97	0x4084838e	4.141059
98	0x40783f09	3.8788474
99	0x40cdd641	6.432404
100	0x3fb0cb24	1.3811994
101	0x40c12ca1	6.036698
102	0x3f9a959e	1.207691
103	0x401e224e	2.4708438
104	0x408b18a4	4.346758
105	0x403e08fb	2.9692981
106	0x3fd967ef	1.6984843
107	0x3fb43496	1.4078548
108	0x406f3bc7	3.7380235
109	0x3fc54316	1.5411098
110	0x409b0984	4.8449116
111	0x408de9d9	4.434796
112	0x3f9d9e21	1.2313882
113	0x403807a3	2.875466
114	0x40a66b3d	5.2005906
115	0x41111672	9.06798
116	0x40cc4615	6.383555
117	0x3ffe5f4f	1.9872836
118	0x40a7a851	5.2392964
119	0x3fb76efb	1.4330744
120	0x4080fe16	4.0310163
121	0x3faf1f8e	1.3681505
122	0x40a9d645	5.307406
123	0x40ce489c	6.4463634
124	0x40a2f741	5.0926824
125	0x4081efed	4.060538
126	0x3fe06e9a	1.7533753
127	0x4121ab39	10.104302
