results/valence/classification_3/20251225_143209_127123/best_model.pt (torch, 847285 bytes, 16 tensors)

conv1.weight f4 [16, 1, 3, 3]
00000000: f171 703e fc73 db3e 3e93 59be a4e3 9d3e
00000010: d425 39be a030 c73d 5152 b3be f5a2 943c
00000020: 9590 9e3e 0725 b6be 47fc 9c3e cb40 163d
00000030: c9c5 9b3e b995 043e f7c9 af3e b429 cbbd
00000040: 3999 083e 9e62 33be 46dd b7ba 329f 563e
00000050: 88e0 8abe 361d 37bc 4a4e aebd a688 d63e
00000060: 7aba dfbd 35e5 99be 0aa2 42be f24c 06be
00000070: 8cb9 5b3c f9e0 e4be 5296 913e 5242 95be
00000080: ba7b c23e bf32 e93c f9f9 1ebe 163c bd3e
00000090: a86d e8bd 99b1 cd3e edfc 13bd 5284 4fbe
000000a0: c368 95bd 2127 54be 27db 3f3e d88e 933e
000000b0: 69f0 a43e 3719 cdbc 8c50 9d3e 4dea 393e
000000c0: 4519 f13d e52c 6cbe 3fa9 c3be 9d3d c1bc
000000d0: 48b2 bfbe 9ec2 d03e 361c 163e 133f 8a3e
000000e0: a304 1d3e 1cd1 aebc 72d1 983e ebf8 a8be
000000f0: fbfa bcbd c295 b0be ec83 c53d 9957 9fbd
00000100: 1d79 a63c 21b3 cdbd 72d6 913e 2d52 20be
00000110: cdf3 b4be db90 76be 520a df3e ac18 963e
00000120: 07c9 883e 2af2 c3be 70fc cebe 4a31 43be
00000130: 0565 91be 22bc e33d 8ef0 233d e802 013f
00000140: e1aa 363c 966d 19be 6e34 613e 8418 f1bd
00000150: 515d 673e cbd9 5ebd 37e1 cc3e 0bba 98be
00000160: f0d1 acbe e469 c73d 6412 3fba 9dff b0bb
00000170: cd6c bd3e 52bf 453e 83ca c5be 151c a9be
00000180: f184 9f3e 8572 163b c3a8 25be b33a b6bc
00000190: 116a bfbd b2b9 8c3e 2548 8cbb 0d62 10bf
000001a0: 5a67 393e 3d82 18be b9a2 86be 1efb 9dbe
000001b0: 00c4 41be d51b 8bbe 1cfa fa3e 6c41 a33d
000001c0: d684 723e fff2 ddbe 69bf 85bd 526b 5ebd
000001d0: bb6d 56bc 3389 acbe af16 dabd 492e bcbe
000001e0: 40b9 633d 1cf1 ec3c 64a4 713d 69e1 8dbe
000001f0: e3c6 8fbe 0d45 9abe 140c b1bc 3227 e3be
00000200: a3f3 b93e 7d96 bab9 fb65 c53e 781f 0c3e
00000210: d545 50be 7efa 393e 32ed 69be 3119 62bd
00000220: 2b47 9fbe 2a32 e1be 48c1 2a3e 6687 9a3b
00000230: dba5 873e b641 87be 6c22 d53e 319c 4cbe
0.23480965 0.42861927 -0.21247575 0.3083774 -0.18080837 0.09726071 -0.3502374 0.01814411
0.30969682 -0.35575125 0.30661222 0.036682885 0.30424336 0.1294774 0.34333774 -0.099200636
0.133397 -0.17518088 -0.0014027737 0.20959166 -0.2712443 -0.011176398 -0.08511026 0.4190113
-0.109242395 -0.30057684 -0.19007125 -0.1311529 0.013410937 -0.4470289 0.28434998 -0.2915216
0.3798502 0.02846658 -0.15525045 0.36959904 -0.1134904 0.4017456 -0.03612988 -0.2026532
-0.07295372 -0.20718051 0.18735944 0.2881992 0.32214668 -0.025036437 0.30725515 0.18155785
0.11772398 -0.23064001 -0.38215062 -0.02358895 -0.37440705 0.4077348 0.14659199 0.27001247
0.153338 -0.021339945 0.29847294 -0.3300241 -0.09227558 -0.34489256 0.09644303 -0.0778038
0.020321423 -0.10043932 0.2848392 -0.15656348 -0.35342255 -0.24078695 0.4356256 0.29315698
0.26715872 -0.38270694 -0.4042697 -0.19061771 -0.28397384 0.11119868 0.040024333 0.5039506
0.011149139 -0.1498321 0.21992657 -0.11772254 0.22594191 -0.054406922 0.40015575 -0.2982944
-0.3375392 0.09736994 -0.0007288812 -0.005401565 0.3699707 0.19311264 -0.38631067 -0.33029237
0.31156114 0.0022956443 -0.16177659 -0.022244787 -0.093464024 0.27485424 -0.0042810612 -0.56399614
0.18105832 -0.14893432 -0.26296023 -0.3085565 -0.18922424 -0.27169672 0.49018943 0.079714626
0.23683485 -0.43349454 -0.06530649 -0.054301567 -0.013087685 -0.33698425 -0.10648858 -0.36754063
0.05559659 0.028923564 0.058994666 -0.27711037 -0.28081426 -0.30130807 -0.021612205 -0.4436584
0.36318693 -0.00035588807 0.38554367 0.1368388 -0.20339139 0.18161961 -0.22844389 -0.055199806
-0.31108984 -0.43983585 0.16675293 0.004715848 0.26493725 -0.2641732 0.41627824 -0.19981457

conv1.bias f4 [16]
00000000: 62c1 f239 8462 b5ba 9011 86b8 8ad6 1b3b
00000010: 9732 f439 0140 3f39 2230 a13a 2675 5a3b
00000020: 8d22 7abb 9936 91ba 6a84 05bb 3846 b3b9
00000030: dce8 803b 15b6 16ba 24e6 423a 8722 13bb
0.00046301918 -0.0013838564 -6.392889e-05 0.0023778998 0.00046577 0.00018239023 0.001229767 0.0033333986
-0.0038167567 -0.0011078893 -0.0020373114 -0.00034193858 0.003934009 -0.0005749178 0.00074348063 -0.0022451

bn1.weight f4 [16]
00000000: bda7 4c3f c496 253f 680d 783f 3ee4 8a3f
00000010: 2226 6d3f 84fc 8d3f 1389 af3f 3cef 913f
00000020: 2478 8b3f a524 6f3f b24b 813f e351 463f
00000030: b736 723f 4e6a 283f ef37 883f 46b1 793f
0.7994345 0.64683175 0.96895456 1.0850904 0.9263631 1.1092687 1.3713707 1.1401134
1.0896039 0.9341529 1.0101225 0.774687 0.9461474 0.6578721 1.064207 0.9753612

bn1.bias f4 [16]
00000000: e21d 4bbe 21e4 1cbe c2f1 1fbe ea54 77bc
00000010: cf33 95be 5c04 5a3b 60dc 6e3b 9922 97be
00000020: bcd4 643d 7fec 1dbd 512f 00be 46a5 5abe
00000030: 9dc0 e2bd e616 5dbe 66e2 3bbe ae28 7fbd
-0.19835618 -0.153214 -0.15619567 -0.015095929 -0.2914109 0.0033266759 0.0036447272 -0.29518583
0.05586694 -0.03855562 -0.1251805 -0.2135211 -0.11071894 -0.21590766 -0.18348083 -0.062294655

bn1.running_mean f4 [16]
00000000: a901 4f3b 4473 b93a 604c 883a ee0b 423b
00000010: 7db7 bc3a 2888 2eb9 d46c e63a eaa2 c43a
00000020: b6c5 20bb 542c 58ba 557b a0ba 5a7d 62bb
00000030: ec95 5d3b 1c01 82bb 2887 7db9 401c f9ba
0.0031586683 0.0014148732 0.0010398738 0.0029609161 0.0014397945 -0.00016644655 0.0017580041 0.0015002165
-0.0024531907 -0.00082463515 -0.0012243787 -0.0034559579 0.0033811284 -0.0039674174 -0.0002417831 -0.0019005612

bn1.running_var f4 [16]
00000000: 89fd 8e3e 0f96 c73e 149e 013e 8255 1c3e
00000010: 93a4 af3e a7c0 0f3e 255a 023e cedb 083e
00000020: 1c85 823e 4628 303e c8bc 6f3e c98f 4a3f
00000030: adf8 c13d 7d73 833f a721 263e 7066 453e
0.27927807 0.38981673 0.12657958 0.15266994 0.34305248 0.14038335 0.127297 0.13365099
0.2549218 0.17202863 0.23411858 0.7912565 0.09471259 1.0269619 0.16223775 0.19277358

conv2.weight f4 [32, 16, 3, 3]
00000000: 9a76 06be 3065 43bc dcb0 fb3d 45f3 19bd
00000010: cbe1 613d 686d 7b3e cefb 4e3c 0191 833d
00000020: 9e21 83bd 906e d3bd 438c 77bd 7b05 a93a
00000030: eb49 353d ebf7 7abe 4b74 5bbe 7794 4cbd
00000040: 5c7e 98be b637 6c3d 42b8 f83c 0e69 57be
00000050: 0855 7abe 16b9 50bd 5309 8abd 433e f3bc
00000060: 4512 1e3c c39b 943e 03f5 a23e 6093 7cbd
00000070: 4221 a43c e875 12be c784 b13d 5c12 2dbe
00000080: 8925 4cbd 8d85 053e e0d9 63be 9d2f 05be
00000090: 1486 373d 931f cebd a93b 16bd cc64 143e
000000a0: 25b2 99bd 40d9 5e3c 1096 a93d f776 2f3c
000000b0: 7489 063e 3e29 23be 072d 38be 26f1 76be
000000c0: e86f 66bd 3ae3 f83d a0d3 143e 4558 4c3e
000000d0: b494 67be 3f73 253e 50fc d7bc b164 6b3e
000000e0: 6517 a93e 6baa 06bb 6485 2e3e 13b8 4fbe
000000f0: 737c 68be 074a 273e 33bc 1dbb 56ca 77bd
00000100: d9e3 32be 5465 653e fd6b 8b3e 6588 93be
00000110: d7fb a7be fa61 52bd 7ee4 7dbd ec3e 78bd
00000120: 760d 593e 7710 063e 05aa 4a3e f576 fdbc
00000130: e01f 3f3d 8372 32bd 5de7 38be 4f16 63be
00000140: 4526 573e 83c2 1dbd 5b28 c5bd cf52 c23d
00000150: b5e2 38be 889b 06be b59f 8fbe 0f15 be3d
00000160: ff45 503a 26b0 e83e 8de3 f4bc 2409 143d
00000170: 441b 34bd 5ff0 d5bd 60b6 b3bd 50c5 95bd
00000180: c13a 943e e739 bbbd c27c 393e e281 91bd
00000190: 5e8c 453e 7c1e 51be 47cc d23d aa31 7bbd
000001a0: f3ff 22be 4abb 693e 88ba 2bbe 8d68 d93d
000001b0: afc0 acbd d7ff 073e cac5 143e 5655 4abd
000001c0: b828 103e 9b36 183c a36c 6d3e 2bed b2be
000001d0: 46f2 bebe 8766 0dbc 04a8 3a3c 97a4 ddbd
000001e0: 6fec 18bd 9ebe cabd 8dae 763e c696 b53d
000001f0: dfa2 cabc aa5e 22be b017 6bbe cc64 583e
00000200: c15a 7e3e c02b 93bd a045 fbbd f824 61bd
00000210: 990f 48bc 9279 4abe fd80 3cbe 88c0 86bd
00000220: b3c9 a43d 1816 41be 0fa7 db3d 9d21 5b3d
00000230: 6e8e a63d 29fb dd3d adc3 92be d4cf a0be
00000240: ba27 6ebe 1fc5 dc3d 23a5 913b 6c85 273c
00000250: bdc5 e3bd 8cff 033e 19ff 7f3d 4af9 ac3d
00000260: cf24 9c3d 36da 893e e295 a93b edb1 293e
00000270: 9f4f 01be e5fc bfbd bee1 ba3d d488 283e
00000280: 0dac aabe 2601 bdbd d000 063d df58 1dbe
00000290: a0b9 b93c f6c2 5dbd fc38 b93d da54 c7be
000002a0: eeac 813d f694 23be 3a19 853e 4a41 053c
000002b0: 0e66 543d 4ac8 4dbe f66d 7a3c d785 95be
000002c0: 6456 80be 6883 c33d d7d3 c7bd c058 6dbd
000002d0: ad9b 82be 3691 44bd cbb5 33bc ed5f 573e
000002e0: 968d 76be 0d7b 8f3c 7c57 253e aefa a8be
000002f0: 6fa0 9cbd 8fcf c43c 2247 853c e9ea f6bc
00000300: 3106 5a3e bfbd 08be 6833 8ebe 5626 1bbe
00000310: 243e 323e 90d4 153d 73e0 b0bd 39d0 8a3e
00000320: ab06 4cbe ba6e 08be fbe0 22be 119b 7b3e
00000330: d4df 5e3e 8ece 8fbd 83c8 bc3b 7455 38be
00000340: d978 54bd 1256 d8bc 5849 143d 8ae8 2c3e
00000350: b568 10be 5bdc dfbd 35f4 7d3d 6501 dabd
00000360: 1dcd 503e 8dfb 73be 122e e53e 4774 a53d
00000370: 8b94 bebd a695 02be dafc cc3d 57e7 e7bb
00000380: adff 7fbd 3c57 1a3e 7e26 d6be c334 57be
00000390: 57e6 823d 412b d4bc 16c6 dfbd d9f5 c2bd
000003a0: 74c8 383e ceef 0dbd e18a 7d3e 9520 89be
000003b0: 505a 35be 320a 8cbe 9efb fd3d e843 a6bd
000003c0: 8e4c b53d f1b7 f53d 58f2 4dbd 5e4c 4f3c
000003d0: 291e 253d 4743 73be 66b4 d8bc bc8c a8be
000003e0: 6086 dc3c 610d 003e 128b 2dbe 88e9 183e
000003f0: 1ba9 1cbd 74ff 493e c9e1 133e e100 9fbe
-0.1313118 -0.01192598 0.122895926 -0.037585516 0.055146974 0.24553454 0.012633277 0.06424142
-0.06402896 -0.103238225 -0.0604365 0.001289531 0.044259947 -0.24508636 -0.21431081 -0.049946275
-0.29783905 0.057670318 0.030361298 -0.21036169 -0.244465 -0.05095776 -0.0674006 -0.029692775
0.0096479105 0.29025087 0.31827554 -0.061663985 0.02003539 -0.1430279 0.086679034 -0.16901535
-0.049840484 0.13039227 -0.22251081 -0.13006444 0.0448056 -0.10064616 -0.03667799 0.14491576
-0.075046815 0.013601601 0.08280575 0.010709516 0.13138372 -0.15933701 -0.17985927 -0.24115428
-0.056259066 0.12152715 0.14533854 0.19955547 -0.2261532 0.16157244 -0.02636543 0.2298763
0.3302566 -0.0020548354 0.17043072 -0.20285062 -0.22703724 0.16336833 -0.0024068474 -0.060495697
-0.1746973 0.22401935 0.27230826 -0.28814998 -0.32809326 -0.05136297 -0.061985485 -0.060606882
0.21196541 0.13092218 0.1979142 -0.030940512 0.046661258 -0.043566238 -0.18057008 -0.22176479
0.21010692 -0.03851558 -0.09626838 0.09488451 -0.18055232 -0.13145268 -0.28051534 0.0928136
0.00079450005 0.4544689 -0.02989366 0.03614153 -0.043971315 -0.10446238 -0.0877502 -0.07313025
0.28951076 -0.09141903 0.18113998 -0.07104851 0.19291827 -0.20421785 0.10292869 -0.06132666
-0.1591795 0.22825351 -0.16770375 0.106156446 -0.08435189 0.13281189 0.14528576 -0.04939779
0.14078033 0.009290363 0.23185973 -0.3494657 -0.37294215 -0.008630401 0.011392597 -0.10822409
-0.037334856 -0.098996386 0.24090023 0.088666484 -0.024735866 -0.15856424 -0.22958255 0.21132201
0.24839307 -0.07186079 -0.12269139 -0.054966897 -0.01221075 -0.19772938 -0.1840858 -0.06579691
0.080462836 -0.18856084 0.10725223 0.053498853 0.08132635 0.108389206 -0.28664914 -0.3140856
-0.23257342 0.10779785 0.0044447347 0.010224681 -0.111217 0.12890452 0.06249914 0.084459856
0.07624208 0.26924294 0.005175338 0.1657178 -0.1262803 -0.09374408 0.09125088 0.16458446
-0.3333439 -0.09228735 0.03271562 -0.15365933 0.02267152 -0.054141007 0.09044072 -0.38931924
0.06331812 -0.15974793 0.2599581 0.008133242 0.05185514 -0.20095935 0.015285006 -0.29203674
-0.2506591 0.09546548 -0.09757202 -0.057945967 -0.25509396 -0.047990046 -0.010968636 0.21032687
-0.24077448 0.01751473 0.16146654 -0.33003753 -0.07647788 0.024024753 0.01626927 -0.03014131
0.21291424 -0.13353632 -0.27773595 -0.15151343 0.17406517 0.03657967 -0.0863656 0.27111986
-0.19924419 -0.13323489 -0.15906136 0.24570872 0.21765071 -0.07021819 0.0057612075 -0.18001348
-0.05187306 -0.026408229 0.03620276 0.16885582 -0.14102443 -0.10930701 0.062000472 -0.10644797
0.20390745 -0.23826428 0.4476171 0.08078819 -0.09305676 -0.12752399 0.10009165 -0.0070771384
-0.06249969 0.1507234 -0.41826242 -0.21016221 0.0639159 -0.025899531 -0.10926454 -0.09519548
0.18045217 -0.034652524 0.2476001 -0.2678267 -0.17710233 -0.27351528 0.12401508 -0.08118421
0.08852492 0.11997975 -0.050279945 0.012652485 0.040311966 -0.23756133 -0.026453208 -0.32919872
0.026919544 0.12505104 -0.16947582 0.14932835 -0.03824721 0.19726354 0.14441599 -0.31055358

conv2.bias f4 [32]
00000000: fc1e 7839 e8e5 d33a 7007 4b39 06a2 c139
00000010: 7080 a337 11e3 4fba 4201 9639 b27e dab9
00000020: c723 6fba 0184 87b9 c50a 89b8 1a4f 42ba
00000030: 3c67 7a39 5e8d c5b9 126a f9b9 c050 9c3a
00000040: e441 e3b8 ee72 03ba 4c3d 1c3a f588 273a
00000050: 49ab e539 964f c4b9 dbe7 243a 8be1 c5b9
00000060: 6002 a8ba f01c b6b8 5a46 043a dd9e f8b9
00000070: 5978 283a 0e9f 1cba 2a29 81ba fe54 19ba
0.00023662666 0.001616654 0.0001936236 0.00036932545 1.9490923e-05 -0.0007930259 0.00028611167 -0.00041674596
-0.00091224577 -0.00025847557 -6.534675e-05 -0.00074123 0.00023880316 -0.00037680095 -0.0004757201 0.0011925921
-0.000108364766 -0.0005014379 0.00059600617 0.00063909526 0.000438059 -0.0003744333 0.00062906527 -0.0003774281
-0.0012818091 -8.683826e-05 0.00050458836 -0.00047420608 0.00064266246 -0.0005974629 -0.0009854187 -0.00058491516

bn2.weight f4 [32]
00000000: 8154 fb3f f53f f63f c674 f63f 8155 da3f
00000010: 2518 e73f c717 df3f 0f5d f13f 2896 e93f
00000020: bb0b f13f c383 d43f ae05 e53f 0f21 e03f
00000030: 2ebc d83f e9bb e53f cdaf e73f 17a2 f23f
00000040: f107 eb3f 428c ee3f e29c e83f c343 e53f
00000050: e76a fe3f ed75 e33f 6432 e73f c8e9 cd3f
00000060: 486c ea3f 26a4 ea3f df12 db3f 765c f43f
00000070: b308 d23f 5bd1 ed3f 227f f83f 1a7e e63f
1.9635164 1.9238268 1.9254386 1.7057344 1.8054243 1.7429131 1.8856524 1.8248949
1.8831705 1.660271 1.7892358 1.7510089 1.6932428 1.7947971 1.8100525 1.8955716
1.8361799 1.8636553 1.8172877 1.7911304 1.9876374 1.7770363 1.8062253 1.6086969
1.8314295 1.8331344 1.7115134 1.9090717 1.6408905 1.8579515 1.9413798 1.8007233

bn2.bias f4 [32]
00000000: dfcd 6fbf 071d 76bf 2196 68bf d290 36bf
00000010: 44dc 72bf ad3d 66bf 35ee 70bf 00b8 86bf
00000020: 9e08 4dbf fc7d a1bf 2a80 71bf 7e7c 76bf
00000030: 1be6 4abf d16e 8abf 2e56 55bf b215 8dbf
00000040: a7ab 8cbf f9f4 62bf 9d3c 6fbf a946 7ebf
00000050: fa32 65bf 6f5f 81bf 180d 69bf 9bf7 2dbf
00000060: 349b 88bf 975c 62bf 1651 a0bf adc3 65bf
00000070: c2fb 65bf 47ba 44bf 7522 7dbf 7056 82bf
-0.9367351 -0.9613804 -0.9085408 -0.7131473 -0.9486735 -0.8993786 -0.94113475 -1.0524902
-0.80091274 -1.2616572 -0.9433619 -0.9628371 -0.79257363 -1.0815068 -0.83334625 -1.1022246
-1.0989884 -0.8865505 -0.93451864 -0.9932657 -0.8953091 -1.0107249 -0.91035604 -0.6795594
-1.0672364 -0.8842253 -1.2524745 -0.897517 -0.89837277 -0.76846737 -0.988807 -1.0182629

bn2.running_mean f4 [32]
00000000: c28b 07bf e2ab 64bf 3c3d c3be 7e48 81bf
00000010: 66e6 17bf 2a34 1bbf 1c67 b9bc 8f58 3f3e
00000020: b546 53bf f618 f63f 4d4d 0bbf 4aea 90be
00000030: a3a0 7abe b726 703e b603 7fbf 083b f93d
00000040: 04cc 0a3f ddf3 7bbf 69f1 c8be 0b24 c4be
00000050: 596e 44bf 779c e8be 5759 52be eca9 a5bf
00000060: fa57 2b3e b741 18bf c208 533f 9a21 43bf
00000070: f793 20bd dace a2bf 56bf 37bf 1e73 de3e
-0.5294763 -0.8932477 -0.38132656 -1.0100248 -0.59335935 -0.6062647 -0.022632174 0.18686126
-0.82529765 1.9226367 -0.54414827 -0.28303748 -0.2447534 0.23452269 -0.9961504 0.121694624
0.54217553 -0.9841898 -0.3924668 -0.3830875 -0.7673088 -0.45431873 -0.20541893 -1.2942481
0.16732779 -0.5947527 0.8243524 -0.76223147 -0.03920361 -1.2719376 -0.7177633 0.43447202

bn2.running_var f4 [32]
00000000: 16ac 2d3f f07d 3f3f 2672 123f 4e28 573f
00000010: 7f57 463f 6a78 353f b3d2 183f 4bf9 0c3f
00000020: 3ec5 293f c165 983f a94e 363f ab02 423f
00000030: a1b8 2b3f 3107 253f 8ef3 363f 4a5e 303f
00000040: be62 1d3f 00df 2f3f 938d 9b3f 0692 3d3f
00000050: cad5 2f3f 081c 5c3f 9faf 043f 0f27 3b3f
00000060: c811 0c3f 8520 203f 647c 2e3f 97f3 243f
00000070: 4e3c 1c3f b504 643f 85cc 453f 9dd4 073f
0.6784071 0.7480154 0.57205427 0.84045875 0.7747726 0.7088686 0.596965 0.5506789
0.6631659 1.1906053 0.71213776 0.7578532 0.67078596 0.644641 0.71465385 0.68893874
0.61478794 0.68699646 1.215258 0.7405094 0.6868559 0.8598027 0.51830477 0.73106474
0.5471463 0.6254962 0.68158555 0.6443419 0.6102952 0.8906968 0.772652 0.530588

fc1.weight f4 [128, 1600]
00000000: 897d 033d 4bdd abbd 48c0 193e f85e b03e
00000010: 02ae c6bd 1cf6 2dbe 0cea e5bd e07b 063d
00000020: 8ae8 c93e acae 84bd 7c6b ed3c 21c4 cbbb
00000030: 3b25 f4bd 0c53 583e 1b03 593d e077 843e
00000040: a220 93bc 0e25 d23d 3325 84be 432f 18be
00000050: fa80 723c de08 d1bc c276 dd3d 80ea a5bd
00000060: 0db3 1dbd 91d4 053e 2ed3 403e 022a 4d3d
00000070: 119e 17be bd7c 0f3e 5e82 053e 3fc7 5e3c
00000080: ae52 69bd 6731 9bbd b481 8dbe 548e 5dbe
00000090: b16b 233d 91e6 e53d 1fd3 d03c a1fa 663e
000000a0: 726f 1e3c d66c 823d 3e0b 2cbe e293 29be
000000b0: a10c 88be a7ab c93d 6fbe b3bd f010 673d
000000c0: c9f1 a53d c0bf 46bc 502b 09be 3fe0 e23c
000000d0: f04c 093d 6af3 55bd f061 473d aaee 19bd
000000e0: b19b 8d3d 4bbe b33e 73ae b4bd 510b 6c3e
000000f0: c2dd 7c3d 698c 313c 1f78 d4bc de7f 4a3c
00000100: b7ce dbbc f3ca e9bd 9248 f73d 4aa1 e5bd
00000110: 74a2 aebd 9f8b 7e3d 7c16 1bbe 9a69 6bbd
00000120: 01aa 653d 68a0 3a3d dac9 51bb a5d3 a23d
00000130: 6726 743e 0759 0a3d e073 373e a2a1 0e3d
00000140: 287a 0e3e a93f 3bbd 28fe 1e3e 8b9e b63e
00000150: 4583 a3be 08ad a8bd 47d9 54bd c24b 043e
00000160: 7dac f2b8 22e1 833e 8c99 60bd 2974 393d
00000170: af01 343d 19d7 853d 0711 f3bb 76d8 01be
00000180: 1684 223d cd2b d9bc 33fc 6dbd bd45 2dbe
00000190: ffc5 f83d f390 413e fa4c 573b b6f7 c53c
000001a0: 1c6c 303e 1105 683d 0d57 c8bd 8e75 afba
000001b0: f8a3 2a3e c508 07be e6cd 353e ebb8 8bbc
000001c0: 0698 09be 61c9 0f3c 3b36 48be 8d3f 0abe
000001d0: ca2d c3bc be06 ff3c cd0c 9fbe 0ed4 b93d
000001e0: 467b 57bd 2d2f 0c3e b12b 353d e253 ccbd
000001f0: 9583 5abe 6ad3 db3d d2c6 233c 5222 8bbc
00000200: 2658 33be 6558 8e3c ee32 343b b31d 183e
00000210: 4a25 2cbe 86b8 76bc 8d54 dd3d 015d 2fbe
00000220: 6dc4 743d 3f87 4fbe 0b76 a33e 1640 55bd
00000230: 3f19 6b3d fc4f 713c 1bee 863d 9d1c bd3d
00000240: b274 28bd e199 763c 002a 10be 9cc9 a43e
00000250: 9a61 aa3e b6bd 8b3e b1c6 94bd c51e 1c3d
00000260: 529b a43c 73a1 aebd 5efa e03d c295 6d3e
00000270: 6ae8 093c aef1 d83c d079 9c3d 4919 3dbe
00000280: 6f77 aabe 37ac 013e 2c1a 4fbc 2285 333e
00000290: 1f5c 95be e6ac 06be fb5d c13d cd43 86bd
000002a0: 4ef6 733d 4b35 02bd 0edb 4b3e 54d3 fdbd
000002b0: 4a86 a2bd 6edd 09be ce0a 2b3e 501e 76be
000002c0: d49f 663e 0e9f 83be b25f f33d 1aaa 1f3e
000002d0: 5be0 993e bbbb 283e 2c24 7abd 3077 01be
000002e0: 2f18 8abe dbc3 003e 0899 c9bd c32c b5bd
000002f0: ab24 fa3d 6768 873e dbfa 47be 3e06 debd
00000300: a920 ad3c bc41 28be 5067 57bd ad4d 25be
00000310: 96bd 7d3c 3388 d3bd d496 dd3d 3c11 00bc
00000320: f44a 45be ae07 833e 82ac 3f3e 51db 343d
00000330: 8dc9 f23b 5c2b 7d3e 641e dcbd ac97 05be
00000340: 81cc f23d 6edb abbd 0fbc 08be 97fd 163e
00000350: 91f1 4fbd 1be9 1dbe 4fbb ba3d 4cee 063e
00000360: d066 82bd 08f8 f3bd 5510 ae3a e959 58bd
00000370: 0510 cd3c 244b 413e 826e df3c ecda b6bd
00000380: 00c1 69be 0996 2f3d b90d 2d3e 424d eabd
00000390: 93bf 3cbe 65fc eebb e30a 30bd bcc1 193b
000003a0: 2398 2fbe 6c7e 42be e89f b93d e5f0 4b3d
000003b0: 9c0a 6b3d 8f31 a53c 46d2 6bbd 4c32 38bd
000003c0: 708d 0dbe cfdc 34bd 6d24 01bd 3b8a 6c3e
000003d0: f2fd 35bd 15f5 a53e ec99 e1bd 3497 153d
000003e0: 4c44 063e b684 a3bc 7f30 b3bd 339f 3abe
000003f0: 1fc5 25bd 55dd de3d 971a 483b d23f 643e
0.03210214 -0.08391818 0.15014756 0.34447455 -0.09701158 -0.16988415 -0.112262815 0.03283298
0.39435226 -0.064786285 0.028981917 -0.0062184487 -0.11921164 0.2112543 0.052981477 0.25872707
-0.017959896 0.10260974 -0.2580963 -0.14861779 0.014801258 -0.025516924 0.10813667 -0.08101368
-0.038500834 0.13069369 0.18830559 0.05008889 -0.14806391 0.14012428 0.13038012 0.013597309
-0.056963615 -0.07577782 -0.27638018 -0.21636325 0.039897624 0.11225618 0.025491295 0.22556545
0.009670125 0.06368415 -0.16801164 -0.16560319 -0.26572135 0.09847193 -0.08776557 0.056412637
0.081027575 -0.012130678 -0.13395429 0.02769482 0.03352064 -0.05223409 0.048677385 -0.037581123
0.069144614 0.3510612 -0.08822336 0.23051192 0.061734922 0.010836699 -0.025936184 0.0123595875
-0.026831968 -0.114156626 0.120743886 -0.11212404 -0.08527079 0.06214487 -0.15145296 -0.057473756
0.05607033 0.04556313 -0.0032011182 0.07950524 0.23842774 0.03377631 0.17915297 0.034822114
0.13913786 -0.045715008 0.1552664 0.35667834 -0.31936088 -0.08236128 -0.051965024 0.12919524
-0.00011571588 0.257577 -0.054833934 0.045276795 0.043946918 0.06535167 -0.0074178013 -0.1268023
0.03967675 -0.026510144 -0.058101844 -0.16921134 0.1214714 0.1890295 0.0032852278 0.02416597
0.1722874 0.056645457 -0.097822286 -0.0013386474 0.16664112 -0.13186939 0.17754325 -0.01705595
-0.13436899 0.00877604 -0.19551937 -0.13500805 -0.023825545 0.031131145 -0.31064454 0.09073649
-0.052607797 0.13689871 0.04423112 -0.09976937 -0.21339257 0.107336834 0.009996133 -0.016984139
-0.17514095 0.017376134 0.0027496177 0.1485508 -0.168111 -0.015058642 0.108071424 -0.17125322
0.05975764 -0.20266436 0.31925997 -0.05206307 0.057397123 0.014728542 0.06588384 0.09233973
-0.041126914 0.015051336 -0.14078522 0.32185066 0.3327759 0.27293175 -0.0726446 0.03811528
0.020093594 -0.08526888 0.10985254 0.2320166 0.008417228 0.02648243 0.076404214 -0.18466677
-0.33294246 0.12663351 -0.012640517 0.17531255 -0.29171845 -0.13151893 0.094417535 -0.06555901
0.059561066 -0.031789105 0.19907781 -0.12393823 -0.0793577 -0.13463375 0.1670334 -0.24035001
0.22521907 -0.25707287 0.11883487 0.15592232 0.30053982 0.16477863 -0.061069652 -0.12643123
-0.26971576 0.12574713 -0.098436415 -0.08846428 0.12214025 0.2644684 -0.19529288 -0.10841034
0.021133738 -0.16431326 -0.05258876 -0.16142912 0.015487095 -0.10328712 0.10819784 -0.007816609
-0.19266874 0.25591797 0.1871815 0.04415447 0.0074092806 0.24723572 -0.10747984 -0.1304614
0.11855412 -0.08391462 -0.13352989 0.14745174 -0.050767485 -0.15420954 0.091177575 0.1317684
-0.06367266 -0.119125426 0.0013280014 -0.05282012 0.025032053 0.1887632 0.027274374 -0.08928475
-0.2282753 0.042867694 0.16899766 -0.11440517 -0.18432455 -0.0072932714 -0.042979132 0.0023461422
-0.1714788 -0.18993539 0.09063703 0.04979028 0.057383165 0.020165233 -0.05757358 -0.04496984
-0.13823485 -0.044155892 -0.03152888 0.23099606 -0.044431634 0.32413545 -0.110156864 0.03652115
0.1311199 -0.019960742 -0.08749484 -0.18224792 -0.040471192 0.108820595 0.0030533427 0.2228997

fc1.bias f4 [128]
00000000: d877 11bb 3319 18bb a001 0f3d 384e 34bc
00000010: 21d5 fe3c 8524 253d c8b6 aabb 1cc7 273d
00000020: 6cec 873d 283f 053d 6e28 dc3d f05c 6abc
00000030: c3e4 883d 9dc6 9abc 6eff 5ebd 6e6c 9fbc
00000040: 2447 0abd 58f3 963c 50e6 863c 3d64 853b
00000050: 8582 273d 6d97 1d3c 67c9 123b 8293 17bd
00000060: ed8e 84bd 1422 403d 3037 dbbc 6fe9 5cbc
00000070: bbfb 163d a4ce 763a de6a 2b3c c291 84bc
00000080: 02c0 563d ad06 10bd 6680 cb3c 0815 81bc
00000090: 7fe4 9ebc e42c f7bc a5e1 773c 8a2c 2d3d
000000a0: 59bd 53bd d492 8b3c ad4f 7bbd f859 1c3d
000000b0: c1ca fabc 4fda 243c 6c5c 0a3d fa7f 2b3d
000000c0: 2b4e 033d affe 2d3c 4b79 fe3c 3865 92bd
000000d0: da6d 01bc 2b65 893d a231 103d 4ffc 1dbd
000000e0: ffaa fa3c dc3c 18bd fd5c 093d eefb 1d3d
000000f0: f1bb 503d 7635 0d3d aada 50bd dd95 8dbc
00000100: 8fe0 373b ca2d 45bd 9b88 3bbd 84da 0fbd
00000110: b7ab f7bc acb5 8bbc 836a 4ebd 12e3 ad3b
00000120: 72ff 16bd fe06 7e3d a265 0abb 1582 c33c
00000130: e4ca a63b 52ee 1abd 4416 7e3c 64ea de3c
00000140: 95ec b03b 5062 4b3d a949 c5bc fe28 cf3c
00000150: da11 b63c 8103 4dbc e4ee 16bb 1b00 21bd
00000160: c559 233c 49b2 5abd e6d8 ab3d 3281 10bd
00000170: 7819 7c3c 7a34 df3c a1f5 32bd 7319 cbbc
00000180: c869 893d 1569 a13c b23a a33a 455e 983d
00000190: 36e8 c23d 353e 13bd 7586 1dbd 0dcf 57bd
000001a0: 1144 0ebd e6b3 9ebd 11f8 3bbc 7511 393d
000001b0: 6974 3c3d 2136 133d 9c63 79bd 5018 0cbd
000001c0: 85ac 333c 0647 4bbd 485c 6abc 36df 023d
000001d0: b920 533d b183 863d 5908 cebc e1c6 533d
000001e0: b099 b83c 64bd cf3d 02c9 a73d 08cd 513d
000001f0: 2e65 0fbb 26a6 333d f5c4 babd f1fb 793c
-0.0022196677 -0.002320838 0.03491366 -0.011004977 0.031107487 0.04031803 -0.0052097775 0.04096137
0.06636891 0.032530934 0.10749899 -0.014304385 0.06684258 -0.018893534 -0.054442815 -0.019460883
-0.03375925 0.018426582 0.016467243 0.004070787 0.040895957 0.009618622 0.0022397877 -0.03700591
-0.064725734 0.0469075 -0.026759714 -0.013483389 0.036861163 0.0009414947 0.010462491 -0.016182784
0.052429207 -0.035162617 0.024841499 -0.015757099 -0.019396065 -0.030172773 0.015129481 0.042278804
-0.051694248 0.017037787 -0.06135528 0.03817174 -0.030614259 0.010061814 0.033779547 0.041870095
0.03205697 0.010619803 0.031063696 -0.07148212 -0.007899726 0.067087494 0.035203584 -0.0385707
0.030599115 -0.037167415 0.033535946 0.038570337 0.050960485 0.034474812 -0.050989784 -0.017283374
0.0028057431 -0.04813937 -0.045784574 -0.035120502 -0.030233247 -0.017054401 -0.050394546 0.00530661
-0.036864705 0.062018387 -0.0021117707 0.023865739 0.0050901044 -0.037824936 0.015508238 0.027211376
0.0053992965 0.049654305 -0.024082975 0.025288101 0.02222531 -0.012513042 -0.0023030574 -0.03930674
0.009970133 -0.053392682 0.083909795 -0.03527946 0.015386932 0.027246702 -0.04369128 -0.024792409
0.06709629 0.019703427 0.0012453406 0.074398555 0.09516947 -0.035947997 -0.038458306 -0.052687693
-0.034732882 -0.07749157 -0.011472718 0.045182664 0.046009455 0.035940293 -0.06088601 -0.034202874
0.010966425 -0.04962828 -0.014304228 0.03195115 0.05154488 0.06568087 -0.025150465 0.051703338
0.022534221 0.10143545 0.08192636 0.051220924 -0.0021880376 0.043859623 -0.09119598 0.015257821

fc2.weight f4 [3, 128]
00000000: 0813 4dbd ebe0 2a3e f3ba acbd e48e e53d
00000010: f699 173e 403c bebd 2d36 053e d0fe e93d
00000020: bdbc 36be da71 c03d 80a7 8bbd ce5d 2c3e
00000030: e1f5 8fbd 04aa bfbd cc4a 133d e89d 663d
00000040: cd0c 473e 035f 2dbe 427c 80bd 4f2f 403e
00000050: 2880 12be 494d 8d3d dcb8 723e fb82 f93d
00000060: 6a66 0fbe 9470 adbd a7f8 2dbe 584d 35be
00000070: b31d 1ebe 36a6 70bd 301d 093e c2e2 353e
00000080: 92c4 2dbe dc2b 1e3d fe95 af3d 44b9 83bc
00000090: a3c3 6a3e 0860 453e e109 7abe fc69 0dbe
000000a0: 3414 d33d 0fa9 22be f2bd 0b3e fff6 acbd
000000b0: 071b f63d dbde d33c 4913 1cbd 1e7c 233d
000000c0: dfb1 24be 575b 00be e66d 89bd 13f8 1b3e
000000d0: 06a4 ce3d 8695 ad3c c949 f43d 3a96 c73d
000000e0: 88d5 debc 6f8e 89bd f388 51bd bfa7 bf3d
000000f0: da42 19be 024f 143d 5ccb 193e 73a7 27be
00000100: c98e e13d 7a36 3d3d 94a7 fc3d d31b bfbd
00000110: 30de c6bd f80e bb3d da72 ca3d c73e 523e
00000120: ae42 153d 9227 0f3c acbd 44be 1f1f 6cbe
00000130: 1185 5f3d a20d ec3d 95ef ebbd c08b 19be
00000140: 8b51 e73d e1ca 61bd 9575 d2bd a8cd c9bd
00000150: 74fd 2abe 25a5 5bbc d564 7bbd a117 273c
00000160: 440e 943d 2e86 86bd a91e e1bd 6596 d53d
00000170: 9718 0cbe 98a9 14be 580d 9dbc 425b 103d
00000180: 454e 3bbd 7cac ce3d 04bc d23d 75e8 9bbd
00000190: d276 28be a284 4cbe a8fd 90bd 1300 e1bc
000001a0: 3032 653d 21a7 a63d f9a4 1e3e dd0a cebd
000001b0: b9fc c03c 2539 10be c91c c33d 1c28 213e
000001c0: 09ab b83d 8b62 74bd f491 7bbd cf0b 05be
000001d0: 50f8 17be 1371 a0bd cf19 543e 3a40 10be
000001e0: ce28 ae3d 90f3 3cbe 39f3 04bd c9de 033e
000001f0: 9498 913d f982 28be fd78 b33c 8ae8 293e
00000200: 65eb eb3d 0015 94bd 107f e53d 1e7a e0bd
00000210: 36a4 e2bd a6b3 203e d601 97bd c80d babd
00000220: f92f b73d 94c7 0a3e fba7 06be 1b1e 86bd
00000230: 6e49 65bd bdc9 253e fdee 073e ddf3 803d
00000240: ca3b 3e3d d05f b13c dea5 0b3e 0cde 98bd
00000250: a488 ff3c 861c b7bd 9d0e 61bc b6a6 973d
00000260: f925 16bc 6e5b 053e d63f 693d ddc6 8d3d
00000270: f1f0 003e 2588 ce3d de7b 3bbd 7475 26bc
00000280: 2e09 c03d 36c7 2a3d 9f8f 83bd 47c2 d63d
00000290: e419 b3bc e132 aabd efd1 333d d0e9 cb3d
000002a0: 98f9 513d 9057 a13d 69bf e6bd 98b0 f43d
000002b0: 539f 083d d142 02be 9ff2 0ebe 64b3 413e
000002c0: d205 9a3d 7eb0 b4bc a7aa d9bd dd5f 9e3d
000002d0: 6842 03be 40b2 77bd 3037 12be 2a2f cdbd
000002e0: 418b fbbd 4b61 0e3e 7201 1e3e 77a6 08be
000002f0: b27b 073e e1e4 d6bd d546 ecbd 8758 7e3d
00000300: 3f80 a73d 4b9b 7e3d dc26 83bb 5c26 0b3e
00000310: bfef 9fbd 4b45 5e3d a22e f1bd 3dcd 67bd
00000320: 4230 e43d f8de e5bd 5bfc 8a3d 12f5 093d
00000330: f862 e33d 903d 153c 151c 083d 0a1e 243e
00000340: 1624 eebd 8eb7 bbbd 631d 2c3e bdb1 69bd
00000350: 2648 b33d 846f b13d e572 0bbd fd4f 233e
00000360: 4a4e da3d 631d 9b3d 0377 0e3d bf64 cfbd
00000370: e732 f63d ffa7 f03d 0240 8cbd 2e9d 303d
00000380: 7307 1a3e 09b2 f43d 5589 6d3d 51e3 8a3b
00000390: 1275 8fbc 9e30 853d e38d 8fbd c2b2 243e
000003a0: ea9f 053e d84f 98bc 0f08 43bd f251 f93d
000003b0: e62a fcbd b4f2 a63d a452 aebd 62ff 1dbd
000003c0: d232 a5bd 21d9 fc3d 6e60 19bd f682 843d
000003d0: 9707 c33d aa29 dd3d 98db 2abd 4217 593d
000003e0: 02a2 103e f38b 173c 7d6b aebd 0937 123d
000003f0: 6e9a eb3d 73c8 c63d 2156 babd 506b bdbd
-0.050066978 0.16687362 -0.08434095 0.11208895 0.14804825 -0.092888355 0.13008948 0.11425555
-0.17845435 0.093967155 -0.068190575 0.16832659 -0.070293196 -0.093586 0.035960004 0.056302935
0.19438477 -0.16930775 -0.062737 0.18768047 -0.143067 0.068995066 0.23703331 0.12183186
-0.14003912 -0.08468738 -0.16989385 -0.17705286 -0.15441017 -0.05875226 0.1339004 0.17762282
-0.16969517 0.038616046 0.085735306 -0.016079552 0.22926192 0.19274914 -0.24417831 -0.13809961
0.10306588 -0.15884803 0.13646677 -0.08445548 0.12016874 0.025863102 -0.03810433 0.03991329
-0.16083477 -0.12534843 -0.067104146 0.15231352 0.10089879 0.021189462 0.11928136 0.0974545
-0.027201429 -0.0671662 -0.051155996 0.09358167 -0.14966908 0.03620816 0.15018982 -0.1637247
0.11013562 0.04619453 0.123366505 -0.09331479 -0.09710348 0.091337144 0.098851874 0.2053176
0.036440544 0.008737462 -0.19212979 -0.23058747 0.05457026 0.11526038 -0.11520306 -0.14994717
0.1129485 -0.05512512 -0.10276333 -0.09853679 -0.16698247 -0.013406073 -0.061375458 0.010198505
0.072292835 -0.065685615 -0.10992176 0.10429076 -0.13681255 -0.1451782 -0.019171402 0.03524328
-0.04572894 0.100914925 0.102897674 -0.07612697 -0.16451576 -0.1997247 -0.07079631 -0.027465856
0.055956066 0.08137346 0.1549262 -0.10060666 0.023558008 -0.14084299 0.09526975 0.15737957
0.09016997 -0.05966429 -0.06141849 -0.12992786 -0.14840817 -0.07834067 0.2071297 -0.14087
0.085038766 -0.18452287 -0.032458518 0.12877955 0.0710918 -0.16456212 0.021908278 0.16592613
0.11519507 -0.07230568 0.11205876 -0.10960792 -0.11066477 0.1569353 -0.07373397 -0.0908466
0.08944697 0.13552696 -0.13150017 -0.06548711 -0.05597823 0.16190238 0.1327476 0.06296513
0.046443738 0.021652132 0.13637492 -0.07464227 0.031193085 -0.08940987 -0.013736394 0.074048445
-0.009164327 0.13023159 0.056945644 0.06922696 0.12591912 0.10084561 -0.045772426 -0.010159839
0.09376751 0.04169389 -0.06423878 0.10486274 -0.021862932 -0.08310486 0.04390138 0.099567056
0.05126342 0.07878029 -0.11266977 0.11947745 0.03335507 -0.12720801 -0.1395974 0.18916088
0.075206414 -0.022056814 -0.106282525 0.07733128 -0.128183 -0.060472727 -0.14278865 -0.100187615
-0.1228242 0.13904302 0.15430239 -0.13344751 0.1323078 -0.10492874 -0.11536948 0.062096145
0.08178758 0.062159818 -0.004002435 0.13588852 -0.078094 0.0542653 -0.11776473 -0.056592215
0.11142017 -0.112241685 0.06786414 0.033680983 0.11102861 0.009108916 0.033229906 0.16027084
-0.116279766 -0.0916587 0.16808085 -0.05705427 0.087539956 0.08663848 -0.03404512 0.15948482
0.10659464 0.075739644 0.034781467 -0.10126638 0.120214276 0.11750793 -0.06848146 0.04311865
0.15041904 0.1194802 0.0579923 0.004238524 -0.017511878 0.065034136 -0.070094846 0.16083816
0.13049284 -0.01859276 -0.047615107 0.12173833 -0.1231287 0.08151761 -0.08511856 -0.03857363
-0.08066334 0.123461016 -0.03744548 0.06470291 0.09522932 0.107989624 -0.041713327 0.053000696
0.14124301 0.009249675 -0.085165955 0.035697017 0.115040645 0.097062014 -0.09098459 -0.09248984

fc2.bias f4 [3]
00000000: 6f83 ad3e 6ced 3fbe bfdf 2bbe
0.33889338 -0.18742913 -0.16784571
