results/arousal/classification/20251222_143256_485129/best_model.pt (torch, 369909 bytes, 22 tensors)

conv1.weight f4 [128, 1, 3]
0	0x3e89aca3	0.26889524
1	0x3f072f32	0.5280639
2	0xbe7fc608	-0.24977887
3	0x3f2bf832	0.6717559
4	0xbe4fb7e6	-0.20284995
5	0x3d56acf4	0.052411035
6	0xbe68cf0c	-0.22735232
7	0x3e95f288	0.292866
8	0x3ee44163	0.44581136
9	0xbee39fa3	-0.4445773
10	0x3f110291	0.5664454
11	0x3b685000	0.0035448074
12	0x3ec24b5c	0.3794812
13	0xbdbe071d	-0.092787005
14	0x3eb3ae35	0.35093847
15	0xbd9e0456	-0.07715671
16	0x3eeadd9f	0.45872208
17	0xbd7ab31a	-0.06120596
18	0xbe9ba0f5	-0.30396238
19	0x3e55ccf0	0.20878959
20	0xbe663fd5	-0.22485287
21	0xbd748d16	-0.059704863
22	0xbe201c90	-0.15635896
23	0x3ecdaddd	0.4017171
24	0xbedf9532	-0.43668514
25	0xbe402d36	-0.18767247
26	0xbe247a23	-0.16062216
27	0xbe8894b5	-0.26675954
28	0x3e6e92a0	0.2329812
29	0xbf0c0c18	-0.54705954
30	0x3eff9035	0.4991471
31	0xbf13f672	-0.5779792
32	0x3ecb029b	0.39650425
33	0x3d6ea6ba	0.05826447
34	0xbe6a810a	-0.22900787
35	0x3ec1a9ea	0.37824947
36	0x3d61f692	0.05516679
37	0x3ee6ef09	0.45104244
38	0xbdf45f91	-0.1193229
39	0xbe2a5b6d	-0.16636439
40	0x3e84232e	0.2580809
41	0xbdb7cd63	-0.08974721
42	0x3e38d77e	0.18050954
43	0x3f35493e	0.70814884
44	0x3e5a70cd	0.21332093
45	0xbe8e9604	-0.27848828
46	0x3ed8ba44	0.4232961
47	0x3bac6ce6	0.005262005
48	0x3ea8e289	0.32985333
49	0xbebcc798	-0.36871028
50	0xbf0e26a4	-0.5552771
51	0xbe0b80a2	-0.13623288
52	0xbee54c96	-0.44784993
53	0x3efeb20b	0.4974521
54	0x3e6167f0	0.22012305
55	0x3e06d777	0.13168131
56	0x3e9a0c70	0.30087614
57	0xbd21392b	-0.03936116
58	0x3ee1975a	0.44060785
59	0xbef23606	-0.47306842
60	0x3e065ab7	0.13120542
61	0xbef667ce	-0.48126072
62	0x3e2fe74f	0.17178081
63	0xbe763b2f	-0.24046014
64	0x3e45f07a	0.19330016
65	0xbe1f84f4	-0.15578061
66	0x3ede7c4b	0.43454203
67	0xbe94f238	-0.29091048
68	0xbec24a63	-0.37947378
69	0xbe85a3f9	-0.26101664
70	0x3f0cf9cd	0.55068666
71	0x3dc8014e	0.09765874
72	0x3f14f703	0.5818941
73	0xbf0cbd43	-0.5497629
74	0xbf003595	-0.5008176
75	0xbee28497	-0.44241783
76	0xbeaad53f	-0.3336582
77	0x3e973b6f	0.29537532
78	0x3e5dca87	0.2165929
79	0x3ef853cc	0.48501432
80	0xbe91ddab	-0.28489432
81	0xbe9e023b	-0.30861077
82	0x3ebe16ed	0.37126866
83	0xbe8165d1	-0.25272992
84	0x3e9250d8	0.28577304
85	0xbea2ca22	-0.3179484
86	0x3e734e74	0.23760396
87	0xbee8a589	-0.45438793
88	0xbe5574fa	-0.20845404
89	0x3e547756	0.20748648
90	0x3e00599d	0.12534185
91	0xbe816576	-0.2527272
92	0x3e92f8d6	0.28705472
93	0x3ec67b10	0.38765764
94	0xbf01ac82	-0.5065385
95	0xbe1d8dcf	-0.15386127
96	0x3f08486e	0.5323552
97	0xbe2e8fba	-0.17047015
98	0xbe5de672	-0.21669939
99	0xbf07afe6	-0.53002775
100	0xbe9cbd06	-0.30612963
101	0x3e820b49	0.25399235
102	0x3c8e0329	0.017335491
103	0xbedf2505	-0.4358293
104	0x3ddc0180	0.107424736
105	0xbe886221	-0.26637366
106	0xbf10db00	-0.5658417
107	0xbe667bd7	-0.22508179
108	0xbef7dee4	-0.4841224
109	0xbe9f1bd2	-0.31075913
110	0x3f1d86e0	0.6153393
111	0x3d91596f	0.07097136
112	0x3e6b8ec3	0.23003678
113	0xbf0e95a5	-0.5569709
114	0xbebbfb69	-0.36715248
115	0xbe29a50c	-0.16566867
116	0x3dc90357	0.0981509
117	0xbeeda473	-0.46414527
118	0xbe3bfd6c	-0.18358392
119	0xbea516b1	-0.32243875
120	0x3e1a5ce8	0.15074503
121	0xbe704fb5	-0.23467906
122	0xbc44f27d	-0.012020704
123	0xbede8b18	-0.43465495
124	0xbeaacf87	-0.33361456
125	0xbea14381	-0.31496814
126	0xbe1c6132	-0.15271452
127	0xbeed2873	-0.46319923
128	0x3efe6593	0.4968687
129	0xbce8067e	-0.028323408
130	0x3ed64392	0.41848427
131	0x3e0686ee	0.13137409
132	0xbf061aeb	-0.52384824
133	0x3ee47150	0.446177
134	0xbe25684f	-0.16153072
135	0xbe23a931	-0.1598251
136	0xbea90b21	-0.33016303
137	0xbf2b62f7	-0.66947883
138	0x3e330c10	0.1748507
139	0xbe82be0e	-0.25535625
140	0x3e225c55	0.15855534
141	0xbec61b4c	-0.386927
142	0x3f09f767	0.5389313
143	0xbec92c2b	-0.3929151
144	0xbc69a5e2	-0.014260741
145	0x3d90183a	0.07035871
146	0x3ea93209	0.33045986
147	0x3ef0b063	0.47009572
148	0x3f01e7cb	0.50744313
149	0xbf047f8c	-0.5175712
150	0x3e5e0ef9	0.21685399
151	0xbe7ecabf	-0.24882029
152	0xbd0fb3c5	-0.03508355
153	0xbeb37134	-0.35047305
154	0x3f128dc0	0.57247543
155	0xbed688a3	-0.4190112
156	0x3e89f2b0	0.26942968
157	0x3db6c032	0.08923377
158	0x3e1a0567	0.15041123
159	0xbec0debe	-0.3766994
160	0x3f011039	0.5041538
161	0x3d5945a0	0.053044915
162	0x3e14051c	0.14455074
163	0xbefd1c6d	-0.4943575
164	0x3e985bb9	0.2975748
165	0xbdb30c33	-0.08742561
166	0xbea593bc	-0.32339275
167	0x3ef89c63	0.48556814
168	0x3e0402f4	0.12891752
169	0xbed9b7f1	-0.4252315
170	0xbe3fa48a	-0.1871511
171	0xbdc32320	-0.09528184
172	0x3ea91710	0.33025408
173	0xbe4e59cf	-0.20151447
174	0xbec7fa3d	-0.39058104
175	0xbe1c1712	-0.15243176
176	0xbec6cfb7	-0.3883035
177	0x3e09d29f	0.13459252
178	0x3edc1d39	0.42991045
179	0xbf18234d	-0.59428865
180	0x3a3b9c54	0.00071567786
181	0x3ec59ffa	0.38598615
182	0x3cf2e87d	0.029651875
183	0xbe2539c9	-0.16135325
184	0x3e840e3b	0.25792107
185	0x3ea46ca8	0.32114148
186	0x3e7f4709	0.24929442
187	0xbc268fa5	-0.010166083
188	0xbe3d283e	-0.18472382
189	0x3e4f52c2	0.20246413
190	0xbd8fe328	-0.070257485
191	0xbe24d34c	-0.16096228
192	0x3ea23e4e	0.3168816
193	0x3f1f0e35	0.62131053
194	0xbe1c7866	-0.15280303
195	0xbd9f5244	-0.07779363
196	0x3d4fcd34	0.050732806
197	0xbcc5619e	-0.024094399
198	0x3e0887e2	0.13333085
199	0x3e40dbfc	0.18833917
200	0xbf137510	-0.576005
201	0xbdf762e8	-0.12079412
202	0x3ebd0e47	0.36924955
203	0x3e39ff13	0.1816371
204	0xbb223bc4	-0.0024754861
205	0xbe74a112	-0.23889568
206	0xbec0db09	-0.3766711
207	0xbf25385e	-0.64539135
208	0xbdd6818c	-0.10473928
209	0x3e3f46ea	0.18679395
210	0x3ee82864	0.45343316
211	0x3e8a6b34	0.27034914
212	0xbef9d963	-0.48798665
213	0xbe89cef4	-0.26915705
214	0xbd9a9d49	-0.07549531
215	0x3f22db81	0.63616186
216	0x3e15e064	0.1463638
217	0xbe46f478	-0.19429195
218	0x3e59c717	0.21267353
219	0xbdf0e241	-0.117619045
220	0xbeb0e5d8	-0.34550357
221	0x3efe24a2	0.49637324
222	0xbd382987	-0.04496148
223	0x3bca9bf8	0.0061831437
224	0xbf4b27b4	-0.7935746
225	0x3e80fb44	0.251917
226	0x3eea1f59	0.4572704
227	0x3e057e93	0.13036565
228	0xbefd3ff2	-0.4946285
229	0xbed0b0c0	-0.4075985
230	0xbed151a4	-0.408826
231	0x3eb497b8	0.35272002
232	0x3e1989e4	0.14994007
233	0x3f1d886b	0.6153628
234	0x3ededfc2	0.4353009
235	0x3da673d0	0.08127558
236	0xbe10d7c0	-0.14144802
237	0xbed0800d	-0.40722695
238	0xbeab6a9f	-0.33479783
239	0xbeee2437	-0.46512005
240	0x3e8b2628	0.27177548
241	0xbea159c7	-0.31513807
242	0xbc309cac	-0.010779541
243	0xbe3d3a30	-0.18479228
244	0xbd7aa1cc	-0.061189458
245	0xbecc6ecc	-0.3992828
246	0xbeba6e38	-0.36412215
247	0x3e9871bc	0.29774272
248	0xbe564445	-0.2092448
249	0x3eb5637d	0.35427466
250	0xbd8c1c79	-0.06841368
251	0xbf02859b	-0.50985116
252	0x3de6f8e3	0.1127794
253	0xbecfdb25	-0.40596882
254	0xbdf19945	-0.11796812
255	0xbee469a3	-0.44611844

conv1.bias f4 [128]
0	0xbe0c9662	-0.13729241
1	0x3e717618	0.23580205
2	0xbf20c5da	-0.628019
3	0xbe195e95	-0.14977486
4	0x3e9818dc	0.29706466
5	0xbe764267	-0.24048768
6	0xbe4f3576	-0.20235237
7	0xbec2ff68	-0.38085485
8	0x3edec6b1	0.43510965
9	0x3e684ef7	0.22686373
10	0x3dd08c7a	0.10183044
11	0xbebc3f5c	-0.3676709
12	0xbf07e491	-0.5308314
13	0x3eaedc43	0.3415242
14	0x3d1747a6	0.036933564
15	0xbe72e4d3	-0.23720102
16	0xbd0e0211	-0.03466994
17	0x3f00df12	0.5034038
18	0xbd98b973	-0.07457247
19	0xbc83e179	-0.016098725
20	0xbd64f56c	-0.055898115
21	0xbf0e34ad	-0.55549127
22	0xbf230507	-0.63679546
23	0xbed13da8	-0.40867352
24	0xbe4a3238	-0.1974572
25	0x3e71bbd1	0.23606803
26	0xbe8cbd2b	-0.27488074
27	0xbea327a6	-0.31866187
28	0x3f2a3b0b	0.6649634
29	0x3e99c314	0.30031645
30	0x3f0da37a	0.5532757
31	0xbead55e0	-0.3385458
32	0xbeaa3b7d	-0.3324851
33	0x3e1118d7	0.14169632
34	0xbedb7a8f	-0.42866942
35	0xbee2082b	-0.44146857
36	0xbe100f4a	-0.14068332
37	0xbe84d95f	-0.2594709
38	0xbf0354c4	-0.5130122
39	0x3eb9a065	0.36255184
40	0x3ead3697	0.3383071
41	0x3cfb98b6	0.030712467
42	0xbe5027be	-0.2032766
43	0xbf2cffbc	-0.6757772
44	0xbc2a4926	-0.0103934165
45	0x3dc8ed4d	0.098108865
46	0x3ee3a696	0.44463032
47	0xbde340fb	-0.110963784
48	0xbeaa6aaa	-0.33284503
49	0x3dbfd0b5	0.093659796
50	0xbf01d907	-0.5072178
51	0x3f05b372	0.52226937
52	0xbed593f8	-0.41714454
53	0x3e1361c8	0.1439277
54	0x3e20f389	0.15717901
55	0x3dfe4c24	0.124168664
56	0xbe79517b	-0.24347489
57	0x3ee5606c	0.44800127
58	0xbde32fc4	-0.11093095
59	0x3eeb7abc	0.45992076
60	0x3ef98ffe	0.4874267
61	0xbec82646	-0.390917
62	0xbefb399b	-0.49067387
63	0x3ef312ea	0.47475368
64	0x3e78ab09	0.24283995
65	0xbe631ea1	-0.22179653
66	0x3cf7eb02	0.030263428
67	0xbf423d24	-0.75874543
68	0xbf0dfd47	-0.55464596
69	0x3d8b3456	0.06797092
70	0x3d0f001f	0.034912225
71	0x3e3bb4af	0.18330644
72	0xbe8a0799	-0.26958922
73	0x3f118cfc	0.5685575
74	0xbcd59e67	-0.026076509
75	0xbef2dbdb	-0.4743336
76	0xbd01cee5	-0.03169145
77	0xbd3647d9	-0.044502113
78	0x3e1272ec	0.14301652
79	0xbf0aa722	-0.54161274
80	0x3ec1fec9	0.37889698
81	0xbedbaa58	-0.429034
82	0xbef6521b	-0.48109517
83	0xbeadd1da	-0.33949167
84	0x3eeb3231	0.4593673
85	0x3f23ca87	0.6398091
86	0x3e56131d	0.20905729
87	0x3f0500d9	0.5195442
88	0x3e5f0dbb	0.21782582
89	0xbdec94f5	-0.11551849
90	0xbe95ab97	-0.29232475
91	0x3de3e9d0	0.111285806
92	0xbeadcc8d	-0.33945122
93	0xbf0196d4	-0.5062077
94	0xbe8e5615	-0.2780005
95	0x3e8db611	0.27677968
96	0x3e923225	0.28553882
97	0xbe50747c	-0.20356935
98	0xbeecd43d	-0.46255675
99	0x3e5e8df8	0.21733844
100	0xbedc626a	-0.43043834
101	0xbf012875	-0.5045236
102	0x3f0eb952	0.55751526
103	0xbdb620f9	-0.08893008
104	0x3f431352	0.76201355
105	0x3ea56e06	0.32310504
106	0x3e8078e6	0.25092238
107	0x3dd064c7	0.10175472
108	0x3a794866	0.00095093844
109	0xbe33c656	-0.17556128
110	0x3da0b59d	0.0784714
111	0x3d8a57fb	0.06755062
112	0x3e7daf9d	0.24774022
113	0x3f05ec1a	0.5231339
114	0xbe24a081	-0.16076852
115	0xbebc718d	-0.36805382
116	0xbe1441d2	-0.14478233
117	0xbe8c76b9	-0.27434328
118	0x3dfe200c	0.12408456
119	0x3ed9e0bd	0.42554274
120	0x3ed8130a	0.42202026
121	0x3e04e6fd	0.1297874
122	0xbeffc0a4	-0.4995166
123	0xbeb96467	-0.36209413
124	0xbe488359	-0.19581355
125	0xbd94625d	-0.07245324
126	0x3e13f878	0.14450252
127	0xbf2ec77e	-0.6827315

bn1.weight f4 [128]
0	0x3f53fd47	0.82808346
1	0x3f082836	0.5318636
2	0x3f957732	1.1677
3	0x3f6b2975	0.91860133
4	0x3eb04c6b	0.34433302
5	0x3f660d73	0.8986427
6	0x3f3f0a72	0.74625313
7	0x3fa3cd99	1.2797118
8	0x3e6c19c6	0.23056707
9	0x3e95d3d1	0.29263166
10	0x3f85b6d0	1.0446415
11	0x3fa40b60	1.2815971
12	0x3fd2307c	1.6421046
13	0x3f42915c	0.7600305
14	0x3f320c1e	0.6954974
15	0x3f922d68	1.1420107
16	0x3f2fa0c1	0.68604666
17	0x3f76b8f2	0.96375954
18	0x3f28de0b	0.6596381
19	0x3f7abfa5	0.97948676
20	0x3f626a91	0.8844386
21	0x3fb3a84a	1.4035733
22	0x3fa528e6	1.2903106
23	0x3f7579b9	0.9588886
24	0x3f725d68	0.94673777
25	0x3f0f561a	0.55990756
26	0x3f8e6277	1.1123799
27	0x3f7b1c89	0.98090416
28	0x3f2251c6	0.63406026
29	0x3eceb96e	0.40375847
30	0x3f6310d4	0.8869755
31	0x3f8000b7	1.0000218
32	0x3fb5e776	1.4211261
33	0x3ef6ac97	0.4817855
34	0x3fb1502e	1.3852594
35	0x3f627139	0.88454014
36	0x3f422ba4	0.7584784
37	0x3f8ea1b6	1.11431
38	0x3fbbb01a	1.4663117
39	0x3e580344	0.21094996
40	0x3f4675ab	0.775233
41	0x3eb3e4f9	0.3513563
42	0x3f4375ed	0.76351815
43	0x3fc00d90	1.5004139
44	0x3f4df289	0.80448204
45	0x3f04ba7e	0.51847064
46	0x3f4e4088	0.80567217
47	0x3f3d1b0f	0.73869413
48	0x3fac2a99	1.34505
49	0x3f2549f1	0.6456595
50	0x3fb6f9ba	1.429496
51	0x3f6e8368	0.9316926
52	0x3f93a061	1.1533319
53	0x3f78f383	0.9724657
54	0x3f78ae01	0.9714051
55	0x3f4e76cd	0.80650026
56	0x3f5131c0	0.8171654
57	0x3f615b33	0.88029784
58	0x3f03dc05	0.515076
59	0x3f6f4289	0.934609
60	0x3e1b3e18	0.15160406
61	0x3f60b454	0.8777516
62	0x3fe47cc8	1.785058
63	0x3f0e0b42	0.5548593
64	0x3efc1518	0.49234843
65	0xbc467f1d	-0.012115267
66	0x3f6d236b	0.9263217
67	0x3fd3bbae	1.654165
68	0x3fa467d1	1.2844182
69	0x3f1cc695	0.6124051
70	0x3f600891	0.8751307
71	0x3f54db13	0.8314678
72	0x3fa8739f	1.3160285
73	0x3f622f68	0.88353586
74	0x3f10727d	0.56424695
75	0x3f664220	0.8994465
76	0x3ebf1b45	0.37325493
77	0x3f41baa6	0.7567543
78	0x3f116c2e	0.56805694
79	0x3f2d8ca5	0.6779273
80	0x3f89d68a	1.0768597
81	0x3f6a899c	0.91616225
82	0x3fba9360	1.4576225
83	0x3f84871c	1.0353732
84	0x3eda5dfb	0.42649826
85	0x3f20e2d9	0.6284614
86	0x3ea50412	0.32229668
87	0x3f6f2f16	0.9343122
88	0x3f06568e	0.5247582
89	0x3f3fc1f3	0.7490532
90	0x3f9a2b57	1.2044476
91	0x3f0e71f6	0.5564264
92	0x3f86f070	1.0542126
93	0x3f62ebf5	0.8864129
94	0x3f449b55	0.7679952
95	0x3f5d56ce	0.8646058
96	0x3f48d852	0.7845508
97	0x3ee54a22	0.4478312
98	0x3f968dee	1.1762064
99	0x3ef4b6e9	0.477958
100	0x3fb03745	1.3766867
101	0x3fa01564	1.2506528
102	0x3f0d9abe	0.5531424
103	0x3f1a4199	0.60256344
104	0x3f3bb45b	0.73322076
105	0x3e9d09e5	0.3067161
106	0x3f32b235	0.6980317
107	0x3f0a5d7a	0.54048884
108	0x3eaea17d	0.3410758
109	0x3f0e8e70	0.5568609
110	0x3f581b8f	0.8441705
111	0x3f0b638a	0.5444876
112	0x3f73af18	0.95189047
113	0x3e1b38b1	0.15158345
114	0x3eddf07b	0.43347535
115	0x3f8b28e2	1.0871851
116	0x3f826f8e	1.0190294
117	0x3f34db96	0.7064756
118	0x3f47a435	0.77984935
119	0x3f66b425	0.9011863
120	0x3e91f638	0.28508162
121	0x3e8de620	0.27714634
122	0x3f5c161e	0.8597125
123	0x3f46d86b	0.7767398
124	0x3f0d912d	0.55299646
125	0x3f54a61b	0.83065957
126	0x3f9b54fb	1.2135309
127	0x3fc17eae	1.5116785

bn1.bias f4 [128]
0	0x3d200548	0.039067537
1	0x3dadd4b7	0.08487838
2	0x3e3981b9	0.18115892
3	0x3dc5f1b2	0.0966524
4	0x3e13dfc2	0.14440826
5	0x3e2bcd27	0.16777478
6	0x3d2cf6ee	0.042227678
7	0x3e74e4e0	0.23915434
8	0x3df2aca8	0.11849338
9	0x3c5aa2e7	0.013344503
10	0x3dc44a59	0.09584493
11	0x3de46196	0.111514255
12	0x3dce6778	0.10078329
13	0xbc46b9c8	-0.012129255
14	0x3e71b2ff	0.23603438
15	0x3e6b1a8a	0.22959343
16	0x3dc510d0	0.09622347
17	0x3de6c6ea	0.112684086
18	0x3e6900f3	0.22754268
19	0x3dba13ff	0.09085845
20	0xbc4d7b48	-0.0125416
21	0x3dd23c9f	0.10265469
22	0x3e9836ed	0.29729405
23	0x3d5de959	0.054177616
24	0x3e577439	0.21040429
25	0x3e1ce04d	0.15319939
26	0x3d87a630	0.066234946
27	0x3dc39c43	0.09551289
28	0x3da6d731	0.08146513
29	0x3dcbd7a3	0.09953239
30	0x3de425f5	0.11140052
31	0x3e34b5d0	0.17647481
32	0x3e526a72	0.20548418
33	0x3de139e1	0.10997368
34	0x3e53be9e	0.20678183
35	0x3d8e6f1f	0.069547884
36	0x3e6a198a	0.22861305
37	0x3e4405c0	0.19142818
38	0x3ea63178	0.32459617
39	0x3d4ab39d	0.0494877
40	0x3dc65660	0.096844435
41	0x3d060ede	0.032729022
42	0x3dd1ebcd	0.102500536
43	0x3e0709b4	0.13187295
44	0xbdb974ee	-0.09055506
45	0x3cb12a07	0.021626486
46	0x3c276c35	0.01021867
47	0xbb5bcbea	-0.003353829
48	0x3e5d3124	0.21600777
49	0x3ce10cb7	0.027471883
50	0x3e2ab1ff	0.16669463
51	0x3d969894	0.07353321
52	0x3e0b0d73	0.13579349
53	0x3cfe49a0	0.031040967
54	0xbcea062b	-0.028567394
55	0x3d46c14e	0.048524193
56	0x3e8342a0	0.25636768
57	0x3b5a9fd9	0.0033359437
58	0x3e15bde5	0.1462322
59	0xbcec210c	-0.028824352
60	0x3deb23ea	0.114814594
61	0x3e9839e6	0.29731673
62	0x3e08f35f	0.13374089
63	0x3d8a98a9	0.06767399
64	0x3df8d302	0.121496215
65	0xbe7db3a0	-0.24775553
66	0xbd00128b	-0.031267684
67	0x3e730840	0.23733616
68	0x3ebcbbf3	0.36862144
69	0x3d370e74	0.044691518
70	0x3daf6b6a	0.085654095
71	0x3e893eaf	0.26805636
72	0x3e40f5c0	0.18843746
73	0x3dd843e3	0.10559823
74	0x3e081409	0.13288893
75	0x3e46d164	0.19415814
76	0x3d6d6ebf	0.057966944
77	0x3df42f65	0.11923102
78	0xbcead6fb	-0.028666964
79	0x3de6bc8d	0.11266432
80	0x3db56238	0.08856624
81	0x3e5c6f79	0.21526898
82	0x3e1f6a21	0.15567829
83	0x3e487722	0.19576696
84	0x3da0b13a	0.07846303
85	0x3ca74662	0.020419303
86	0x3e0c7cc0	0.13719463
87	0x3dd51eaa	0.10406239
88	0x3e120c9b	0.14262621
89	0x3e24fa23	0.16111045
90	0x3e731e37	0.23741995
91	0x3e449bef	0.19200109
92	0x3eb3a8ad	0.35089627
93	0x3e723cd4	0.23656017
94	0x3dec110f	0.11526691
95	0x3d8355d3	0.06412854
96	0x3d943c9c	0.07238123
97	0x3db93699	0.09043617
98	0x3e994848	0.2993796
99	0xbd597303	-0.0530882
100	0x3deec049	0.11657769
101	0x3e9651fe	0.2935943
102	0x3d5892e7	0.052874472
103	0x3e3dc0d5	0.18530591
104	0x3e065ab3	0.13120537
105	0x3e38149f	0.17976616
106	0xbd514811	-0.05109412
107	0x3e3c2851	0.18374754
108	0x3dcdc8d1	0.10048068
109	0x3e5c9347	0.21540557
110	0x3e03a6f3	0.12856655
111	0xbc4fa815	-0.012674351
112	0xbd3a2685	-0.04544689
113	0x3d960fe6	0.07327251
114	0x3da0cd75	0.07851688
115	0xbcf77808	-0.030208603
116	0x3e46fda1	0.19432689
117	0x3e7c7523	0.24654059
118	0x3df20ef5	0.11819259
119	0x3de4ae7f	0.11166095
120	0x3d048bdc	0.032359943
121	0x3d474c63	0.048656832
122	0x3e3d2dc2	0.18474486
123	0x3e7758c9	0.24154963
124	0x3d8bdc7a	0.06829162
125	0x3e94a8bf	0.29034993
126	0x3e0e11c2	0.13873962
127	0x3e92b47f	0.28653333

bn1.running_mean f4 [128]
0	0x3e40b3e2	0.1881862
1	0x3eb93e5f	0.36180398
2	0x3d61cce6	0.055127047
3	0x3dece0ca	0.115663126
4	0x3ec8b078	0.39197135
5	0x3d911232	0.070835486
6	0x3d29e2fd	0.04147624
7	0x3ccd26a5	0.025042841
8	0x3f081738	0.5316043
9	0x3eaf63a2	0.342557
10	0x3e825a19	0.25459364
11	0x3cbab00f	0.02278903
12	0x3cfe1888	0.031017557
13	0x3eb022ab	0.3440145
14	0x3ed21b47	0.41036436
15	0x3d5524f6	0.0520372
16	0x3e810fb2	0.25207287
17	0x3f0a2c33	0.5397369
18	0x3e3989c3	0.18118958
19	0x3e10a2cf	0.14124607
20	0x3dd851c3	0.1056247
21	0x39d61a2a	0.00040836754
22	0x3cb847a3	0.022495097
23	0x3d8e53e9	0.06949598
24	0x3e4ec987	0.20194064
25	0x3ebd9f77	0.37035725
26	0x3dde3181	0.10849286
27	0x3cbb7a8b	0.022885581
28	0x3f2b8095	0.66993076
29	0x3ecacb77	0.39608356
30	0x3f0eeba6	0.5582832
31	0x3d69b601	0.057058338
32	0x3d85d8a4	0.065354615
33	0x3eaad39a	0.33364564
34	0x3c5df043	0.013546052
35	0x3e1ff9a3	0.15622573
36	0x3e400430	0.18751597
37	0x3d7f979a	0.062400438
38	0x3c84cb6b	0.016210278
39	0x3f056fb2	0.5212356
40	0x3eaf1c43	0.3420125
41	0x3eb50b9f	0.3536043
42	0x3dc6c560	0.09705615
43	0x3cf36190	0.029709607
44	0x3e237748	0.15963471
45	0x3edb2ba1	0.42806724
46	0x3ee4d7d4	0.44695914
47	0x3def94b9	0.116982885
48	0x3d39f963	0.04540385
49	0x3eab5435	0.33462682
50	0x3ae1c7bd	0.0017225664
51	0x3f0ca6d1	0.5494204
52	0x3d31e4da	0.04343114
53	0x3e7b8768	0.24563372
54	0x3e6a9c6a	0.2291123
55	0x3e61999d	0.22031255
56	0x3da420ff	0.08014106
57	0x3ee74373	0.45168647
58	0x3e6cd0c3	0.23126511
59	0x3f02e3c9	0.5112882
60	0x3f0268cd	0.50941163
61	0x3d7168fa	0.058938004
62	0x3b6badb9	0.00359617
63	0x3ef48443	0.47757158
64	0x3ee18a7a	0.44050962
65	0x36159686	2.2290346e-06
66	0x3e4b7596	0.19869074
67	0x3c6e047e	0.014527438
68	0x3cfeed72	0.031119082
69	0x3e92754e	0.2860512
70	0x3e7c0668	0.24611819
71	0x3ea39084	0.31946194
72	0x3c51a534	0.012795735
73	0x3f16bf66	0.588858
74	0x3e932787	0.28741094
75	0x3e00a452	0.12562683
76	0x3ec867db	0.39141735
77	0x3eb2783b	0.34857354
78	0x3e8161cc	0.25269926
79	0x3e1bbc2a	0.15208498
80	0x3ec7edc8	0.390486
81	0x3d50074c	0.05078821
82	0x3bfaed62	0.007657693
83	0x3d850ec4	0.06496957
84	0x3efc04bc	0.49222362
85	0x3f27031f	0.6523914
86	0x3ef65e39	0.4811876
87	0x3f08a28d	0.5337303
88	0x3ebd6b38	0.36995864
89	0x3e23363b	0.15938656
90	0x3d7f6e9a	0.062361337
91	0x3ebb8838	0.36627364
92	0x3d77e734	0.060523227
93	0x3daaac51	0.08333648
94	0x3d896841	0.06709338
95	0x3ebb9827	0.3663952
96	0x3ea96580	0.3308525
97	0x3e992666	0.29912108
98	0x3cb91272	0.022591803
99	0x3e93d958	0.28876758
100	0x3bdc9b11	0.0067323525
101	0x3d2954d9	0.041340683
102	0x3f0e68b5	0.5562852
103	0x3e84cd31	0.259378
104	0x3f4829ae	0.781886
105	0x3f1565f7	0.5835871
106	0x3e91291c	0.28351676
107	0x3e8915dc	0.2677449
108	0x3ebb5e87	0.36595556
109	0x3e7fc2d0	0.24976659
110	0x3e6de65a	0.23232403
111	0x3e664e87	0.22490893
112	0x3e8a87d6	0.2705676
113	0x3f0629bd	0.5240744
114	0x3e99665a	0.299609
115	0x3d12c2bc	0.035830244
116	0x3d958207	0.073001914
117	0x3e78e80c	0.24307269
118	0x3e8e7714	0.27825224
119	0x3eec5a71	0.4616275
120	0x3f106ca9	0.564158
121	0x3e856586	0.2605402
122	0x3da721bb	0.081607305
123	0x3e032998	0.12808836
124	0x3e2d38d9	0.16916217
125	0x3e0a9d87	0.13536654
126	0x3e89d0ee	0.26917213
127	0x3c96dee8	0.018416837

bn1.running_var f4 [128]
0	0x3e01a5db	0.12660925
1	0x3e4eb13b	0.20184796
2	0x3d173c5a	0.03692279
3	0x3d71657b	0.05893467
4	0x3e3aead7	0.18253647
5	0x3cf3e11e	0.02977043
6	0x3c25f250	0.010128573
7	0x3c131055	0.008976062
8	0x3e6ea31f	0.23304413
9	0x3e03d8df	0.12875699
10	0x3dfc0614	0.12305847
11	0x3c04d5e2	0.008107634
12	0x3c6ecfc0	0.014575899
13	0x3d000e6c	0.031263754
14	0x3ed07ee6	0.40721816
15	0x3ca5a91f	0.020222245
16	0x3e039584	0.12850004
17	0x3e1ffa3e	0.15622804
18	0x3dc9bd0b	0.0985051
19	0x3d5bc2ef	0.0536527
20	0x3cdd55cb	0.027018448
21	0x387ccac7	6.0270333e-05
22	0x3c375780	0.011190295
23	0x3d2250fe	0.03962802
24	0x3e01394f	0.12619518
25	0x3e16d41f	0.14729355
26	0x3d85b3a0	0.065284014
27	0x3bcb5aa9	0.006205876
28	0x3daea543	0.08527615
29	0x3e0a2abc	0.13492864
30	0x3d72df15	0.05929478
31	0x3ccd713f	0.025078414
32	0x3d027215	0.03184708
33	0x3e18e66d	0.1493165
34	0x3b55bb9b	0.0032613042
35	0x3ddd4a93	0.108052395
36	0x3dd39021	0.10330225
37	0x3cb5807a	0.022155989
38	0x3baa4e90	0.0051973537
39	0x3e951cb1	0.29123452
40	0x3d020675	0.03174444
41	0x3e710d93	0.23540334
42	0x3d2faa7a	0.04288719
43	0x3c7c7880	0.015409589
44	0x3d60a7a6	0.054847382
45	0x3e9e0c2e	0.30868667
46	0x3d1811e4	0.037126437
47	0x3d36ea05	0.044656772
48	0x3c964c1e	0.018346842
49	0x3e80c00a	0.25146514
50	0x3a03f606	0.0005033914
51	0x3e1a8c84	0.15092665
52	0x3c9bd559	0.01902263
53	0x3dd252df	0.10269713
54	0x3d761e25	0.06008734
55	0x3da33fe1	0.07971168
56	0x3cec982c	0.028881155
57	0x3d57a346	0.052645944
58	0x3e0a6848	0.13516343
59	0x3e33b65c	0.17550033
60	0x3e170134	0.14746553
61	0x3cfb324e	0.030663636
62	0x3a576a35	0.0008217425
63	0x3d2832e7	0.04106417
64	0x3eab2931	0.33429864
65	0x33d5ddcb	9.958929e-08
66	0x3d8a827c	0.06763169
67	0x3be7570c	0.0070599373
68	0x3c5a4ab5	0.013323476
69	0x3e009ecb	0.12560575
70	0x3e12021f	0.14258622
71	0x3e33128b	0.17487542
72	0x3b465730	0.003026437
73	0x3e1400dd	0.14453454
74	0x3e28ee7a	0.16497222
75	0x3dc45503	0.09586527
76	0x3ea2951c	0.31754386
77	0x3ea6d7ae	0.32586426
78	0x3de2c7d3	0.1107327
79	0x3df46d55	0.11934916
80	0x3d6c0d23	0.057629716
81	0x3cb4fdc5	0.022093663
82	0x3af1f255	0.0018459061
83	0x3cd95bbc	0.026533
84	0x3dfe283e	0.12410019
85	0x3e178e7e	0.1480045
86	0x3edb35a0	0.4281435
87	0x3de96b2b	0.11397394
88	0x3e6c46de	0.23073909
89	0x3d83251f	0.06403565
90	0x3cd58525	0.026064465
91	0x3e94bf4b	0.29052195
92	0x3cb94be6	0.022619199
93	0x3d475e46	0.04867389
94	0x3cc4ca2f	0.02402219
95	0x3e083b41	0.13303854
96	0x3dbfdd9a	0.09368439
97	0x3e70a202	0.23499301
98	0x3c018c3b	0.007906969
99	0x3d9a3b24	0.075308114
100	0x3aeeb794	0.001821267
101	0x3c8c0077	0.017090065
102	0x3d321186	0.043473743
103	0x3e4f49e8	0.20243037
104	0x3e7ef1e5	0.24896963
105	0x3f107676	0.5643076
106	0x3d54c88e	0.051949076
107	0x3e1b3b80	0.15159416
108	0x3e875676	0.26433152
109	0x3e2c013d	0.16797347
110	0x3dce37d4	0.10069242
111	0x3daa2542	0.083078876
112	0x3d580474	0.05273862
113	0x3d212122	0.03933824
114	0x3e655884	0.22397047
115	0x3c76752c	0.015042584
116	0x3cb4f4d3	0.022089398
117	0x3e64b73a	0.2233552
118	0x3df689ae	0.12037979
119	0x3e0dfc08	0.13865674
120	0x3e96feb0	0.29491186
121	0x3dff2863	0.12458875
122	0x3d342036	0.04397603
123	0x3db9dfa8	0.09075862
124	0x3dbb7bf8	0.091545045
125	0x3d7fa53b	0.062413435
126	0x3df5f9f9	0.12010569
127	0x3c085294	0.008320469

conv2.weight f4 [128, 128, 3]
0	0xbd480db5	-0.048841197
1	0xbd581894	-0.052757815
2	0x3cdc284e	0.026874688
3	0xbb1ea7a6	-0.0024208813
4	0x3d2998bf	0.041405436
5	0xbe04cfaa	-0.12969843
6	0x3e60bda9	0.2194735
7	0x3d9cc4e8	0.076547444
8	0xbe219499	-0.15779342
9	0x3e2145cf	0.15749286
10	0x3eaa9b83	0.3332177
11	0x3da3027f	0.079594605
12	0x3d77c886	0.06049397
13	0xbde9eb0f	-0.11421787
14	0x3d893872	0.06700219
15	0xbcc017da	-0.023448873
16	0x3dfca4f8	0.12336153
17	0xbe0ea399	-0.13929595
18	0x3da4d150	0.08047736
19	0xbec6378e	-0.3871426
20	0xbcd8c9e5	-0.026463458
21	0xbe345594	-0.1761077
22	0xbc8b2652	-0.016986046
23	0xbe1b0421	-0.15138294
24	0xbd5353ac	-0.051593468
25	0xbbb19646	-0.0054195253
26	0xbdad3037	-0.08456462
27	0x3da434fa	0.08017917
28	0xbd9bd3c4	-0.076087505
29	0x3d9b9bc6	0.07598071
30	0xbe1fbd3f	-0.15599535
31	0xbe0219e6	-0.12705192
32	0xbd0a1cd6	-0.033718906
33	0x3c1a3a15	0.009413262
34	0xbdf3c860	-0.11903453
35	0xbdee71cd	-0.116427995
36	0xbdf15c5b	-0.117851935
37	0xbd9055a0	-0.07047582
38	0x3d0521b0	0.03250283
39	0x3d3d8b64	0.04627551
40	0xbd5dbbe1	-0.054134253
41	0x3e03d649	0.12874712
42	0xbcfff9e3	-0.031247085
43	0x3cf2d52c	0.029642664
44	0xbd9a3717	-0.07530039
45	0x3daa6233	0.08319511
46	0x3e9771ed	0.29579106
47	0x3cfe91bd	0.031075353
48	0x3dbd66a3	0.09248092
49	0x3e134a54	0.14383823
50	0xbeedd788	-0.464535
51	0xbe51d1ea	-0.20490232
52	0xbe246ec7	-0.16057883
53	0xbd4f9efd	-0.050688732
54	0xbd6d4a31	-0.057932083
55	0xbd118fa8	-0.035537392
56	0xbe586906	-0.21133813
57	0xbe2a6805	-0.16641243
58	0xbcfdd4a3	-0.030985182
59	0x3d07a559	0.033116672
60	0xbde5bcb2	-0.112176314
61	0xbb181edc	-0.0023211753
62	0xbd0776df	-0.03307235
63	0x3d508ae5	0.05091371
64	0xbcc53a27	-0.02407558
65	0x3e287995	0.1645263
66	0xbd5456ab	-0.051840466
67	0xbc353bd3	-0.0110616265
68	0xbd9b9bd1	-0.07598079
69	0x3d3f6d1e	0.04673492
70	0x3e160f8c	0.14654368
71	0xbe11bcbc	-0.14232153
72	0x3ccf3bed	0.02529713
73	0x3d93ac55	0.07210604
74	0xbed2f1e9	-0.41200188
75	0xbe053943	-0.13010125
76	0xbd9ecc37	-0.07753795
77	0xbc15102d	-0.009098095
78	0xbada2069	-0.0016641739
79	0xbd2498bb	-0.040184718
80	0x3dd89bbd	0.1057658
81	0x3cc23bdb	0.023710182
82	0xbe78cd5f	-0.24297093
83	0x3d87a827	0.066238694
84	0xbced50ad	-0.028969133
85	0xbe23cfde	-0.15997264
86	0xbc95496c	-0.018223487
87	0xbd1a150c	-0.037617728
88	0xbdc1225b	-0.09430381
89	0x3c6f372e	0.014600558
90	0xbe2e64dc	-0.17030662
91	0xbe4dd298	-0.20099866
92	0xbd42fb42	-0.0476029
93	0xbc4d9adc	-0.012549128
94	0x3d19ea2b	0.037576836
95	0xbe633c1f	-0.22190903
96	0x3da35309	0.07974822
97	0x3e2aea71	0.16690995
98	0xbdb3f648	-0.08787209
99	0xbe188e3f	-0.14898013
100	0xbdab91fa	-0.08377452
101	0x3d037b08	0.032099754
102	0xbd82408a	-0.06359966
103	0xbe2c95c6	-0.16854009
104	0x3c0448d1	0.008074001
105	0x3c7a04f4	0.01525997
106	0xbdbbb60d	-0.09165583
107	0x3e0b4d78	0.1360377
108	0xbe73c472	-0.23805407
109	0xbd3ea379	-0.04654262
110	0xbdd1dd72	-0.102473155
111	0xbd94e8bd	-0.07270954
112	0xbcbc4d77	-0.022986157
113	0x3caab811	0.020839723
114	0x3e1c0860	0.1523757
115	0xbc6ede48	-0.014579363
116	0xbdfb7abf	-0.12279271
117	0x3bcb8707	0.006211165
118	0xbd042d52	-0.032269783
119	0xbe3f975b	-0.18710081
120	0xbcd0e03c	-0.025497548
121	0x3cb8ff98	0.022582814
122	0xbe56c2a3	-0.20972686
123	0xbe0e9326	-0.1392332
124	0xbc4e02f8	-0.01257395
125	0xbe67b7ab	-0.22628658
126	0xbe4fa7af	-0.2027881
127	0xbd9b3fe2	-0.07580544
128	0xbd38c879	-0.04511306
129	0xbe3f1c67	-0.18663178
130	0x3dcbcb8f	0.09950935
131	0xbe6a5abd	-0.22886176
132	0xbd35e197	-0.044404592
133	0x3d6b861e	0.05750095
134	0x3e2bcdf3	0.16777782
135	0xbd8ddb59	-0.06926603
136	0xbd3f7000	-0.04673767
137	0xbed2739f	-0.41103837
138	0xbc8354dd	-0.016031677
139	0xbe1e1d08	-0.15440762
140	0xbca55dd4	-0.020186342
141	0x3de1cfa9	0.11025936
142	0x3d35aaa2	0.04435218
143	0x3e2eeb03	0.17081837
144	0x3d9ddffc	0.07708737
145	0x3e0947ef	0.13406347
146	0xbe598eac	-0.21245831
147	0xbc452007	-0.012031562
148	0xbc33954f	-0.010960891
149	0x3e1f3bef	0.15550207
150	0xbe447129	-0.19183792
151	0x3d341761	0.04396761
152	0x3cfe876d	0.031070435
153	0x3d39200e	0.045196585
154	0x3a215dbd	0.00061556307
155	0x3e057b0e	0.13035223
156	0xbd14f7d4	-0.03636916
157	0xbc523cba	-0.012831861
158	0xbe171fa7	-0.14758168
159	0x3d9a4a0d	0.07533655
160	0x3dcc3b92	0.099723
161	0x3d5fb4f9	0.05461595
162	0xbe27486e	-0.16336223
163	0xbc93b196	-0.018029016
164	0xbda07b5f	-0.07836031
165	0xbde5ee96	-0.11227147
166	0xbe0da5cf	-0.13832782
167	0xba84c4c0	-0.0010129437
168	0x3cc72a1f	0.024312077
169	0xbcd22247	-0.02565111
170	0xba5935a7	-0.0008285888
171	0xbcb1ff04	-0.021728046
172	0x3c5e9bc0	0.013586938
173	0x3e0c3b18	0.13694417
174	0xbe18dc56	-0.14927801
175	0xbe0f5942	-0.13998893
176	0xbeaa00ec	-0.33203828
177	0xbd094144	-0.033509508
178	0x3d7104c4	0.058842435
179	0x3daf4e23	0.08559825
180	0xbd81511e	-0.063143
181	0x3d8dbc70	0.06920707
182	0x3c163063	0.00916681
183	0x3e3489e0	0.1763072
184	0x3d13edee	0.03611558
185	0xbe53e661	-0.20693351
186	0xbdb8a3f2	-0.09015645
187	0xbea72674	-0.32646525
188	0xbe1d42a5	-0.15357454
189	0xbc2b820c	-0.010468017
190	0x3d21608d	0.03939872
191	0xbd8a6008	-0.06756598
192	0xbd746e4e	-0.059675507
193	0xbd26526d	-0.04060595
194	0x3d9d32de	0.07675718
195	0x3dee2c97	0.116295986
196	0x3da1558f	0.07877647
197	0x3dbce909	0.092241354
198	0xbdba560f	-0.090984456
199	0x3d15b2a0	0.036547303
200	0x3ddb129f	0.10696911
201	0xbdcdd49e	-0.10050319
202	0xbe04091b	-0.12894098
203	0xbc307f63	-0.010772559
204	0xbdbb38a5	-0.091416635
205	0xbd537dfb	-0.051633816
206	0xbce5800d	-0.028015161
207	0xbdf88634	-0.12134972
208	0xbd9262ba	-0.07147737
209	0x3d012a8a	0.03153471
210	0x3c7c0f33	0.015384483
211	0x3dcf42af	0.10120141
212	0x3de57478	0.11203855
213	0xbd428cf7	-0.047497716
214	0xbd8be023	-0.0682986
215	0xbd85ef7b	-0.06539818
216	0x3db22540	0.08698511
217	0xbdf14581	-0.11780835
218	0xbded3eb2	-0.11584224
219	0xbe3b7856	-0.18307623
220	0xbe2c9460	-0.16853476
221	0x3c875480	0.016519785
222	0x3cdff0ea	0.027336556
223	0xbd387352	-0.045031853
224	0xbeaa7357	-0.33291122
225	0xbd791836	-0.060814105
226	0x3d9141b5	0.07092611
227	0xbf180e88	-0.5939717
228	0xbdffe711	-0.12495244
229	0x3c32c390	0.010910884
230	0xbe69da8d	-0.22837277
231	0x3d0540f5	0.03253265
232	0xbdd8a134	-0.10577622
233	0xbdf13c39	-0.11779065
234	0x3d6e70ca	0.058213033
235	0x3d8529a6	0.065020844
236	0xbcb65e23	-0.022261685
237	0xbcabed21	-0.020987095
238	0xbe4446e1	-0.19167663
239	0x3c6371f6	0.013882151
240	0xbd1139b6	-0.035455428
241	0xbbfaa212	-0.007648715
242	0xbe1ffbd0	-0.15623403
243	0xbe8ab145	-0.2708837
244	0xbe620d53	-0.22075395
245	0x3d6916dd	0.05690657
246	0x3c434364	0.011917923
247	0x3d51ee18	0.051252455
248	0xbe2ca340	-0.1685915
249	0x3d10046f	0.03516048
250	0x3dfc4cd7	0.123193435
251	0x3e1dbb4e	0.15403482
252	0xbd952226	-0.07281904
253	0x3c99d719	0.018779324
254	0xbe36848f	-0.17824005
255	0x3b966eb3	0.004590833

conv2.bias f4 [128]
0	0xbdaa1d37	-0.083063535
1	0xbdd52ec7	-0.10409313
2	0xbe177a33	-0.14792709
3	0x3e3e78ec	0.18600816
4	0xbea2edc2	-0.3182202
5	0xbe3f151f	-0.18660401
6	0xbe4a3eec	-0.19750565
7	0x3c8c0579	0.017092453
8	0xbe2e47b9	-0.17019548
9	0x3bf885e0	0.0075843185
10	0xbe345046	-0.17608747
11	0xbdce64c2	-0.10077812
12	0xbe50b952	-0.20383194
13	0xbd212983	-0.03934623
14	0xbcc67844	-0.024227269
15	0xbdaf9684	-0.085736305
16	0xbdd48648	-0.103771746
17	0xbe8556b4	-0.26042712
18	0xbd6e16a6	-0.058127068
19	0xbe33e357	-0.17567192
20	0xbe27b269	-0.16376652
21	0x3db14d74	0.08657351
22	0xbd94f888	-0.07273966
23	0x3bfcdbf9	0.0077166525
24	0xbdd9eb42	-0.10640575
25	0xbdd0675b	-0.101759635
26	0xbe35e339	-0.1776246
27	0xbd5c47ab	-0.053779285
28	0xbe657ebb	-0.22411625
29	0xbe0dac8b	-0.13835351
30	0xbdcb113f	-0.09915399
31	0xbdf7a866	-0.12092666
32	0x3d476d7d	0.0486884
33	0xbdd6f59a	-0.104960635
34	0xbccffc86	-0.025388967
35	0xbde01461	-0.10941387
36	0xbd2b1302	-0.041766174
37	0x3d4b900f	0.04969793
38	0x3ceb7946	0.028744351
39	0xbbeb796b	-0.007186105
40	0xbdcbfdc3	-0.099605106
41	0xbd2b5a52	-0.041834183
42	0xbd1f13aa	-0.038837112
43	0x3e148cf3	0.14506893
44	0xbe61b9eb	-0.22043578
45	0x3d5a9c6b	0.053371828
46	0xbd9cbe3a	-0.0765347
47	0xbe204bc5	-0.15653904
48	0xbe26d03f	-0.16290377
49	0xbcd829b9	-0.026387082
50	0x3d7291e4	0.059221163
51	0xbd5396eb	-0.0516576
52	0xbeb7a1d5	-0.35865656
53	0xbe331b51	-0.17490889
54	0x3da33231	0.079685576
55	0xbc69e16a	-0.014274934
56	0xbe202ca0	-0.15642023
57	0xbe41fd16	-0.18944201
58	0xbdee8620	-0.11646676
59	0xbc6faadf	-0.014628141
60	0xbe321026	-0.17388973
61	0xbd319a9d	-0.04336034
62	0xbe0ffeb8	-0.14062011
63	0xbe30449f	-0.17213677
64	0xbdac9e57	-0.084286384
65	0xbda7e7f0	-0.081985354
66	0xbe1df4bf	-0.15425394
67	0xbe001a97	-0.12510143
68	0x3e22a8c4	0.15884691
69	0xbe81eb36	-0.25374764
70	0xbd22cfac	-0.039748833
71	0xbdf21949	-0.11821229
72	0x3b4128cc	0.002947378
73	0xbe178d11	-0.14799906
74	0xbde33f33	-0.11096039
75	0xbd07edb3	-0.033185672
76	0x3d6cf33b	0.05784915
77	0xbd87fbef	-0.066398494
78	0x3d9af65c	0.075665206
79	0xbc8ee128	-0.017441347
80	0xbe9a3c1a	-0.3012398
81	0xbd874970	-0.06605804
82	0xbd8110e9	-0.063020535
83	0xbd51fba7	-0.051265385
84	0xbe0d4d22	-0.13798955
85	0xbdfaca31	-0.12245596
86	0xbd829fd2	-0.063781396
87	0xbe0d1633	-0.13778
88	0xbe3c1521	-0.18367435
89	0xbe1c55fc	-0.15267175
90	0xbe1d0e8e	-0.15337583
91	0xbe663147	-0.22479735
92	0xbbcd2db0	-0.00626155
93	0xbe47dc96	-0.1951774
94	0x3d116d4a	0.035504617
95	0xbe525e2b	-0.20543735
96	0x3d8a07dc	0.0673978
97	0xbc03e9fd	-0.008051393
98	0xbd93b41c	-0.072120875
99	0xbe3898d9	-0.18027057
100	0xbe7ba21a	-0.24573556
101	0x3e38bcbe	0.1804075
102	0xbe6e48be	-0.23269936
103	0xbd8ff066	-0.07028274
104	0x3c78bffe	0.015182493
105	0xbe597356	-0.21235403
106	0xbda3f8b9	-0.080064245
107	0xbdc08f2b	-0.09402307
108	0x3d3375a0	0.043813348
109	0x3de87919	0.113512225
110	0xbeb92568	-0.3616135
111	0xbe7b196c	-0.24521416
112	0xbdf90118	-0.12158412
113	0xbe8d80c8	-0.27637315
114	0x3d1bbeff	0.038023945
115	0xbdb3f2cf	-0.087865464
116	0xbe0e3a95	-0.13889535
117	0xbe78793f	-0.24265002
118	0x3e49e8ab	0.19717662
119	0xbc9c1bcd	-0.019056225
120	0xbdcff218	-0.101535976
121	0xbb8a4003	-0.0042190566
122	0xbe87e3bb	-0.26540932
123	0xbe379821	-0.17929126
124	0x3c90bad0	0.017667204
125	0xbc99d0d4	-0.018776335
126	0xbe4726bb	-0.19448368
127	0xbda4cc42	-0.080467716

bn2.weight f4 [128]
0	0x3f83d4c4	1.0299306
1	0x3f8764a9	1.0577594
2	0x3f85bcc0	1.0448227
3	0x3f67cf85	0.90551025
4	0x3f7ca3df	0.9868755
5	0x3f80e913	1.0071129
6	0x3fa18fd3	1.2622017
7	0x3f69f1ea	0.91384757
8	0x3f8a3418	1.0797148
9	0x3f830718	1.023654
10	0x3f8ae7a3	1.085194
11	0x3f6f5d98	0.9350219
12	0x3f8f7dc6	1.1210258
13	0x3f9ff809	1.2497569
14	0x3f8a32d7	1.0796765
15	0x3f9816ed	1.1881996
16	0x3f911708	1.1335154
17	0x3f834ee9	1.0258456
18	0x3f83bedf	1.0292624
19	0x3f7d588b	0.9896323
20	0x3f8adf64	1.0849423
21	0x3f8899f2	1.067198
22	0x3f811f06	1.0087593
23	0x3f96aa3a	1.1770699
24	0x3f68fb28	0.91008234
25	0x3f899159	1.0747482
26	0x3fa0ee28	1.257268
27	0x3f80b57c	1.0055385
28	0x3f8623da	1.0479691
29	0x3f911e91	1.1337453
30	0x3f6f07ed	0.9337147
31	0x3f8a791b	1.0818208
32	0x3f8471ca	1.0347226
33	0x3f7ad153	0.97975653
34	0x3f752b66	0.95769346
35	0x3f8315b6	1.0241001
36	0x3f86cbcc	1.0530944
37	0x3f76b847	0.96374935
38	0x3f917f90	1.1367054
39	0x3f8006a4	1.0002027
40	0x3f6b6b56	0.91960657
41	0x3f9e3171	1.2358838
42	0x3f8976c7	1.0739373
43	0x3f81fe57	1.0155743
44	0x3f6a5c6b	0.9154727
45	0x3f89571e	1.0729711
46	0x3f85c304	1.0450139
47	0x3fa28223	1.2695965
48	0x3f8b2faa	1.0873921
49	0x3f94b37f	1.1617278
50	0x3f989089	1.1919109
51	0x3f986c2a	1.1908009
52	0x3f80a4db	1.005031
53	0x3f91632f	1.1358393
54	0x3f63f408	0.8904424
55	0x3f8d1066	1.102063
56	0x3f819c6a	1.0125859
57	0x3f8de53b	1.108558
58	0x3f884e6a	1.064893
59	0x3f8041d2	1.0020087
60	0x3f960012	1.1718771
61	0x3f894c3c	1.072639
62	0x3f8539e7	1.0408295
63	0x3fa6a3a7	1.3018693
64	0x3f99c37e	1.2012784
65	0x3f905f2d	1.1279045
66	0x3f82a169	1.0205508
67	0x3f936431	1.1514951
68	0x3f6e85b5	0.9317277
69	0x3f3abd08	0.7294469
70	0x3f9b6818	1.2141142
71	0x3f9014f6	1.1256397
72	0x3f8b0c79	1.0863181
73	0x3f6fcb03	0.93669146
74	0x3f881c8e	1.0633714
75	0x3f96d051	1.1782323
76	0x3f78d1b4	0.9719498
77	0x3f7924ce	0.97321784
78	0x3f7dae1b	0.9909379
79	0x3f91fdc6	1.140557
80	0x3f952ce2	1.1654322
81	0x3f71b58a	0.9441763
82	0x3f8dde1f	1.1083411
83	0x3f7f12bf	0.9963798
84	0x3f8a7ac4	1.0818715
85	0x3f8dcc60	1.1077995
86	0x3f9aee1d	1.2103916
87	0x3f884901	1.0647279
88	0x3f874963	1.0569271
89	0x3f767a98	0.96280813
90	0x3f92e1db	1.1475176
91	0x3f7e5ca6	0.9936012
92	0x3f736859	0.95081097
93	0x3f6afb54	0.91789746
94	0x3f86a1fa	1.0518181
95	0x3f91115c	1.1333423
96	0x3f7756ec	0.9661701
97	0x3f820d51	1.0160314
98	0x3f674049	0.90332466
99	0x3f7b77ac	0.9822948
100	0x3f3cc5d8	0.73739386
101	0x3f8fdd2d	1.1239372
102	0x3f95bbc7	1.169793
103	0x3f68784d	0.90808564
104	0x3f8c3a17	1.0955228
105	0x3f8aa1af	1.0830592
106	0x3f7467be	0.954708
107	0x3fa5e021	1.2959024
108	0x3f8224e4	1.0167508
109	0x3f7fe365	0.9995635
110	0x3f5caff6	0.86205995
111	0x3f8237da	1.0173295
112	0x3f829ede	1.0204732
113	0x3f86ffe0	1.0546837
114	0x3f80e0f2	1.0068648
115	0x3f741414	0.95343137
116	0x3f81bb7b	1.013534
117	0x3f82fba9	1.023305
118	0x3f80b32f	1.0054682
119	0x3f6183a2	0.8809148
120	0x3f7e8e70	0.9943609
121	0x3f623013	0.88354605
122	0x3f7853da	0.9700295
123	0x3f878783	1.058823
124	0x3f6ad94c	0.9173782
125	0x3f908f2b	1.1293691
126	0x3f88c8a3	1.068623
127	0x3f84605f	1.034191

bn2.bias f4 [128]
0	0xbc5d0e1d	-0.013492134
1	0xbe06aaf9	-0.13151158
2	0x3d47291c	0.04862319
3	0xbc3185be	-0.010835109
4	0xbdc362d3	-0.095403336
5	0xbbab12ee	-0.0052207625
6	0xbdbddc86	-0.09270577
7	0x3c2fd7f8	0.010732643
8	0x3d8c4dd6	0.068507835
9	0x3dc9dc6f	0.098564975
10	0xbd6d24b6	-0.05789634
11	0xbc027632	-0.00796275
12	0x3d01c54b	0.031682294
13	0xbdeea2f2	-0.11652173
14	0xbe3011aa	-0.17194238
15	0xbd65a3e5	-0.056064505
16	0xbdd8b4cd	-0.1058136
17	0xbdae4f68	-0.08511239
18	0x3d1c6484	0.038181797
19	0x3d91acc5	0.07113031
20	0x3cb886d6	0.022525232
21	0xbd40d708	-0.04708007
22	0x3d86a910	0.06575215
23	0xbe1b5bab	-0.15171687
24	0x3b358103	0.0027695305
25	0xbd8aae4b	-0.06771525
26	0xbe3e6a37	-0.18595205
27	0xbea0587e	-0.31317514
28	0xbe466d45	-0.1937762
29	0x3d2d07bc	0.042243704
30	0xbc8cc6d1	-0.017184647
31	0x3d30066e	0.04297488
32	0x3a90844e	0.0011025758
33	0xbe134e44	-0.14385325
34	0xbda710c9	-0.081574984
35	0x3d435de2	0.047696956
36	0x3cb83874	0.022487856
37	0x3d5e8a07	0.054330852
38	0xbe18ec0d	-0.14933796
39	0x3d933e5f	0.07189631
40	0xbe242d07	-0.16032802
41	0x3e580c34	0.21098405
42	0x3de66d2b	0.11251291
43	0xbde2ae3b	-0.11068388
44	0xbda82a8a	-0.08211239
45	0xbcf35724	-0.029704638
46	0xbdc5a2a5	-0.096501626
47	0x3c8f2457	0.017473383
48	0xbd1532a0	-0.036425233
49	0xbe0c34f0	-0.13692069
50	0xbd78dc59	-0.060757015
51	0x3ddb2ce0	0.107019186
52	0x3b1f4e38	0.0024308097
53	0xbcd614f2	-0.026133034
54	0xbda995bc	-0.08280513
55	0xbc755ab7	-0.014975241
56	0xbd4be915	-0.04978283
57	0x3d6eda68	0.058313757
58	0x3d7db254	0.061937645
59	0xbccc501e	-0.024940547
60	0x3dcc06ff	0.09962272
61	0xbd8c6671	-0.06855477
62	0x3dfdcb31	0.12392271
63	0x3e126e6a	0.14299932
64	0xbdc74c5e	-0.09731363
65	0x3cdb2e10	0.026755363
66	0x3c52a212	0.012856023
67	0xbc09a20c	-0.008400451
68	0xbc05f8a7	-0.008176959
69	0x3dc66ed1	0.09689105
70	0xbdba4a85	-0.09096245
71	0x3dc6eec4	0.0971351
72	0x3c141627	0.009038485
73	0x3e17a163	0.14807658
74	0x3d2c8d32	0.04212684
75	0x3d827758	0.06370419
76	0x3d32ff12	0.043700285
77	0x3c4d86bc	0.01254433
78	0xbe6be7c2	-0.23037627
79	0xbd8ee47e	-0.06977175
80	0xbe4f9d65	-0.20274885
81	0x3deb033f	0.114752285
82	0xbd3b1431	-0.045673553
83	0x3c557309	0.013027915
84	0xbdaae6aa	-0.08344777
85	0x3d9f6e18	0.077846706
86	0x3d648671	0.055792276
87	0x3d8a64b3	0.06757488
88	0x3de02476	0.10944454
89	0xbd6f66dc	-0.058447704
90	0x3d846837	0.0646519
91	0xbd97fc93	-0.074212216
92	0xbdc0b6d1	-0.094098695
93	0xbd795c62	-0.06087912
94	0x3c563bc1	0.01307577
95	0xbd6aedd0	-0.057355702
96	0xbbf60f48	-0.007509146
97	0xbe12e772	-0.14346102
98	0x3d15caf2	0.036570497
99	0x3c5b020b	0.013367186
100	0x3c875a02	0.016522411
101	0x3d97df33	0.07415619
102	0xbd4f60a7	-0.050629284
103	0x3de65851	0.11247314
104	0xbe578442	-0.21046546
105	0x3daf6383	0.08563902
106	0x3d0f23fa	0.03494642
107	0x3dbfd69e	0.09367107
108	0x3d39b32b	0.045336884
109	0xbdd5c5a2	-0.10438086
110	0x3d74b628	0.05974403
111	0xbe1bb789	-0.15206732
112	0xbd9e7b0d	-0.07738314
113	0xbe10fb2b	-0.14158313
114	0xbe207268	-0.15668643
115	0xbe233c83	-0.15941052
116	0x3ba6497d	0.0050746785
117	0xbd083db8	-0.033261985
118	0x3da341c2	0.07971527
119	0xbdbb8a6d	-0.09157262
120	0x3dc1f528	0.09470588
121	0x3d60fb4b	0.05492715
122	0x3d0cc8f5	0.034371335
123	0xbd84c689	-0.0648318
124	0xbc035d3b	-0.008017833
125	0xbd434998	-0.047677606
126	0xbcd40fa4	-0.025886364
127	0xbd81fb26	-0.06346731

bn2.running_mean f4 [128]
0	0x3e05e2bc	0.13074774
1	0x3f83ded1	1.0302373
2	0x3ea78d57	0.3272502
3	0x4014436e	2.3166156
4	0x3eaba518	0.33524394
5	0x3f6ce338	0.9253421
6	0x3f1e5f07	0.6186375
7	0x3f51dd70	0.8197851
8	0x3ecb427d	0.39699164
9	0x3fb1fcb9	1.390525
10	0x3f325ce5	0.69672996
11	0x3f6331d0	0.8874788
12	0x3e657449	0.2240764
13	0x3fb67338	1.4253912
14	0x3ecc2d3e	0.39878267
15	0x3f1cfe02	0.61325085
16	0x3f10ba28	0.5653405
17	0x3f51f724	0.8201773
18	0x3e9ca104	0.30591595
19	0x3f233dec	0.6376636
20	0x3f000d0a	0.50019896
21	0x3f0eb194	0.5573971
22	0x3f26c282	0.65140545
23	0x3fad5a1c	1.3543124
24	0x3fb2b1c7	1.3960503
25	0x3e1715f2	0.14754465
26	0x3ea4b53c	0.3216952
27	0x3ed4eed9	0.41588476
28	0x3e236712	0.15957287
29	0x3eb6fb59	0.35738638
30	0x403ee937	2.9829843
31	0x3ec810cc	0.39075315
32	0x3fd61c56	1.6727397
33	0x3f575a14	0.84121823
34	0x3f315b4f	0.6927995
35	0x3eba0b34	0.36336672
36	0x3faaf043	1.3354572
37	0x3f93e597	1.155444
38	0x3fd59142	1.6684954
39	0x4014ef42	2.3271031
40	0x3f010d4b	0.5041091
41	0x3f8edf54	1.1161904
42	0x3f0dc92d	0.55385095
43	0x3fbcc02b	1.4746145
44	0x3dda7aa2	0.106679216
45	0x3f70e65c	0.941015
46	0x3f2cd89b	0.67518014
47	0x3f3ce860	0.73792076
48	0x3efd500e	0.4947514
49	0x3f027454	0.5095875
50	0x3f040a67	0.5157837
51	0x3e9d04be	0.3066768
52	0x3f8f8a9a	1.1214173
53	0x3e691fdb	0.22766058
54	0x3f480d45	0.7814525
55	0x3fb5698c	1.4172835
56	0x3f4f4d5d	0.8097742
57	0x3ec71198	0.3888061
58	0x3ed68060	0.41894817
59	0x3eeb1354	0.45913184
60	0x3e578936	0.21048436
61	0x3f09ce3d	0.5383032
62	0x3d9662c3	0.07343056
63	0x3f3280df	0.6972789
64	0x3ef41c46	0.4767782
65	0x3f0c87d5	0.54894763
66	0x3f221dd2	0.6332675
67	0x3e7ecc18	0.24882543
68	0x3fc45e75	1.5341326
69	0x3facbeef	1.3495768
70	0x3f1028a9	0.5631204
71	0x3f6db255	0.9285024
72	0x3eed2816	0.46319646
73	0x3f4c23e9	0.79742295
74	0x3f0cf76d	0.5506504
75	0x3e46014b	0.1933643
76	0x3fc5c4ed	1.5450722
77	0x3edb160f	0.42790267
78	0x3fd910b0	1.6958218
79	0x3ea7dcea	0.32785732
80	0x3ed1e9fc	0.40998828
81	0x3f4c9c89	0.79926354
82	0x3f01110e	0.5041665
83	0x3e9ade6c	0.3024782
84	0x3e80d965	0.2516586
85	0x3eac5365	0.33657375
86	0x3f820704	1.0158391
87	0x3e7f9758	0.24960077
88	0x3e843d7b	0.25828156
89	0x3e808d5f	0.25107858
90	0x3fc79b7f	1.5594329
91	0x3f243916	0.64149606
92	0x3ee47433	0.44619903
93	0x3e92cef3	0.28673515
94	0x3f28b37d	0.6589888
95	0x3f120479	0.57038075
96	0x3f4148ec	0.75501895
97	0x3f319aae	0.6937665
98	0x3f632760	0.88731956
99	0x3ee3b0b9	0.44470766
100	0x3f9cbb7d	1.2244717
101	0x3fbce40a	1.4757092
102	0x3f8a7db3	1.081961
103	0x3e65be14	0.2243579
104	0x3f9b2291	1.2119924
105	0x3efe72f4	0.49697077
106	0x3f0f85a4	0.56063294
107	0x3e9b684d	0.30353013
108	0x3ecc0798	0.39849544
109	0x40154224	2.332162
110	0x3e95b4ab	0.292394
111	0x3eeb351c	0.45938957
112	0x3e8878d6	0.2665469
113	0x3f466137	0.7749209
114	0x3f268c8f	0.65058225
115	0x3f22d372	0.6360389
116	0x3f4932c6	0.785931
117	0x3e90c411	0.28274587
118	0x3fab87b0	1.3400784
119	0x3f20d5f4	0.62826467
120	0x3ea48c90	0.3213849
121	0x3e45aaf4	0.19303495
122	0x3eb51ee3	0.35375127
123	0x3e715f99	0.23571624
124	0x3fd84418	1.689578
125	0x3f81a723	1.0129131
126	0x3e6b77e6	0.22994956
127	0x3f008888	0.5020833

bn2.running_var f4 [128]
0	0x3e831b9d	0.25607005
1	0x40b22863	5.56743
2	0x3fe64725	1.7990462
3	0x411fcf6b	9.988139
4	0x3f807adc	1.0037494
5	0x40b1b7f4	5.553705
6	0x4017afa7	2.370096
7	0x4073d483	3.8098457
8	0x3fbb59da	1.4636796
9	0x40b69573	5.7057433
10	0x401d4389	2.457247
11	0x403a599a	2.9117188
12	0x3f5c3ce2	0.860304
13	0x40f093b2	7.518029
14	0x3f60e268	0.8784547
15	0x4010b97c	2.261321
16	0x404cd792	3.2006574
17	0x402977a1	2.6479266
18	0x3f4ed929	0.8080011
19	0x405bd6b5	3.4349797
20	0x4012e49e	2.2952037
21	0x3fa65175	1.2993609
22	0x40489185	3.1338818
23	0x408a7acf	4.3274913
24	0x40b01767	5.5028567
25	0x3ee82bec	0.4534601
26	0x3f7dea87	0.99185985
27	0x3f714487	0.9424519
28	0x3ee31852	0.44354492
29	0x3f640d7e	0.8908309
30	0x418989cf	17.19229
31	0x3f821fd0	1.0165958
32	0x40cba055	6.363322
33	0x4057ef85	3.373994
34	0x403c330f	2.9406164
35	0x3f6c7f75	0.92381984
36	0x40e023ec	7.004385
37	0x407fc7b2	3.9965634
38	0x40dcb834	6.8974857
39	0x40fbe4bd	7.871672
40	0x40067139	2.1006606
41	0x4097438b	4.726995
42	0x3fd4dae5	1.6629301
43	0x40a083b1	5.0160756
44	0x3e876ff1	0.26452592
45	0x405fc172	3.496182
46	0x402300ea	2.5469308
47	0x40171cbb	2.3611286
48	0x40162cf3	2.3464935
49	0x3fbc5f19	1.4716522
50	0x3fad1863	1.3523067
51	0x3f460ebe	0.77366245
52	0x40cb6704	6.356325
53	0x3f675559	0.90364605
54	0x3ff339e7	1.9002045
55	0x40896c56	4.2944746
56	0x4079b9e3	3.9019706
57	0x3fda1647	1.7038049
58	0x3fb07ff3	1.3789047
59	0x3faa8413	1.3321556
60	0x3f884bbf	1.0648116
61	0x3fcb7652	1.5895483
62	0x3e206721	0.1566434
63	0x406cc909	3.6997702
64	0x3fe0dd5b	1.7567552
65	0x3fbe5fed	1.4873024
66	0x4022f9f2	2.5465055
67	0x3f2acb95	0.6671689
68	0x4093d3eb	4.619619
69	0x40db7c68	6.8589363
70	0x400634e4	2.0969782
71	0x40535b19	3.3024352
72	0x3f8bc8c8	1.0920649
73	0x407cd22a	3.9503274
74	0x3ff86e68	1.9408693
75	0x3f7cab8a	0.9869925
76	0x40cc99ba	6.3937654
77	0x3f69f323	0.9138662
78	0x40e017e4	7.0029163
79	0x3f80cccf	1.0062503
80	0x40052fa2	2.0810323
81	0x4078d54f	3.8880193
82	0x4004905d	2.0713112
83	0x3f478106	0.7793125
84	0x3f0456ff	0.51695246
85	0x3f9f59fb	1.2449335
86	0x40d9fb78	6.811947
87	0x3f6c952c	0.9241512
88	0x3f5e4d17	0.8683638
89	0x3f4b5bef	0.79437155
90	0x412fb3f0	10.98143
91	0x40634e9f	3.5516737
92	0x3fa0754c	1.2535796
93	0x3f44d81e	0.7689227
94	0x3fdc8d07	1.7230538
95	0x3febbcbb	1.8416971
96	0x401ea2fc	2.4786978
97	0x3ffed7f1	1.990965
98	0x404e4a8d	3.2233002
99	0x3fb52777	1.4152669
100	0x40bf7267	5.982715
101	0x405943a0	3.3947525
102	0x40a4c560	5.1490936
103	0x3f4d2916	0.8014082
104	0x4083de09	4.120854
105	0x404a59cc	3.1617308
106	0x3fe189ec	1.7620215
107	0x3f70d4f5	0.94074947
108	0x3fb48081	1.4101716
109	0x410e698d	8.900769
110	0x3fad402b	1.3535208
111	0x3faef8aa	1.3669636
112	0x3f9bb763	1.216534
113	0x40c0ae64	6.021288
114	0x3fe643b7	1.7989415
115	0x3ffe1255	1.9849344
116	0x406e805b	3.7265842
117	0x3fc661e3	1.5498623
118	0x408b3c8b	4.3511405
119	0x3ff221a3	1.8916515
120	0x3f80ae6f	1.0053233
121	0x3ed1177e	0.40838236
122	0x3fc1e03b	1.5146555
123	0x3f5c6975	0.86098415
124	0x41095d9d	8.585355
125	0x409ae57d	4.8405137
126	0x3fc6777d	1.5505215
127	0x3ffd4a80	1.978836
