results/valence/classification_3/20251225_180002_850114/best_model.pt (torch, 437685 bytes, 16 tensors)

conv1.weight f4 [16, 1, 3, 3]
0	0x3edb5086	0.42834872
1	0x3ecb5a99	0.39717558
2	0xbdf278ac	-0.118394226
3	0x3de7dbe3	0.11321237
4	0xbdbdf467	-0.09275132
5	0x3c50f8d1	0.012754635
6	0xbe76e1c7	-0.24109565
7	0x3d5970bb	0.053086024
8	0x3eeebec5	0.4662992
9	0xbec5db02	-0.38643652
10	0x3eba9a72	0.36445957
11	0x3e2ed9d3	0.17075281
12	0x3e63517e	0.22199056
13	0xbc5e9d87	-0.013587362
14	0x3e99c50b	0.30033144
15	0xbd8385a1	-0.06421972
16	0x3e6ef8f5	0.23337157
17	0xbe1da4c6	-0.15394887
18	0xbdd7d9c9	-0.10539586
19	0x3e97e6d7	0.29668304
20	0xbe68e943	-0.22745232
21	0xbe0ba03c	-0.13635343
22	0xbe096381	-0.13416864
23	0x3eb3fd06	0.3515398
24	0xbe091aa8	-0.13389075
25	0xbe67d3b2	-0.22639349
26	0xbe4d2db0	-0.2003696
27	0xbe5adb3c	-0.21372694
28	0xbd467a82	-0.048456676
29	0xbee8b65e	-0.45451635
30	0x3e900ba3	0.28133878
31	0xbe84f4e7	-0.25968096
32	0x3eafea1c	0.343583
33	0x3e11d45c	0.14241165
34	0xbd45e3d7	-0.048312988
35	0x3eca2ee2	0.39488894
36	0xbd9cae07	-0.076503806
37	0x3ec7bbf4	0.39010584
38	0x3cafc496	0.021456044
39	0xbe06bce0	-0.13157988
40	0xbd9ebd88	-0.07750994
41	0xbea87f98	-0.32909846
42	0x3e218221	0.15772296
43	0x3e9bff12	0.3046804
44	0x3e919b4b	0.28438792
45	0xbd8598b3	-0.06523266
46	0x3ead1b61	0.3380995
47	0xbc9d6670	-0.019213885
48	0x3e0baecc	0.13640898
49	0xbe3616b0	-0.17782092
50	0xbeb50ea1	-0.35362723
51	0xbd87e640	-0.066357136
52	0xbee674da	-0.45011026
53	0x3ecb030a	0.39650756
54	0x3ceb532c	0.028726183
55	0x3dba7b83	0.09105589
56	0x3e5808bf	0.21097086
57	0x3c839b90	0.016065389
58	0x3edf61c1	0.43629268
59	0xbec84e58	-0.39122272
60	0xbd3ab914	-0.04558666
61	0xbe7f63d0	-0.24940419
62	0xbca8627c	-0.020554774
63	0xbddb4307	-0.10706144
64	0xbca56e78	-0.020194277
65	0xbd52c3c0	-0.051456213
66	0x3e9d8371	0.30764344
67	0xbdebe64e	-0.115185365
68	0xbedad4b7	-0.42740414
69	0xbe8240a9	-0.25439957
70	0x3ebecdff	0.37266538
71	0x3e839f3e	0.2570743
72	0x3ea34667	0.3188965
73	0xbeca760a	-0.39543182
74	0xbea38024	-0.319337
75	0xbe43a3be	-0.19105431
76	0xbe93f720	-0.2889948
77	0x3e1747c9	0.14773478
78	0x3e3c080d	0.18362446
79	0x3edf06aa	0.43559772
80	0xbe527534	-0.20552522
81	0xbe6b31b9	-0.22968186
82	0x3e7a16cc	0.24422759
83	0xbe90dab2	-0.2829185
84	0x3e415b11	0.18882395
85	0xbb907db0	-0.0044095144
86	0x3ec0fbe0	0.37692165
87	0xbe75232d	-0.239392
88	0xbe8d553c	-0.2760409
89	0x3e26f492	0.16304234
90	0x3aa92435	0.0012904467
91	0x3aff6812	0.0019485971
92	0x3ea47410	0.321198
93	0x3e351c03	0.17686467
94	0xbebeec10	-0.37289476
95	0xbeb3514f	-0.3502297
96	0x3eb11892	0.34589058
97	0xbe4ed22e	-0.20197365
98	0xbcf5cf5f	-0.030006109
99	0xbdf68dfb	-0.120387994
100	0xbe8b624c	-0.27223432
101	0x3e6e48ae	0.23269913
102	0x3dbb93fe	0.09159087
103	0xbe888f33	-0.26671752
104	0x3e0be249	0.1366054
105	0xbe94931d	-0.2901849
106	0xbf0f777f	-0.5604171
107	0xbe0e48e7	-0.13894998
108	0xbe4f734a	-0.20258823
109	0xbe0c2de3	-0.1368938
110	0x3ef8fd49	0.4863074
111	0x3d9657a2	0.073409334
112	0x3e55a44d	0.20863457
113	0xbecf805d	-0.4052762
114	0xbe98a8f8	-0.29816413
115	0xbe1a4f39	-0.15069284
116	0x3d84ef70	0.064909816
117	0xbeac5cfb	-0.33664688
118	0xbeaaebee	-0.33383125
119	0xbe8ce458	-0.27517962
120	0x3e5ca423	0.21546988
121	0xbe031631	-0.12801434
122	0xbe09411f	-0.13403748
123	0xbe99de65	-0.30052486
124	0xbe12743b	-0.14302151
125	0xbe4b0a8c	-0.19828242
126	0xbde2a045	-0.11065725
127	0xbe9bc01a	-0.3042
128	0x3e850410	0.25979662
129	0xbd93531a	-0.07193585
130	0x3ed0e2e4	0.40798104
131	0x3e76bfaa	0.24096552
132	0xbea15ea3	-0.31517515
133	0x3e72c9d5	0.23709805
134	0xbe9107fe	-0.2832641
135	0xbe210d61	-0.1572776
136	0xbe9de251	-0.30836728
137	0xbed482e7	-0.4150612
138	0x3e21afde	0.15789744
139	0xbcbd544d	-0.023111487
140	0x3e9c9c77	0.30588123
141	0xbe85cba2	-0.26131922
142	0x3e98b606	0.29826373
143	0xbea33f23	-0.31884107

conv1.bias f4 [16]
0	0xb91af27a	-0.00014776914
1	0xb91a9bbf	-0.00014744604
2	0xbab2f782	-0.0013654085
3	0xb95c748a	-0.00021024249
4	0x39687553	0.00022168951
5	0xbae8dda7	-0.0017766253
6	0x3a1335be	0.0005615613
7	0xb9b9af04	-0.00035416347
8	0xba62b863	-0.00086486916
9	0xba1be086	-0.00059462374
10	0xba181980	-0.00058021396
11	0x39265c8c	0.0001586547
12	0xba8b616e	-0.0010633895
13	0xb7f25fa5	-2.8893186e-05
14	0xbb1a4fd8	-0.0023546126
15	0x3ae4b492	0.0017448834

bn1.weight f4 [16]
0	0x3f5b456b	0.856528
1	0x3f6311dc	0.88699126
2	0x3f532fb5	0.8249467
3	0x3f891948	1.071084
4	0x3f6880d5	0.9082158
5	0x3f94e77b	1.1633142
6	0x3f9e76b1	1.2379972
7	0x3f8597fb	1.0437006
8	0x3f801235	1.0005556
9	0x3f79aac2	0.9752618
10	0x3f891da9	1.0712177
11	0x3f638a22	0.8888265
12	0x3f6d8922	0.92787373
13	0x3f51463c	0.81747794
14	0x3f8ded2d	1.1088005
15	0x3f64ef3a	0.8942753

bn1.bias f4 [16]
0	0xbe8226bb	-0.25420174
1	0xbe9f7b77	-0.31148884
2	0xbe1078e7	-0.1410862
3	0xbe508052	-0.2036145
4	0xbe267e2a	-0.16259065
5	0xbe4b8cd6	-0.19877943
6	0xbe2ec792	-0.17068318
7	0xbe03e25f	-0.12879322
8	0xbd209c45	-0.03921153
9	0xbe6ea3d6	-0.23304686
10	0xbe76d661	-0.24105217
11	0xbe16fbc0	-0.14744473
12	0xbe0b3fd8	-0.13598573
13	0xbe4baf23	-0.19891028
14	0xbeac0dae	-0.33604187
15	0xbdfca49d	-0.12336085

bn1.running_mean f4 [16]
0	0xbc27b966	-0.0102370735
1	0xbbf98bbf	-0.007615536
2	0x3b97b3e8	0.004629601
3	0xbb1bac80	-0.002375394
4	0xbb76cf5f	-0.0037660224
5	0x3b78a67a	0.0037941025
6	0x3a01c076	0.00049496384
7	0xb8cf764c	-9.892564e-05
8	0x3b209857	0.0024504864
9	0xbb096608	-0.0020965356
10	0x3b43eec2	0.002989695
11	0x3c6bd1ba	0.014393264
12	0x3b5088a6	0.003181973
13	0x3c916b21	0.017751278
14	0xbb9bd8a2	-0.0047560493
15	0x3bc50dd1	0.00601361

bn1.running_var f4 [16]
0	0x3efcf205	0.49403396
1	0x3eb79a35	0.35859838
2	0x3e43d4ac	0.19124097
3	0x3e85804d	0.26074448
4	0x3e83020e	0.25587505
5	0x3e6597cf	0.22421192
6	0x3e2336ae	0.15938827
7	0x3e32f047	0.17474471
8	0x3eb1dc24	0.34738266
9	0x3e2a817b	0.16650955
10	0x3e9e365f	0.30900857
11	0x3f5e7a27	0.8690514
12	0x3e3b4e1d	0.18291517
13	0x3f67d73a	0.90562785
14	0x3e8facec	0.28061616
15	0x3e91da9d	0.284871

conv2.weight f4 [32, 16, 3, 3]
0	0x3e652826	0.22378597
1	0x3ddf83b5	0.10913793
2	0x3e18cd99	0.1492218
3	0xbd146291	-0.036226813
4	0x3ddd3b57	0.10802334
5	0xbe13057e	-0.14357564
6	0x3cff115f	0.031136213
7	0x3e5b5e60	0.2142272
8	0x3dd0c81a	0.10194416
9	0xbd5c9112	-0.053849287
10	0xbea3170e	-0.31853527
11	0xbeb22046	-0.34790248
12	0x3cab0b19	0.020879315
13	0xbe52b829	-0.20578064
14	0xbe7a40cb	-0.24438779
15	0xbe8d7ed3	-0.27635822
16	0xbe3e5bcb	-0.18589704
17	0x3c552c22	0.01301101
18	0xbe2f382f	-0.17111276
19	0xbdecc563	-0.11561086
20	0x3d5674f7	0.05235764
21	0xbceee4f6	-0.029161911
22	0x3d6f3927	0.058404114
23	0x3c010efd	0.007877109
24	0x3da87e31	0.08227194
25	0x3e386c6b	0.18010108
26	0x3e9228e1	0.28546813
27	0xbd62346b	-0.05522577
28	0x3d522541	0.05130506
29	0x3d813e6b	0.063107334
30	0x3d48e4a7	0.049046185
31	0xbe68483e	-0.22683808
32	0x3e592844	0.21206766
33	0x3e4f45c0	0.20241451
34	0x3cac3e48	0.021025792
35	0xbe54a9bb	-0.20767872
36	0xbd43b86f	-0.04778331
37	0xbd0404b4	-0.032231048
38	0x3e92b5a5	0.2865421
39	0x3e2f8449	0.17140307
40	0xbe8c05e3	-0.2734824
41	0xbd87b9aa	-0.066272095
42	0x3d8cf357	0.06882351
43	0x3e76f6af	0.2411754
44	0x3e015a8b	0.12632196
45	0xbdd05947	-0.10173278
46	0x3d3bb59d	0.045827497
47	0xbe1ee090	-0.15515351
48	0xbd553523	-0.05205263
49	0x3e59479c	0.21218723
50	0x3daa85c7	0.08326297
51	0xbca1df80	-0.019759893
52	0xbddf4aad	-0.10902915
53	0xbe159454	-0.14607364
54	0xbe35179a	-0.17684785
55	0x3d59d553	0.053181957
56	0x3e96f781	0.29485705
57	0xbc52195b	-0.012823428
58	0x3d9be110	0.07611287
59	0xbe54bc9c	-0.20775074
60	0x3bbadc09	0.0057024998
61	0xbddad0cd	-0.10684357
62	0xbe738cfd	-0.23784252
63	0xbdafc15e	-0.08581804
64	0xbe935f1a	-0.28783494
65	0x3db77101	0.08957101
66	0xbdc66535	-0.096872725
67	0x3d4b775a	0.04967437
68	0xbe8d63bf	-0.27615163
69	0xbe317860	-0.17331076
70	0x3bed9e0f	0.007251508
71	0x3d4e50fc	0.0503702
72	0x3e300ac8	0.17191613
73	0x3e862163	0.26197347
74	0x3e077e13	0.13231687
75	0x3e2d9d33	0.16954498
76	0x3e1b08c0	0.15140057
77	0x3e34f798	0.17672575
78	0xbdac152a	-0.08402474
79	0xbe9c8e9f	-0.3057756
80	0x3ec60414	0.38674986
81	0xbd5b5177	-0.053544488
82	0xbe480a4a	-0.19535175
83	0x3d7a7686	0.06114819
84	0xbb33184c	-0.0027327714
85	0x3b9a4473	0.004707867
86	0xbe2d81db	-0.16944067
87	0xbc3dc8ef	-0.011583551
88	0x3d2952d2	0.04133875
89	0x3eb61185	0.3556024
90	0x3e413e39	0.18871392
91	0xbef0954c	-0.46988904
92	0xbdc7ff68	-0.09765512
93	0xbe361e41	-0.17784978
94	0xbe91ad55	-0.28452554
95	0xbe991f58	-0.29906726
96	0xbe6b332f	-0.22968744
97	0xbd9f9bcf	-0.0779339
98	0x3d453dfd	0.04815482
99	0xbd38003c	-0.0449221
100	0x3e550f64	0.20806652
101	0xbe30c949	-0.17264284
102	0xbd376c95	-0.044781286
103	0xbeb20041	-0.3476582
104	0x3c87f99e	0.016598519
105	0x3ddee211	0.108829625
106	0xbdc9c28c	-0.0985156
107	0xbd1513a1	-0.036395673
108	0x3d2a885c	0.04163395
109	0x3e2e2753	0.17007188
110	0xbaddd90c	-0.0016925647
111	0x3e03d349	0.12873568
112	0x3e7a0faf	0.24420045
113	0x3eca38a4	0.39496338
114	0x3cfa1f09	0.030532377
115	0xbcac5baa	-0.021039803
116	0x3d06c40f	0.03290182
117	0x3e597d1b	0.2123913
118	0x3cd9c688	0.026583925
119	0xbe200389	-0.15626349
120	0xbe046511	-0.12929179
121	0xbde9d1d0	-0.11416972
122	0xbde4abc4	-0.11165574
123	0x3daf30c2	0.08554222
124	0xbdbe504f	-0.092926614
125	0xbde4320c	-0.11142358
126	0xbe0c1db6	-0.13683209
127	0xbe2ac8e8	-0.16678202
128	0x3dade2d7	0.08490532
129	0x3d6ae2c4	0.057345167
130	0xb98fbbce	-0.0002741501
131	0xbe18c5e2	-0.14919236
132	0xbd2a2589	-0.041539703
133	0xbc879da8	-0.016554669
134	0x3e729f81	0.23693658
135	0xbd3969b9	-0.04526684
136	0x3db3ac26	0.08773069
137	0xbe51421e	-0.20435378
138	0xbdce7bcd	-0.10082207
139	0xbd9b1ca6	-0.07573824
140	0xbe724568	-0.23659289
141	0x3d2cfa19	0.0422307
142	0xbd2b8b14	-0.041880682
143	0x3d6029f5	0.054727513
144	0xbdfc7d59	-0.12328596
145	0xbdbf9cfc	-0.09356114
146	0x3e9bc9d9	0.30427435
147	0xbd4ae6e0	-0.049536586
148	0xbe3681d3	-0.17822962
149	0xbd877c34	-0.06615487
150	0x3e03187b	0.12802307
151	0x3e18e1f7	0.14929949
152	0xbe268665	-0.16262205
153	0x3e6422ef	0.22278951
154	0x3e119d33	0.14220123
155	0xbcaf9359	-0.021432566
156	0x3cdf20c8	0.027237311
157	0x3d62b0f6	0.055344544
158	0xbd20b59d	-0.0392357
159	0xbdabcc2b	-0.08388551
160	0xbd6b4f91	-0.057448927
161	0xbe3baa7d	-0.18326755
162	0x3e0d7dde	0.13817546
163	0x3db5ece5	0.08883075
164	0xbe7c88d8	-0.24661577
165	0xbec42888	-0.38312173
166	0xbe8b7c99	-0.27243498
167	0x3e677d06	0.22606286
168	0xbe708f4e	-0.23492166
169	0xbd53cfe8	-0.051711947
170	0x3dd27e55	0.10278002
171	0x3e134d90	0.14385056
172	0xbe186865	-0.14883573
173	0xbe931dda	-0.28733712
174	0x3e3f21f6	0.18665299
175	0xbe3c838f	-0.1840956
176	0xbe0e407e	-0.1389179
177	0x3e66f0e6	0.22552833
178	0xbd93d753	-0.07218804
179	0x3e8b47c0	0.27203178
180	0x3e166bea	0.14689603
181	0x3d74039d	0.05957376
182	0x38c6293e	9.449058e-05
183	0xbd94c761	-0.07264591
184	0xbe329c52	-0.17442444
185	0xbe8767d9	-0.26446417
186	0x3e683c42	0.22679237
187	0xbe4313be	-0.190505
188	0xbed8bca8	-0.42331433
189	0x3e1b1553	0.15144853
190	0x3e4d641c	0.2005772
191	0xbe4c563d	-0.19954772
192	0x3d3a0405	0.04541399
193	0x3e4701ec	0.19434327
194	0xbe48215f	-0.1954398
195	0x3e48232d	0.19544668
196	0x3ede36f4	0.434013
197	0xbd2fe8c6	-0.0429466
198	0x3d1678cc	0.036736295
199	0x3e3d3ba1	0.18479778
200	0xbd820f47	-0.0635057
201	0xbd97427b	-0.07385727
202	0xbe73088b	-0.23733728
203	0x3e5639b6	0.20920452
204	0x3c28bd8f	0.010299101
205	0x3c58f846	0.013242787
206	0x3daf26e5	0.085523404
207	0x3c9235d8	0.01784794
208	0xbeaa1450	-0.33218622
209	0x3d8e4832	0.06947364
210	0x3e919de9	0.28440788
211	0x3e38d2be	0.18049142
212	0x3d6b07b3	0.05738039
213	0x3e056cdf	0.13029812
214	0xbe06fdd7	-0.1318277
215	0xbdb262fd	-0.08710287
216	0x3c83db5e	0.016095813
217	0x3cfc3a74	0.030789591
218	0x3e16e00a	0.14733902
219	0xbdcbace7	-0.09945088
220	0xbd930584	-0.071787864
221	0x3dd5f6a7	0.10447436
222	0x3d8de19d	0.06927798
223	0x3dcdaf07	0.100431494
224	0x3d69ad72	0.057050176
225	0x3e40caa1	0.18827297
226	0x3c5eed97	0.0136064505
227	0xbe151402	-0.14558414
228	0x3e35105e	0.17682025
229	0x3da559fc	0.08073804
230	0x3e04327f	0.12909888
231	0xbe083724	-0.13302284
232	0x3e9164f8	0.28397346
233	0xbc90d0ca	-0.017677683
234	0xbd95c5ef	-0.073131435
235	0xbe321a25	-0.17392786
236	0x3ca451cd	0.020058537
237	0xbc80d9d8	-0.015728876
238	0xbe120211	-0.14258601
239	0xbdf90d03	-0.12160685
240	0x3e001167	0.12506638
241	0x3e4f2f23	0.20232825
242	0x3db154c2	0.086587444
243	0xbe26020d	-0.1621172
244	0xbd3cc74a	-0.046088494
245	0xbe81ae75	-0.25328413
246	0xbe32d689	-0.17464651
247	0xbe6eef1a	-0.23333398
248	0x3da4e720	0.08051896
249	0xbd522b53	-0.05131085
250	0x3e030875	0.12796195
251	0xbe419dbb	-0.18907826
252	0x3e0f7b88	0.14011967
253	0x3cf76eee	0.030204263
254	0x3c0bd11f	0.008533745
255	0x3c40deb0	0.011771843

conv2.bias f4 [32]
0	0x3a80cbeb	0.0009826397
1	0xba36f3ae	-0.000697906
2	0x3a77a34a	0.0009446634
3	0x3954b2f0	0.00020284555
4	0xb9ba33c6	-0.0003551526
5	0xba1bb1c9	-0.0005939273
6	0x392cbe10	0.00016474002
7	0xbae01ffd	-0.0017099377
8	0x382d080c	4.125391e-05
9	0xb9a22b26	-0.00030931196
10	0x39da216f	0.0004160511
11	0x39c35f7e	0.00037264446
12	0xba3635bc	-0.0006950756
13	0xb915be47	-0.00014280631
14	0xb99ec1fc	-0.00030280638
15	0xba4b458c	-0.0007754199
16	0x3a4b3568	0.00077517936
17	0x391e4ff5	0.0001509784
18	0x3a28b738	0.0006435993
19	0x3a39bedb	0.00070856296
20	0xba0ceed6	-0.00053761655
21	0x3a1ee620	0.0006061513
22	0x3a454801	0.0007525683
23	0x382025be	3.8182123e-05
24	0xba8a1870	-0.0010535847
25	0x3a489572	0.00076516636
26	0x3a52c92e	0.00080408424
27	0xba19b1ae	-0.0005862963
28	0x3a8e1603	0.00108403
29	0xba118307	-0.00055508356
30	0x3a49ef34	0.00077031855
31	0x3ab52ecc	0.0013823151

bn2.weight f4 [32]
0	0x4006dee9	2.1073554
1	0x3ff95c78	1.9481344
2	0x3fe7fd45	1.8124167
3	0x3ff78dd4	1.9340158
4	0x3ff9bbf6	1.9510486
5	0x3fee80aa	1.8633015
6	0x3ff269a0	1.8938484
7	0x3ff47f4d	1.9101349
8	0x3fe9bead	1.8261315
9	0x3fea282c	1.829351
10	0x3ff975d4	1.9489083
11	0x3ffe43be	1.9864423
12	0x3ff4b2c8	1.911706
13	0x3ff5d306	1.9205024
14	0x3fed1d74	1.8524613
15	0x40000275	2.00015
16	0x40009ee6	2.0096984
17	0x3fea4af5	1.8304125
18	0x3ff8c982	1.9436495
19	0x3ffb0f96	1.9614131
20	0x3ff75a07	1.9324349
21	0x3ffa0469	1.9532596
22	0x3fecc73a	1.8498299
23	0x400b23a4	2.1740503
24	0x3ff7820c	1.9336562
25	0x40016c5d	2.022239
26	0x3ff6ba70	1.9275646
27	0x3fe4155b	1.7819017
28	0x3ff95396	1.9478633
29	0x3fe1d39c	1.7642703
30	0x3ffcd545	1.9752585
31	0x40022723	2.0336387

bn2.bias f4 [32]
0	0xbf17d053	-0.5930225
1	0xbf18d180	-0.5969467
2	0xbf3411e7	-0.70339817
3	0xbf1ad149	-0.60475594
4	0xbf43a3c6	-0.76421773
5	0xbf1bfe06	-0.60934484
6	0xbf39d850	-0.7259569
7	0xbf4db7b8	-0.8035846
8	0xbf19d13e	-0.60084903
9	0xbf72f7d4	-0.94909406
10	0xbf30c0a2	-0.69043934
11	0xbf482fda	-0.78198016
12	0xbf28545c	-0.6575372
13	0xbf44bace	-0.7684754
14	0xbf0e7c59	-0.5565849
15	0xbf1c0938	-0.60951567
16	0xbf85b438	-1.0445623
17	0xbf360aee	-0.7111043
18	0xbf2bd3f1	-0.6712027
19	0xbf2bcbd4	-0.6710789
20	0xbf4378f1	-0.76356417
21	0xbf2dd1dd	-0.6789835
22	0xbf0e9ab3	-0.557048
23	0xbf2c33b5	-0.672664
24	0xbf49dea7	-0.78855366
25	0xbf33b506	-0.70198095
26	0xbf60524c	-0.87625575
27	0xbf041a3a	-0.5160252
28	0xbf36fc81	-0.7147904
29	0xbf14ad00	-0.5807648
30	0xbf27a1ef	-0.65481466
31	0xbf616ba2	-0.8805486

bn2.running_mean f4 [32]
0	0xbee739c9	-0.45161274
1	0xbe02d2e8	-0.12775767
2	0xbf0436f8	-0.51646376
3	0xbf45a712	-0.77208054
4	0xbee8e5c7	-0.45487806
5	0xbf617b63	-0.880789
6	0xbc1ecb29	-0.009691992
7	0x3cd84285	0.026398906
8	0xbf94ccc2	-1.1624987
9	0x3f14778e	0.57994926
10	0xbef89671	-0.48552278
11	0x3e835408	0.25650048
12	0xbfa62894	-1.2981133
13	0x3f2385a1	0.63875777
14	0xbf82357c	-1.0172572
15	0xbe91c59e	-0.28471082
16	0x3f26381c	0.64929366
17	0xbe7f6cdc	-0.2494387
18	0xbeef35db	-0.46720776
19	0xbf10e193	-0.565942
20	0xbe0bf376	-0.13667092
21	0xbdbb6d67	-0.09151726
22	0xbf260e8d	-0.6486595
23	0xbf808486	-1.0040443
24	0xbecbd056	-0.39807385
25	0xbf4d75ac	-0.8025768
26	0x3f09b520	0.53792
27	0xbf0d8fd5	-0.55297595
28	0xbee2f237	-0.4432542
29	0xbf0308d4	-0.51185346
30	0xbf0a6199	-0.5405517
31	0x3e3fac9f	0.18718193

bn2.running_var f4 [32]
0	0x3f07888e	0.5294274
1	0x3f29972b	0.6624629
2	0x3f317fc9	0.6933561
3	0x3f2eca7e	0.6827773
4	0x3edb7078	0.42859244
5	0x3f2ea468	0.68219614
6	0x3f418ef7	0.7560877
7	0x3f0668e4	0.525038
8	0x3f7ad42b	0.9797999
9	0x3f130d4b	0.5744216
10	0x3f1689c5	0.5880397
11	0x3f322c3c	0.69598746
12	0x3f577c32	0.8417388
13	0x3f18e1f4	0.5971978
14	0x3f735244	0.950474
15	0x3efcfb5f	0.4941053
16	0x3f223ac3	0.63370913
17	0x3f031107	0.51197857
18	0x3f2ffc17	0.68744034
19	0x3f06fae1	0.5272656
20	0x3ef813db	0.4845265
21	0x3f2ac43a	0.6670567
22	0x3f3360d2	0.7006961
23	0x3f33f4da	0.7029549
24	0x3ef2cbc1	0.47421077
25	0x3f251951	0.64491755
26	0x3f2f794d	0.68544465
27	0x3f199de1	0.6000653
28	0x3ef4bc6a	0.478
29	0x3f03b41e	0.5144671
30	0x3f0bbcb4	0.54584813
31	0x3ee22150	0.4416604

fc1.weight f4 [128, 800]
0	0xbe38fef0	-0.18066001
1	0xbe44d042	-0.19220069
2	0x3d717013	0.058944773
3	0xbe077105	-0.13226707
4	0x3e297502	0.16548541
5	0xbde52a11	-0.11189664
6	0x3e936920	0.28791142
7	0xbd4b29de	-0.049600475
8	0x3cc31261	0.023812475
9	0x3cdc0ccc	0.02686157
10	0xbdc825d4	-0.0977284
11	0xbcbf9abe	-0.023389217
12	0xbe501b75	-0.20322974
13	0x3e8ee526	0.279092
14	0xbe685864	-0.22689968
15	0x3def55ac	0.116862625
16	0xbe05c055	-0.1306165
17	0x3c914687	0.017733825
18	0x3eaf5375	0.3424336
19	0x3e4e95c1	0.20174314
20	0x3eb30e70	0.34971952
21	0x3e41bc49	0.18919481
22	0xbd5bc1a1	-0.053651456
23	0x3c5105d9	0.012757742
24	0xbe34018f	-0.1757872
25	0x3d5efe73	0.05444188
26	0xbc9bbaa5	-0.019009897
27	0xba1d0deb	-0.00059911486
28	0x3bf9515b	0.0076085753
29	0x3ea1f5e7	0.3163292
30	0x3d14c7c5	0.036323328
31	0x3d7193c4	0.05897881
32	0x3e419cb9	0.18907441
33	0xbe5c598f	-0.21518539
34	0xbd901328	-0.07034904
35	0xbe8384e9	-0.2568734
36	0xbeb01ca6	-0.34396857
37	0x3e90820c	0.28224218
38	0x3ea163ea	0.3152154
39	0x3d6dd731	0.05806655
40	0x3c0493dd	0.008091894
41	0x3e804a65	0.2505676
42	0x3d3377db	0.043815475
43	0x3cdc82b5	0.026917795
44	0xbdc7a38c	-0.09747991
45	0x3d4991e0	0.049211383
46	0x3e5719fc	0.21006006
47	0xbd0c1fe6	-0.03421011
48	0xbcf7070e	-0.030154731
49	0x3dabd732	0.083906546
50	0xbe4c0b55	-0.19926198
51	0xbcc30dff	-0.023810385
52	0xbe99cc8c	-0.3003887
53	0xbe02a1f0	-0.12757087
54	0xbe85b46c	-0.26114213
55	0x3e304ade	0.1721606
56	0x3e26b4b8	0.16279876
57	0x3e63cd27	0.22246228
58	0x3e1fc735	0.15603335
59	0xbd917143	-0.07101681
60	0xbc931508	-0.017954364
61	0xbc7189d6	-0.014742335
62	0x3da2d096	0.07949941
63	0x3dec7b42	0.11546947
64	0xbd3b6794	-0.045753077
65	0xbe351b10	-0.17686105
66	0x3cd3a0d0	0.025833517
67	0xbd76d215	-0.060258944
68	0xbe82c809	-0.2554324
69	0x3e096d69	0.13420643
70	0xbe0e529e	-0.13898703
71	0xbc840237	-0.016114337
72	0x3cfb4e22	0.030676905
73	0x3c9d1d32	0.01917896
74	0x3d30afcb	0.0431364
75	0xbd81c2c2	-0.06335975
76	0xbd870ba7	-0.065940194
77	0x3e41e186	0.18933687
78	0xbdcff548	-0.101542056
79	0x3ccc19fe	0.024914738
80	0x3c02caa5	0.0079828845
81	0xbd161ee9	-0.036650572
82	0x3da565bb	0.08076044
83	0xbd8fb668	-0.07017213
84	0x3e38639c	0.18006748
85	0xbd3214d6	-0.043476902
86	0xbd17995e	-0.037011497
87	0x3e62eea9	0.22161354
88	0x3cbe7738	0.023250207
89	0x3e4a1650	0.19735074
90	0x3c22783c	0.009916361
91	0xbe37dfda	-0.17956486
92	0x3c3f987b	0.011694069
93	0x3dd23351	0.10263694
94	0x3e0c7219	0.137154
95	0x3da1a3ea	0.07892592
96	0x3e615c56	0.2200788
97	0x3d8c0faa	0.06838925
98	0x3e3181e2	0.17334703
99	0xbeabbffb	-0.33544907
100	0x3e5c1f2f	0.2149627
101	0x3d1c3594	0.038137034
102	0xbe8c7636	-0.27433938
103	0xbe8a14d9	-0.2696903
104	0x3dd6412b	0.104616486
105	0xbe9844d4	-0.29740012
106	0xbe08e41c	-0.13368267
107	0x3e38abf3	0.18034343
108	0xbdd307c6	-0.10304217
109	0xbdb99927	-0.090624146
110	0x3dd1f762	0.10252263
111	0xbd4d8c17	-0.05018243
112	0x3e9487d3	0.29009876
113	0x3ea2894c	0.31745374
114	0xbd363679	-0.044485543
115	0x3d0d9b93	0.034572195
116	0xbd96f9d8	-0.07371873
117	0xbdcb983a	-0.09941144
118	0x3e48c307	0.19605647
119	0xbd5ebd19	-0.054379556
120	0xbe873cb0	-0.26413488
121	0x3bcde7f8	0.0062837563
122	0x3e2ac854	0.16677982
123	0x3d93134f	0.07181417
124	0xbe0ea5f5	-0.13930495
125	0x3e3070c9	0.17230524
126	0x3d18df43	0.037322294
127	0xbd8ea51d	-0.069650866
128	0xbe46fc1e	-0.19432113
129	0x3dd1515d	0.10220597
130	0xbe541bf8	-0.20713794
131	0xbdf6374e	-0.12022267
132	0x3dfd6cb6	0.123742506
133	0xbd27b31d	-0.0409423
134	0xbe0cf18b	-0.13764016
135	0x3d8b5d44	0.068048984
136	0xbce5da90	-0.02805832
137	0x3c1b9321	0.0094955275
138	0x3e6d2224	0.23157555
139	0x3d19e8b2	0.03757543
140	0xbe3a4ccd	-0.1819336
141	0x3ec6f954	0.38862097
142	0x3d50532e	0.050860576
143	0xbe54903a	-0.20758143
144	0x3e190483	0.14943127
145	0x3e383aff	0.17991255
146	0xbd2e2200	-0.042512894
147	0x3d87cd76	0.066309854
148	0x3e0ab45c	0.13545364
149	0xbd27d954	-0.040978745
150	0x3e686f0b	0.2269861
151	0x3e501cff	0.20323561
152	0xbd78ba8f	-0.06072479
153	0xbe6aa4e0	-0.22914457
154	0x3d50cf65	0.050979037
155	0xbca695f0	-0.020335168
156	0xbc497777	-0.012296549
157	0x3d5b43f1	0.05353159
158	0x3ce2b7fc	0.027675621
159	0xbe5c2b88	-0.21500981
160	0xbe1edf73	-0.15514927
161	0xbd899824	-0.06718472
162	0x3e61b3e7	0.22041284
163	0xbe5b9479	-0.21443357
164	0xbe058d08	-0.1304208
165	0xbd737ebe	-0.059447043
166	0x3dcff308	0.101537764
167	0xbe54202f	-0.20715402
168	0xbe07c52c	-0.13258809
169	0xbcc2e543	-0.023790961
170	0x3d014cdc	0.03156744
171	0xbe2c343e	-0.16816804
172	0xbd398efa	-0.04530237
173	0xbe05b311	-0.1305659
174	0xbd7b5e9d	-0.061369527
175	0x3db2d50e	0.08732043
176	0x3ce34c9f	0.027746497
177	0xbd64fc6c	-0.05590479
178	0x3e729506	0.2368966
179	0x3c8e65c6	0.017382514
180	0x3de2fdab	0.110835396
181	0xbea01e97	-0.31273338
182	0x3e476643	0.19472603
183	0x3e7e8c7f	0.24858283
184	0x3da0c9e0	0.078510046
185	0x3d530442	0.051517732
186	0x3d97e7a3	0.07417228
187	0x3e1f2d45	0.15544613
188	0x3c9d1922	0.019177023
189	0xbebe3ef7	-0.37157413
190	0xbc9d31ef	-0.01918885
191	0xbd9f28bf	-0.077714436
192	0x3de6c9e8	0.11268979
193	0xbe8e1ab4	-0.27754748
194	0xbc6eda79	-0.014578455
195	0x3cd1a93c	0.025593393
196	0x3d89b01d	0.06723044
197	0xbe7a208e	-0.24426481
198	0xbdd5d7ab	-0.10441526
199	0xbd066634	-0.032812312
200	0xbe0a4f39	-0.13506784
201	0xbe2e2e92	-0.17009953
202	0x3d504e42	0.050855882
203	0xbc561edb	-0.01306888
204	0x3aa63870	0.0012681615
205	0xbd95d8c5	-0.07316736
206	0xbe387e50	-0.18016934
207	0x3e73201e	0.2374272
208	0x3daec1d1	0.08533061
209	0x3e6058fe	0.21908948
210	0xbd720d1e	-0.05909454
211	0xbca807b2	-0.020511482
212	0xbe0a9fdf	-0.13537548
213	0xbd098b92	-0.03358037
214	0x3e3ee0a0	0.18640375
215	0xbeeded87	-0.4647028
216	0x3da4808e	0.08032332
217	0x3cd31f7b	0.025771847
218	0xbd1d9548	-0.038472444
219	0xbe8c345b	-0.27383694
220	0xbe1de08b	-0.15417688
221	0x3e798e9b	0.24370806
222	0x3d6bf31b	0.05760489
223	0xbe87bca8	-0.2651112
224	0x3cb18f07	0.021674646
225	0x3d929f15	0.07159249
226	0x3e32af6a	0.17449728
227	0xbd41dfde	-0.047332637
228	0x3e802ff3	0.25036582
229	0xbd975397	-0.0738899
230	0xbe3bae49	-0.18328203
231	0xbe5d7bba	-0.21629229
232	0xbee32c2e	-0.44369644
233	0xbe8b182a	-0.27166873
234	0xbe5c9c11	-0.2154391
235	0xbe9e7efc	-0.30956256
236	0x3b4f4314	0.0031625675
237	0xbd84d9d2	-0.064868584
238	0x3dd866ba	0.105664685
239	0xbe418427	-0.18898068
240	0xbe03fd88	-0.12889683
241	0x3d23c3e9	0.039981756
242	0xbe25d7ae	-0.16195557
243	0x3e206387	0.15662967
244	0xbdea6ccb	-0.11446532
245	0x3d6a76da	0.057242252
246	0xbe3179f2	-0.17331675
247	0xbe37adea	-0.17937437
248	0xbdd983ba	-0.10620828
249	0x3ed60c9c	0.41806495
250	0xbc8f75bd	-0.017512197
251	0x3e00f0c7	0.1259185
252	0xbdc31399	-0.09525222
253	0x3d580a08	0.05274394
254	0xbd1c05dc	-0.038091525
255	0xbe03e45c	-0.12880081

fc1.bias f4 [128]
0	0x3c2d9b9a	0.01059618
1	0x3cab3c30	0.020902723
2	0x3cce1143	0.025154715
3	0x3dd16d91	0.10225976
4	0x3b00ff1d	0.001968331
5	0xbca76b7a	-0.020436991
6	0xbd087e26	-0.03332343
7	0xbcad7d8e	-0.021178033
8	0x3babcc52	0.0052428627
9	0xbdb387a1	-0.087661035
10	0x3cdd11dc	0.026986055
11	0xba73fa97	-0.0009307055
12	0xbd2c45af	-0.042058643
13	0xbd3b1b82	-0.04568053
14	0xbd4f7ebb	-0.05065797
15	0xbd41cfaa	-0.047317185
16	0xbc673945	-0.014112775
17	0xbc3a8831	-0.01138501
18	0xbc98467a	-0.018588293
19	0xb9d0a201	-0.00039793554
20	0x3d355036	0.04426595
21	0x3dc5bd6b	0.09655269
22	0xbcccd9a6	-0.025006127
23	0xbd869747	-0.065718226
24	0x3cc5e1ea	0.024155576
25	0xba8cefef	-0.0010752658
26	0xbb50e778	-0.0031876247
27	0xbd41f0ee	-0.04734891
28	0x3d143ef4	0.03619285
29	0xbcbca5c9	-0.023028271
30	0xbd8d37bf	-0.06895398
31	0xbd5619be	-0.052270643
32	0x3d9c58a0	0.076340914
33	0xbd94fde6	-0.0727499
34	0x3cb59a9c	0.02216845
35	0xbdda41bf	-0.10657071
36	0xbcadd946	-0.021221768
37	0x3cce77e6	0.025203656
38	0xbb3d612b	-0.0028897028
39	0x3a33b0c2	0.0006854647
40	0xbcb68029	-0.022277908
41	0x39cb822d	0.00038816166
42	0xbd370425	-0.044681687
43	0xbd491ad3	-0.049097847
44	0x3d1a638d	0.037692595
45	0xbc78afe4	-0.015178654
46	0x3b13991a	0.0022521676
47	0xbd1d973f	-0.038474318
48	0xbc2d4873	-0.010576355
49	0x3d0983f6	0.033573113
50	0xbd364b53	-0.04450543
51	0x3b8ed18d	0.0043584765
52	0x3dcdbd5a	0.100458816
53	0xbde3f37e	-0.11130427
54	0xbd1d4e82	-0.03840495
55	0x3d04c12b	0.03241078
56	0x3d4ec0aa	0.050476708
57	0xbcba623c	-0.02275192
58	0xbd1e1cbc	-0.038601622
59	0xbd26bf84	-0.040709987
60	0xbd19186f	-0.037376817
61	0x3d5b8ca6	0.05360093
62	0xbcb90a25	-0.022587845
63	0x3c2aab31	0.010416792
64	0xbd518f5d	-0.051162113
65	0xbcbebea4	-0.023284264
66	0xbd173a89	-0.036921058
67	0x3c4d73cb	0.012539814
68	0x3dc02d57	0.09383648
69	0x3cb79b14	0.022412814
70	0xbd96cc9e	-0.073632464
71	0xbd497210	-0.049181044
72	0xbcc07370	-0.023492545
73	0x3cf4f62a	0.029902536
74	0x3a247a86	0.0006274361
75	0xbd1f12a7	-0.038836148
76	0x3d0aa4ae	0.033848457
77	0xbd470bf3	-0.04859538
78	0x3d6fcb43	0.058543455
79	0xbca31a94	-0.019910134
80	0x3d2f02ac	0.042727157
81	0x3d1add12	0.037808485
82	0xbd126fa5	-0.035751004
83	0x3d419536	0.04726144
84	0x3c5b7ea7	0.0133968955
85	0x3ded80e0	0.115968466
86	0x3d3ceede	0.04612624
87	0x3c2fc50e	0.010728134
88	0x3aaf1bc6	0.0013359718
89	0x3d13b728	0.036063343
90	0xbbc2fea1	-0.0059507643
91	0xbb5c26ce	-0.0033592465
92	0x3c541dac	0.012946527
93	0x3c2ddcd9	0.010611736
94	0x3cf737c2	0.030177955
95	0xbd882bef	-0.06649005
96	0xbd9cec40	-0.076622486
97	0xbcf583e3	-0.029970115
98	0xbcd9929d	-0.026559168
99	0x3d09cdb9	0.033643458
100	0xbda8b406	-0.08237462
101	0x3d0716fb	0.0329809
102	0x3db2f781	0.08738614
103	0xbd60fab2	-0.05492658
104	0xbda3cd03	-0.07998087
105	0xbd0af13c	-0.033921465
106	0x3cdd0adf	0.026982723
107	0xbbdee2ce	-0.0068019396
108	0x3d97f9bc	0.0742068
109	0x3d9cd241	0.0765729
110	0x3c1b927e	0.009495376
111	0xbcabd1bd	-0.020974034
112	0x3d3488f4	0.04407592
113	0xbd0f9c48	-0.03506115
114	0x3d30283d	0.043007124
115	0x3cd98081	0.026550533
116	0x3be590d6	0.007005791
117	0xbd81522d	-0.06314502
118	0xbd40c4b6	-0.0470626
119	0xbc564d92	-0.013080018
120	0x3cbada16	0.02280907
121	0x3d0a83d5	0.03381713
122	0xbd30322a	-0.04301659
123	0x3cfc7134	0.030815698
124	0xbc20cf0c	-0.009814989
125	0x3c84c869	0.016208844
126	0xbcd27e77	-0.025695069
127	0xbd35fa33	-0.04442806

fc2.weight f4 [3, 128]
0	0xbd3714ad	-0.044697452
1	0x3bfcb5f9	0.0077121225
2	0xbe1b3c45	-0.1515971
3	0x3daae77e	0.08344935
4	0x3de97b4e	0.11400472
5	0xbcb62bed	-0.022237742
6	0x3da6ca16	0.081440136
7	0x3c4cec6d	0.01250754
8	0xbdb47e9b	-0.088132106
9	0x3d96b1d5	0.073581375
10	0xbe009388	-0.12556279
11	0x3de0b49b	0.10971948
12	0xbdf0c560	-0.11756396
13	0x3c5f19db	0.013617004
14	0x3d3c68de	0.045998447
15	0x3c090c1a	0.008364702
16	0x3da191fc	0.078891724
17	0xbdef555a	-0.116862014
18	0xbd9ce667	-0.07661133
19	0x3e10afba	0.14129534
20	0xbdff2958	-0.124590576
21	0x3e149286	0.1450902
22	0x3e328279	0.17432584
23	0x3de566f5	0.11201278
24	0xbdbb35f5	-0.09141151
25	0xbccd6b73	-0.02507565
26	0xbe32f923	-0.1747785
27	0xbdfab671	-0.12241829
28	0xbcfd40fa	-0.030914772
29	0xbde8208b	-0.11334332
30	0x3db8c1a0	0.09021306
31	0xbd54f05d	-0.05198704
32	0xbdf255ae	-0.11832748
33	0x3d5fc302	0.054629333
34	0x3ddd22b5	0.107976355
35	0xbb55ce87	-0.003262432
36	0x3dc9f0e4	0.09860399
37	0x3dbfc449	0.0936361
38	0xbb17574a	-0.00230928
39	0xbdb6b6e4	-0.08921602
40	0x3d7b4eca	0.061354436
41	0x3c659a63	0.014013859
42	0x3def7402	0.116920486
43	0xbd18bb09	-0.037287746
44	0xbb604498	-0.0034220573
45	0x3dff2a36	0.12459223
46	0x3d59b145	0.053147573
47	0x3dea93eb	0.11453994
48	0xbdcd9ddf	-0.10039877
49	0xbb87bb92	-0.004142233
50	0x3cbaa53f	0.022783874
51	0x3e2d0435	0.16896136
52	0x3d97d68f	0.07413971
53	0x3db2350e	0.08701526
54	0x3da0fe5b	0.078610145
55	0x3d64baa6	0.055842064
56	0xbd26ae90	-0.04069382
57	0xbda4886a	-0.080338314
58	0xbdbae722	-0.09126116
59	0x3dc28500	0.09498024
60	0xbda60119	-0.08105678
61	0x3d86fb9c	0.065909594
62	0x3db58158	0.08862561
63	0x3e09e198	0.13464963
64	0x3e09ec85	0.13469131
65	0x3d4dedb8	0.050275534
66	0x3cd95101	0.026527883
67	0xbd3b8d7e	-0.045789234
68	0xbda09538	-0.07840961
69	0x3d88faf8	0.066884935
70	0x3e15876b	0.14602439
71	0x3e1fc973	0.1560419
72	0x3e064d8f	0.13115524
73	0x3c0f6f3c	0.008754548
74	0xbdf256f7	-0.118329935
75	0xbe02cad5	-0.12772687
76	0x3d9ee579	0.07758612
77	0x3d807a25	0.06273297
78	0xbd94d6d8	-0.07267541
79	0xbd4fbb45	-0.050715704
80	0x3d147d4e	0.036252312
81	0xbdaf532f	-0.08560788
82	0xbd6dfdd4	-0.058103397
83	0xbda45406	-0.08023839
84	0xbe025a87	-0.12729846
85	0xbde843eb	-0.11341079
86	0xbd9a0171	-0.07519806
87	0x3cb7831f	0.02240139
88	0x3db2dd0e	0.08733569
89	0xbe17d4ca	-0.14827266
90	0xbd86d483	-0.06583502
91	0x3dc02f94	0.09384075
92	0xbd91b0c3	-0.07113793
93	0x3d535842	0.05159784
94	0x3db51613	0.08842101
95	0xbd1bd092	-0.038040705
96	0xbdc7bed7	-0.09753197
97	0x3d5684c0	0.052372694
98	0xbb9b54d8	-0.004740339
99	0xbdc28bed	-0.09499345
100	0xbe14accc	-0.14519042
101	0xbdc9e528	-0.09858161
102	0xbd336cfd	-0.04380511
103	0xbdd4d9d9	-0.10393114
104	0x3d4e4e6d	0.05036776
105	0x3d811ec1	0.06304694
106	0x3db9c348	0.0907045
107	0xbd034a0d	-0.032053042
108	0xbc95d714	-0.018291034
109	0xbda549ae	-0.08070694
110	0x3d9e7181	0.07736493
111	0x3d4de023	0.05026258
112	0x3d11971d	0.035544503
113	0x3d3c583c	0.045982584
114	0xbd1c5b6a	-0.038173117
115	0xbdb7685a	-0.0895545
116	0xbd884dab	-0.06655439
117	0xbce7149e	-0.028208073
118	0x3de4605b	0.11151191
119	0xbd4fef1d	-0.050765146
120	0xbd877881	-0.06614781
121	0xbdf80f93	-0.121123455
122	0xbd7d0304	-0.061770454
123	0x3dfb96dd	0.12284634
124	0xbd71f22e	-0.05906885
125	0x3bb5789c	0.0055380594
126	0x3d21b161	0.039475802
127	0x3dd6b83c	0.10484359
128	0x3d9a1967	0.07524376
129	0xbd86939d	-0.06571124
130	0x3d21a0c1	0.039459947
131	0xbdef119d	-0.11673281
132	0xbdc1761b	-0.09446355
133	0x3df61c2e	0.120170936
134	0xbdb6940e	-0.08914958
135	0xbcb324c9	-0.021868126
136	0x3d98025f	0.07422327
137	0x3de6376b	0.11241039
138	0xbd81d261	-0.06338955
139	0xbda7d82a	-0.08195527
140	0x3d5b4686	0.053534053
141	0x3db93b09	0.09044463
142	0x3ddd5c37	0.10808604
143	0x3d8267a6	0.063674256
144	0x3dd817a9	0.10551388
145	0xbc70a727	-0.01468829
146	0x3dc69d2a	0.096979454
147	0xbce9e5e4	-0.028552003
148	0x3d13848a	0.03601507
149	0xbd12aae3	-0.0358075
150	0x3c7fff99	0.015624904
151	0x3d29d1b3	0.04145975
152	0xbd184e83	-0.03718425
153	0x3db22891	0.08699144
154	0x3cbe30bb	0.023216596
155	0x3d977b1c	0.07396528
156	0x3df83a28	0.121204674
157	0x3db28b19	0.08717937
158	0xbd0d775e	-0.034537666
159	0xbc7cc713	-0.015428322
160	0x3c9870c8	0.018608466
161	0xbc328863	-0.010896775
162	0xbce3434f	-0.027742056
163	0x3d71307a	0.05888412
164	0xbd07a5c5	-0.033117075
165	0xbd64209c	-0.05569516
166	0xbe0019ec	-0.12509888
167	0x3d5038d3	0.05083544
168	0x3d1ffe4e	0.039060883
169	0xbe07ad86	-0.13249788
170	0xbd68264b	-0.056677144
171	0x3dc1d804	0.0946503
172	0xbd7d5cb3	-0.061855983
173	0xbd9b86f8	-0.075941026
174	0xbddb35e6	-0.1070364
175	0x3ddef604	0.108867675
176	0x3d845ef7	0.064634256
177	0xbd9ffae0	-0.078115225
178	0xbdda906f	-0.1067208
179	0x3cda92b3	0.02668128
180	0xbdbce6a6	-0.0922368
181	0x3d8d96ef	0.06913554
182	0xbdcfade3	-0.10140588
183	0xbd7f8a62	-0.06238783
184	0xbdafb00d	-0.08578501
185	0x3dac8b73	0.08425035
186	0x3db96bb4	0.09053746
187	0xbdb5baf0	-0.08873546
188	0x3dc29e00	0.09502792
189	0xbd9380e9	-0.07202322
190	0xbd8e7a94	-0.06956974
191	0x3cd3d206	0.025856983
192	0x3d3a55fe	0.045492165
193	0x3cea5cde	0.028608736
194	0x3d36e8bb	0.044655543
195	0x3dc3f667	0.09568482
196	0xbd8a8d2e	-0.06765209
197	0x3d4b9d3a	0.04971049
198	0xbd482ca4	-0.048870698
199	0x3bb78a27	0.005601186
200	0xbc89ae18	-0.016806647
201	0xbdbba169	-0.09161646
202	0x3d95149d	0.07279322
203	0x3d013c34	0.031551555
204	0x3d731c95	0.05935343
205	0x3d0aae8e	0.033857875
206	0x3d1995ad	0.037496258
207	0x3c9855d1	0.018595608
208	0xbd8e7986	-0.069567725
209	0xbd8b290e	-0.0679494
210	0x3dba7a79	0.09105391
211	0xbcc41b00	-0.023938656
212	0x3d242264	0.04007186
213	0x3da638ed	0.081163265
214	0x3c561eda	0.013068879
215	0x3dfa5f10	0.12225163
216	0x3d3d9480	0.0462842
217	0x3a22206f	0.00061846426
218	0x3d1daec4	0.038496748
219	0xbd8d1d26	-0.06890325
220	0x3da34ff2	0.07974233
221	0x3dce08e6	0.10060291
222	0xbd9f6efb	-0.0778484
223	0x3d15002f	0.03637713
224	0x3dbbd16a	0.09170802
225	0x3deb8dce	0.115016565
226	0x3dc44dfa	0.09585185
227	0x3da37af6	0.07982437
228	0x3d228168	0.039674193
229	0xbce5f1f1	-0.028069468
230	0xbd4fdd04	-0.050747886
231	0x3defc4ff	0.11707496
232	0x3dc8345e	0.09775613
233	0xbd85ac31	-0.065269835
234	0xbdb09157	-0.086214714
235	0x3da18005	0.07885746
236	0xbd8321c3	-0.06402924
237	0x3d8a7abd	0.06761692
238	0xbdb38b08	-0.087667525
239	0x3cbdd056	0.023170631
240	0xbd4c24b7	-0.0498397
241	0x3da0527f	0.07828235
242	0xbc5c595e	-0.013449041
243	0x3dbb8190	0.091555715
244	0x3d94204c	0.07232723
245	0x3d78f912	0.060784407
246	0x3da89050	0.082306504
247	0x3dfafd3e	0.12255333
248	0x3e027436	0.12739643
249	0xbd1251e8	-0.035722643
250	0xbd224bfb	-0.039623242
251	0xbd0cfcea	-0.034420885
252	0x3e090af9	0.13383092
253	0xbdbcaa42	-0.092121616
254	0xbdab9d5e	-0.08379625
255	0xbda96852	-0.08271851

fc2.bias f4 [3]
0	0x3dd04754	0.10169855
1	0xbe394f0c	-0.1809656
2	0xbc270070	-0.010192975
