results/arousal/classification/20251209_065028_241247/best_model.pt (torch, 337141 bytes, 22 tensors)

conv1.weight f4 [128, 1, 3]
0	0x3e986ccc	0.29770505
1	0x3effc656	0.49956006
2	0xbe45a3bd	-0.19300742
3	0x3ec1e9fd	0.3787383
4	0xbe8db14f	-0.27674338
5	0x3d216db8	0.039411277
6	0xbe451871	-0.19247605
7	0x3ed3a516	0.41336888
8	0x3ecfabd4	0.40560782
9	0xbef1b587	-0.47208807
10	0x3efc03d2	0.49221665
11	0x3e016a7f	0.12638281
12	0x3e83a3cd	0.25710908
13	0x3d7c9d10	0.061673224
14	0x3ed239c7	0.41059706
15	0xbdfb6c45	-0.1227651
16	0x3f09ca3d	0.53824216
17	0x3d1b50be	0.0379188
18	0xbe893afe	-0.2680282
19	0x3e1b83c2	0.1518698
20	0xbeaef7f0	-0.34173536
21	0xbdb8b30b	-0.09018525
22	0xbe4d9f96	-0.20080408
23	0x3ef113cd	0.4708542
24	0xbca34838	-0.019931898
25	0xbd4eb465	-0.050465006
26	0x3da494a5	0.08036164
27	0xbe1eaf35	-0.15496524
28	0x3d3a16d2	0.04543192
29	0xbf132d3b	-0.5749089
30	0x3eddeffd	0.4334716
31	0xbf2d1316	-0.6760725
32	0x3e825d26	0.25461692
33	0xbbd1d3d1	-0.0064034243
34	0xbda8bcba	-0.08239122
35	0x3ecaddab	0.39622244
36	0xbd560f89	-0.05226091
37	0x3ed2c6a1	0.41167167
38	0xbd8710fc	-0.065950364
39	0xbe1755c7	-0.14778815
40	0x3e86d4b2	0.2633415
41	0xbe39f922	-0.18161443
42	0x3c4c042b	0.012452166
43	0x3eeafe7c	0.4589728
44	0x3edf1a67	0.4357483
45	0xbeadb1f4	-0.3392483
46	0x3e5fda05	0.21860512
47	0x3ded98da	0.1160142
48	0x3ebbc132	0.36670834
49	0xbe614ae4	-0.22001225
50	0xbf29575d	-0.6614893
51	0xbe2a9c03	-0.16661076
52	0xbebecedc	-0.37267196
53	0x3eef8bf9	0.46786478
54	0x3c9bfe1b	0.019042065
55	0x3e90a4e5	0.28250805
56	0x3eadb232	0.33925015
57	0xbd35252d	-0.044224907
58	0x3ee4d8bd	0.44696608
59	0xbef77ff6	-0.48339814
60	0x3d9224ec	0.071359485
61	0xbf0ce947	-0.5504345
62	0x3e1818d9	0.14853229
63	0xbe650afe	-0.22367474
64	0x3e72e9a5	0.23721941
65	0xbde32827	-0.11091643
66	0x3f102fea	0.5632311
67	0xbebf5c17	-0.37374946
68	0xbe3f0463	-0.18654017
69	0xbea66d24	-0.32505143
70	0x3f1f11f9	0.621368
71	0x3e1536ec	0.14571732
72	0x3f1d8d76	0.6154398
73	0xbebbedfa	-0.36705
74	0xbf21ecfb	-0.6325223
75	0xbec16062	-0.37768847
76	0xbeab07ca	-0.3340438
77	0x3ea5e9eb	0.32405028
78	0x3d9a2024	0.075256616
79	0x3f0f539a	0.5598694
80	0xbe60c1c9	-0.21948923
81	0xbeb92520	-0.36161137
82	0x3eb4d13c	0.35315883
83	0xbe7579fa	-0.23972312
84	0x3e787cf5	0.24266417
85	0xbe9c1d8e	-0.30491298
86	0x3ea1060c	0.31449926
87	0xbec25e65	-0.37962642
88	0xbe78bdf6	-0.24291214
89	0x3e8b562b	0.27214178
90	0x3dbd4b3c	0.092428654
91	0xbe93ec6f	-0.28891322
92	0x3e99c255	0.30031076
93	0x3eb9c040	0.36279488
94	0xbf162963	-0.586569
95	0xbde8f605	-0.113750495
96	0x3f2ff5d7	0.68734497
97	0xbe62835d	-0.22120424
98	0xbdccba15	-0.0999643
99	0xbefaea47	-0.49006864
100	0xbe9a147c	-0.30093753
101	0x3e4c43ab	0.19947688
102	0xbd58d99f	-0.052941915
103	0xbefda211	-0.4953771
104	0x3d8fb3a4	0.070166856
105	0xbe85d5da	-0.26139718
106	0xbed0e079	-0.4079626
107	0xbeb4391f	-0.3519983
108	0xbedc80e5	-0.4306709
109	0xbe8d5935	-0.27607122
110	0x3f2c6ad8	0.6735053
111	0xbc022882	-0.007944228
112	0x3e8e71b5	0.27821127
113	0xbf0ca869	-0.54944474
114	0xbf02dbc1	-0.5111657
115	0xbe1fb65b	-0.15596907
116	0xbbe5772d	-0.0070027323
117	0xbee817df	-0.45330712
118	0xbe38dce3	-0.18053012
119	0xbe3ecc10	-0.18632531
120	0x3e0c9385	0.13728149
121	0xbe9dbfa4	-0.30810273
122	0x3c9d239b	0.019182017
123	0xbecd8342	-0.40139204
124	0xbea6a0f5	-0.32544675
125	0xbe87cc27	-0.26522943
126	0xbe8efa02	-0.27925116
127	0xbefee7a6	-0.4978611
128	0x3ed998f1	0.42499498
129	0xbd5410c3	-0.051773798
130	0x3f073312	0.528123
131	0xbcc4f204	-0.024041183
132	0xbf07603c	-0.52881217
133	0x3ef65792	0.48113686
134	0xbd8b1324	-0.0679076
135	0xbe1254ee	-0.1429021
136	0xbed9584e	-0.42450184
137	0xbed82292	-0.42213875
138	0x3e1c5079	0.15265073
139	0xbe7cbed5	-0.24682172
140	0x3e700d3b	0.23442547
141	0xbec82226	-0.39088553
142	0x3f1d9a8e	0.61563957
143	0xbe90baaa	-0.28267413
144	0xbd546bcd	-0.05186062
145	0x3d0b8326	0.03406062
146	0x3f0cc06e	0.54981124
147	0x3ef22bd5	0.47299066
148	0x3ed5899d	0.41706553
149	0xbef64204	-0.4809724
150	0x3e05071a	0.1299099
151	0xbebe567b	-0.37175354
152	0xbda309d5	-0.0796086
153	0xbed12736	-0.40850228
154	0x3f25158e	0.64486015
155	0xbe74f772	-0.23922518
156	0x3e3109c4	0.17288882
157	0x3dbe5c88	0.09294993
158	0x3e341471	0.17585923
159	0xbeb3876d	-0.3506426
160	0x3f0683bd	0.52544767
161	0x3e2e824a	0.17041889
162	0x3dc7f0fa	0.097627595
163	0xbf23b157	-0.63942474
164	0x3e543bd2	0.20725945
165	0x3d5982a1	0.053103093
166	0xbeaaa3cb	-0.3332809
167	0x3f063c70	0.5243597
168	0x3e320785	0.17385681
169	0xbef02b99	-0.46908262
170	0xbe4b63ff	-0.19862364
171	0xbdc9f0f1	-0.09860409
172	0x3eba4b27	0.36385462
173	0xbe45d96a	-0.19321218
174	0xbef64419	-0.4809883
175	0xbe378bf8	-0.17924488
176	0xbe8f6867	-0.2800934
177	0x3dea333f	0.11435556
178	0x3ede6b9d	0.43441477
179	0xbf105040	-0.5637245
180	0xbd8f2dbf	-0.06991147
181	0x3f09dc6a	0.5385195
182	0x3d19fd29	0.037594948
183	0xbe5d3de1	-0.21605636
184	0x3e7f2671	0.24917008
185	0x3ef2e669	0.47441414
186	0x3e859924	0.260934
187	0xbd9689c0	-0.073504925
188	0xbe59568f	-0.21224426
189	0x3e153c75	0.14573844
190	0xbe506fe5	-0.20355184
191	0xbe00543a	-0.1253213
192	0x3e1f706a	0.15570226
193	0x3f2d3575	0.67659694
194	0xbb1537b5	-0.00227688
195	0xbcfc206f	-0.030777184
196	0x3e9c2653	0.3049799
197	0xbd067bde	-0.032832973
198	0x3d80bf14	0.06286445
199	0x3e0656e1	0.13119079
200	0xbf2ac53e	-0.6670722
201	0xbdb66710	-0.08906376
202	0x3ea73d90	0.32664156
203	0x3eb1bc98	0.34714198
204	0xbdc75360	-0.097326994
205	0xbecb1c71	-0.39670137
206	0xbe68157d	-0.22664447
207	0xbf0b118c	-0.5432365
208	0xbddbefe5	-0.107391156
209	0x3e6a2f36	0.22869572
210	0x3e8cdc61	0.27511886
211	0x3e33d27d	0.17560764
212	0xbf151ad8	-0.58244085
213	0xbe78c5e7	-0.24294244
214	0xbdf52b2f	-0.11971127
215	0x3f2bdde0	0.6713543
216	0x3df65ec6	0.12029795
217	0xbe493b5c	-0.1965155
218	0x3e9682a9	0.2939656
219	0xbe166500	-0.14686966
220	0xbebeb059	-0.37243918
221	0x3ee2a583	0.442669
222	0xbe01ac28	-0.12663329
223	0xbdc1b9c9	-0.09459264
224	0xbefa1b03	-0.48848733
225	0x3e8443af	0.25832888
226	0x3ebc5b1b	0.36788258
227	0x3e8900b7	0.26758358
228	0xbe21a91e	-0.1578717
229	0xbf176e4d	-0.5915268
230	0xbeacda72	-0.3376041
231	0x3ecc6e44	0.39927876
232	0x3e79baea	0.24387708
233	0x3eef04e8	0.4668343
234	0x3efeb6c9	0.4974883
235	0x3de54a23	0.11195781
236	0x3bd465a6	0.006481844
237	0xbea300e8	-0.3183663
238	0xbeee5167	-0.4654648
239	0xbedb1a73	-0.42793617
240	0x3ea05947	0.31318113
241	0xbeab04e8	-0.3340218
242	0xbdc44974	-0.095843226
243	0xbea3d412	-0.31997734
244	0xbc0b99cf	-0.008520558
245	0xbebe58b5	-0.37177053
246	0xbe9dcee6	-0.30821913
247	0x3e869c65	0.26291195
248	0xbe853e15	-0.26023927
249	0x3eacd7f8	0.3375852
250	0xbde9f487	-0.11423593
251	0xbedeae2c	-0.43492258
252	0x3d3f8b4b	0.0467637
253	0xbe9318e0	-0.28729916
254	0xbda81578	-0.0820722
255	0xbee02916	-0.43781346

conv1.bias f4 [128]
0	0xbe855397	-0.26040336
1	0x3f1054c3	0.56379336
2	0xbf1610e6	-0.58619535
3	0xbe5a8a23	-0.21341757
4	0x3e39b728	0.18136275
5	0xbe33f708	-0.17574704
6	0xbe5b6543	-0.21425347
7	0xbea3c5bd	-0.319868
8	0xbc330b09	-0.010927924
9	0x3eab6bfb	0.3348082
10	0x3e95a54a	0.29227668
11	0xbeeedb38	-0.46651626
12	0xbf1dab29	-0.61589295
13	0x3ed81cd3	0.4220949
14	0x3e1d4286	0.15357408
15	0xbed3d58c	-0.4137386
16	0x3c2b487b	0.010454292
17	0x3f268838	0.65051603
18	0xbcfe188d	-0.031017566
19	0x3d11089b	0.035408597
20	0xbe2174e4	-0.15767246
21	0xbf0d22df	-0.55131334
22	0xbf126c9a	-0.5719696
23	0xbe510e77	-0.20415674
24	0xbe29a76e	-0.16567776
25	0x3e891133	0.26770934
26	0xbeb00612	-0.3437963
27	0xbeafb799	-0.3431976
28	0x3f08646f	0.5327825
29	0x3e908433	0.2822586
30	0x3efb9bbe	0.4914226
31	0xbe86af9b	-0.2630585
32	0xbdebfade	-0.115224585
33	0x3e6c2a3d	0.23062988
34	0xbed05010	-0.40686083
35	0xbed24fe9	-0.41076592
36	0x3c18e4ed	0.009331924
37	0xbe8aa413	-0.27078304
38	0xbedac137	-0.42725536
39	0x3e767b48	0.24070466
40	0x3eede807	0.46466085
41	0x3da38351	0.07984031
42	0xbe25a332	-0.16175535
43	0xbf1ae049	-0.6049848
44	0xbdb7dd9e	-0.08977817
45	0x3dbb8656	0.09156482
46	0x3ed83cd5	0.4223391
47	0x3d2d2fc1	0.04228187
48	0xbe4237cb	-0.18966596
49	0x3e9a9253	0.30189762
50	0xbeee0069	-0.46484688
51	0x3ee28c9c	0.442479
52	0xbeff6487	-0.49881384
53	0x3cac585d	0.021038229
54	0x3d4defbe	0.050277464
55	0x3dc53a33	0.09630241
56	0xbe4250c9	-0.1897613
57	0x3ef62c57	0.48080704
58	0xbd20b7a3	-0.03923763
59	0x3f060f78	0.52367353
60	0x3eb58c3e	0.3545856
61	0xbe8184c7	-0.25296614
62	0xbeffa41a	-0.49929887
63	0x3eea8b07	0.45809194
64	0x3de68b34	0.1125702
65	0xbdae428e	-0.08508788
66	0x3dfd800a	0.12377937
67	0xbf33d7bf	-0.7025108
68	0xbf0f046f	-0.5586614
69	0x3e415bf9	0.18882741
70	0x3eb58011	0.3544927
71	0x3e07b45f	0.132524
72	0xbe8e9a39	-0.27852038
73	0x3f235e59	0.6381584
74	0x3db94286	0.090458915
75	0xbef40fb6	-0.47668236
76	0x3d33eac3	0.043925058
77	0xbe06f4b8	-0.1317929
78	0x3db6b658	0.08921498
79	0xbeeca48f	-0.46219298
80	0x3e60a076	0.21936211
81	0xbed4df27	-0.41576502
82	0xbf0c77c5	-0.54870254
83	0xbee78138	-0.45215774
84	0x3ee2d86e	0.44305748
85	0x3f204c15	0.6261609
86	0x3e8dfe99	0.27733305
87	0x3eb02925	0.3440639
88	0x3ecc7f78	0.39941
89	0xbdbb6051	-0.0914923
90	0xbee25010	-0.44201708
91	0x3b393ab7	0.0028263757
92	0xbe9d5417	-0.30728218
93	0xbeefc973	-0.4683338
94	0xbe6fa69b	-0.23403399
95	0x3e699cdb	0.22813742
96	0x3efde8ee	0.49591774
97	0xbe41de3f	-0.18932436
98	0xbee1a328	-0.4406979
99	0xbc090e0f	-0.008365168
100	0xbee253bc	-0.4420451
101	0xbeddc3a9	-0.4331334
102	0x3f039172	0.51393807
103	0xbe0fb5d7	-0.1403421
104	0x3f0fe6c7	0.56211513
105	0x3ecefec9	0.4042876
106	0x3e3045d4	0.17214137
107	0x3dca976c	0.09892163
108	0x3d777078	0.060409993
109	0xbd15f466	-0.03661003
110	0xbe7148d6	-0.23562941
111	0x3d85eb1e	0.06538986
112	0x3eb88a04	0.36042798
113	0x3f036227	0.51321644
114	0xbde6620a	-0.11249168
115	0xbe531fe5	-0.20617636
116	0xbe067cdf	-0.13133572
117	0xbefa9f05	-0.48949447
118	0x3e57c686	0.21071824
119	0x3f021d61	0.5082608
120	0x3ec23303	0.37929544
121	0x3e05924c	0.13044089
122	0xbeb552e7	-0.35414812
123	0xbee50f00	-0.44738007
124	0xbe72262d	-0.23647375
125	0xbcc6d04e	-0.02426925
126	0x3e3a8180	0.18213463
127	0xbf181eb9	-0.5942188

bn1.weight f4 [128]
0	0x3f7a0fc4	0.97680306
1	0x3f0c51ab	0.54812115
2	0x3f99b88e	1.2009447
3	0x3f2c8d37	0.67402977
4	0x3dd8ef54	0.10592523
5	0x3f5d9b0b	0.865647
6	0x3f0a4866	0.5401672
7	0x3f94c775	1.162337
8	0xbba3eb78	-0.0050024353
9	0x3e7e4695	0.24831612
10	0x3f92aeb7	1.1459569
11	0x3fc81f70	1.5634594
12	0x40042b0a	2.065127
13	0x3f1bfa10	0.6092844
14	0x3efdfefb	0.49608597
15	0x3f8c9cf7	1.0985402
16	0x3f58728c	0.84549785
17	0x3f285825	0.657595
18	0x3ece749b	0.40323338
19	0x3f65073e	0.89464176
20	0x3f8e3c25	1.1112105
21	0x3f7e0d35	0.992389
22	0x3fa170d5	1.2612559
23	0x3f4a7967	0.79091495
24	0x3f7e2321	0.9927235
25	0x3f1458cc	0.57947993
26	0x3fb26668	1.3937502
27	0x3f770017	0.9648451
28	0x3f17f5ba	0.59359324
29	0x3eeadaf8	0.45870185
30	0x3f478fef	0.77954
31	0x3f454152	0.77052796
32	0x3f9e80dd	1.2383076
33	0x3ec40abc	0.3828944
34	0x3f94a381	1.1612397
35	0x3e924d44	0.28574574
36	0x3f3cdee6	0.73777616
37	0x3f8b350e	1.0875566
38	0x3f7ba117	0.9829268
39	0x3dab3732	0.08360137
40	0x3f2dedcc	0.67940974
41	0x3e87da7e	0.26533884
42	0x3ef76b82	0.4832421
43	0x3fbd0bb6	1.4769199
44	0x3f534f2b	0.82542676
45	0x3e1d02c5	0.15333088
46	0x3f3709ea	0.714995
47	0x3f30a81b	0.6900651
48	0x3f983e97	1.1894101
49	0x3f09406e	0.53613937
50	0x3f914b13	1.1351036
51	0x3f5410a5	0.828379
52	0x3fb4bec8	1.4120722
53	0x3f409e5e	0.7524165
54	0x3f756715	0.95860416
55	0x3f932fc8	1.1498957
56	0x3f353c11	0.7079478
57	0x3f5505ea	0.8321215
58	0x3ec64b80	0.38729477
59	0x3f7ecd8d	0.99532396
60	0x3ec5b640	0.38615608
61	0x3f63fe8b	0.89060277
62	0x3fd0f5a8	1.6324968
63	0x3ed3f4f5	0.41397825
64	0x3e94fb10	0.29097795
65	0x3d8a28fb	0.06746098
66	0x3f8acf8c	1.0844588
67	0x3fd928cc	1.6965575
68	0x3f98db1d	1.1941868
69	0x3f002d10	0.5006876
70	0x3f27729b	0.6540925
71	0x3f68d1b1	0.90944964
72	0x3fabfcbe	1.3436506
73	0x3f5cf918	0.86317587
74	0x3db0ec37	0.086388044
75	0x3f8a63bf	1.081169
76	0x3e5ec59b	0.21755068
77	0x3f29f9af	0.6639661
78	0x3ed1cc74	0.40976298
79	0x3ee3de62	0.44505602
80	0x3f859079	1.0434715
81	0x3f3bc66c	0.7334964
82	0x3f8cebb9	1.1009437
83	0x3f8e0675	1.109572
84	0x3d8e1dfd	0.069393136
85	0x3efd517c	0.4947623
86	0x3ed2c031	0.41162255
87	0x3f57e8fa	0.8433987
88	0x3f05ab39	0.5221439
89	0x3f2d7879	0.6776195
90	0x3fa4dcb7	1.2879857
91	0x3f133bd5	0.5751317
92	0x3f7ed783	0.99547595
93	0x3f3c9f26	0.7368034
94	0x3f25faa2	0.6483556
95	0x3f1d4c11	0.61444193
96	0x3f4d5163	0.8020231
97	0x3f056ade	0.5211619
98	0x3f869e5b	1.0517076
99	0x3e7d12f3	0.2471426
100	0x3fa575c8	1.2926569
101	0x3f809781	1.0046235
102	0x3eaf5fa5	0.34252658
103	0x3f23e908	0.6402745
104	0x3f659230	0.8967619
105	0x3efbc043	0.49170122
106	0x3f72a43c	0.9478185
107	0x3f3668a7	0.71253437
108	0x3ea5ca0b	0.3238071
109	0x3eb480f9	0.35254648
110	0x3f8a396a	1.0798771
111	0x3ecd767a	0.40129453
112	0x3f71ab5c	0.944021
113	0x3eb6d885	0.35712066
114	0x3ea66923	0.32502088
115	0x3f7ba14c	0.98292994
116	0x3f5ff183	0.8747789
117	0x3f989b7d	1.1922451
118	0x3f298645	0.66220504
119	0x3f43ff10	0.7656107
120	0x3e15b29f	0.1461892
121	0x3f20a204	0.62747216
122	0x3f1a6191	0.60305125
123	0x3fa464b9	1.2843238
124	0x3f2a4db3	0.6652481
125	0x3f824ddf	1.0180014
126	0x3f9332ae	1.1499841
127	0x3f8f331b	1.1187471

bn1.bias f4 [128]
0	0x3db63f3c	0.0889878
1	0x3d98bac7	0.074575
2	0x3e41267e	0.1886234
3	0xbe03f8c0	-0.1288786
4	0x3d92cf29	0.07168419
5	0x3d9e51e7	0.077304654
6	0x3d326886	0.043556713
7	0x3e5f549b	0.21809618
8	0x3a316650	0.000676726
9	0x3d18f73c	0.037345156
10	0xbd188b56	-0.037242256
11	0x3e6da710	0.2320826
12	0x3eaae526	0.3337795
13	0xbe822886	-0.25421542
14	0x3e3c90ff	0.18414687
15	0x3d2b8f7c	0.041884884
16	0x3d294bd3	0.041332077
17	0x3e30b63d	0.17257018
18	0x3dd2b0a8	0.10287601
19	0xbe46bbff	-0.19407652
20	0xbe5e3183	-0.21698575
21	0x3cda19f7	0.02662371
22	0x3db5d045	0.08877615
23	0xbe1e33b1	-0.15449406
24	0x3e44051d	0.19142576
25	0x3e07438c	0.13209361
26	0x3e33ef9d	0.17571874
27	0x3e48718b	0.19574563
28	0x3d8446e9	0.064588375
29	0x3df32d3a	0.11873861
30	0x3e5c3608	0.21504986
31	0x3af9d85c	0.0019061673
32	0xbc1fc45b	-0.009751405
33	0x3da44d80	0.080225945
34	0x3dc4b8a9	0.09605534
35	0x3d2988d8	0.04139027
36	0x3e89f186	0.2694208
37	0x3e2f6835	0.17129596
38	0x3e45b1f7	0.1930617
39	0xbd51dc89	-0.05123571
40	0xbe15414b	-0.14575689
41	0x3e0e4b0d	0.13895817
42	0x3e11e557	0.14247642
43	0x3e6ba379	0.23011579
44	0xbde7bda8	-0.11315471
45	0x3ded10f0	0.11575496
46	0x3d11c212	0.03558547
47	0xbe75421a	-0.23950997
48	0x3e39d5ee	0.18148014
49	0x3d2fb956	0.04290136
50	0x3e40fcff	0.1884651
51	0x3d888c86	0.06667428
52	0x3e9599c8	0.29218888
53	0x3e15ea26	0.14640102
54	0xbe8fef37	-0.28112194
55	0x3df66a6f	0.12032019
56	0x3e71c94b	0.23611943
57	0x3ce90def	0.028449027
58	0x3e1f6fbf	0.15569972
59	0x3d96d554	0.07364908
60	0x3e34e208	0.17664349
61	0x3e83922a	0.25697452
62	0x3e586c3f	0.21135043
63	0x3de2b824	0.11070278
64	0x3d6fab2a	0.058512844
65	0xbf4b268a	-0.7935568
66	0xbe5b0bf7	-0.21391283
67	0x3ea82766	0.3284256
68	0x3e927567	0.28605196
69	0x3d748fc4	0.059707418
70	0xbcf4f5fd	-0.029902453
71	0x3e989783	0.29803094
72	0x3e60c0d4	0.21948558
73	0x3e3b6ecd	0.18303986
74	0x3d14bfa5	0.03631558
75	0x3e814e33	0.25254974
76	0x3e0f6ca3	0.14006285
77	0x3e7a7c36	0.24461445
78	0x3ba69b6c	0.0050844457
79	0x3e58a3f9	0.211563
80	0x3de747e7	0.11293011
81	0x3e4c6fd9	0.19964541
82	0x3e29dad6	0.16587386
83	0x3e46b9f7	0.19406877
84	0xbc4635cd	-0.012097788
85	0x3d99cd0b	0.07509812
86	0x3e9102c6	0.28322428
87	0x3ddedf17	0.10882395
88	0x3e85f2c3	0.26161775
89	0x3d899937	0.067186765
90	0x3d3c6f9f	0.046004888
91	0x3dfc37d4	0.12315336
92	0x3db492a2	0.088170305
93	0x3e93bdb1	0.2885566
94	0x3deb632e	0.114935264
95	0xbe5417df	-0.20712231
96	0x3e4c7390	0.19965959
97	0x3ea8199a	0.32832032
98	0x3e51eb40	0.20499897
99	0xbdaf955e	-0.085734114
100	0x3e7b6610	0.24550653
101	0x3e656cc9	0.2240478
102	0xbc1a5773	-0.009420264
103	0x3e6efcbc	0.23338598
104	0x3e96629c	0.29372108
105	0x3e2d978c	0.16952342
106	0x3ca01bc0	0.019544482
107	0x3e07fc51	0.13279845
108	0x3ddc0bb4	0.1074442
109	0x3d3c8b72	0.046031423
110	0x3cb71b22	0.022351805
111	0x3e23590e	0.1595194
112	0xbc469eef	-0.012122854
113	0x3dd75aac	0.10515341
114	0x3e37c8d4	0.17947704
115	0xbe9885c5	-0.29789558
116	0x3e0c007b	0.13672058
117	0x3e917abb	0.28413948
118	0x3e10af03	0.14129262
119	0x3de46f8e	0.1115409
120	0x3d24bc0d	0.0402184
121	0x3e3ba471	0.18324448
122	0x3e10f0f5	0.14154418
123	0x3e94dbb8	0.29073882
124	0x3e5b147c	0.21394533
125	0x3d07a20d	0.033113528
126	0xbdcee5f9	-0.101024576
127	0x3e59bc49	0.21263231

bn1.running_mean f4 [128]
0	0x3e14fe9a	0.14550248
1	0x3f11832e	0.5684079
2	0x3d9d3d47	0.07677703
3	0x3ddbdda9	0.10735638
4	0x3ea21209	0.31654385
5	0x3e0586c3	0.13039689
6	0x3d747080	0.0596776
7	0x3d4a35b4	0.04936762
8	0x3cb4da7f	0.022076843
9	0x3ee40d29	0.4454129
10	0x3ec1dbfb	0.37863144
11	0x3cba9099	0.022774028
12	0x3c44cf9f	0.012012391
13	0x3ed92f0e	0.42418712
14	0x3ec2185d	0.37909213
15	0x3c735008	0.014850624
16	0x3e90e0d4	0.2829653
17	0x3f2bc258	0.6709342
18	0x3e4b82b4	0.19874078
19	0x3e379049	0.17926134
20	0x3dd3ea91	0.10347474
21	0x39a95b3e	0.00032302173
22	0x3d0cdb8b	0.03438906
23	0x3e1d836c	0.15382165
24	0x3e6b5579	0.22981824
25	0x3ec1f251	0.37880185
26	0x3daf9199	0.085726924
27	0x3cc81dc9	0.024428265
28	0x3f0930f5	0.5359033
29	0x3ebdd68d	0.37077752
30	0x3efc7b94	0.49313033
31	0x3dc8e830	0.09809911
32	0x3e2e3024	0.17010552
33	0x3ec4b43a	0.38418752
34	0x3d1edbc9	0.038783822
35	0x3e0eb3f4	0.13935834
36	0x3e8767d6	0.26446408
37	0x3d7ffcaf	0.062496837
38	0x3d845f86	0.06463532
39	0x3ece026b	0.4023622
40	0x3ef053cc	0.46938932
41	0x3eb339d9	0.35005072
42	0x3e1b166e	0.15145275
43	0x3d1ff7f9	0.039054845
44	0x3e08dbd5	0.1336511
45	0x3ebc4390	0.36770296
46	0x3ed8b855	0.42328134
47	0x3e4dfe13	0.20116453
48	0x3e0c4920	0.1369977
49	0x3eded225	0.43519703
50	0x3c22f088	0.009945042
51	0x3ef88c46	0.4854452
52	0x3c820cfb	0.01587533
53	0x3e5d226a	0.21595159
54	0x3e68a996	0.22720942
55	0x3e5ae0b1	0.21374775
56	0x3deb2f99	0.11483688
57	0x3ef756a8	0.483083
58	0x3e875ba8	0.26437116
59	0x3f10382b	0.56335706
60	0x3ed45d2d	0.41477337
61	0x3e038a0b	0.12845628
62	0x3b9bc62d	0.004753849
63	0x3eeea2e9	0.46608666
64	0x3eb5e969	0.3552964
65	0x3d9ad528	0.075601876
66	0x3e972263	0.29518422
67	0x3d1ff92b	0.039055984
68	0x3d195c14	0.03744133
69	0x3ea93750	0.33050013
70	0x3edfb00b	0.43688998
71	0x3e9890c4	0.29797947
72	0x3caf41ca	0.021393675
73	0x3f28537d	0.65752393
74	0x3e8de78e	0.27715725
75	0x3df50f09	0.11965758
76	0x3ec26cc4	0.37973607
77	0x3e8ea588	0.27860665
78	0x3e82e112	0.2556234
79	0x3e309b91	0.17246844
80	0x3e8d6778	0.27618003
81	0x3d608743	0.054816496
82	0x3b7a9e34	0.003824127
83	0x3d0ed1d3	0.034868073
84	0x3eebf72c	0.46087015
85	0x3f23c34c	0.63969874
86	0x3ef07481	0.46963885
87	0x3ec6c861	0.38824752
88	0x3ee8fc91	0.45505193
89	0x3e3b6660	0.18300772
90	0x3d0081da	0.031373836
91	0x3e96ce48	0.29454255
92	0x3daed1b0	0.085360885
93	0x3ddd29fc	0.107990235
94	0x3da9422b	0.08264574
95	0x3eafdca1	0.34348014
96	0x3f02508d	0.5090416
97	0x3e8773b4	0.26455462
98	0x3d54b3b1	0.05192918
99	0x3e438d56	0.19096884
100	0x3c01ac4d	0.007914615
101	0x3dac8bfb	0.08425137
102	0x3f03b868	0.51453257
103	0x3e51fe3c	0.20507139
104	0x3f1dd010	0.61645603
105	0x3f078201	0.52932745
106	0x3e7c1641	0.24617864
107	0x3ea0caaf	0.31404635
108	0x3ec27e79	0.37987116
109	0x3e9a7b78	0.30172324
110	0x3dce88fc	0.100847214
111	0x3e669772	0.2251871
112	0x3ebf565a	0.3737057
113	0x3f04d411	0.5188609
114	0x3e90cf95	0.28283373
115	0x3dc0ab4a	0.09407671
116	0x3dcd3412	0.10019697
117	0x3db61024	0.08889797
118	0x3eac074f	0.33599326
119	0x3f06ee1c	0.52707076
120	0x3ef84de9	0.4849694
121	0x3e97de27	0.29661676
122	0x3e2d064b	0.16896932
123	0x3dcd155f	0.10013842
124	0x3e0bac43	0.13639931
125	0x3e49ad5e	0.1969504
126	0x3e96c63f	0.29448125
127	0x3d4d767d	0.050161827

bn1.running_var f4 [128]
0	0x3ddde9f5	0.108356394
1	0x3db7ce1c	0.08974859
2	0x3d7e0e5c	0.062025413
3	0x3d818f24	0.0632613
4	0x3e36d788	0.17855656
5	0x3d999abb	0.075002156
6	0x3c882674	0.016619898
7	0x3cb648d6	0.022251528
8	0x3ac7b613	0.0015236757
9	0x3e25fa85	0.16208847
10	0x3e147235	0.14496692
11	0x3c17a1a9	0.009254851
12	0x3b9b825a	0.0047457637
13	0x3d1ed05d	0.03877293
14	0x3ea14a51	0.3150201
15	0x3b9fb425	0.00487377
16	0x3e118f17	0.1421474
17	0x3e2bbb7b	0.16770737
18	0x3df7091a	0.12062283
19	0x3d8de15f	0.06927752
20	0x3d007355	0.03135999
21	0x387508eb	5.8420857e-05
22	0x3ca27992	0.01983336
23	0x3ddd0bd4	0.10793272
24	0x3e15c3f0	0.14625525
25	0x3e0b3d20	0.13597536
26	0x3d5c75ad	0.053823162
27	0x3bdca304	0.0067333
28	0x3dbc600b	0.09198006
29	0x3dec3fe5	0.115356244
30	0x3d82bae4	0.06383303
31	0x3d297a91	0.041376654
32	0x3ddd5613	0.10807433
33	0x3e1e5206	0.15460977
34	0x3c3b72d2	0.0114409495
35	0x3d999393	0.07498851
36	0x3e217de1	0.15770675
37	0x3cacff1b	0.021117738
38	0x3cd04367	0.025422765
39	0x3e2ea052	0.17053345
40	0x3d63ac94	0.055584505
41	0x3e39fd43	0.18163018
42	0x3d8cb82b	0.06871065
43	0x3cb0cfcf	0.021583466
44	0x3d6975e7	0.056997206
45	0x3e472bbd	0.19450279
46	0x3d439f39	0.04775927
47	0x3dab952f	0.08378064
48	0x3db764a5	0.08954743
49	0x3e93f47b	0.2889746
50	0x3b182920	0.0023217872
51	0x3e2cecaa	0.16887155
52	0x3bc06d5d	0.005872412
53	0x3e01455a	0.12624112
54	0x3da1f0bd	0.07907245
55	0x3db71634	0.08939782
56	0x3d2825ee	0.041051798
57	0x3d8dfc67	0.069329076
58	0x3e0737ad	0.13204832
59	0x3e41c320	0.1892209
60	0x3e509565	0.2036949
61	0x3dbc3954	0.09190622
62	0x3aa1a407	0.0012332209
63	0x3d56814f	0.052369412
64	0x3e96916f	0.29407832
65	0x3cc31b97	0.023816867
66	0x3de4cd83	0.11172011
67	0x3cd7f03e	0.026359674
68	0x3c620cc0	0.013796985
69	0x3df570ff	0.11984443
70	0x3e23b760	0.15987921
71	0x3e3a81f9	0.18213643
72	0x3bddb885	0.006766381
73	0x3e1d4a03	0.15360264
74	0x3ddc8b78	0.10768789
75	0x3dbeaa29	0.09309799
76	0x3e6497b1	0.2232349
77	0x3e82732f	0.25478503
78	0x3e1d82ff	0.15382002
79	0x3de15309	0.11002166
80	0x3d872185	0.0659819
81	0x3ca43ae2	0.020047609
82	0x3a55b1f2	0.0008151821
83	0x3c52605f	0.0128403595
84	0x3d9cac0e	0.07650004
85	0x3e0e7ef5	0.13915618
86	0x3ec8c6d7	0.39214203
87	0x3dffefea	0.12496932
88	0x3e655d55	0.22398885
89	0x3d974233	0.073856734
90	0x3c6621b7	0.014046124
91	0x3e7c5910	0.2464335
92	0x3d1bf38e	0.03807407
93	0x3d653abd	0.05596422
94	0x3cd76081	0.026291134
95	0x3e0c3395	0.13691552
96	0x3db619da	0.088916495
97	0x3e28bb44	0.16477686
98	0x3c9f2e31	0.019431205
99	0x3d7d9836	0.061912738
100	0x3ac6b7e3	0.0015161004
101	0x3d248e1a	0.04017458
102	0x3d33f476	0.043934308
103	0x3e20f0e6	0.15716895
104	0x3ea7ea56	0.32795972
105	0x3ed0ae62	0.40758044
106	0x3d77b9fc	0.060480103
107	0x3e7252cc	0.23664397
108	0x3e60c40e	0.21949789
109	0x3e2c267d	0.16811557
110	0x3d55af62	0.05216921
111	0x3da32d5d	0.07967637
112	0x3d837ff2	0.06420888
113	0x3d52b961	0.051446322
114	0x3e29870a	0.1655542
115	0x3d303c2a	0.043026127
116	0x3d18d9be	0.03731703
117	0x3d7c0023	0.061523568
118	0x3e14dbc1	0.14536954
119	0x3e0da732	0.13833311
120	0x3e342601	0.17592622
121	0x3e4085ec	0.18801087
122	0x3dc5cc84	0.09658149
123	0x3d90a164	0.07062033
124	0x3d734b9d	0.059398282
125	0x3dffba99	0.124867626
126	0x3df1b085	0.118012466
127	0x3d075f9e	0.033050172

conv2.weight f4 [128, 128, 3]
0	0xbe761c1c	-0.2403416
1	0x3cec651d	0.028856808
2	0x3d0f1765	0.03493442
3	0xbe4da4e8	-0.20082438
4	0xbb57118f	-0.0032816862
5	0xbe828d61	-0.2549849
6	0x3da9676e	0.08271681
7	0x3d6d0d5c	0.05787407
8	0x3e6dbd2f	0.23216699
9	0xbde6d836	-0.11271708
10	0x3be7e02f	0.0070762853
11	0x3e6082ee	0.21924946
12	0xbe0a487d	-0.13504215
13	0x3d7edf2e	0.06222456
14	0x3d798e06	0.06092646
15	0xbd2a1560	-0.04152429
16	0x3db89b76	0.09014027
17	0x3e129cf4	0.14317685
18	0xbcb95ab2	-0.022626255
19	0xbc86ef58	-0.01647155
20	0xbda80ebf	-0.082059376
21	0x3e275529	0.1634108
22	0xbce87770	-0.028377265
23	0xbcdf4a8d	-0.027257228
24	0xbd108c26	-0.035289906
25	0xbcb0e1b3	-0.021591997
26	0xbcaf98c0	-0.021435142
27	0x3e2ea988	0.17056859
28	0xbdff9741	-0.12480021
29	0x3d00e80b	0.031471293
30	0xbdee71ea	-0.11642821
31	0xbe44f0e2	-0.19232515
32	0xbd19cece	-0.03755074
33	0x3de0a1f9	0.10968394
34	0x3d8d8777	0.069106035
35	0x3d569510	0.05238825
36	0x3d1d3983	0.038384926
37	0xbe3080db	-0.17236654
38	0xbdd89071	-0.10574425
39	0xbd952bbc	-0.07283732
40	0x3dd96444	0.10614827
41	0x3e0281a5	0.12744768
42	0xbe425d1b	-0.1898083
43	0x3c979a4b	0.01850619
44	0x3db86670	0.090039134
45	0xbc702712	-0.014657753
46	0x3cf6fa26	0.030148577
47	0x3e6f32b2	0.23359182
48	0x3e0adaa1	0.13559963
49	0xbdb7df08	-0.08978087
50	0xbc94dcdc	-0.01817172
51	0x3c99e6b0	0.018786758
52	0xbe35cc1a	-0.1775364
53	0xbe0b36d8	-0.1359514
54	0xbe48844f	-0.19581722
55	0x3d859b5f	0.06523775
56	0x3de827a5	0.113356866
57	0xbcb245e2	-0.021761838
58	0xbe51a6fe	-0.20473859
59	0x3d96ff91	0.07372964
60	0x3dbd0a64	0.092304975
61	0xbd4efb69	-0.050532732
62	0xbdc98f39	-0.09841771
63	0xbe391da6	-0.18077716
64	0xbeba7599	-0.36417845
65	0xbe8f27de	-0.27960104
66	0xbe49b00f	-0.19696067
67	0x3e190a7a	0.14945403
68	0x3d230663	0.039801013
69	0xbe101045	-0.14068706
70	0x3d95dfb0	0.07318056
71	0x3e864004	0.26220715
72	0x3db72772	0.089430705
73	0xbd83bdaa	-0.0643266
74	0xbe287262	-0.16449884
75	0x3dcddc25	0.10051755
76	0xbdb06a75	-0.08614055
77	0xbe0bda53	-0.13657503
78	0xbe30b0b3	-0.17254905
79	0x3db5c2f2	0.088750735
80	0x3d8d8d7d	0.069117524
81	0xbe5d3b29	-0.21604599
82	0x3cf05b87	0.029340519
83	0xbe618a3b	-0.22025387
84	0xbe0f3011	-0.1398318
85	0xbe333df1	-0.17504098
86	0xbd6c92e5	-0.057757277
87	0x3ddb5607	0.10709768
88	0xbd95b55d	-0.07309983
89	0xbe1746f4	-0.1477316
90	0xbdd06084	-0.10174659
91	0xbe60a1d9	-0.2193674
92	0xbcb082fd	-0.021546835
93	0x3d824a58	0.06361836
94	0xbd358cc0	-0.044323683
95	0xbe877b39	-0.264612
96	0xbeade6ae	-0.33965057
97	0x3e45868e	0.1928961
98	0x3bfcbf60	0.0077132434
99	0x3d904774	0.070448786
100	0xbd849a46	-0.06474738
101	0xbdc73485	-0.09726814
102	0x3e03d713	0.12875013
103	0x3d43362f	0.047659095
104	0xbdeca3ed	-0.11554704
105	0x3e4c6faf	0.19964479
106	0x3e0ddb4c	0.13853186
107	0xbdcca855	-0.09993044
108	0x3de8cf62	0.1136768
109	0xbe2fe899	-0.17178573
110	0xbdce1f45	-0.10064558
111	0x3dd2ac88	0.10286814
112	0xbe3f8be1	-0.18705703
113	0x3e3c56ed	0.18392535
114	0x3e988269	0.29786995
115	0x3d85272a	0.065016106
116	0x3de91e35	0.11382715
117	0x3e1143fa	0.14186087
118	0x3d2d7aa6	0.042353295
119	0xbdbfc859	-0.09364385
120	0x3db560ec	0.08856377
121	0xbe43b45c	-0.1911177
122	0xbd8f2162	-0.06988789
123	0x3e2473c0	0.1605978
124	0xbce69b25	-0.02815015
125	0xbd82a5e4	-0.063792974
126	0x3d84e460	0.064888716
127	0xbdef038a	-0.11670597
128	0xbd4c321e	-0.049852483
129	0xbd35cce6	-0.04438486
130	0xbd0018b6	-0.031273566
131	0x3e8ed682	0.2789803
132	0xbe9db20e	-0.30799907
133	0x3e3a1b11	0.18174388
134	0x3e124099	0.14282455
135	0x3d803a60	0.06261134
136	0xbd2dd36d	-0.04243796
137	0x3d015f08	0.03158477
138	0xbd814eb5	-0.0631384
139	0xbe4da74a	-0.20083347
140	0xbc50208f	-0.012703075
141	0xbc8a000f	-0.016845731
142	0x3e3408b7	0.1758145
143	0x3df05cd6	0.11736457
144	0x3b0d9597	0.0021604055
145	0xbd196f4d	-0.03745966
146	0x3e62687c	0.2211017
147	0xbe66d4f8	-0.22542179
148	0xbd416ded	-0.047223974
149	0xbdb2da96	-0.08733098
150	0xbe130e8c	-0.14361018
151	0xbd5c8262	-0.05383528
152	0xbe6ef705	-0.23336418
153	0xbe6739e0	-0.22580671
154	0x3dcf7843	0.1013036
155	0x3db93a08	0.09044272
156	0xbdce1438	-0.1006245
157	0x3e3cc353	0.18433885
158	0x3c135fdc	0.008995023
159	0xbe64f811	-0.22360255
160	0xbbeaa609	-0.007160906
161	0x3e23c3b1	0.15992619
162	0x3dc60ece	0.096707925
163	0xbdfe0e58	-0.124050796
164	0xbd8e3d50	-0.06945288
165	0xbd338204	-0.043825164
166	0xbe86a1df	-0.26295373
167	0xbd497e65	-0.049192805
168	0x3e1c1afe	0.15244672
169	0x3d4e670f	0.050391253
170	0xbe82a52f	-0.2551665
171	0xbe5b6315	-0.21424516
172	0xbbfb605a	-0.007671398
173	0x3e195084	0.1497212
174	0x3d96f326	0.07370596
175	0x3b8f2efb	0.004369614
176	0xbd9a11ac	-0.07522902
177	0xbd893c8d	-0.06701002
178	0xbdb96578	-0.09052557
179	0x3d2166e2	0.039404757
180	0xbea1b8a0	-0.3158617
181	0xbdc46872	-0.09590234
182	0x3dec0895	0.115250744
183	0xbd4f5620	-0.050619245
184	0x3e018aef	0.12650655
185	0x3e8030fb	0.2503737
186	0xbdb21b59	-0.086966224
187	0x3da6e546	0.08149199
188	0xbe93df8d	-0.28881493
189	0xbac9b315	-0.0015388454
190	0xbe046e59	-0.1293272
191	0xbe56c12e	-0.2097213
192	0xbe1c8204	-0.15283972
193	0xbd05e2c9	-0.032686982
194	0x3d6fb333	0.058520507
195	0x3e6a1bb6	0.22862133
196	0x3e218d3e	0.15776536
197	0x3e2be58c	0.16786784
198	0x3e5f4ff4	0.21807843
199	0xbe8a351b	-0.2699364
200	0x3e4b6d1a	0.19865838
201	0x3e0a5f6f	0.13512968
202	0x3cb2097d	0.02173304
203	0x3e429f62	0.19006112
204	0x3e29d40d	0.16584797
205	0x3df128c7	0.11775356
206	0xbe5c314a	-0.21503177
207	0x3dd8b34c	0.10581073
208	0xbc775527	-0.0150959855
209	0xbdcb0e2e	-0.09914814
210	0x3d227e46	0.039671205
211	0xbe13a379	-0.14417829
212	0xbdbd662d	-0.09248004
213	0x3d36615b	0.04452644
214	0xbe4604c2	-0.19337752
215	0xbd404a8e	-0.0469461
216	0x3d4c9256	0.049944244
217	0x3d64bb41	0.05584264
218	0x3da69fc1	0.081359394
219	0x3c5dce73	0.013537991
220	0xbe5b6901	-0.21426775
221	0xbda27a31	-0.079334624
222	0x3de9dd02	0.11419107
223	0xbd3d2812	-0.046180792
224	0x3ceaefa3	0.02867872
225	0xbe85a116	-0.2609946
226	0x3e60e88d	0.21963711
227	0x3e17dc70	0.14830184
228	0x3df62636	0.12019007
229	0x3c850899	0.016239451
230	0x3d09211c	0.03347884
231	0xbe2ed995	-0.17075188
232	0x3da01662	0.07816769
233	0x3e3406e3	0.17580752
234	0xbe17d91c	-0.14828914
235	0x3e02820b	0.1274492
236	0xbd386602	-0.045019157
237	0x3e63e732	0.22256163
238	0x3e0eb389	0.13935675
239	0xbe0b9881	-0.13632394
240	0x3c13b13b	0.009014423
241	0xbe1cc322	-0.15308812
242	0xbe82d264	-0.2555114
243	0x3c81313e	0.01577055
244	0x3e0560a8	0.13025153
245	0xbde8e878	-0.11372465
246	0xbdf7ee35	-0.12105981
247	0x3e34a475	0.1764086
248	0xbe835ce0	-0.25656796
249	0x3d4fd794	0.0507427
250	0x3e097d5f	0.13426732
251	0xbd3c4fbe	-0.045974486
252	0x3dbab4db	0.09116527
253	0xbe1b1682	-0.15145305
254	0xbdc8bb98	-0.09801406
255	0xbe24cf02	-0.16094592

conv2.bias f4 [128]
0	0xbe16a37c	-0.14710802
1	0x3e4c8645	0.19973095
2	0x3d8b4a2a	0.06801255
3	0xbd173bd1	-0.03692228
4	0xbdb7d310	-0.08975804
5	0xbdda70d9	-0.10666055
6	0x3dd94461	0.10608745
7	0xbca84def	-0.020544974
8	0xbf16749b	-0.58771676
9	0x3e06148d	0.13093777
10	0xbe627366	-0.22114334
11	0xbd85b4c5	-0.0652862
12	0xbe941ed8	-0.28929782
13	0xbe863664	-0.26213372
14	0xbe101ea9	-0.14074196
15	0xbe8d5551	-0.27604154
16	0xbe971744	-0.29509938
17	0x3b8d88da	0.0043192925
18	0xbdc36238	-0.09540218
19	0x3c3dce40	0.011584818
20	0xbde1103f	-0.10989427
21	0xbe266c9c	-0.16252369
22	0xbe6efe48	-0.23339188
23	0xbdfeaeec	-0.124357074
24	0xbc66d883	-0.014089706
25	0xbe18c053	-0.14917116
26	0x3dde0743	0.10841229
27	0x3d6a20b6	0.0571601
28	0xbdb9f5f6	-0.090801165
29	0xbe36bbee	-0.17845127
30	0xbd84af00	-0.06478691
31	0xbe6165ea	-0.22011533
32	0xbdda786b	-0.10667499
33	0xbe07abe2	-0.13249162
34	0xbed28434	-0.41116488
35	0xbe0c17df	-0.13680981
36	0xbd3c51ce	-0.045976453
37	0xbd45dfa8	-0.048309
38	0xbe4ad8e1	-0.19809295
39	0xbdb7bc5d	-0.08971474
40	0xbeb8c676	-0.36088914
41	0xbe22ed4a	-0.15910831
42	0xbe167b35	-0.14695437
43	0x3ae2ddab	0.0017308494
44	0xbdcbef95	-0.09957806
45	0x3c992d7c	0.018698446
46	0xbe822397	-0.25417778
47	0xbd127a27	-0.035761025
48	0x3ceeb7d5	0.029140392
49	0xbd8d8052	-0.06909241
50	0xbebfc4c1	-0.374548
51	0x3dd81eee	0.10552774
52	0xbc9d45df	-0.019198356
53	0xbd65a96f	-0.056069788
54	0xbda91772	-0.08256425
55	0xbe57d5b9	-0.21077622
56	0xbdff4fd6	-0.12466399
57	0xbcbadc66	-0.022810172
58	0xbe84a23e	-0.2590503
59	0xbe66d0ad	-0.22540541
60	0xbe3543ef	-0.17701696
61	0xbe0f02a6	-0.13965854
62	0x3d264923	0.040597092
63	0x3bb6999b	0.0055725104
64	0x3e2561ce	0.16150591
65	0xbe8dcb91	-0.2769437
66	0xbe8a42cd	-0.2700409
67	0xbdd5716f	-0.10422026
68	0xbe4767c7	-0.19473182
69	0x3dc0d1a5	0.094149865
70	0xbe0a10a5	-0.13482912
71	0xbcdbaeca	-0.026816744
72	0xbc4f6f66	-0.012660837
73	0xbe745283	-0.238596
74	0xbe63f494	-0.22261268
75	0xbd5d0d76	-0.053967915
76	0xbce14f3b	-0.0275036
77	0xbe4d4299	-0.20044936
78	0xbd735eb1	-0.059416477
79	0xbde75d60	-0.11297107
80	0xbd6d6fd9	-0.057967994
81	0xbe8d76b5	-0.2762963
82	0xbdfb9463	-0.12284162
83	0x3d1b6c87	0.037945297
84	0xbdb366b8	-0.087598264
85	0xbd546c8a	-0.051861323
86	0xbd428140	-0.047486544
87	0xbdd525b9	-0.10407586
88	0xbe811a94	-0.2521559
89	0xbe8cbf2a	-0.27489597
90	0xbe12a815	-0.1432193
91	0x3cb4ce16	0.022070926
92	0xbc2c75a4	-0.010526095
93	0xbe173990	-0.14768052
94	0xbe47656f	-0.19472288
95	0x3d38278c	0.04495959
96	0xbde33475	-0.1109399
97	0xbd89740f	-0.067115895
98	0xbc372587	-0.011178381
99	0xbb7572b2	-0.0037452397
100	0xbe866440	-0.2624836
101	0xbe499920	-0.19687319
102	0x3b264645	0.0025371474
103	0xbda67b65	-0.081290044
104	0xbe467353	-0.1937993
105	0xbeab3cd4	-0.33444846
106	0xbe3b2572	-0.18276003
107	0xbe82e3c4	-0.25564396
108	0xbdf7cf0d	-0.12100039
109	0xbe05a749	-0.13052095
110	0xbe63116f	-0.22174619
111	0xbe441a14	-0.19150573
112	0xbd748d73	-0.05970521
113	0xbcf9414c	-0.030426644
114	0xbe20ded0	-0.15709996
115	0xbd35403e	-0.04425072
116	0xbe8ae5ad	-0.27128354
117	0xbd6e9aff	-0.058253285
118	0x3d214e5d	0.039381374
119	0x3d9bab72	0.0760106
120	0xbe9ddfb6	-0.3083474
121	0xbec62f97	-0.38708183
122	0xbda535f2	-0.0806693
123	0xbec9531a	-0.39321214
124	0xbd8f3e15	-0.06994263
125	0xbcb9e5c1	-0.022692563
126	0xbe242a84	-0.16031843
127	0xbcc262d9	-0.023728775

bn2.weight f4 [128]
0	0x3f8c3c9c	1.0955997
1	0x3f62155d	0.8831385
2	0x3f59da78	0.8509898
3	0x3f712c61	0.9420834
4	0x3f69a1eb	0.9126269
5	0x3f844b3f	1.0335463
6	0x3f853393	1.0406364
7	0x3f86fc4c	1.0545745
8	0x3fab6492	1.3390067
9	0x3f791a0c	0.9730537
10	0x3f6195a7	0.88118976
11	0x3f84fd24	1.0389752
12	0x3f712f05	0.9421237
13	0x3f84b13d	1.0366589
14	0x3f76afe2	0.96362126
15	0x3f81827e	1.0117948
16	0x3f4d2723	0.8013784
17	0x3f68a239	0.9087253
18	0x3f5c058b	0.8594596
19	0x3f4acf66	0.79222715
20	0x3f5e01c7	0.8672146
21	0x3f653b84	0.8954394
22	0x3f16dc99	0.58930355
23	0x3f6aeabd	0.9176443
24	0x3f54e055	0.83154804
25	0x3f710d13	0.94160575
26	0x3f57785f	0.84168047
27	0x3f79d2c3	0.9758722
28	0x3f6257a1	0.8841496
29	0x3f8a63c5	1.0811697
30	0x3f7d1a70	0.98868465
31	0x3f345755	0.7044576
32	0x3f553b27	0.83293384
33	0x3f88ba66	1.0681884
34	0x3f6d8ce7	0.92793125
35	0x3f5681bd	0.83791715
36	0x3f60b6f9	0.87779194
37	0x3f86d488	1.0533609
38	0x3f877505	1.0582587
39	0x3f85eb08	1.0462351
40	0x3f70e492	0.9409877
41	0x3f3e9f42	0.7446176
42	0x3f56ac44	0.83856606
43	0x3f84dd40	1.038002
44	0x3f56102d	0.8361843
45	0x3f749428	0.9553857
46	0x3f834a12	1.025698
47	0x3f51ba8e	0.81925285
48	0x3f521185	0.8205798
49	0x3f67cf2c	0.90550494
50	0x3f868fed	1.0512673
51	0x3f755c74	0.958442
52	0x3f4a2086	0.78955877
53	0x3f49c302	0.78813183
54	0x3f433784	0.76256585
55	0x3f50483d	0.81360227
56	0x3f46b2e4	0.77616715
57	0x3f727504	0.947098
58	0x3f7d9fc4	0.9907191
59	0x3f949786	1.1608741
60	0x3f81918c	1.0122542
61	0x3f66ded3	0.9018375
62	0x3f878b47	1.0589379
63	0x3f88d536	1.0690067
64	0x3f7d2f52	0.9890033
65	0x3f905769	1.1276675
66	0x3f829ae9	1.0203525
67	0x3f775c0b	0.9662482
68	0x3f781fc0	0.96923447
69	0x3f6db06e	0.92847335
70	0x3f66eb53	0.90202826
71	0x3f56f532	0.8396789
72	0x3f6d7aa9	0.9276529
73	0x3f72ebfc	0.94891334
74	0x3f474f11	0.7785502
75	0x3f58020d	0.8437813
76	0x3f8006bd	1.0002056
77	0x3f4806ba	0.78135264
78	0x3f8a42ce	1.0801637
79	0x3f56fee2	0.8398267
80	0x3f6f95b0	0.9358778
81	0x3f8d82fa	1.1055596
82	0x3f6797db	0.9046609
83	0x3f8021ab	1.0010275
84	0x3f7739c8	0.9657254
85	0x3f4be33c	0.7964361
86	0x3f09eedb	0.5388009
87	0x3f86a80b	1.0520033
88	0x3f5c6ed0	0.86106586
89	0x3f612659	0.8794914
90	0x3f625c0a	0.8842169
91	0x3f754895	0.95813876
92	0x3f5dce39	0.86642796
93	0x3f717876	0.94324434
94	0x3f72a165	0.9477752
95	0x3f9c2928	1.220006
96	0x3f63ef65	0.8903716
97	0x3f543f9b	0.82909554
98	0x3f748be2	0.95525944
99	0x3f86b527	1.0524033
100	0x3f6e53ba	0.93096507
101	0x3f6ecea0	0.93284035
102	0x3f6077fb	0.87683076
103	0x3f6b5183	0.9192125
104	0x3f4d68ec	0.80238223
105	0x3f5c8025	0.86133033
106	0x3f48b819	0.7840591
107	0x3f82dee3	1.022427
108	0x3f73bcdf	0.9521007
109	0x3f971309	1.1802684
110	0x3f870bfe	1.0550535
111	0x3f8c2877	1.0949849
112	0x3f76b994	0.9637692
113	0x3f616cd6	0.88056695
114	0x3f72c325	0.94829017
115	0x3f73a628	0.9517541
116	0x3f750f97	0.95726913
117	0x3f676526	0.90388715
118	0x3f681432	0.90655816
119	0x3f52deb8	0.8237109
120	0x3f9dfa9c	1.2342105
121	0x3f74c5f9	0.9561458
122	0x3f5164d9	0.81794506
123	0x3f7787cf	0.966916
124	0x3f83b8a1	1.0290719
125	0x3f5e8029	0.86914307
126	0x3f619202	0.88113415
127	0x3f7642a7	0.96195453

bn2.bias f4 [128]
0	0xbe02a601	-0.12758638
1	0x3da16045	0.0787969
2	0xbe82fc5b	-0.25583157
3	0x3d758db1	0.05994958
4	0xbe00261b	-0.12514536
5	0x3dcf2120	0.1011374
6	0xbe017f9c	-0.12646335
7	0x3da27b93	0.07933726
8	0xbd2b26cf	-0.041785058
9	0xbe6a2cfe	-0.22868726
10	0xbb33129c	-0.0027324324
11	0x3eb9cb46	0.36287898
12	0x3e3748d4	0.17898875
13	0xbe3589a4	-0.17728287
14	0xbd772e60	-0.06034696
15	0xbdaaa4dd	-0.083322264
16	0xbc710527	-0.014710701
17	0xbdad3963	-0.08458211
18	0xbd766b16	-0.06016072
19	0xbe273386	-0.16328248
20	0x3e19839e	0.14991614
21	0xbcc6b2e4	-0.024255224
22	0xbe7cc23b	-0.24683468
23	0x3db3aa61	0.087727316
24	0xbc71e360	-0.014763683
25	0xbd250c1d	-0.040294755
26	0xbe575a40	-0.21030521
27	0x3d8d3863	0.068955205
28	0xbde52394	-0.111884266
29	0x3cfea387	0.031083835
30	0x3e5ba764	0.21450573
31	0xbdbd066c	-0.092297405
32	0xbd0beabe	-0.034159414
33	0xbc5fdfd2	-0.013664203
34	0xbe5e8418	-0.21730077
35	0xbe5587fa	-0.20852652
36	0xbdee6ca1	-0.11641813
37	0x3de56bfd	0.11202238
38	0x3df78af9	0.12087054
39	0xbbf036f3	-0.007330769
40	0xbe45a355	-0.19300587
41	0xbd9a0599	-0.07520599
42	0x3e4b8f18	0.19878805
43	0x3e4292af	0.19001268
44	0xbdba1a87	-0.09087091
45	0x3db52bc8	0.08846241
46	0xbdd38c88	-0.103295386
47	0x3bce2926	0.0062915264
48	0xbdcdffbb	-0.10058542
49	0xbdb4c9df	-0.08827566
50	0x3d59dbb9	0.05318806
51	0x3e0c1bd8	0.13682497
52	0x3d0330c2	0.03202892
53	0xbd24494d	-0.040108968
54	0x3b74a0e0	0.0037327334
55	0x3c94db5c	0.018171005
56	0xbd943ee0	-0.07238555
57	0x3e3f4291	0.18677737
58	0xbd822fc1	-0.063567646
59	0xbe110bf6	-0.14164719
60	0x3dba78ce	0.09105073
61	0x3d6b111e	0.05738937
62	0x3e1e9794	0.1548751
63	0x3db1605d	0.08660958
64	0xbd8fec73	-0.07027521
65	0x3ca3c523	0.019991463
66	0xbe92f070	-0.28699064
67	0xbcc42d13	-0.023947274
68	0x3c0480ca	0.008087346
69	0x3e3f6de9	0.18694271
70	0x3d722a45	0.059122343
71	0x3cebb2e9	0.028771834
72	0x3e43078a	0.19045845
73	0x3e6b5bd1	0.22984244
74	0x3cfa5698	0.03055887
75	0xbe83fdd3	-0.2577959
76	0xbe1d3609	-0.15352644
77	0xbcb2de97	-0.021834655
78	0x3e0ba304	0.13636404
79	0x3d8c9c7e	0.06865786
80	0xbddd9c0c	-0.10820779
81	0x3db532d1	0.08847583
82	0xbe5bf8b2	-0.21481588
83	0xbd564c8e	-0.052319102
84	0xbd11dff0	-0.035613954
85	0xbdeb400d	-0.11486826
86	0xbcc22d4a	-0.023703236
87	0x3e2edbbd	0.17076011
88	0xbd3836a3	-0.04497398
89	0x3d38954e	0.045064263
90	0x3d0d08d8	0.034432262
91	0xbe42c89d	-0.1902184
92	0xbde8b0b3	-0.11361828
93	0xbd5a1e20	-0.053251386
94	0x3d7a1a3f	0.061060186
95	0x3e6ab0cd	0.22919007
96	0x3e29e370	0.16590667
97	0xbe1cfbb0	-0.15330386
98	0xbdae7988	-0.08519274
99	0x3e78cb7c	0.24296373
100	0xbdeef90f	-0.11668598
101	0x3e31062e	0.17287514
102	0x3e354674	0.17702657
103	0x3d83ce8b	0.06435879
104	0x3e0aaa9a	0.13541642
105	0xbd6c0c7e	-0.0576291
106	0xbe50002d	-0.20312567
107	0xbc5bb899	-0.013410711
108	0x3d8c229c	0.06842539
109	0x3e4003bf	0.18751429
110	0x3c82e00f	0.01597598
111	0x3c3ce747	0.01152975
112	0x3d6680c3	0.05627514
113	0xbd9bb863	-0.07603528
114	0x3e4b0ff2	0.19830301
115	0xbaaaf39b	-0.0013042571
116	0xbdc67e64	-0.09692076
117	0xbe0d9e7b	-0.13829987
118	0x3e709c67	0.23497163
119	0x3e00deaf	0.12584947
120	0x3df265c7	0.11835819
121	0x3e39318f	0.18085311
122	0x3d0bb17f	0.03410482
123	0xbc7c82e0	-0.015412062
124	0xbde4c3e7	-0.11170178
125	0x3d2c51fd	0.042070378
126	0xbe14bbfb	-0.14524834
127	0xbdc3cc24	-0.09560421

bn2.running_mean f4 [128]
0	0x3f6c11c0	0.92214584
1	0x3fc38497	1.5274838
2	0x3ff16603	1.8859257
3	0x3f9c1cbe	1.2196271
4	0x3ed62c3f	0.41830632
5	0x3fb01248	1.3755579
6	0x3f6a0efb	0.9142911
7	0x3ec67dc5	0.3876783
8	0x3e5a2e8e	0.21306822
9	0x403c23f4	2.9396944
10	0x3ed1516f	0.4088244
11	0x3f2b03af	0.66802496
12	0x3eb0416e	0.3442492
13	0x3f3841f0	0.7197561
14	0x3f2ce9f3	0.6754448
15	0x3e8502be	0.25978655
16	0x3f3b599a	0.73183596
17	0x3f966018	1.1748075
18	0x3f01d5c2	0.50716794
19	0x40219b0e	2.5250888
20	0x3f134bf0	0.57537746
21	0x3e283400	0.16426086
22	0x3fa074b2	1.2535613
23	0x3f14a068	0.5805726
24	0x3f84c07b	1.037124
25	0x3f2d3f09	0.6767431
26	0x3fd83f87	1.6894387
27	0x3f7f1c5f	0.99652666
28	0x3f9bb1d9	1.216365
29	0x3f1371c9	0.575955
30	0x3f10930a	0.56474364
31	0x3f806982	1.0032198
32	0x3f0d7d25	0.5526908
33	0x3e73a24b	0.23792379
34	0x3f591189	0.8479238
35	0x3f4c3ed8	0.7978339
36	0x3f0b1622	0.54330647
37	0x3f00219d	0.5005129
38	0x3eff36be	0.49846452
39	0x3ec420ac	0.38306177
40	0x3edfcf88	0.4371302
41	0x3fc22df5	1.5170275
42	0x3f8e0f7b	1.1098474
43	0x3f7d21b4	0.9887955
44	0x3f37c48a	0.7178427
45	0x3e9327fc	0.28741443
46	0x3ecd38d6	0.40082425
47	0x40030396	2.0470939
48	0x3f564946	0.83705556
49	0x3f8c4d69	1.0961124
50	0x3e692d10	0.22771096
51	0x3ff31c54	1.899302
52	0x3f9ab7d0	1.2087345
53	0x3fec27cb	1.8449644
54	0x3eee1cbe	0.46506304
55	0x3fbd91ff	1.481018
56	0x3f291d86	0.66060674
57	0x3feb7f31	1.8398191
58	0x3ee3ca6c	0.44490373
59	0x3f41d016	0.7570814
60	0x3e85dd49	0.2614539
61	0x3e195549	0.1497394
62	0x3f604a0b	0.8761298
63	0x3fd778e6	1.683377
64	0x4033948a	2.805941
65	0x3ef42817	0.47686836
66	0x3ea55a8c	0.32295644
67	0x3f2717b0	0.6527052
68	0x3f495a76	0.7865366
69	0x40451f4a	3.0800347
70	0x3f0b7b56	0.5448507
71	0x3f96fca0	1.1795845
72	0x3ec04742	0.37554365
73	0x3e8ba697	0.27275535
74	0x3f106b33	0.56413573
75	0x3fa81a08	1.3132944
76	0x3fba4376	1.4551837
77	0x3f428d08	0.75996447
78	0x3f0136d7	0.50474304
79	0x3f175998	0.59121084
80	0x3eaf2ed8	0.34215426
81	0x3f788041	0.970707
82	0x3f6badcf	0.92062086
83	0x3f933c82	1.150284
84	0x3f8ddc32	1.1082823
85	0x3f9050f5	1.1274706
86	0x3fa36109	1.2763988
87	0x3f5c766c	0.861182
88	0x3ee3f1bc	0.44520366
89	0x3ed4d111	0.41565755
90	0x3fa02e38	1.2514105
91	0x3fdb4558	1.7130537
92	0x3f53c220	0.82718086
93	0x3ed4ef21	0.4158869
94	0x3e4e6dd5	0.20159085
95	0x3fcce8f5	1.6008593
96	0x3fca8718	1.5822477
97	0x3fb7535b	1.4322313
98	0x40064108	2.0977192
99	0x3f1226e8	0.57090616
100	0x3ee1d482	0.44107443
101	0x3f53a5be	0.8267478
102	0x3f11ca7a	0.5694958
103	0x3f5f749e	0.8728732
104	0x3f00c055	0.50293475
105	0x3eeb09d2	0.4590593
106	0x3fb53729	1.4157459
107	0x3ece5e97	0.4030654
108	0x3eb2712b	0.34851965
109	0x3edd1979	0.43183497
110	0x3eb9e82e	0.36309952
111	0x3f04f3ea	0.51934683
112	0x3f3e8f74	0.7443764
113	0x3fdfc4ac	1.7481894
114	0x3e0e3c77	0.13890253
115	0x3fa012f8	1.2505789
116	0x3f4099b6	0.75234544
117	0x3f5e9d7e	0.86959064
118	0x3f5f5c3e	0.87250125
119	0x3f24a2f9	0.64311177
120	0x3f2e8c64	0.6818297
121	0x3eae3d13	0.3403097
122	0x3f654b42	0.8956796
123	0x3ea81171	0.32825807
124	0x3f146059	0.57959515
125	0x3f38fc3b	0.72259873
126	0x3f187dc4	0.59566903
127	0x3ebab90a	0.364693

bn2.running_var f4 [128]
0	0x40f1c031	7.554711
1	0x40957c60	4.6714325
2	0x40ee9c51	7.4565816
3	0x4095fc1b	4.6870246
4	0x3f59be7b	0.85056275
5	0x40f85e00	7.7614746
6	0x40359dc3	2.837754
7	0x3f937b50	1.1522007
8	0x3ff22a67	1.891919
9	0x418dd40a	17.728535
10	0x3fbf8fc8	1.4965754
11	0x406d1cd8	3.7048855
12	0x400f982b	2.2436626
13	0x406aa074	3.6660433
14	0x407b8547	3.9300096
15	0x3f8d4aad	1.1038414
16	0x4082bcb9	4.0855374
17	0x4096a46e	4.707572
18	0x3ffa5ccb	1.9559568
19	0x416e36e1	14.888398
20	0x4015b403	2.339112
21	0x3ed40f65	0.41417995
22	0x40bd1b22	5.909562
23	0x40018be4	2.0241632
24	0x4050b2b9	3.2609084
25	0x4002a439	2.0412734
26	0x40d4674c	6.6376095
27	0x40537f5e	3.3046489
28	0x40979adf	4.737655
29	0x3ff457dc	1.9089313
30	0x3fe9dd03	1.8270572
31	0x40b4561f	5.635513
32	0x4004c660	2.0746078
33	0x3f385eae	0.7201947
34	0x40663223	3.59681
35	0x40529188	3.2901325
36	0x4003c9d3	2.0591934
37	0x3fdb4879	1.7131492
38	0x40398cce	2.899219
39	0x3f80f14d	1.0073639
40	0x3fe90a5b	1.8206285
41	0x412348ed	10.205304
42	0x408f04c2	4.469331
43	0x407dce61	3.9657214
44	0x3ffd916f	1.9810008
45	0x3f338be9	0.7013536
46	0x40108cb2	2.2585874
47	0x411fbab8	9.983086
48	0x404f7da7	3.2420442
49	0x405aa7e7	3.416498
50	0x3f39ada8	0.72530603
51	0x40f58add	7.673201
52	0x40976cfb	4.7320533
53	0x41022d0d	8.135999
54	0x3f8f7bb5	1.1209627
55	0x410a9362	8.660982
56	0x401580f1	2.335995
57	0x41143d01	9.264894
58	0x4021c91b	2.5278995
59	0x4066b875	3.6050084
60	0x3f4d651e	0.8023242
61	0x3eb6cdb6	0.3570382
62	0x40483971	3.128506
63	0x410d8a38	8.846245
64	0x415574b6	13.340994
65	0x3fd8b158	1.6929121
66	0x3f56c495	0.8389371
67	0x400455bb	2.0677326
68	0x406743d1	3.6135142
69	0x41473cae	12.452314
70	0x40168d47	2.352373
71	0x408fd257	4.4944263
72	0x3f67bec5	0.90525466
73	0x3f64bc63	0.89349955
74	0x3fd63a95	1.6736628
75	0x40ef9015	7.486338
76	0x40d664bc	6.6997967
77	0x404b7659	3.1790984
78	0x40015aae	2.0211596
79	0x4026d590	2.6067848
80	0x3f7458f1	0.95448214
81	0x40a97aa0	5.296219
82	0x40545653	3.3177688
83	0x40ac9562	5.393235
84	0x408a1663	4.3152328
85	0x40c666fa	6.2000704
86	0x408aae4c	4.3337765
87	0x409aa5f4	4.832758
88	0x3fe0a4ee	1.7550333
89	0x3ff7e895	1.9367853
90	0x40b040a0	5.507889
91	0x40a69119	5.205212
92	0x40805854	4.0107822
93	0x40149687	2.3216875
94	0x3f079d1a	0.5297409
95	0x40c15ad6	6.0423384
96	0x4118eb34	9.557423
97	0x40cb6238	6.3557396
98	0x412512c5	10.317082
99	0x3fee2db4	1.8607697
100	0x4006945d	2.1028054
101	0x406b099f	3.6724622
102	0x3fe30e02	1.773865
103	0x4033dae0	2.810234
104	0x3ff84b6b	1.9398016
105	0x400d0873	2.2036407
106	0x41025b68	8.147316
107	0x4026a807	2.6040056
108	0x3f5b99a1	0.85781294
109	0x3fed0cc5	1.8519522
110	0x3f903627	1.1266526
111	0x3fc3f5db	1.5309404
112	0x4058cc0d	3.3874543
113	0x40cb166f	6.3464885
114	0x3eb7887f	0.35846326
115	0x40786b91	3.8815653
116	0x406057ca	3.5053582
117	0x406b250d	3.6741364
118	0x40507ee2	3.2577443
119	0x3fcc4dd6	1.5961254
120	0x4081e3ba	4.0590487
121	0x3f9d76fe	1.2301939
122	0x4066e13d	3.6074975
123	0x406f5853	3.739766
124	0x3fe8fd55	1.8202311
125	0x403f1574	2.9856844
126	0x3fe9bb6e	1.8260324
127	0x3f8c9bcf	1.0985049
