results/valence/classification_5/20251225_214227_052108/best_model.pt (torch, 192949 bytes, 16 tensors)

conv1.weight f4 [16, 1, 3, 3]
0.42867664 0.23045802 0.00096977374 0.30690265 -0.18501247 -0.040106475 -0.1599156 0.20675273
0.45507875 -0.37531194 0.23028627 0.25460246 0.28927374 0.052004103 0.20640226 -0.13460177
0.3099253 -0.087216765 -0.18325698 0.06526382 -0.18543535 -0.048492376 -0.08263637 0.44771108
-0.25401905 -0.24970712 -0.049329925 -0.12223011 0.07703131 -0.3752707 0.23103711 -0.33091566
0.47777152 0.08517137 -0.17979535 0.25145915 0.056778714 0.35508722 0.16555664 -0.08152013
-0.082734495 -0.3018445 0.009017514 0.33212823 0.32300407 -0.07787926 0.22880974 0.034745924
0.17578273 -0.2651712 -0.36010203 -0.014406525 -0.42087883 0.43351257 -0.04932981 0.2947241
-0.09106418 -0.032729615 0.29898712 -0.4043233 0.042085234 -0.20895335 0.23168835 -0.06652
0.044169247 -0.077901445 0.2422972 -0.19971628 -0.43936813 -0.14627044 0.42343715 0.1759287
0.42974225 -0.13475482 -0.37463164 -0.27756006 -0.24358682 0.16342127 0.13228089 0.40561765
-0.23479633 -0.26633248 0.2964035 -0.23844106 0.3109521 -0.14938928 0.18926796 -0.21058136
-0.23732458 0.1449824 0.058419555 -0.16092247 0.5478618 0.20128529 -0.2879032 -0.19816762
0.26553118 0.043274183 -0.050167225 -0.44477788 -0.26135236 0.18530366 0.11651938 -0.21113642
0.14540346 -0.08924398 -0.3863321 -0.17103985 -0.23026192 -0.28288776 0.38305464 0.085446805
0.28884244 -0.35014698 -0.25557318 -0.16333844 0.08652529 -0.2738195 -0.060654648 -0.24948938
-0.07839824 -0.03256406 0.02663847 -0.22862615 -0.12817617 -0.57936853 -0.11918619 -0.45016026
0.34292263 0.020146374 0.31877267 -0.0030802498 -0.30512977 0.2700486 -0.10765838 -0.09057788
-0.2633298 -0.45644104 0.11140606 0.07037418 0.20546423 -0.26284543 0.27512583 -0.44691786
00000000: 817b db3e 30fd 6b3e 6a38 7e3a 5822 9d3e
00000010: e973 3dbe b046 24bd eac0 23be fdb6 533e
00000020: 1500 e93e e328 c0be 2ad0 6b3e 415b 823e
00000030: b01b 943e 4102 553d 1d5b 533e 0cd5 09be
00000040: 87ae 9e3e b49e b2bd b8a7 3bbe 0aa9 853d
00000050: c4e2 3dbe f19f 46bd 423d a9bd 633a e53e
00000060: c90e 82be 39b3 7fbe 2d0e 4abd c853 fabd
00000070: 97c2 9d3d 7b23 c0be fe94 6c3e c76d a9be
00000080: 789e f43e 546e ae3d 461c 38be 41bf 803e
00000090: cc90 683d fecd b53e ae87 293e 07f4 a6bd
000000a0: b470 a9bd 5d8b 9abe 32be 133c b60c aa3e
000000b0: ca60 a53e 297f 9fbd 1a4d 6a3e be51 0e3d
000000c0: 6300 343e 85c4 87be 4b5f b8be 5809 6cbc
000000d0: 6e7d d7be 5cf5 dd3e 0e0e 4abd 14e6 963e
000000e0: db7f babd 7d0f 06bd d714 993e 7703 cfbe
000000f0: 9161 2c3d def7 55be b63f 6d3e a33b 88bd
00000100: d0ea 343d cb8a 9fbd c21c 783e 6d82 4cbe
00000110: dcf4 e0be ebc7 15be c1cc d83e a726 343e
00000120: 2d07 dc3e 2bfd 09be b8cf bfbe 5a1c 8ebe
00000130: d36e 79be e857 273e a474 073e 1ead cf3e
00000140: 736e 70be bb5c 88be 33c2 973e e529 74be
00000150: 1d35 9f3e 81f9 18be 76cf 413e a4a2 57be
00000160: 3705 73be 4476 143e 5849 6f3d dcc8 24be
00000170: ac40 0c3f bb1d 4e3e 0c68 93be 74ec 4abe
00000180: b4f3 873e 4540 313d 267c 4dbd edb9 e3be
00000190: facf 85be 3ec0 3d3e b6a1 ee3d 2534 58be
000001a0: a5e4 143e 8cc5 b6bd 52cd c5be 1225 2fbe
000001b0: c8c9 6bbe aad6 90be bd1f c43e bcfe ae3d
000001c0: 28e3 933e 7746 b3be 7dda 82be 3142 27be
000001d0: 2c34 b13d 1232 8cbe 0271 78bd 257a 7fbe
000001e0: 428f a0bd e461 05bd ec38 da3c f91c 6abe
000001f0: 9d40 03be 7f51 14bf e417 f4bd 687b e6be
00000200: 8e93 af3e 020a a53c 2c36 a33e 04de 49bb
00000210: f839 9cbe cf43 8a3e ff7b dcbd e580 b9bd
00000220: 2ad3 86be a4b2 e9be dc28 e43d 5720 903d
00000230: 3765 523e ad93 86be 4bdd 8c3e 6bd2 e4be

conv1.bias f4 [16]
-0.00086172123 -0.00022226691 -0.00055672636 0.00055533036 -0.00021803769 -0.0013798289 -0.0025439004 -0.00048618956
-0.0015014135 -0.00081171526 0.0007952121 -0.00035941054 -0.00026081805 -0.00023196485 -0.0007821701 7.87295e-05
00000000: 22e5 61ba 5210 69b9 46f1 11ba 9793 113a
00000010: 0ca1 64b9 60db b4ba 91b7 26bb 42e7 feb9
00000020: 14cb c4ba 4ac9 54ba c875 503a 446f bcb9
00000030: 68be 88b9 973b 73b9 8c0a 4dba 941b a538

bn1.weight f4 [16]
0.8095205 0.9113241 1.0575042 1.1395193 1.0523922 1.0558597 1.146849 1.0153278
0.99254483 0.9181622 0.9861605 0.81379336 0.95550066 0.89377856 0.90722996 0.9488164
00000000: bc3c 4f3f 894c 693f 4c5c 873f c5db 913f
00000010: cab4 863f 6926 873f f3cb 923f 43f6 813f
00000020: 6b17 7e3f ae0c 6b3f 0475 7c3f c354 503f
00000030: b19b 743f acce 643f 3940 683f a2e5 723f

bn1.bias f4 [16]
-0.06978539 -0.4411256 -0.3197736 -0.05783628 -0.19182567 -0.30156595 -0.054026946 -0.054101028
-0.24294958 -0.22199075 -0.09159855 -0.22112508 -0.14576682 -0.20794344 -0.21113846 0.016653748
00000000: a4eb 8ebd 37db e1be 5eb9 a3be bce5 6cbd
00000010: f36d 44be da66 9abe 5c4b 5dbd 0a99 5dbd
00000020: c6c7 78be 8b51 63be 0598 bbbd 9d6e 62be
00000030: e643 15be 20ef 54be ae34 58be 716d 883c

bn1.running_mean f4 [16]
0.008148076 0.009037303 -0.0010837683 0.00048878655 0.0025175018 -0.005723187 0.0015573503 -0.0030858205
-0.00498815 0.0011989675 -0.001106957 -0.008416954 -0.0027954231 -0.009488888 0.001834702 -0.0030328387
00000000: 827f 053c 3211 143c 3b0d 8eba e921 003a
00000010: acfc 243b 9289 bbbb 0120 cc3a 7a3b 4abb
00000020: a373 a3bb ac26 9d3a 5017 91ba 44e7 09bc
00000030: 6b33 37bb 4877 1bbc 627a f03a 97c2 46bb

bn1.running_var f4 [16]
0.328321 0.31028998 0.16696402 0.16471039 0.09936628 0.22596273 0.11389269 0.20392987
0.14774196 0.067345604 0.15693437 0.34776777 0.0703072 0.39581284 0.14388898 0.1354534
00000000: b119 a83e 54de 9e3e 9ef8 2a3e d7a9 283e
00000010: 8c80 cb3d c662 673e 9240 e93d fed2 503e
00000020: ab49 173e 7eec 893d 67b3 203e 9e0e b23e
00000030: 39fd 8f3d fba7 ca3e a257 133e 4cb4 0a3e

conv2.weight f4 [32, 16, 3, 3]
-0.3505829 -0.042110704 0.03589929 -0.17102735 -0.18953556 -0.048696548 -0.12463754 0.12864752
-0.076079555 0.012653782 -0.025824971 -0.024542833 0.08906652 -0.21516052 0.23797086 0.1465387
0.019339662 0.05487276 0.13429455 -0.09582471 0.1780391 -0.018663984 0.07558747 -0.3509725
-0.18484074 -0.15105109 0.23236762 -0.099991195 0.07796594 -0.13939545 -0.004761978 -0.4096842
0.23193175 -0.032905526 0.014367301 -0.16190839 -0.34358802 -0.097694375 0.059781276 0.27939335
-0.39037657 -0.43273866 -0.17705353 0.093020976 0.05082505 0.045268845 -0.3607978 -0.06872641
-0.12777993 0.079363145 0.13583703 0.04323663 -0.35294408 -0.14573494 0.1422716 0.102814056
0.0011642133 0.0903862 -0.1749034 -0.28805616 0.08166244 0.07855007 -0.30441308 -0.008697615
-0.032715037 0.12649629 0.012526988 -0.044822685 -0.1422196 -0.014679479 -0.17541566 0.10045128
-0.13922592 0.28226048 0.10271323 0.09628579 -0.21261166 0.09819047 -0.092879966 -0.22683953
0.076101355 -0.08524202 -0.27443433 -0.13190866 -0.071603246 0.041336738 -0.2076316 -0.16982044
-0.09902655 -0.22197832 -0.0055174907 -0.08841964 0.097786665 -0.06900587 0.0217142 -0.08114791
0.119569644 -0.38989073 0.10252428 -0.1218054 -0.12772214 -0.16183135 0.19155255 -0.023293983
-0.022716839 0.05283491 0.18798341 0.11721863 -0.12721872 0.020735731 0.21838447 -0.046663206
0.15970436 0.26848298 0.2000061 -0.0134325735 0.015464984 -0.10711337 -0.17731312 -0.05989603
0.03461267 0.0020952113 -0.05439054 -0.06667911 0.0006110091 -0.11968204 -0.07630093 0.19565189
-0.14136711 0.071837544 -0.0867134 0.1352691 -0.012924882 -0.037699003 -0.015963417 0.13313627
0.122944936 0.06813074 -0.114417285 0.032697838 -0.07918648 0.039758388 0.038849574 -0.16991408
-0.0936009 0.14199594 0.18182494 -0.032542784 -0.06602739 0.24341056 -0.08083871 0.057295658
0.034893043 -0.034030467 0.27832147 -0.20821376 0.058126286 -0.10844567 -0.09880146 0.051341243
-0.06643001 -0.3227982 -0.047877833 0.10035572 0.08097 0.04629262 -0.009091226 -0.22511628
-0.6881153 -0.08623262 -0.24427631 -0.101110876 -0.2710916 -0.22661078 0.106266245 -0.112454
-0.06560199 0.080360204 -0.118296675 0.10434764 0.27041698 0.12560153 0.053174052 -0.08499845
-0.002057512 -0.04785552 0.26147434 -0.14277305 -0.35713455 0.030154344 -0.024557646 0.06678565
-0.10515231 0.059417773 -0.2737002 0.08153694 -0.15829742 -0.1118425 -0.29803553 -0.14262043
-0.38080066 0.004032951 -0.20601317 -0.24552117 0.14486521 0.11204132 0.2061359 -0.1333911
0.10218138 -0.065456256 0.27152738 0.029352164 -0.31462964 0.25393134 0.059730154 -0.009439604
0.26572618 -0.19591814 0.5092867 -0.10529633 0.006421539 -0.1444345 -0.014433579 0.11031143
-0.41679534 0.09687403 -0.2753516 -0.14298718 0.0764895 -0.09783336 -0.014927586 0.00897626
0.037361562 0.08163731 -0.045553084 -0.051982306 -0.039183687 0.10165 0.10444292 -0.1985333
-0.087311685 -0.17950092 0.07085312 0.102434255 0.01406303 0.09370228 -0.2572865 0.03563629
0.04621967 -0.4584197 -0.018421669 0.16714607 -0.044924926 -0.06334233 0.08931743 -0.19577216
00000000: 9a7f b3be 467c 2cbd 220b 133d cb21 2fbe
00000010: 9c15 42be 0876 47bd f741 ffbd 2dbc 033e
00000020: 99cf 9bbd cf51 4f3c e48e d3bc 0d0e c9bc
00000030: 8268 b63d 0a53 5cbe a2ae 733e 3e0e 163e
00000040: 366e 9e3c 42c2 603d 8384 093e bf3f c4bd
00000050: e24f 363e 36e5 98bc 9acd 9a3d abb2 b3be
00000060: e446 3dbe 23ad 1abe c7f1 6d3e 2fc8 ccbd
00000070: 9bac 9f3d aebd 0ebe 5e0a 9cbb 21c2 d1be
00000080: 847f 6d3e f2c7 06bd d464 6b3c 50cb 25be
00000090: c5ea afbe fd13 c8bd 36dd 743d a50c 8f3e
000000a0: 70df c7be ec8f ddbe 854d 35be c881 be3d
000000b0: ed2d 503d d36b 393d 7dba b8be 6fc0 8cbd
000000c0: bed8 02be 2589 a23d dd18 0b3e e418 313d
000000d0: 16b5 b4be 8a3b 15be a5af 113e 2d90 d23d
000000e0: 8498 983a 661c b93d e019 33be 197c 93be
000000f0: a33e a73d dcde a03d 08dc 9bbe 7180 0ebc
00000100: 3400 06bd 3e88 013e ff3d 4d3c fe97 37bd
00000110: 04a2 11be 3382 70bc 2aa0 33be 67b9 cd3d
00000120: 3d91 0ebe 7284 903e 505b d23d 7c31 c53d
00000130: dfb6 59be 1618 c93d da37 bebd 9f48 68be
00000140: 07db 9b3d 5e93 aebd a882 8cbe 1013 07be
00000150: b9a4 92bd b650 293d 619d 54be 69e5 2dbe
00000160: 6fce cabd 494e 63be 11cc b4bb 5b15 b5bd
00000170: 6044 c83d f352 8dbd fae1 b13c e030 a6bd
00000180: eee0 f43d c29f c7be 40f8 d13d 1c75 f9bd
00000190: 98c9 02be 1eb7 25be 5a26 443e 06d3 bebc
000001a0: aa18 babc 6b69 583d b97e 403e 5210 f03d
000001b0: a045 02be fbdd a93c 2ea0 5f3e eb21 3fbd
000001c0: 8a89 233e 9a76 893e 66ce 4c3e 4c14 5cbc
000001d0: d860 7d3c 415e dbbd 9291 35be 8a55 75bd
000001e0: 04c6 0d3d d04f 093b 9dc8 5ebd 0f8f 88bd
000001f0: 202c 203a db1b f5bd a943 9cbd f858 483e
00000200: 8ac2 10be 901f 933d cc96 b1bd fc83 0a3e
00000210: e2c2 53bc 456a 1abd b6c5 82bc e054 083e
00000220: 8eca fb3d 2188 8b3d 9c53 eabd 2bee 053d
00000230: 852c a2bd b1d9 223d bb20 1f3d f5fd 2dbe
00000240: d4b1 bfbd 6267 113e 5130 3a3e 954b 05bd
00000250: 5e39 87bd 9e40 793e c48e a5bd daae 6a3d
00000260: 02ec 0e3d 8863 0bbd 2780 8e3e fd35 55be
00000270: d415 6e3d c318 debd 6b58 cabd 324b 523d
00000280: 750c 88bd ce45 a5be 8c1b 44bd 4d87 cd3d
00000290: 99d3 a53d 559d 3d3d 5ef3 14bc e284 66be
000002a0: 5328 30bf ba9a b0bd 9223 7abe 3813 cfbd
000002b0: 85cc 8abe a80c 68be 1ea2 d93d 484e e6bd
000002c0: 565a 86bd e493 a43d 8745 f2bd 37b4 d53d
000002d0: 1874 8a3e b09d 003e 09cd 593d ab13 aebd
000002e0: 53d7 06bb 2604 44bd f7df 853e 1933 12be
000002f0: 57da b6be 3e06 f73c 1e2d c9bc eac6 883d
00000300: 185a d7bd 0d60 733d 6f22 8cbe d7fc a63d
00000310: b818 22be ae0d e5bd 1d98 98be 170b 12be
00000320: 4ef8 c2be d826 843b 1ef5 52be e769 7bbe
00000330: 8c57 143e eb75 e53d 4a15 533e ad97 08be
00000340: 7944 d13d ee0d 86bd a305 8b3e f373 f03c
00000350: 2317 a1be 4a03 823e 9ba7 743d 92a8 1abc
00000360: 430d 883e c49e 48be 9d60 023f 9aa5 d7bd
00000370: c66b d23b a3e6 13be d17a 6cbc f6ea e13d
00000380: 3366 d5be e465 c63d e3fa 8cbe 3b6b 12be
00000390: 87a6 9c3d db5c c8bd d592 74bc 2a11 133c
000003a0: 7008 193d 7631 a73d df95 3abd 66eb 54bd
000003b0: 137f 20bd e02d d03d 2be6 d53d 504c 4bbe
000003c0: 78d0 b2bd 17cf 37be 711b 913d 0dc9 d13d
000003d0: 9f68 663c fbe6 bf3d 0ebb 83be 5cf7 113d
000003e0: d650 3d3d fdb5 eabe 0ae9 96bc 5728 2b3e
000003f0: 3303 38bd a0b9 81bd 0fec b63d 7f78 48be

conv2.bias f4 [32]
-0.00021654081 -8.215141e-05 -1.5015485e-05 -4.496157e-05 0.00058119436 -0.00020048485 -0.00011213895 0.00013882648
0.00078676903 0.00085262395 0.000230406 -5.9420112e-05 -0.00074525387 -0.00056290766 -0.00016539877 0.00025500075
0.0009846308 2.5754329e-05 -0.00027698698 -3.1400054e-05 0.00029136392 -1.0151467e-05 -9.617244e-05 0.000440498
-0.00037294452 0.0003052331 7.6353026e-05 0.0006402284 0.0007107238 0.00040423428 -5.0837254e-05 0.0001503788
00000000: 3b0f 63b9 b448 acb8 04eb 7bb7 1e95 3cb8
00000010: 4b5b 183a 3e39 52b9 242c ebb8 f391 1139
00000020: 2d3f 4e3a a082 5f3a 2499 7139 dc39 79b8
00000030: 245d 43ba 1890 13ba e56e 2db9 9fb1 8539
00000040: ba0e 813a 000b d837 9038 91b9 8db3 03b8
00000050: 34c2 9839 3850 2ab7 30b0 c9b8 a4f2 e639
00000060: c487 c3b9 b107 a039 b81f a038 00d5 273a
00000070: de4f 3a3a 68ef d339 163a 55b8 00af 1d39

bn2.weight f4 [32]
1.1787361 1.1870153 1.3987414 1.1413704 1.2957368 1.0557692 1.3848027 1.151348
1.2518553 1.285843 1.0903906 1.3206484 1.0943192 1.2254212 1.0849687 1.2372123
1.1483951 1.10012 1.2947922 1.2569555 1.2120697 1.2013272 1.2187269 1.062414
1.1213449 1.1305609 1.4320062 1.0710899 1.1660049 1.2751335 1.2266711 1.2186375
00000000: d3e0 963f 1ef0 973f f509 b33f 6d18 923f
00000010: b4da a53f 7223 873f 3741 b13f 5f5f 933f
00000020: cb3c a03f 8196 a43f eb91 8b3f 020b a93f
00000030: a712 8c3f 9ada 9c3f 41e0 8a3f f95c 9e3f
00000040: 9cfe 923f bbd0 8c3f c0bb a53f ebe3 a03f
00000050: 1a25 9b3f 17c5 993f 3eff 9b3f 2ffd 873f
00000060: 3b88 8f3f 38b6 903f fb4b b73f 7919 893f
00000070: a63f 953f 9337 a33f 8f03 9d3f 50fc 9b3f

bn2.bias f4 [32]
-0.4689809 -0.53819853 -0.8536676 -0.45772445 -0.51139075 -0.6306516 -0.7870164 -0.5573387
-0.6560504 -0.41915888 -0.6665886 -0.72589535 -0.41287804 -0.86939585 -0.3810978 -0.68871117
-0.64671564 -0.5455255 -0.42050135 -0.54287386 -0.489649 -0.79074264 -0.49765125 -0.31043416
-0.48892972 -0.4219567 -0.5670466 -0.7736408 -0.5329954 -0.469064 -0.6067017 -0.524484
00000000: 441e f0be 61c7 09bf f689 5abf dc5a eabe
00000010: 81ea 02bf 6272 21bf e879 49bf c0ad 0ebf
00000020: ebf2 27bf fe9b d6be 8da5 2abf 47d4 39bf
00000030: c064 d3be ba90 5ebf 401f c3be 604f 30bf
00000040: 288f 25bf 8fa7 0bbf f44b d7be c8f9 0abf
00000050: 46b3 fabe 1c6e 4abf 25cc febe 3af1 9ebe
00000060: ff54 fabe b50a d8be f729 11bf 530d 46bf
00000070: 6372 08bf 2829 f0be cd50 1bbf 9544 06bf

bn2.running_mean f4 [32]
-0.9552623 -0.8328435 0.7756881 -0.39277247 -0.99786204 -0.3852335 1.3024292 0.15827933
-0.21350682 -0.92306095 0.026760478 0.9408414 -0.44277006 0.51323366 -0.99322885 0.53854275
-0.16135888 -0.248377 -1.0007974 -0.82225037 -0.79752254 0.3496403 -0.11993718 -0.9632138
-0.38965014 -0.3996424 0.7927766 -0.6340293 -0.20371035 -0.7995059 -0.8652975 -0.06390179
00000000: 128c 74bf 3b35 55bf 7f93 463f 7919 c9be
00000010: e373 7fbf 533d c5be 00b6 a63f fa13 223e
00000020: 88a1 5abe b94d 6cbf ca38 db3c fbda 703f
00000030: c2b2 e2be 4863 033f 3f44 7ebf f0dd 093f
00000040: 433b 25be 8a56 7ebe 211a 80bf 007f 52bf
00000050: 702a 4cbf 0e04 b33e a0a1 f5bd 2e95 76bf
00000060: 3980 c7be ee9d ccbe 68f3 4a3f bf4f 22bf
00000070: 7299 50be 6bac 4cbf 2384 5dbf f1de 82bd

bn2.running_var f4 [32]
0.74858344 0.77020234 0.56677943 0.7455304 0.8087288 0.57825637 0.73936045 0.50735855
0.41404322 0.59637994 0.5312184 0.68707377 0.7145962 0.33472586 0.7557293 0.36537194
0.36989027 0.31722084 0.6804693 0.5134367 0.4792753 0.6489232 0.53516483 0.62531173
0.46137258 0.4866229 0.4080696 0.39186236 0.5399867 0.7986679 0.83646154 0.5150509
00000000: 2aa3 3f3f fb2b 453f 7518 113f 15db 3e3f
00000010: da08 4f3f 9c08 143f ba46 3d3f 40e2 013f
00000020: 79fd d33e 5bac 183f eefd 073f 11e4 2f3f
00000030: c7ef 363f 3061 ab3e 7a77 413f 0812 bb3e
00000040: 4262 bd3e c56a a23e 3c33 2e3f 9670 033f
00000050: 9263 f53e d51f 263f 9000 093f 6e14 203f
00000060: 0739 ec3e a326 f93e 80ee d03e 2fa2 c83e
00000070: 923c 0a3f 8075 4c3f 5822 563f 60da 033f

fc1.weight f4 [128, 320]
0.0063410043 0.04862852 0.074480996 0.07264695 -0.21316136 0.06094769 0.1725642 0.063303106
-0.15492804 -0.0032958502 0.09379133 -0.08966269 0.03898444 -0.06310679 -0.09788918 -0.022664383
-0.013750383 -0.23800276 -0.05058456 -0.1867655 0.0012292839 -0.0070118816 0.051148225 -0.17187552
0.2543259 0.075567044 -0.122329615 -0.10026751 -0.14589117 -0.36627892 -0.017984696 0.039884206
0.20046769 0.33965003 0.2064616 0.08171548 0.18539847 0.10963899 0.06110918 0.074939474
-0.37102616 0.3424016 0.010922694 0.015683165 0.02069808 0.20870346 -0.021229489 -0.018507719
0.2659413 -0.29726553 -0.15884131 0.33507878 0.3325404 -0.041857075 0.21869871 -0.09442872
-0.031647183 0.0023590236 -0.09045 0.095407166 0.26073474 0.3682071 0.42419866 -0.173705
0.2521361 0.10640586 0.59895974 0.017622724 -0.019340012 -0.22481331 0.39344794 0.09616784
-0.07778166 0.08073367 -0.43149516 0.034819458 0.016237449 0.20444636 -0.10003501 0.13542686
0.009180415 -0.3352255 0.39468998 -0.17211759 0.116230436 -0.0065115746 -0.112188384 0.068641305
-0.10822668 0.72858715 -0.08629643 -0.11270986 -0.078093715 0.31508297 0.08186363 0.4032447
-0.18369696 -0.3279702 -0.14552802 0.16569328 0.15262449 -0.18392348 -0.055095833 0.060251966
0.333043 0.2854394 0.2547407 0.16511732 -0.019057624 -0.08013934 0.13280255 0.11940187
0.063567445 -0.13247798 0.18379636 -0.10279703 -0.016621051 0.13004747 -0.16034707 0.026973179
-0.043431178 0.460256 -0.15805733 -0.101435676 0.19236597 -0.00417064 0.041375354 0.030929767
-0.15261161 0.010360042 0.15915032 0.15535457 0.32783243 -0.13555402 0.12082678 0.18033774
-0.033632953 -0.08312997 0.037300587 -0.15602854 0.01951127 -0.07905809 0.17188673 -0.048281763
-0.049706034 -0.188097 -0.063713424 0.060381606 -0.18156852 0.10491265 0.4306733 -0.21664494
-0.119615234 0.17760636 0.24949247 -0.23818082 -0.19315162 0.059435636 0.12374919 0.299555
0.18607055 -0.031942923 0.24086183 -0.0761093 0.30499956 0.1930713 -0.06843622 0.10276512
0.15910204 -0.06233587 0.030394278 0.0066841063 0.05109119 0.09447554 -0.03500506 0.2816624
0.17775232 -0.08494789 0.2037215 0.04332473 -0.12213915 0.105855405 -0.22904351 0.44245753
-0.39033723 0.25503385 0.11741132 0.17719913 0.19353995 -0.021423856 0.14192815 -0.10631274
-0.014160059 0.08155746 0.014727335 -0.35232025 -0.0048770374 -0.28593582 -0.07238357 -0.17825167
0.0045008482 0.034148872 0.2039176 -0.32885846 0.4197213 -0.07537601 0.10527372 -0.0927965
-0.22748645 0.4406938 -0.2275641 0.36957854 -0.13751255 -0.17518829 0.10545705 -0.24676414
0.2786307 0.026439348 0.0924355 0.02796363 -0.33988333 0.043514397 0.26533946 -0.25606787
-0.1775891 -0.1265994 -0.26270762 0.15061933 0.07212065 0.51783466 -0.227579 0.0063190237
-0.061049122 -0.044462427 0.15238674 0.022826254 -0.083691075 -0.13019721 -0.042955425 0.008310898
0.101896174 -0.124680005 0.28840628 0.60768557 0.033546645 0.14092717 0.4359316 0.085682414
-0.021464895 -0.27679956 0.105367504 0.11561536 0.08943524 0.01660969 0.061416186 0.0011487688
00000000: 33c8 cf3b b32e 473d 7e89 983d edc7 943d
00000010: f946 5abe 49a4 793d abb4 303e 0fa5 813d
00000020: 75a5 1ebe 31ff 57bb ab15 c03d 13a1 b7bd
00000030: 26ae 1f3d 223e 81bd 1f7a c8bd a8aa b9bc
00000040: 4949 61bc ffb6 73be c131 4fbd 753f 3fbe
00000050: ec1f a13a edc3 e5bb cd80 513d 2300 30be
00000060: 0137 823e e5c2 9a3d f387 fabd 0d59 cdbd
00000070: 7f64 15be e988 bbbe a454 93bc 9f5d 233d
00000080: 6747 4d3e 9ce6 ad3e ab6a 533e 725a a73d
00000090: 19d9 3d3e 688a e03d 9f4d 7a3d de79 993d
000000a0: 24f7 bdbe 434f af3e 19f5 323c fb79 803c
000000b0: 058f a93c 5cb6 553e 77e9 adbc 809d 97bc
000000c0: 7529 883e 3033 98be 4ca7 22be 728f ab3e
000000d0: bc42 aa3e 5372 2bbd 8ef2 5f3e d863 c1bd
000000e0: 7aa0 01bd d999 1a3b d93d b9bd d564 c33d
000000f0: 067f 853e a485 bc3e 9130 d93e b9df 31be
00000100: fc17 813e 51eb d93d 6d55 193f 885d 903c
00000110: f26e 9ebc 7635 66be 0272 c93e a5f3 c43d
00000120: fe4b 9fbd b257 a53d efec dcbe d99e 0e3d
00000130: 6604 853c 635a 513e 28df ccbd 57ad 0a3e
00000140: 7469 163c ada2 abbe ce14 ca3e 983f 30be
00000150: 390a ee3d 0c5f d5bb 06c3 e5bd d093 8c3d
00000160: f3a5 ddbd b084 3a3f 2fbc b0bd 6dd4 e6bd
00000170: 99ef 9fbd 8e52 a13e 1ea8 a73d 1776 ce3e
00000180: 0e1b 3cbe b6eb a7be 4c05 15be 80ab 293e
00000190: 9849 1c3e 7056 3cbe 2bac 61bd c4ca 763d
000001a0: 9d84 aa3e 1d25 923e 5f6d 823e 8414 293e
000001b0: bc1e 9cbc 1820 a4bd 64fd 073e f888 f43d
000001c0: a62f 823d 4fa8 07be 1d35 3c3e 4087 d2bd
000001d0: df28 88bc 2a2b 053e 0632 24be dbf6 dc3c
000001e0: e4e4 31bd ada6 eb3e c8d9 21be 82bd cfbd
000001f0: 96fb 443e dda9 88bb 3479 293d 6c60 fd3c
00000200: 3846 1cbe 2abd 293c 4df8 223e 4515 1f3e
00000210: a7d9 a73e acce 0abe 0874 f73d 75aa 383e
00000220: b5c2 09bd 0c40 aabd 80c8 183d f2c5 1fbe
00000230: 19d6 9f3c 35e9 a1bd 1303 303e 19c3 45bd
00000240: 8e98 4bbd 809c 40be 2f7c 82bd b452 773d
00000250: 19ed 39be 72dc d63d 3681 dc3e 2cd8 5dbe
00000260: d5f8 f4bd 71de 353e f47a 7f3e ace5 73be
00000270: 8ac9 45be c872 733d 3770 fd3d 465f 993e
00000280: 4789 3e3e 95d6 02bd 7ca4 763e 31df 9bbd
00000290: e728 9c3e 7cb4 453e 4a28 8cbd 8576 d23d
000002a0: a5eb 223e e653 7fbd 6cfd f83c 5906 db3b
000002b0: ff44 513d 647c c13d 7761 0fbd 0e36 903e
000002c0: b404 363e 29f9 adbd 5e9c 503e 4675 313d
000002d0: 1724 fabd b8ca d83d 628a 6abe cb89 e23e
000002e0: 48da c7be cc93 823e 5975 f03d b073 353e
000002f0: 562f 463e 1581 afbc 9d55 113e 7eba d9bd
00000300: 98ff 67bc 9907 a73d ec4a 713c 5263 b4be
00000310: 8ecf 9fbb 2e66 92be d63d 94bd 9b87 36be
00000320: da7b 933b b0df 0b3d c6cf 503e 2360 a8be
00000330: b6e5 d63e bd5e 9abd c099 d73d 170c bebd
00000340: 35f2 68be 9ea2 e13e 9006 69be 6639 bd3e
00000350: 17d0 0cbe 8f64 33be def9 d73d bdaf 7cbe
00000360: afa8 8e3e 5597 d83c d34e bd3d fc13 e53c
00000370: 3005 aebe 273c 323d 93da 873e 541b 83be
00000380: ebd9 35be 46a3 01be 9d81 86be f43b 1a3e
00000390: feb3 933d d090 043f 780a 69be d00f cf3b
000003a0: a50e 7abd 3c1e 36bd 450b 1c3e 20fe ba3c
000003b0: 3a66 abbd 6b52 05be 07f2 2fbd 6f2a 083c
000003c0: f1ae d03d 3b58 ffbd fda9 933e 4891 1b3f
000003d0: 3568 093d 364f 103e 6d32 df3e 437a af3d
000003e0: 26d7 afbc acb8 8dbe ebca d73d bfc7 ec3d
000003f0: d329 b73d 0b11 883c 8a8f 7b3d 4992 963a

fc1.bias f4 [128]
0.019915942 -0.008935405 -0.036960464 -0.032134205 0.03666599 0.035586324 0.07182706 -0.02506343
-0.037873536 0.06167648 0.01200181 -0.071419 0.11300138 0.022557568 -0.037035998 -0.009916954
0.0046414966 0.049251437 0.06643923 0.047374696 5.03748e-05 0.054660473 0.028816154 0.023175191
0.024899554 -0.028469222 0.0027013884 -0.102325484 0.0067500905 -0.03665362 -0.057491053 -0.050136033
-0.049737595 -0.011085857 -0.00031521518 -0.03909054 -0.017712409 -0.08013679 -0.11308604 0.01175684
0.014937864 0.037686124 0.086609565 -0.030177262 -0.046765797 -0.03038636 0.050978586 0.043122318
0.082895495 0.02128485 0.012530718 -0.010897633 0.034737144 -0.030484302 -0.076688066 -0.0149499355
-0.007873999 0.014757476 -0.050878428 -0.042563654 0.089185454 -0.028176764 -0.06834294 -0.008367023
-0.00033848197 0.021051358 -0.009195678 -0.011661039 -0.025296068 -0.10089567 -0.049589142 0.009279978
-0.028627867 -0.10228614 0.00779892 -0.100637294 0.06667981 -0.037393 -0.023821611 -0.02411155
0.057454113 0.15114994 -0.0106202075 0.10029282 0.08323823 -0.025042145 0.09541609 0.030658241
0.00758522 -0.08509886 0.008744964 0.060494695 0.016504534 0.11052249 0.034440644 -0.10097797
0.13397574 0.00095775997 0.005240446 0.113516726 -0.02639736 -0.04108529 -0.015393591 -0.072707415
0.0012854558 0.07469062 0.042310674 0.052503604 0.060940813 0.02317532 -0.051731408 -0.01474698
0.025328496 -0.024336958 -0.0029665492 0.03829174 -0.03126291 -0.0028877824 -0.08405755 0.07967427
0.0058690663 -0.018616341 0.0815332 -0.040883042 -0.07851592 0.045718532 -0.0019408487 0.009681183
00000000: c226 a33c ce65 12bc db63 17bd 289f 03bd
00000010: 142f 163d f7c2 113d 111a 933d d351 cdbc
00000020: 4821 1bbd 7aa0 7c3d 3da3 443c 2044 92bd
00000030: 446d e73d a6ca b83c 0fb3 17bd b87a 22bc
00000040: b217 983b e0bb 493d 4b11 883d f80b 423d
00000050: 8849 5338 a9e3 5f3d db0f ec3c e6d9 bd3c
00000060: 26fa cb3c 4938 e9bc c709 313b 0690 d1bd
00000070: dd2f dd3b 1b22 16bd bd7b 6bbd 715b 4dbd
00000080: a6b9 4bbd 74a1 35bc 7743 a5b9 671d 20bd
00000090: 9d19 91bc c21e a4bd a799 e7bd c39f 403c
000000a0: f1bd 743c c45c 1a3d 5b60 b13d 4e36 f7bc
000000b0: 7e8d 3fbd d1ec f8bc ecce 503d 07a1 303d
000000c0: 1dc5 a93d 915d ae3c a44d 4d3c fc8b 32bc
000000d0: 8948 0e3d 37ba f9bc a20e 9dbd 93f0 74bc
000000e0: f201 01bc 57c9 713c e665 50bd 3a57 2ebd
000000f0: dda6 b63d f5d2 e6bc 62f7 8bbd d715 09bc
00000100: 4876 b1b9 e673 ac3c 78a9 16bc f10d 3fbc
00000110: b339 cfbc 64a2 cebd fc1d 4bbd 0d0b 183c
00000120: fd84 eabc 657b d1bd 158e ff3b ed1a cebd
00000130: 6d8f 883d 6729 19bd 8a25 c3bc 9685 c5bc
00000140: 0155 6b3d 0dc7 1a3e 6100 2ebc 5266 cd3d
00000150: ce78 aa3d 2f25 cdbc 8369 c33d fe26 fb3c
00000160: 708d f83b 5048 aebd 0a47 0f3c 49c9 773d
00000170: 8434 873c 9e59 e23d a211 0d3d 8acd cebd
00000180: f030 093e 2f12 7b3a 0cb8 ab3b 757b e83d
00000190: 473f d8bc 0d49 28bd 6635 7cbc a0e7 94bd
000001a0: bd7c a83a 65f7 983d f54d 2d3d 050e 573d
000001b0: 139d 793d 2bda bd3c 50e4 53bd 519d 71bc
000001c0: b57d cf3c 4d5e c7bc 706a 42bb cdd7 1c3d
000001d0: 8a0d 00bd f340 3dbb 5d26 acbd 432c a33d
000001e0: 4c51 c03b 4c81 98bc e1fa a63d fa74 27bd
000001f0: f4cc a0bd 5b43 3b3d 1364 feba d39d 1e3c

fc2.weight f4 [5, 128]
-0.06217579 0.08305614 -0.03643874 0.059656672 0.014872166 0.048689865 0.039545026 0.107410744
-0.039801378 0.021217238 -0.12916139 0.10788132 -0.001355563 -0.03998114 0.06372411 0.03344847
0.046589997 -0.05112776 -0.03691499 0.06362689 -0.06717923 0.024220956 0.09353784 0.03489513
-0.023793774 0.026623726 -0.065330796 -0.08790919 -0.031123072 -0.031013928 0.07410009 0.05316834
-0.033267982 -0.049701598 0.024468591 -0.05426408 0.08965841 0.10071155 -0.022664968 -0.057763606
0.07910084 -0.066388845 0.08923638 -0.018272672 -0.051211473 0.012949978 0.04089187 0.09256312
-0.036228016 -0.04313348 0.019142393 0.07971525 0.044292614 0.11920262 0.030518219 0.07140186
-0.081797406 -0.08261878 0.08745707 0.04069958 0.015897503 0.022674624 0.036295064 -0.014946722
0.07361801 -0.015103025 0.044465065 0.0054845014 -0.019397553 0.026361648 0.002741863 0.09734314
0.04406777 -0.03346148 -0.0312562 -0.0746879 0.03534598 0.073632866 0.00963773 0.03451491
0.07844982 -0.051236216 -0.012426355 -0.037376728 -0.11115803 0.0062820213 -0.020003345 -0.013073697
0.047206454 -0.0074152085 -0.022591371 0.04010379 -0.0260646 0.014533557 0.040314533 -0.022382911
0.040509764 0.078061424 -0.0043758806 -0.03684804 -0.08730367 -0.08352166 -0.02854991 0.031265657
0.041846544 -0.024536412 0.031030158 -0.07300325 0.01976055 -0.025999287 0.039946366 0.0634449
0.006884284 -0.0042143175 -0.03922199 -0.06558936 -0.07773392 -0.049621858 0.12941635 -0.0019054824
0.008870611 -0.05941194 -0.022387639 0.04894829 0.04091209 0.011400069 0.005399959 0.04358712
0.042018812 -0.06398283 -0.0073476364 -0.03245202 -0.048086178 0.042128284 -0.03519873 -0.0119260065
0.01452597 0.05993288 -0.04960025 -0.014765559 -0.008948192 0.09946383 0.01683797 0.004107869
0.040340655 -0.053221613 0.03901581 -0.0085600605 0.03725186 -0.03527546 0.03777545 0.037376743
-0.011916789 0.02332751 -0.021654792 -0.037040357 0.06854121 0.010772019 -0.027932238 -0.018467728
0.0113727255 -0.005475339 0.030833162 0.029972283 0.043594822 -0.028328914 -0.029690437 0.019681983
-0.030903062 -0.023488816 -0.027156658 0.049806833 0.039139174 -0.011785738 -0.09427635 0.04558365
0.02232451 -0.017985247 -0.06767829 0.010471659 -0.05437475 0.027089799 -0.058129538 -0.063570224
-0.011366028 0.08277031 0.026016418 -0.061169676 0.05062373 -0.0083403485 -0.01843173 0.040470827
0.039197493 0.015192498 0.023298547 0.06951941 -0.033509236 -0.0012973946 -0.02466792 -0.012474228
0.037364125 -0.06236639 0.015128464 -0.0059779594 0.067106724 -0.009724307 0.036868453 0.03813658
-0.021029947 -0.06819485 0.084781736 -0.039184596 0.021169357 0.008157313 -0.020563688 0.085278995
0.057476036 -0.04940264 0.009011819 0.017380228 0.050766934 0.038011976 -0.01781228 -0.039346077
0.04534207 0.08371362 0.064796016 0.031869203 0.009228316 -0.013363252 -0.010183081 0.04828636
0.025037682 -0.07739895 -0.06786803 0.06109338 -0.017443022 0.021532854 -0.046999443 -0.015505905
-0.0223864 0.10593561 0.00083262776 0.027632566 0.051617425 0.05498446 0.030575508 0.059181146
0.03387418 -0.030623414 -0.044938233 -0.023952039 0.057953846 -0.030757826 -0.02445326 -0.06289048
00000000: 0bac 7ebd 5619 aa3d ca40 15bd 8e5a 743d
00000010: 63aa 733c 066f 473d f7f9 213d 2afa db3d
00000020: c506 23bd c6cf ad3c e242 04be e2f0 dc3d
00000030: 26ad b1ba 44c3 23bd c981 823d 4301 093d
00000040: 27d5 3e3d 586b 51bd 2c34 17bd d14e 823d
00000050: 4495 89bd 076b c63c c490 bf3d 32ee 0e3d
00000060: 29eb c2bc 001a da3c 27cc 85bd bc09 b4bd
00000070: d0f5 febc ec10 febc cac1 973d 0cc7 593d
00000080: 0244 08bd e793 4bbd 5b72 c83c 0344 5ebd
00000090: d49e b73d db41 ce3d e2ab b9bc 8899 6cbd
000000a0: 9fff a13d e0f6 87bd 90c1 b63d 92b0 95bc
000000b0: 1fc3 51bd 252c 543c 3c7e 273d bc91 bd3d
000000c0: d463 14bd bbac 30bd 82d0 9c3c c041 a33d
000000d0: 2c6c 353d 8120 f43d 5801 fa3c 233b 923d
000000e0: 6685 a7bd 0934 a9bd b11c b33d 9ab4 263d
000000f0: 7b3b 823c 22c0 b93c 22aa 143d 19e3 74bc
00000100: 0ac5 963d ae72 77bc 0021 363d 55b7 b33b
00000110: 9ee7 9ebc 62f4 d73c d4b0 333b d75b c73d
00000120: 6880 343d e80e 09bd 8006 00bd f8f5 98bd
00000130: f2c6 103d d4cc 963d 92e7 1d3c 825f 0d3d
00000140: 4daa a03d 11dd 51bd e997 4bbc 5718 19bd
00000150: d2a6 e3bd 6ad9 cd3b 0ede a3bc 0f33 56bc
00000160: 8e5b 413d 47fb f2bb 8a11 b9bc df43 243d
00000170: 6e85 d5bc 281e 6e3c da20 253d 5e5c b7bc
00000180: 91ed 253d abde 9f3d 8c63 8fbb f8ed 16bd
00000190: 44cc b2bd 670d abbd 80e1 e9bc 6b10 003d
000001a0: 4867 2b3d 9600 c9bc f532 fe3c ba82 95bd
000001b0: e1e0 a13c 75fc d4bc cd9e 233d 66ef 813d
000001c0: 8f95 e13b 4218 8abb 3da7 20bd b753 86bd
000001d0: f632 9fbd 4a40 4bbd b885 043e 61c1 f9ba
000001e0: 0a56 113c ef59 73bd 4866 b7bc 017e 483d
000001f0: 7093 273d 5bc7 3a3c 24f2 b03b 6888 323d
00000200: eb1b 2c3d 6e09 83bd 71c4 f0bb 69ec 04bd
00000210: 03f6 44bd b58e 2c3d 8b2c 10bd 4c65 43bc
00000220: 56fe 6d3c 2e7c 753d a229 4bbd 3eeb 71bc
00000230: 709b 12bc b1b3 cb3d c8ef 893c 4e9b 863b
00000240: 3e3c 253d e8fe 59bd 0bcf 1f3d 7f3f 0cbc
00000250: 6895 183d 007d 10bd 6eba 1a3d 5b18 193d
00000260: a33e 43bc 5619 bf3c 6465 b1bc a1b7 17bd
00000270: 555f 8c3d 1f7d 303c 26d2 e4bc a249 97bc
00000280: ab54 3a3c 796a b3bb d495 fc3c 6f88 f53c
00000290: 7c90 323d 0a12 e8bc 5c39 f3bc 1c3c a13c
000002a0: 6b28 fdbc 9e6b c0bc a477 debc 4002 4c3d
000002b0: 6650 203d f818 41bc f613 c1bd ecb5 3a3d
000002c0: e4e1 b63c cc55 93bc ea9a 8abd 5291 2b3c
000002d0: 0fb8 5ebd 6deb dd3c 3d19 6ebd 1b31 82bd
000002e0: 9438 3abc 7b83 a93d 6220 d53c 0e8d 7abd
000002f0: d45a 4f3d f5a5 08bc 24fe 96bc bdc4 253d
00000300: 8d8d 203d f5e9 783c 98dc be3c 3160 8e3d
00000310: fb40 09bd 570d aaba 6114 cabc b460 4cbc
00000320: 200b 193d e673 7fbd 61dd 773c c2e2 c3bb
00000330: 406f 893d b352 1fbc 6003 173d 1a35 1c3d
00000340: ff46 acbc bea9 8bbd 0ca2 ad3d 0780 20bd
00000350: 5c6b ad3c 40a6 053c 2e75 a8bc c1a6 ae3d
00000360: fe6b 6b3d 6c5a 4abd 4fa6 133c fb60 8e3c
00000370: fdf0 4f3d 72b2 1b3d 0feb 91bc 5a29 21bd
00000380: 9bb8 393d 0c72 ab3d c6b3 843d 4889 023d
00000390: 5d32 173c 8bf1 5abc f0d6 26bc ebc7 453d
000003a0: d31b cd3c 5783 9ebd 65fe 8abd 0d3d 7a3d
000003b0: abe4 8ebc ab65 b03c 7d82 40bd 7b0c 7ebc
000003c0: af63 b7bc c5f4 d83d b444 5a3a b15d e23c
000003d0: cb6c 533d 6337 613d 7d79 fa3c ee67 723d
000003e0: a7bf 0a3d f4dd fabc 2711 38bd 1137 c4bc
000003f0: 0361 6d3d d6f7 fbbc 3452 c8bc b9cc 80bd

fc2.bias f4 [5]
-0.4952759 -0.11335721 -0.10416345 0.16911982 0.2605692
00000000: ce94 fdbe d327 e8bd a653 d5bd bf2d 2d3e
00000010: 5469 853e
