results/valence/classification_5/20251208_151118_028593/best_model.pt (torch, 353269 bytes, 22 tensors)

conv1.weight f4 [128, 1, 3]
00000000: e37c ab3e a900 103f 2081 bebd 52f3 b13e
00000010: 5641 b0be 2ae3 643d fe92 12be 2956 9f3e
00000020: aea6 1a3f 7927 ccbe 89ff 153f fcfd 3d3d
00000030: afd6 803e 4af9 593d 6c3c 2a3e 1146 a4bd
00000040: 9573 e63e 0489 76bd 6c89 69be e87e 0f3e
00000050: ee2d a6be f695 c3bd c792 11be 988c fa3e
00000060: 135c cdbe a57c 66be 9adc 29bd 3113 51be
00000070: 9bdb 173e 2249 26bf a19c e83e 9ecb 1dbf
00000080: b96f a03e 7449 233e c79e 0fbe 0406 ce3e
00000090: a199 6c3d 3de2 e43e c0f3 ddbd b673 02be
000000a0: dc98 b13e ded1 32be c28b da3d 118e 053f
000000b0: 1beb 733e 38a2 a7be f40c ae3e bcb0 863d
000000c0: 86d8 9a3e 2837 89be 443e 17bf 51a5 8ebd
000000d0: 01a8 ecbe f506 f63e 2d0b c03d 8a8c d13e
000000e0: 6f60 463e 49c5 7b3c 1d29 fc3e 341b e3be
000000f0: fede 363d 8711 07bf ea66 3c3e b6a3 fabd
00000100: b801 7b3e cdeb 10be b666 e23e 94d7 35be
00000110: 1d43 d6be 3a8d 92be ca15 1b3f c155 4c3e
00000120: 8ff1 273f 76bc c9be 0ac0 02bf 0f18 bdbe
00000130: 9154 84be 74b2 b33e 879b d43d ba8b 1b3f
00000140: a9d7 88be d4b6 b9be 6b7c c63e f052 79be
00000150: a9c9 9d3e e585 27be 6216 a13e 58bb b2be
00000160: 0c68 9dbe 4981 663e 7bcf 023e 730d 87be
00000170: 950c a33e 58f1 e83e f30c d2be 2ab3 2ebe
00000180: 99af 113f 0be3 21be 0a39 4bbe 33d1 0fbf
00000190: d1f1 80be 55fe 273e 1dae 6b3c c8a3 f2be
000001a0: 3802 023e 3804 98be 4fc8 a6be 0c6c 43be
000001b0: 0769 07bf d1a2 99be dcb3 163f 9c59 bc3d
000001c0: 16cb 663e f045 07bf f2f9 b2be 6097 29be
000001d0: 55c8 9c3d 0fd8 64be a8bd 30be 8775 44be
000001e0: 44fe 2c3e aa50 8ebe 5c3d 40ba da2a c0be
000001f0: 0379 9ebe 054b a4be 2d7e 0dbe ad7f debe
00000200: 59ae 103f aa18 f0bd 5be1 e03e 4cd0 37bd
00000210: b0b5 f1be bf75 ee3e ea8a 57be 4122 e2bd
00000220: 7a5d 96be 42ba 14bf e76d 063e 66cf 7bbe
00000230: 0dec 883e f9b6 a4be f393 1c3f 8854 c5be
00000240: beae f1bc 8830 2f3d e06e 013f ffa7 ce3e
00000250: 2408 e83e 8393 03bf f023 753e 2ae7 90be
00000260: f5df 14bd 57ba c3be 4ff2 1e3f 5967 aebe
00000270: bd3a b13e dd85 e43d 5606 3a3e efa6 b7be
00000280: 08b4 033f 2b32 3a3e 03ef 0f3e cb1f 30bf
00000290: 1ca7 213e 5ba3 8f3c 6e6d 9abe 190d 0c3f
000002a0: 0e9f 043e ed27 bebe 77a4 d5be 7143 9fbd
000002b0: 7e64 bc3e b1d7 53be 7922 77be 1d8c 30be
000002c0: 2cb9 85be 263b b13d 81f0 d63e b703 0fbf
000002d0: f11f 643d ee1f d43e 6980 9a3d 6ee5 4dbe
000002e0: 2089 a23e c0bd de3e 7621 653e 676d a3bd
000002f0: 6317 59be f0c0 253e 51a8 53be aa91 11be
00000300: 79b9 cf3d e560 133f 0777 61bd 67df d5bb
00000310: c200 fe3c 2d55 fcbc 4024 083e 4513 183e
00000320: 2cd8 19bf 89e2 1dbe 208b 123f bbfc ca3d
00000330: a014 323d 4a6e acbe f65b 7cbe 47ff f1be
00000340: 4094 26be 3cdc 8d3e de77 ab3e 29d3 873e
00000350: 45b4 05bf e247 5bbe 23f2 713c 3e8a 423f
00000360: 830a 473e 5445 6cbe 7123 8b3e 04a0 0ebe
00000370: 2161 b9be ac94 ee3e 8532 42be 373a 87bc
00000380: 41c4 1bbf f663 cc3e acf2 913e 2d2f ca3d
00000390: 208f debe eacb b5be 6ccb cbbe 38d5 ce3e
000003a0: 68c8 6e3d 3089 0a3f e337 c93e c3a3 3d3e
000003b0: cd36 17be 60f1 c2be efd6 c4be 4637 f4be
000003c0: 00bd 963e 7d0d bdbe 1155 0ebe ff78 99be
000003d0: aa7b 193c ef82 93be 6f4a a4be b590 9f3e
000003e0: b441 4cbe 9e84 c63e 9597 29be 9d2b e3be
000003f0: c4f3 373d d38d 84be 5188 52be 06f2 f8be
0.33493719 0.5625101 -0.093019724 0.3475595 -0.34424847 0.055880703 -0.14313886 0.31120422
0.60410583 -0.39873865 0.5859304 0.046384797 0.2516379 0.053216256 0.16624612 -0.080211766
0.45010057 -0.060189262 -0.22806329 0.14013255 -0.32456917 -0.09550087 -0.14216147 0.4893539
-0.4010931 -0.22508486 -0.041470148 -0.20417477 0.14829867 -0.6495534 0.45431998 -0.6163882
0.31335238 0.15945989 -0.14025412 0.40238965 0.0577637 0.44703856 -0.10837507 -0.12739453
0.34686935 -0.1746287 0.10671188 0.521699 0.23820154 -0.3274095 0.33994257 0.06576678
0.3024332 -0.26799893 -0.59079385 -0.06965125 -0.46221927 0.48052183 0.093771316 0.40927535
0.19372724 0.015366861 0.49250117 -0.44356692 0.044646256 -0.5276112 0.18398634 -0.12238257
0.24512374 -0.14152451 0.44218987 -0.17758018 -0.41848078 -0.28623372 0.6058012 0.19954588
0.65602964 -0.39401597 -0.5107428 -0.36932418 -0.2584577 0.35097086 0.10381227 0.6076008
-0.26727036 -0.362723 0.38766798 -0.24348044 0.30817917 -0.1635967 0.3146239 -0.34908557
-0.30743444 0.22510256 0.1277446 -0.26377448 0.31845537 0.4549663 -0.41025504 -0.17060533
0.56908566 -0.15809266 -0.19845977 -0.5617859 -0.2518449 0.16405614 0.014384774 -0.4739058
0.12696159 -0.2969072 -0.32574698 -0.19084185 -0.52894634 -0.30007032 0.58868194 0.09196779
0.22538409 -0.5284109 -0.34956318 -0.16561651 0.07655398 -0.22348045 -0.17259848 -0.19185458
0.1689387 -0.27795917 -0.0007333362 -0.37532693 -0.309517 -0.32088485 -0.13817663 -0.43456784
0.56516033 -0.11723454 0.43921933 -0.04487638 -0.4720893 0.46574208 -0.21049085 -0.1104169
-0.29368192 -0.58096707 0.13127862 -0.24590835 0.26742592 -0.32170847 0.6116325 -0.38541055
-0.029502269 0.042770892 0.50559807 0.40362546 0.4531871 -0.5139696 0.2393949 -0.28301364
-0.036346395 -0.38228104 0.62088484 -0.34063223 0.34615126 0.11158345 0.1816648 -0.35869548
0.5144658 0.181832 0.1405602 -0.6879851 0.15786403 0.017533949 -0.30161613 0.54707485
0.129513 -0.37139836 -0.4172704 -0.07776535 0.3679542 -0.20687748 -0.24134244 -0.17240949
-0.26117837 0.0865386 0.41980365 -0.55865043 0.055694524 0.4143061 0.075440235 -0.20107052
0.31745243 0.43504143 0.22376046 -0.07979851 -0.21200328 0.16186881 -0.20669676 -0.14215723
0.10142798 0.57569724 -0.055045154 -0.006526876 0.03100622 -0.030802334 0.13295078 0.148511
-0.6009548 -0.15418448 0.5724354 0.09911486 0.0434767 -0.33677894 -0.24644455 -0.47265074
-0.1626749 0.27707088 0.3348989 0.2652829 -0.52228194 -0.2141414 0.014767203 0.7599219
0.19437604 -0.23073322 0.27175477 -0.13928229 -0.36206916 0.46597803 -0.18964584 -0.016507251
-0.60846335 0.39920014 0.28505456 0.09872279 -0.4346857 -0.35507137 -0.39803636 0.40397048
0.05829659 0.5411558 0.3930045 0.18519501 -0.14766999 -0.3807478 -0.3844523 -0.4769842
0.2944107 -0.36924353 -0.13899638 -0.29975125 0.009367863 -0.28810832 -0.32088038 0.3116509
-0.19946939 0.38773054 -0.1656173 -0.44369212 0.044910207 -0.25889453 -0.20559813 -0.4862215

conv1.bias f4 [128]
00000000: d7c4 e3bd 76c4 113f de28 f1be 6e1b 7bbe
00000010: 17d7 773e 819d a3be e60a a7be 1a35 abbe
00000020: b8a5 c73e 473a 483e ecbf b43e 2937 d8be
00000030: 9cf2 14bf df40 fb3d c0d3 7c3d dd3f b4be
00000040: da84 813e 4795 0b3f 713b ec3c 81a4 503b
00000050: 79aa 34be b08e 1ebf b717 2cbf b91a 8ebe
00000060: 512b 1fbe 8f64 bb3e 3ad1 5ebe 83bd a6be
00000070: 3e67 df3e c7fd 973e 46a8 fe3e c582 d6be
00000080: d4af afbe 7bee 5b3e f7b0 e0be 315a 1abf
00000090: 1e98 9fbd cf38 b5be 6a5c 0fbf 4bb8 cb3d
000000a0: b4e0 063f acb0 b93d f0cf 8dbd bef7 38bf
000000b0: 43eb 54be fdcb f73d e784 f33e 0997 27bd
000000c0: 5351 85be 4bd1 8b3e cc7f 05bf 7949 b83e
000000d0: 6d60 c7be 1d91 be3d 89d0 2abd d2f6 f13d
000000e0: ae66 ffbc c4d1 e73e ca9b 27bd 6a1e 223f
000000f0: ff21 ae3e 26fc 84be 9dc3 08bf 6de8 033f
00000100: 22de a13e 26ce f4bd f032 3c3e 3602 18bf
00000110: 4e29 1dbf d55f f43d 7cfe 9e3e 411e 58bc
00000120: 1687 6abe 982b 1b3f ac66 bebc 8d0a 07bf
00000130: f8bf 0abe 9b34 14bd e3b6 813d b5b4 dfbe
00000140: 347a 3b3e d415 00bf c358 0fbf 22d2 c0be
00000150: 9c4c 033f b255 073f fbc4 7d3e 43e7 f33e
00000160: 970e 9e3e 2bb4 8dbc 9ff0 e5be b16c 683e
00000170: a7f8 0ebf 2206 07bf bd8d 8dbe 52e4 ba3d
00000180: 2a8c 943e a2d8 6abe 232f c7be b943 9c3d
00000190: d2c0 f4be d78e fbbe f384 043f a576 80be
000001a0: f3b5 093f e54e a13e 837e af3e c97e b23d
000001b0: 9929 8b3d 805f 4dbe 40d5 73bd 63fa d7bc
000001c0: 82ad 763e 3bc2 c33e 48ad 86bd 4c49 bdbe
000001d0: 56dc 27be b358 debe f746 503e 4bc1 de3e
000001e0: 261a 863e 50d2 763e ffcd dabe 98dd e1be
000001f0: 1a54 7bbe ce23 cabd dcd7 2f3e 2c09 2ebf
-0.111215286 0.569404 -0.47101492 -0.24522182 0.24203144 -0.31956103 -0.32625502 -0.3343895
0.3899362 0.19553481 0.35302675 -0.42229584 -0.5818269 0.122682326 0.061725378 -0.35204974
0.2529667 0.54524654 0.028836938 0.0031836333 -0.17643155 -0.61936474 -0.67223686 -0.27754763
-0.15543868 0.36600158 -0.21759501 -0.3256646 0.43633455 0.29685804 0.49737757 -0.41896644
-0.34313834 0.21477692 -0.43885013 -0.6029387 -0.07792686 -0.35394904 -0.5600039 0.099472605
0.5268662 0.090669006 -0.069244266 -0.72253025 -0.2079287 0.120994546 0.47562334 -0.040915523
-0.26038608 0.27308115 -0.5214813 0.35993555 -0.38940755 0.09305022 -0.04170278 0.11814655
-0.031176891 0.45277226 -0.040920056 0.6332766 0.34010312 -0.25973624 -0.5342348 0.5152653
0.31614786 -0.11953382 0.18378806 -0.59378374 -0.6139115 0.11932341 0.3105353 -0.013190807
-0.22903094 0.60613394 -0.023242317 -0.52750474 -0.13549793 -0.03618298 0.06333711 -0.43692556
0.18308336 -0.5003331 -0.55994815 -0.3766032 0.5128877 0.52865136 0.24782173 0.47637376
0.30870506 -0.017297825 -0.44910142 0.22697712 -0.55848163 -0.5274373 -0.276472 0.0912558
0.29013187 -0.22934201 -0.3890315 0.076301046 -0.4780336 -0.49132416 0.51765364 -0.2509052
0.5379326 0.31505504 0.34276208 0.087155886 0.067950435 -0.20055962 -0.059529543 -0.02636451
0.24089625 0.38234124 -0.065760195 -0.36969984 -0.16392645 -0.43427047 0.20339571 0.43506846
0.26191825 0.24103665 -0.42735288 -0.44114375 -0.24543801 -0.098701105 0.17172188 -0.67982745

bn1.weight f4 [128]
00000000: 2bb2 533f 4db8 153f bc4b 813f 560c 413f
00000010: 7bb2 2d3c 99c1 8b3f 0481 523f 542b 853f
00000020: 3a91 413e 3609 143f 7c2a 853f c057 c13f
00000030: b239 ee3f 0a8b 283f f957 4a3e 2e68 893f
00000040: 3a8a 423f 4d93 363f 4db7 833e b4b9 5f3f
00000050: 0d7e 623f 28af 993f a4de 963f 1419 523f
00000060: a9d7 413f dc37 d43e 1787 853f 8e8a 883f
00000070: 73ac 783e 68b6 c53e f205 1c3f 1c9f 8f3f
00000080: 1926 853f 292f f53e cb02 963f a501 393f
00000090: 792f 3d3f d090 913f 6f31 913f 9721 bdb9
000000a0: 5258 113f 6b4c b73e 2c88 453f c8e9 f53f
000000b0: 55d2 363f 7acb ab3e 02e7 2a3f 4078 3c3f
000000c0: d537 7e3f 332a 0d3f f729 a33f 987b 533f
000000d0: e4a5 9a3f d83c 4c3f 1793 583f a6b6 483f
000000e0: 3aa1 4b3f 4d89 1c3f 334b 583c 3ae9 813f
000000f0: 5a14 f23d c91c 5f3f 910b bb3f a574 e43e
00000100: 32c7 413e eed9 e3bb 8e36 683f 0b18 9e3f
00000110: f923 a13f 962d b33e d88a 443f d269 683f
00000120: af35 ae3f af26 413f 548e a03e f440 9a3f
00000130: caf2 e83e 8eca 2b3f 8be7 9b3e ba6e 3b3f
00000140: 216b 893f e959 6b3f f2c6 903f dfb3 663f
00000150: 1492 843e 7e95 173f b14e ac3e 4329 503f
00000160: cfba 0b3f 1ae5 213f b84e 9b3f 2878 823e
00000170: 26d6 a13f e851 6b3f e505 243f 00fa 3b3f
00000180: 5976 4a3f d3c5 dc3e 78ec 563f fa2e c93e
00000190: f33d 973f d524 9c3f 97f1 a93e a0a2 263f
000001a0: 8029 063f aee2 b73e 8632 353f edb4 0c3f
000001b0: a422 3e3e 08c7 423f bf3f 623f b6f6 153f
000001c0: 422d 423f a7a1 a93d 60e4 413e 7e69 aa3f
000001d0: 822c 673f 271a 533f d352 163f 3a8a 5c3f
000001e0: bf0b 893e 2f95 a23e de1d 4d3f 9df3 823f
000001f0: 64db e03e 9f52 443f c076 8b3f cb60 ab3f
0.8269374 0.58484346 1.0101237 0.7540945 0.010601635 1.0918456 0.8222811 1.0403848
0.18903056 0.57826555 1.040359 1.5104904 1.8611357 0.65837157 0.19760121 1.0734918
0.75992167 0.71318513 0.25725785 0.87392735 0.8847359 1.2006578 1.1786695 0.82069516
0.75719696 0.41448867 1.0431851 1.0667284 0.24284534 0.38615727 0.6094657 1.1220431
1.0402251 0.47887543 1.1719602 0.72268134 0.7390056 1.1372318 1.1343211 -0.00036073916
0.5677539 0.3580049 0.77160907 1.9211969 0.7141469 0.33553678 0.6675874 0.73620987
0.9930394 0.55142516 1.2747182 0.82610464 1.2081876 0.7978034 0.8459944 0.784037
0.7954289 0.61147004 0.013201523 1.01493 0.11820288 0.871533 1.4612905 0.44620243
0.18923643 -0.0069534695 0.90708244 1.2351087 1.2589103 0.34995717 0.7677436 0.9078647
1.3610133 0.7544965 0.31358588 1.2051072 0.45497733 0.6710595 0.3045009 0.7321583
1.0735818 0.91934067 1.1310713 0.9011821 0.258927 0.5921248 0.33653787 0.8131296
0.5458192 0.63240206 1.2133398 0.25482297 1.2643478 0.91921854 0.64071494 0.73428345
0.79086834 0.43119678 0.8395457 0.39293653 1.181578 1.219874 0.3319213 0.65091896
0.52407074 0.3591513 0.7078022 0.5496357 0.18567902 0.7608495 0.8837852 0.58579576
0.7585031 0.08282786 0.18934774 1.3313444 0.9030229 0.8246178 0.5872013 0.86148417
0.26766774 0.31754443 0.801237 1.0230595 0.43917382 0.7668857 1.0895615 1.3388914

bn1.bias f4 [128]
00000000: ea98 073e ce02 053e 81bc 283e fac1 353d
00000010: da79 c73b 2b77 373e 812a 513c 9e4d 743e
00000020: 5860 503e 99c2 783c 464f 853d 9944 9f3e
00000030: 0277 f23d a2c0 3abe e530 cabb 337b bc3d
00000040: cc3d 023d 158a 063e c358 1abc 71cf 2fbc
00000050: ee20 93be 7a81 d83c 5203 333e 4c87 cc3c
00000060: 82fe 843e 8c24 773e 3ab7 4c3e 10f0 a3bd
00000070: d0dd 6e3d 1d58 3e3e 3cd2 80bb 9ed6 423e
00000080: e7ae a33e d1d4 af3e ab81 123d bd15 e33d
00000090: 51a2 243e 2a69 6e3e 5271 683e f008 53ba
000000a0: d48b 2e3d 062a 503e 7d1e 1bbc b591 793e
000000b0: 60c6 75bd 18a0 ab3d 1a62 4a3d 6e2f 22be
000000c0: 39d9 833d efca 2c3e bd20 ff3d ee29 47bd
000000d0: c645 d53d ba72 7a3d a3ac 1ebe 00b2 35be
000000e0: 45ee 893d b170 18be 3536 b7bb 3c2c 673e
000000f0: 49d2 b83d 121f 273d 217a 033e 9865 0c3e
00000100: 2218 4b3d 4583 05bf 49e5 843d f4fe a13e
00000110: 8d85 c43e 2e05 af3d 9101 733e 8294 7f3e
00000120: 5f92 b6bc dffb 5d3e d156 513d 4975 863d
00000130: aa38 743e 4ba0 7fbd c17d 173e 85f0 6b3e
00000140: d8e4 b63e ea94 033d 7bec 223e 8a52 543e
00000150: d919 5d3e 1342 7ebd 8fa7 133e 5e8b 383d
00000160: 9592 bf3d af5f b8bd ea76 8f3e 6d3d 9d3c
00000170: 6348 783e 113e 023e 66b5 e73c 7581 a03d
00000180: ef15 813e 6964 f5bc e058 163e d8e2 6a3d
00000190: 5843 313e 5550 5bbc 9980 9dbc 207e 8e3d
000001a0: 0513 cb3d bda3 0d3e 1c1f e53c 5349 733e
000001b0: 3535 5a3d 1568 923e 9b15 bb3e b3cf 6c3e
000001c0: 296c f7bd 5ce9 d03d 1cb7 c73a 3f59 523d
000001d0: cf8f e33d 2d36 c53d f6b8 fb3d d1d8 453d
000001e0: 8c8e 103e c069 b63d 3ff6 803d eb3e f93d
000001f0: dbbe 103e 7b69 af3e 6d60 0dbe e969 823e
0.13241926 0.12989351 0.16478159 0.044374444 0.006087524 0.17916553 0.012766481 0.23857734
0.20349252 0.015183114 0.06509261 0.31107023 0.11839105 -0.18237546 -0.0061703795 0.09203186
0.031797215 0.13138612 -0.0094205765 -0.01073061 -0.2873606 0.026428927 0.17481735 0.024966858
0.25975424 0.24135035 0.1999177 -0.08004773 0.058317006 0.185883 -0.003931312 0.19027182
0.31969377 0.34342054 0.035768192 0.110881306 0.16077544 0.23282304 0.22699478 -0.0008050343
0.04261382 0.2032853 -0.009467718 0.24371989 -0.06000364 0.08380145 0.049409963 -0.15838405
0.06437916 0.16874288 0.12457416 -0.04862397 0.10413699 0.061144568 -0.15495543 -0.17743683
0.067348994 -0.14886738 -0.005591179 0.22575468 0.09024484 0.040801115 0.12839557 0.1371063
0.04958356 -0.52153426 0.06489045 0.31639826 0.3838314 0.0854591 0.23731066 0.24958995
-0.022286592 0.21678112 0.051108185 0.06565339 0.2384974 -0.062408727 0.14794065 0.2304097
0.3572147 0.032124437 0.15910523 0.20734611 0.21591891 -0.062074732 0.14419387 0.045054786
0.0935413 -0.09002625 0.28020412 0.01919433 0.24246363 0.12718989 0.02828474 0.07837192
0.25212047 -0.029955106 0.1468234 0.05734524 0.17310846 -0.013385852 -0.01922636 0.0695765
0.09915737 0.13831992 0.027968936 0.2375844 0.0532734 0.28595033 0.3653992 0.23126106
-0.12081177 0.1020076 0.0015237066 0.051354643 0.11111414 0.09629474 0.12291138 0.048302475
0.14116877 0.08906889 0.06296968 0.12170204 0.14135306 0.34260163 -0.13806315 0.25471428

bn1.running_mean f4 [128]
00000000: d034 833e 55a2 123f 5072 153e caee dc3d
00000010: 284e 973e 12f8 5a3d c4e7 e53c c5aa 683d
00000020: 8fa9 f93e 0712 bd3e d411 d53e d07e 183d
00000030: b331 e73c 15c3 2f3e b91c a93e fdf8 f43c
00000040: 278a db3e dfa4 133f 5460 823e 7c3a 2e3e
00000050: 39fe bd3d 9259 0839 f1dc ac3c 6cc9 173e
00000060: c0e3 5b3e 99d6 e13e 5691 113e 6221 f23c
00000070: e9ac e93e 2761 ca3e a914 003f dae0 323d
00000080: 2329 9e3d 14e9 cc3e db4d a63c aa69 4f3d
00000090: 8cbf 703e 8194 363d 3e65 313c e8fe 7a3e
000000a0: 5647 073f 2dec be3e 2c29 273e d214 ec3b
000000b0: 0c38 a33d ca83 cc3e acb1 f43e 6d6d 223e
000000c0: f75c e83d fda7 d23e 13f3 333b 9e08 d73e
000000d0: c705 9f3d 2d77 823e 9eb7 4b3e 73c1 703e
000000e0: 215e 723e 586e eb3e 8f94 453e 22e3 283f
000000f0: a246 cd3e 411e 113e ef2b f83a 7224 053f
00000100: 5352 d83e f7d8 0337 0cec a03e ac75 723d
00000110: fd03 773c 8339 8f3e 5d88 cb3e 2903 8e3e
00000120: d3fe 0b3d 8c8d 203f a2a6 843e 1bf4 be3d
00000130: 554d 9f3e 5018 9b3e 5460 5e3e 4547 4d3e
00000140: 687b 873e 066a c13c b6cc 293b a113 773d
00000150: b14d 093f 1822 0f3f e07b d53e ce65 003f
00000160: 6732 db3e 0370 8b3e 111e 043d efc2 bd3e
00000170: 9202 6c3c ff05 a03d d272 b13d cc05 8c3e
00000180: d355 aa3e 2620 7c3e 249c 8b3d b1f2 823e
00000190: 4164 ea3a 5ad4 5b3d 826c 053f 2b71 333e
000001a0: 2d13 153f 11ae fd3e 8cd1 bf3e 24d9 8a3e
000001b0: 58f8 b53e c9d5 633e 908f 3b3e 8205 493e
000001c0: 9d05 8e3e ae98 d03e 6539 9d3e 4656 3e3d
000001d0: 51f7 aa3d 0049 0f3e c9bb a93e e18e ef3e
000001e0: d950 ef3e 174b a13e 74cd eb3d 3261 ca3d
000001f0: 1ebc 053e 2273 393e 532a 933e 54ad de3c
0.2562623 0.5727895 0.14594388 0.10787733 0.29551816 0.053459235 0.028064616 0.056803484
0.48762175 0.36927816 0.41615164 0.037230313 0.02822194 0.17164262 0.33029726 0.029903883
0.4287884 0.5767345 0.25464118 0.17014498 0.09277005 0.00013003338 0.021101447 0.1482293
0.21473598 0.44109038 0.14215598 0.029556934 0.45639732 0.39527246 0.50031525 0.043671466
0.0772269 0.40021574 0.020300796 0.05063788 0.2351057 0.044575218 0.010827361 0.24511302
0.52843225 0.37289563 0.163243 0.0072046304 0.079696745 0.39944297 0.47791803 0.15862055
0.11345857 0.4114379 0.0027458116 0.41998762 0.07764774 0.2548155 0.19894263 0.23511295
0.2366872 0.45982623 0.19294952 0.6597158 0.4009295 0.14171697 0.0018933992 0.52008736
0.42250308 7.8587245e-06 0.3143009 0.059194252 0.0150766345 0.27973565 0.39752474 0.27736786
0.034178566 0.62715983 0.2590838 0.09323903 0.31113687 0.30291986 0.21716434 0.20046718
0.2646134 0.023610126 0.002590937 0.060321454 0.5363417 0.559114 0.41696072 0.5015534
0.4281189 0.27233896 0.032255236 0.37062785 0.01440491 0.07813644 0.08664478 0.27348173
0.33268604 0.24621639 0.06816891 0.25575784 0.0017882661 0.05366931 0.52118695 0.17523639
0.58232385 0.49546865 0.3746456 0.2711879 0.35541034 0.22249521 0.18316483 0.19631007
0.27738658 0.40741485 0.3070785 0.046468996 0.08347953 0.13992691 0.3315108 0.46788695
0.4674137 0.31502602 0.115137964 0.0988182 0.13060042 0.18110326 0.28743228 0.027182259

bn1.running_var f4 [128]
00000000: 1257 583e 1e47 b63d 78ae 023e adf4 7d3d
00000010: 033c cb3d a6e2 af3c b360 d73b d1d7 cf3c
00000020: b47b 363e 5e69 233e 9cf5 1e3e 7894 833c
00000030: 0100 5c3c fb9d 183d 9df3 843e 8780 393c
00000040: 4610 493e e790 233e 707c 243e 1b33 9c3d
00000050: 62ee de3c 2b07 d537 408f 1b3c 3090 d73d
00000060: 735d 083e 1912 113e 444e ba3d 534e 053c
00000070: 957e 0b3e c056 033e dbb3 953d 655b a63c
00000080: ae0a 223d a9fb 323e cb57 9d3b bce4 a33c
00000090: b274 063e c388 823c bbce 203b f9a4 a33d
000000a0: 21d6 513d 4a6c 553e 6985 a33d e8f6 2b3b
000000b0: f69b e43c bdc8 673e de95 653d d260 873d
000000c0: ed02 873d 004a 863e 9034 343a 55ae 123e
000000d0: d693 313d aef2 0e3e b57c 983d 67de cf3d
000000e0: 4301 d23d f442 933d 696a 943d 2d9e 443e
000000f0: d08f 3d3e 1524 c73d 0602 d239 8394 7f3d
00000100: ab9b 823e cf97 8334 f906 e23d f075 133d
00000110: f730 823b e271 cb3d e1b4 313e 5ca5 5f3e
00000120: a04c 263c b4c5 1e3e a214 003e 176d 883d
00000130: 28d5 513e a7b1 803e 6d85 e13d 8e04 093e
00000140: eeed 953d a4c1 d33b 56a3 063a b7c1 ca3c
00000150: 1613 f03d dcb4 173e 1315 963e 2e1e f83d
00000160: f570 8c3e 744b 093e 9699 5f3c be5c 713e
00000170: 3403 923b b776 0f3d 7509 ea3c 83f6 f83d
00000180: 20f7 c43d 42f5 1b3e 9889 d13c 334e be3d
00000190: 2a79 6839 a100 ca3c 15d1 4a3d d844 033e
000001a0: 4654 713e 08f7 d03e 8bc7 9f3d a9e4 283e
000001b0: cfa4 493e bc98 f73d 26f5 c53d 506b 9c3d
000001c0: 8bf6 753d 7ca4 9b3d 55f9 3a3e 9ebb ab3c
000001d0: 7ca3 023d fe07 e23d 3860 193e b222 183e
000001e0: 26c9 773e e013 0c3e c860 653d b9f9 8a3d
000001f0: 81a9 623d 2ec0 ec3d 19f9 f93d ba5b 593c
0.21126965 0.08900283 0.12761867 0.06200092 0.09923556 0.02147038 0.0065728067 0.025371464
0.17820626 0.15958163 0.1552338 0.016062006 0.013427735 0.037260037 0.25967112 0.011322147
0.19635114 0.15973245 0.16063094 0.07626935 0.02721328 2.5394917e-05 0.009494603 0.105255485
0.13316898 0.1416706 0.09096959 0.00813635 0.13622506 0.12826061 0.07309695 0.020307252
0.039560966 0.17478813 0.0048017255 0.02000653 0.13130453 0.015934354 0.0024537283 0.079904504
0.0512296 0.2084209 0.0798443 0.0026239697 0.0279064 0.2263517 0.056051128 0.06610264
0.06592355 0.26228333 0.00068742875 0.14324315 0.043353878 0.13959762 0.07445661 0.10149842
0.10254147 0.07190505 0.072468586 0.19200964 0.18511891 0.09723679 0.0004005583 0.06239749
0.2550939 2.4511107e-07 0.11036486 0.036001146 0.003973122 0.09933831 0.17354156 0.21840423
0.010150105 0.15505105 0.12507871 0.06661432 0.20491469 0.25135538 0.11011777 0.13380644
0.07320772 0.0064622927 0.0005136033 0.024750574 0.1172239 0.14815086 0.29312953 0.12115131
0.2742993 0.1340769 0.013647458 0.23570535 0.0044559482 0.035025325 0.028568963 0.121563934
0.09617448 0.15230277 0.025578305 0.09292259 0.00022170381 0.024658503 0.049515802 0.1281923
0.23567304 0.4081347 0.07801732 0.16493477 0.19691776 0.12089679 0.09665899 0.07637656
0.060049575 0.07599732 0.18259175 0.020963486 0.031894192 0.11036681 0.14978111 0.14856985
0.24197826 0.13679457 0.0560005 0.06785912 0.055337433 0.11560093 0.12205715 0.013266498

conv2.weight f4 [128, 128, 3]
00000000: dccb 273c eb13 60be 8641 34be de96 4dbd
00000010: 4814 4e3c d210 39be e6d2 3b3d 98d5 ab3d
00000020: e9a8 353e fb82 2cbd e3c2 b03c 6e3b edbb
00000030: a811 d83b 310c e6bb aedc 22bd f832 923d
00000040: 4f0c 2e3e 4b37 78bc c3a8 11bd 4529 e6bd
00000050: f76a 533e d9ca 8e3e 76bb 34be 1da0 93bc
00000060: abdd 133d b2b3 223d de9c 0dbd 4902 223e
00000070: 6add 4d3e 9922 02be 6639 8c3c 2257 723d
00000080: d8ff 62bd 1077 b2bd 12ca 67be 32c0 d0bd
00000090: 22c7 62bd e30b 163e cac7 153d bebd fa3d
000000a0: 3144 c23d 4c6d 683e 8411 4ebd 0590 473b
000000b0: f8b9 733d f8bc 1a3d 19b8 373e fd98 0fbe
000000c0: 91f4 fd3d afe0 4ebd a259 bfbe adaf 60bd
000000d0: ba1f 85be 01ca 2f3e 76a3 83bd 9ce1 ef3c
000000e0: d6d3 983c c25d 063c 7eb7 6fbd 6346 68bc
000000f0: c944 e9bd a680 f5bd 32ce 6c3e 227c 9ebe
00000100: e5d6 56bc cb04 a2bd 0b99 d03c 2061 ccbd
00000110: f63a 0dbe 3e29 34be 5684 7c3e afc3 48bd
00000120: 6cb0 793d 0bdd 243d d528 febe 4fd0 903d
00000130: b2cc cabd d0cc f63d 02b8 c4bb 11e0 3dbe
00000140: 32a5 96bd 00ac 323e a5c5 c6bd 98c8 03be
00000150: e51d 573d dcf5 9ebd 28c9 80bd 502b 773d
00000160: a4a4 d9bc 5763 363d 37b2 b63b a1ff 3cbe
00000170: d1ae 883d 8725 a9bd 933e 8abe 2c47 2d3e
00000180: ee3a ee3c e161 173e b524 31be 96a0 343d
00000190: 9d18 153c 6306 c73d ac2c 1a3e a797 ecbe
000001a0: d28d a3be 2325 71be 5422 f0bd 51f2 0bbf
000001b0: 9c9b e43c 24fe a5bd 0c2b 113e ee5b 183d
000001c0: 8edd 04be de78 9dbc 2a5f 07bf 5d69 133e
000001d0: 6359 c3be 54f4 62bc a281 0d3d 2217 4b3b
000001e0: 07b1 92bd b5f7 003d a1b0 ebbd e286 babd
000001f0: d537 da3d aed8 663d a5f3 c2bd bc6d 4fbe
00000200: 441c 863e d40b 48be c752 08be 68d8 363e
00000210: d625 c33d 13ed 473b 1564 9b3d 9916 ebbb
00000220: 83e8 17bd 4e51 53be 40b5 bc3d 6a26 fabd
00000230: 5afc 8b3d e1e7 d63d a080 113e 9f51 433e
00000240: 019e fe3d 9309 28be 9b6a 803d 8e58 ae3d
00000250: 701d 86bd e2e0 1abe 8113 4ebe 8ec8 df3e
00000260: 22bc 65be c416 0e3e 147e 1b3e 8417 363e
00000270: ea0a 25bd b344 44bb 5890 f7bd c92f 35bd
00000280: f79a e13c 8b20 dc3d b112 6ebd d487 443b
00000290: 7d7b 263d 23b9 cb3c fca5 99be 8def 3c3e
000002a0: 41f1 153e ea1c 43be 851f d5be 8bd6 c53d
000002b0: aec2 89bc 830d 593e 15f3 07bd 48fc 2c3d
000002c0: 130c adbc fe60 863a 41d8 d7bd 4a52 fa3d
000002d0: 87e9 e5bc 013f 4dbd 61d7 003d aae0 80bd
000002e0: cf26 983d af01 523e 9b76 6bbe 8238 e13d
000002f0: 1551 a6bd 4e19 a4bd 5db3 21bd 5fb0 b8bc
00000300: 28ea abbc a974 83bd 0de8 09bd 422c 913c
00000310: 265a 2d3e 6a96 32bc b9df ce3d 3aaa adbb
00000320: 68da 0abe 5753 ecbc 5ada f3bd 79a6 61bd
00000330: d2bb 8cbe e2af 03be d889 093b 7fb2 c63d
00000340: c18c d5bd f0e5 9a3d c6d9 463d acf3 39ba
00000350: dda5 1cbe ab9e 133e 7bfa 68be 7a0a c43d
00000360: 309f 7abe 22d1 1ebe a725 dfbc d5c7 2dbd
00000370: 1d95 80be e6e6 683e 307c c7bd 4d37 453e
00000380: ffe5 63bc ae39 8c3d ce7b 3f3d a2ab aa3d
00000390: 6ce2 00be 4dc2 8b3d 7742 0ebb 21b9 b53c
000003a0: 36b9 ae3d 60d2 d1bd ea29 7c3d 19ca 01be
000003b0: dc84 19be 1744 d5bd 9aa9 c7bc 432c 29bc
000003c0: 86da 4e3d 59aa 1bbd 64ea 5abe 6c78 93bd
000003d0: 2f59 55be dfd1 8dbe 2fe6 8e3e b9b2 a8be
000003e0: 163e c2be d22f fc3d 1949 7a3d 015b 87be
000003f0: 24a5 2a3c 5ce5 99bb 7c23 6b3a 00fd f43c
0.010241475 -0.21882598 -0.1760312 -0.050192706 0.012578078 -0.18072823 0.045855425 0.08390349
0.17740215 -0.0421171 0.021577304 -0.0072397506 0.0065939017 -0.0070204963 -0.039761238 0.07138628
0.16996883 -0.015149902 -0.035561334 -0.1123834 0.20646273 0.27889135 -0.17649636 -0.018020684
0.03610007 0.039722152 -0.03457343 0.15821184 0.20103994 -0.1270851 0.017117213 0.059165128
-0.055419773 -0.087141156 -0.22635677 -0.10192908 -0.05536569 0.14652972 0.036567487 0.12243222
0.09485663 0.22697943 -0.050309673 0.0030450833 0.059503525 0.03777787 0.17941321 -0.14023204
0.12400163 -0.050507244 -0.37373072 -0.054855037 -0.26000768 0.17166902 -0.06427662 0.029282384
0.018655699 0.008201065 -0.0585246 -0.014176938 -0.11390073 -0.11987428 0.23125532 -0.3095408
-0.013112758 -0.079110704 0.025463602 -0.099794626 -0.13792023 -0.17593858 0.24659857 -0.049014743
0.060959265 0.040249866 -0.49640527 0.07070982 -0.09902324 0.12050784 -0.0060033808 -0.18542506
-0.07355727 0.17448425 -0.097056665 -0.12869489 0.052518744 -0.07761738 -0.062883675 0.06034404
-0.026567765 0.04452833 0.005575444 -0.1845689 0.066739686 -0.08259111 -0.27000865 0.16921681
0.029080834 0.14783432 -0.17299159 0.04409846 0.009100107 0.09718015 0.15056103 -0.46209452
-0.31944138 -0.23549323 -0.117252976 -0.5466662 0.027906232 -0.08105114 0.14176577 0.037197046
-0.12975141 -0.019222673 -0.52879584 0.14395662 -0.38154134 -0.013852198 0.034547456 0.003098913
-0.071626715 0.03148623 -0.11508299 -0.09107758 0.1065518 0.056358986 -0.09519128 -0.20256704
0.2619344 -0.19535762 -0.13312827 0.1785599 0.09528701 0.0030506297 0.075874485 -0.0071743247
-0.037086975 -0.20636484 0.09214258 -0.12214358 0.068352416 0.10493446 0.14209223 0.19074105
0.124324806 -0.16409902 0.062703334 0.08512984 -0.065485835 -0.15124848 -0.20124628 0.437077
-0.22435048 0.13875872 0.15184814 0.17782408 -0.04029361 -0.0029948174 -0.12088078 -0.044235025
0.027539713 0.107483946 -0.058123294 0.0029988186 0.04064511 0.024868554 -0.3000945 0.18450756
0.14642812 -0.19053999 -0.4162561 0.096600614 -0.016816463 0.2119656 -0.033190805 0.04223278
-0.021123921 0.0010252295 -0.10539294 0.12222727 -0.028065456 -0.050108913 0.0314554 -0.06292851
0.07429277 0.20508455 -0.22994463 0.10997106 -0.08120934 -0.08012639 -0.039477695 -0.022545038
-0.020985678 -0.064187355 -0.033668566 0.0177213 0.1692892 -0.010900119 0.101012655 -0.0052998336
-0.13559878 -0.028848333 -0.11906882 -0.0550904 -0.27487046 -0.12860063 0.0020986702 0.09702014
-0.10427237 0.07563388 0.04854753 -0.00070935 -0.15297647 0.14415996 -0.227518 0.09572311
-0.24474788 -0.15509465 -0.027239634 -0.042426903 -0.25113764 0.22744331 -0.09740484 0.19259377
-0.013909816 0.06846939 0.04674893 0.083335176 -0.12586373 0.06824169 -0.0021707097 0.022183003
0.0853142 -0.10245204 0.06156341 -0.1267475 -0.14992088 -0.10413378 -0.024372865 -0.010325494
0.05050137 -0.038004253 -0.21378475 -0.07200703 -0.20834802 -0.2769918 0.2790999 -0.32948855
-0.37937993 0.123138085 0.061104868 -0.26436618 0.010415349 -0.004696531 0.0008969826 0.029905796

conv2.bias f4 [128]
00000000: 449f 24be a1a6 bdbd 577a a0bc 6024 6fbe
00000010: d413 0cbe 6a97 53be d2bc b8bd d44c e33c
00000020: dbfb 04be 7831 6abe d387 a5be 0df0 293d
00000030: 01b8 71be d27b 17be f07b fb3d 68a4 e7be
00000040: 5043 33be 4acd a1be 2796 c03b dade bcbd
00000050: cfdd cbbc fbc7 9abe c926 e43c 41b8 d73d
00000060: 12df 54be d3ff 33be f9f2 50be 3132 eebd
00000070: d80c 0bbe 04e3 0fbe 48f5 4dbe d971 5cbe
00000080: 3926 c7bd f87f 2fbe d20f 0ebe eec7 3cbe
00000090: 8cac 55be d0ef 05be 6d96 04be 18d4 53bc
000000a0: c9de 9c3e 495a 49be aa3b 10be bd6f bcbc
000000b0: 2014 8dbe f63c 083d 89c4 37be 1451 67bd
000000c0: 56dc 0ebe a1d9 9ebe 044f 25be ccb1 16be
000000d0: ed04 1cbe b19a 08be d529 f8bd 12b7 c4bd
000000e0: 90a9 38be c72f fe3c 2c50 3cbe 639a d6bd
000000f0: 992f 90be cef5 d33d 4840 2ebe 7734 70bd
00000100: 0c29 bfbd 1464 59be f542 8e3c 46a2 7ebe
00000110: dab2 82be 37e6 debd 91a5 4bbd 5a5b 41be
00000120: 9fbf b7bd ea70 76be ff8d 64be 9bea 43be
00000130: 26ee a53b 0a0c 1ebe 377b b7be 5249 72bd
00000140: ca1e 74bd 4005 66be 5a81 8bbd 6152 ecbb
00000150: 0e2c e33c ec33 3dbe 9fa7 42be fe4c 1ebe
00000160: cb7c 4cbe 18a0 a0be 929b a03d 0d01 0fbd
00000170: 0880 e53c b182 debd 15a4 87bd 0e31 7cbe
00000180: 28f4 3cbe 4941 4cbe 759f 96be 140c 75be
00000190: 7f49 f4be 23b8 0ebe 40d8 93be a5a6 3dbe
000001a0: 3468 9ebe f68f 84be c13c 563d 17fd d0bd
000001b0: e4fc 56bd 7d12 24be bc82 8bbe 278b 55bc
000001c0: 385d 17bd 4105 0bbe 8522 d2bd e291 c7be
000001d0: 1eb5 37be eb67 28be 2e40 07be 5706 67be
000001e0: b2d4 a43e 2da5 58be 7b24 9cbe eda1 97be
000001f0: 3746 28bd 1aaf 8cbe b86d 0bbe 713e 46be
-0.1607638 -0.092602976 -0.019589586 -0.2335372 -0.13679439 -0.20663229 -0.090203896 0.027746595
-0.129867 -0.22870433 -0.32330188 0.041488696 -0.23605348 -0.14793327 0.122794986 -0.4524262
-0.17506146 -0.31601936 0.0058772746 -0.09222193 -0.02488604 -0.30230698 0.027850525 0.105331905
-0.2078822 -0.17578058 -0.20405187 -0.11630667 -0.13579118 -0.14051443 -0.20113099 -0.21527804
-0.09724087 -0.1713866 -0.13873222 -0.18435642 -0.20866603 -0.13079762 -0.12948008 -0.012928985
0.30638722 -0.19663347 -0.1408526 -0.0230025 -0.27554417 0.033261262 -0.17946066 -0.056473807
-0.13951239 -0.31025413 -0.16143423 -0.14716262 -0.15236254 -0.1334026 -0.12117354 -0.096052304
-0.18033433 0.031028641 -0.18389958 -0.10478666 -0.28161314 0.10349618 -0.17016709 -0.058643784
-0.09334001 -0.21229583 0.017365912 -0.2486659 -0.25527078 -0.10883754 -0.049718443 -0.18882504
-0.08972096 -0.24066511 -0.22319792 -0.19132464 0.00506379 -0.1543428 -0.35836193 -0.059151955
-0.059599675 -0.2246294 -0.06811781 -0.007211969 0.027730968 -0.18476838 -0.19009255 -0.15459058
-0.1996948 -0.31372142 0.07842173 -0.03491311 0.028015152 -0.10864771 -0.06623093 -0.24628088
-0.18452513 -0.1994678 -0.2941853 -0.23930389 -0.47712323 -0.1393743 -0.28875923 -0.18520601
-0.30938876 -0.25891083 0.052304033 -0.10204523 -0.05248727 -0.16022678 -0.2724818 -0.013033665
-0.036954135 -0.13576223 -0.1026049 -0.38978487 -0.17940184 -0.16445892 -0.13208076 -0.22561012
0.32193524 -0.2115676 -0.30496582 -0.29615727 -0.041082587 -0.27477342 -0.13616073 -0.19359757

bn2.weight f4 [128]
00000000: 8c5a 5a3f 6d69 7b3f 0d22 833f 9f62 993f
00000010: c5bd 383f 0080 883f 173e 6b3f 9971 603f
00000020: a579 6e3f 06db 5a3f 2dfc 7d3f aa9e 793f
00000030: 09c3 803f aca1 883f 5cdc 3b3f 2c8a 773f
00000040: 39b3 573f f9e8 713f 1d6f 723f e7b6 2e3f
00000050: 0613 583f b1d7 933f eac4 2e3f 747f 553f
00000060: e77f 7c3f 796f 783f c986 5b3f 2371 813f
00000070: 6e66 6f3f ffe9 313f 6f6d 953f eecf 893f
00000080: a5f0 5f3f cfe9 5c3f 8295 823f 6817 583f
00000090: 7591 7f3f 8b44 623f ffc8 7a3f e31e 8d3f
000000a0: 90be 6b3f d498 513f e62a 853f 1212 7b3f
000000b0: 6634 733f 9822 663f ca6b 833f be3f 723f
000000c0: ed9f 653f 3714 863f bdd4 313f 8820 773f
000000d0: 6ef1 6f3f 491f 403f 8ff0 773f a490 883f
000000e0: 658b 5c3f 0beb 5a3f 026d 523f 1ae2 913f
000000f0: dbfd 873f c6f4 813f 813a 533f d781 4a3f
00000100: ec10 8e3f aa7b 423f 52fe 783f e91b 803f
00000110: c17b a93f c98c 783f 5341 4e3f d2d2 623f
00000120: 73a5 5e3f 9b0f 783f 7962 663f e55a 7f3f
00000130: e067 733f 6c6a 503f 2bd9 803f ac0f 6d3f
00000140: b342 633f 8386 7d3f e6d1 823f 7c30 713f
00000150: 7a57 5e3f c79a 263f 4297 803f c9c3 683f
00000160: 0873 493f e2bc 893f 0c41 723f c2b7 7a3f
00000170: 61c3 6f3f b787 413f f398 6f3f 227d 863f
00000180: 6345 923f 731c 5f3f cd74 8e3f 9013 5c3f
00000190: 7847 a03f 4bf7 643f 7cc1 4f3f ba5f 913f
000001a0: ee76 853f 8338 613f 71ff 593f 80a4 7d3f
000001b0: 0fb5 6e3f c192 6d3f 32a8 753f 04ab 653f
000001c0: d98b 713f d53e 463f 9978 803f ed75 653f
000001d0: b2b0 673f 3b33 783f 4679 543f f8a6 7d3f
000001e0: fb60 733f afc5 803f 81cb 803f eb86 9a3f
000001f0: 2685 823f eebb 973f 58c2 643f c914 553f
0.85294414 0.9820774 1.0244766 1.1983222 0.72164565 1.0664062 0.91891617 0.87673336
0.93154365 0.85490453 0.99212915 0.9750773 1.005952 1.0674338 0.73383117 0.9669521
0.8425785 0.94496113 0.94700795 0.68247837 0.8440403 1.1550199 0.68269217 0.83397603
0.98632663 0.97045094 0.8575254 1.0112652 0.9351567 0.69497675 1.1674021 1.076658
0.8747657 0.86294264 1.0201876 0.84410715 0.99831325 0.8838584 0.97962946 1.1025051
0.9208765 0.8187382 1.0403717 0.9807445 0.9500183 0.89896536 1.026727 0.9462851
0.8969715 1.0474919 0.6946524 0.96534014 0.9372777 0.7504774 0.9685144 1.0669141
0.861502 0.855149 0.8219758 1.1397126 1.0624346 1.0152824 0.82511145 0.7910437
1.1098914 0.75969946 0.9726306 1.0008518 1.3240892 0.9708982 0.80568427 0.88602936
0.86971205 0.9689881 0.8999401 0.9974807 0.95080376 0.81412387 1.0066274 0.9260204
0.8877365 0.99033374 1.0220306 0.94214606 0.8685223 0.6507992 1.004616 0.90923744
0.7869115 1.0760767 0.94630504 0.9793664 0.936575 0.7559771 0.93592757 1.0506938
1.1427425 0.87152785 1.1129395 0.8596735 1.252181 0.8943984 0.8115461 1.1357338
1.042692 0.87976855 0.851554 0.9907913 0.93245023 0.92802054 0.9595977 0.89714074
0.94354016 0.77439624 1.0036803 0.89633065 0.9050399 0.9695317 0.8299755 0.990829
0.95069855 1.0060328 1.0062104 1.2072424 1.0196884 1.1854227 0.89359045 0.8323484

bn2.bias f4 [128]
00000000: 44ea 86bd 5be1 233d 1bab 8ebe 96e5 3d3e
00000010: 578a 57be 3ee6 b93d 9056 29be 4471 7bbe
00000020: 75a7 ee3c 7404 3dbe 3f56 283d 710e 9b3d
00000030: 27cd b13d c69a 3a3a 878c cd3c ed8e 123b
00000040: c340 443d c523 92bd 879c 2c3d d6fb 5abd
00000050: 5bd9 2e3e 39bb 17be fb57 953d 10a6 183d
00000060: 6b54 4d3e 935a f4bd 7ef4 92bc c391 3abe
00000070: 0c18 d93d cecd 4f3d 26c3 aa3d 19fb d63d
00000080: 13d1 42bd 5897 fd3d 11a3 243d 0ed8 213e
00000090: 4f00 b93c 5c13 983d 8662 3c3b 0885 44bd
000000a0: 0475 ccbd 0297 363a 0089 483d 24e9 c93d
000000b0: c089 d9bd 5330 0abe 4f0b 5f3d bcdd 4d3d
000000c0: 7548 8b3d ea83 2fbd 6fc9 b33d b9a0 f53c
000000d0: 510c b5bd 0e37 aa3c 46ae 173d 7118 0fbe
000000e0: 857a d5bb 85c7 3cbd bbb0 9f3c 022b 8d3d
000000f0: 4f1f 1a3d 821a 943d 4689 483a f18e 38bb
00000100: aaca 993d b598 0e3c e983 49be 0fe3 9cbc
00000110: 9375 5f3e 94f6 233e 0282 d43d 10dd 963d
00000120: ea20 c6bc 2ffa 793b 9f05 00be 107c 41be
00000130: 67e0 a03d e8d7 8ebd a41d b83d 6969 c8bd
00000140: c243 3dbe e3d5 553d f5df e83c e423 e63d
00000150: 5024 0ebe 7477 2a3d 16d7 073e 08a4 32bc
00000160: 55f9 18bd b873 28bc fe0c c83c 0d66 6abe
00000170: b3ac 82bd 373f 13bc f78b 123d 9b9a ae3d
00000180: b1c2 1dbd c472 393e 945a 883e 8e5e 9e3d
00000190: bdfc 513d 470b 0f3e 49cc 1dbd e5b0 5bbd
000001a0: 2cad af3d a3d5 9dbd 7568 4d3d d170 953d
000001b0: 7bbf 513d 2bbb a3bd 2f22 343d 5869 e9bc
000001c0: ec1e 1ebe 4648 de3d 147d d53c 435e b83d
000001d0: 9a5a c1bd 3896 9f3d 8bfe d23c 0f64 fe3d
000001e0: 5d95 4dbd 5edd 613d a903 973e e7fd a5bd
000001f0: b376 313e 267e e73d 9d2c 63bc 736b 093d
-0.06587651 0.040009838 -0.27864918 0.18544611 -0.21048866 0.09077118 -0.16536927 -0.24554926
0.029132584 -0.1845873 0.041097876 0.07571114 0.08681708 0.00071184 0.025091423 0.0022363022
0.047913324 -0.07135729 0.042141464 -0.053462826 0.17075102 -0.14817514 0.072921716 0.037267745
0.20051734 -0.11931338 -0.017938849 -0.18219666 0.1060029 0.05073338 0.08338003 0.10497112
-0.04756267 0.12382382 0.040194575 0.15805075 0.022583155 0.074255675 0.0028745248 -0.04797843
-0.099832565 0.0006965251 0.04895878 0.09858921 -0.10621977 -0.13494997 0.054454144 0.05026029
0.068009295 -0.042850412 0.08778655 0.029983865 -0.0884024 0.020778205 0.037031434 -0.13974167
-0.0065148496 -0.046088714 0.019493451 0.06892969 0.037627514 0.072316185 0.000764985 -0.0028161372
0.07509358 0.0087034 -0.19679226 -0.019151239 0.21822195 0.16012031 0.103763595 0.07366383
-0.024185617 0.0038143506 -0.12502144 -0.18894982 0.07855301 -0.069747746 0.089900285 -0.097857304
-0.18482879 0.05220593 0.028427104 0.11237314 -0.1388104 0.041617826 0.13265643 -0.010903366
-0.037347157 -0.010281496 0.024420258 -0.22890492 -0.06380596 -0.00898724 0.035778012 0.085255824
-0.03851575 0.18110186 0.26631606 0.077328786 0.05126642 0.13969146 -0.0385249 -0.053635497
0.08577952 -0.077067636 0.050148446 0.07296909 0.051208 -0.07994684 0.043977913 -0.028492615
-0.15441483 0.10853629 0.026060618 0.09002354 -0.09441109 0.07792324 0.025756141 0.124214284
-0.050191272 0.055142753 0.2949498 -0.08105069 0.17330436 0.11303358 -0.013865617 0.033549737

bn2.running_mean f4 [128]
00000000: 7feb 893f 220a 153f fbda eb3f 89e5 ee3e
00000010: 058c 493f 530e b23f a24d 163f b96a 2340
00000020: 14cf 9c3e c018 933f f7bd c23e 1984 2e40
00000030: bc94 303f e35e 1d3f 7226 0c3f 3774 943e
00000040: 01db a33e b073 e63e dc52 5c3f aa45 1940
00000050: f3d1 2240 4b36 243f 7e8f ae3f f9de 1040
00000060: e795 ae3e f977 0a3f e2dc eb3e 8fa1 9b3f
00000070: e54b cc3e cd1f da3f 9323 813e 3d4b fc3e
00000080: f25f a83f 828b 553f 1a4c 8a3f 3269 663f
00000090: 3907 163f 7dba cd3e 33cd ca3e 7db3 0340
000000a0: 9998 2140 dd16 4f3f 678f 013f 81ba 8b3f
000000b0: a7d0 8f3e 3da6 0240 22ac 363f 2e73 323f
000000c0: 0538 c63e 18c6 683e 77a7 143f 73e8 b93e
000000d0: 29aa b33f d06d 983d d3db 903e a247 cb3e
000000e0: c8b8 513f 95c6 f83f aa38 ae3e 130e 1c3f
000000f0: 6c69 c73e ef82 aa3f 86db 3b3e 6897 543f
00000100: a02b 863e debe 1d3f dc36 1940 dc78 eb3e
00000110: 9326 7e3e 250b fb3e 2cce 0d3f f295 263f
00000120: d4f5 163f 70f4 f33e 0cb3 b83e 1caa 633f
00000130: 9ab0 2e3f d1b3 c33e da33 633f b464 423f
00000140: b376 5c3f 2143 e13e bf13 433f 6c1a 763e
00000150: cb2f b93f ae9a c03e 100f 8f3f dde4 943f
00000160: 1780 e43f ab0e 363f ea40 6d3f db47 c83f
00000170: 9e4c db3e 26ed 173f 7a45 1f3f fa30 a53e
00000180: 8c73 e53e a8c7 9d3f 389e 3c3f 5f6d be3e
00000190: 7592 953f d42f 743f 7bb9 183f 80ca 203f
000001a0: 328c 233f 1e5c 233f 5189 4340 6c87 f43e
000001b0: 9f50 903e a1c9 cb3e cc96 0e3f 1442 873f
000001c0: cae8 d43f 7253 bd3e ff71 483f d146 843e
000001d0: 5d1c 363f 20f5 223e 0712 bb3f f5d5 643f
000001e0: aeac 2e40 f3be 283e b2f1 453f 1720 8f3f
000001f0: 2bf2 863f 0adb b13e 5a27 453f 9ada 613e
1.0774993 0.58218586 1.8426203 0.46659496 0.7872928 1.3910621 0.5871221 2.5533888
0.30626738 1.1491928 0.38035557 2.7268126 0.6897695 0.6147291 0.5474616 0.28994915
0.32003024 0.45010138 0.86063933 2.394877 2.5440643 0.64145344 1.363754 2.2636092
0.3409874 0.54089314 0.46066958 1.2158679 0.39901653 1.7040955 0.25222453 0.49276152
1.315428 0.83416 1.0804474 0.90004265 0.5860477 0.40181342 0.3960968 2.05783
2.5249388 0.8089426 0.5060944 1.0916291 0.28088877 2.0413964 0.71356404 0.69707
0.38714615 0.22731817 0.5806803 0.36310157 1.4036304 0.0744282 0.28292713 0.3970309
0.8192258 1.9435602 0.34027606 0.60958976 0.38947618 1.3321208 0.1834546 0.8304353
0.26205158 0.61619365 2.3939734 0.45990646 0.24819402 0.4903194 0.5539272 0.6507255
0.58968854 0.4764743 0.36074102 0.8893144 0.6823822 0.38223127 0.88750994 0.7593491
0.8611862 0.43996528 0.76202005 0.24033517 1.446771 0.3761801 1.1176472 1.1632344
1.785159 0.7111613 0.92677176 1.5646929 0.42831892 0.59346235 0.6221539 0.3226393
0.44814718 1.2326555 0.7367892 0.3719282 1.168532 0.9538548 0.5965802 0.6280899
0.63885796 0.63812435 3.0552561 0.4775957 0.2818651 0.39802268 0.5569885 1.056704
1.6633542 0.36977726 0.78298944 0.2583528 0.7113703 0.1591382 1.4614877 0.8938897
2.7292895 0.16479091 0.7732192 1.1181668 1.0542654 0.34737426 0.7701317 0.22056046

bn2.running_var f4 [128]
00000000: 6833 9840 71e9 dd3f 940d df40 6d1a 4440
00000010: 93e2 2f40 ff2e 0341 9606 df3f a404 e940
00000020: 76a8 5b3f cd3e 9a40 692b 9c3f cacb 8341
00000030: e66f 9140 7efa 6f40 71a2 0740 11f5 f23f
00000040: 51b6 8e3f 94f6 0240 fd0c 6340 bb67 fb40
00000050: 704a 8d41 a127 5440 5fb1 aa40 8f83 3d41
00000060: d403 9b3f 58cf 2540 1077 f53f d079 c940
00000070: d772 1c40 e397 b140 0f0e 923f 0c96 e93f
00000080: 0f38 9a40 94b7 8240 b874 9140 8488 9440
00000090: 73c6 0c40 1e71 c43f 49e7 833f 6855 1841
000000a0: 073a 2741 b99f 4a40 5f00 db3f 9593 a340
000000b0: 1903 333f 4f6c 0141 4c01 2040 2159 1740
000000c0: 0ac2 2340 4635 ce3f 2d71 0c40 eb19 7d3f
000000d0: 388a d640 de9d 033e 6518 4e3f 3bf3 a33f
000000e0: c8c7 4c40 7141 2541 52cf 493f 6dd5 2b40
000000f0: 1ec8 d03f 5ecb 9f40 0ba7 d23e 2087 3440
00000100: 4d6e a33f 2bad 0b40 921a d140 7d29 b63f
00000110: a735 a73f b8e2 1140 e099 1140 ce50 4440
00000120: fbcf f83f 2380 943f 3c66 7c3f f6ab 5f40
00000130: f6ed 1940 e34f a23f 0355 8140 0e98 0c40
00000140: 1c20 4a40 6540 e93f 0d02 ac40 4da7 4d3f
00000150: 55db a940 7dcc f43f af66 a740 7a04 b740
00000160: 7d62 e140 dc68 4740 ec93 ab40 fb13 9940
00000170: be02 a43f 7351 ca3f 9e48 3d40 dbe2 833f
00000180: 5372 0a40 a76f da40 7866 bc40 6ca7 db3f
00000190: e7c2 3741 caf1 8d40 5709 1f40 170c 3f40
000001a0: 258a 9f40 1bab 3440 b2f6 5741 f1e8 f03f
000001b0: 93c7 6c3f f749 7a3f 08a1 0940 81f9 7d40
000001c0: 0fe9 ec40 080a 1140 3e12 b240 0778 cc3f
000001d0: 9ad7 3040 32f8 2a3f 1340 e640 7aaa a940
000001e0: 7ad9 1941 e97c 153f 6142 9d40 8ce5 c840
000001f0: 7e86 ba40 0a45 1340 34bb 3a40 b614 813f
4.756275 1.7336866 6.9704075 3.064113 2.748204 8.198974 1.7423885 7.2818165
0.85803926 4.820166 1.2200748 16.474506 4.5449095 3.7496638 2.1192896 1.8981038
1.1149389 2.0463 3.5476677 7.8564124 17.661346 3.3149188 5.3341517 11.844619
1.2110543 2.5907803 1.917696 6.2961197 2.4445093 5.549791 1.141054 1.8248916
4.819343 4.0849094 4.545498 4.6416645 2.1996124 1.5347021 1.0304958 9.520851
10.451667 3.1659987 1.7109488 5.1117654 0.699266 8.088943 2.5000792 2.364815
2.5587182 1.6110008 2.1944077 0.9886767 6.7043724 0.1285319 0.80505973 1.2808603
3.1996937 10.328477 0.7883197 2.6849015 1.6311071 4.993575 0.4114307 2.8207474
1.2768036 2.1824443 6.5344934 1.4231411 1.3063248 2.2794628 2.2750168 3.067432
1.9438471 1.1601604 0.985935 3.4948707 2.405149 1.268063 4.0416274 2.1967807
3.1582098 1.8222777 5.3752503 0.80333406 5.308024 1.9124905 5.2312846 5.7192965
7.0432725 3.115775 5.361807 4.783689 1.2813337 1.5806106 2.9575572 1.0303606
2.1632278 6.8261294 5.8875084 1.7160468 11.485084 4.4357653 2.484945 2.985113
4.9856133 2.8229434 13.497728 1.8821088 0.92492026 0.9776911 2.1504536 3.9683535
7.4034495 2.2662373 5.564727 1.597413 2.7631593 0.66784966 7.1953216 5.30206
9.615595 0.5839372 4.914353 6.278021 5.8289175 2.3010888 2.917676 1.0084445

conv3.weight f4 [64, 128, 3]
00000000: f0fb c9ba a1bc 5f3d 2a74 b13d d967 40bd
00000010: 6eeb 553e 3aa0 ab3d 162e 8fbe 213b 1f3e
00000020: 8bc4 6bbe c83a 06be 6885 803c eb5f 6d3d
00000030: 2c81 a7be f3b8 383d cd90 0dbe 255f 0dbe
00000040: 5c19 083e 9da8 83bd 47fa a63c 9124 4f3d
00000050: f349 15be f1c5 553e 20eb 73be 1c9d 383e
00000060: 1d11 f13d e287 fb3d 40f6 d1bc 3943 15bd
00000070: de63 fb3d 7354 393e 6ced 203e a21f 51bd
00000080: bd2e 4f3e b686 b1bd 77ac 9b3b 7abd 103d
00000090: dfc9 3e3e c2c5 8dbb 057a 85be d799 b53d
000000a0: 82fd d7bd 3b60 0cbe e878 06be 0d45 55be
000000b0: ab35 0c3e 7678 c6bd c1ae e33d f232 89bd
000000c0: 4ca3 ee3d 0ecc a3bd d9c4 cf3c d047 313d
000000d0: 39f7 98bb 3a8c d33c 85d6 20be bb20 ac3d
000000e0: 9f6a a53d 196c e93d a12e d6bd 53e9 3ebd
000000f0: dc87 c8bd 1855 86bd 48b3 cf3c 8dcb 50bd
00000100: a2f4 f9bd 25cf 1d3e 4814 4bbe cc44 a13c
00000110: 9eda ab3e 50ea 17be ca37 24be 47b5 423e
00000120: df57 47be 92e3 d0b9 4bf2 d0bd 2f38 fcbd
00000130: d45f ff3d 7368 f93c 36c0 a2be bd9b 75bb
00000140: de7f 423d 6024 153e 7a99 023e 0872 b5bd
00000150: 5104 2c3d 12d4 f63d df7f 61be 8a2e df3a
00000160: 6ce9 163e c82b 04be 9a68 b7bd 6e46 e8bd
00000170: 24b4 58be 3634 ba3d 2891 42be 758c 8ebd
00000180: 8a38 36bd 636e 613d fe82 b2be dac8 0cbe
00000190: 55de a33d d537 0abe e489 eb3d b72e c8be
000001a0: b861 17bd 1e77 b7bd fe93 5b3c 7e79 863d
000001b0: f916 9dbc 4eaa 8bbd 123c 53be c122 a13d
000001c0: 882f 8d3b 8e45 023e ab25 c8bc 0995 b93c
000001d0: 8fd0 493d a2a6 03bf 0583 a23c b430 b6be
000001e0: 4db1 dcbd 6acf 3cbe cf12 d4bd afbd 6f3e
000001f0: 3c8f fabd 3afc 7b3d ddfd 453e fdb5 c03d
00000200: b653 173e cd33 8abe 3fd4 3e3d 536b 093d
00000210: 689c 56bd fd2d 57be c247 c73d ead3 2c3e
00000220: 5630 61bd 4ac8 1ebe 3825 e13b 8d9a 1fbe
00000230: 738f 033d f69f 4ebd 1cbb 2c3e 8597 ef3d
00000240: 4e2a c4bd ebdf ae3c 2b67 e5bd 2379 dd3d
00000250: 8e30 823d def2 cf3b bdf5 2abd c41c 3f3d
00000260: 1d80 eb3d fbd0 5cbd 5722 00be 251d cbbe
00000270: 19a6 cdbd 0792 e33d 5f49 64bd 41db e8bd
00000280: c721 313e 2bbf 3ebc 8cfc c63d 5031 38bd
00000290: 4f0d 9e3e c614 06bc 08cc a53d eb2a 7d3d
000002a0: 7e94 2abe ec48 763e 0652 07bd b5ba e8be
000002b0: c263 193e 7ce2 96be 8292 71bd da96 17bd
000002c0: 0939 0b3d bce9 4ebe 8d9f a8bb 0c8f 42be
000002d0: 3ed8 043e 5be3 24be fab2 d13c 8077 303e
000002e0: 8780 1dbc 5381 553d 8647 91be 4351 593e
000002f0: 3289 1f3c cd8b b1bd c4d5 1dbe 08c8 87be
00000300: bebe 48be 7243 d73d acf1 333e fcd5 49be
00000310: 6c3f 763c 6025 88bd 3951 513d 8990 25be
00000320: 8443 ab3e 3c98 a43c cb7e 58be 97b2 97be
00000330: ce99 36bd af02 953e 76fe 763e 3830 b43d
00000340: c8e4 02be 1adf 75bd 3c6c 833b 4cb4 513e
00000350: 1f8f 443e 4898 25be 74f4 38bd d2fb 4fbe
00000360: ee5e 79bd 5874 73bd 3819 8b3b 059f fdbd
00000370: 6d37 a7bb 945a cb3d 0d79 ecbd 84d0 afbc
00000380: a9d4 2abe 87a5 05be 08b1 c7bd 243e 343c
00000390: ded2 e83e 0c7d a9be a9f4 3c3d f935 583e
000003a0: 9dc8 113e e957 94bd 3cfa f6bc ad09 ffbc
000003b0: 42cc 983d c851 ee3d 1404 533d 2149 c7bd
000003c0: 3638 7fbe 193a 103e 4ebf afbc 05cb 3b3e
000003d0: b920 28be 61af 3f3d 629d 853c 98cf 1a3e
000003e0: 9059 01be 5209 bfbe d0ac 9fbd b9f8 85bc
000003f0: aafe 8ebd 9c18 0cbe c410 cabd 3dfd 80be
-0.0015410166 0.05462325 0.08664735 -0.046974037 0.2089059 0.0838017 -0.27964848 0.155499
-0.23024194 -0.13108361 0.015688613 0.057952803 -0.32715738 0.045098256 -0.13824768 -0.13805826
0.13290924 -0.06428645 0.020383013 0.05057198 -0.1457899 0.2087629 -0.23820162 0.18028682
0.11770842 0.12281777 -0.025630116 -0.03644106 0.122749075 0.18098621 0.1571557 -0.051055558
0.20232673 -0.08668272 0.004750784 0.03533695 0.18631695 -0.004326553 -0.26069656 0.08867233
-0.105464 -0.13708584 -0.1313206 -0.20827122 0.13692348 -0.09690945 0.11117316 -0.0669917
0.1165224 -0.07997905 0.025362419 0.043281376 -0.004668143 0.025823701 -0.15706833 0.0840468
0.08076977 0.11397571 -0.104581125 -0.046609234 -0.09791538 -0.06559199 0.025354043 -0.05097537
-0.12204863 0.1541105 -0.19831955 0.019686125 0.3356523 -0.14835477 -0.16036907 0.19014464
-0.19467114 -0.00039842405 -0.10202464 -0.12315404 0.1246945 0.030445313 -0.3178727 -0.003747686
0.047485225 0.14564657 0.12753859 -0.0885964 0.041996304 0.12052168 -0.22021435 0.001702742
0.14737481 -0.12907326 -0.08955498 -0.113415584 -0.21162468 0.0909199 -0.19000685 -0.06960384
-0.044487514 0.055036914 -0.34865564 -0.13748494 0.08001391 -0.1349786 0.1150091 -0.3909814
-0.036958426 -0.08958267 0.013401983 0.065661415 -0.019175993 -0.068195924 -0.20628384 0.07867957
0.0043086447 0.12721846 -0.024432024 0.022654073 0.049271163 -0.51426136 0.019837866 -0.35584033
-0.10776005 -0.18438497 -0.1035515 0.23412202 -0.12234351 0.06151984 0.19335122 0.094097115
0.14778027 -0.26992646 0.046589132 0.033549618 -0.052395254 -0.21013637 0.097304836 0.16877714
-0.054977737 -0.15506092 0.006870892 -0.155863 0.032119226 -0.05044552 0.16868252 0.11698822
-0.095783815 0.021347007 -0.11201318 0.108141206 0.06356917 0.0063460907 -0.04173826 0.046658292
0.11499045 -0.053910237 -0.125131 -0.39670673 -0.10041446 0.11111837 -0.055734035 -0.11369944
0.17298041 -0.011642258 0.09716138 -0.044968903 0.3086953 -0.008183664 0.080955565 0.061808508
-0.16658208 0.24051255 -0.033037208 -0.45454946 0.14979461 -0.2946967 -0.05897761 -0.037009098
0.03398994 -0.2020635 -0.005145973 -0.1899988 0.12973115 -0.16102354 0.025598038 0.17233086
-0.009613163 0.052125286 -0.2837488 0.21222405 0.0097373 -0.08669243 -0.15413576 -0.265198
-0.19604012 0.10510911 0.17572659 -0.19710535 0.015029769 -0.06647754 0.05110285 -0.16168417
0.33449948 0.020092122 -0.21142118 -0.2962844 -0.044580273 0.2910361 0.24120507 0.087982595
-0.12782586 -0.06002722 0.0040107053 0.20478934 0.19195221 -0.16171372 -0.045155004 -0.20310906
-0.060881548 -0.059437126 0.0042449497 -0.12383846 -0.005103043 0.09929386 -0.11546526 -0.021461733
-0.16682686 -0.13051425 -0.09750563 0.011001144 0.4547338 -0.33103216 0.046131764 0.21114339
0.14236684 -0.0724333 -0.030148618 -0.031132543 0.07460834 0.11636692 0.05151756 -0.09730745
-0.24923787 0.14084662 -0.021453526 0.18339165 -0.16418733 0.046798114 0.016310398 0.15118253
-0.12631822 -0.37311798 -0.07796633 -0.016353952 -0.06982167 -0.13681263 -0.09866479 -0.25193205
