results/arousal/classification/20251226_105418_802006/best_model.pt (torch, 686517 bytes, 16 tensors)

conv1.weight f4 [16, 1, 3, 3]
000000 6f 5b a8 3e 8e ef b6 3e 54 b0 3a bc a5 f6 90 3e
       0.32882258 0.3572964 -0.011394579 0.28313175
000010 84 0a cd bd 98 51 27 3d c8 f1 a2 be 2a 56 f9 3d
       -0.10011771 0.0408493 -0.3182509 0.121746376
000020 86 a2 da 3e 13 3d ab be 53 ad cf 3e 70 04 80 3e
       0.4270212 -0.33445033 0.40561923 0.25003386
000030 5c 4d 2e 3e 60 65 ad 3c c7 3c 80 3e b9 c4 92 bc
       0.17021698 0.021166503 0.2504637 -0.01791607
000040 e2 af b0 3e 69 86 d2 bc 63 a4 3a be fb 9a 43 3e
       0.34509188 -0.025698857 -0.18226771 0.19102089
000050 35 8a 9f bd ea 70 41 be 4a 93 20 be a5 a4 e1 3e
       -0.07790033 -0.1889073 -0.15681186 0.44070926
000060 15 22 58 bd d3 62 75 be 6c 50 2b be 77 39 e9 bd
       -0.05276688 -0.2396348 -0.16729897 -0.11387914
000070 91 90 d5 bd 7f ce ef be a3 7f 77 3e 34 1a aa be
       -0.104279645 -0.46837232 0.24169783 -0.33223116
000080 d9 55 c2 3e 0c f7 4a 3d 57 23 a5 bd d9 be b8 3e
       0.37956122 0.04955201 -0.08063381 0.36083105
000090 b3 2a 81 bd 61 eb d3 3e f7 6b a9 bd 8b 2b 42 be
       -0.06306972 0.41390517 -0.08272546 -0.18961923
0000a0 2a a4 86 3d 5e a4 89 be 90 2c 2c 3c ff ab e3 3e
       0.065742806 -0.26883215 0.010508671 0.4446716
0000b0 59 e4 42 3e 0b e7 05 3d 85 7a 6d 3e 2b 52 df 3d
       0.1903242 0.032691043 0.23191269 0.10904344
0000c0 eb a5 9f 3d fd d4 69 be 41 20 f7 be 73 d3 ad bd
       0.07795318 -0.22835155 -0.48266795 -0.08487596
0000d0 71 92 d2 be 10 ce c4 3e 0a 1a ea 3d 9e a4 2d 3e
       -0.4112735 0.38438463 0.11430748 0.16957328
0000e0 ae da 08 3e 5e 81 11 3d 99 6e bd 3e dc 9d cf be
       0.1336467 0.035523765 0.36998442 -0.40550125
0000f0 95 bf 96 bc 74 92 97 be c6 79 25 3d 87 10 76 bd
       -0.0184019 -0.29603922 0.040399335 -0.060074355
000100 40 0c a5 3c b5 ea b5 bd bb c0 66 3e d9 0f 60 be
       0.020147443 -0.088826574 0.22534458 -0.21881045
000110 0e 5a d1 be c9 e7 bc bd fc 94 ed 3e 37 c3 97 3e
       -0.4088902 -0.09223897 0.4640273 0.29641125
000120 e8 b5 65 3e 3c 35 9e be 4a 00 08 bf 20 ad 6b be
       0.22432673 -0.3089999 -0.5312544 -0.2301526
000130 f1 c4 74 be 73 b5 26 3d 15 28 08 3e 9b 1a fc 3e
       -0.23903252 0.040700387 0.1329654 0.49239048
000140 11 73 cf bd d8 fd 21 be 82 47 95 3e 3a 3d 2d be
       -0.10129369 -0.1581949 0.2915612 -0.16917887
000150 8b c1 25 3e 0c 05 98 3d ae 3e 9f 3e f9 f2 6e be
       0.16187112 0.074228376 0.31102508 -0.23334874
000160 81 b5 d0 be 85 2f 26 3e 27 40 94 3c 5f fb b7 bd
       -0.40763476 0.16229065 0.018096996 -0.08983492
000170 29 2f ed 3e cb 62 3c 3e 6d 97 a0 be aa 81 b0 be
       0.46325043 0.18397062 -0.3136553 -0.34473926
000180 3d 2c 83 3e 8b 99 ef bc 77 a3 33 be 4d 0a 8b bd
       0.2561969 -0.02924802 -0.17542826 -0.06789074
000190 4d 1f a7 be 89 ae 8c 3e 84 4c cf 3c ec 25 8f be
       -0.32641068 0.2747691 0.02530504 -0.2795862
0001a0 3a 58 22 3e 31 1b 95 be 8c 91 e9 be 1f 24 50 be
       0.15853968 -0.29122308 -0.45618856 -0.20326279
0001b0 72 5f 56 be 66 89 6b be b0 bf 06 3f e6 a6 10 3d
       -0.20934847 -0.23001632 0.5263624 0.035315417
0001c0 d1 b1 43 3e 22 33 d8 be b8 09 22 be 64 b7 7f bd
       0.191108 -0.4222651 -0.1582402 -0.062430754
0001d0 10 34 aa bd 99 d8 9c be dd 08 c9 bd 5f a6 95 be
       -0.083107114 -0.30634 -0.09816144 -0.29228494
0001e0 a7 81 5f 3d 47 8b 05 be 81 c9 01 3d fc 0f 1c be
       0.054567005 -0.13041411 0.03168631 -0.15240473
0001f0 6e 6e c5 be a6 30 dd be a8 08 e8 bd 83 c5 a0 be
       -0.38560814 -0.43201178 -0.11329776 -0.3140069
000200 bd 90 cd 3e 08 81 15 bc 88 e3 ec 3e fc 87 2e 3e
       0.4014949 -0.009125002 0.46267343 0.17044061
000210 4a cf 75 be 2d f6 5f 3e 87 f7 3d be 3e e2 05 be
       -0.24004856 0.21871252 -0.18551455 -0.13074586
000220 33 fb d4 be 84 55 a6 be b1 65 20 3e c3 73 cd bc
       -0.415979 -0.32487118 0.15663792 -0.025079614
000230 21 67 8d 3e 04 11 41 be 82 c4 ca 3e aa d2 94 be
       0.27617744 -0.18854147 0.3960305 -0.29066974

conv1.bias f4 [16]
000000 ef 9a b8 ba 68 5d d8 ba 60 3b 9d ba 41 04 2b 3a
       -0.001408426 -0.001650733 -0.0011995845 0.0006523766
000010 9a c1 eb 3a af 4f 76 bb 26 3e ea 3a dc c8 33 3a
       0.0017986775 -0.0037584116 0.0017871305 0.00068582385
000020 63 27 04 ba 1d ad 78 b9 53 1a 20 3b 82 cc 27 ba
       -0.00050412695 -0.00023715613 0.0024429753 -0.00064010185
000030 5a a8 07 bb 48 9b ab 3a 40 dd 50 3b 34 e1 6d ba
       -0.002069971 0.0013092542 0.0031870157 -0.00090743904

bn1.weight f4 [16]
000000 49 ac 63 3f dd 80 6a 3f 6d d1 73 3f d1 93 8e 3f
       0.8893476 0.9160288 0.95241433 1.113886
000010 1f 46 61 3f 48 59 8f 3f c2 16 9b 3f 8a 36 8d 3f
       0.8799762 1.1199121 1.211632 1.1032269
000020 95 01 8d 3f 14 38 7a 3f f9 89 82 3f 8b 9d 44 3f
       1.1016108 0.9774182 1.0198356 0.7680289
000030 ef a8 70 3f 30 40 55 3f 8c 66 89 3f 72 ab 7d 3f
       0.9400777 0.8330107 1.073442 0.9908973

bn1.bias f4 [16]
000000 c0 a4 89 be 80 3f 91 be 0f 34 2c be d2 bd e8 bd
       -0.26883507 -0.2836876 -0.16816734 -0.1136433
000010 61 58 18 be be 88 8e bd 2a aa e8 bd c8 46 96 bc
       -0.14877464 -0.06959675 -0.11360581 -0.018344298
000020 10 89 b6 bd 1d e4 ef bd 03 b8 e7 bd 51 b1 8e bd
       -0.08912861 -0.11713431 -0.11314394 -0.06967414
000030 5a f1 12 be 9c a3 17 be 4d ce 6c bd 11 e4 b8 3a
       -0.14349881 -0.14808506 -0.05781393 0.0014106055

bn1.running_mean f4 [16]
000000 f5 51 d0 3a fb 70 85 3b fd 3f ff ba 00 c8 43 b7
       0.0015893566 0.004072306 -0.0019474026 -1.1669472e-05
000010 b8 f7 4c 3b 29 8a bc bb 52 c7 58 ba d0 80 cf b8
       0.0031275582 -0.0057537747 -0.0008269447 -9.8945224e-05
000020 ec b6 08 bb 9f 8f 2f 3a 19 00 48 ba 6d 6a 81 bb
       -0.0020860983 0.00066971214 -0.0007629409 -0.0039494545
000030 a0 a8 20 bb 58 38 91 bb 45 c4 ef 3b 9c 7f c4 ba
       -0.002451457 -0.0044317655 0.0073170983 -0.0014991644

bn1.running_var f4 [16]
000000 bf 43 1e 3f 59 ef 3f 3f 8c 85 78 3e f9 30 76 3e
       0.6182212 0.7497459 0.24269694 0.24042119
000010 ed 6a d6 3e e0 5a 98 3e fb d8 2d 3e b5 4f 71 3e
       0.41878453 0.29756832 0.16977303 0.23565562
000020 9d 92 e7 3e 78 68 4a 3e 86 10 81 3e 63 eb 7b 3f
       0.45229045 0.19766414 0.2520792 0.98406047
000030 46 04 49 3e 5b 25 9e 3f 99 71 bc 3e ac 6b 95 3e
       0.19630536 1.235515 0.36805418 0.2918371

conv2.weight f4 [32, 16, 3, 3]
000000 a4 44 12 3e 5e 66 8a be da 42 ad 3e 94 79 4b bd
       0.14283997 -0.27031225 0.33840066 -0.049676493
000010 36 0a 44 3c 4d dd 5b be 7f c8 69 be 04 b9 a6 3d
       0.011965325 -0.21471138 -0.2283039 0.08140758
000020 e6 2d 18 3e f7 b3 22 3e 0a fb 2f be 33 75 03 be
       0.14861259 0.15888964 -0.17185608 -0.12837677
000030 75 d6 e7 bd 6e b2 17 be ae 53 51 be 00 43 02 3e
       -0.11320201 -0.1481416 -0.20442078 0.12720871
000040 42 c6 88 be 75 38 ed 3d 4b ae cf 3d c3 03 af bd
       -0.2671376 0.11583034 0.101406656 -0.08545639
000050 be f4 e2 bd 51 c4 c2 3d a2 2c 90 3d bd df 90 be
       -0.11081837 0.09510101 0.07039763 -0.282957
000060 56 8b ee bd 14 61 92 3e 5a 7c 94 3e 6d 06 10 3d
       -0.1164767 0.2858969 0.29001123 0.035162378
000070 66 49 5f 3e 02 54 c4 3d b0 e1 83 bd ad e4 93 bd
       0.21805343 0.09586336 -0.06439531 -0.07221351
000080 09 89 f2 3d 37 5e 60 3e 31 76 6b 3e 66 e5 25 be
       0.11842544 0.2191094 0.22994305 -0.1620079
000090 8d 84 a8 bd 09 3f 2d be 5c 60 1b 3e e6 e7 3c 3e
       -0.08228407 -0.16918577 0.15173477 0.18447837
0000a0 ac fa 0b be 8b 3a c4 3d e5 da c7 3c af f3 fc 3d
       -0.13669842 0.09581479 0.02439637 0.123511665
0000b0 87 0d 44 3e 99 e2 04 3c c4 5b a0 be e1 ee 6a be
       0.19145785 0.008110666 -0.31320012 -0.22942688
0000c0 42 8e 7d bb f3 45 ac be b8 4f 84 bc d3 03 0b bd
       -0.0038689529 -0.33647117 -0.016151294 -0.033939194
0000d0 61 fc aa be c8 55 22 be ab 88 0d be 74 e9 b3 3e
       -0.33395675 -0.15853035 -0.13821666 0.35139048
0000e0 9a b9 1e bc 25 2b 78 3d 82 a7 04 3d f7 cc 60 be
       -0.009687806 0.06058802 0.03238631 -0.21953188
0000f0 6f b4 e3 bd d3 a0 10 bd 90 fe 41 be fa 32 6a 3d
       -0.11118399 -0.035309624 -0.18944764 0.05717752
000100 c3 6c de bc 2d a1 d6 3d 91 45 1f 3e 90 15 8e bb
       -0.027151471 0.104799606 0.15553881 -0.0043360665
000110 10 08 a1 be 64 31 b7 bd b2 3b d5 bd 4c 36 9d 3e
       -0.31451464 -0.089449674 -0.104117766 0.30705488
000120 e4 e9 79 3d 60 c4 73 3d 70 27 45 bd 00 5b 34 bb
       0.06101407 0.05951345 -0.048133314 -0.002752006
000130 37 e6 e8 3c 11 16 8a be c6 5a ce bd 9a 5e b5 be
       0.028430087 -0.2696996 -0.100759074 -0.35423738
000140 85 ed 5b 3e 8f ec 93 3c cc 4c 3f bd 53 28 35 be
       0.21477325 0.018057136 -0.0467041 -0.17691164
000150 a0 a1 48 3c be 40 3b be 44 d3 6d be 93 55 99 3a
       0.012245566 -0.18286416 -0.23225123 0.0011698477
000160 30 76 3d be 66 01 83 3e 0e 0c 80 be d9 d4 24 bd
       -0.18502116 0.25587004 -0.25009197 -0.04024205
000170 97 66 28 be a8 59 0e bd 91 ae 8d 3b 1e df 02 be
       -0.16445385 -0.03475347 0.0043237885 -0.12780425
000180 6b f4 26 3e 6c c1 74 be aa 70 06 3e c7 54 ef bd
       0.16304176 -0.2390191 0.13128915 -0.11686092
000190 be 66 14 3e b5 a7 1e bd 62 b6 17 3e 5e b5 83 be
       0.14492318 -0.038734157 0.14815667 -0.2572431
0001a0 ca a7 ab 3d a5 90 2d 3e 65 0d d6 3c 96 90 0d 3e
       0.083816126 0.16949709 0.026129434 0.13824686
0001b0 30 37 57 be 28 6e ec bd f5 e1 0b 3e b8 bb 6f be
       -0.21017146 -0.11544448 0.13660415 -0.23411453
0001c0 14 bd 1f 3e 1e b0 88 3d dd b0 32 3e a8 da ad bd
       0.15599471 0.06674217 0.1745028 -0.08488971
0001d0 8a f1 14 be 95 21 2d bc 64 59 25 bd 0b 40 75 be
       -0.14545265 -0.010567089 -0.040368453 -0.23950212
0001e0 aa 97 44 3d 34 44 8f 3d ce f4 01 3e bf 61 4c be
       0.0479962 0.069954306 0.12691042 -0.19959162
0001f0 69 d2 44 3e 83 18 96 3d bc 26 2a be 15 86 d3 3d
       0.1922089 0.07328894 -0.16616338 0.103283085
000200 b9 95 5b 3e 40 d5 51 bc 81 53 97 be 93 d0 48 be
       0.21443833 -0.01280719 -0.29555896 -0.19610815
000210 2d 2f 92 bc 08 e7 a3 be 72 53 83 3e 8b 4e a9 bd
       -0.01784476 -0.320122 0.256496 -0.08266934
000220 33 64 15 3a 0c 60 da 3d e0 20 6a bd 3b 16 04 3e
       0.000569883 0.10662851 -0.05716026 0.12899105
000230 90 4d 39 bc a3 b8 ac bd 5d b0 96 bd 67 92 8b be
       -0.011309996 -0.08433654 -0.073578574 -0.27260134
000240 75 7e 27 3e e1 d1 81 3d 92 66 56 bd 99 f2 7a 3c
       0.16356833 0.06338859 -0.052343912 0.015316629
000250 31 ca 74 be 69 e2 40 3e 55 14 0a 3e a5 09 f0 3d
       -0.23905255 0.18836369 0.13484319 0.117205895
000260 ce ac ab 3d d0 68 1d 3e 48 db 3d 3d b8 e0 15 3e
       0.08382569 0.15372014 0.0463517 0.14636505
000270 96 c3 b2 bd 35 bd 3e 3e 84 e0 30 bd c0 e9 91 3d
       -0.08728711 0.18626864 -0.043182865 0.071246624
000280 87 c3 8b be 42 f8 02 be ba 52 a5 3d 6e 9d d8 bd
       -0.27297613 -0.12790015 0.080724195 -0.10576902
000290 0a e0 c3 be cf 77 b4 3b 40 7c 81 bd eb 3f 25 be
       -0.38256866 0.0055074464 -0.06322527 -0.16137664
0002a0 70 ed 8b be 6e 69 8a bd 6d e0 2b 3e ad 34 23 bd
       -0.27329588 -0.0675839 0.1678483 -0.039845157
0002b0 3e da 97 be 47 b4 7b be 65 b1 22 3e 64 1e e4 be
       -0.29658693 -0.24580489 0.15887983 -0.44554436
0002c0 b8 78 25 3d 5c 47 57 bd e0 84 6a be 75 30 f8 ba
       0.04039833 -0.052558288 -0.2290225 -0.001893534
0002d0 9c 53 b5 bc 64 08 c1 bc 83 d8 8d bd 3e c7 60 3c
       -0.022134595 -0.023563571 -0.06926062 0.013719378
0002e0 06 8e ca be a9 84 38 3e e2 6e 78 3e 33 66 b0 bd
       -0.3956148 0.18019356 0.24261048 -0.08613243
0002f0 01 38 a5 be c8 35 5a bd 10 cc 2d be d6 5f 8f 3d
       -0.3226929 -0.053273946 -0.16972375 0.07000701
000300 0e 2e a5 bd cf 56 30 3e 89 c4 27 bf 32 96 22 3e
       -0.08065425 0.17220615 -0.65534264 0.15877607
000310 6c 3e e1 3d 92 5a 1c 3e 7e 1c ac be bf a6 a0 3e
       0.10998234 0.15268925 -0.33615488 0.31377217
000320 aa 8a 1e 3e 03 ad 41 be b3 4f e1 bd 74 ab 1f be
       0.15482584 -0.18913655 -0.110015295 -0.15592748
000330 71 d5 e7 3c 99 ac 9b bc 69 ec b4 bd d5 f5 06 be
       0.028300019 -0.0190032 -0.08834154 -0.13179715
000340 b8 62 21 be db df 9e bd a8 7c b6 3d f3 70 93 bd
       -0.15760314 -0.07757541 0.08910495 -0.07199278
000350 8c d1 c7 be 12 64 39 bd 5f b1 ba bc 07 5c b3 be
       -0.3902706 -0.04526145 -0.022789655 -0.3503115
000360 15 e7 3a 3e df 45 1b be ea dd a2 3e 63 01 70 3d
       0.18252213 -0.15163372 0.31809932 0.058595072
000370 82 c6 2f bb 21 df e8 bc c4 11 70 3d e2 aa e9 bc
       -0.00268212 -0.028426709 0.058610693 -0.028523866
000380 84 a9 f5 3d 6b 4b e2 3d eb ae 0d 3b 71 98 41 be
       0.11995223 0.11049541 0.0021619152 -0.18905808
000390 16 3c 13 3d b8 e2 06 be 7e 2d 1c 3e 68 60 05 be
       0.035945974 -0.13172424 0.15251729 -0.13025057
0003a0 0b a3 f7 bb 11 b2 96 3d 0f 5a 0c be b8 f9 82 bc
       -0.007557278 0.07358182 -0.1370623 -0.015988216
0003b0 7b 74 60 bd fc c3 92 3c 15 2e 07 be 3b 1a 2a be
       -0.054798584 0.017915718 -0.13201173 -0.16611569
0003c0 42 b9 93 bd 33 e8 50 3e 95 fb fa 3d 02 f7 40 3c
       -0.072130695 0.20401077 0.12255017 0.011777641
0003d0 fb 1f 4e be c6 e2 37 bd bc 0e 46 bd e6 4b 18 3c
       -0.20129387 -0.044894002 -0.048353896 0.009295439
0003e0 ba e6 03 3d 67 da c5 bb 6d f2 ef 3c 6c b6 8b 3e
       0.03220246 -0.0060379985 0.029290402 0.27287614
0003f0 ac 30 02 3e 3f a0 cb 3d 85 13 a7 3a a1 3e 96 3d
       0.1271388 0.09942674 0.0012746906 0.07336164

conv2.bias f4 [32]
000000 0f 4e e4 39 6a 05 a1 b9 2e be b7 b9 a2 45 4f 3b
       0.00043545707 -0.00030712347 -0.00035046175 0.0031627198
000010 4c f7 8d ba b4 f3 e3 38 1f c8 fa b9 d8 fc 95 ba
       -0.0010831147 0.00010869597 -0.00047832818 -0.0011443151
000020 00 ae ad b5 22 26 21 bb 2a b7 b6 3a 19 d0 96 3a
       -1.2940145e-06 -0.002458938 0.0013940085 0.001150611
000030 00 71 80 3a f4 4c 47 ba 11 92 28 3a 5e f0 05 3a
       0.0009799302 -0.00076027145 0.0006430457 0.0005109365
000040 5e 4b df b9 af 94 82 ba 72 10 ea 3a 65 75 4b 39
       -0.00042590027 -0.0009962524 0.0017857684 0.00019403321
000050 56 12 1b 3b 37 e9 8a ba 16 ce 79 b8 3c 71 98 37
       0.0023662052 -0.0010598068 -5.955816e-05 1.817254e-05
000060 8a 3d 7c ba 92 b9 6e 39 a9 e5 72 b9 8e af 9f 39
       -0.0009622207 0.00022766579 -0.00023164474 0.00030457642
000070 7c 81 ce 3a cc 9e 38 b9 b3 da c8 ba 8b 18 bc 3a
       0.0015755142 -0.00017606764 -0.0015323967 0.0014350576

bn2.weight f4 [32]
000000 9c 32 08 40 c3 bd 09 40 1c 5f fe 3f 07 80 0f 40
       2.128089 2.1522071 1.9872775 2.2421892
000010 f4 74 07 40 52 df 02 40 96 06 0d 40 5d ff 05 40
       2.1165133 2.0448804 2.203527 2.0937111
000020 3b 50 04 40 94 a7 fb 3f 06 a8 f7 3f 30 2a fa 3f
       2.0673969 1.9660516 1.9348152 1.9544125
000030 95 79 03 40 73 e7 f4 3f 7a 0f 04 40 e8 b7 06 40
       2.0542958 1.9133133 2.0634446 2.1049747
000040 f9 13 f8 3f e0 b9 07 40 fa ce 13 40 a6 92 0c 40
       1.9381095 2.12072 2.3095078 2.1964507
000050 aa 45 0c 40 fa 27 00 40 7a 00 01 40 20 02 08 40
       2.191752 2.00244 2.015654 2.1251297
000060 75 25 09 40 3b 10 0d 40 59 7d ff 3f 13 34 f5 3f
       2.1429112 2.2041156 1.9960128 1.9156517
000070 63 c4 09 40 c4 c2 0e 40 cd 07 0c 40 11 2d 06 40
       2.1526115 2.2306376 2.1879761 2.0965006

bn2.bias f4 [32]
000000 b4 b5 46 bf 97 a2 64 bf b8 2c 8d bf 35 e5 75 bf
       -0.77621007 -0.8931059 -1.1029272 -0.9605287
000010 a0 30 88 bf 1f c4 74 bf 42 c1 84 bf 09 80 8c bf
       -1.0639839 -0.9561176 -1.0371478 -1.0976573
000020 b8 ee 59 bf 0a 7e 8e bf 2e b4 75 bf 44 66 57 bf
       -0.8512988 -1.1132214 -0.9597806 -0.8414042
000030 1b be 70 bf 56 5f 83 bf 29 9b 56 bf 89 38 91 bf
       -0.9404008 -1.0263469 -0.83830506 -1.1345378
000040 e5 c5 a3 bf f4 9c 72 bf d3 43 71 bf 95 1e a6 bf
       -1.2794768 -0.9477074 -0.94244117 -1.2978083
000050 d6 c7 54 bf f7 41 8b bf 95 8f 8c bf f8 da 58 bf
       -0.83117425 -1.0879506 -1.0981318 -0.8470912
000060 a9 3b 5c bf 51 be 6b bf 16 6d 7a bf 2b fe 55 bf
       -0.86028534 -0.92087275 -0.978227 -0.83590955
000070 53 d1 96 bf fc 03 6d bf a9 ca 5c bf bb c1 99 bf
       -1.1782631 -0.92584205 -0.86246735 -1.2012247

bn2.running_mean f4 [32]
000000 80 e7 8f bf c0 05 65 bf 34 71 8b be 09 3c 88 bf
       -1.1242523 -0.894619 -0.27234805 -1.0643321
000010 28 1e 88 bb b0 e2 23 bf 28 a3 3f be fa 84 d0 3e
       -0.0041539855 -0.6401777 -0.18714583 0.40726453
000020 f1 86 45 bf 71 78 13 3f 2d 55 a8 be 0a 59 46 be
       -0.7715903 0.57605654 -0.32877484 -0.19369903
000030 e6 72 c2 be 47 0c 9b 3c 09 d1 2a bf 39 ad dc bd
       -0.37978286 0.018926753 -0.6672521 -0.10775227
000040 d1 8c 78 3f 75 21 3e bf 7c 69 98 bf 20 4f 11 3c
       0.9708987 -0.742698 -1.1907191 0.0088689625
000050 56 97 a3 be 28 4f 1f 3f 0a 26 e4 be 04 78 a2 bf
       -0.31951398 0.6223016 -0.44560272 -1.2692876
000060 5c 51 6c bf 8d a8 48 bf 70 73 38 3f 91 24 0b be
       -0.92311645 -0.7838219 0.72051144 -0.13588168
000070 13 4f 19 3e 09 52 2d bf a6 50 70 bf 63 cb 8c 3e
       0.1497157 -0.677033 -0.9387306 0.27498922

bn2.running_var f4 [32]
000000 2d bc 63 3f ee 46 76 3f fc 3e 06 3f c4 bc 42 3f
       0.8895901 0.9620198 0.52439857 0.76069283
000010 5c 8f 37 3f af ed 30 3f af ea 51 3f de 0c 1f 3f
       0.71703124 0.69112676 0.81998724 0.6212901
000020 67 69 37 3f 63 76 29 3f 8f d7 15 3f ed 98 48 3f
       0.71645206 0.6619627 0.5853204 0.78358346
000030 21 dd 0a 3f 23 4b 25 3f 0e 8b 40 3f 66 ef 27 3f
       0.54243666 0.64567775 0.7521218 0.6559967
000040 93 f6 12 3f 98 81 55 3f 73 16 59 3f 99 74 33 3f
       0.5740749 0.8340087 0.8479988 0.7009979
000050 ce 9e 26 3f f0 ea 0a 3f 4c 49 0e 3f cc 6e 6e 3f
       0.65086067 0.54264736 0.5558059 0.9313781
000060 9b b6 3b 3f 8e 44 37 3f 4c 81 72 3f b8 8e 43 3f
       0.7332551 0.7158898 0.9472854 0.76389647
000070 cd 29 fa 3e c5 d3 0c 3f 72 42 38 3f a8 a4 d3 3e
       0.48860016 0.55010635 0.7197639 0.4133656

fc1.weight f4 [128, 1280]
000000 82 f0 b5 3c 39 c0 fa 3d b5 c7 3a be 81 ef 45 3e
       0.02220941 0.12243695 -0.18240245 0.19329645
000010 85 89 1c 3e bb fe f2 bc 31 75 90 be 77 b2 97 be
       0.15286835 -0.02966248 -0.2821441 -0.29628345
000020 ed 7a 02 3f 6e 14 f4 3d 6c d1 68 bd 42 9c 67 3e
       0.5096882 0.11917959 -0.056840345 0.22618201
000030 84 cb a6 3d 70 94 8e 3e 32 68 a4 be 51 11 88 3b
       0.08144286 0.27847624 -0.32110745 0.004152455
000040 32 a9 0a be 14 ce ea 3d d8 f7 1a be 06 7d 8c 3c
       -0.13541105 0.114650875 -0.15133607 0.01714946
000050 97 01 aa 3d ac 2a 39 bd 01 f8 91 bd a9 d6 dd bb
       0.083010845 -0.04520671 -0.07127381 -0.0067699743
000060 74 0b 84 3d c0 a6 4b bd 5d 71 86 3d 98 a9 71 be
       0.06447497 -0.049719572 0.06564591 -0.23599851
000070 16 90 b7 bc 34 93 bb 3d d2 0b 9a 3b 92 dd 44 3b
       -0.022407573 0.09158936 0.004701116 0.0030039293
000080 15 ec ba bd 5d 5f 07 bf 91 91 e8 3d 09 37 98 bc
       -0.0912706 -0.5287989 0.113558896 -0.01858093
000090 f0 f8 3b 3d 2c 46 f5 bd ae d0 08 be 41 e6 b6 3d
       0.045891702 -0.11976275 -0.13360855 0.08930636
0000a0 8a 8f 0e be d3 32 24 3d c6 b1 0c be 45 0b 1f be
       -0.13921943 0.040087532 -0.1373969 -0.15531643
0000b0 42 2b c3 3d 77 1e 5c be af 8b 1b be 02 96 67 be
       0.09529735 -0.21495996 -0.15190004 -0.22615817
0000c0 88 30 60 3d 57 81 6f 3d 4d 4a 0a be 8d 11 e9 bd
       0.054733783 0.058472957 -0.13504906 -0.11380301
0000d0 77 69 44 bd 2d ba ae be 8d c9 d8 3c f4 6f 33 3e
       -0.04795214 -0.34126416 0.026463294 0.17523175
0000e0 96 d3 9e 3d ac 54 94 3e 53 28 9d 3e 31 ce 17 be
       0.077552006 0.2897085 0.30694827 -0.1482475
0000f0 99 bc 6f 3e 91 61 40 bd aa 06 63 3e a4 12 d4 bd
       0.23411788 -0.046968047 0.22170511 -0.10355118
000100 30 ec d0 3d 71 4d 27 be bd 1b 0f 3e 93 c9 4c 3e
       0.10201299 -0.16338135 0.13975425 0.1999877
000110 5c 98 6a 3e 12 b1 3f 3e d2 b7 04 3e 47 7b e1 3c
       0.22909683 0.1871989 0.12960747 0.027524604
000120 9b 17 23 3e cf 40 84 3d 58 bc 56 bc 60 aa d6 bd
       0.15926974 0.06457674 -0.013106428 -0.10481715
000130 03 cf 11 bd 3e eb 66 3b 30 3d 29 be aa 97 b4 3e
       -0.035597812 0.003523543 -0.16527247 0.3527196
000140 4f 0a 07 be 88 ef 88 3e 89 bd 2a bd 62 94 b7 be
       -0.13187526 0.26745248 -0.04168466 -0.35855395
000150 35 f3 1c be 3e bb 86 3d 98 98 32 3e 97 fa ad 3d
       -0.15327151 0.06578682 0.17441022 0.08495062
000160 0d 73 1d bd 29 ce 6b 3e cb 1d ce 3d 6c 10 dc 3d
       -0.0384398 0.23027863 0.10064276 0.1074532
000170 70 ef 3c 3e 63 ac 0f 3e ad 70 21 3d 7d e9 73 3d
       0.18450713 0.14030604 0.039414097 0.059548844
000180 d9 e6 e9 bd a5 a8 f1 3d 2f 8f 3b 3c b6 b0 d2 be
       -0.11420984 0.117997445 0.011447712 -0.41150445
000190 3e f7 f4 be 51 55 a4 bd 91 1d 47 3e 04 0c a9 bd
       -0.4784488 -0.08024085 0.19444872 -0.08254245
0001a0 ab c7 c8 3d 58 3f 1d 3d a3 ce c0 3d d1 fb 67 3d
       0.09803709 0.038390487 0.09414413 0.056636635
0001b0 f7 a0 24 be de 19 09 be 81 8e a9 bc 71 c6 b1 3d
       -0.16077028 -0.13388774 -0.020697834 0.08680428
0001c0 4a 1d ce 3d 88 db cd bd d8 97 93 3d 74 91 52 bd
       0.1006418 -0.10051638 0.07206696 -0.051408246
0001d0 7e 20 b1 3d 98 dc 5d 3e 9d b3 52 3e db 2a 46 3e
       0.086487755 0.21666181 0.2057633 0.19352286
0001e0 51 28 99 3a 72 6e 0c 3d 08 d4 7e 3d 07 01 0a 3d
       0.0011684989 0.034285016 0.062213928 0.033692386
0001f0 7c c2 f0 3d 74 9d ea bd 89 7e 62 3d 8a 12 ca 3c
       0.11755845 -0.11455813 0.055296455 0.024667043
000200 51 3e a7 3d 97 07 61 3e 95 8f 5a 3d 2d c2 a1 be
       0.08166183 0.21975552 0.053359587 -0.31593457
000210 79 7e 19 3e 44 25 2a 3d 14 87 4c 3d b8 ae d3 3d
       0.14989652 0.041539446 0.049933508 0.10336059
000220 b9 45 dd be a0 6e 75 3e 59 d6 14 3e cf 38 10 3e
       -0.43217257 0.23967981 0.14534892 0.14084171
000230 8d c5 b4 3c 37 33 0a be 99 62 0a be dc 26 de 3d
       0.022066856 -0.134961 -0.13514175 0.108472556
000240 73 71 c7 3c 08 81 d3 bc 16 ae a7 3e 45 dd 8d bc
       0.024346089 -0.025818363 0.32750005 -0.017317424
000250 27 36 43 be c7 12 f7 bd cc 39 2a be e9 aa 77 3e
       -0.19063626 -0.12064128 -0.1662361 0.24186291
000260 dc a3 de 3c 80 4c 43 be b0 40 aa bd d2 d4 1e be
       0.027177744 -0.19072151 -0.083131194 -0.15510872
000270 75 05 c1 bc ad 94 09 3e fb dc 2d 3e 4c 0a 87 bd
       -0.023562172 0.13435622 0.16978829 -0.06593761
000280 7c 7a 3e 3e 72 f6 c3 3d 1a 20 e8 3d d2 1c af bd
       0.18601412 0.0956849 0.11334248 -0.08550419
000290 28 5f 52 be da 1c dd 3d 05 d3 9f be de be 24 be
       -0.20544112 0.107965186 -0.31215683 -0.16088435
0002a0 3c 4b 6b bd cc 2f f3 3d 77 58 f4 3d 52 c8 78 3e
       -0.057444796 0.11874351 0.11930936 0.24295166
0002b0 56 62 95 be 3b 3b 8d bd fe 8a 81 bd e1 35 33 3e
       -0.29176587 -0.06896063 -0.06325339 0.17501022
0002c0 3f 11 f4 bc 6e 2c b4 3d ca 78 07 be 33 ad 58 3b
       -0.02979338 0.08797537 -0.13229671 0.003306222
0002d0 58 b0 83 3d 1b 17 fb bd 53 8f b4 3d 5a 29 9f bd
       0.06430119 -0.122602664 0.088163994 -0.07771559
0002e0 e7 72 74 be 42 aa 20 be fc 9a a6 3e 26 91 ec 3d
       -0.23871957 -0.15689948 0.3254012 0.11551122
0002f0 f3 4a f1 bd 6a c4 4a 3e 6e de 71 3d d6 0e 95 bc
       -0.117818736 0.19801489 0.059050016 -0.01819555
000300 88 72 d2 bd d3 bc a1 3c 11 c3 a3 3e 17 1e b5 3c
       -0.10275751 0.019743359 0.3198476 0.022109075
000310 65 59 00 be 19 99 75 3e a6 fd 57 be 57 7f 62 bd
       -0.12534101 0.23984183 -0.21092853 -0.055297222
000320 cd bd 70 bd c1 0f 85 3e 40 11 ed 3c 9c f1 08 3e
       -0.058774758 0.25988582 0.02893889 0.13373417
000330 7a 67 c5 bc f4 39 c3 bd 9c ee ba 3d e2 ce 17 3e
       -0.024097193 -0.09532538 0.091275424 0.14825013
000340 a8 8b 97 3d 58 34 8a 3c 7a 69 4d be 32 0e d0 bd
       0.07399684 0.016870663 -0.20059767 -0.101589575
000350 48 6b 15 3e 84 1d 02 bd ba de 2f bd 87 e6 ad bb
       0.14591706 -0.03176643 -0.042937018 -0.005307022
000360 00 6b cf bd ab 06 49 3e 98 c2 2e 3d 16 62 c8 3d
       -0.101278305 0.1963145 0.042666048 0.097843334
000370 32 58 18 3d ba cc 28 3e 8d 3b e1 bd ec ef fc bb
       0.037193485 0.16484347 -0.109976865 -0.0077190306
000380 d2 aa b8 bd c4 82 46 bd 77 91 29 bd 74 50 c0 3e
       -0.090169564 -0.04846455 -0.04139849 0.3756138
000390 1f a5 81 3e c6 a0 81 be a2 1b 28 be 77 c6 df bc
       0.2532129 -0.25317973 -0.16416791 -0.027316315
0003a0 a5 a3 3d bd a4 00 5c 3e bc a8 ec 3d b0 d1 00 3e
       -0.04629864 0.2148462 0.11555621 0.1257999
0003b0 81 f7 81 3d 6e bb e3 3c 2e d9 35 be bc 73 bd be
       0.06346036 0.027799334 -0.17758629 -0.3700236
0003c0 77 4a 09 be 47 a5 2c 3e 70 b5 a3 bd b8 5a 20 3e
       -0.13407312 0.16859923 -0.07993591 0.15659606
0003d0 85 15 b8 3e 8d 92 df 3d 8c aa f5 bc 49 aa 8b 3d
       0.35953918 0.10916624 -0.02998855 0.06819589
0003e0 28 71 02 3d 94 d5 08 be 98 c7 88 be f0 2f ee bd
       0.031846195 -0.13362724 -0.26714778 -0.11630237
0003f0 de 6f ab 3e 53 ca 0b be 2b 48 31 3e 02 55 56 3e
       0.33483785 -0.136514 0.17312686 0.20930865

fc1.bias f4 [128]
000000 37 3c 49 3d 20 78 20 3d bd f0 14 bd e4 11 3e 3d
       0.04912969 0.03917706 -0.0363624 0.04640378
000010 e8 c2 be bd da 91 4c 3c b5 26 91 bd 7b 64 41 3d
       -0.09314519 0.012485946 -0.07087461 0.047214966
000020 2d 37 3c 3e f7 cf 1d bd f7 7f 32 3d 0c d3 74 bc
       0.18380423 -0.03852841 0.043579068 -0.014942896
000030 14 41 d9 bc bb 9c 0c 3d 56 44 55 bd c6 8e 3c bd
       -0.02652029 0.034329157 -0.052067123 -0.046034597
000040 e9 21 8d 3d 38 5e 79 bd ff 10 e3 3d e2 da 87 bd
       0.068912335 -0.06088087 0.11087226 -0.066335455
000050 d7 75 0c 3d aa 04 a1 bd 8f ea 4c bd 52 19 79 bd
       0.03429207 -0.07862218 -0.05002838 -0.060815163
000060 b5 9f 80 3c c7 07 ab bd 75 e3 28 bd a7 01 c4 bc
       0.015701154 -0.08351093 -0.041232545 -0.02392657
000070 ca e6 b7 bd 8d 0d 31 bb 02 cd 1b 3c d3 90 76 3c
       -0.089795664 -0.0027016134 0.009509327 0.015049177
000080 44 7f 5c 3b 7d 4c 9a 3d cf c4 7e bd 56 c9 19 bc
       0.0033645192 0.0753412 -0.06219941 -0.009386381
000090 99 88 30 3d 81 65 90 3c ce 34 34 3c 9d 7b 66 bd
       0.04309902 0.017626526 0.010998918 -0.05627023
0000a0 0f d4 dd b9 0d 81 72 bb f4 b9 8c 3d 4c c9 20 3d
       -0.000423104 -0.003700319 0.06871405 0.03925447
0000b0 57 9f 5f 3d 29 ee 62 bd 89 48 73 bd c3 4e 23 bd
       0.054595318 -0.05540291 -0.059395347 -0.039870035
0000c0 43 0b 8a 3c 9e 82 c0 3c 76 f4 36 bd ff 50 d5 bc
       0.016851073 0.023499783 -0.04466673 -0.026039599
0000d0 b4 50 1b 3c ff 5c 1f bc 93 14 13 bd ca 24 ec bd
       0.00947969 -0.009726762 -0.035908293 -0.115304545
0000e0 bb 82 ad 3c 1c 90 85 3c 66 29 04 bd be 8b 21 b9
       0.021180501 0.016304068 -0.032266043 -0.00015406215
0000f0 83 5f 12 3c 27 ed cf 3d f9 b7 5a 3d ea 31 d4 bc
       0.008933905 0.10152655 0.053398106 -0.025902707
000100 98 8a 20 bd 57 7a 05 3d f3 51 5c bd 62 36 94 bd
       -0.039194673 0.032587375 -0.05378909 -0.07236935
000110 52 02 e0 3d 7e 5e d9 bb c4 9a bb bd a8 cb 4e bd
       0.109379426 -0.006633579 -0.091603786 -0.05048719
000120 c1 3c 25 3d e6 f5 c6 3d 6d a8 32 bc 02 5c dc 3c
       0.040341143 0.0971487 -0.010904414 0.026899341
000130 8d bd d1 3b 39 4c e2 bc bd dc 81 bb a9 c5 a2 3d
       0.00640077 -0.027624236 -0.0039630816 0.07947857
000140 08 5e 2b 3c 0d dd 8f 3d af e8 8b bd ea 04 d8 bc
       0.0104594305 0.07024584 -0.0683149 -0.02636953
000150 61 c5 b1 3b 5e 08 f1 3b a8 a7 79 3d 84 f3 d4 3a
       0.0054251407 0.007355734 0.060950905 0.001624689
000160 a3 4e f5 bc ac 59 00 3d 0c ee 01 bd 50 8c b0 bd
       -0.029944723 0.031335518 -0.03172116 -0.086205125
000170 a1 7a 0a 3d 8a 3e 9c 3c 98 9a b3 bc f7 24 60 bd
       0.033808354 0.01907279 -0.021924302 -0.054722752
000180 7a 52 6d 3c bd f2 bc bb 9d de df bc 34 dc 20 3d
       0.014484996 -0.0057662413 -0.02732783 0.039272502
000190 ce 20 90 bb 9d a2 12 3d c2 91 a7 3c b8 24 3e 3c
       -0.004398442 0.03579961 0.020455245 0.011605434
0001a0 7c f2 98 bd 23 9c 94 bc 80 c2 51 ba 6e c1 ac 3c
       -0.07468125 -0.018140858 -0.00080017 0.021088328
0001b0 03 c2 8c 3d 02 36 12 bd 94 9b 41 3c 60 33 f8 ba
       0.06872942 -0.035696037 0.011816878 -0.0018936209
0001c0 c2 79 78 3d 0d a2 7f bd 7a b5 1a bc e8 9f 19 b8
       0.060662992 -0.062410403 -0.009442681 -3.6626967e-05
0001d0 4b 8e 68 bd 17 f3 11 bc 16 c5 72 bd 8f 43 72 3b
       -0.056776326 -0.008908055 -0.059269987 0.0036966538
0001e0 48 29 04 bd 15 4d 91 bb 73 2c 90 bd 9a d8 64 bd
       -0.03226593 -0.0044342377 -0.07039728 -0.05587063
0001f0 b4 7e 74 3c 56 96 46 3c 5f 54 aa bd dd a0 63 3c
       0.0149227865 0.012120804 -0.08316874 0.013893333

fc2.weight f4 [9, 128]
000000 90 29 0e be 63 17 9c 3d df 99 5a bd be 4a ba 3c
       -0.13883042 0.07621648 -0.0533694 0.022740718
000010 cf 63 e5 3d 46 fc 58 bd 58 ff 1a 3e 7a 70 75 3e
       0.112006776 -0.05297496 0.15136468 0.23968688
000020 e5 27 2d be 94 71 42 3e a8 96 a9 bd 36 de 41 3e
       -0.1690975 0.18988639 -0.082806885 0.18932423
000030 10 96 9c bd 15 ac 6a bc 5e 26 cb 3d d0 e7 9f bc
       -0.0764581 -0.014323254 0.09919427 -0.019519717
000040 ef fb 37 3e b1 5c a6 bd 19 4a 45 be 2c 23 8c 3e
       0.17967199 -0.08123148 -0.19266547 0.27370584
000050 60 0b ab bd 09 76 49 3e 5f 02 86 3e 12 31 58 3d
       -0.08351779 0.19673933 0.26173684 0.052781172
000060 b0 21 3c be 65 fa 04 3d 18 b0 ad bd 11 60 96 bd
       -0.18372226 0.032465357 -0.08480853 -0.07342542
000070 fa 61 2b be bd 81 07 be 55 ab 79 3d 09 77 71 3e
       -0.16736594 -0.13233085 0.06095441 0.23580565
000080 b3 a2 9f be d3 38 50 be a6 94 3c 3e fb 35 e2 bd
       -0.31178817 -0.20334177 0.1841608 -0.11045452
000090 41 5b 0e 3e 81 aa df 3d 19 4f 96 bd 48 1d fe bc
       0.13901998 0.10921193 -0.073393054 -0.031019822
0000a0 20 fa 99 3e d5 e6 2b bc a3 ad 77 3e 24 87 88 be
       0.30073643 -0.010492046 0.24187331 -0.26665604
0000b0 7a 6d 8e bd 1b 39 08 3d 6d 55 dd 3c 7d 36 17 3e
       -0.06954475 0.033257585 0.027018273 0.1476688
0000c0 d3 0c a1 be fb e8 94 bd f9 46 25 3d 6f 72 86 3e
       -0.31455097 -0.07271 0.040350888 0.2625918
0000d0 28 7b 41 3b aa 2b f3 bb 6f 81 98 bd 9d 25 31 3e
       0.002952287 -0.0074209766 -0.074465625 0.17299505
0000e0 28 e2 4e be 1b 45 2a 3b 56 f0 45 3d f2 0c 50 3e
       -0.2020346 0.0025981131 0.048324905 0.20317438
0000f0 d9 1b 3e be 36 43 80 3d d5 6f 95 3d 81 77 7b bd
       -0.1856531 0.062628195 0.07296721 -0.061393265
000100 65 4a 06 3e fa 9d 48 3d 92 06 ba 3d 02 24 7a be
       0.13114317 0.048978783 0.090832844 -0.24427798
000110 47 8e 4b be be b3 fc 3b c9 fe c7 3d 19 6a 82 3e
       -0.19878493 0.0077118566 0.09765393 0.2547157
000120 74 72 76 3e 99 82 39 bd 2c 26 1a be 68 2e 62 be
       0.24067098 -0.045290563 -0.15053624 -0.22088015
000130 44 81 de 3d de 3e e6 3d 52 c3 6c bd 0e 69 a2 3d
       0.10864499 0.1124246 -0.05780346 0.07930194
000140 1b 60 1b 3e 11 25 ae bd 30 9c ca 3c 6f 5b ac bd
       0.1517338 -0.085031636 0.02473268 -0.08415877
000150 dc 23 08 be 00 0a 14 be 38 8e bc bd ea 06 1b bc
       -0.1329493 -0.1445694 -0.092068136 -0.009462098
000160 58 aa 5c 3e 04 6d 3d be 56 ed 1c be 3d ab 92 3e
       0.21549356 -0.18498617 -0.15324911 0.2864627
000170 59 c6 25 be 93 9c 8e 3b 6b 0b bd 3d 3d 35 c9 bd
       -0.16188945 0.004352161 0.092306934 -0.098246075
000180 6a 2a ec 3d 28 cf 65 3d bd 53 d2 bd 56 bd 89 bd
       0.11531527 0.056105763 -0.10269878 -0.06725566
000190 7c 5b 28 be f0 9f 4a be 78 12 e9 bd ab 17 dc 3d
       -0.16441149 -0.19787574 -0.11380476 0.10746702
0001a0 a0 18 fe 3d e6 2e 90 bd c9 1f b2 3d ae f1 06 bc
       0.124070406 -0.07040195 0.08697469 -0.008236332
0001b0 93 ff 04 bd 20 90 73 bc 50 40 b4 3c 8b e2 12 3a
       -0.032470297 -0.014865905 0.022003323 0.00056032155
0001c0 25 d0 df 3d 2b f5 e5 3d 4e 40 4a bd 34 62 2c be
       0.10928372 0.11228403 -0.049377732 -0.16834337
0001d0 19 31 8c 3d ac 4b 4b be 5b 42 9b 3d 42 e1 1d be
       0.06845302 -0.19853085 0.07581016 -0.1541796
0001e0 3f b3 9e bd 98 27 9b be 14 f2 3a be b7 f1 34 3e
       -0.07749032 -0.30303645 -0.18256408 0.17670332
0001f0 db 59 49 3e fd 0f 36 bd f4 86 5a 3e f4 ee 03 3e
       0.19663183 -0.04444884 0.21340543 0.12884122
000200 14 72 45 3e d8 49 bb bd 33 b8 77 bc 5b d6 93 be
       0.19281799 -0.09144944 -0.0151196 -0.28874478
000210 1a e9 a8 3c c3 bb c2 3d 84 ee 32 be f7 58 12 be
       0.020618964 0.09508469 -0.17473799 -0.1429175
000220 b2 7c 9a bd 86 ed 26 3e 7d 23 8d be 20 dd d0 bd
       -0.07543315 0.16301546 -0.27566138 -0.10198426
000230 50 83 2d bc ec eb b2 3d 19 9b 99 3e 61 06 3e 3e
       -0.010590389 0.08736405 0.30001143 0.18557121
000240 90 b4 e9 b9 e1 05 b6 bd 24 64 02 3e 08 c6 e7 3c
       -0.00044575753 -0.0888784 0.12733513 0.02829267
000250 f1 06 a2 3d 63 b2 37 bd 32 fb 74 3d fb c8 6f 3d
       0.0791148 -0.044847857 0.05980987 0.05854128
000260 66 c8 f2 bc 50 d5 5e 3e 8d d0 4f be 7a f7 e3 3c
       -0.029636573 0.2176106 -0.202944 0.027827967
000270 bb d7 91 3d 42 35 f7 3d f1 21 0e 3e 59 2f 6e bd
       0.071212254 0.12070705 0.13880135 -0.058150623
000280 0c 3b 84 3d ef 11 04 bd c5 4c b2 bd 46 d1 3d 3e
       0.06456575 -0.032243665 -0.08706049 0.18536863
000290 aa 93 3e 3e 01 4c 61 be 12 83 83 be f4 73 02 3e
       0.18611017 -0.2200165 -0.25685936 0.12739545
0002a0 84 cd 01 3e 71 07 a1 bd 4c ef eb bd 62 a4 4a 3b
       0.12676054 -0.078627475 -0.11520252 0.0030920734
0002b0 f6 94 8e 3d 95 1b 90 bd 73 d5 70 be 01 8d 2d 3e
       0.06962006 -0.07036511 -0.23518924 0.1694832
0002c0 b5 e1 d8 3d 98 30 b5 bd 0f 8a d6 bd 17 6a ca 3d
       0.10589925 -0.08847159 -0.10475551 0.09883516
0002d0 58 f8 94 3c d9 ad 82 3d 37 14 53 be 46 e0 02 3d
       0.018184826 0.06380815 -0.2061318 0.031952165
0002e0 bd b8 fb bd 62 bd 34 3e 82 0a 2a 3e 0c 87 40 bd
       -0.122910954 0.17650369 0.16605571 -0.04700379
0002f0 04 d4 9a 3d cd 70 4d be ba 9d 48 be 61 9b bd 3d
       0.0755997 -0.20062561 -0.19591418 0.09258152
000300 ac cf dd 3d b1 99 07 3e e5 53 1d bc 84 4b 87 3e
       0.10830626 0.13242222 -0.009602522 0.264248
000310 5d e8 25 be bf b2 43 3d 7a b6 6d 3d 5f a2 a7 bb
       -0.16201921 0.047777887 0.05803535 -0.0051157917
000320 80 94 37 3e 88 05 a8 be a0 19 43 bd 84 e6 41 bd
       0.17927742 -0.3281672 -0.04763186 -0.047338977
000330 ad f9 0a 3e 0e 07 5d 3d 6a f1 08 3e a3 5a fe 3d
       0.13571806 0.053961806 0.13373342 0.12419631
000340 f3 b0 1b 3d 86 b4 c3 bd 3c c8 74 3e ae e8 fd bd
       0.03801055 -0.095559165 0.23904508 -0.12397896
000350 c4 57 3e 3d 28 04 88 3e b1 7f e1 bd c4 66 00 3e
       0.04647042 0.2656567 -0.11010683 0.12539202
000360 0d 60 2d 3e 25 74 f5 bd 25 80 20 3e 41 60 1a 3e
       0.16931172 -0.119850434 0.15673883 0.1507578
000370 3d 09 69 3e ce bb 24 3e da ae 4a be 08 7d d3 3d
       0.2275743 0.16087267 -0.19793263 0.10326582
000380 1e 24 5f 3e 30 bc 29 bd 1b 36 df bc db 47 86 3c
       0.21791121 -0.041439235 -0.02724748 0.016391685
000390 51 23 51 be 7d 6a 0e bd 4f 36 7e be 20 c9 51 3e
       -0.20423628 -0.034769524 -0.24825405 0.2048688
0003a0 0e 07 86 3e 08 29 60 bd 87 16 a1 be c2 72 3b 3e
       0.26177257 -0.05472663 -0.314625 0.18305495
0003b0 b9 f4 65 be 71 96 1d 3e d2 b0 72 be b2 a3 5c be
       -0.22456636 0.1538942 -0.23700264 -0.2154682
0003c0 3f 6f 5b 3d cc c9 29 3e bd 25 0d 3e 53 99 86 3d
       0.05357289 0.16580886 0.13783927 0.06572213
0003d0 65 f8 aa 3d 63 23 06 3e 2f df 10 bd 6b 5f 47 3d
       0.08348159 0.13099436 -0.035369094 0.048674982
0003e0 56 6f 4d 3e 56 50 ed 3c 26 5c 3a bd 2b f6 47 3d
       0.20062003 0.028968971 -0.045498036 0.04881875
0003f0 e1 c3 05 3e 0b 60 ef bd cc f8 2c be d4 ff fa bd
       0.13063003 -0.116882406 -0.16891783 -0.122558266

fc2.bias f4 [9]
000000 2e a9 7e 3d 2b bf 9d 3c 4d bc 81 3e db a0 5e be
       0.06217306 0.019256195 0.25338975 -0.21741049
000010 8d 72 dc bd 89 f0 7c 3c bf 29 85 bc c2 74 5c 3e
       -0.10764036 0.015438207 -0.016255258 0.21528915
000020 f0 c3 25 be
       -0.16188025
