results/valence/classification/20251225_210131_879524/best_model.pt (torch, 194997 bytes, 16 tensors)

conv1.weight f4 [16, 1, 3, 3]
000000 c6 09 f2 3e e8 8d 51 3e 92 3a bc bd 78 5f 80 3e
       0.47273082 0.20464289 -0.09190859 0.25072837
000010 01 21 81 bd e4 54 37 bd 1a d9 dd bd ad c0 97 3e
       -0.06305123 -0.044758692 -0.108324245 0.29639187
000020 da e6 fa 3e 3c f7 b9 be e7 b7 82 3e b8 dd 2e 3c
       0.4900425 -0.36321437 0.2553093 0.010672979
000030 ae 2e cd 3d 97 28 dd 3d 3d c7 e1 3e 0a 39 f8 bd
       0.10018669 0.107987575 0.4409732 -0.12120254
000040 fa eb b6 3e 10 0a 59 3d 58 9e 40 be 10 d3 a1 3d
       0.3572691 0.052988112 -0.18810403 0.07901585
000050 d5 82 71 be a8 da 40 be 20 cb 11 be cb 50 d7 3e
       -0.23585065 -0.1883341 -0.14237642 0.42053828
000060 d9 21 53 be a0 60 1f be 19 b4 10 bd d4 27 d1 bd
       -0.2061838 -0.15564203 -0.035328005 -0.10212675
000070 43 d8 06 3e b0 93 d7 be 5f 05 99 3e e9 ac bb be
       0.13168435 -0.42104864 0.2988691 -0.36655357
000080 df c5 95 3e eb da 31 3e fe 40 83 be c6 33 89 3e
       0.29252526 0.17368667 -0.25635523 0.26797312
000090 7a 21 54 3d eb 38 e1 3e de 17 aa 3d 37 9f a9 bd
       0.05178974 0.43988737 0.083053336 -0.08282321
0000a0 9f d6 66 bd bc 75 49 be a2 e7 5c bc a8 a5 d8 3e
       -0.056357022 -0.19673818 -0.01348296 0.42313886
0000b0 cb 84 9e 3e b0 e2 15 bd a1 ea d6 3e a1 5c c6 3d
       0.30960688 -0.03659314 0.41975883 0.09685636
0000c0 9a 81 2f 3e 26 cf 8b be eb 94 91 be 49 81 f4 bc
       0.17139283 -0.2730648 -0.28433928 -0.029846804
0000d0 2e 25 91 be a1 24 dc 3e 3b 87 f2 3d 75 dc c0 3d
       -0.28348678 0.42996696 0.118421994 0.09417049
0000e0 1c 52 6a 3e 10 1b 2a 3d b6 69 b0 3e 9f 3e ae be
       0.22882885 0.041529715 0.3445565 -0.3403215
0000f0 6b f4 d1 3b dd b6 9d be 65 f4 5d 3e f0 49 13 be
       0.0064073107 -0.30803576 0.2167526 -0.14383674
000100 d5 73 0f 3e be 3d ce bc a9 38 9d 3e 7e 32 8a bd
       0.1400903 -0.025175925 0.3070729 -0.06747912
000110 f2 51 11 bf 65 50 c9 bd 31 8f a8 3e 96 d0 5a 3d
       -0.56765664 -0.09829787 0.32921746 0.05342158
000120 bb f7 bb 3e dd 64 1d be 59 95 17 be be 3b 36 be
       0.3671244 -0.15370508 -0.14803065 -0.17796227
000130 81 0c bf be ee 9f 91 3c 0a 33 0f 3e 93 23 03 3f
       -0.37314227 0.017776456 0.13984314 0.51226157
000140 d9 1f 93 be 1b 95 60 be 8f 58 2d 3e eb bc 97 be
       -0.28735235 -0.21931879 0.16928314 -0.2963632
000150 30 37 5d 3e 21 32 24 bd d3 d9 b5 3e 69 4e 6b be
       0.21603084 -0.04008687 0.3551775 -0.2297913
000160 0b bb c0 be 57 8a 5b 3c 0a 86 21 3e d9 91 3b be
       -0.37642702 0.013399682 0.15773788 -0.18317355
000170 39 f8 94 3e de 88 84 3e e1 ff a8 be c9 e7 6c be
       0.2909563 0.2588567 -0.3300772 -0.23135294
000180 ce c1 b2 3e 0c 40 01 be f9 b8 2b be c0 70 85 be
       0.34913486 -0.12622088 -0.1676978 -0.26062584
000190 7a 55 92 be 2c 6f 9a 3d b6 ad 32 3e f4 5e ee be
       -0.28580838 0.075407356 0.17449078 -0.46556818
0001a0 e0 ff 5f 3e 23 08 1d be dc 2a a9 be 13 20 fc bd
       0.21874952 -0.15335135 -0.33040512 -0.12310805
0001b0 31 f4 b1 be 2b fa cb bd 3a 32 f7 3e 59 a2 04 bd
       -0.34756616 -0.09959825 0.48280507 -0.03238139
0001c0 70 97 16 3e 61 a4 dc be 69 91 8c be db fb 53 bd
       0.14706206 -0.4309416 -0.2745469 -0.05175386
0001d0 db 48 a3 3c 90 5a c4 be 51 48 0f bd 11 eb bc be
       0.019932201 -0.38350344 -0.034981076 -0.3689809
0001e0 a3 a9 d2 bd 1d 89 57 3d 81 a3 11 be 37 1c 3b be
       -0.10286262 0.052620996 -0.14222528 -0.18272482
0001f0 3b 38 7f be c8 d3 c4 be 68 39 1f be 45 30 95 be
       -0.24923794 -0.38442826 -0.15549242 -0.2913839
000200 ba 01 e4 3e cd b5 22 be 73 07 ba 3e 5b 14 20 bb
       0.44532567 -0.15889664 0.36333808 -0.0024426195
000210 52 05 a6 be 07 0d 5a 3e 81 3f 3c be 2e 41 17 3c
       -0.32425934 0.21294032 -0.183836 0.009231849
000220 5a e7 92 be dc f7 f4 be 73 14 81 3d 08 7c 3f 3c
       -0.28692132 -0.47845352 0.063027285 0.011687286
000230 bc 6f c7 3d 8c c4 a1 be 9d ba 92 3e b1 79 f8 be
       0.097381085 -0.31595266 0.28658 -0.48530343

conv1.bias f4 [16]
000000 96 83 ad 38 41 d2 a0 b9 e7 da be 39 03 46 1a ba
       8.2737926e-05 -0.0003067423 0.0003640272 -0.00058850663
000010 e8 1d 81 ba 76 1c cd 39 3e 24 0b ba 5d fa 8e 3a
       -0.0009850832 0.00039121852 -0.00053078297 0.0010908354
000020 64 51 27 39 fd 52 c7 39 67 c8 bb b8 74 eb 20 38
       0.00015956681 0.0003801807 -8.954183e-05 3.8366255e-05
000030 a2 b5 8c b9 3c 32 15 ba 64 d2 68 39 c4 40 ae 3a
       -0.00026838208 -0.00056913844 0.00022203621 0.0013294448

bn1.weight f4 [16]
000000 4d 5a 77 3f 92 47 7f 3f f1 29 6a 3f 01 34 80 3f
       0.96622163 0.9971858 0.9147025 1.001587
000010 aa 92 8a 3f 80 c1 69 3f f5 bd 61 3f 57 ac 8e 3f
       1.0826008 0.9131088 0.88180476 1.1146344
000020 89 24 69 3f 2d db 60 3f b1 6a 75 3f 49 25 50 3f
       0.91071373 0.87834436 0.95865923 0.8130689
000030 c2 56 4c 3f 49 15 6a 3f 5b 8a 7c 3f ce 11 83 3f
       0.7981988 0.9143873 0.98648614 1.0239809

bn1.bias f4 [16]
000000 7b a5 12 bf cf 2e 27 bf 4d cd f6 be 1a d0 1c be
       -0.57283753 -0.653058 -0.48203507 -0.1531376
000010 b4 96 3f be 2b 73 60 be 02 ad 28 3c 88 18 aa be
       -0.18709832 -0.21918933 0.0102951545 -0.3322184
000020 42 8c b0 be 77 d2 48 be 34 ca e1 bd 13 b2 cc be
       -0.34482008 -0.19611536 -0.11024895 -0.3997961
000030 f4 ae 10 bb 91 9e 99 be c3 b8 34 be 1b 9e 60 be
       -0.0022076936 -0.3000379 -0.17648606 -0.21935312

bn1.running_mean f4 [16]
000000 c0 23 7e 38 38 b5 8f ba 20 0a e9 b9 95 97 fd b9
       6.0591614e-05 -0.0010964042 -0.00044448767 -0.00048368858
000010 00 d0 38 39 8a f9 8a 3a e4 05 c0 b9 ce 58 d2 3a
       0.00017625093 0.0010602933 -0.00036625483 0.0016048194
000020 b8 b8 5f 3a ec 99 9b ba 54 51 08 3a 00 e9 0f b9
       0.00085343 -0.0011871434 0.0005200107 -0.00013724342
000030 d0 b0 f9 b8 68 8b 8d 3a b6 19 f7 b9 75 0e ab 3a
       -0.00011906179 0.0010798993 -0.00047130667 0.0013050573

bn1.running_var f4 [16]
000000 0d 5c da 3e 3d b6 ed 3e 75 19 56 3e 20 92 36 3e
       0.42648354 0.464281 0.20908149 0.1782918
000010 9a 48 3f 3e a5 00 32 3e 02 e8 18 3e 66 05 84 3e
       0.18680039 0.17383058 0.14932254 0.2578537
000020 ee a3 62 3e 22 d0 0c 3e 61 80 93 3e c5 d7 f0 3e
       0.22132847 0.13751271 0.28808883 0.4703962
000030 51 e9 38 3e 1c 0c f0 3e 7a 5c 4c 3e 72 5c 5c 3e
       0.18057753 0.4688424 0.19957152 0.2151964

conv2.weight f4 [32, 16, 3, 3]
000000 cc 48 87 3e e8 76 83 bd 4a d3 34 be 01 10 49 3c
       0.26422727 -0.06419164 -0.17658725 0.012271882
000010 c0 77 f0 bd 68 7f ab 3e c5 2c 47 be ac af ff 3d
       -0.117415905 0.3349564 -0.19450672 0.124846786
000020 7b 1a db bd ca 6c 2e 3b 3d 11 66 be b9 44 63 3b
       -0.1069841 0.0026615136 -0.22467513 0.0034678413
000030 8d 29 a3 be 7a 3e b7 be 10 a3 55 3e e8 84 f9 3d
       -0.31867638 -0.35789853 0.20862985 0.12183553
000040 ae ee 47 3d 89 a1 a6 3e 2e ce cd bd 57 00 77 be
       0.048811607 0.32545117 -0.10049091 -0.24121223
000050 67 b2 6e 3e d9 56 ae 3d fe 52 4a 3d 3e 8c 1f be
       0.23310243 0.085126586 0.049395554 -0.15580842
000060 91 89 e2 bd 8e 4e c3 bc 17 91 a1 bc 09 81 66 3d
       -0.11061395 -0.023841169 -0.019722505 0.0562754
000070 83 6f a9 bd 9b bd 2d be 63 f9 9a 3d ad b6 05 be
       -0.08273222 -0.1696686 0.07567098 -0.13057967
000080 66 0e 6a 3e f9 74 cc 3b 12 23 eb 3d aa 6f 02 3e
       0.22857055 0.00623953 0.114812985 0.12737909
000090 6b 0b 1a be e5 27 4e bc 10 c4 88 3e 56 10 8c be
       -0.15043418 -0.012582754 0.26712084 -0.27356213
0000a0 e8 ee 18 be 5d d1 27 bd ca d4 2a 3e ac d7 f8 3b
       -0.14934886 -0.04097115 0.16682735 0.0075940695
0000b0 b0 01 21 be 44 24 d1 3c 1a ed 70 be bf 78 ca be
       -0.157233 0.025529988 -0.23527947 -0.39545247
0000c0 05 20 d7 3c c1 c7 8f bc 1f c6 2e be d6 d5 02 be
       0.026260385 -0.017551305 -0.17067765 -0.12776884
0000d0 35 f5 20 bd f0 1c 13 3e 6b 62 1d be 23 20 ff 3d
       -0.039296348 0.14366508 -0.15369575 0.124573015
0000e0 ac eb 3c 3e 19 16 d4 3d 61 35 ad bd 97 56 3c 3d
       0.18449277 0.10355777 -0.08457447 0.045981016
0000f0 0c 32 fe bc 36 88 36 3d 79 a9 b7 be f3 3e 7f 3e
       -0.031029724 0.044563495 -0.35871485 0.24926357
000100 d7 32 67 be f6 c9 14 3d fe 62 f5 3d 04 02 4c bc
       -0.22577988 0.036325417 0.11981772 -0.012451652
000110 aa 7f 9e be 26 63 b9 3c d0 6e 86 bd 49 5a 36 3e
       -0.30956775 0.022630285 -0.065641046 0.17807879
000120 2f 07 08 3e bc 12 c9 bc 20 29 06 3e 9d fd a1 bd
       0.1328399 -0.024545066 0.13101625 -0.07909701
000130 c3 3e a7 3c 14 42 8a be e2 a6 f1 bc b7 54 3b be
       0.02041567 -0.2700354 -0.029498521 -0.18294035
000140 b8 4a eb 3d 8f ed 3d bd e4 f4 75 3d ec 9a b9 3d
       0.11488861 -0.04636913 0.060048 0.09062752
000150 40 0d 1c 3d e9 69 2f 3c 70 6d 95 bd 43 38 15 3c
       0.038098574 0.010706403 -0.07296264 0.009107652
000160 62 fc 51 be 08 c7 2f 3e 9c 26 9e 3d 01 64 40 be
       -0.20506433 0.17165768 0.07722208 -0.18788148
000170 aa 5f 39 3e 1e 2e 4e 3c 01 94 4a 3d a1 50 c0 bd
       0.18102899 0.012584237 0.049457554 -0.09390379
000180 8f 81 88 bd 1b 8a dc bd 85 d7 88 3d 4c 93 06 bc
       -0.06665336 -0.10768529 0.06681732 -0.008213829
000190 78 2f a2 bc 51 16 a9 bd eb 0a 8b 3e 17 01 a1 be
       -0.019798025 -0.0825621 0.27156767 -0.31446144
0001a0 6f cf 95 bd 24 eb 25 3e dd 3a 0a 3d 80 9e 87 be
       -0.073149554 0.1620298 0.033747543 -0.26488113
0001b0 b5 22 91 bd 6a 03 42 3d 1e b9 3a be a6 03 5d be
       -0.07086698 0.047366537 -0.18234679 -0.21583423
0001c0 2f 0b 0b bc 28 df 3b 3e 8c 5f 5b 3c 9a 67 0f be
       -0.008486553 0.18346846 0.013389479 -0.14004365
0001d0 dd ce b2 bd ea d0 bb 3d 35 60 19 3e 3c a1 6b be
       -0.08730862 0.091707066 0.14978106 -0.23010725
0001e0 d2 d3 0d be b9 d9 36 bb 7a 51 4d be c2 1e 22 bf
       -0.13850334 -0.002790077 -0.20050612 -0.6332818
0001f0 c6 5d dc bd d2 70 30 3e cd 87 b2 bd bc 14 1c 3d
       -0.10760073 0.17230538 -0.08717308 0.03810571
000200 2c 03 91 3d 4f f4 c3 bd bf 4d ea bc dd 59 ef bd
       0.07080683 -0.095680825 -0.028601525 -0.11687062
000210 25 be 55 3e 34 0f b5 be d8 2c ac 3e 44 94 87 3e
       0.20873316 -0.35363162 0.33627963 0.26480305
000220 89 cb 67 bd 09 1a bc be cb e1 36 be 0f 86 85 bd
       -0.05659059 -0.36738613 -0.1785957 -0.0651971
000230 63 02 da 3d 8d 77 af 3d 1f e8 b8 bb 99 87 02 bf
       0.106449865 0.085677244 -0.0056429054 -0.50988156
000240 19 f4 5b be c3 3c aa 3e a5 30 1f 3e c5 a5 10 3d
       -0.21479835 0.33249483 0.155459 0.03531434
000250 27 fa 97 be a1 8a 07 be 1a d7 3a bd 71 17 41 3d
       -0.2968304 -0.13236476 -0.045615293 0.047141496
000260 d9 99 00 3d 73 82 83 be 2e 2b 2e be 5b 8b fa bb
       0.03139672 -0.25685462 -0.17008659 -0.007646007
000270 4a f9 d8 3d 44 1c 1d 3e c3 d1 a4 be 69 5e de 3b
       0.10594423 0.15342814 -0.32191285 0.006786157
000280 85 ac de be 81 be 07 3e c6 06 e3 3b 8c 7f db be
       -0.43490997 0.13256265 0.0069282977 -0.42870748
000290 55 36 5b 3d be 59 3c 3c e4 24 6f be 5e 26 b9 bd
       0.053518612 0.011496006 -0.23353916 -0.09040521
0002a0 d3 db 6f be 87 ae 5e 3e df 7b 21 3d 11 e8 b0 3e
       -0.234237 0.21746264 0.039424773 0.34552053
0002b0 32 bc 52 bd 42 3f af bd 7f f3 94 bc 78 a9 e8 bc
       -0.05144901 -0.08556987 -0.018182514 -0.028401121
0002c0 ab 28 2f be 2b d3 83 3c 50 bb a6 bd b3 8e b1 3d
       -0.17105357 0.016091904 -0.08141196 0.08669796
0002d0 21 0c 03 be 17 64 b3 bc 6e 8a 51 3e 72 a3 87 bd
       -0.12797596 -0.021898312 0.20462963 -0.066229716
0002e0 18 bf 21 3e d4 8b 48 bd c8 87 74 3d 57 11 be 3d
       0.15795553 -0.048961475 0.059699804 0.09280651
0002f0 85 a3 33 3e 84 98 ab bd 32 42 a7 bc 72 39 0a 3e
       0.17542847 -0.083786994 -0.020417307 0.13498476
000300 f9 0f 01 3e ad 2c 38 3e 7f f2 83 be da fa c5 3d
       0.1260375 0.17985792 -0.25770947 0.09666987
000310 db cb 37 3e 5d 61 9e bd 08 34 e2 3c 51 77 ce bc
       0.17948858 -0.07733414 0.027612701 -0.025203379
000320 e5 4c f8 bd 8a f1 22 bb 0e 5e a8 be cd 83 de 3d
       -0.121240415 -0.0024863207 -0.32884258 0.10864983
000330 3e 21 b1 bd d5 36 ff bc 8e 7d e1 bd 04 d1 1b be
       -0.086489186 -0.031154076 -0.11010276 -0.15216452
000340 09 b0 73 be ac 41 35 3c c1 13 61 3e 11 a9 96 3e
       -0.23797621 0.011063021 0.21980192 0.29425862
000350 c7 5f f0 3d f8 19 f4 bd b5 04 5a be aa b7 b3 bd
       0.11737018 -0.11919016 -0.21290858 -0.087752655
000360 56 da fb 3d 38 53 8d 3d 87 59 83 3e 8e e4 3c be
       0.12297504 0.06900638 0.2565424 -0.18446562
000370 f7 b9 1c 3e 00 ab 55 be be 19 cd bc c2 27 92 bd
       0.15305315 -0.20866013 -0.025036689 -0.071364895
000380 07 e9 a0 3d 49 89 07 3e 1f 7c 37 bd e1 bb d4 bb
       0.078569464 0.13235964 -0.044796105 -0.0064921235
000390 cf 1e 4e 3e 91 28 8f 3d 6e 17 c2 be ac f8 c4 be
       0.2012894 0.06990159 -0.379085 -0.38470972
0003a0 69 b3 3a be 43 ee 96 3e 1f 17 2f 3e a0 57 1b 3e
       -0.18232502 0.29478654 0.17098664 0.15170145
0003b0 d4 a6 b0 bd 91 08 53 3e 9c af 3e be 11 fa a8 3c
       -0.0862557 0.20608737 -0.18621677 0.020627053
0003c0 e8 44 1b 3c 06 60 70 3e f6 71 10 be a8 a0 e0 3d
       0.009476878 0.2347413 -0.14105973 0.10968143
0003d0 1c 7c c5 3c f5 59 a9 bc 08 fc 96 3c cd 14 2e be
       0.024107032 -0.020672778 0.018430725 -0.17000122
0003e0 ee 96 4a 3e 84 24 83 bc 33 ef 01 be b9 e7 b5 3d
       0.19784138 -0.016008623 -0.12688904 0.08882088
0003f0 1b d5 47 3e e0 4d e3 3c 2b 4e a5 be 10 e4 44 be
       0.19514887 0.027747095 -0.322862 -0.19227624

conv2.bias f4 [32]
000000 da 31 9a ba 9e 75 de b9 74 8f 88 b9 79 38 57 39
       -0.0011764125 -0.0004243077 -0.00026046822 0.00020525036
000010 ee ea 10 ba cf 54 34 3a ee 6b bc 39 c0 06 a3 37
       -0.00055281713 0.00068790925 0.00035938568 1.9434257e-05
000020 3c df 52 b9 21 1a 5c b9 58 45 9d b9 ba 1a 02 b9
       -0.00020110322 -0.00020990569 -0.0002999704 -0.00012407723
000030 71 f8 dd 39 94 f6 66 3a 8e 96 18 b9 1c 03 33 38
       0.00042337508 0.0008810547 -0.00014551936 4.267982e-05
000040 20 28 74 b7 49 fb fc b7 f8 d3 cb b8 32 cd 2d 3a
       -1.4552876e-05 -3.0157755e-05 -9.7192766e-05 0.0006630003
000050 ec 8d 2b b8 00 e7 b2 ba 2f 6d 09 3a 60 6a a6 b8
       -4.0901752e-05 -0.0013649166 0.0005242405 -7.935311e-05
000060 39 cf c6 b8 7f f7 3b b8 8c 59 d8 38 d3 fe 23 38
       -9.479974e-05 -4.4814773e-05 0.00010316362 3.9099552e-05
000070 d0 d6 c9 39 40 ee 14 3a b1 4c 2a ba 62 85 b0 39
       0.00038497755 0.0005681254 -0.0006496413 0.00033668714

bn2.weight f4 [32]
000000 4b 97 84 3f 5b 7b 72 3f f2 51 86 3f d7 92 84 3f
       1.0358671 0.94719476 1.0493758 1.0357312
000010 76 da 89 3f 8a 94 89 3f c8 11 84 3f 35 d2 8b 3f
       1.0769794 1.0748456 1.0317926 1.0923525
000020 67 b4 95 3f 2c f9 9c 3f 2c 8d 83 3f d7 c3 86 3f
       1.169568 1.2263541 1.0277457 1.0528516
000030 ec 80 92 3f 07 a9 8e 3f 35 99 85 3f d2 d6 82 3f
       1.1445594 1.1145333 1.043738 1.0221808
000040 75 48 81 3f 02 a3 81 3f 57 c7 8f 3f fa 47 7e 3f
       1.0100237 1.0127871 1.1232709 0.9932858
000050 27 50 a8 3f 4c af 8b 3f ae 77 88 3f 7e d8 80 3f
       1.314946 1.0912871 1.0661523 1.0066068
000060 ea 95 7f 3f e7 4f 81 3f 83 89 94 3f 5f af 88 3f
       0.99838126 1.0102509 1.1604465 1.0678519
000070 ea fa 9e 3f 36 93 80 3f 13 34 87 3f 26 f8 90 3f
       1.2420323 1.0044925 1.0562767 1.1325729

bn2.bias f4 [32]
000000 ab 67 05 bf 61 f3 c5 be d2 e2 25 bf 16 fe f5 be
       -0.5211131 -0.38662246 -0.64799225 -0.48045415
000010 6b 60 08 bf 93 1b 0f bf 01 e7 29 bf b7 50 5c bf
       -0.5327212 -0.5590145 -0.6636811 -0.8606066
000020 28 b8 16 bf 49 23 6b bf 1f e5 1f bf b3 83 15 bf
       -0.5887475 -0.91850716 -0.62458986 -0.5840408
000030 ee 7c e6 be 2f 1a 3b bf b9 36 bf be fe c8 0d bf
       -0.4501719 -0.7308683 -0.37346438 -0.55384815
000040 ca ba 16 bf 6d 0c f9 be 2f 83 0a bf 03 3a 54 bf
       -0.5887877 -0.48642293 -0.5410642 -0.8290102
000050 61 05 8c bf 3a 92 f0 be d9 d6 d0 be b4 23 dd be
       -1.0939142 -0.46986562 -0.40788916 -0.43191302
000060 20 ec 76 be 6e 92 29 bf c8 8c 51 bf c4 e0 1b bf
       -0.24113512 -0.6623906 -0.8185544 -0.6088984
000070 53 a0 5b bf f7 cc e6 be 36 b3 03 bf c4 d4 39 bf
       -0.8579151 -0.4507825 -0.5144533 -0.7259028

bn2.running_mean f4 [32]
000000 01 4a 3f bf b5 1a 94 be 0f 2d 9e be 19 2b f7 be
       -0.74722296 -0.28926626 -0.30893752 -0.48275068
000010 19 d3 08 bf 03 5d 1a be 98 a0 8b 3e a3 3a bb bd
       -0.5344711 -0.15074544 0.2727096 -0.091420434
000020 da e7 22 bf 5c a6 42 3f 2a cc fa be 50 f1 0e bf
       -0.6363503 0.76035094 -0.4898389 -0.55836964
000030 0c 2e 44 bf bc d0 57 3f fb 64 58 bf d4 9a 83 3e
       -0.7663276 0.8430288 -0.84529084 0.25704062
000040 42 d2 36 be 79 86 b1 be 73 3e 2b bf 4a 52 bf be
       -0.17853644 -0.34672907 -0.66892165 -0.3736747
000050 59 b2 f2 3e 53 3a 2c bf 06 e7 34 bf 6d 86 0c bf
       0.47401693 -0.67276496 -0.70665014 -0.5489262
000060 f7 e5 8c bf 43 b4 fe bd 13 fa 88 3e 74 c3 cb bd
       -1.100768 -0.12436726 0.2675329 -0.09949389
000070 39 05 f1 3a ac 96 38 bf 8a 0e 02 bf 68 6d 94 be
       0.0018388397 -0.7210491 -0.50803435 -0.2898972

bn2.running_var f4 [32]
000000 a5 11 1f 3f 7b df 05 3f 53 22 e7 3e be a5 cf 3e
       0.621363 0.5229413 0.45143375 0.4055614
000010 6b 12 11 3f e0 23 0b 3f cc 1a e6 3e af 0a a2 3e
       0.5666873 0.54351616 0.4494232 0.31648776
000020 b2 8b ff 3e 06 63 bf 3e 86 91 eb 3e 95 12 1d 3f
       0.49911267 0.37380236 0.46009463 0.6135648
000030 93 5f 02 3f 22 1a 04 3f 03 f1 16 3f 9b e1 e8 3e
       0.50927085 0.51602376 0.58961505 0.45484623
000040 a3 00 00 3f 13 75 d3 3e cd 6d 67 3f c0 1d bf 3e
       0.5000097 0.41300258 0.9040192 0.37327385
000050 d6 04 cd 3e d8 ae fc 3e f5 6f 14 3f 14 7b ff 3e
       0.40042752 0.49352145 0.5798333 0.4989859
000060 bb 91 75 3f e8 29 f9 3e 02 cb b8 3e 12 ad f5 3e
       0.9592549 0.48664784 0.36092383 0.47983605
000070 30 8e a9 3e 78 b6 0a 3f de db 10 3f 93 4e f4 3e
       0.33116293 0.54184675 0.5658549 0.47716197

fc1.weight f4 [128, 320]
000000 7e c9 a8 bd 77 38 95 3b 6b 2c 0b 3e a2 16 9b 3e
       -0.082415566 0.0045538503 0.13591163 0.30290705
000010 24 87 8a bc f1 2b 99 b9 39 da 2d bd 75 9e 76 3d
       -0.016910143 -0.00029215173 -0.04244444 0.06020971
000020 a0 43 5e be 16 5e d8 bc fa a6 7d 3d a3 07 d2 3d
       -0.21705484 -0.026412051 0.06192682 0.10255363
000030 e7 ec bb be 2a e9 27 3e c5 a2 5a 3e 5c e2 a9 3b
       -0.3670418 0.16397539 0.21351154 0.005184455
000040 37 54 60 3e ec 78 02 3d 13 b6 bd bc d5 8e 53 be
       0.21907125 0.0318536 -0.023158109 -0.20659955
000050 2b be d4 3c f7 4d 0d bd 5c 83 54 bc 40 17 9d 3d
       0.025969585 -0.03449818 -0.012970772 0.0767045
000060 1e 9c cf be 81 91 35 bc 5f a9 65 be 19 6a 8d be
       -0.40548795 -0.011082054 -0.22427891 -0.2762001
000070 1d 10 93 3e 6b 94 e4 3d 68 59 1a 3b e9 21 15 3c
       0.2872323 0.11161121 0.0023551825 0.009102323
000080 7e d6 06 be 33 fe 9f 3d a3 b6 a4 bd 9b f1 e7 bd
       -0.1316776 0.078121565 -0.08042648 -0.113253795
000090 58 a1 81 3d 0c 1a 95 3d 49 80 b7 be f1 5a 9a bd
       0.06329602 0.07280359 -0.3584006 -0.07536877
0000a0 8e 38 3e 3e 01 7e 34 3d c8 d3 1c bd a2 b0 e5 3d
       0.18576261 0.04406548 -0.038287908 0.11215331
0000b0 b5 63 8b 3b 06 f1 60 3d a4 ce a9 3d 93 e4 83 bd
       0.0042538294 0.054917358 0.08291367 -0.064400814
0000c0 38 90 15 bd 49 b0 16 3e 06 e0 3f be 4d cc 8c bd
       -0.03651449 0.14715685 -0.18737802 -0.06874905
0000d0 3f ea 5d bd 3c 2d 1f 3c c9 7e fd bc ec 63 2c 3e
       -0.054178473 0.009715375 -0.030944245 0.16834992
0000e0 8b 0d 30 be 9d c0 33 3d f5 3f 80 be 1d 04 74 3d
       -0.17192666 0.043884862 -0.25048795 0.059574235
0000f0 1a 14 79 bd 0f b1 ca 3d 13 35 84 be c5 09 f1 3b
       -0.060810186 0.098970525 -0.25821742 0.007355901
000100 26 da 97 3e 2d ee d0 bd b5 64 87 bd e0 e9 b0 bd
       0.29658622 -0.102016784 -0.06611005 -0.08638358
000110 cd cd a1 3e 29 27 cc 3e 0f 80 89 3d 74 f3 d9 3c
       0.31602326 0.39873627 0.06713878 0.026605345
000120 73 20 9c be 73 5a 99 3e b3 d8 6b 3c bf a2 c6 3d
       -0.30493507 0.2995182 0.014394927 0.0969901
000130 c1 cf e7 3d 5c f8 56 3e a5 1d 80 be 82 7a 66 3e
       0.11318923 0.20993179 -0.25022617 0.2250767
000140 98 d4 67 3c 10 f1 a8 bb 5c 56 63 3e 1f 05 77 3e
       0.014149807 -0.00515569 0.22200912 0.24123047
000150 1d 96 25 be 9a 23 81 bd 2f b3 a6 bd 32 6c 1c be
       -0.16170545 -0.063056186 -0.08139645 -0.15275648
000160 8e 34 07 3e 1e fb ee bd d0 0c 66 3d 1c 50 92 3c
       0.13203642 -0.116689906 0.056164563 0.017860465
000170 4b 26 a3 bd 73 e5 e5 3d f2 f2 57 3e ef b5 c6 bd
       -0.07966288 0.112254046 0.2108877 -0.0970267
000180 22 f3 e9 3d fb b7 68 be 35 bb 31 3a 8a 94 ac be
       0.11423327 -0.22726433 0.000677991 -0.33707076
000190 c8 ce a7 3c d8 97 e7 3d 78 3c 95 bd 74 3b 8f 3e
       0.020484343 0.11308259 -0.07286924 0.27975047
0001a0 20 62 52 bb 18 fc e1 bd cb 31 1b bd 1f fa 2f 3e
       -0.0032101944 -0.11034411 -0.037889283 0.17185257
0001b0 3c 1b 67 3d c2 b7 1c 3d 10 d1 5d be d2 5c a1 3d
       0.056422457 0.038261183 -0.21661782 0.07879032
0001c0 70 b3 2c be 5c 4d e9 3d 9f aa 00 3e 23 79 58 3d
       -0.16865325 0.11391708 0.12565087 0.0528499
0001d0 b4 2e 15 3e 89 db 01 be be a7 04 bd 1c 2b 9f be
       0.14568597 -0.12681402 -0.032386534 -0.31087577
0001e0 25 2f 85 3b ec eb e8 3c 7f d1 82 bd b4 38 7c 3e
       0.004064458 0.028432809 -0.063876145 0.24631006
0001f0 57 fa 8b bc 7c 28 51 3b c1 5c 10 be b6 b3 74 be
       -0.017087145 0.0031915 -0.14097883 -0.2389668
000200 18 c7 27 bd 44 71 ee 3d 08 65 24 3c 98 fa 33 bd
       -0.040961355 0.116426975 0.010033853 -0.043940157
000210 cc 80 c2 3d f6 ca 93 3c 6b a2 f9 bc 52 c5 85 be
       0.09497222 0.018041115 -0.030472955 -0.26127106
000220 1f 8c 54 be c9 09 60 3d 51 1c c8 bd 19 c4 ab 3e
       -0.20756577 0.05469683 -0.09771026 0.33548048
000230 a7 f5 4d bd 71 2a 7e bd fa 51 65 3e ca 78 5f 3e
       -0.0502831 -0.062052194 0.22394553 0.21823421
000240 97 ba d9 bc 2c ce 45 bd 76 8f 09 3e e5 ac 67 3e
       -0.02657823 -0.048292324 0.13433632 0.22624548
000250 31 2e 17 bd 93 2c 2a be 9a cb 9c 3e d9 16 12 3e
       -0.036909286 -0.16618566 0.30624086 0.14266528
000260 43 13 44 3e a2 a6 44 3e ed 4e 68 3e 1b e5 98 be
       0.19147973 0.1920419 0.22686358 -0.29862294
000270 05 05 e2 3d b3 96 4f bb 7c 7f 93 3c 3a 9c 12 bf
       0.11036114 -0.0031675517 0.018005125 -0.5726963
000280 fd a7 77 be f5 19 89 bd 4f 5c 9b 3e 6e 25 30 be
       -0.24185176 -0.06694404 0.30343863 -0.17201778
000290 bb 35 08 bd 42 ca 87 bd 43 2a 22 3e 57 1d 12 3d
       -0.033254366 -0.066303745 0.15836434 0.035672512
0002a0 f6 87 4c be 9e 3b 98 3e cb ac 03 3e 67 09 27 be
       -0.1997374 0.29732984 0.12858884 -0.1631218
0002b0 e3 a2 a4 3d c9 a5 19 be c9 34 92 3d fa ff 98 3d
       0.08038881 -0.15004648 0.07138974 0.07470699
0002c0 d7 c6 17 3e 8b 2b 6f bd c4 09 e8 3d 6a 73 8e bd
       0.14821945 -0.058391135 0.11329988 -0.06955607
0002d0 18 2f 87 3d 89 b5 9f bd 9f 63 63 be 7e 97 95 be
       0.06600779 -0.07798297 -0.22205971 -0.29217142
0002e0 6a 5c 51 bc 78 27 af 3d da 4d 4e 3d cb 1e 34 bd
       -0.012778381 0.0855245 0.050367214 -0.04397468
0002f0 6b 43 6d 3d bf 86 af bd 5d 9e 2f bd 7e 89 06 b9
       0.057925623 -0.08570623 -0.042875636 -0.00012830456
000300 b2 c7 ae be 64 cf 31 3b a4 5b 0b 3d d0 37 13 3d
       -0.3413673 0.002713167 0.034022942 0.0359419
000310 7c 1f 25 3d 30 4b 13 be 48 ff de 3d 83 a9 b0 bd
       0.04031323 -0.1438415 0.10888535 -0.08626082
000320 43 49 a8 bd 2f e9 03 3e b7 b4 21 be aa 68 9b 3d
       -0.082170986 0.12881921 -0.15791593 0.075883225
000330 07 02 a9 be 8f af f1 3d e2 cb a9 3c b6 67 81 3d
       -0.3300936 0.11801063 0.020727102 0.063186094
000340 c2 11 40 bd 06 57 8e 3e 21 a1 90 3d 04 b6 63 3d
       -0.046891935 0.2780077 0.07061983 0.055593506
000350 38 0d d0 bd 80 57 8c be e5 b2 4e 3d 34 12 c7 3c
       -0.10158771 -0.27410507 0.050463576 0.024300672
000360 4b 9d 2f 3e 53 e7 1c bc 34 ef 91 3d e1 33 16 be
       0.17149846 -0.009576636 0.071257025 -0.14668228
000370 3d 89 0d bd 96 0f d2 3d c5 7f 63 be 78 9f 5a bd
       -0.03455471 0.10256879 -0.22216709 -0.053374738
000380 d4 02 d6 be ef 30 bb bd a5 49 37 3e ae 24 bd bd
       -0.41799033 -0.09140193 0.17899187 -0.09235512
000390 54 fa 99 3d 00 d9 dd 3d 26 a8 cd 3d 38 0d 9f 3d
       0.075184494 0.10832405 0.100418374 0.07766193
0003a0 bf 59 77 3e 31 41 1e 3e f2 ea 4e 3e 83 35 9a bc
       0.24155329 0.15454556 0.20206812 -0.018824345
0003b0 48 49 4e bc 60 5c f3 bc 59 cd 71 3d f1 42 41 3e
       -0.012590714 -0.029707134 0.059033725 0.18873192
0003c0 83 9d 2d 3d a4 61 ce bb e7 93 db 3c bb db 73 3e
       0.042386543 -0.0062982608 0.026803924 0.2381429
0003d0 56 eb 64 be da db 10 bd 51 ae 65 be 39 2f 52 bd
       -0.22355399 -0.035365917 -0.22429778 -0.051314566
0003e0 7c a5 19 be 53 9e 04 3e 3c 38 3e 3d a4 69 21 3d
       -0.15004534 0.12951021 0.046440348 0.039407387
0003f0 a9 ee 7a 3e 7d 7b b5 3d 38 a8 94 bc d8 07 4f 3d
       0.24505104 0.08861444 -0.01814662 0.05054459

fc1.bias f4 [128]
000000 cc 6f 1b bd bf af d5 bd 10 2e 0f bd ac a1 42 3d
       -0.037948415 -0.104339115 -0.034956038 0.047517464
000010 2d 7e 87 3d 9d ea f3 bb 74 af 85 bd 92 63 ca 3c
       0.06615863 -0.0074437396 -0.06527606 0.024705682
000020 00 1b c8 3d 5c a1 2a 3c ac 63 a6 3d ed 03 a6 bb
       0.09770775 0.010414448 0.0812448 -0.005066386
000030 20 45 a3 3d 5b fa e3 bc 08 89 e0 3a 89 e0 a9 bb
       0.07972169 -0.02782934 0.0017130682 -0.0051842374
000040 73 6b 35 bd 31 33 f3 bb 78 96 88 3d 0f a8 12 bd
       -0.044291925 -0.007421874 0.06669325 -0.035804804
000050 e4 2d 94 3d d5 81 6b bd 9d 6d 0c 3d 88 5e 4c 3b
       0.072353154 -0.057496864 0.034284223 0.0031184275
000060 a9 aa a0 3c d0 6d a7 3d 72 0b 00 be 5a 0e 00 bd
       0.019612627 0.08175242 -0.12504366 -0.031263687
000070 97 ea 37 3d 38 19 81 bd c3 c0 01 3d 02 75 a3 3c
       0.044901457 -0.06303638 0.031677973 0.019953255
000080 ab 1a e9 3d 9b fb fb 3b c3 57 98 bd 85 65 dd 3c
       0.1138204 0.007689906 -0.07438614 0.027025947
000090 af 98 17 3d 3d 9f 6e 3d 43 12 90 3c 95 01 92 3c
       0.037010845 0.05825733 0.017586833 0.01782302
0000a0 97 91 e7 bc 98 c1 c9 3d 97 40 30 bd 93 88 77 3b
       -0.028267665 0.09851378 -0.043030348 0.0037770614
0000b0 e2 65 3a 3d 7e f1 95 bd f0 70 56 bd 8d e6 8f 3d
       0.04550732 -0.073214516 -0.0523538 0.07026396
0000c0 94 81 dd 3c ba a4 d2 3d 85 55 91 bd 29 ae b8 bc
       0.027039327 0.10285325 -0.0709639 -0.022543984
0000d0 48 23 90 bc 37 ca db 3c ad dd c0 3a 01 b4 2c bd
       -0.017594948 0.026829822 0.0014714502 -0.042163853
0000e0 09 46 4e 3d 4e 4c 5f 3d a7 d2 87 bd 81 80 8f bd
       0.05035976 0.05451613 -0.066319756 -0.07006932
0000f0 97 ae 32 bd e6 ff 55 3c 62 cc d6 bd a6 8c 85 bd
       -0.043623533 0.013061499 -0.10488202 -0.06520967
000100 b1 11 01 bc b4 09 58 bd a1 41 34 3d 9b 7d 13 3d
       -0.007877753 -0.05274363 0.0440079 0.03600846
000110 bc 39 92 3d 58 5d 85 3b e1 20 1d bd 12 a0 b5 bd
       0.07139918 0.0040699653 -0.038361434 -0.088684216
000120 43 80 d6 bd 52 32 11 be a2 30 aa 3d 8e 9b 72 bc
       -0.10473683 -0.14179352 0.08310057 -0.014807595
000130 d3 19 c3 bc 45 7a 4a bd 32 f7 c5 3c 35 76 92 bc
       -0.023816025 -0.04943301 0.024165723 -0.017878631
000140 4c 38 66 3d da c4 3e 3e 04 a2 4c 3d 0b c5 b0 3c
       0.056206033 0.1862978 0.049959198 0.021578332
000150 df 17 b3 bd 50 44 04 3d 94 9d 98 3d de 7d 51 bc
       -0.087447874 0.03229171 0.07451931 -0.012786357
000160 fe e8 07 3d 05 f2 37 bc 90 25 e1 3c 53 49 f4 bc
       0.033181183 -0.011227136 0.027483732 -0.02982012
000170 9a f3 4e 3c dd c2 8b 3c e1 4d 7a bc 0a 24 6f 3c
       0.012631321 0.017060691 -0.015277357 0.014595995
000180 9a 4a 14 bd e7 dd 65 bd 2e d9 9d 3d 88 6f e3 3c
       -0.036203958 -0.056119826 0.07707439 0.027763143
000190 3b 7f ca bb ec 1e 24 bc e1 c6 e7 3d 79 70 5a 3c
       -0.006179718 -0.010017138 0.1131723 0.01333248
0001a0 31 c8 ac bd 60 7d 36 bd c5 89 57 3c a4 83 92 bd
       -0.08436621 -0.04455316 0.013155405 -0.07154015
0001b0 4e 4d c4 3c f7 60 a2 bc e1 7c ca bc 52 22 e0 bd
       0.023962643 -0.019821627 -0.02471775 -0.10944046
0001c0 d7 b8 8f 3d 7e 3f 96 bc 5a b2 8f 3d e2 bd 99 bc
       0.07017677 -0.018340822 0.0701644 -0.018767301
0001d0 8d 76 e3 3a 89 6e 01 3d d5 49 12 bd 68 82 8b bc
       0.0017354056 0.031599555 -0.035714943 -0.017029956
0001e0 a9 7f a1 3c 9b af 5e 3d 87 8e 7d 3b e0 08 e4 bc
       0.019714193 0.05436669 0.003868969 -0.027836263
0001f0 73 3f 9b 3c 6e d0 b3 3d 6c aa c6 bc 69 09 85 bd
       0.018951153 0.08779989 -0.024251185 -0.064959355

fc2.weight f4 [9, 128]
000000 a0 a0 13 3d a3 48 da 3d 3f 94 75 3c 87 c5 c0 bc
       0.036041856 0.106583856 0.014988958 -0.023531688
000010 1d 03 84 3d 11 2d eb 3c 6a 13 3f 3c 54 31 2b 3d
       0.06445906 0.028708013 0.0116623435 0.04179509
000020 40 1b 4a bd 8e 58 7d 3d 65 1f 4a bd 41 d5 33 3d
       -0.049342394 0.06185203 -0.049346346 0.043904547
000030 55 9f 24 bd 97 3c 14 3d 27 3e d6 3d 7f d9 03 3c
       -0.040191013 0.036190595 0.10461073 0.008047461
000040 c8 59 9c 3d 72 83 71 bd 2f df ee bb a8 f1 be 3d
       0.07634312 -0.058963247 -0.007289789 0.09323436
000050 92 19 36 bc 80 e2 cd 3d b5 0c 45 3d 5a 1a 29 3d
       -0.011114495 0.10052967 0.04810782 0.041284896
000060 08 1c a3 3c 4c a0 82 bd 43 34 a8 3b 01 60 8b bb
       0.019910827 -0.063782305 0.005133183 -0.004253388
000070 c0 b7 76 bb 71 6e 0c bc c4 b2 32 3d 64 52 b8 3c
       -0.0037646145 -0.008571253 0.043627515 0.022500224
000080 ef 39 da 3b 4f 28 48 3c 6f 2e af 3d 23 39 3a 3d
       0.0066597383 0.012216642 0.085537784 0.045464646
000090 ec 9f 38 3d 7b 47 a2 3d 9e 16 13 bd 15 4b 2f bd
       0.04507439 0.0792379 -0.03591024 -0.042796213
0000a0 60 64 cb 3d a1 aa 91 bd 55 9a 6c 3d 56 af af bd
       0.099312544 -0.07112623 0.05776437 -0.085783646
0000b0 f5 85 a9 bc aa 06 d4 3d f5 54 85 bc 78 cd 0f bb
       -0.020693759 0.103528336 -0.016275862 -0.0021942537
0000c0 c8 61 22 bd 16 b9 cf bd fb 5e 9c 3d 45 94 ec 3d
       -0.039644033 -0.10142724 0.076353036 0.11551718
0000d0 75 cb c3 3b c7 67 9e 3c fb c7 03 3a 29 ba 00 3e
       0.0059751817 0.019336594 0.0005027053 0.12571014
0000e0 f9 51 a5 bd 34 03 75 bd f4 bb fa bc fa bd 5f 3d
       -0.08072276 -0.059817508 -0.030607201 0.054624535
0000f0 2c 95 02 bd f5 1a 64 bb 47 20 95 3c 7d 57 a7 3d
       -0.031880543 -0.0034806107 0.018203868 0.08170984
000100 7a 7e e3 3d 34 d9 2c bc eb 60 43 3d da 83 f9 ba
       0.11108108 -0.010549832 0.04769985 -0.0019036487
000110 08 38 a5 bd 42 b6 7c 3d 30 5b 27 3e 9f 8c af 3d
       -0.08067328 0.061697252 0.16343379 0.08571743
000120 b3 49 ef 3c a0 14 8f bc ac e4 a3 bd cd f1 c3 bd
       0.029209947 -0.01746589 -0.080026 -0.09567604
000130 3d cf 99 bc 1b 2f a4 3d ed 1c 2c 3d a8 e2 39 bd
       -0.018775577 0.08016797 0.042019773 -0.045382172
000140 d2 a1 e6 3c 78 c2 19 be d7 5d d8 bc 1b bd 69 bd
       0.028153334 -0.1501559 -0.026411934 -0.05706511
000150 b0 43 db bc 14 97 8b bd 43 f1 fd bc b2 30 76 3c
       -0.026765674 -0.06815925 -0.030998832 0.015026258
000160 56 9c 9f 3d 63 8e 93 bd 9f bf 4b bd 56 4b 6f 3d
       0.077934906 -0.072048925 -0.04974329 0.058421455
000170 23 13 86 bd 14 cf b1 bb bf cb 9a 3d 0f 6f c3 bd
       -0.06546619 -0.005426297 0.07558393 -0.09542667
000180 38 33 8a 3d 2b 9f 89 3d e1 64 6b 3b c4 e6 3d bc
       0.067480505 0.06719812 0.0035918283 -0.011590663
000190 12 85 39 bd 08 0d 6c 3c a3 92 3d bd 04 5c f4 3c
       -0.04529292 0.014407404 -0.04628242 0.029829033
0001a0 e2 6d e6 3d c1 d3 0f bd ae db 76 3c 26 dc 80 3c
       0.11251427 -0.035114054 0.015067024 0.015729975
0001b0 31 17 f7 bc 16 08 94 3b df eb f0 3c 40 55 69 3e
       -0.030162426 0.0045175655 0.029409347 0.22786427
0001c0 82 dc 0f bd 30 4b b0 bc 62 7b 2d bd 09 20 b1 3a
       -0.035122402 -0.021520227 -0.042353995 0.0013513576
0001d0 0e e7 5f bd 58 f1 a4 bd 3b 9e f4 3d 39 98 30 bd
       -0.05466371 -0.08053845 0.119442426 -0.04311392
0001e0 42 88 b0 bd 97 f3 20 be 09 17 00 be 29 9c 7e 3d
       -0.08619739 -0.15717922 -0.12508787 0.062160645
0001f0 9d 5c fb bc c2 bc 60 bd 1d b5 2f b9 3d 76 15 3e
       -0.03068381 -0.054867513 -0.0001675677 0.14595886
000200 ae aa a7 3d 60 0d 93 bd 9e a9 05 bd 29 ca 51 bd
       0.081868514 -0.071802855 -0.032632463 -0.051218186
000210 02 e6 05 be 13 57 bb 3d dd 3b b1 bd e0 19 81 3d
       -0.13076022 0.091474675 -0.08653996 0.063037634
000220 b9 a4 e8 3c 7e 49 d2 3d c9 bb e4 bd ad fa a0 bd
       0.028398858 0.10267924 -0.1116863 -0.078603126
000230 30 bf b9 bc 7d 5b 93 3d 3b 50 cf 3c 3d 02 9b 3d
       -0.022674173 0.071951844 0.025306812 0.07568786
000240 96 cc 43 3d 7c 45 0f ba 00 9b 1b bd d9 08 74 bc
       0.04780253 -0.0005465371 -0.037989616 -0.014894688
000250 d0 b2 19 bc eb a0 3f bd 58 ec 70 3d 5b 1b 2d 3d
       -0.009381011 -0.046784323 0.058819145 0.042262416
000260 98 98 5e bd dd b2 6b 3d f3 80 9f 3c e7 c8 11 3d
       -0.054344743 0.057543624 0.019470667 0.035591986
000270 5b 6f a5 3c 52 60 91 3d 3b a1 bb bd f9 18 da 3c
       0.0201947 0.0709845 -0.09161612 0.026623236
000280 3b e6 9c 3c a3 2c 5a 3b 07 75 95 bc 12 2e b3 3d
       0.019152751 0.0033290766 -0.01824428 0.087490216
000290 4f 7a bf 3c f7 4f 5b bd 9c e5 98 bd 4f 7c e2 3c
       0.023373751 -0.053543057 -0.074656695 0.027647166
0002a0 2d 57 ad 3d 88 b5 4b bd 86 72 3a bc 77 7d a5 3d
       0.08463893 -0.04973367 -0.011379844 0.08080571
0002b0 3a e3 3b 3d 76 a1 1b bd b9 bb ca bd bd 87 1b 3e
       0.045870997 -0.037995778 -0.098990865 0.15188499
0002c0 9f 59 20 3c 1e e4 ef 3c d9 64 fa bc 0e 93 1f bc
       0.009786992 0.02928358 -0.030565666 -0.00973965
0002d0 69 c4 e2 bc 50 94 9a bd e0 a0 21 bd 02 1b 9e bd
       -0.027681546 -0.075478196 -0.039460063 -0.07719995
0002e0 5d 1d d4 bd 39 45 78 3d 17 bc 25 3e 13 ff 46 bd
       -0.10357163 0.06061289 0.16185032 -0.0485831
0002f0 e6 3c 5a 3d 3f 7c 7d bd 9c 83 ba bd ea a6 82 3d
       0.053280734 -0.06188607 -0.09107134 0.063794926
000300 8b ff b2 3c 1d 6d 57 3b ba b1 11 bd 5c a2 c9 3d
       0.021850368 0.0032871433 -0.035569884 0.09845421
000310 0b 0e 3f bd 77 a8 40 3d 56 57 af bd d7 52 0c 3d
       -0.04664425 0.04703566 -0.0856158 0.03425869
000320 c4 45 d9 3d 2e 5f 13 be a2 b7 ae bb 64 3e 32 bd
       0.1060901 -0.14391777 -0.0053319493 -0.04351653
000330 1b 61 a6 3d f0 76 1e 3c 85 ba 8f 3d af 02 49 3d
       0.0812399 0.009671912 0.07017998 0.049074825
000340 b8 3b b7 bd d4 9d a6 bd 86 1d 92 3d 0a 68 07 bd
       -0.08946937 -0.08135572 0.071345374 -0.033058204
000350 74 0b ae 3c 93 ad d6 bc 13 88 ba bd 25 3a 46 3d
       0.021245696 -0.026205814 -0.09107985 0.048395295
000360 73 c1 b0 3d 2d 22 8a 3d b5 71 67 3d 9d a2 13 bc
       0.086306475 0.067448 0.056504924 -0.009010938
000370 f1 a4 9b 3c 79 7b 01 3d c5 b4 97 bd 89 2e 84 3d
       0.018999549 0.031611893 -0.07407526 0.064541884
000380 44 fa 2f bb 7f eb b1 3d 2e 4f 6b 3d a4 be 88 bc
       -0.002685205 0.086874954 0.05744856 -0.016692467
000390 d4 2c de bc d4 9e 9e bb c1 cf 39 bd 71 08 d9 3d
       -0.027120985 -0.004840711 -0.045364145 0.10597313
0003a0 c9 dd 97 3d 0a 1b b4 bc 87 43 a8 bd 89 5b 9f 3d
       0.07415349 -0.02198555 -0.08216005 0.07781131
0003b0 2d 67 a8 bc 76 14 5e 3d e8 76 20 bd c6 65 15 bd
       -0.02055701 0.05421873 -0.039175898 -0.03647401
0003c0 6d b0 f6 bc c9 1f 0e 3e 22 1a 73 3c 32 d1 6c 3d
       -0.030113423 0.13879313 0.0148377735 0.05781669
0003d0 4d 76 a4 3c f0 db 0b 3e 96 f5 a8 3d ce b3 90 3d
       0.020075941 0.13658118 0.08249967 0.07065545
0003e0 a3 d7 a8 3c 2f d1 82 bc ff a8 09 bd 17 d8 af 3b
       0.020610636 -0.015968887 -0.033608433 0.005366336
0003f0 55 ed e2 3d ff ff 22 bd a4 51 da bd 1d d0 1e bd
       0.11080424 -0.03979492 -0.10660103 -0.03877269

fc2.bias f4 [9]
000000 0a 0b d1 be 61 39 57 be fc 9f 0e 3c 6d 2e d4 3d
       -0.40828735 -0.21017982 0.008705135 0.103604175
000010 f9 ce 71 3e 9d 0b f7 bc 65 f5 d9 3e 97 fc 21 3c
       0.2361411 -0.030156905 0.42570034 0.009886882
000020 48 6c 29 bf
       -0.6618085
