results/arousal/classification_5/20251225_171751_996819/best_model.pt (torch, 520629 bytes, 16 tensors)

conv1.weight f4 [16, 1, 3, 3]
000000 9d c8 a9 3e 3d 4f eb 3e 42 32 53 be c8 81 74 3e
       0.33160868 0.45958892 -0.2062464 0.23877633
000010 92 60 35 be cd 6e bf 3d 83 ca 33 be 7d ce 59 3d
       -0.1771262 0.093473054 -0.17557721 0.05317544
000020 13 3c cf 3e e8 23 b1 be 4a 0c c5 3e 03 ed a6 ba
       0.4047552 -0.34597707 0.38485938 -0.001273543
000030 c3 74 8d 3e 8d 00 d3 bd 02 7e b3 3d 41 ef 07 be
       0.27628145 -0.103028394 0.087642685 -0.13274862
000040 e6 8f ce 3e 25 3e a8 bb 1c bc 9d bd 94 d6 62 3e
       0.4034416 -0.0051343613 -0.07701895 0.22152168
000050 3d 71 92 be c5 62 3d be f5 6b f5 bd f1 0d c9 3e
       -0.2860202 -0.18494709 -0.11983482 0.3926845
000060 f5 05 07 be bd 56 33 be f5 c8 21 be 65 de 18 be
       -0.13185866 -0.17513557 -0.15799315 -0.14928587
000070 56 4d 41 bd 69 4c ea be 4a 9a 94 3e c3 be 79 be
       -0.047192894 -0.4576142 0.29023963 -0.24389176
000080 4c b0 a0 3e 17 8e 63 3d bf b8 0b be cd 79 e6 3e
       0.31384504 0.05555543 -0.13644694 0.45014802
000090 63 88 68 3d bd a6 cf 3e 5a 7a 19 3e da f9 7e be
       0.056770694 0.405569 0.1498808 -0.24899998
0000a0 89 17 bc 3d a4 66 8a be 6b 40 d4 bc 38 e6 aa 3e
       0.091841765 -0.27031434 -0.025909623 0.33378768
0000b0 22 45 44 3e 6a 5a 8f bd e8 84 b1 3e e8 bd 00 3d
       0.19166997 -0.06999667 0.34671712 0.03143111
0000c0 50 60 09 3e 5b b7 84 be 17 74 b8 be e6 5f 93 bd
       0.13415647 -0.2592114 -0.3602607 -0.071960256
0000d0 1b ab a7 be 54 97 d0 3e 5b e0 e5 3c 1c b1 7a 3e
       -0.3274773 0.40740454 0.028061083 0.24481624
0000e0 db 58 15 3e f1 3d 39 bc 64 91 96 3e c1 c7 c2 be
       0.14584677 -0.011306272 0.294078 -0.38043025
0000f0 36 f8 cd 3c af 67 b4 be 8b d9 52 3d 04 ed e0 bd
       0.02514277 -0.35235354 0.051476996 -0.10982707
000100 e7 c8 70 3d b2 21 e0 bd 38 8c 34 3e d5 97 82 be
       0.058785345 -0.10943927 0.17631614 -0.25506464
000110 07 bf cc be b7 3d bb bd fb 92 fa 3e 60 5b 58 3e
       -0.39989492 -0.091426305 0.48940262 0.21128607
000120 55 d8 99 3e ac c3 ae be 2d 4b d9 be 5f c8 91 be
       0.3004786 -0.3413366 -0.42440167 -0.28473184
000130 fa fd 9f be 87 f6 e6 3d 51 bf 07 3e 8e 3d d6 3e
       -0.31248456 0.1127749 0.13256575 0.41843837
000140 b4 f2 c0 bb a0 77 33 be a8 72 59 3e c2 7b 78 be
       -0.0058883075 -0.17526102 0.21235144 -0.2426596
000150 23 ed 2a 3e 78 92 c5 3b e2 68 ef 3e 0f 17 6b be
       0.16692023 0.0060294233 0.46759707 -0.22958015
000160 ba e9 99 be 5d 43 d3 3d 1d c3 85 bb 10 ad a2 bd
       -0.30061132 0.10315583 -0.004082097 -0.07943165
000170 8d 2b b4 3e ba a4 64 3e 54 86 c7 be de 2e 78 be
       0.35189477 0.22328463 -0.38969672 -0.24236628
000180 9f 84 b1 3e 29 b9 c0 bc 14 de 3f be 72 6f 20 be
       0.34671494 -0.023525791 -0.1873706 -0.15667513
000190 63 eb 7c be 8c 27 ac 3e 26 fc b8 3b 29 b5 67 be
       -0.24699168 0.33623922 0.005645293 -0.22627701
0001a0 34 65 34 3e 64 cf 25 bd fb 50 18 bf 8e 35 b0 bd
       0.17616731 -0.040480986 -0.59498566 -0.08603965
0001b0 51 93 61 be b8 80 63 be 7e 89 11 3f d2 de b6 3d
       -0.22028853 -0.22217071 0.5685042 0.08929218
0001c0 f3 0e 43 3e 5b d5 bb be ce c0 fd bd f3 59 f3 bd
       0.19048671 -0.36686215 -0.1239029 -0.11882391
0001d0 d7 2c d3 3c 5e 7e bd be 3b 48 2f 3d 7a 49 c6 be
       0.025778217 -0.37010473 0.042793494 -0.38727933
0001e0 d8 29 84 bc 11 e5 bc bc 21 c8 b6 bd 8f aa 0d be
       -0.016133234 -0.023058446 -0.0892489 -0.13834594
0001f0 ac 77 b6 be 56 97 95 be b6 e8 51 be 89 95 b2 be
       -0.35638177 -0.29217023 -0.20498928 -0.3487971
000200 39 e4 a3 3e 47 62 59 bd 6d 98 ae 3e 3e 07 7b 3e
       0.32010058 -0.05307224 0.34100667 0.24514481
000210 e0 21 91 be 36 59 9a 3e 70 3b b9 bd db ef 26 be
       -0.28346157 0.30146188 -0.0904454 -0.16302435
000220 c6 2f b5 be fd 24 bc be fe 0e d4 3d 5e b3 db bd
       -0.3538801 -0.3674697 0.10354422 -0.10727571
000230 e2 cb 7e 3e 81 5d 39 be d3 76 d7 3e 13 75 88 be
       0.24882463 -0.18102075 0.42082843 -0.2665182

conv1.bias f4 [16]
000000 48 ed f0 b9 b4 58 f8 3a d6 c0 60 b9 d2 86 21 b8
       -0.00045953155 0.0018947334 -0.00021434142 -3.8510952e-05
000010 7d 4f 52 bb 13 df 78 b9 6b 13 a0 3b 42 88 6a 3a
       -0.0032090836 -0.00023734225 0.0048851273 0.00089466956
000020 40 a8 a0 36 bc 79 4c 3a ce a5 6c 3a 26 48 eb ba
       4.7879585e-06 0.0007800122 0.00090273924 -0.0017950579
000030 a3 2b 83 3a b6 26 73 3a df 9e 11 bb 1e 8a 97 ba
       0.0010007512 0.0009275483 -0.0022219939 -0.0011561548

bn1.weight f4 [16]
000000 19 93 6c 3f 58 de 43 3f ec 7a 71 3f 4e 48 8d 3f
       0.92411953 0.76511145 0.9432819 1.1037691
000010 c8 ab 81 3f 9a 95 8b 3f 19 01 99 3f 75 c8 8d 3f
       1.0130548 1.090503 1.195346 1.10768
000020 69 45 8c 3f b8 66 75 3f 45 05 89 3f e3 37 52 3f
       1.0958682 0.9585986 1.0704733 0.82116526
000030 f3 be 7a 3f 1a a6 42 3f fe fd 7b 3f 68 88 74 3f
       0.97947615 0.760347 0.98434436 0.9552064

bn1.bias f4 [16]
000000 d5 ff 88 be 64 ee 1c bc a2 35 84 be cc 0d 87 bd
       -0.26757684 -0.009578321 -0.2582217 -0.065944284
000010 27 1a d9 be 2c af 82 bd bd 05 52 be ed 34 2b be
       -0.42402765 -0.06381068 -0.20510001 -0.16719408
000020 47 ae 9c bd a0 ef 16 bd 54 24 1a be 9e fa 2c be
       -0.07650428 -0.036849618 -0.1505292 -0.16892478
000030 7d 94 99 bd c7 27 14 bb 75 1e 0b be 70 83 16 bc
       -0.07499025 -0.0022606717 -0.13585837 -0.009186611

bn1.running_mean f4 [16]
000000 c0 9a db 3a 2a f2 0c 3a 5a 6c 99 ba 5d ba d6 3a
       0.0016754493 0.00053766614 -0.0011705265 0.0016382445
000010 9c dd b4 39 63 0e a4 ba 72 ce 20 3b 28 da ab b7
       0.00034497387 -0.0012516495 0.0024537113 -2.0486375e-05
000020 b5 3f a6 ba 1e d0 81 39 1a 70 d8 b9 ac 68 19 bb
       -0.0012683781 0.00024759857 -0.00041282253 -0.0023408337
000030 1c 7b 27 ba ab d7 59 bb 48 11 0c ba 70 4a 1d bb
       -0.0006388889 -0.003324012 -0.0005343151 -0.0024000667

bn1.running_var f4 [16]
000000 db 41 03 3f 00 7d 98 3e 50 3e 3d 3e 2c 19 56 3e
       0.5127236 0.29782867 0.18480802 0.2090804
000010 fa 80 d0 3e 65 c9 31 3e bc e1 08 3e e6 04 55 3e
       0.407234 0.17361982 0.13367361 0.2080265
000020 d9 b4 bc 3e c9 28 3d 3e 89 97 8c 3e 6f 93 3b 3f
       0.36856726 0.1847259 0.27459362 0.7327184
000030 68 5d 0f 3e 08 3b 76 3f 7a 1d b6 3e 42 17 98 3e
       0.14000475 0.96183825 0.35569364 0.29705244

conv2.weight f4 [32, 16, 3, 3]
000000 7a f4 6d 3e c7 56 f5 bc aa ca 6d 3d e5 cf d8 3c
       0.23237792 -0.029948605 0.058054604 0.02646632
000010 27 9b f2 3d 54 45 ab 3b 37 76 69 3d 1f 45 05 3e
       0.11845999 0.0052267704 0.056997504 0.13014649
000020 62 c3 2e 3d c2 c3 29 be 0e 11 d5 be de d3 20 be
       0.0426668 -0.16578582 -0.41614574 -0.15705821
000030 f1 ef 69 3e 8a 01 56 bd ec 8f 45 be 89 61 1a 3e
       0.22845437 -0.05224756 -0.19293183 0.15076269
000040 99 c8 4f be 7b 08 86 3d 03 4f c6 3d 3f 02 3e be
       -0.20291366 0.06544586 0.09683039 -0.18555544
000050 da 8a 77 3e bc 30 44 3e b3 fa 25 be 25 fa e5 be
       0.24174061 0.19159216 -0.16208915 -0.44917408
000060 7f 10 30 bc cd ca 6e 3e 30 ba a9 3d 93 f4 57 bc
       -0.0107461205 0.2331955 0.082874656 -0.01318087
000070 03 69 13 be bf 4e d4 bd 53 40 c2 bd eb bf 74 bd
       -0.14395528 -0.10366582 -0.09484925 -0.05975334
000080 e9 12 d6 bd 1f fd 51 3e 4e 3b 92 be ea 91 98 3c
       -0.104528256 0.20506714 -0.2856087 0.018624265
000090 1b 96 19 3e bf 37 85 be b3 81 6c be 05 22 45 bd
       0.14998667 -0.26019093 -0.23096351 -0.048128147
0000a0 c4 35 72 ba 14 0c a6 3c 6e 8f f3 3d 6b 09 36 3c
       -0.0009239579 0.020269431 0.118925914 0.011110644
0000b0 24 74 a0 3d 9c a3 be bd 39 45 99 bd ab fb 1d be
       0.07834652 -0.0930855 -0.07483906 -0.15428035
0000c0 4c 0a 17 be c3 4a 0d 3e db 8e 92 3e de 4d 3f be
       -0.14750022 0.1379805 0.28624615 -0.18682048
0000d0 6e 0a a0 bd a4 8e 97 be 2b 9d 3a 3d fc 8b be 3d
       -0.07814489 -0.29601014 0.045560043 0.09304044
0000e0 7f 63 54 3d 96 f8 57 bd 74 26 16 3d 25 0f d5 3d
       0.0518527 -0.052727304 0.036657766 0.10403279
0000f0 86 f0 bb bd 91 45 04 3e 3a 22 26 be a5 d0 08 be
       -0.091767356 0.12917162 -0.16223994 -0.13360842
000100 a8 e3 67 be b5 ef 5a 3e b0 69 0b 3e ad 3b 0e 3d
       -0.22645438 0.21380503 0.13614535 0.03472488
000110 ff 94 bb be 1b 6a ea bd 5e 74 1e be f9 12 b0 3d
       -0.36637112 -0.11446019 -0.15474078 0.08597369
000120 48 92 99 bd 27 f0 a3 3d 35 1f 07 3e 32 da a2 3d
       -0.07498604 0.0800479 0.13195498 0.07951774
000130 d2 35 df ba 2d 93 1d be 34 c6 ec bc 3d 02 b0 be
       -0.001702959 -0.15388174 -0.028903104 -0.34376708
000140 3b 8e 79 3e bc cd ab bd 3c d8 c3 3d 9b 33 b2 bd
       0.24370663 -0.0838885 0.09562728 -0.08701249
000150 13 68 04 3e 5b bf 6e 3d 1c 90 47 be 1a c1 06 bd
       0.12930326 0.05828796 -0.19488567 -0.032899
000160 e5 0c ff bc c2 f3 03 3f 03 f9 3c 3d 66 69 ad bd
       -0.031134078 0.5154382 0.046135914 -0.08467369
000170 1b 12 24 be 49 3a 8b 3d e7 37 9b be d3 7f 25 be
       -0.16022532 0.067982264 -0.30316088 -0.16162042
000180 0f 80 41 3d 01 46 22 bc 5c bf 58 bd 60 e1 9f bd
       0.047241267 -0.009904386 -0.05291687 -0.07806659
000190 fb 3f 0d bd 25 e1 e7 3d 4f 8a 3b 3e 93 aa be 3d
       -0.034484845 0.1132224 0.1831448 0.09309878
0001a0 9e de 99 3c 61 f7 79 3d 68 89 95 3d ce 3c 6c be
       0.01878291 0.061026935 0.07301599 -0.2307007
0001b0 d1 06 5f be de 67 95 be 38 5b 89 3e e2 2a b4 bb
       -0.21779944 -0.29180807 0.26827407 -0.005498276
0001c0 80 3a 81 3e b1 9c a1 3d a4 8d 30 3e 37 74 2d 3d
       0.25239944 0.07891215 0.17241532 0.04234716
0001d0 16 1b 90 bd 97 8f 98 3c 34 89 38 3c c6 d4 89 be
       -0.07036416 0.018623156 0.0112631805 -0.26920146
0001e0 1d e6 4a bc 65 ec 5b be d1 6a 64 3e ae e9 29 3e
       -0.012383965 -0.21476896 0.22306372 0.16593048
0001f0 a9 34 71 be 30 1c c0 3c 6e 9c cf bd a6 eb 0b 3e
       -0.23555245 0.02345094 -0.101372585 0.13664111
000200 a2 65 ae 3e 1d f2 48 bd 90 9f 93 3d af d4 17 be
       0.34061915 -0.049059022 0.072081685 -0.14827226
000210 f0 1a 11 be 78 39 4b be a1 1f fd 3d 26 b4 e7 bd
       -0.14170432 -0.19846141 0.12359548 -0.113136575
000220 9b 1f 6c 3c 29 55 c3 3d 30 bd d3 bc ee c1 2a bd
       0.014411832 0.095377274 -0.025847048 -0.041688852
000230 9e f7 89 3e 7a 81 f5 bd e8 5c 5d bc cc a9 0e bf
       0.2694673 -0.11987586 -0.01351092 -0.5572784
000240 d8 94 ac be b2 f3 02 3e 25 01 45 3d ee e3 8b 3d
       -0.3370731 0.12788275 0.048096795 0.068305835
000250 de 4d 4d be 6f 3e 20 3e be 4c 93 3e af 49 c2 3d
       -0.20049235 0.15648817 0.28769487 0.0948671
000260 18 db a6 bd f7 d4 56 be 13 2c 1f 3e 63 fb c2 3d
       -0.081472576 -0.20979677 0.15544157 0.095206045
000270 49 aa 18 3e 72 be 1d 3e c2 ea 2d bd e3 30 b0 3d
       0.14908709 0.1540468 -0.04246021 0.086030744
000280 c3 e7 f7 3c 83 88 26 bd 8c 95 0a be 64 4e 7d 3d
       0.03026188 -0.04065753 -0.1353361 0.061842337
000290 4f 61 17 be 7e ed 80 be 63 be e2 3c ad 87 a2 be
       -0.14783214 -0.25181192 0.027678674 -0.31744137
0002a0 10 cf 63 38 2d 38 13 be c5 74 6f 3e d4 ba 1e 3e
       5.431386e-05 -0.14376898 0.23384388 0.15500957
0002b0 7a 76 6a 3d 87 5c ef be be 8b 0d be 99 4d b8 be
       0.057241894 -0.4675028 -0.13822839 -0.35996702
0002c0 65 d0 82 3e 0c 6b b2 3d 8a 94 94 bc 47 ef 3d be
       0.25549617 0.08711824 -0.018137235 -0.18548308
0002d0 6d 51 c2 bb fa 1c 2e 3d f9 49 8d bd 7d 02 30 be
       -0.005930117 0.042508103 -0.06898875 -0.17188449
0002e0 0b af 5d bd 28 e3 8c be 4b df 3d 3e 8b ee 8f be
       -0.054122012 -0.27517056 0.18542211 -0.2811168
0002f0 e9 72 03 3c 85 33 b2 3d 32 9c cd bd ef a1 0f 3d
       0.008023002 0.08701233 -0.100395575 0.03506654
000300 80 a2 e5 bd 0b 9b 86 3e cd d2 68 be 98 e2 c7 3d
       -0.11212635 0.26290163 -0.22736664 0.09760016
000310 96 f1 3b 3e e1 7e c6 3b e0 2d c8 bd 2a a8 59 3d
       0.18353876 0.0060576056 -0.09774375 0.05313889
000320 4a 1d b0 bc 57 c2 04 be 6c bd 85 bd 8c 1f c2 bb
       -0.021498341 -0.1296476 -0.0653027 -0.005924171
000330 f2 ba cb 3d 7e 71 4b bc db d9 2e bd f4 4b 1a 3d
       0.09947766 -0.012417195 -0.042688232 0.03767009
000340 d6 bf 7e be d6 17 27 3c ad e2 ab 3e 88 a2 8b 3e
       -0.24877867 0.010198554 0.33571377 0.2727244
000350 aa c7 bf be 75 03 71 3d eb 42 76 be 67 c5 88 3c
       -0.3745702 0.058841188 -0.24048965 0.016695691
000360 3f a8 9f bd 94 32 d3 3d 20 04 85 3e ac ed 97 be
       -0.07795762 0.103123814 0.2597971 -0.29673517
000370 17 85 3b 3e f2 16 f5 3c d9 42 25 3e 45 24 cb 3b
       0.18312488 0.029918168 0.16138782 0.006199392
000380 f3 33 93 bd 9b f0 86 3e 4e 39 51 be c7 1c 0b bc
       -0.07187643 0.26355442 -0.20432016 -0.008490748
000390 e5 9d bd bd d4 a5 c5 bd 5c fa 59 bd ce 77 50 bc
       -0.092586316 -0.0965077 -0.053217277 -0.012723876
0003a0 ad 0d 11 3e 75 ec 84 3d c4 67 44 3e 67 b6 66 bd
       0.14165373 0.06490413 0.19180208 -0.056326296
0003b0 d4 8d 20 bd 3a 98 3b 3a 34 eb a7 bd 4d 06 66 be
       -0.039197758 0.00071561674 -0.08199158 -0.22463341
0003c0 3d 41 d3 bd 7f d6 3b 3d 6a db bf 3d d5 8c 4d be
       -0.103151776 0.045858856 0.09368022 -0.20073254
0003d0 06 2f 03 be ad d2 89 bd c7 3f 30 bd 81 6d db be
       -0.12810907 -0.06729636 -0.043029573 -0.42856982
0003e0 7e 32 0f be 1c 00 65 3d 09 9a 08 bd 76 9b cb bc
       -0.13984105 0.055908307 -0.033350024 -0.024854403
0003f0 f0 54 b8 3e b2 00 b7 3d 7c cd 80 3e 15 5e ae 3d
       0.36002302 0.089356795 0.25156772 0.085140385

conv2.bias f4 [32]
000000 8c 11 09 b8 e5 77 de 39 b5 05 71 ba 0a ce c5 b9
       -3.2679687e-05 0.00042432468 -0.0009194271 -0.0003772828
000010 42 d6 b6 3a d2 2e 9d 3a 5e ba 1f b9 c7 45 ba 3a
       0.0013949352 0.0011992103 -0.00015232849 0.0014211469
000020 a0 91 06 ba 98 b9 a8 39 ea be ee 39 fe e6 81 3a
       -0.0005133394 0.00032181735 0.0004553714 0.000991076
000030 fa 39 76 39 40 ff d2 b8 a9 bf 22 bb 1e 76 91 b9
       0.00023481986 -0.00010061124 -0.0024833477 -0.0002774456
000040 6a 74 11 3a 04 bf 1e ba c4 b6 0e b9 69 35 2e ba
       0.0005548658 -0.0006055685 -0.00013610261 -0.0006645532
000050 a2 74 92 ba 48 91 66 b9 74 75 39 ba 69 fc 86 39
       -0.0011173675 -0.00021988631 -0.0007074692 0.00025746532
000060 66 17 54 39 24 2a c7 b9 bf e6 ca b9 11 45 c6 3a
       0.00020226612 -0.00037987635 -0.00038700362 0.0015126785
000070 8a 72 8b ba 0e 94 2b b9 88 cc 20 b8 90 67 02 3b
       -0.0010638994 -0.00016362985 -3.8337457e-05 0.0019898154

bn2.weight f4 [32]
000000 8f 8a 03 40 09 b2 f4 3f 16 50 00 40 af 6d 00 40
       2.055332 1.9116832 2.004888 2.0066946
000010 c9 3d ff 3f 9a 7e 01 40 e1 55 03 40 f5 9f ff 3f
       1.994073 2.0233521 2.0521166 1.997069
000020 89 c0 fe 3f cd 3e f0 3f 2b 00 f5 3f 52 38 f3 3f
       1.9902507 1.8769165 1.9140676 1.9001563
000030 e2 9f 02 40 99 d8 fa 3f 73 35 fd 3f 25 cd 04 40
       2.0410085 1.959735 1.9781936 2.075021
000040 05 88 fa 3f 6a dc fa 3f 65 6f f3 3f fd b3 fd 3f
       1.957276 1.9598515 1.901837 1.9820553
000050 59 e8 00 40 6d de f6 3f b5 35 f8 3f e0 73 f7 3f
       2.0141814 1.9286629 1.939139 1.9332237
000060 e7 40 04 40 57 e1 f9 3f 5b 1a e9 3f 56 94 00 40
       2.0664613 1.9521893 1.8211168 2.0090537
000070 47 fb 05 40 4e e6 fc 3f 27 1e 04 40 d1 28 01 40
       2.0934618 1.9757783 2.0643404 2.0181162

bn2.bias f4 [32]
000000 54 ad 3f bf e0 56 50 bf 19 6b 54 bf 41 5f 3b bf
       -0.7487385 -0.8138256 -0.8297592 -0.7319222
000010 4b 58 58 bf 95 25 47 bf df fc 3e bf a2 17 9a bf
       -0.84509724 -0.7779172 -0.746046 -1.2038462
000020 36 a5 26 bf cd b5 67 bf 5c 88 56 bf 20 31 5a bf
       -0.6509584 -0.9051178 -0.8380182 -0.8523121
000030 00 7a 31 bf 08 ca 79 bf d5 09 2d bf 77 c1 3c bf
       -0.6932678 -0.975739 -0.6759313 -0.73732704
000040 e4 ec 67 bf c4 84 43 bf 29 04 36 bf 17 10 54 bf
       -0.9059584 -0.7637446 -0.711001 -0.8283705
000050 2d 34 30 bf a7 c6 2e bf 61 76 38 bf 7d 07 3b bf
       -0.68829614 -0.6827187 -0.7205563 -0.730583
000060 d7 1f 40 bf 4d 3f 51 bf c6 a0 20 bf f8 08 27 bf
       -0.75048584 -0.81737214 -0.6274532 -0.6524806
000070 16 d6 65 bf df 7b 18 bf 97 d0 53 bf 3e c5 6b bf
       -0.89779794 -0.5956401 -0.8274016 -0.9209784

bn2.running_mean f4 [32]
000000 36 3c 40 bf 33 51 df be 63 6f c6 bc 28 40 6c bf
       -0.75091875 -0.43616638 -0.024223035 -0.92285395
000010 a2 c3 14 bf 29 67 8a be 07 67 4a bf 64 73 db 3e
       -0.5811101 -0.2703183 -0.7906346 0.42861474
000020 02 7f f7 be 14 89 09 3f ec ad c5 be a6 b8 0d 3e
       -0.48339087 0.5372479 -0.38609254 0.13839969
000030 0c bc 71 bf 91 0d 37 3e 22 70 58 bf cf ea 70 3e
       -0.9442756 0.17876269 -0.845461 0.23527072
000040 ec 96 29 3f d1 8b 20 bf 5e 9f c4 be 25 bc b7 3d
       0.66245914 -0.6271334 -0.38402838 0.089714326
000050 26 a5 67 be 4a 7b 23 bf ba 63 56 be 18 5a 5a bf
       -0.22621593 -0.6386 -0.2093648 -0.8529372
000060 96 7d 47 bf 50 6b 0f be 90 b8 ec 3d 74 7d 11 bf
       -0.77926004 -0.1400578 0.1155864 -0.5683205
000070 fd a0 80 be b1 d4 8c bf 37 47 29 bf d6 4a bf 3e
       -0.25122824 -1.1002408 -0.6612429 0.37361783

bn2.running_var f4 [32]
000000 6b de 3e 3f 3f ec 0d 3f f1 5e 0b 3f ea 4f 0c 3f
       0.7455813 0.5543861 0.54441744 0.5480944
000010 7b e2 16 3f e3 b2 45 3f e7 f2 17 3f eb fe da 3e
       0.5893933 0.77226084 0.59355015 0.42772612
000020 bd a7 0f 3f cb 8f 09 3f e0 98 25 3f 36 7c 4c 3f
       0.56115323 0.53735036 0.64686394 0.7987703
000030 b2 9d 40 3f 96 40 f8 3e 02 67 34 3f 4a be 22 3f
       0.75240624 0.48486775 0.7046968 0.6357161
000040 f6 d2 06 3f 33 5c 27 3f eb 6b 22 3f 5d d4 20 3f
       0.5266565 0.6537506 0.6344592 0.6282404
000050 1b c7 0e 3f f9 dc 05 3f 44 67 0e 3f 78 2b 34 3f
       0.5577256 0.522903 0.5562632 0.7037883
000060 49 48 0d 3f d2 9a f5 3e 4f e1 02 3f 97 c7 2f 3f
       0.55188423 0.4796968 0.51125044 0.68663925
000070 d9 38 00 3f 27 a7 59 3f 16 5a 34 3f 52 4e e0 3e
       0.5008674 0.8502068 0.7044996 0.43809754

fc1.weight f4 [128, 960]
000000 71 f4 a3 be ce e2 8b 3e a1 e9 04 3e 62 f7 3c bd
       -0.32022431 0.27321476 0.12979747 -0.04613436
000010 65 3d f4 bb 4a 2f 0c be 75 28 09 3d 1c 5e 8c 3d
       -0.007453608 -0.13689914 0.03348585 0.068538874
000020 3d 13 a1 3d 26 7e 2f 3e 3e e8 d1 3d 9b 84 7e bd
       0.078649975 0.17137966 0.10249375 -0.06213818
000030 48 38 96 be 2f 71 ae bd cd 28 7c be c0 80 21 bd
       -0.29339814 -0.08517682 -0.2462494 -0.039429426
000040 26 95 71 bd a9 5b 8f 3e 08 5b 9d be 32 e4 20 bc
       -0.05898013 0.2799962 -0.30733514 -0.009820031
000050 f5 c5 b8 bd 91 c9 2d be e8 7b 8d bd c5 4f b9 bd
       -0.09022132 -0.16971423 -0.06908399 -0.09048418
000060 35 c4 c1 3e d8 e8 15 bd 41 c0 e5 bd bc 7c a8 3e
       0.37845007 -0.03659901 -0.1121831 0.32907665
000070 18 09 12 be 2d 6b dc bc fc 60 58 3e 96 37 2c be
       -0.14261281 -0.026906574 0.21130747 -0.1681808
000080 39 d4 03 bf b3 59 0c 3d c8 ed 3f 3e 96 07 37 3e
       -0.514957 0.03426523 0.1874305 0.17873988
000090 fd e7 a0 3e bd 77 09 bd 2e d2 26 be 9c 66 28 3d
       0.31426993 -0.033561457 -0.16291115 0.04111348
0000a0 eb b0 c5 be d0 6b ad 3d 8a b7 07 be 8a a4 ce 3d
       -0.3861154 0.08467829 -0.13253608 0.10089977
0000b0 dd dd 12 3a e1 06 05 bd fd 0d d8 3c 29 f8 da 3b
       0.0005602518 -0.032477263 0.026373858 0.006682415
0000c0 13 d6 7b bd f0 9a 02 3e ce f6 aa bd 87 c8 fd bd
       -0.061483454 0.12754416 -0.083478555 -0.12391763
0000d0 22 73 8e be 13 b8 a9 3e bd 34 3c 3e fb 10 c2 3d
       -0.27822214 0.3314825 0.18379493 0.09475895
0000e0 af 3c 58 3e f6 28 c0 3d 28 75 3a 3e ae 5c 34 be
       0.21116899 0.09382813 0.18208754 -0.1761348
0000f0 42 4a f5 3d da 3c 28 3e e0 37 8d be 42 91 27 bd
       0.11977054 0.16429463 -0.27581692 -0.040910013
000100 74 e0 b8 3e b5 6c 31 3e 9d 68 9b bc 42 ac 6f 3e
       0.36108744 0.17326625 -0.018970782 0.23405555
000110 3b 7c df 3d be 81 84 3e f7 26 b1 be f2 46 9c bd
       0.10912367 0.25880235 -0.3460004 -0.07630719
000120 8e b2 24 be af 8b 35 bd f3 0b 49 be ae 48 b8 bd
       -0.16083738 -0.044322666 -0.19633465 -0.089982376
000130 a4 f8 1a 3d 83 14 79 3e a3 17 79 3d 58 19 e7 3d
       0.03783478 0.24324231 0.060813557 0.11284131
000140 b5 fe 53 be 17 34 a1 3e 62 a2 6e 3d ec 27 64 3d
       -0.20702632 0.31485054 0.05826033 0.055702135
000150 95 78 10 bd 1d 2e 00 3e 34 c9 4f bd 5f e1 ed bd
       -0.035271246 0.12517591 -0.05072899 -0.11615252
000160 21 48 f4 bc 81 f5 3f bd df 60 8b bd c7 2c 05 3c
       -0.02981955 -0.04686499 -0.06805586 0.0081283515
000170 24 58 96 bd a4 6c a0 bc e9 64 d5 bb f5 0b 98 bd
       -0.0734103 -0.019583054 -0.0065122736 -0.074241556
000180 0a 3b 88 3d 47 eb 53 3e 3a 8a 1c 3e 2e aa 2e 3e
       0.06651886 0.2069522 0.15287104 0.17057106
000190 40 7e 6d 3d 9e 28 2d be e0 ed 94 3e 48 ba b5 3d
       0.05798173 -0.16910025 0.29087734 0.08873421
0001a0 3a 2c 22 be 94 a9 3a be 59 40 2d 3e ad 4b c1 3c
       -0.15837184 -0.18228751 0.16919078 0.023595655
0001b0 dd b3 cd 3d a8 26 98 3c 04 ae 43 3e fa 04 b0 3d
       0.10044072 0.01857312 0.1910935 0.08594699
0001c0 eb b5 8a 3e 8c 40 8a be 58 90 55 bd 42 ba 14 3e
       0.27091917 -0.2700237 -0.05213961 0.14524177
0001d0 b2 88 f3 bd 37 92 80 3d d8 df 30 be 14 81 0a bc
       -0.11891307 0.06277888 -0.1727289 -0.008453626
0001e0 a9 13 9c 3d 18 54 fe bd 04 66 17 be 78 9c 3d 3d
       0.076209374 -0.12418383 -0.1478501 0.0462918
0001f0 4b aa c8 3e bc da 9f 3e 58 4a a1 3c 0f 14 10 be
       0.39192423 0.3122157 0.01968877 -0.14070152
000200 22 26 90 3e 5c 21 aa bd 14 ac 0d 3d cb e8 c8 3d
       0.28154093 -0.08307144 0.034587935 0.09810027
000210 e3 2f 8a 3e db da 24 3d 3d 7f a0 bc ad 39 5f bc
       0.2698966 0.04024778 -0.019591922 -0.013624591
000220 44 bd d2 3d fa 1a 54 be 50 1c 49 3d 9b 24 9c 3e
       0.10290006 -0.20713416 0.049099267 0.30496678
000230 67 71 1a 3e 19 09 ab bc f0 82 05 3e de 9c 7a be
       0.15082322 -0.020878362 0.1303823 -0.24473903
000240 f6 8b 47 3e 34 53 c7 3d 43 ab 0b be fc 48 39 3d
       0.19486985 0.097326666 -0.1363955 0.04523562
000250 25 83 b6 3e c6 9b 65 be 3b e2 c4 bd 0d 40 00 bd
       0.3564693 -0.22422704 -0.096134625 -0.031311084
000260 5e 09 06 bb 56 fb 2e 3d 89 fa c5 3b ed 3a 94 be
       -0.002045236 0.04272016 0.006041829 -0.28951207
000270 98 6d ab 3e af 2e 51 be 50 2a 11 be 47 6d 03 3d
       0.3348205 -0.20427965 -0.14176297 0.032086637
000280 19 d3 47 be 59 b3 20 3e 42 1e 55 be d2 ff e3 bd
       -0.19514121 0.15693416 -0.20812324 -0.11132778
000290 6c c1 86 3d d0 bb ef bd e0 59 d5 3d d0 33 98 bd
       0.06579861 -0.11705744 0.10417533 -0.074317575
0002a0 e0 92 fa 3d bb 62 db 3d 9e c1 95 bc 4e 6a 6d 3d
       0.122350454 0.10712191 -0.0182808 0.05796271
0002b0 31 e2 f8 bb be f2 8f 3e fc 06 16 bc 33 96 89 3d
       -0.0075953235 0.28114885 -0.009156939 0.06718101
0002c0 c4 73 65 bd 6b 43 6d 3d 51 d3 db 3d 57 66 78 bd
       -0.056018606 0.057925623 0.10733665 -0.060644474
0002d0 96 a5 a7 3e 95 e8 47 be 3f b7 e3 3d f9 36 92 be
       0.3274352 -0.19522317 0.11118936 -0.28557566
0002e0 89 57 28 3e 7f fa 8b 3e e6 20 a3 bd 6d a8 6d be
       0.16439642 0.2733955 -0.07965259 -0.2320878
0002f0 f4 03 85 3d c3 63 bc bc 39 1e c9 3c f1 e5 ec bd
       0.064948946 -0.022996789 0.024550544 -0.11567295
000300 e5 00 fa bd bf 4b 80 3d 88 f6 68 be 92 ef bf 3c
       -0.12207202 0.062644474 -0.22750294 0.023429666
000310 c7 5c 9a 3e 96 56 b1 3d c7 68 98 3e f2 6b 5a 3e
       0.30148908 0.08659093 0.2976744 0.2133024
000320 25 9a b4 3c 44 54 ec bd a1 cd 95 3d ca 1f c5 3d
       0.022046158 -0.1153951 0.07314611 0.09625204
000330 f2 22 da 3d 8e f9 6b be 34 0c 5f be a9 99 70 bd
       0.106511965 -0.23044416 -0.21781999 -0.05874029
000340 54 b2 3d be 2e 23 0b bd de fc 57 bd 0f b2 60 3c
       -0.18525058 -0.033969097 -0.052731387 0.0137143275
000350 d5 cc 65 3e f1 59 91 bd 60 57 9c 3e 4a c9 09 be
       0.22441418 -0.07097233 0.30535412 -0.13455692
000360 75 61 87 3c d6 23 9e 3d 10 b0 15 bd 25 32 07 3e
       0.016525963 0.07721679 -0.03654486 0.13202722
000370 95 bd 44 3d fc 2a 76 3e 0d 3e a1 be 84 3d 92 3d
       0.048032362 0.24039835 -0.31492653 0.071406394
000380 f7 52 19 be e5 97 90 3d 1a 13 02 bc f0 98 28 3c
       -0.14973055 0.070602216 -0.0079391245 0.010290369
000390 1d 20 9e bc b0 ce f3 bd 7d bc 25 be 47 11 e2 3c
       -0.019302422 -0.11904657 -0.16185184 0.02759613
0003a0 87 d9 ce 3d 3f c4 36 3e 93 fb 93 bd 88 b5 f9 3d
       0.10100084 0.178483 -0.07225718 0.121928275
0003b0 ee 09 a1 3e d2 f1 9f be 8b 4e 09 3d 2c e0 97 be
       0.31452888 -0.31239182 0.03352217 -0.29663217
0003c0 ca ac 12 bd 3d f1 a9 3d b1 49 89 3e 17 09 84 bd
       -0.035809316 0.08297966 0.26814035 -0.06447046
0003d0 29 0b 17 bb 94 da 02 3e 7e 76 46 3d fa 3e ca 3d
       -0.0023047423 0.12778693 0.048452847 0.09875293
0003e0 23 11 d4 be 10 0d 7b bd ee 72 b1 3c a0 c8 80 be
       -0.41419324 -0.061291754 0.021661248 -0.25153065
0003f0 5a ec 81 3e b1 c4 10 bf cd 29 1a 3e d3 47 8e bd
       0.25375634 -0.5655013 0.15055008 -0.06947293

fc1.bias f4 [128]
000000 97 1f bc bc 75 76 fb bb cd c5 02 bd 6c 12 db 3b
       -0.022964282 -0.0076740333 -0.03192692 0.0066855457
000010 21 42 a7 3d 5d df 4f bd e4 8c 3d 3d 33 52 60 3b
       0.0816691 -0.050750125 0.046276942 0.0034228682
000020 8b 69 23 bb df 04 d0 bd ac f5 01 be 0f c0 76 3d
       -0.0024934735 -0.10157179 -0.12691373 0.060241755
000030 42 8e ee 3c 4a 5b f2 3c a5 11 78 bb 3f df 1b bb
       0.029120568 0.029584546 -0.0037852314 -0.0023784188
000040 13 3d 55 bd fb fb 33 3d 3a f6 86 bd c8 76 91 3b
       -0.052060198 0.04394148 -0.06589933 0.0044392087
000050 94 e0 a0 3d b5 65 1c 3d 1b f9 03 bd a9 d2 8e 3c
       0.07855335 0.038182933 -0.032219987 0.017434435
000060 d7 c9 11 bd 90 e3 02 bd 55 03 a4 3c 15 f6 66 bc
       -0.03559288 -0.0319553 0.02002112 -0.0140967565
000070 6a 1c 50 3d 1f 4b a7 bc c5 6f c7 bc 48 bc cc 37
       0.050808348 -0.020421563 -0.024345288 2.440637e-05
000080 fa 79 ec 3b 6d 7a 48 3c a1 7e ab 3c d1 75 4c 3b
       0.007216689 0.01223622 0.020934405 0.0031198154
000090 67 d2 98 bc 35 78 07 bd eb ef a6 3d b3 76 cb 3c
       -0.018655015 -0.033073623 0.081512295 0.024836874
0000a0 45 fe 80 3c e5 37 25 3d b4 49 a3 bb 8a 60 03 bd
       0.015746245 0.04033651 -0.0049831513 -0.03207449
0000b0 4a 84 b5 3d 4d 3f 00 bc d1 cc e2 bc aa 3f 1d bd
       0.08863123 -0.007827592 -0.027685555 -0.038390793
0000c0 36 71 b4 bc 68 6f f7 bc e5 7f 25 3d 0a ef c7 bd
       -0.02202664 -0.03020449 0.040405173 -0.0976239
0000d0 ba 51 c7 3d 3d ef 20 3d 91 0a 9b bd 2e b3 b2 bd
       0.09732385 0.039290655 -0.07570375 -0.08725582
0000e0 94 56 98 3d 8a b6 6d bd 73 c8 ab bd c0 65 ea bc
       0.074383885 -0.05803541 -0.08387842 -0.028612971
0000f0 d1 9f fa bc b8 37 a8 bc 8c fd 56 3d fd 06 1f bd
       -0.030593785 -0.020534381 0.052487895 -0.038825024
000100 36 52 56 bd 85 e7 aa 3d 30 93 1a bc c7 a9 c0 bc
       -0.052324496 0.0834494 -0.009434506 -0.023518456
000110 55 3c 2c bd 3d a7 8d 3c a5 eb 82 bc 4e 8b ba ba
       -0.042049725 0.01729166 -0.015981505 -0.001423219
000120 1a 22 c3 3c df 3b 69 3b a4 ac 67 bc bb 8f a3 3d
       0.023819972 0.0035588664 -0.014140282 0.07986399
000130 26 62 46 3d 14 8e ee bb 8f 70 29 3d 3c 36 c4 bc
       0.048433445 -0.0072801206 0.04136711 -0.023951642
000140 3c 31 1c bd a5 1d a8 bc fd 8a c4 bc 0c 7b 09 3d
       -0.03813289 -0.020521948 -0.023992056 0.033564612
000150 e1 08 08 bb c4 29 b9 bd b8 89 92 3c cb de 2e 3d
       -0.0020757245 -0.09041169 0.017887935 0.04269294
000160 19 e3 d5 bc d2 65 3d 3d b0 7e a6 3c c8 41 59 3c
       -0.026109265 0.04623968 0.020324081 0.013260312
000170 44 fd 19 bd 96 ee bb bd 2f 50 9f ba dd 29 9b 3d
       -0.03759505 -0.09176366 -0.0012154634 0.07576344
000180 ad 04 b6 bd 32 b7 d5 3d 5d 07 06 bc 00 99 1f bd
       -0.088876106 0.10435332 -0.0081804665 -0.03896427
000190 1d ec d5 3c 35 23 bf ba ba bf 3e bd 6c e4 25 bc
       0.026113564 -0.0014582636 -0.046569563 -0.010125261
0001a0 05 e5 10 bd 89 a1 8b bd 71 14 8b 3d 0b 4f b3 3d
       -0.03537466 -0.0681792 0.06791008 0.087553106
0001b0 23 7f 37 3d c4 66 95 bd 26 7e 15 3d 3b 36 78 3d
       0.04479898 -0.072949916 0.036497258 0.060598593
0001c0 06 f4 95 3c ef 89 8d 3c 88 9b 78 3d 93 2a 66 bd
       0.018304836 0.017277686 0.0606952 -0.056192946
0001d0 a0 09 7a bd c8 ef df bc 11 c6 19 bc 52 0b 6c bb
       -0.061044335 -0.027336016 -0.009385602 -0.003601749
0001e0 52 15 d1 bd d9 58 7a bd b7 c9 b7 3c 25 47 16 bb
       -0.10209145 -0.061119888 0.022435052 -0.002293059
0001f0 98 c9 10 bc 8d 4a 0d bd 3b e9 a2 3b e1 8d ca 3b
       -0.008837126 -0.034494925 0.004971651 0.006181464

fc2.weight f4 [5, 128]
000000 bb f3 12 be 9f 85 c1 3d 5c b7 b4 bd 82 31 3e 3d
       -0.14350788 0.09449314 -0.088240355 0.046433933
000010 e6 24 41 3e 6b 9b 24 bd ed 11 e9 3c 80 4f ea 3d
       0.18861732 -0.04018728 0.02845093 0.11440945
000020 81 0b 50 bd 66 e8 7e 3d a0 e9 28 be 7f 2b 16 3e
       -0.05079222 0.06223335 -0.16495371 0.1466503
000030 19 33 d1 bd 4b 62 c1 bd bd e2 22 3e 59 2f 8d bd
       -0.10214824 -0.09442576 0.15906806 -0.068937965
000040 0f 01 61 3e f4 84 f8 bd f1 c7 0c be e4 ca 19 3e
       0.2197306 -0.12134734 -0.13748147 0.15018803
000050 41 55 08 be 0f 66 31 3e 8f 65 b1 3d 04 d8 bf 3d
       -0.13313772 0.17324089 0.08661949 0.093673736
000060 28 24 af bc f4 48 5d 3d 0f c7 04 be 7a fb 7f be
       -0.021379545 0.05402465 -0.1296656 -0.24998274
000070 67 1e ab bd f2 79 44 bd 4a 60 2a 3e b8 20 cc 3d
       -0.08355408 -0.04796786 0.16638294 0.09967178
000080 ff b8 99 bd 78 35 c3 3d ee bf 3c 3e 8c aa 9b 3d
       -0.07505988 0.09531683 0.1843259 0.076008886
000090 16 62 27 3e fa f8 19 3e 0b 40 e0 bd 6b b1 cf bd
       0.1634601 0.15036383 -0.10949715 -0.10141262
0000a0 6f e5 68 3e 25 ed 23 be ed b7 ca 3d 68 af 50 be
       0.22743772 -0.16008432 0.09898362 -0.20379412
0000b0 d2 1a a3 bd 4f d2 22 3e 77 a6 ca 3c 45 7b 75 3d
       -0.079641 0.15900539 0.02473758 0.059932012
0000c0 6b bd ef bd 0b 6a 38 bd 96 52 15 3e d8 bb 00 3e
       -0.117060505 -0.045023005 0.14582285 0.12571657
0000d0 17 f3 12 3d ac d5 1e 3d 5a a2 5c 3d 6c 27 9c 3d
       0.03587636 0.038777992 0.053865768 0.076247066
0000e0 94 1a d5 bd d4 9c e3 bc 48 8b eb bd 44 d6 43 3e
       -0.1040546 -0.027784742 -0.11501175 0.19124705
0000f0 68 d2 e8 3d c4 c1 eb 3d 04 f8 aa 3c 7f 0a 7b 3d
       0.11368257 0.11511567 0.020870216 0.061289307
000100 0a 82 a9 3d 32 6f 68 bc 95 56 a1 3d 16 9c e3 bd
       0.08276756 -0.014186667 0.07877842 -0.111137554
000110 96 7e 13 be e9 95 c0 3d fb 6a a8 bd 1d 88 47 3d
       -0.14403757 0.09403593 -0.0822353 0.048713792
000120 49 24 02 3e b2 05 af bb 11 10 bf bd 9a ce 1a be
       0.12709154 -0.005341255 -0.09329236 -0.15117875
000130 a1 29 f2 bd 95 b6 4e 3e 88 51 8a bd 11 28 d4 bc
       -0.11824346 0.20186837 -0.06753832 -0.025898011
000140 2a d5 ff 3d 65 8f 16 bd ee 70 1a bc 9a d9 e9 bc
       0.1249183 -0.036757845 -0.009426339 -0.028546143
000150 30 06 df bd 41 15 98 bc 87 d8 ce bd 58 e9 01 3d
       -0.10889852 -0.018564822 -0.10099893 0.031716675
000160 8f 16 df 3d c1 bb 6b be c9 41 eb bd 1b af eb ba
       0.108929746 -0.23020841 -0.11487157 -0.0017981263
000170 6b 8f b0 bd f5 5f 80 bd f6 26 3f 3d b2 71 97 bd
       -0.08621105 -0.06268302 0.046668015 -0.073947325
000180 0b e4 85 3d 4e 30 e7 3d 24 79 84 3c 78 55 6f 3d
       0.06537636 0.1128851 0.016171046 0.05843112
000190 07 21 25 be 16 a5 7f be f2 7a 3b bd 10 7f 7c 3b
       -0.1612588 -0.24965319 -0.045771547 0.0038527884
0001a0 c9 75 3e 3d 2a 26 96 3d 0d 5d 19 3e 40 3e e9 bd
       0.046499047 0.07331498 0.14976902 -0.11388826
0001b0 b0 8f cb bb 1f 46 00 be a8 8b 36 3d b5 1e 0f 3e
       -0.0062121972 -0.12526749 0.04456678 0.13976558
0001c0 6f 68 3f 3c 8e a2 ed 3a b2 b9 d7 bd ee d5 2f be
       0.011682614 0.001813011 -0.105334654 -0.17171451
0001d0 82 3e 97 be 59 65 d9 bd 9b 33 11 3e 1f 6a 27 be
       -0.29539877 -0.10615034 0.14179842 -0.16349076
0001e0 93 f0 82 bd dd 94 4a be 08 e4 57 bd 5d 80 b7 3d
       -0.06393542 -0.1978335 -0.052707702 0.0896003
0001f0 20 91 d7 bd a1 94 30 bd 4f 30 cd 3d f2 5b 46 3e
       -0.10525727 -0.043110494 0.1001898 0.19371012
000200 19 d3 b8 3d 05 46 03 be 6e 68 04 3d 1b 45 1c be
       0.09024639 -0.12819679 0.032326154 -0.15260737
000210 24 e4 36 bd aa ff f0 3d 81 9e c6 bd 5e 9b b9 bd
       -0.044651166 0.11767514 -0.09698201 -0.09062837
000220 7f 6e 5f 3d 00 c0 bd 3c 53 24 0f be 04 03 f9 3b
       0.054548737 0.023162842 -0.139787 0.0075992364
000230 96 40 81 bd 1a 85 7b 3d d6 75 91 3d 6a ec c5 3d
       -0.06311147 0.061406232 0.071025535 0.09664233
000240 4c c5 b0 3c ce 6a 8e bd 58 79 35 3d 60 3c 1c 3d
       0.021578453 -0.06953965 0.044305176 0.038143516
000250 eb e2 5a 3d 80 c4 3c bd f1 f1 4a 3d 05 09 92 3d
       0.053439062 -0.046085835 0.04954714 0.071306266
000260 6e 3c 93 3c 15 e2 10 3e 33 28 64 3d dc f7 3f 3d
       0.017973151 0.14148743 0.0557024 0.046867236
000270 17 dd 6d 3d 7e c4 0a 3e 73 c9 dd bc b0 4d a9 bd
       0.058072176 0.13551518 -0.027073598 -0.08266771
000280 6d df 2a 3d 0a 10 1c bc f3 d6 14 bc 1a 7c d9 3d
       0.04171698 -0.009525308 -0.009084451 0.106193736
000290 c0 da bb bd 55 12 fd bd 2f 7a fc bd 89 83 5a 3d
       -0.091725826 -0.12357012 -0.12327992 0.053348098
0002a0 db 51 86 bd 13 b7 06 bd 6e bf 01 be 3b b3 8d 3d
       -0.065585814 -0.032889437 -0.12670681 0.06918951
0002b0 22 af c0 3d 3c 0f 07 be 93 22 e7 bd f5 59 18 3e
       0.09408404 -0.13189405 -0.112858914 0.14878066
0002c0 ea 25 d6 3d 39 bb 61 bd 3b de 13 be 6f a0 f5 3d
       0.1045645 -0.05511019 -0.14440243 0.11993491
0002d0 cd 7f 0f be 44 18 b1 3a 9f 2f 28 be f5 84 71 bd
       -0.14013596 0.001351126 -0.16424416 -0.05896469
0002e0 4e 91 35 bd e1 bc 24 3e b2 b0 13 3e 56 be 98 bd
       -0.044328026 0.16087677 0.14422873 -0.07458179
0002f0 f6 05 06 3e 18 93 a1 bd da 49 a5 bd 6f b6 93 3d
       0.13088211 -0.07889384 -0.08070727 0.07212531
000300 f6 e9 05 3e b1 12 16 3d 22 74 bd 3d e4 62 a9 3d
       0.1307753 0.03663892 0.09250666 0.08270815
000310 13 f7 b0 bd 02 c9 9e 3c 6d 2f b7 3b e3 24 b9 3c
       -0.08640876 0.019382957 0.0055903704 0.022600597
000320 74 d5 c2 3d 74 c6 16 be d7 87 e7 3c b4 b2 9e bd
       0.09513369 -0.14724141 0.028263016 -0.07748929
000330 89 97 c9 3d c8 6a 14 3d 1e 53 46 3d 67 58 15 3e
       0.09843356 0.036234647 0.04841911 0.14584504
000340 53 a2 29 bd bb 49 14 be 73 32 1f 3e d8 5e 3b bd
       -0.04141457 -0.14481251 0.15546589 -0.045744747
000350 e8 07 d4 3d b0 60 e6 3d 85 eb 04 bd c6 26 09 3e
       0.103530705 0.112489104 -0.03245117 0.13393697
000360 ac 74 fa 3d 72 f9 49 bc 1d 51 c2 bc 1a 3b 32 3d
       0.12229285 -0.012327539 -0.023720318 0.043513395
000370 5a f6 f1 3d 68 d1 a9 3d 7d f1 65 bd 9d 44 71 bd
       0.11814566 0.08291894 -0.056138504 -0.058903325
000380 ad 01 e2 3d 02 7c f5 3c 47 2f 16 3c de 40 c8 3d
       0.11035476 0.029966358 0.009166545 0.097779974
000390 68 50 0c bd fb d2 5f 3d 64 66 c8 bd 14 97 2c 3e
       -0.03425637 0.054644566 -0.097851545 0.16854507
0003a0 65 e1 11 3e e9 c8 51 bd 88 3a 30 be 80 36 b4 3d
       0.14246137 -0.051216993 -0.17209828 0.087994576
0003b0 93 ed d1 bd 0e 6b 8c 3d c9 a9 07 be 47 8b 95 bd
       -0.10250392 0.068563566 -0.13248362 -0.07301956
0003c0 a7 46 1e bd 45 d8 05 3e 2a 8f f2 3c ae 98 7e 3d
       -0.038641598 0.13070782 0.029609282 0.062157325
0003d0 af b2 d4 bc ba aa 06 3e 3f 0d 0f 3e bc d3 92 3c
       -0.02596411 0.13151065 0.13969897 0.017923228
0003e0 71 c1 49 3d 7e ea 91 bc d4 1b 20 bd 3c d4 8b 3d
       0.049256746 -0.01781201 -0.03908904 0.0682759
0003f0 10 e4 2d 3e 85 80 d6 bd 2c d6 89 bd c6 72 99 bc
       0.1698153 -0.10473732 -0.06730303 -0.018731486

fc2.bias f4 [5]
000000 ac e0 51 3d 45 fb c6 3c 88 5a 98 3d ba fb 65 be
       0.051239654 0.024289737 0.074391425 -0.22459307
000010 ae 2c 7b 3d
       0.061321907
