results/arousal/classification_5/20251226_103317_303783/best_model.pt (torch, 438709 bytes, 16 tensors)

conv1.weight f4 [16, 1, 3, 3]
00000000: d962 8b3e fd26 b63e 16a3 40bd a0c1 6d3e
00000010: ef53 65be 1e0c 88bd a962 47be dfa7 423e
00000020: 3831 013f 1a9f b7be 5f60 b43e 4ece 9dbc
00000030: 72a9 823e 825c 3abd 02c0 ba3e 12d9 8ebd
00000040: a794 853e 8050 b1bd 1767 67be 37fa 1d3e
00000050: c13c 7fbe 149e b4bb 78c2 11be a6c4 ce3e
00000060: 6039 61be fd47 82bd f819 5dbe 14c1 28be
00000070: c77a 73bd 5df5 dbbe 6976 823e ee5f a3be
00000080: 1813 a43e 7e24 233e 776b cbbd c702 d33e
00000090: f032 1a3e cf26 d83e c5d5 793b 2dec 47be
000000a0: 9594 8a3c f14a 88be e370 fc3d d172 b93e
000000b0: 6cc3 243e 2626 11bd 43f9 6d3e d068 f63d
000000c0: b9b5 c83d 1744 86be facc ebbe 56cf aabd
000000d0: 7f27 aebe 2e11 cd3e 4cba 943d 2bca a13e
000000e0: 3b56 ef3d b547 aebc 0a52 883e f798 b5be
000000f0: 95c3 c8bd a0c3 b3be f9fe 69bd dfb4 89bd
00000100: e684 843d 1b57 03be 2b89 9d3e fa2a 31be
00000110: 1977 c7be 61d2 33be a804 d13e d035 8d3e
00000120: 73e0 ae3e 579a 73be eb15 a8be 5734 9ebe
00000130: a3ac bdbe ab65 1d3e a25e 383e 2040 c73e
00000140: ac78 07be 59d5 e1bd 6cfa 943e acaa 69be
00000150: 4a1c 223e c32f 06bd eb20 a13e a7a8 86be
00000160: 6d50 b6be 20fa 623e bc19 d23c 49b0 c6bc
00000170: b01c c43e e5b8 7c3e e020 6dbe 624e 91be
00000180: b7fb b93e da46 24be 6042 40be 185c 22be
00000190: b04a 61be 124f 823e ba00 b6bb 629e bfbe
000001a0: 26b7 253e cf55 d0bd 96ac 04bf 61a1 67be
000001b0: d3fe 32be baed 91be daa1 f13e 3154 013e
000001c0: 5e9f 523e d19f d3be 9b5d 6bbe 070f 26bd
000001d0: 8544 ebbc 4396 a6be 0906 083d f663 7bbe
000001e0: 2dae 2abe afc8 b4bc 967a b23d d1ff 4ebe
000001f0: b549 70be 2fae f2be a7ed 99bd 1e69 b3be
00000200: 9d24 873e dc96 bbbd eeaa df3e c4f9 933e
00000210: da89 3ebe 35a6 883e 7ac6 49be a68c 0fbe
00000220: 189d a2be 14e1 e3be e7ea 1c3e 3a50 073d
00000230: a321 613e 7d01 62be 5f24 be3e 021a 9fbe
0.27223852 0.3557662 -0.04703053 0.23218393 -0.223953 -0.06642936 -0.1947123 0.1900935
0.50465727 -0.35863572 0.35229775 -0.019263413 0.25519902 -0.04549838 0.36474615 -0.069749966
0.26089975 -0.08657932 -0.2259792 0.1542748 -0.2492552 -0.0055120084 -0.1423434 0.40384406
-0.21994543 -0.06361387 -0.21591938 -0.16479903 -0.05944326 -0.42960635 0.25480965 -0.31909126
0.32045817 0.1593189 -0.09932607 0.41213056 0.15058494 0.4221711 0.0038121801 -0.19523688
0.016916553 -0.26619676 0.12326219 0.3622041 0.16090173 -0.03543677 0.23239617 0.1203171
0.09800286 -0.26223823 -0.46054822 -0.083403274 -0.34014508 0.4005217 0.07262096 0.31599554
0.11686369 -0.021274427 0.2662509 -0.35468265 -0.09802929 -0.35110188 -0.057127926 -0.067239515
0.06470661 -0.12826197 0.30768713 -0.1730155 -0.38958052 -0.17560722 0.40823865 0.27580118
0.34155616 -0.23789345 -0.32829222 -0.30899307 -0.37045774 0.15370815 0.1800485 0.3891611
-0.13229626 -0.11027021 0.29097307 -0.22819012 0.15831104 -0.032760393 0.31470427 -0.26300547
-0.35608235 0.22165728 0.025647037 -0.024253981 0.38303137 0.24679907 -0.23157072 -0.28380114
0.36324856 -0.16042653 -0.1877532 -0.15855443 -0.22001147 0.2545095 -0.005554286 -0.37425524
0.16183147 -0.10172617 -0.51825845 -0.22620155 -0.1748002 -0.28501683 0.47193795 0.12629773
0.20568606 -0.41332868 -0.22984926 -0.040541675 -0.028719196 -0.32536516 0.03320888 -0.24549851
-0.16668005 -0.02206835 0.08714788 -0.20214774 -0.23465617 -0.47398517 -0.07516032 -0.35041136
0.2639512 -0.091596335 0.43685097 0.28901494 -0.18607274 0.26689306 -0.19704619 -0.14018497
-0.31760478 -0.44507658 0.15323983 0.033035494 0.21985488 -0.2207088 0.37137124 -0.3107453

conv1.bias f4 [16]
00000000: 3552 4c3a 70a0 aaba 6823 373a e906 dc3a
00000010: 5fff a439 db70 97ba 8bdc 35ba ce56 903a
00000020: d907 c5b9 0a65 0ebb 6727 173b 271c 2bba
00000030: d445 14bb f8ed 3e3a 3467 b7b9 9a58 e0ba
0.0007794232 -0.0013017785 0.0006986172 0.0016786727 0.00031470784 -0.0011554019 -0.00069374655 0.0011012198
-0.00037580615 -0.0021727704 0.0023064257 -0.00065273274 -0.0022624629 0.0007283385 -0.00034981372 -0.0017116249

bn1.weight f4 [16]
00000000: 1acb 563f e03c 5f3f b4b3 3c3f cbcf 903f
00000010: 7a97 5a3f 3b3c 9e3f caa6 9d3f a66a 863f
00000020: 0b17 883f e163 703f b66f 823f 1457 6e3f
00000030: 1d3b 5a3f 0846 363f e43b 8f3f ca02 813f
0.8390366 0.8720226 0.73711705 1.1313413 0.85387385 1.2362131 1.2316525 1.0501297
1.0632032 0.93902403 1.0190341 0.9310162 0.8524645 0.7120061 1.1190152 1.0078976

bn1.bias f4 [16]
00000000: a40b 54be 668f b8be 26ee cfbd 4173 79bd
00000010: 95f5 e8bd ab84 833c 7b2f 70be d610 5fbc
00000020: ffe5 f73c 1333 d2bd 70e4 e8bd 1f73 bdbe
00000030: 315f 383c 0678 2ebd 1398 5abe e751 d1bd
-0.20707566 -0.36046904 -0.10152845 -0.06090093 -0.11374966 0.016054472 -0.23455612 -0.013614854
0.030261038 -0.10263648 -0.11371696 -0.37001893 0.011253164 -0.042594932 -0.21347074 -0.102207

bn1.running_mean f4 [16]
00000000: 9c93 3ebc 9361 45bc 98df b73b 588b d3b8
00000010: 6e4b 12bc a07d f83b f06f 183b bbaf b539
00000020: 7a7d 983b 2c8f b2ba 1f38 513b 2382 873c
00000030: b2e9 db3a d89c 943c 38be 17bc 6c58 983b
-0.0116318725 -0.012047189 0.0056113712 -0.00010087219 -0.008929117 0.007583335 0.002326008 0.0003465394
0.00465363 -0.0013622991 0.003192432 0.016541546 0.0016778021 0.018141195 -0.00926166 0.0046492126

bn1.running_var f4 [16]
00000000: 56e5 e03e a1be a93e 8107 2f3e e66b 7e3e
00000010: 8a67 c83e 4e38 863e 9eba 5f3e 82ce 4e3e
00000020: 94da 9d3e d5c6 373e 5864 883e f641 6a3f
00000030: 1547 173e cf28 423f 4ef5 b53e b9c4 953e
0.4392497 0.3315325 0.17092706 0.24845847 0.39141494 0.26214832 0.21848533 0.20195964
0.30830824 0.17946942 0.26639056 0.915069 0.1477321 0.7584352 0.35538715 0.2925165

conv2.weight f4 [32, 16, 3, 3]
00000000: e42b 843e f92b 343d 102a 9e3d 9da6 fdbd
00000010: 8f3a 3abc abd7 3c3d 33cf b73c 2b0f 933e
00000020: 541c 1e3e bde7 efbb b993 3b3e 5ad3 1bbe
00000030: ce3a b73d 0031 19be 8304 efbe 8fce 043e
00000040: 101d 86be 1681 053e a70f 5d3d f03e 11bc
00000050: 0dad 933e 27dd c73d 8dd9 a6bd 72b2 8fbd
00000060: f881 893d 9182 d23e f0a3 783c b5e6 17bd
00000070: 1219 dbbd 43c5 9abc a98e d7bc c43a 9dbd
00000080: 0dc8 ac3d d608 353e e61f bdbd 3326 673e
00000090: ec5d 1c3e 843d fe3d a44a b43d bfad 803e
000000a0: d5e3 a13d 961e 1ebe 93d7 303e 5acc f5bc
000000b0: 62a2 413e e08f 00be ddf4 e0bc 677b b8bd
000000c0: ccc0 27be 6483 5d3e 6e5b 0c3e 9625 02be
000000d0: 8147 dcbd 88b3 2ebe df1e 3abe 7de2 0a3e
000000e0: 1eac e93c b0b6 58be 5390 153e f632 23be
000000f0: c730 583d 5a71 a43d 647a a1bd 0657 863d
00000100: 9944 ebbd f5b2 ff3d c037 d13e 064d 4abe
00000110: a8dd ffbd e0fa 7ebe 7200 9abe 5ba8 5f3e
00000120: 8ec8 f63a 94af 263d 9fee 233e 1e75 853d
00000130: 92a6 db3c 3ed5 1dbf 9138 de3c a931 89bd
00000140: ca35 be3d 625f 90bd c157 66be cedc 08be
00000150: 6308 b33d 7aa0 27bd 2518 84be a119 873d
00000160: 0a32 b8be 8ab3 d23d f31c e9bd e0da 3abe
00000170: fb8f 18be 85ca 20be c614 a8be 0048 8cbe
00000180: a01e 943c 6b9b 8ebe d4c1 c13d a0d9 243e
00000190: 79f5 7ebd 031f 9abd b979 323e fe0a 38be
000001a0: 72bd 9e3d 48e7 7c3d c668 b7bd d005 c9bd
000001b0: 55f2 5bbd 4f6c 2cbd cc93 233e 16ab 0f3d
000001c0: 8774 fe3d 4888 863e d5fb 873e 2582 40bc
000001d0: 3ef6 643e f403 7d3c 9534 0d3e 62f6 ea3d
000001e0: 8e84 47bc 04e9 b7bd 76cc 88bd 57fd cabd
000001f0: 0348 a63d ae12 1abe 21a1 21be 8dd3 a43b
00000200: e4c9 c43e cf28 ccbd 815c 8abd e24a f93d
00000210: 933d 81be 3723 c1bd 9107 c33d 72e9 e2bd
00000220: f169 fcbd a03f e53c 74c4 863c 54a6 cdbd
00000230: 447b 97bd d640 9e3d 55fb 07be 8c2b e6bd
00000240: 893f 27be 100e 183d 5a13 6bbd 0d4b fb3d
00000250: 332a e0bd af7b 563e 62af 9abc b47e 513c
00000260: 93ca 67bd 9470 3ebc 0269 673e 4906 aabd
00000270: ae47 ccbc 4b38 63bd fb37 6f3d 2e45 133d
00000280: 4d32 cc3d 5afe c4bd 82eb a23d a0a5 40be
00000290: f34f 44bc 2934 89bd cf88 e13d 3a21 a3be
000002a0: f7cf 823d cf2b 8ebe 5abb cbbc 8365 463d
000002b0: 73c1 aabe beab 8fbe fabd a33b c939 03be
000002c0: 8bb1 3dbe 1851 a4bd cf05 b4bc 9250 8cbd
000002d0: 004a fcbd ef78 9c3d efb1 6b3d 609c e9bd
000002e0: 51e9 7b3b f7ba 083c ecc7 6d3e 923e 903b
000002f0: 6fd7 8ebe f3b2 48bd 8248 23bb 90bd 403d
00000300: dbaa 2d3e 4558 523e 2c81 a0be 6ac1 e23d
00000310: 0f0f 063e 859b c5bd 2541 4bbd aaad a63d
00000320: c7ce 5fbd 8d2d 21bd b79f 5ebd 9442 f63d
00000330: b29e 323e 7961 37be 6122 0f3e 02dd 85bc
00000340: e253 63be 55d6 453c aab2 9b3e a570 483d
00000350: ec3b 05be d285 dabd 5063 edbc 309a 09be
00000360: 5a82 19bd bc75 a6bd d24c a43e b82b 60bd
00000370: 81fc 2d3e 6711 f6ba f353 f03d bf14 633b
00000380: 0888 923e 6ea5 173e dc5b b2be 6bd9 90bd
00000390: 9e7f 2cbc 54ca 853d 38e5 fdbd 191c 3ebe
000003a0: f7a0 163e dcaf 393d f0df 963e c4dc 83be
000003b0: dc17 1b3d 013e 06be 019c 60be 8927 b43d
000003c0: 62f2 52bd 6220 2e3e 32e6 303e fc37 03be
000003d0: 7615 8dbe c760 50be 0818 51be d69c 1abf
000003e0: fdf6 2ebe 9751 babe 1c36 923d bd1b 2a3d
000003f0: 0ab1 073c 3059 2f3c 56b9 2a3e 2db2 62bd
0.25814736 0.043987248 0.077228665 -0.123852946 -0.0113665005 0.046104115 0.022437667 0.2872251
0.15440494 -0.0073213265 0.1831807 -0.15217343 0.08946763 -0.14960098 -0.4668313 0.12969421
-0.26194048 0.13037524 0.053970005 -0.008865103 0.28842965 0.09758978 -0.08146963 -0.070164576
0.06714243 0.4111524 0.0151758045 -0.037085254 -0.10698141 -0.01889289 -0.026313143 -0.07677224
0.08436594 0.17679152 -0.092346 0.22573166 0.15270203 0.12414077 0.08803299 0.25132558
0.07904784 -0.15441355 0.17269735 -0.030004669 0.189096 -0.12554884 -0.02746051 -0.09007912
-0.1638214 0.21632153 0.13706753 -0.1270965 -0.10755826 -0.17060673 -0.18175839 0.13562961
0.028524455 -0.2116344 0.14605837 -0.15937409 0.052780893 0.080294326 -0.07884672 0.06559567
-0.11487693 0.12485305 0.40862846 -0.19755945 -0.124934494 -0.24900389 -0.30078465 0.21841566
0.001882808 0.040694788 0.16008995 0.06516479 0.026812825 -0.61653507 0.027126582 -0.06698925
0.09287603 -0.07049443 -0.22494413 -0.1336548 0.08741834 -0.040924527 -0.2579967 0.06596685
-0.35975677 0.102881506 -0.11382475 -0.18247557 -0.14898674 -0.15702255 -0.3282835 -0.27398682
0.01808101 -0.2785295 0.09460798 0.16098642 -0.06224582 -0.07525446 0.17429246 -0.17972943
0.077509776 0.061744004 -0.08955531 -0.09815562 -0.053697903 -0.04209548 0.15974349 0.03507527
0.124245696 0.2627585 0.2655932 -0.011749779 0.22359559 0.015442837 0.1378959 0.11472775
-0.0121776 -0.08979991 -0.06679623 -0.09911602 0.08119204 -0.15046188 -0.15784122 0.0050301016
0.3843528 -0.09968721 -0.06755925 0.12172486 -0.2524229 -0.09430545 0.095229276 -0.110796824
-0.12324894 0.02798444 0.016451098 -0.1004149 -0.07396558 0.0772721 -0.1327947 -0.11238775
-0.1633283 0.037122786 -0.057391502 0.12270174 -0.10945549 0.20945619 -0.018882457 0.012786556
-0.056589674 -0.01162352 0.22598651 -0.0830198 -0.024936523 -0.055473607 0.058402997 0.035954647
0.099705316 -0.09618826 0.07955076 -0.18813181 -0.011981952 -0.06699402 0.11012422 -0.31861287
0.063873224 -0.27767798 -0.02486961 0.048436653 -0.33350715 -0.28060716 0.004997012 -0.12815012
-0.18524759 -0.0802328 -0.021975426 -0.06851305 -0.12318802 0.07640254 0.057542738 -0.11406779
0.0038438628 0.008345357 0.23220795 0.00440199 -0.27898738 -0.048998784 -0.0024915044 0.04705578
0.16959707 0.20541485 -0.3134855 0.11072047 0.13091682 -0.096488036 -0.049622674 0.081385925
-0.054640558 -0.03935008 -0.054351535 0.120244175 0.1744335 -0.17908277 0.13977958 -0.016340736
-0.22199968 0.0120750265 0.30409747 0.04893555 -0.1301114 -0.106700554 -0.02897802 -0.13437724
-0.03747783 -0.08127925 0.3208986 -0.054729193 0.16990854 -0.0018773497 0.11734762 0.0034649817
0.2861941 0.148092 -0.34835708 -0.07072719 -0.010528473 0.06532732 -0.12397236 -0.18565406
0.1470984 0.04533373 0.29467726 -0.25754368 0.03786455 -0.1310959 -0.21934511 0.08796603
-0.051500686 0.1700454 0.17275313 -0.12814325 -0.27555436 -0.20349418 -0.20419323 -0.6039556
-0.17086406 -0.36390373 0.07139227 0.04153036 0.0082819555 0.010702416 0.16672263 -0.055345703

conv2.bias f4 [32]
00000000: 0587 94ba 5ea7 2c3a ca6f fc39 6ac5 33ba
00000010: 7eeb bc39 8e4d 39ba 963a c7b9 f9aa 20ba
00000020: e49e 97b9 fc36 9e39 336b 613a 3509 44ba
00000030: d1c0 793a a088 9db9 dc53 bfb9 bc00 6938
00000040: bf5e 093b 91ab dd39 0e46 b93a 0c54 d6b8
00000050: c865 793a aa63 90ba a608 203a 47cf 043a
00000060: 096e a6b9 3156 17ba 7e85 4b39 ee46 b2b9
00000070: 9d56 95b9 bf53 813a f422 56ba 6c99 d4ba
-0.0011331743 0.0006586219 0.00048148475 -0.0006857725 0.0003603361 -0.00070687465 -0.00037999888 -0.00061289925
-0.00028919347 0.00030177075 0.0008599043 -0.00074781786 0.0009527328 -0.00030047167 -0.0003649284 5.5552213e-05
0.0020961014 0.00042280232 0.0014135258 -0.0001021997 0.0009513763 -0.001101603 0.00061048043 0.0005066287
-0.0003174397 -0.00057730364 0.00019409318 -0.00034003652 -0.00028484027 0.0009866877 -0.00081686606 -0.001622004

bn2.weight f4 [32]
00000000: 5bee 0240 ec93 f63f 5e18 0340 14e6 0540
00000010: 9c84 ff3f 5d68 0540 5814 0940 fa67 ef3f
00000020: 4eaa 0340 8975 e63f 6b5f ee3f 69fb fc3f
00000030: d592 f83f b513 0240 8475 ff3f fa5d 0540
00000040: a11f eb3f ac2e ff3f 0d61 f23f fefb 0240
00000050: 698f ed3f 3730 fa3f 6172 f93f 3ea1 0440
00000060: 8d1a 0640 7b97 0740 48ae f43f bd1c f33f
00000070: 64bb ed3f 69e5 f83f f5c1 0240 35c3 fa3f
2.045798 1.9263892 2.0483623 2.0921679 1.9962344 2.0844948 2.1418667 1.8703606
2.0572696 1.8004619 1.8622869 1.9764224 1.941981 2.0324528 1.9957738 2.0838609
1.8369027 1.9936118 1.8935868 2.0466304 1.855939 1.9545964 1.9488031 2.0723414
2.0953705 2.1186206 1.9115686 1.8993145 1.8572812 1.944501 2.0430882 1.9590822

bn2.bias f4 [32]
00000000: 7936 0fbf c43a 31bf cb33 2abf 664d 5cbf
00000010: f069 40bf 24f6 22bf e0d9 85bf 6c5b 29bf
00000020: ac49 4bbf f6d1 63bf af45 68bf 731d 73bf
00000030: 879c 10bf 6e8d 84bf bbf6 2cbf e56f 4abf
00000040: 2669 83bf 3ee9 4bbf 42c0 2dbf 758f 87bf
00000050: 19f6 0fbf 4236 59bf 83d6 4abf 9828 41bf
00000060: f5d0 4ebf 027b 3bbf 8c74 0fbf 7795 51bf
00000070: b5b4 56bf c1a6 1ebf 618f 3cbf d42e 73bf
-0.55942494 -0.69230294 -0.6648528 -0.860556 -0.7516165 -0.6365683 -1.0457115 -0.66155124
-0.7940929 -0.8899225 -0.9073133 -0.9496681 -0.5648884 -1.0355661 -0.6756398 -0.7907699
-1.0266464 -0.79652774 -0.6787149 -1.0590655 -0.5623489 -0.84848416 -0.7923357 -0.75452566
-0.80787593 -0.7323457 -0.5603721 -0.8186869 -0.8386949 -0.61973196 -0.7365628 -0.9499333

bn2.running_mean f4 [32]
00000000: 9da5 0cbf d5a4 0cbf 6bb2 d6be 3fe8 15bf
00000010: 5176 ebbe 437f 85bf ccdc b43e 8328 38be
00000020: 8e89 10bf b02c e33e d978 18be 54fd 563e
00000030: 0281 75bf 38ae 7f3f e2f2 1cbf afbc 19bf
00000040: ee8f 943f 46aa e8bc 969b 3cbf d639 113f
00000050: 3ff4 d3be abde 83be 12b1 83bd ec5d 63bf
00000060: 8790 33bf 7f1f 3ebf 2900 3bbc acae 1b3e
00000070: ec2c b13e fdee 36bf db25 3abf bda5 fe3e
-0.54940206 -0.54939014 -0.41932997 -0.58557504 -0.45988706 -1.0429462 0.35324705 -0.17984204
-0.5645989 0.4437003 -0.1488985 0.20995075 -0.95899975 0.9987521 -0.6130811 -0.60053533
1.1606424 -0.028401505 -0.73674905 0.56728876 -0.41397282 -0.2575582 -0.06430258 -0.8881519
-0.70142406 -0.7426681 -0.011413612 0.15203351 0.34604585 -0.7145842 -0.7271401 0.49735823

bn2.running_var f4 [32]
00000000: 0d9f f53e 87b1 403f c641 093f 14b6 093f
00000010: c561 fb3e 96be 5d3f f330 3e3f 7057 1d3f
00000020: 055d 023f efb9 023f 0814 153f 75a1 173f
00000030: 7436 373f b269 373f ab02 3a3f 9c95 083f
00000040: 308a 1c3f 0d2a 0d3f ff7b 4b3f 3190 213f
00000050: 1b48 1e3f 1f72 ec3e 224d 1b3f e27b 463f
00000060: a805 143f 34c3 333f adb6 083f 1298 053f
00000070: fdc1 193f 11a9 2c3f c42f 073f 11f4 043f
0.4797291 0.75270885 0.5361599 0.53793454 0.4909803 0.86618936 0.7429344 0.61461544
0.50923187 0.5106496 0.5823369 0.5923074 0.71567464 0.71645653 0.7266032 0.53353286
0.6114836 0.5514229 0.7948608 0.63110644 0.61828774 0.46180817 0.6066457 0.7753278
0.5782113 0.7021973 0.5340374 0.52185166 0.6006163 0.67445475 0.5280726 0.51934916

fc1.weight f4 [128, 800]
00000000: 9427 7e3d 49e8 6fbe 7d37 89bd 4b18 19be
00000010: d784 3abe e81b 0b3d b738 a03d 7a4b 10bc
00000020: 6c4c e0bd 8f1e 1f3d 69d2 c13d 0b83 083e
00000030: ea22 e13e 49bd 163e 751f 91be 1095 b3bd
00000040: 7add 6fbe 4fd2 23be 6cee 45be 7c14 cb3e
00000050: d861 4dbd 7da9 2dbe 73c0 9a3d de6d bc3d
00000060: 4939 843e 203c c1bd 4d6c b13d 8111 6f3e
00000070: 6ca7 463e 992d 333e dcf3 4f3e 9a23 cfbd
00000080: f2ec 32be b70b 8c3d 5e9f a7bd de21 b1bd
00000090: aa0b fb3d f188 c93c 2040 2abe 7458 a1bd
000000a0: 0846 1b3e df15 86bd 96c0 0bbe 63ee d0bd
000000b0: a52c b5bd 21b6 993b 3d15 a43e 757a 15be
000000c0: bc61 dc3e cb42 793d 1bee 77be 2eb3 8fbc
000000d0: 9581 abbd a49c e33b a841 3e3d fe44 a6be
000000e0: bc37 963e 501e 56bd 6f22 8fbe 4ca9 7bbe
000000f0: 6be0 6abe da90 25be 22e4 b13c 8cbc c1bb
00000100: 1244 07bd c178 b13d 68a8 ccbc 1542 3ebe
00000110: f633 35bd 8e2f 8d3e 8f2c 68bd 8e12 23bd
00000120: 5345 a2bc 642f f13d c034 053e 3817 a6bd
00000130: 9dc0 e53e fe8a d9bd 892a e43d 2daf f93c
00000140: 91ab 5abe cb59 683d 9364 2ebe 397a 8dbd
00000150: 2dab c63e 8add ba3d 8a48 79bd 1d22 1a3e
00000160: 9f8a 6e3e 4d6e 59be ec5a af3d f6d2 d73d
00000170: 0ae1 f63d b877 afbd 8de2 303d 95bb 193e
00000180: d7b6 cb3e 8100 af3e 6379 0cbe db86 3b3d
00000190: 776d e3bc 1022 07be 40de 67bd 7669 11be
000001a0: 3681 05bf b874 67bd af03 003e c141 54bc
000001b0: ce69 bb3e fd97 f13d cc2e 0ebe 7b57 a33e
000001c0: 51c4 e3bd d316 0fbe 647c 0cbe 35ef 89bb
000001d0: 4340 823e 3003 90be a77a 63be 7bff 54be
000001e0: e2f7 203e 4a37 5c3d 2683 cf3d d618 e03d
000001f0: 2e8d a33e e7bf 04be cd24 2d3e 768f 21be
00000200: da71 1fbd cef2 fb3d da58 aebd cba9 e63e
00000210: bcb9 8e3d c1a3 253e e7b1 053e 4a7e 28be
00000220: 167c 753e a079 94bd 95f2 a53e 078e d5bd
00000230: 8229 023d f3e1 823e 5bb9 313e 185c fc3d
00000240: e131 69bd 3a27 473d 683d 5bbe 8f09 0abe
00000250: 2b05 5fbe cdc3 dabd b551 45be 3f63 413d
00000260: 9b12 3bbe a7aa 0cbe a478 abbc 71c3 f13d
00000270: 20f7 6fbc 8e11 103d e44f 0dbf 8a58 833e
00000280: cda3 31be 812a 83bd b59c 103e 4a83 0a3c
00000290: dc06 09be bedc 86bd 9ace a33d ad35 7ebd
000002a0: c1f1 813e 6896 523d 0cea 923d ae88 0a3d
000002b0: 9a0d e4bd 211d d83d c6b0 00be 632d 4bbd
000002c0: b521 48be 8dc1 783e d7bc cabd 9e71 953e
000002d0: 84ca 8cbd 2f59 123e 9374 383e 0c9f 4a3d
000002e0: 0779 52bd e758 82be ee23 d1bd d34c eebd
000002f0: 086f 99be c4fb 813d 06fe 023c af8f c03b
00000300: b1ac 9bbc 631e b7bd 4a63 06be d05b d83d
00000310: 8746 aebe 89f2 993e e91b 9b3e 0cc9 37be
00000320: c6ac bf3c 36cd 263d cd57 35be 47be 4b3e
00000330: 5989 90bd e133 22be a805 0cbe 00e6 1dbe
00000340: b360 86be 4ff3 64bd e48e 98bd 644f c1bd
00000350: be0f 01bd 1009 24be faa1 d93d 4e36 d93e
00000360: aacb 293e d286 e2bc c85b 8f3d 57b7 993c
00000370: f85f 253e d85d 593d f1f4 223e 659c 483e
00000380: 5689 51bd d62a 31be 8e7c 91bc 3d87 b7be
00000390: b515 7a3e 19d7 b6be 52a8 0b3e 890d 473e
000003a0: d309 efbd 5ea4 8f3c 38bc 9cbb c7b7 163e
000003b0: f0d5 09bd 7c9d a1be 884c dcbd 55bc 81bd
000003c0: 9cc9 ea3d bcc3 f7bb 00d8 0bbe 5907 a73d
000003d0: bf41 ce3c 4f50 9ebc 8e56 aa3d 3db7 4f3e
000003e0: a195 b03e 2245 0a3e c681 7abe 9eb6 2fbe
000003f0: 6369 013e 07e1 90bd bdb1 1d3e ad3e 16be
0.062049463 -0.23428454 -0.06700037 -0.14950673 -0.18214737 0.03396216 0.078233175 -0.0088070575
-0.10952076 0.038847502 0.09463961 0.13331239 0.4397195 0.14720644 -0.28344312 -0.08768666
-0.2342433 -0.15998195 -0.19329232 0.39664066 -0.05014214 -0.16959186 0.07556238 0.09200643
0.25824955 -0.09435296 0.08663235 0.23346521 0.19399804 0.17497863 0.20307869 -0.10114212
-0.174732 0.06838172 -0.08184694 -0.08649038 0.12258084 0.024601432 -0.16626024 -0.07878199
0.15163434 -0.0654714 -0.13647684 -0.10201719 -0.08846406 0.004690901 0.32047454 -0.14597495
0.43043315 0.060854714 -0.24211924 -0.017541494 -0.08374325 0.0069461633 0.046449333 -0.32474512
0.29339397 -0.052275002 -0.27955958 -0.245763 -0.22937171 -0.16168538 0.021715228 -0.005912369
-0.0330239 0.0866561 -0.024982646 -0.18579896 -0.044239007 0.27575344 -0.05668312 -0.039812617
-0.019808447 0.11776617 0.13008404 -0.081098974 0.44873515 -0.10622214 0.111409254 0.030479038
-0.2135451 0.05672626 -0.17030554 -0.06908078 0.38802472 0.091242865 -0.060860194 0.15052076
0.23295067 -0.21233483 0.08562264 0.105382845 0.120546415 -0.085677564 0.043184806 0.15012963
0.39787933 0.34180072 -0.1371818 0.045782905 -0.027762158 -0.13196588 -0.05660844 -0.14200386
-0.52150285 -0.056507796 0.12501405 -0.01295513 0.3660416 0.117965676 -0.13885039 0.3190268
-0.11121429 -0.1397355 -0.13719326 -0.004209424 0.25439653 -0.28127432 -0.22214757 -0.20800583
0.1571956 0.053763665 0.101324365 0.10942237 0.3194365 -0.1296383 0.1690857 -0.15777382
-0.038926937 0.12302171 -0.08513041 0.45051417 0.0696902 0.16175748 0.13056146 -0.16454425
0.23973116 -0.07249761 0.32411638 -0.1042748 0.031777866 0.2556301 0.17355864 0.12322253
-0.056932334 0.048621394 -0.21410143 -0.13480209 -0.21779315 -0.10681877 -0.1926945 0.04721379
-0.18268816 -0.13736974 -0.02093155 0.118048556 -0.014646322 0.03517299 -0.5520003 0.25653487
-0.17347641 -0.06404591 0.14122279 0.008454153 -0.13381523 -0.06585072 0.079983905 -0.062062908
0.25379756 0.05141297 0.07173547 0.033821754 -0.11135407 0.10552431 -0.12567434 -0.04960383
-0.19544108 0.24292584 -0.098992996 0.29188246 -0.06874564 0.14291833 0.1801322 0.049468085
-0.051384952 -0.25458452 -0.10211931 -0.11635747 -0.29967523 0.063468486 0.007995134 0.0058765034
-0.019003244 -0.08941343 -0.13123813 0.10564387 -0.34038183 0.30067852 0.3029473 -0.17947787
0.023397814 0.04072305 -0.17709275 0.19896804 -0.07057447 -0.15840103 -0.13674033 -0.1541977
-0.2624565 -0.0558961 -0.07449129 -0.09438971 -0.031509154 -0.16019082 0.10626598 0.42424244
0.16581598 -0.027652178 0.06999928 0.018764181 0.1614989 0.053068012 0.1591375 0.1959091
-0.051156364 -0.17301497 -0.017759588 -0.35845366 0.24422343 -0.3571098 0.13638428 0.19438757
-0.11671796 0.017534431 -0.0047831796 0.14718543 -0.033651292 -0.31565464 -0.10756785 -0.063347496
0.11464235 -0.007561175 -0.13656616 0.08155698 0.025177835 -0.019325403 0.0831729 0.20284744
0.34489158 0.13502935 -0.24463567 -0.17159507 0.12637858 -0.070741706 0.15399833 -0.14672346

fc1.bias f4 [128]
00000000: 2ba9 4c3b e6f4 39bc c6c4 0ebd c29f babd
00000010: 5ea5 05bd 415e f93c 6e95 55bc 6f00 1bbe
00000020: 3bbd 093d deeb 8d3c 3caf 0cbd 1885 0ebd
00000030: ec91 f83b e7fb fe3b 5f32 f7bd 9ea9 18bd
00000040: d48b 033d 96a4 14bc 46f2 033c dd29 083b
00000050: 3659 3b3d 7895 c2bc 7174 1abd 48ad 4a3c
00000060: 391e 67bd 5568 be3a bf5c 3c3d d7b4 573d
00000070: 5d29 9a3d 709e 72bd 287a e7bc c97f 02bd
00000080: 322d ac3b 45b8 c939 9578 a9bd 56bc ba3c
00000090: ece1 10be 2b73 b1bd de5b 2d3d e119 99bd
000000a0: a454 acbb 6c13 893d 1b78 cb3c 003a 12bc
000000b0: 2ed9 b73c f3e2 0bbd 26c8 f8bd 09dc 00bd
000000c0: 8e7c 87bc 6405 10be bf4a 433c 245d a7bd
000000d0: bad4 28bd bcc1 85bc 3439 f73c abe5 82bd
000000e0: ca3b 133d 33a0 8cbd 1857 0abd 46cc 42bd
000000f0: 61ff 243d b92e 77bd 354d da3c 3be7 963c
00000100: f105 81bc 4e2e 2a3d 5ac2 efbc 08f4 943c
00000110: 3f4c 9ebd 9017 553d bf83 2e3d 553c 913d
00000120: d424 a83a 0383 613c 4a17 403d 1274 483d
00000130: 6026 a23d 3291 45bb 407b 1fbe 2898 46bb
00000140: 19b1 35bb a6f3 3cbd 197d 78bd 95ae be3c
00000150: 2e51 7bbd c804 50bd a91f 25bd f135 093e
00000160: 57bf a43c 74ab 903c dc8f 41bd 066f 3ebc
00000170: d2e4 1dbd 2e8c f43b 45b5 073d 216a f93c
00000180: 3f50 87bd 7935 6e3c 476b 6d3c ddf7 76bd
00000190: 90f6 ac3c b87f 8f3d 4617 d2bc cd2e 3d3d
000001a0: 3f81 68bd 205b f53c b84f 753d cdef f13d
000001b0: 38c4 1f3d 8bc3 763c c184 bf3c a4f3 1a3c
000001c0: 9e85 343d 8f76 a73d 1418 25bd a563 31bd
000001d0: 8e11 103d c0ed 943d f6dd e5bd a63c 053c
000001e0: f8b9 10bd 6f43 bc39 355a d4bd 1840 9e3c
000001f0: 23d7 44bd ee5d dbbc c6ae 18bd a732 8ebd
0.0031228762 -0.011349892 -0.034855627 -0.09112503 -0.03262841 0.030440452 -0.013036115 -0.15136884
0.03362773 0.017324384 -0.034346804 -0.034794897 0.0075857546 0.007781494 -0.120701544 -0.037271135
0.032115772 -0.0090724435 0.008053368 0.0020776906 0.045739375 -0.023752913 -0.037708703 0.012370415
-0.056425307 0.0014526943 0.045986887 0.052662697 0.07527421 -0.05923313 -0.02825649 -0.031860147
0.005254411 0.00038475 -0.08274952 0.022794884 -0.14148682 -0.08664545 0.04232394 -0.07475639
-0.0052591134 0.066931576 0.024837544 -0.008924961 0.022442427 -0.034151983 -0.1214755 -0.031459842
-0.016538884 -0.14064556 0.011919676 -0.08172062 -0.041218497 -0.016327731 0.030178644 -0.06391462
0.03594569 -0.06866493 -0.033774465 -0.04755809 0.04028261 -0.060347293 0.026648143 0.018420806
-0.015749903 0.041548066 -0.029267479 0.01818277 -0.077293865 0.052024424 0.04260611 0.070915855
0.0012828358 0.013764146 0.04689721 0.04893882 0.07917476 -0.0030146358 -0.1557436 -0.0030303095
-0.0027723967 -0.0461308 -0.060666177 0.023276607 -0.061356716 -0.05078581 -0.040313397 0.13399483
0.02011077 0.01765988 -0.047256336 -0.01162315 -0.0385483 0.007463 0.033131856 0.030446114
-0.066071026 0.014539116 0.014490909 -0.060294975 0.021113664 0.07006782 -0.025645863 0.04618721
-0.056763884 0.029950678 0.05989048 0.118133165 0.03900549 0.0150612695 0.023378732 0.0094575025
0.04407274 0.0817691 -0.040306166 -0.04330792 0.03517299 0.0727191 -0.11223976 0.0081321355
-0.035333604 0.00035908396 -0.10368768 0.019317672 -0.048056733 -0.026778188 -0.037276052 -0.06943255

fc2.weight f4 [5, 128]
00000000: e6ff d1bc 06c7 1b3e ee66 61bd 4cdd 523e
00000010: f6c8 2d3e 0ebc e9bd 2078 ca3d bfe5 c23d
00000020: 372c d23d 574b 053e 2429 09be 7ad6 1a3e
00000030: ed57 d63c ecd3 653d 2b5d 203e aa7f a03d
00000040: 23d3 3c3e c834 9dbd d572 06be 2c8a 113e
00000050: f421 1abe e3dc 233e 23dc 223e fc53 913d
00000060: 70b6 4d3d 8c31 d53d 2999 ffbd 7bf9 2ebe
00000070: 1c49 87bd 269d b8bd 6342 8d3d d437 263e
00000080: 0d1e 1abe a537 abbc e98b a93c d615 893d
00000090: dee4 3b3e 1d37 323d 5b92 f6bd 5e0b c1bd
000000a0: 0b11 0f3e 0f68 77bd 4d23 ea3c 985b 99bc
000000b0: 89b3 92bc 0137 3b3e 1495 e93b c856 cf3d
000000c0: e0bf 11be 7bd9 3bbd 136f d53d 9e97 2d3e
000000d0: 0647 0e3d a208 183d c358 d73d e7fb 313e
000000e0: 7db1 88bd d6d4 803d 3403 763b 71b5 1b3d
000000f0: d274 edbb 3f8b 14bc 3aa4 f9bc fd70 8b3d
00000100: eac7 1e3e 5fa7 c83d 5260 b63d 4c5a cfbc
00000110: fe97 00be efcb 3b3d 34d4 b43c e712 0d3e
00000120: 23c3 a13d f3c7 a1bd bce8 37be 0f3d 1bbe
00000130: 8a21 8cbc d0f0 c03d 13d2 0e3e 87ff f3bc
00000140: decd e13d c058 83bd f6a0 373c 80e8 9ebd
00000150: a275 1abe 63a6 00be 07b7 babc 4879 973c
00000160: e0ed db3d 2239 d9bd b800 f7bd 7f3a da3d
00000170: cb0e aabd b51c fd3c 706c 4d3d 6e8a d2bc
00000180: 7ad8 153d 2a64 acbc 9b62 0cbe 0d70 9abd
00000190: a9b2 0bbe f461 50be fabd 1bbd 447a 3cbd
000001a0: 902c c13d 2c0f 643d 1fd3 293e 44c4 b7bc
000001b0: 1dc3 88bb 08b1 bfbd 0411 033d 2fc3 003e
000001c0: fc08 4ebd 4b2c d0bd 2a7a 46bd cf2d a5bd
000001d0: e19d 09be 0fdd 28be 9ce6 eb3d 29b0 bebd
000001e0: 3f03 d3bd 1273 b4bd 4efc d1bd 7933 bc3d
000001f0: b87b c93d 0d4a 7f3d be09 fc3d 65f9 223e
00000200: 40a2 e13d ce47 01be 2d89 703c a484 4bbd
00000210: eeb0 c4bd 41cb a13d 807c d2bd 841b a1bd
00000220: 9c9b ba3d f96a c83d e6e5 f7bd 7c60 7ebd
00000230: 2bab b1bd a509 343c 7c73 8b3d 2d8b 053d
00000240: e54c 523d 5a14 86bd 161a e43d 70d1 693b
00000250: 8182 a1bc 843d b8bd 02c3 2f3b 5728 c03d
00000260: 76af e0bb 73a4 9b3d 4224 58bb 31ed d63d
00000270: 0b77 aa3d 0ed0 893d 353d 16bc 3a71 84bd
00000280: 9bca 333d 6d89 423d 01cd 51bd 0600 563d
00000290: a1cf 22bd d211 eabd 9bd8 8fbd a9e1 673d
000002a0: 4092 a1bc 70cb 78bd 44b2 80bd 4d93 1d3d
000002b0: 8136 7c3d 10d6 6abd 0ca9 c3bd 32ea 4f3d
000002c0: 66d5 00bb 7236 17bc 0c96 abbd 1835 9c3d
000002d0: 47a9 bcbd 1575 153d d66b adbd 8857 babd
000002e0: 24fd 55bd 1b3b f43d 342c d73d 9963 ebbd
000002f0: d631 8d3d eb48 9abd ce27 3cbd 9e53 c43d
00000300: b621 e43d 5607 de3d dfc2 72bc bae9 0f3e
00000310: f166 a9bd 65c6 67bd b777 bbbc 9341 013d
00000320: 2adf d43d b455 01be 09e6 a13d df68 8ebb
00000330: 5d1b 463c 70c4 fb3a f943 143d 73ba 9a3d
00000340: 3972 fdbd 1e9e 6cbd a135 013e 3960 c6bb
00000350: 827c a4ba 2640 8d3d 84f7 efbc e632 7d3d
00000360: ca24 033e 5533 6bbd db2d 8f3c ae99 b03d
00000370: 4d21 c73d fcd1 aa3d fdd3 a2bd 513c 66bd
00000380: 36c3 ae3d d44d 923d 02ba d13d 377b b93d
00000390: d872 2bbd 34c3 cc3c 95c2 72bd e805 373e
000003a0: c1cc e23d 6625 81bd bfa1 bbbd 081f 123d
000003b0: 117d aebd cd14 833d 5670 aebd 6658 bcbd
000003c0: 2910 4fbd c8d5 0a3e 4f48 5fbc 8eea 79bc
000003d0: 50b1 bc3d d7c5 dc3d 8af5 d43d b431 023e
000003e0: bb8c 333d fb3e ebbd feba b9bd b192 943d
000003f0: 50dd eb3d af7d b0bd 633e c4bc 95f8 d1bc
-0.025634717 0.1521264 -0.055029802 0.2059223 0.16971192 -0.11412822 0.09886193 0.09516477
0.102623396 0.13017021 -0.133946 0.15120879 0.026164973 0.056110308 0.15660541 0.0783685
0.18439917 -0.07676083 -0.13129742 0.14212865 -0.15052015 0.1600223 0.15904288 0.07096097
0.050222814 0.10409841 -0.12480385 -0.17087357 -0.066057414 -0.09014349 0.06897428 0.16232234
-0.15050526 -0.020900557 0.020696597 0.06693618 0.18349025 0.04350959 -0.12039634 -0.09425996
0.13971345 -0.060401972 0.028581286 -0.018720433 -0.017907875 0.18282701 0.007128367 0.10123974
-0.14233351 -0.045861702 0.10421576 0.16952369 0.034735702 0.037117608 0.10514977 0.1738125
-0.06674478 0.06290595 0.003753853 0.038014833 -0.007246592 -0.009066402 -0.030473817 0.0680866
0.15505949 0.097975485 0.089050904 -0.025311612 -0.1255798 0.045848783 0.022073843 0.13776742
0.078985475 -0.078994654 -0.17959875 -0.15160011 -0.017105836 0.09420931 0.13947324 -0.02978493
0.11025594 -0.06413412 0.01120781 -0.077591896 -0.15083936 -0.12563471 -0.022792352 0.018490449
0.107387304 -0.106066 -0.12060684 0.106556885 -0.08303603 0.030897478 0.050152242 -0.025700774
0.0365834 -0.021043856 -0.1370949 -0.07540903 -0.13642372 -0.20349866 -0.038022973 -0.04601504
0.09432328 0.05567853 0.16584443 -0.022432454 -0.00417365 -0.09359938 0.03199865 0.12574457
-0.050301537 -0.10164698 -0.04845635 -0.08065378 -0.13439132 -0.16490577 0.115185946 -0.09310944
-0.103033535 -0.088110104 -0.102532014 0.09189505 0.098380506 0.06232648 0.12306546 0.15915449
0.11017275 -0.12625048 0.014681143 -0.049687043 -0.09604059 0.07900096 -0.10277653 -0.07866576
0.091117114 0.097860284 -0.121043965 -0.062103733 -0.08675226 0.010988628 0.06809136 0.03260343
0.051342864 -0.065468505 0.11137788 0.0035677813 -0.01971555 -0.08996108 0.0026819115 0.09382694
-0.006856854 0.075997256 -0.0032980596 0.104944594 0.08323487 0.067291364 -0.009169866 -0.06466909
0.04389439 0.04749434 -0.051220898 0.052246116 -0.03974879 -0.1142918 -0.07023736 0.05661169
-0.019723058 -0.060740888 -0.062840015 0.038470555 0.061575416 -0.057333052 -0.095537275 0.050760455
-0.0019658445 -0.009229289 -0.083782285 0.07627314 -0.092119746 0.03648861 -0.08467834 -0.090987265
-0.052243367 0.11925336 0.10506478 -0.11493606 0.06894271 -0.07533439 -0.0459364 0.09586261
0.11139242 0.10841243 -0.014816969 0.14054003 -0.08271588 -0.05658569 -0.022884233 0.031556677
0.10394128 -0.1263035 0.07905204 -0.0043459977 0.012091485 0.0019208323 0.036197636 0.075550936
-0.12375302 -0.05776798 0.12618114 -0.006053951 -0.0012549313 0.06897001 -0.02929283 0.06181612
0.12807003 -0.057422 0.01747792 0.08623062 0.097231485 0.083408326 -0.0795059 -0.056209866
0.08533327 0.07143751 0.10240556 0.090567045 -0.04185757 0.024995424 -0.0592676 0.17873347
0.1107421 -0.06305961 -0.0916171 0.035674125 -0.08519948 0.06400452 -0.0851752 -0.09196548
-0.05055252 0.13558114 -0.01362808 -0.015253676 0.09213507 0.107799225 0.10398395 0.12714273
0.043835383 -0.11486622 -0.09068869 0.07254542 0.115168214 -0.08617722 -0.02395553 -0.025631228

fc2.bias f4 [5]
00000000: d0bc 8cbc 12f8 3f3d 0d4b ec3d 7df8 43be
00000010: 9695 403c
-0.017179877 0.046867438 0.11537752 -0.1913776 0.011754414
