results/valence/classification_3/20251226_093943_092586/best_model.pt (torch, 519605 bytes, 16 tensors)

conv1.weight f4 [16, 1, 3, 3]
0.3849033 0.3242269 -0.09977643 0.23616163 -0.23011813 0.030814437 -0.2546775 -0.014993333
0.44394112 -0.4338343 0.31641406 0.10335675 0.3024488 0.023979086 0.05627457 -0.11062695
0.28041244 0.06839774 -0.06025236 0.27652955 -0.2820012 -0.09850885 -0.06412195 0.35456356
-0.090994306 -0.26576075 -0.17358482 -0.20216906 -0.012061317 -0.42220968 0.2728913 -0.29832238
0.37523347 0.06395495 -0.07039773 0.39601707 0.025721991 0.38636726 -0.09894685 -0.16228306
-0.036963094 -0.28377828 0.17932318 0.32438818 0.2590955 0.030023761 0.35039344 0.089982785
0.103677645 -0.27286687 -0.32959515 -0.024587514 -0.42011383 0.3537369 0.07175112 0.19941884
0.21610628 -0.066792816 0.40212646 -0.34703222 0.014727987 -0.2773323 0.0059192283 -0.11906456
-0.060474046 -0.064929016 0.20286271 -0.1902336 -0.34659538 -0.15978265 0.45946994 0.3162026
0.3095831 -0.33798084 -0.3391563 -0.26068667 -0.2895088 0.071706526 0.101459965 0.47445157
-0.12225937 -0.14493234 0.2634109 -0.14528804 0.15574963 -0.073119745 0.40278846 -0.31298456
-0.30966517 0.12229517 0.012874327 -0.12296523 0.34072953 0.23623079 -0.33122638 -0.3615481
0.3172219 -0.11227869 -0.038591374 -0.23105128 -0.36245748 0.2324741 0.09550483 -0.21692854
0.12659703 -0.2370795 -0.3010302 -0.31231713 -0.20820065 -0.29203114 0.4474673 0.10361648
0.21136478 -0.4580018 -0.18426196 0.014757404 -0.016408505 -0.35017782 -0.069599435 -0.27977014
0.19453621 -0.11256513 -0.090664275 -0.16439497 -0.46846008 -0.15042509 -0.13878709 -0.40130153
0.35305554 -0.06060334 0.36685607 0.16591954 -0.17732047 0.24333715 -0.23005417 -0.08805986
-0.28179038 -0.51497996 0.09362327 0.0023502298 0.28433752 -0.24622832 0.36423385 -0.2376453
00000000: 0c12 c53e 1101 a63e 9657 ccbd 5bd4 713e
00000010: 16a4 6bbe 8f6e fc3c 1765 82be 99a6 75bc
00000020: 404c e33e 881f debe 0601 a23e b4ac d33d
00000030: 92da 9a3e ca6f c43c 2a80 663d 6290 e2bd
00000040: 3892 8f3e 1d14 8c3d 2ecb 76bd 4895 8d3e
00000050: 7662 90be 02bf c9bd 5e52 83bd 5b89 b53e
00000060: 395b babd cb11 88be 38c0 31be 6805 4fbe
00000070: d59c 45bc de2b d8be 69b8 8b3e b6bd 98be
00000080: 9a1e c03e d0fa 823d af2c 90bd c0c2 ca3e
00000090: edb6 d23c eed1 c53e a5a4 cabd 882d 26be
000000a0: 9d66 17bd 634b 91be 7fa0 373e 3516 a63e
000000b0: 2aa8 843e 64f4 f53c c566 b33e e548 b83d
000000c0: f254 d43d 35b5 8bbe b2c0 a8be c16b c9bc
000000d0: 2919 d7be 011d b53e 40f2 923d 7434 4c3e
000000e0: f74a 5d3e acca 88bd 85e3 cd3e 35ae b1be
000000f0: a84d 713c 80fe 8dbe 16f6 c13b 1fd8 f3bd
00000100: a2b3 77bd 81f9 84bd 3ebb 4f3e 99cc 42be
00000110: f374 b1be 109e 23be a53f eb3e 4fe5 a13e
00000120: ad81 9e3e d30b adbe e5a5 adbe b978 85be
00000130: 7f3a 94be dfda 923d 3eca cf3d 51eb f23e
00000140: 1f63 fabd 2569 14be cbdd 863e 63c6 14be
00000150: d57c 1f3e cebf 95bd 4a3a ce3e 833f a0be
00000160: 6f8c 9ebe e475 fa3d d7ee 523c 32d5 fbbd
00000170: 1a74 ae3e 7ce6 713e 8196 a9be d51c b9be
00000180: e96a a23e 5ff2 e5bd fd11 1ebd b598 6cbe
00000190: 0794 b9be b10d 6e3e 0998 c33d 8422 5ebe
000001a0: a7a2 013e f8c4 72be a120 9abe 08e8 9fbe
000001b0: 8d32 55be 1b85 95be 6f1a e53e e134 d43d
000001c0: 0270 583e 367f eabe 2baf 3cbe 0ac9 713c
000001d0: 216b 86bc 824a b3be 268a 8ebd 083e 8fbe
000001e0: 8034 473e 8c88 e6bd 31ae b9bd 2857 28be
000001f0: 00da efbe 0909 1abe 341e 0ebe 6577 cdbe
00000200: b2c3 b43e 353b 78bd 8fd4 bb3e d0e6 293e
00000210: 7f93 35be 602d 793e 5293 6bbe ba58 b4bd
00000220: d446 90be bad5 03bf 8fbd bf3d 5006 1a3b
00000230: b094 913e 4723 7cbe dc7c ba3e 4a59 73be

conv1.bias f4 [16]
-0.00072989555 0.0005362716 -0.000110666224 0.0019795727 0.00069310376 0.00052970066 -0.0028825998 -0.0013359721
-0.0010559604 0.0014534321 -0.0032244665 0.00017292434 -0.00034449212 7.6378456e-05 0.0009664948 0.0004325013
00000000: 7656 3fba 9494 0c3a 7a15 e8b8 b8bb 013b
00000010: 68b1 353a 9cdb 0a3a 00ea 3cbb c91b afba
00000020: 2768 8aba 1781 be3a 9251 53bb 0653 3539
00000030: f39c b4b9 5f2d a038 5e5c 7d3a 58c1 e239

bn1.weight f4 [16]
0.84886456 0.81945044 0.8844992 1.1022356 0.89576685 1.0730497 1.1071287 1.2144874
1.0224868 0.971913 1.0220747 0.82915473 1.012931 0.725442 0.93182224 1.053264
00000000: 304f 593f 81c7 513f 8a6e 623f 0e16 8d3f
00000010: fa50 653f b159 893f 65b6 8d3f 5374 9b3f
00000020: d9e0 823f 4acf 783f 58d3 823f 7c43 543f
00000030: b9a7 813f 91b6 393f e78b 6e3f 5bd1 863f

bn1.bias f4 [16]
-0.21414767 -0.39372167 -0.2234264 -0.02928638 -0.26033637 -0.113774985 -0.22774842 -0.35047713
-0.13251926 -0.12509735 0.053370327 -0.48675886 -0.12633039 -0.10147816 -0.08312938 -0.063262895
00000000: 8749 5bbe e395 c9be e4c9 64be fee9 efbc
00000010: cf4a 85be dc02 e9bd e236 69be bd71 b3be
00000020: 21b3 07be 8519 00be d89a 5a3d 7538 f9be
00000030: c15c 01be c8d3 cfbd bd3f aabd fa8f 81bd

bn1.running_mean f4 [16]
-0.003292236 -0.0016187178 0.0007712838 0.0011825588 -0.0022057411 0.00049098727 -0.0025675262 -7.9373865e-05
0.00061153306 0.0012145607 -0.0036532092 0.004042495 0.0010686009 0.005194974 -0.0007296888 0.0017105655
00000000: 8ec2 57bb 282b d4ba fb2f 4a3a 1700 9b3a
00000010: 328e 10bb 99b5 003a f143 28bb 8575 a6b8
00000020: 4a4f 203a e531 9f3a ae6a 6fbb e876 843b
00000030: 4c10 8c3a 9a3a aa3b 9648 3fba 0e35 e03a

bn1.running_var f4 [16]
0.3492662 0.32909966 0.14353606 0.20051344 0.33083478 0.20927219 0.16199729 0.18284495
0.32407665 0.20898741 0.28524506 0.8084359 0.14902 0.8990203 0.22072655 0.27835664
00000000: 05d3 b23e c07f a83e 1efb 123e 6553 4d3e
00000010: 2d63 a93e 734b 563e 9ee2 253e b53b 3b3e
00000020: 60ed a53e cc00 563e a40b 923e a8f5 4e3f
00000030: b398 183e 3226 663f 2406 623e c384 8e3e

conv2.weight f4 [32, 16, 3, 3]
0.2629258 0.025443839 0.29971477 -0.22452988 0.013337672 0.2709854 0.028122917 0.1725363
-0.04618593 -0.0072962316 -0.109304905 0.043963484 -0.0012814085 -0.1089419 -0.030804953 0.011270769
-0.5751623 -0.066315405 0.119985394 0.056313585 -0.1227203 -0.006537251 0.06367162 -0.012119375
0.038241904 0.10830685 0.19548325 -0.11148247 -0.22908406 0.08155708 0.14185405 -0.09647524
-0.006688556 0.21305937 0.012832435 0.14805746 0.15683882 -0.16733828 -0.2043346 0.17496534
-0.10011021 -0.017181499 0.18285766 0.13456859 0.18856521 -0.1932057 -0.10902945 -0.22758746
-0.08185565 -0.14033006 0.12436969 0.06944434 -0.2169397 -0.029090898 -0.013627303 0.1736499
-0.03135799 -0.02597957 -0.069148 0.02343499 -0.28973314 0.036201503 0.22934233 -0.0022252481
-0.08376074 -0.07111361 -0.10519789 -0.0057914006 -0.32276666 0.0033104047 0.00075557205 -0.026881138
0.21850854 -0.07301235 -0.16606541 0.007344422 0.08401965 -0.23157552 -0.01049272 0.007000254
0.06346976 -0.009145511 0.15477239 -0.13842574 -0.06614394 -0.26860958 -0.42446685 0.07435783
0.009670268 0.32848215 -0.06888277 -0.087496206 -0.0643881 0.19719386 -0.20743434 -0.43795556
-0.049495146 -0.24949078 -0.096030325 -0.19785056 -0.21603045 -0.03555423 0.05616022 -0.048827186
0.38415813 -0.05305366 0.13674986 0.02819121 -0.052191526 -0.103219755 -0.1536556 -0.09973613
0.08712084 0.1878482 0.24440497 -0.04777207 -0.27984327 0.036982883 0.098969266 0.028464818
-0.10106168 0.031331018 0.26411474 -0.0017368394 0.019698735 -0.050183702 -0.38437256 0.06565933
0.27201426 0.108384274 -0.026383217 0.06528712 -0.087847196 -0.2709523 -0.03696069 -0.113783844
0.054833055 0.13668807 -0.012991786 0.056402247 0.12975296 0.037382033 -0.30571988 -0.25838512
-0.19422676 -0.027081644 0.09223537 0.06365889 -0.24913928 -0.057674184 0.21120341 0.032250103
0.07660643 0.019241402 0.009652086 0.3407446 0.15025361 0.16218875 -0.18329753 -0.026834864
-0.07120745 -0.037674837 0.106556825 -0.057959028 -0.109678775 -0.17958057 0.056379266 -0.19792314
0.04075049 0.025002595 0.275315 -0.10247909 -0.35091618 -0.2184232 0.10967331 -0.2375263
-0.06823437 -0.05803814 0.016914336 0.13923453 0.15527242 -0.1242068 -0.02154916 -0.01719051
-0.091676846 -0.12193662 0.21226802 -0.3312996 0.0057813455 0.09856048 0.04909256 0.0660428
0.0035100575 0.26929045 -0.34487385 -0.073594734 0.24859561 0.2513819 -0.3208916 0.29440042
0.2050316 -0.12917398 -0.33686838 0.020180913 0.22088738 0.2154813 0.09558607 -0.14215831
-0.2410573 -0.0003527915 0.043467574 -0.04960284 -0.048690535 0.1038955 -0.063185774 -0.35598156
0.01672967 -0.049659647 0.18505986 -0.0500875 0.11167502 -0.003943868 0.12394101 0.04031683
-0.026334438 0.18779786 -0.14545359 -0.37597033 0.007960673 0.057249 -0.00010285305 0.0132545885
-0.030257672 -0.02102322 0.0073877196 -0.039180662 -0.028585214 -0.08601515 -0.13874659 -0.03083921
-0.4201292 0.07710103 0.087565936 -0.02054721 -0.48953122 -0.12364466 0.26794678 -0.09956768
-0.15745899 0.22102985 -0.09761721 -0.23782316 0.18343802 0.13593923 0.31576234 -0.16087426
00000000: 369e 863e 996f d03c 3774 993e 29eb 65be
00000010: 4086 5a3c 99be 8a3e 0862 e63c 5bad 303e
00000020: 752d 3dbd 3a15 efbb 40db dfbd 0e13 343d
00000030: eff4 a7ba ee1c dfbd ab5a fcbc 08a9 383c
00000040: d63d 13bf 5fd0 87bd e7ba f53d 13a9 663d
00000050: c854 fbbd 7036 d6bb 4466 823d 5890 46bc
00000060: 8ba3 1c3d fbcf dd3d c32c 483e ec50 e4bd
00000070: 0395 6abe 6607 a73d 3042 113e d094 c5bd
00000080: ad2b dbbb 3c2c 5a3e 223f 523c 609c 173e
00000090: 5b9a 203e ba5a 2bbe 173d 51be 1d2a 333e
000000a0: 9506 cdbd 37c0 8cbc 0a3f 3b3e 59cc 093e
000000b0: 3d17 413e b7d7 45be d54a dfbd b00c 69be
000000c0: efa3 a7bd afb2 0fbe 89b5 fe3d d638 8e3d
000000d0: 7125 5ebe 0950 eebc 0d45 5fbc 48d1 313e
000000e0: 3c71 00bd 1bd3 d4bc 779d 8dbd bcfa bf3c
000000f0: e757 94be 0748 143d b7d8 6a3e 78d5 11bb
00000100: c08a abbd 03a4 91bd fe71 d7bd cac5 bdbb
00000110: ac41 a5be 60f3 583b 9511 463a d535 dcbc
00000120: b4c0 5f3e 8087 95bd 0d0d 2abe 7aa9 f03b
00000130: 7f12 ac3d 2222 6dbe a8e9 2bbc 6362 e53b
00000140: 6ffc 813d 0ed7 15bc a77c 1e3e 7abf 0dbe
00000150: 7976 87bd 3287 89be b853 d9be eb48 983d
00000160: 0b70 1e3c d02e a83e 6912 8dbd 3631 b3bd
00000170: e8dd 83bd 30ed 493e ab69 54be b63b e0be
00000180: 6cbb 4abd 837a 7fbe 8cab c4bd 5699 4abe
00000190: 1637 5dbe 50a1 11bd 4208 663d 04ff 47bd
000001a0: 60b0 c43e cb4e 59bd 2808 0c3e 41f1 e63c
000001b0: c8c6 55bd e164 d3bd e557 1dbe 7542 ccbd
000001c0: 696c b23d 475b 403e 4c45 7a3e a5ac 43bd
000001d0: 9e47 8fbe 5d7b 173d 66b0 ca3d 0d2f e93c
000001e0: 6df9 cebd f454 003d 0c3a 873e a9a6 e3ba
000001f0: 3e5f a13c 6d8d 4dbd 7bcc c4be 6678 863d
00000200: 7445 8b3e 93f8 dd3d 9e21 d8bc 41b5 853d
00000210: 3be9 b3bd 43ba 8abe 1864 17bd 8107 e9bd
00000220: a098 603d f5f7 0b3e 80db 54bc 0b06 673d
00000230: f6dd 043e e71d 193d 5187 9cbe 0e4b 84be
00000240: 61e3 46be 53da ddbc e6e5 bc3d 985f 823d
00000250: 5e1e 7fbe c43b 6cbd b545 583e af18 043d
00000260: d5e3 9c3d 25a0 9d3c c823 1e3c 1476 ae3e
00000270: 15dc 193e cf14 263e 59b2 3bbe cad4 dbbc
00000280: 36d5 91bd ee50 1abd 773a da3d 7266 6dbd
00000290: 449f e0bd f8e3 37be f2ed 663d 5dac 4abe
000002a0: fce9 263d 3ed2 cc3c 16f6 8c3e 8fe0 d1bd
000002b0: 49ab b3be 55aa 5fbe 669c e03d 183a 73be
000002c0: 76be 8bbd 67b9 6dbd ef8f 8a3c 7f93 0e3e
000002d0: bcff 1e3e 2260 febd dd87 b0bc 1dd3 8cbc
000002e0: 12c1 bbbd e8b9 f9bd ca5c 593e 1aa0 a9be
000002f0: 7171 bd3b 14da c93d 4815 493d 7341 873d
00000300: fe08 663b 70e0 893e 4e93 b0be d6b8 96bd
00000310: d98f 7e3e 21b5 803e e74b a4be a7bb 963e
00000320: cef3 513e 2f46 04be 037a acbe 7152 a53c
00000330: 4d30 623e 21a7 5c3e a1c2 c33d f391 11be
00000340: bad7 76be e0f6 b8b9 0e0b 323d 592c 4bbd
00000350: ba6f 47bd 2ac7 d43d 8b67 81bd 3743 b6be
00000360: a90c 893c ea67 4bbd 5580 3d3e 8d28 4dbd
00000370: dfb5 e43d 903b 81bb c9d4 fd3d 4323 253d
00000380: 52bb d7bc 154e 403e c9f1 14be 2f7f c0be
00000390: 7c6d 023c ed7d 6a3d d0b2 d7b8 c629 593c
000003a0: f0de f7bc e338 acbc af14 f23b e77b 20bd
000003b0: 8a2b eabc b628 b0bd 9613 0ebe 83a2 fcbc
000003c0: 2d1b d7be 25e7 9d3d c555 b33d 9f52 a8bc
000003d0: d6a3 fabe 6939 fdbd 5230 893e 24ea cbbd
000003e0: ee3c 21be a655 623e 88eb c7bd ea87 73be
000003f0: 2dd7 3b3e a733 0b3e 9aab a13e 39bc 24be

conv2.bias f4 [32]
-0.00036560805 -0.00032329117 -0.0014730977 -0.0015160756 -0.0018636154 -0.000822394 0.0006342053 0.00019999774
0.00019527599 8.025498e-06 2.8407778e-05 4.0548723e-05 -0.00031978136 0.000962954 0.00063733634 0.002128181
-0.000608699 -0.00033668205 -1.362589e-05 -0.00041959557 -0.0015695852 0.0005797382 -0.00072404096 -0.00023318687
-0.0011881277 -0.00065544504 0.00066453894 0.00089363975 -0.0002609403 -0.0007705729 -0.0022211736 0.00081831485
00000000: 15af bfb9 687f a9b9 f514 c1ba 0eb7 c6ba
00000010: 8e44 f4ba ed95 57ba cc40 263a 7cb6 5139
00000020: 00c3 4c39 40a5 0637 3d4d ee37 dc12 2a38
00000030: 54a8 a7b9 c06e 7c3a eb12 273a f478 0b3b
00000040: 1991 1fba b384 b0b9 c09a 64b7 2afd dbb9
00000050: 8aba cdba 92f9 173a 91cd 3dba a083 74b9
00000060: f3ba 9bba 2cd2 2bba 7434 2e3a 2643 6a3a
00000070: d0ce 88b9 4600 4aba 1c91 11bb 2e84 563a

bn2.weight f4 [32]
1.9457957 1.9939235 1.9278374 2.0368664 1.9459004 1.7229596 1.9672589 1.8437954
2.074125 1.830337 1.6733626 1.876709 1.5856622 2.0404725 1.858148 1.894617
1.8580927 1.9451427 1.9375801 2.0098462 1.9631404 1.8655001 1.8240696 1.8094265
2.0699382 2.0065138 1.7876256 1.7295082 1.9426965 1.8802892 1.7686809 2.034704
00000000: d50f f93f e338 ff3f 60c3 f63f 055c 0240
00000010: 4413 f93f f189 dc3f 24cf fb3f 7d01 ec3f
00000020: 77be 0440 7c48 ea3f bf30 d63f 0038 f03f
00000030: fbf6 ca3f 1a97 0240 cbd7 ed3f cf82 f23f
00000040: fbd5 ed3f 70fa f83f a002 f83f 52a1 0040
00000050: 2f48 fb3f b5c8 ee3f 1d7b e93f 4a9b e73f
00000060: de79 0440 b96a 0040 ead0 e43f 8660 dd3f
00000070: 47aa f83f 51ad f03f 2364 e23f 9738 0240

bn2.bias f4 [32]
-0.6716622 -0.836879 -0.809148 -0.78060865 -0.82999164 -0.57378346 -0.9883493 -1.0293677
-0.7121363 -1.0791662 -0.6786477 -0.7913038 -0.37259516 -0.83506703 -0.5611607 -0.6542797
-0.8744823 -0.86658704 -0.69908154 -0.5918507 -0.76428866 -0.7779625 -0.6990489 -0.70350075
-0.7694055 -0.7689919 -0.69277364 -0.7972807 -0.6903001 -0.54248947 -0.6911493 -0.84778845
00000000: 0ef2 2bbf b43d 56bf 5324 4fbf f8d5 47bf
00000010: 557a 54bf 79e3 12bf 7604 7dbf 52c2 83bf
00000020: 914e 36bf 1e22 8abf dbbb 2dbf e392 4abf
00000030: cbc4 bebe f4c6 55bf 3aa8 0fbf e07e 27bf
00000040: 12de 5fbf a6d8 5dbf 02f7 32bf 8783 17bf
00000050: 6ca8 43bf 8d28 47bf def4 32bf a018 34bf
00000060: c2f7 44bf a7dc 44bf 9d59 31bf 971a 4cbf
00000070: 82b7 30bf 97e0 0abf 29ef 30bf aa08 59bf

bn2.running_mean f4 [32]
-0.831953 -0.4079282 -0.010738204 -0.66629404 -0.36986512 -0.6715027 0.59251946 0.17217837
-0.520501 0.83878684 0.08258907 0.5010705 -1.0386928 -0.101380125 -0.77969784 -0.71666235
0.47727403 -0.3483103 -0.24308318 -0.7720385 0.012686558 -0.2453745 -0.30393654 -0.61905015
-0.77897966 -0.4271771 0.50136906 0.15856025 -0.48380315 -0.90076935 0.06276142 0.12632601
00000000: dffa 54bf f7db d0be 4bef 2fbc 3f92 2abf
00000010: f65e bdbe 9ae7 2bbf 5baf 173f 874f 303e
00000020: 8e3f 05bf bcba 563f 7524 a93d 2846 003f
00000030: e3f3 84bf 62a0 cfbd 479a 47bf 2f77 37bf
00000040: 435d f43e ba55 b2be ccea 78be 51a4 45bf
00000050: 48db 4f3c 7443 7bbe 929d 9bbe 127a 1ebf
00000060: 366b 47bf f5b6 dabe b959 003f 9e5d 223e
00000070: 0cb5 f7be d298 66bf 0f89 803d 9b5b 013e

bn2.running_var f4 [32]
0.5486107 0.6420626 0.5494279 0.4746505 0.4239615 0.6783276 0.6788512 0.45173633
0.5358365 0.64553803 0.5130967 0.6301558 0.91312647 0.5020552 0.75340414 0.68919504
0.5449376 0.56808376 0.73735565 0.81134033 0.5621807 0.44757342 0.55033493 0.5487648
0.44890225 0.52974564 0.51445997 0.5594843 0.5369046 0.77018255 0.40294704 0.4637202
00000000: c071 0c3f 375e 243f 4fa7 0c3f 6405 f33e
00000010: 7b11 d93e e1a6 2d3f 31c9 2d3f fc49 e73e
00000020: 952c 093f fb41 253f 4e5a 033f e451 213f
00000030: a8c2 693f b186 003f 18df 403f 166f 303f
00000040: 0881 0b3f f06d 113f 57c3 3c3f 00b4 4f3f
00000050: 13eb 0f3f 5828 e53e c0e2 0c3f da7b 0c3f
00000060: 84d6 e53e 699d 073f a6b3 033f 5d3a 0f3f
00000070: 9472 093f af2a 453f 134f ce3e bc6c ed3e

fc1.weight f4 [128, 960]
0.19080912 -0.13247335 -0.04480954 0.0039915615 0.1505672 -0.19134352 0.005280774 -0.01916398
-0.26108217 -0.18824236 -0.16497216 0.0793279 -0.014824221 0.029922932 -0.12508982 0.09992947
0.09903624 0.1635336 0.00017538243 -0.15589273 -0.045062687 0.37747142 0.25913686 0.21543033
-0.03411351 0.17226769 -0.00054951187 -0.16416 0.3504813 -0.020211764 0.054025732 0.23051153
-0.09380814 -0.16636513 -0.019412821 -0.1627606 -0.047747742 0.056274567 0.15177475 -0.25464293
0.19571017 -0.14989257 0.17119788 0.032032613 0.032364346 0.29765758 -0.048575435 -0.15036991
-0.18052213 0.0036682235 0.24273674 0.041152656 -0.19696824 0.029800264 -0.038802437 -0.09204413
0.01985787 0.10293326 0.39187604 0.109562114 -0.24095877 0.08331024 0.09208853 -0.056812875
-0.21077769 -0.035854924 -0.1804384 -0.2503769 -0.23506051 -0.49135602 -0.02240437 -0.02851186
0.062229883 0.032216392 -0.20231922 0.12214243 -0.10201319 0.012165763 -0.24198921 -0.23416144
0.048180845 0.07234595 -0.107924774 0.045690086 -0.12581527 -0.31682345 -0.15918611 -0.061791126
-0.022814022 -0.090615414 -0.13850415 0.1923486 -0.06553915 0.12094825 0.005531034 0.24683604
-0.10704134 -0.058025677 -0.048771195 -0.077834904 -0.059657946 -0.2900269 -0.107441135 -0.3170293
-0.18579966 0.04438244 0.23799726 -0.17675266 0.13143395 0.050825756 0.06917848 -0.11301024
0.2381339 -0.15095598 0.018844577 -0.053425528 -0.078288086 -0.26412573 -0.05154737 0.075300075
-0.02737742 0.08182095 -0.031166438 0.27066454 -0.3328441 0.101307526 0.06801729 0.20162092
0.28196004 0.0135747725 -0.25371683 -0.2777129 0.09063057 -0.06576487 -0.11175804 -0.12333453
0.07479789 -0.04783013 -0.07238703 0.018086512 0.05884965 -0.25626975 -0.030583521 0.20803612
-0.20838124 -0.14133115 0.02033029 0.013349778 0.23927319 0.2156327 0.017352136 0.111224584
-0.15038289 -0.23376983 -0.121526316 -0.025603166 -0.3107485 0.032708053 -0.32897004 -0.10552923
0.048644517 0.19280973 -0.01749539 -0.21683237 0.07970761 0.065474406 -0.12634042 0.056794934
-0.12014728 -0.051486004 0.08412689 -0.103357114 0.22218938 0.03605907 -0.07987972 0.12687126
-0.18915743 0.051764715 0.22063872 -0.07394067 -0.20660727 -0.033302613 -0.075524576 0.37233722
-0.004114892 0.051355377 -0.0103144245 0.25846162 -0.20007898 0.18268237 0.054812476 -0.002739682
-0.044897154 0.32911143 0.06540081 0.119489595 -0.03360376 -0.2388841 0.13393135 0.27762133
-0.037092157 -0.068043426 -0.08621646 -0.066977404 -0.30998644 -0.11309725 -0.07245346 -0.08199869
-0.20799379 0.06739815 0.20235749 -0.14295042 0.0063387523 0.17611104 -0.18977225 -0.0414805
-0.07129729 0.043267407 -0.04414854 -0.04209899 -0.35643145 0.06440573 0.23237118 0.018582977
0.039718412 0.028262222 -0.29576102 -0.2531939 -0.2972032 -0.06310549 0.1343347 -0.12844194
-0.14065792 -0.124464154 0.01854156 -0.060244344 -0.040648706 -0.02709008 -0.017072044 0.016158054
0.029000554 -0.11775445 0.099129595 -0.11266348 -0.03494625 0.16622642 0.17088987 0.086869754
0.049918756 0.035643827 0.24530375 -0.09666792 -0.024334647 0.14241947 0.10723672 -0.12202979
00000000: 7763 433e 18a7 07be 358a 37bd a5cb 823b
00000010: 4a2e 1a3e 8eef 43be 580a ad3b c7fd 9cbc
00000020: 90ac 85be 9bc2 40be 76ee 28be ab76 a23d
00000030: 4ae1 72bc f020 f53c 8c17 00be d2a7 cc3d
00000040: 83d3 ca3d 5a75 273e dde6 3739 58a2 1fbe
00000050: a793 38bd ef43 c13e 96ad 843e c599 5c3e
00000060: 9cba 0bbd f166 303e 1e0d 10ba 8f19 28be
00000070: 4972 b33e 2493 a5bc 164a 5d3d 370b 6c3e
00000080: 7b1e c0bd 9f5b 2abe a307 9fbc b7aa 26be
00000090: 2393 43bd 2980 663d d76a 1b3e 8f60 82be
000000a0: 3f68 483e 707d 19be 7f4e 2f3e a134 033d
000000b0: 7a90 043d 9366 983e 09f7 46bd 92fa 19be
000000c0: cbda 38be 9466 703b fb8f 783e b08f 283d
000000d0: 0bb2 49be af1f f43c 4eef 1ebd a281 bcbd
000000e0: f9ac a23c acce d23d faa3 c83e 1a62 e03d
000000f0: e5bd 76be 8f9e aa3d e998 bc3d 9eb4 68bd
00000100: 1bd6 57be 9ddc 12bd d8c4 38be 6731 80be
00000110: b4b3 70be 0493 fbbe 5f89 b7bc b491 e9bc
00000120: c3e4 7e3d 56f5 033d c52c 4fbe cf25 fa3d
00000130: 4bec d0bd e952 473c 05cc 77be 04c8 6fbe
00000140: 4759 453d 1d2a 943d aa07 ddbd 8725 3b3d
00000150: b8d5 00be af36 a2be af01 23be b118 7dbd
00000160: 79e4 babc 9394 b9bd 08d4 0dbe 08f7 443e
00000170: 6439 86bd b7b3 f73d ad3d b53b 96c2 7c3e
00000180: 7d38 dbbd 55ac 6dbd 4ec4 47bd e867 9fbd
00000190: e45b 74bd 687e 94be 190a dcbd aa51 a2be
000001a0: 4442 3ebe 5dca 353d 8eb5 733e a6fe 34be
000001b0: 9f96 063e ab2e 503d 72ad 8d3d ea71 e7bd
000001c0: 60d9 733e 3494 1abe f15f 9a3c bad4 5abd
000001d0: 8155 a0bd 7d3b 87be 5623 53bd ed36 9a3d
000001e0: 9c46 e0bc be91 a73d c250 ffbc 8b94 8a3e
000001f0: 8b6a aabe 527a cf3d a64c 8b3d b775 4e3e
00000200: 115d 903e b968 5e3c 2ce7 81be 6330 8ebe
00000210: 859c b93d bbaf 86bd 66e1 e4bd d096 fcbd
00000220: a32f 993d 87e9 43bd a73f 94bd 2a2a 943c
00000230: 550c 713d ca35 83be 4b8a fabc 6c07 553e
00000240: e461 55be 1db9 10be b58b a63c 07b9 5a3c
00000250: 0804 753e d2ce 5c3e 1126 8e3c b7c9 e33d
00000260: f9fd 19be 5c61 6fbe cae2 f8bd bbbd d1bc
00000270: 6d1a 9fbe e1f8 053d c36e a8be b51f d8bd
00000280: 793f 473d ea6f 453e 7e52 8fbc 4e09 5ebe
00000290: be3d a33d 7217 863d 625f 01be cea1 683d
000002a0: c70f f6bd fde2 52bd b84a ac3d e5ac d3bd
000002b0: 9d85 633e adb2 133d fb97 a3bd 8aea 013e
000002c0: 7cb2 41be 3d07 543d 1eef 613e 356e 97bd
000002d0: db90 53be 5268 08bd a1ac 9abd fca2 be3e
000002e0: 37d6 86bb 045a 523d d5fd 28bc 1555 843e
000002f0: 81e1 4cbe 1611 3b3e 0c83 603d 3d8c 33bb
00000300: 14e6 37bd 4b81 a83e dcf0 853d f6b6 f43d
00000310: 19a4 09bd 099e 74be 4d25 093e 6224 8e3e
00000320: f2ed 17bd 5a5a 8bbd 4192 b0bd 732b 89bd
00000330: 8bb6 9ebe 889f e7bd 7b62 94bd eeee a7bd
00000340: 53fc 54be 0b08 8a3d cd36 4f3e 9861 12be
00000350: 4fb5 cf3b 7456 343e a853 42be 75e7 29bd
00000360: 5004 92bd 2a39 313d 19d5 34bd fe6f 2cbd
00000370: 2f7e b6be 27e7 833d b6f2 6d3e 543b 983c
00000380: c6af 223d 2d86 e73c fd6d 97be a2a2 81be
00000390: 052b 98be 733d 81bd 098f 093e 4986 03be
000003a0: a108 10be 10e7 febd 78e4 973c c6c2 76bd
000003b0: 427f 26bd 04ec ddbc acda 8bbc e55d 843c
000003c0: 9292 ed3c 3f29 f1bd 7504 cb3d 1cbc e6bd
000003d0: cd23 0fbd 4237 2a3e c1fd 2e3e c5e8 b13d
000003e0: 9c77 4c3d 43ff 113d e830 7b3e d5f9 c5bd
000003f0: 7459 c7bc 69d6 113e ed9e db3d c1ea f9bd

fc1.bias f4 [128]
-0.059259865 0.006234662 0.002907267 0.048203737 -0.029687352 0.050485235 0.028864335 -0.0057591456
0.064666696 0.030390495 0.020440042 0.025843816 0.05001278 0.0069419877 0.043426592 -0.009980333
-0.016985647 0.015462348 -0.0051354286 0.016620314 -0.04081633 0.0899603 -0.038489755 -0.063241124
-0.024602732 0.03337785 0.009170825 0.0869544 0.025672022 -0.054397468 0.076524645 0.031287517
-0.05799836 0.013905377 0.033600606 0.017369682 -0.026821934 0.006400755 0.026058696 0.023479173
0.020294463 -0.05052379 -0.0028879405 0.038169235 -0.050079487 0.017733937 0.045186676 0.025001695
-0.055559397 0.032853268 -0.090770386 0.009601205 0.049000356 0.059651542 0.056624897 0.030531878
0.006757518 -0.0033149403 0.029523537 0.021825705 -0.04762008 -0.06607587 -0.04989963 0.0070003225
-0.03023091 -0.085707195 -0.025096355 0.012450489 -0.017666237 0.038848467 0.017406221 0.0307054
-0.0545843 -0.017901048 0.050896876 0.013162117 0.009991107 0.01429428 0.009865675 0.04400376
0.08025476 -0.015050861 0.096951716 -0.012105006 -0.07502149 0.021556312 0.0012356149 0.0058359643
-0.06458847 0.008347169 0.0069064787 -0.06277645 0.01056831 -0.035650667 0.017084891 -0.01294084
-0.007311246 0.037356194 -0.018169275 -0.064668186 0.0010654887 0.04043841 -0.013195653 0.046548452
0.027713135 -0.017341375 0.011562677 -0.024319714 -0.02708468 0.05723712 0.040719148 0.029343348
0.01966331 0.02824023 0.050762255 -0.044545017 -0.0284882 -0.0027428283 -0.029894814 -0.008525421
0.03655127 0.014451057 -0.044176556 0.017382612 -0.062211867 0.05486914 -0.050227337 -0.05152084
00000000: 79ba 72bd 234c cc3b d987 3e3b 4871 453d
00000010: e432 f3bc 9bc9 4e3d e674 ec3c 37b7 bcbb
00000020: f96f 843d 7df5 f83c e071 a73c 69b6 d33c
00000030: 33da 4c3d 9d79 e33b 15e0 313d 8d84 23bc
00000040: 7c25 8bbc ca55 7d3c 1947 a8bb 5327 883c
00000050: 062f 27bd 1b3d b83d 6fa7 1dbd 9084 81bd
00000060: ab8b c9bc 36b7 083d 3a41 163c 2615 b23d
00000070: 224e d23c e1cf 5ebd f4b8 9c3d 5727 003d
00000080: b08f 6dbd 61d3 633c caa0 093d dd4a 8e3c
00000090: acb9 dbbc 6dbd d13b 0c79 d53c 6557 c03c
000000a0: 9340 a63c 09f2 4ebd 9a43 3dbb 5857 1c3d
000000b0: 2620 4dbd c346 913c aa15 393d 5bd0 cc3c
000000c0: 4092 63bd 2691 063d d3e5 b9bd 5f4e 1d3c
000000d0: 99b4 483d 2d55 743d 82ef 673d fd1d fa3c
000000e0: 2b6e dd3b 783f 59bb 58db f13c d2cb b23c
000000f0: 460d 43bd c952 87bd 8e63 4cbd f662 e53b
00000100: d0a6 f7bc 4187 afbd df96 cdbc 23fd 4b3c
00000110: c9b8 90bc 921f 1f3d 7e97 8e3c e489 fb3c
00000120: c993 5fbd 38a5 92bc 3e79 503d eca5 573c
00000130: bdb1 233c 8e32 6a3c a4a3 213c 493d 343d
00000140: 9c5c a43d e397 76bc 9f8e c63d 1354 46bc
00000150: dea4 99bd dd96 b03c 5bf4 a13a 9e3b bf3b
00000160: f646 84bd 90c2 083c be4f e23b f090 80bd
00000170: b426 2d3c 6f06 12bd 9df5 8b3c d105 54bc
00000180: 2d93 efbb cf02 193d bbd7 94bc c170 84bd
00000190: dea7 8b3a bfa2 253d 9532 58bc 97a9 3e3d
000001a0: a806 e33c 800f 8ebc 6271 3d3c 233a c7bc
000001b0: b1e0 ddbc 7871 6a3d 1fc9 263d 7661 f03c
000001c0: f314 a13c 0e58 e73c 15ec 4f3d d674 36bd
000001d0: 1660 e9bc 06c1 33bb f8e5 f4bc 35ae 0bbc
000001e0: c9b6 153d 20c4 6c3c 7af2 34bd fb65 8e3c
000001f0: dfd1 7ebd 77be 603d 2ebb 4dbd 8407 53bd

fc2.weight f4 [3, 128]
-0.0686468 0.1442042 -0.1458669 0.08657101 0.11939237 -0.058084026 0.08436869 0.098023966
-0.09058466 0.14096765 -0.09904285 0.11180026 0.023894157 -0.10862083 0.10671612 0.030001465
0.12634641 -0.11249716 -0.10678977 0.15342098 -0.13675144 0.09635963 0.19140689 0.080458425
-0.0993355 0.06811481 -0.19312282 -0.112795755 -0.07861746 -0.08960774 0.09804965 0.08009032
-0.11246735 0.03144684 0.052100725 -0.030660832 0.15672018 0.094981745 -0.092938624 -0.083095424
0.1121682 -0.17454067 0.09569347 -0.0028118216 0.048151817 0.046700474 -0.023857208 0.12751609
-0.10668692 -0.10966368 0.05539051 0.14609745 0.1447785 0.16238765 -0.005531548 0.08517898
0.024180058 -0.061077986 -0.05260993 0.06910341 -0.095694244 -0.06453631 0.07640652 -0.006172671
0.15175322 0.066719934 0.077138975 -0.06614456 -0.09897568 0.13985066 0.06759499 0.15528524
0.07036551 0.091368556 -0.13096961 -0.05775496 0.018262329 0.08320293 -0.077514455 -0.107914485
-0.037346885 -0.07281872 -0.031414475 -0.011242707 -0.08543051 -0.11036743 0.048915144 -0.010410917
-0.0014661006 -0.13066806 -0.055165295 -0.03804466 -0.08139773 -0.031127267 0.06390446 -0.118389904
0.10330655 0.17247675 -0.08350346 -0.085872576 -0.12829039 -0.16405013 -0.019917727 0.07423635
0.014583963 0.05861008 0.1093233 -0.011208387 0.078429446 -0.05530284 0.08365427 0.13729283
-0.033721056 0.10371449 -0.09236661 -0.07825454 -0.1435404 -0.12398294 0.012514312 -0.083203666
-0.092623204 -0.13657561 -0.06085692 0.12276476 0.08249046 -0.036232192 -0.009004341 0.10918341
0.09107089 -0.04943239 0.06267159 -0.11553845 -0.045710947 0.13581696 -0.112323806 -0.045351606
0.089044005 0.080658905 -0.08594093 -0.09064194 -0.07323467 0.087202325 0.07725467 0.052744742
0.079758085 -0.013520677 0.09906573 -0.007744188 0.055856485 -0.043202125 0.025773954 0.07412657
-0.038481943 0.050520062 0.028869282 -0.02624717 0.13321579 0.08464072 -0.027234238 -0.0814246
0.036627192 0.029928148 -0.039504386 0.07652684 -0.036490567 -0.062590204 -0.10878291 0.13407493
-0.0012579126 -0.002318148 -0.069161884 0.082505874 0.062318545 -0.104735084 -0.13576323 0.10829464
0.049194343 -0.0013180315 -0.11247801 0.06263331 -0.035618737 0.0024878816 -0.096057884 -0.06930248
-0.10980848 0.10206883 0.1377655 -0.10831984 0.07749085 -0.03244772 -0.09438462 0.1239811
0.0130170295 0.0306994 0.0289758 0.10806194 -0.054008808 -0.017224934 -0.08326953 -0.044600185
0.060554862 -0.10247834 0.05508292 0.01117684 0.0974008 0.008027713 0.031618237 0.082480244
-0.044729646 -0.067951195 0.025650753 -0.08405606 -0.013384529 0.0852969 -0.058787614 0.13547151
0.10929895 0.050458662 -3.0613155e-06 0.09906649 0.103384994 0.10928232 -0.0691133 0.07882559
0.06468874 0.046163537 0.107768394 0.07060114 0.0057605286 0.030402105 -0.08815847 0.09452641
0.12952861 -0.034323316 -0.10534108 0.07816987 -0.102723144 0.013038911 -0.09671265 -0.07245764
-0.01938 0.05922985 -0.0007145082 0.038847245 0.033166666 0.07413339 0.14446528 0.10189866
0.12856522 -0.03188907 -0.05205314 -0.011888939 -0.04307924 -0.0663257 -0.060372923 -0.07383572
00000000: b296 8cbd 44aa 133e 225e 15be 244c b13d
00000010: fd83 f43d 84e9 6dbd 7ec9 ac3d cac0 c83d
00000020: 7384 b9bd d359 103e fad6 cabd 89f7 e43d
00000030: aebd c33c 9974 debd fb8d da3d a2c5 f53c
00000040: f460 013e e964 e6bd 98b4 dabd 641a 1d3e
00000050: 9208 0cbe 3358 c53d 2b00 443e 63c7 a43d
00000060: 6970 cbbd c77f 8b3d fdc1 45be 7601 e7bd
00000070: 3102 a1bd 4384 b7bd 41ce c83d 6506 a43d
00000080: 4855 e6bd 67ce 003d 9267 553d 6d2c fbbc
00000090: 417b 203e ca85 c23d 9b56 bebd ef2d aabd
000000a0: 71b8 e53d caba 32be f0fa c33d 8a46 38bb
000000b0: d73a 453d ff48 3f3d 3170 c3bc 9493 023e
000000c0: ac7e dabd 5a97 e0bd 29e1 623d 929a 153e
000000d0: d140 143e f348 263e fd41 b5bb 5172 ae3d
000000e0: 4215 c63c e92c 7abd 837d 57bd 1786 8d3d
000000f0: 58fb c3bd 9d2b 84bd 067b 9c3d 1e44 cabb
00000100: 3265 1b3e 76a4 883d 0afb 9d3d cd76 87bd
00000110: c3b3 cabd 0335 0f3e 3e6f 8a3d 1803 1f3e
00000120: cb1b 903d 701f bb3d e61c 06be 7790 6cbd
00000130: e19a 953c 4c66 aa3d e6bf 9ebd 4502 ddbd
00000140: 0cf9 18bd fb21 95bd 77ac 00bd 5533 38bc
00000150: 31f6 aebd 5208 e2bd 3f5b 483d 8d92 2abc
00000160: 2c2a c0ba d9cd 05be 01f5 61bd b8d4 1bbd
00000170: dab3 a6bd 9cfe febc 57e0 823d 6876 f2bd
00000180: 6292 d33d bf9d 303e dd03 abbd f6dd afbd
00000190: 8e5e 03be c2fc 27be 802a a3bc 3a09 983d
000001a0: 93f1 6e3c 2011 703d e5e4 df3d 62a3 37bc
000001b0: 9e9f a03d 3b85 62bd ee52 ab3d 7e96 0c3e
000001c0: 171f 0abd 4368 d43d b52a bdbd eb43 a0bd
000001d0: 41fc 12be c5ea fdbd d408 4d3c af66 aabd
000001e0: 3cb1 bdbd 7ada 0bbe 1b45 79bd 176c fb3d
000001f0: c2f0 a83d 3568 14bd f286 13bc 8d9b df3d
00000200: 6083 ba3d 9e79 4abd f659 803d 6c9f ecbd
00000210: 673b 3bbd 9a13 0b3e 060a e6bd 9bc2 39bd
00000220: b45c b63d 7f30 a53d cc01 b0bd 7ba2 b9bd
00000230: 0ffc 95bd 2297 b23d b237 9e3d df0a 583d
00000240: 3558 a33d d485 5dbc f9e2 ca3d f5c2 fdbb
00000250: c5c9 643d b6f4 30bd e623 d33c accf 973d
00000260: 3e9f 1dbd 20ee 4e3d 467f ec3c 4e04 d7bc
00000270: b869 083e 1d58 ad3d 561a dfbc f1c1 a6bd
00000280: 6506 163d e02b f53c 5acf 21bd 1bba 9c3d
00000290: 2277 15bd 4b2f 80bd 93c9 debd f04a 093e
000002a0: 8be0 a4ba 12ec 17bb bfa4 8dbd d7f8 a83d
000002b0: bb41 7f3d 597f d6bd 8405 0bbe 95c9 dd3d
000002c0: 0280 493d ccc1 acba df5a e6bd e545 803d
000002d0: f4e4 11bd ba0b 233b ffb9 c4bd 75ee 8dbd
000002e0: 45e3 e0bd 7609 d13d 6612 0d3e cbd6 ddbd
000002f0: 86b3 9e3d e7e7 04bd b94c c1bd cee9 fd3d
00000300: 6145 553c 4f7d fb3c a85e ed3c 944f dd3d
00000310: 5738 5dbd 4e1b 8dbc 3789 aabd afae 36bd
00000320: 6008 783d 2ae0 d1bd a19e 613d 111f 373c
00000330: 127a c73d ab86 033c 2082 013d 67eb a83d
00000340: 6f36 37bd ff29 8bbd 8721 d23c 9525 acbd
00000350: c94a 5bbc 24b0 ae3d 48cb 70bd 0bb9 0a3e
00000360: 21d8 df3d bead 4e3d 0071 4db6 5fe3 ca3d
00000370: 83bb d33d 69cf df3d 468b 8dbd 506f a13d
00000380: 887b 843d fa15 3d3d adb5 dc3d 5597 903d
00000390: d1c2 bc3b d60d f93c 6e8c b4bd 1097 c13d
000003a0: 26a3 043e 9b96 0cbd 10bd d7bd 8617 a03d
000003b0: 8360 d2bd 28a1 553c 4811 c6bd ac64 94bd
000003c0: cec2 9ebc 009b 723d d54d 3bba 4a1e 1f3d
000003d0: c5d9 073d 3fd3 973d b5ee 133e 3fb0 d03d
000003e0: 9aa6 033e 1d9e 02bd ac35 55bd d3c9 42bc
000003f0: db73 30bd c5d5 87bd 9949 77bd 2f37 97bd

fc2.bias f4 [3]
0.20958014 -0.16436353 -0.10155247
00000000: 2d9c 563e ea4e 28be befa cfbd
