results/valence/classification_5/20251226_124303_523382/best_model.pt (torch, 848309 bytes, 16 tensors)

conv1.weight f4 [16, 1, 3, 3]
0.19580522 0.3518733 -0.22433913 0.24507466 -0.14103957 -0.096657075 -0.18867302 -0.04053402
0.5767669 -0.3743145 0.3097669 0.037261877 0.23751186 0.08608694 0.27014914 -0.053937495
0.38817114 -0.09958429 -0.060468316 0.2417713 -0.23846862 -0.14298137 -0.11131408 0.33760488
-0.2482162 -0.17960456 -0.2598682 -0.13054888 -0.06549025 -0.4088232 0.29420254 -0.3120049
0.3555638 0.059002027 -0.11387629 0.4349037 -0.09478576 0.3263034 -0.064010166 -0.1787782
0.032066703 -0.35492152 0.13936165 0.28534442 0.28480986 -0.06469719 0.29951337 0.1336354
0.10547611 -0.24668483 -0.4006207 -0.013102688 -0.39116862 0.3728795 0.07330194 0.20432544
0.18688591 0.0632953 0.33563313 -0.39161295 -0.0723648 -0.31407505 0.046868324 -0.13758738
-0.03998534 -0.20633364 0.19851099 -0.12396269 -0.33113086 -0.168605 0.4858495 0.3227712
0.27386743 -0.36544436 -0.32113194 -0.24381524 -0.38889349 0.07894633 0.15768898 0.44130895
-0.046347708 -0.19768688 0.21784142 -0.21454138 0.18234384 0.048727177 0.40599984 -0.27232468
-0.33412126 0.09380244 0.027862607 -0.053087838 0.4631154 0.13103792 -0.31208774 -0.31374243
0.29721987 -0.15519148 -0.17463128 -0.11311275 -0.3833733 0.3189756 0.13615693 -0.35258874
0.07572974 -0.16152827 -0.34093836 -0.24704559 -0.15431677 -0.22377077 0.56077075 0.06290425
0.14689784 -0.3852397 -0.20902386 -0.07862056 -0.059057277 -0.3843105 -0.21007647 -0.47608408
0.10579606 -0.10163751 -0.14582174 -0.13800853 -0.20331593 -0.12819679 -0.07124903 -0.4456349
0.22622722 -0.08391168 0.35761636 0.194352 -0.22052954 0.2698225 -0.23401695 -0.06057062
-0.36244577 -0.4543105 0.1371867 0.04835671 0.21322003 -0.14198054 0.42273685 -0.29425535
00000000: 2a81 483e bd28 b43e 28b9 65be daf4 7a3e
00000010: ad6c 10be 25f4 c5bd 8033 41be 0007 26bd
00000020: ffa6 133f 26a6 bfbe c499 9e3e e99f 183d
00000030: 4f36 733e 594e b03d fd50 8a3e 90ed 5cbd
00000040: 5ebe c63e d9f2 cbbd a0ad 77bd e592 773e
00000050: 1e31 74be b569 12be a3f8 e3bd 8cda ac3e
00000060: 632c 7ebe 42ea 37be 720d 85be 9bae 05be
00000070: c11f 86bd 4651 d1be b7a1 963e 1bbf 9fbe
00000080: 750c b63e 1cac 713d f937 e9bd b3ab de3e
00000090: 091f c2bd 3d11 a73e c317 83bd a211 37be
000000a0: 6058 033d 46b8 b5be d2b4 0e3e aa18 923e
000000b0: 99d2 913e f67f 84bd d159 993e b8d7 083e
000000c0: dc03 d83d f39a 7cbe 281e cdbe a8ac 56bc
000000d0: 4147 c8be 10ea be3e 541f 963d b03a 513e
000000e0: 055f 3f3e f7a0 813d 1bd8 ab3e 7e81 c8be
000000f0: ff33 94bd 72ce a0be 00f9 3f3d b5e3 0cbe
00000100: abc7 23bd 2049 53be 7746 4b3e 27e0 fdbd
00000110: fc89 a9be caa6 2cbe 44c1 f83e 4442 a53e
00000120: 5a38 8c3e 861b bbbe 686b a4be b4aa 79be
00000130: 0c1d c7be 9dae a13d 3879 213e 3ff3 e13e
00000140: 18d7 3dbd 6e6e 4abe d211 5f3e bcb0 5bbe
00000150: 58b8 3a3e 2696 473d 36df cf3e 246e 8bbe
00000160: f111 abbe 7e1b c03d 1f40 e43c a272 59bd
00000170: 761d ed3e ce2e 063e f7c9 9fbe d9a2 a0be
00000180: 342d 983e 84ea 1ebe 8bd2 32be a8a7 e7bd
00000190: 8149 c4be c550 a33e b96c 0b3e 8386 b4be
000001a0: 3218 9b3d ab67 25be 798f aebe 85f9 7cbe
000001b0: 3705 1ebe 2a24 65be ac8e 0f3f f2d3 803d
000001c0: 636c 163e 233e c5be 5a0a 56be d103 a1bd
000001d0: 0be6 71bd 59c4 c4be 491e 57be 4bc1 f3be
000001e0: 9bab d83d 5427 d0bd 4b52 15be 1c52 0dbe
000001f0: 0d32 50be 0546 03be 03eb 91bd 422a e4be
00000200: 1ca8 673e e3d9 abbd 7e19 b73e 3604 473e
00000210: 7fd2 61be 2d26 8a3e 24a2 6fbe e618 78bd
00000220: 7e92 b9be 639b e8be ac7a 0c3e af11 463d
00000230: 5a56 5a3e 5963 11be f770 d83e a3a8 96be

conv1.bias f4 [16]
-0.001296321 0.0012273442 -0.0023059414 0.0013949169 0.0027725084 -0.00037763498 -0.00045298005 0.0014092277
0.0038954362 -0.0005623333 -0.0012733499 -0.0011561598 0.0029601585 0.00011736361 0.0070149596 0.0002199538
00000000: 51e9 a9ba d6de a03a 471f 17bb a5d5 b63a
00000010: f9b2 353b 4ffd c5b9 f47d edb9 d6b5 b83a
00000020: 934a 7f3b 8d69 13ba 88e6 a6ba 498a 97ba
00000030: 38ff 413b 1c21 f638 bfdd e53b 66a3 6639

bn1.weight f4 [16]
0.8933613 0.86652297 0.9285857 1.1375161 0.90936005 1.1509675 1.1975539 1.0929648
1.0055505 0.924881 1.0145643 0.8399461 1.0340722 0.67339915 1.0333033 1.0891562
00000000: 53b3 643f 73d4 5d3f cbb7 6d3f 219a 913f
00000010: d2cb 683f e752 933f 7249 993f 45e6 8b3f
00000020: e1b5 803f 00c5 6c3f 3edd 813f b506 573f
00000030: 7a5c 843f e363 2c3f 4843 843f 7869 8b3f

bn1.bias f4 [16]
-0.21880174 -0.32919812 -0.049168885 -0.102577806 -0.24130839 -0.11149578 0.04985927 -0.03782145
-0.010888103 -0.09588659 -0.12386852 -0.22846505 -0.11730674 -0.035098005 -0.11076611 -0.08555919
00000000: 900d 60be a88c a8be 5065 49bd 5014 d2bd
00000010: 8c19 77be e657 e4bd 3c39 4c3d aaea 1abd
00000020: 0464 32bc 3060 c4bd c7ae fdbd bef2 69be
00000030: 843e f0bd edc2 0fbd 58d9 e2bd a839 afbd

bn1.running_mean f4 [16]
-0.002973216 -0.0003701538 -0.0003539907 0.0033070096 0.0013645639 -3.6127225e-05 -0.0011590297 0.0004951055
0.003542908 -0.00064450945 -0.002138149 0.0023286496 0.0030993542 0.0027065154 0.006565324 0.001314868
00000000: 49da 42bb 3411 c2b9 d497 b9b9 6aba 583b
00000010: 2bdb b23a 5087 17b8 95ea 97ba f8c9 013a
00000020: 2230 683b 4cf4 28ba 3020 0cbb 429c 183b
00000030: 891e 4b3b cb5f 313b ee21 d73b a657 ac3a

bn1.running_var f4 [16]
0.28665617 0.55080163 0.26355386 0.20471354 0.28781924 0.2020152 0.14424728 0.20092869
0.37119523 0.20309399 0.26330137 0.9013909 0.18428208 1.2353406 0.19663142 0.30558455
00000000: 99c4 923e 5601 0d3f 88f0 863e 6da0 513e
00000010: 0b5d 933e 13dd 4e3e 8fb5 133e 40c0 4d3e
00000020: 4d0d be3e dff7 4f3e 70cf 863e 8ec1 663f
00000030: 71b4 3c3e a41f 9e3f bf59 493e 9475 9c3e

conv2.weight f4 [32, 16, 3, 3]
0.14876963 -0.081120014 0.23871891 -0.1484736 0.028261961 -0.15414731 -0.064017 0.1738088
0.13772446 0.045421857 -0.11393999 -0.26513645 0.0030611183 -0.05411391 -0.32563964 0.21831787
-0.3002695 0.035889123 0.18055956 -0.11048527 0.15836836 -0.05519286 0.04175114 -0.2646125
-0.08323915 0.29235864 0.16848844 -0.02909283 -0.21773465 -0.18603149 -0.01337622 -0.098653205
0.17759362 0.15021852 0.06453561 0.01013393 0.022359801 -0.04320729 0.13569131 0.03205036
-0.3634997 -0.08392728 0.105940126 -0.042076327 0.1461665 -0.22537161 0.069939986 -0.029215569
-0.05291835 0.12116716 0.14117604 0.08586556 -0.1223237 -0.079264894 -0.09929825 0.1716445
0.15159617 0.021144683 0.2010762 -0.12785329 -0.07591532 0.34951442 -0.26634046 -0.10642276
-0.25350782 0.32163936 0.18529356 0.07001607 -0.25589502 -0.031601414 -0.1331686 -0.0474764
0.10939865 0.27467766 0.12995164 0.099972256 0.43408912 -0.17378837 -0.1550396 -0.3020274
0.1850373 -0.2427622 0.03639171 -0.04613901 0.093380906 -0.040748507 -0.10184333 0.13552095
-0.03666867 0.0696825 -0.13086967 -0.21971335 -0.1003163 -0.17214985 -0.20590897 -0.16660263
-0.033896457 -0.23593366 0.14750257 -0.21201408 0.2124586 -0.13810569 0.25033435 -0.21980478
0.08333536 0.1608376 -0.045278583 0.33815736 -0.26026654 -0.05293065 -0.052820746 -0.13638131
0.12233733 0.23348224 0.04131829 -0.12526986 -0.26508668 0.10244916 0.124132834 -0.38851008
0.010886118 -0.2722492 -0.19918746 0.11323309 -0.051997848 -0.19609578 -0.14447106 0.11502184
0.2174661 -0.02188046 0.031574342 0.0882392 -0.18239616 0.10776311 0.13266233 0.019455906
-0.16326804 -0.055861615 -0.04363567 -0.21885277 0.09951634 -0.04104028 -0.25939503 -0.16101927
-0.1095526 -0.0018507438 0.09510512 0.020697113 -0.139365 0.10766164 0.020672053 0.17449884
-0.2387207 0.0014824205 -0.121862724 0.29392105 0.074829094 -0.16864322 -0.2050599 0.19349825
0.11104222 -0.045527827 -0.02030173 0.088217214 -0.28373608 -0.05550286 -0.21475373 -0.14984094
-0.016612817 0.21373251 0.15876217 0.05881354 -0.29478067 -0.06672561 -0.090717606 -0.33021295
-0.15854943 -0.018800857 -0.14101131 0.14905053 -0.020693924 -0.07187516 0.08276227 -0.12770784
-0.34587622 -0.1532223 0.22049493 -0.105295606 -0.3385995 0.07679855 0.23730712 -0.04729427
0.046672452 0.20592192 -0.30375585 -0.08294058 -0.03285913 -0.085926585 -0.029148433 0.08010438
-0.091910474 -0.10820668 -0.26987863 0.26937577 0.17400777 0.10606319 0.027214983 -0.21772294
-0.30820915 0.0077485563 -0.07619169 0.1567477 -0.17130801 0.09150024 -0.011578377 -0.38897118
-0.030576536 -0.014479489 0.21537587 -0.09580624 -0.10777357 -0.07935431 0.07341422 0.26135084
-0.037462015 0.11850349 -0.21139646 -0.14256945 0.13107106 -0.0023020585 -0.23320816 -0.18595673
0.16456987 0.069917135 0.23122144 -0.03343773 -0.33372825 -0.18166438 -0.025220202 -0.03999747
-0.13224775 0.24519518 0.28173006 -0.08517816 -0.2147768 -0.06337035 -0.01923548 -0.14014179
-0.21618181 0.364335 0.26584888 -0.23726492 0.16764578 0.032053772 0.3386907 0.011124098
00000000: 1157 183e 4022 a6bd bb72 743e 7709 18be
00000010: a185 e73c cbd8 1dbe 581b 83bd effa 313e
00000020: a407 0d3e 450c 3a3d 5f59 e9bd f7bf 87be
00000030: 0b9d 483b 8ca6 5dbd 3dba a6be b88e 5f3e
00000040: edbc 99be 7900 133d 9be4 383e 1a46 e2bd
00000050: 512b 223e e911 62bd 3e03 2b3d 4a7b 87be
00000060: 4a79 aabd 08b0 953e 3c88 2c3e 1654 eebc
00000070: d5f5 5ebe 0a7f 3ebe ef27 5bbc b10a cabd
00000080: 1adb 353e e2d2 193e 3f2b 843d c808 263c
00000090: e72b b73c 21fa 30bd aaf2 0a3e 3d47 033d
000000a0: a21c babe 11e2 abbd 23f7 d83d 3a58 2cbd
000000b0: acac 153e d1c7 66be b23c 8f3d 7d55 efbc
000000c0: e9c0 58bd 7d26 f83d 7490 103e 48da af3d
000000d0: d984 fabd a255 a2bd e25c cbbd 93c3 2f3e
000000e0: 073c 1b3e 9d37 ad3c ebe6 4d3e f9eb 02be
000000f0: 7e79 9bbd 8ef3 b23e c75d 88be 2df4 d9bd
00000100: c7cb 81be eaad a43e 98bd 3d3e 9664 8f3d
00000110: ac04 83be 7c70 01bd 595d 08be 9d76 42bd
00000120: 660c e03d 8da2 8c3e 0b12 053e 41be cc3d
00000130: ee40 de3e 94f5 31be b3c2 1ebe 56a3 9abe
00000140: 6b7a 3d3e a796 78be 790f 153d 42fc 3cbd
00000150: 7d3e bf3d e8e7 26bd 3c93 d0bd 01c6 0a3e
00000160: e331 16bd b3b5 8e3d b302 06be 89fc 60be
00000170: a272 cdbd 0d48 30be cdd9 52be e199 2abe
00000180: 03d7 0abd 9898 71be ea0a 173e 381a 59be
00000190: bf8e 593e 946b 0dbe d32b 803e 8114 61be
000001a0: bbab aa3d 9db2 243e 0976 39bd f622 ad3e
000001b0: a841 85be cfcd 58bd 915a 58bd 8ba7 0bbe
000001c0: fe8b fa3d f815 6f3e 5e3d 293d be46 00be
000001d0: 71b9 87be ddd0 d13d 5b39 fe3d cbea c6be
000001e0: b05b 323c 3f64 8bbe ccf7 4bbe c0e6 e73d
000001f0: b2fb 54bd 55cd 48be 39f0 13be 9290 eb3d
00000200: 6faf 5e3e a73e b3bc 1954 013d c1b6 b43d
00000210: 0fc6 3abe e8b2 dc3d a2d8 073e fe61 9f3c
00000220: bd2f 27be 26cf 64bd 51bb 32bd f11a 60be
00000230: 39cf cb3d da19 28bd 6dcf 84be 3ce2 24be
00000240: 1d5d e0bd a894 f2ba 79c6 c23d fe8c a93c
00000250: b3b5 0ebe b57d dc3d 7058 a93c d3af 323e
00000260: 3373 74be c74d c23a 2a93 f9bd d27c 963e
00000270: ff3f 993d cfb0 2cbe 39fb 51be 6824 463e
00000280: 1a6a e33d 637b 3abd d04f a6bc 3aab b43d
00000290: db45 91be f856 63bd 67e8 5bbe e76f 19be
000002a0: 9a17 88bc b2dc 5a3e 8d92 223e 77e6 703d
000002b0: 7eed 96be 70a7 88bd 27ca b9bd ac11 a9be
000002c0: c85a 22be 4104 9abc 4565 10be b4a0 183e
000002d0: 4e86 a9bc 4933 93bd 447f a93d d8c5 02be
000002e0: b016 b1be 4ee6 1cbe 6cc9 613e 39a5 d7bd
000002f0: ea5c adbe 8f48 9d3d a300 733e a3b7 41bd
00000300: 9d2b 3f3d 32dd 523e e385 9bbe c0dc a9bd
00000310: 4c97 06bd 47fa afbd b2c8 eebc c40d a43d
00000320: 8f3b bcbd 779b ddbd 882d 8abe 9feb 893e
00000330: 182f 323e a837 d93d f5f1 de3c c3f2 5ebe
00000340: 97cd 9dbe 9ae7 fd3b 640a 9cbd 7882 203e
00000350: 5e6b 2fbe 7a64 bb3d 3cb3 3dbc 3b27 c7be
00000360: a57b fabc 613b 6dbc 7e8b 5c3e 1036 c4bd
00000370: 64b8 dcbd 8384 a2bd 325a 963d c7cf 853e
00000380: c571 19bd f5b1 f23d 5078 58be bafd 11be
00000390: 7e37 063e 22de 16bb 1fce 6ebe 716b 3ebe
000003a0: 0185 283e b730 8f3d 50c5 6c3e 00f6 08bd
000003b0: 6ede aabe 3a06 3abe 999a cebc 63d4 23bd
000003c0: f46b 07be 7214 7b3e ec3e 903e e371 aebd
000003d0: 73ee 5bbe 50c8 81bd ba93 9dbc 5481 0fbe
000003e0: c45e 5dbe 1e8a ba3e 581d 883e 93f5 72be
000003f0: 56ab 2b3e d14a 033d de68 ad3e d941 363c

conv2.bias f4 [32]
0.0016029187 0.00017197616 0.0019431136 -0.00088262535 0.00014353327 -0.0012866186 -0.0010198089 2.9181097e-05
0.00084872975 0.00017170009 -0.0001170531 -0.0008788069 -7.233384e-05 0.0011511291 0.0008918734 0.00044113531
0.00023911413 0.00084008544 9.980891e-05 0.00018672811 0.0006618318 -0.00017458637 6.146221e-05 0.0001950827
-0.0020062018 0.00029344863 0.00024617842 -0.0001641699 0.00048031475 0.001105071 0.0003439208 0.0002574434
00000000: 0719 d23a 8054 3439 13b0 fe3a fc5f 67ba
00000010: 6b81 1639 c2a3 a8ba 1cab 85ba eec9 f437
00000020: 4a7d 5e3a 640a 3439 687a f5b8 bc5f 66ba
00000030: efb1 97b8 7ce1 963a 9ccc 693a 2e48 e739
00000040: b6ba 7a39 2e39 5c3a 8050 d138 72cc 4339
00000050: c87e 2d3a 2c11 37b9 46e5 8038 1d8f 4c39
00000060: 7b7a 03bb 02da 9939 8211 8139 0625 2cb9
00000070: c1d2 fb39 08d8 903a 4550 b439 78f9 8639

bn2.weight f4 [32]
1.8994985 2.064864 1.8972874 1.9852959 1.9550982 1.7860667 2.0232878 2.0245614
1.9517654 1.7824878 1.8866827 1.7940345 1.7713461 1.9857664 1.931065 1.9137658
1.8595921 1.9383239 2.0989523 1.9450542 2.0649893 1.9612774 1.8636566 1.9295127
1.9995397 1.9234173 1.8850346 1.9324261 1.9701151 1.9459739 2.007069 1.9889679
00000000: c422 f33f bb26 0440 50da f23f 2d1e fe3f
00000010: a840 fa3f d59d e43f 8c7d 0140 6a92 0140
00000020: 73d3 f93f 8f28 e43f d27e f13f eca2 e53f
00000030: 78bb e23f 982d fe3f 232d f73f 47f6 f43f
00000040: 1d07 ee3f ff1a f83f 3c55 0640 89f7 f83f
00000050: c928 0440 230b fb3f 4d8c ee3f 46fa f63f
00000060: ebf0 ff3f 8a32 f63f d048 f13f bd59 f73f
00000070: bb2c fc3f ac15 f93f d273 0040 8096 fe3f

bn2.bias f4 [32]
-0.9042069 -0.9606145 -1.0227681 -1.0392697 -1.0376694 -0.87653244 -1.0263228 -1.0588741
-0.903042 -1.0952829 -1.1311394 -0.92271954 -0.8576881 -1.2296411 -0.90978485 -1.0318859
-1.1040788 -1.2241035 -0.997466 -0.9750576 -1.0050648 -0.9013624 -0.9018756 -0.8292571
-0.9011095 -0.9240946 -0.98010963 -0.9179345 -1.0580508 -0.774594 -0.847572 -1.0891293
00000000: 1a7a 67bf d5ea 75bf 11ea 82bf ca06 85bf
00000010: 5ad2 84bf 6e64 60bf 8c5e 83bf 3089 87bf
00000020: c32d 67bf 3b32 8cbf 2dc9 90bf 5937 6cbf
00000030: 7391 5bbf e164 9dbf a9e7 68bf d614 84bf
00000040: 7452 8dbf 6caf 9cbf ef59 7fbf 609d 79bf
00000050: f7a5 80bf b0bf 66bf 52e1 66bf 314a 54bf
00000060: 1daf 66bf 7791 6cbf 77e8 7abf c1fd 6abf
00000070: 356e 87bf cb4b 46bf 7bfa 58bf 9768 8bbf

bn2.running_mean f4 [32]
-0.5615763 -0.79531664 0.0537013 -0.88921744 -0.19287033 -0.46018252 -0.5345986 -0.2329314
-0.8914936 0.83444345 0.1019752 -0.23507006 -0.70972854 0.69457173 -1.2913331 -0.26145163
0.60652554 -0.08670241 -0.637239 -0.52563447 -0.46934175 -0.60778856 -0.41059366 -1.0597428
-0.63864666 -0.2931857 0.505683 -0.7972427 -0.2949829 -1.0503483 -0.7385365 0.23947915
00000000: 77c3 0fbf df99 4bbf e5f5 5b3d c1a3 63bf
00000010: cd7f 45be 0b9d ebbe 74db 08bf 9285 6ebe
00000020: ed38 64bf 169e 553f 60d8 d03d 35b6 70be
00000030: c5b0 35bf 74cf 313f 674a a5bf fddc 85be
00000040: 4245 1b3f 0891 b1bd 1822 23bf fb8f 06bf
00000050: 904d f0be 0898 1bbf 5539 d2be a7a5 87bf
00000060: 597e 23bf 701c 96be 7174 013f 1918 4cbf
00000070: 0008 97be d071 86bf ba10 3dbf 063a 753e

bn2.running_var f4 [32]
0.60401964 0.73777455 0.58497214 0.73327804 0.54843056 0.6573563 0.7617332 0.6254377
0.6749396 0.6530868 0.5359839 0.6409968 0.82939094 0.6620117 1.0665635 0.5804819
0.5733005 0.638449 0.74940425 0.77393925 0.7809287 0.681738 0.5918466 0.917952
0.62443614 0.6849338 0.7855405 0.6302839 0.570829 0.7139145 0.9631542 0.46177495
00000000: 08a1 1a3f cbde 3c3f bcc0 153f 1cb8 3b3f
00000010: f265 0c3f 8148 283f f200 433f af1c 203f
00000020: d7c8 2c3f b230 273f 3e36 093f 5e18 243f
00000030: f752 543f 9979 293f 2785 883f 769a 143f
00000040: d2c3 123f 6571 233f f5d8 3f3f e220 463f
00000050: f1ea 473f 6286 2e3f 4283 173f e7fe 6a3f
00000060: 0cdb 1f3f d257 2f3f 2f19 493f 495a 213f
00000070: d921 123f 1ac3 363f 4691 763f c46d ec3e

fc1.weight f4 [128, 1600]
0.015237333 0.060007207 -0.12417602 -0.06452657 0.03078452 -0.18124296 0.08774293 -0.15884079
-0.13636403 -0.020467643 -0.17516296 0.12334584 0.08583101 -0.21491402 0.12926883 0.106564134
-0.13334453 0.22915317 0.37109712 0.13709289 0.24952142 0.11322899 0.12654118 0.061137144
-0.3028413 0.23735029 0.2667819 -0.014932544 -0.109910496 0.14239755 -0.059597287 0.07702018
0.2762989 0.0104401065 0.0028044945 -0.034201227 0.0933112 -0.12221239 0.24307047 -0.18939124
-0.05390874 -0.1404404 -0.034744162 0.052299976 -0.09396058 0.088196896 0.32930407 -0.030408867
0.35741186 -0.10752321 0.030588074 -0.039696805 0.055434003 0.08741533 -0.016203295 -0.20843183
0.05244257 0.06924703 -0.23175988 -0.16914006 -0.04610309 -0.10162497 0.046715263 -0.07198332
-0.013409612 -0.2715839 -0.009799935 0.28995624 -0.17819816 -0.11907981 0.2260672 -0.12748863
0.2892735 -0.094237976 -0.21787748 0.01801305 0.053362604 -0.16848862 -0.19749996 -0.3846197
0.07001687 0.13825606 0.038478095 0.024556868 0.19830781 -0.042181216 0.034969 0.058577724
-0.05516799 0.06095547 -0.3295586 0.22946846 0.27404642 -0.17037544 0.3060588 -0.00021163622
0.004816435 -0.01505853 -0.13398106 0.05868478 0.21122445 -0.2281831 0.002871394 0.17423037
0.078224376 0.12848404 -0.14995962 0.03940655 -0.22856903 0.14908744 0.07920311 -0.077356465
0.19381727 0.040232908 0.0068880534 -0.19299942 0.16412066 0.13295126 -0.1458103 -0.19208544
0.008768741 0.28863356 -0.01801744 0.048332803 0.10999325 -0.12703723 0.069899686 0.2700861
0.00587141 -0.14256082 -0.29767674 0.049805183 0.052340794 -0.10096636 -0.194871 -0.17313048
-0.14627172 -0.11655457 -0.17818457 -0.16993095 0.10257302 -0.0028989122 -0.04664522 -0.00597661
0.22006361 0.17661092 -0.013462096 0.11912002 -0.055592395 0.055330876 0.1732323 0.09180226
-0.12551534 0.0954643 -0.05460874 0.00033979764 0.3003686 -0.05944177 -0.24986945 -0.032896783
0.1229115 0.1500348 -0.0052846884 0.034012847 -0.14990367 0.0025334004 0.12556843 -0.3774245
0.22615136 -0.030989945 -0.3605287 -0.14854342 -0.13001433 -0.15911156 -0.024226656 0.10041969
-0.038890585 -0.16297421 0.07077311 0.0316719 0.040299427 0.1814639 -0.13239725 -0.13743001
0.44324568 0.062197063 0.11350649 0.06693054 -0.19142865 -0.0518006 0.026881833 0.10715216
0.16486688 0.15999502 -0.16358127 0.05232733 0.053168193 -0.22616728 -0.15413423 0.100976124
-0.029272389 -0.06857189 0.47053838 0.07862904 -0.19409512 0.36009082 0.02862342 0.15461022
0.040145613 0.18692541 0.011087764 0.19266884 -0.06374757 0.12511356 -0.2707658 -0.10737573
-0.2152212 0.072661445 -0.14408508 0.012319554 0.17850995 -0.061251894 0.08316118 0.33330804
0.022820018 0.32249692 0.1757523 0.28403717 0.10217435 0.069328345 -0.17885822 0.1671741
-0.14727695 0.08647908 -0.03590312 0.21358739 0.07944059 -0.0018391549 -0.06702828 0.095457144
0.055271737 0.19110224 -0.107539825 0.19224626 -0.011355211 -0.21037671 -0.011729362 0.03599125
-0.48647738 -0.35560536 -0.19580813 -0.12859316 -0.11503207 0.107554965 0.18900447 0.1163617
00000000: 02a6 793c 1eca 753d ff4f febd 8226 84bd
00000010: d12f fc3c c197 39be 91b2 b33d 29a7 22be
00000020: 03a3 0bbe c2ab a7bc eb5d 33be be9c fc3d
00000030: 2bc8 af3d 6c12 5cbe 0c5f 043e 4c3e da3d
00000040: 788b 08be 21a7 6a3e 7100 be3e 1462 0c3e
00000050: 8b82 7f3e 9ae4 e73d 0394 013e f16a 7a3d
00000060: 040e 9bbe f40b 733e a397 883e a1a7 74bc
00000070: c118 e1bd aad0 113e 491c 74bd c2bc 9d3d
00000080: 0d77 8d3e fb0c 2b3c 9ccb 373b 9616 0cbd
00000090: f119 bf3d 7d4a fabd 77e7 783e c7ef 41be
000000a0: 69cf 5cbd 9ccf 0fbe e54f 0ebd 8038 563d
000000b0: 686e c0bd 93a0 b43d 8b9a a83e 041c f9bc
000000c0: b0fe b63e 2135 dcbd d793 fa3c 1e99 22bd
000000d0: c40e 633d cf06 b33d c6bc 84bc 276f 55be
000000e0: 05ce 563d 63d1 8d3d 7652 6dbe 0d33 2dbe
000000f0: 98d6 3cbd c120 d0bd 8158 3f3d fe6b 93bd
00000100: fdb3 5bbc 0c0d 8bbe e88f 20bc 2575 943e
00000110: 9479 36be 1ee0 f3bd 297e 673e 618c 02be
00000120: a81b 943e d7ff c0bd 461b 5fbe 1b90 933c
00000130: bf92 5a3d 4888 2cbe 6e3d 4abe e0ec c4be
00000140: 0165 8f3d ff92 0d3e 359b 1d3d 7c2b c93c
00000150: 3411 4b3e 36c6 2cbd a73b 0f3d 32ef 6f3d
00000160: d5f7 61bd 71ac 793d e8bb a8be c8f9 6a3e
00000170: d04f 8c3e e676 2ebe bdb3 9c3e aaea 5db9
00000180: 2fd3 9d3b 0db8 76bc 5532 09be 745f 703d
00000190: 394b 583e d5a8 69be ff2d 3c3b 7269 323e
000001a0: 1a34 a03d 5291 033e 048f 19be c368 213d
000001b0: 000e 6abe 61aa 183e 3d35 a23d 116d 9ebd
000001c0: 0978 463e 43cb 243d 2eb5 e13b a4a1 45be
000001d0: 3f0f 283e 6024 083e 4c4f 15be 0cb2 44be
000001e0: c4aa 0f3c c7c7 933e 4f99 93bc 9ef8 453d
000001f0: 2444 e13d 0c16 02be 9127 8f3d ba48 8a3e
00000200: f564 c03b 77fb 11be 1669 98be 8500 4c3d
00000210: 4d63 563d 73c7 cebd 438c 47be 1e49 31be
00000220: 41c8 15be 2ab4 eebd 0476 36be 6102 2ebe
00000230: ce11 d23d adfb 3dbb 0f0f 3fbd 70d7 c3bb
00000240: 5b58 613e 7ed9 343e 2090 5cbc 32f5 f33d
00000250: dab4 63bd a1a2 623d cf63 313e d302 bc3d
00000260: 1887 00be c982 c33d 6aad 5fbd de26 b239
00000270: eac9 993e 3779 73bd c7dd 7fbe c7be 06bd
00000280: 06b9 fb3d b9a2 193e 2e2b adbb 0e51 0b3d
00000290: 5980 19be 6807 263b 0395 003e c93d c1be
000002a0: 3994 673e a0de fdbc 3897 b8be c41b 18be
000002b0: 7a22 05be 24ee 22be fb76 c6bc d7a8 cd3d
000002c0: bc4b 1fbd b6e2 26be 7ef1 903d 65ba 013d
000002d0: 0311 253d acd1 393e 2593 07be 74ba 0cbe
000002e0: 19f1 e23e 59c2 7e3d 1776 e83d e112 893d
000002f0: df05 44be de2c 54bd 4a37 dc3c 9772 db3d
00000300: ddd2 283e bcd5 233e d981 27be 2f55 563d
00000310: e4c6 593d 6598 67be 5dd5 1dbe 92cc ce3d
00000320: a6cc efbc 6b6f 8cbd 68ea f03e 4308 a13d
00000330: dfc0 46be d35d b83e aa7b ea3c 2452 1e3e
00000340: ba6f 243d 6069 3f3e 74a9 353c fb4a 453e
00000350: 168e 82bd c51d 003e d1a1 8abe cfe7 dbbd
00000360: f262 5cbe 86cf 943d 0a8b 13be f4d7 493c
00000370: 50cb 363e 44e3 7abd 6950 aa3d 5aa7 aa3e
00000380: 0cf1 ba3c 511e a53e 69f8 333e 526d 913e
00000390: c940 d13d 05fc 8d3d 9c26 37be b02f 2b3e
000003a0: c5cf 16be f21b b13d 260f 13bd a7b6 5a3e
000003b0: c0b1 a23d cc0f f1ba 1f46 89bd 097f c33d
000003c0: 9e64 623d 4eb0 433e d73d dcbd 34dc 443e
000003d0: 350b 3abc fe6c 57be 832c 40bc 906b 133d
000003e0: 9013 f9be e811 b6be ed81 48be edad 03be
000003f0: ef95 ebbd c745 dc3d 638a 413e 0b4f ee3d

fc1.bias f4 [128]
0.009662666 0.014507401 0.0012107359 0.0043691443 -0.048181914 -0.007188908 -0.02442099 -0.0013171964
-0.01993952 -0.034545437 0.0142659 0.0054351427 0.02986879 -0.007171338 0.00014183774 -0.012583531
0.011982401 -0.0010292884 -0.024567496 -0.101087414 0.00914169 0.007583781 0.01944453 0.0033554733
0.0322524 0.031917904 0.113397874 0.034618262 -0.015800245 -0.022224456 0.045722067 -0.00044582508
0.025005067 0.04203185 0.01670074 -0.0022573662 0.06661386 -0.0036833808 -0.034270443 -0.05297238
0.053141218 0.018346071 -0.0049620434 0.010702739 -0.06449019 -0.023685275 0.02300519 -0.034134828
0.009080738 -0.05728646 -0.027922526 -0.066780105 -0.036728162 0.03393447 -0.023695042 -0.017717674
0.016264025 -0.01366391 -0.000711896 0.017932702 -0.017697994 0.023365464 -0.046114903 -0.07688165
0.010804733 -0.0014839304 0.05116217 -0.012771515 -0.016810209 -0.0022883494 0.030677056 -0.032892704
-0.03915121 0.010955852 0.022946417 0.023419794 0.044257883 0.029366821 0.04829623 0.087091446
-0.033627823 0.022114135 -0.00582849 0.012049522 -0.033661418 0.008824845 0.053827986 -0.03440532
-0.021105612 0.0057622166 -0.03702371 0.026358563 0.007187666 0.047995064 -0.04445212 -0.004716606
-0.0032159002 -0.019713338 0.028881539 0.0030287206 -0.06497325 -0.043047383 0.050387558 -0.0027257653
-0.03761586 -0.034846216 -0.009762253 0.010674202 0.037273664 0.03143859 -0.0077050044 -0.05543427
-0.013821137 -0.027965007 0.0032225847 0.01964013 -0.021469511 0.027862037 -0.0171756 -0.02011297
-0.040665884 0.029195992 -0.0019793033 -0.07900571 0.036480416 0.00035407682 -0.0352237 0.007954511
00000000: 2950 1e3c 73b0 6d3c 8eb1 9e3a 0a2b 8f3b
00000010: 665a 45bd ee90 ebbb 870e c8bc c7a5 acba
00000020: 3458 a3bc 847f 0dbd 85bb 693c 4819 b23b
00000030: 65af f43c 8bfd eabb 47ba 1439 282b 4ebc
00000040: d551 443c 30e9 86ba c641 c9bc eb06 cfbd
00000050: 07c7 153c 5e81 f83b 234a 9f3c 80e7 5b3b
00000060: 181b 043d 59bc 023d 253d e83d e1cb 0d3d
00000070: 846f 81bc 1010 b6bc 1047 3b3d a1bd e9b9
00000080: 6dd7 cc3c 9729 2c3d fecf 883c 52f0 13bb
00000090: d96c 883d e064 71bb 2a5f 0cbd 91f9 58bd
000000a0: 9baa 593d 804a 963c a398 a2bb 8a5a 2f3c
000000b0: 6f13 84bd 9f07 c2bc 6175 bc3c f6d0 0bbd
000000c0: 60c7 143c 35a5 6abd c8bd e4bc 02c4 88bd
000000d0: 4570 16bd dffe 0a3d 1b1c c2bc a824 91bc
000000e0: 223c 853c 98de 5fbc 889e 3aba 9ae7 923c
000000f0: 62fb 90bc ee68 bf3c fbe2 3cbd 2074 9dbd
00000100: 5606 313c 7180 c2ba 6c8f 513d 9e3f 51bc
00000110: 90b5 89bc 22f8 15bb 734e fb3c 80ba 06bd
00000120: 055d 20bd 2d80 333c 20fa bb3c deda bf3c
00000130: c147 353d b092 f03c 45d2 453d 005d b23d
00000140: 54bd 09bd b428 b53c ebfc bebb 5c6b 453c
00000150: 8ee0 09bd 1596 103c bc7a 5c3d 98ec 0cbd
00000160: ade5 acbc fad0 bc3b 2ca6 17bd eaed d73c
00000170: 8386 eb3b 7996 443d 6d13 36bd c28d 9abb
00000180: dac1 52bb de7d a1bc fa98 ec3c 807d 463b
00000190: b210 85bd 7452 30bd 2f63 4e3d c1a2 32bb
000001a0: 1713 1abd e8ba 0ebd dbf1 1fbc d9e2 2e3c
000001b0: 45ac 183d c0c5 003d 437a fcbb 0c0f 63bd
000001c0: 0d72 62bc df16 e5bc 0032 533b 57e4 a03c
000001d0: d4e0 afbc ed3e e43c d8b3 8cbc f5c3 a4bc
000001e0: 4591 26bd 6f2c ef3c 33b7 01bb bfcd a1bd
000001f0: 7d6c 153d 63a3 b939 ba46 10bd a353 023c

fc2.weight f4 [5, 128]
-0.18130407 0.14697738 0.1404145 0.12101986 0.22102885 0.079610564 0.1338827 0.31953785
-0.115033135 -0.09335925 -0.027313389 0.17162025 -0.075933374 -0.18481946 0.12354779 -0.12542512
0.20595096 -0.13396804 -0.22756656 0.16946484 -0.11457205 0.049521837 0.11782382 0.23809904
0.025826616 0.08088699 -0.21494736 -0.16796196 -0.14402127 0.021989359 0.13555562 -0.022607408
-0.14669679 -0.086560324 0.22712803 0.036910154 0.2587213 0.22272873 -0.14784765 -0.07460082
0.25854972 -0.26205975 0.10540839 -0.059044044 0.07464788 0.08503774 0.09977845 0.096060984
-0.088468075 -0.013589006 0.13892902 0.1255512 -0.009141065 0.1693336 0.17606178 0.11979285
-0.08816374 0.11368117 -0.121575736 0.13150755 -0.0103351055 0.04118707 0.01696368 -0.029102534
0.16689974 -0.06120639 0.08155699 -0.15785971 -0.22880755 0.15384184 0.16645093 0.11351602
0.13219103 -0.24697894 -0.12736273 -0.16001227 -0.024767382 0.20893486 -0.015835878 -0.004755735
0.2184279 -0.12844922 -0.19129539 -0.08436313 -0.13479353 -0.09843533 -0.18040524 -0.00908834
0.09702553 -0.22857516 -0.14690645 0.14026093 0.00037398635 0.16929199 0.070573024 -0.22111306
-0.03418526 0.28037187 0.043192685 -0.09730638 -0.12348164 -0.33366793 -0.082880795 0.0072757965
0.16008969 0.09258229 0.15571178 -0.09533503 -0.065513946 -0.19671912 0.081096604 0.23334901
0.025574317 -0.046619084 -0.045149717 -0.12533563 -0.2316146 -0.13717507 0.0592077 -0.17975694
-0.04631899 -0.25203744 -0.14279939 0.20554449 0.12747502 -0.05429022 0.12477155 0.25326154
0.12281277 -0.15266329 -0.020805996 -0.10226954 -0.10434819 0.0622045 -0.16896726 -0.06177051
0.16804403 0.2027646 -0.13908108 -0.08168182 -0.05529081 0.086787745 0.07750842 0.13113515
0.14197971 -0.08479773 0.031231057 -0.10152462 -0.020233229 0.035157077 0.01273664 0.046747744
0.099136844 0.17223094 -0.09204451 0.17360297 0.12351648 0.17476179 -0.08367525 -0.101949684
-0.09702835 0.045828167 -0.03069411 0.17836691 -0.054184742 -0.09591197 -0.102184385 0.12318703
-0.13372695 -0.046093684 -0.16769214 0.15097997 0.093599506 -0.18042985 -0.18457705 0.15213442
0.041198537 -0.1118902 -0.056448102 0.0386211 -0.16717146 0.11355386 -0.13006704 -0.15423304
-0.09118299 0.11807006 0.14930959 -0.18167415 0.1221679 -0.10609707 -0.086669795 0.076300725
0.08905079 0.0509086 0.058197334 0.19148052 -0.061539445 -0.0077391467 -0.06542319 -0.10393031
0.15073988 -0.05656527 -0.031180603 0.0432336 0.19526103 -0.028757714 0.07178312 -0.0019071468
-0.08738351 -0.12245897 0.1549071 -0.036518045 0.014796805 0.15597446 -0.049654953 0.0958152
0.11794877 -0.031222254 -0.08945183 0.15003882 0.19325107 0.13242663 -0.04372723 0.020668346
0.14082088 -0.027011592 -0.01563065 0.1228261 -0.1056145 0.057589173 -0.14479452 0.2290557
0.13464506 -0.11656166 -0.13943136 0.10998963 -0.14347279 0.13165611 -0.14148356 -0.022032611
-0.035190936 0.13833508 -0.051419374 0.16092344 0.0683109 0.18865529 0.1500902 0.1763326
0.11839522 -0.08301052 -0.041051526 0.015482928 0.0691094 -0.13246703 -0.21677387 -0.121121176
00000000: c6a7 39be 3d81 163e d2c8 0f3e 43d9 f73d
00000010: 6355 623e dd0a a33d 8c18 093e 779a a33e
00000020: 7e96 ebbd 2233 bfbd 54c0 dfbc 38bd 2f3e
00000030: f582 9bbd 5041 3dbe a006 fd3d 716f 00be
00000040: cfe4 523e eb2e 09be 3507 69be 3188 2d3e
00000050: c0a4 eabd 69d7 4a3d 9d4d f13d 3cd0 733e
00000060: 5792 d33c 14a8 a53d 291b 5cbe 38fe 2bbe
00000070: 507a 13be 0723 b43c 18cf 0a3e 2c33 b9bc
00000080: af37 16be 8a46 b1bd 4094 683e 1a2f 173d
00000090: 1e77 843e 0013 643e 6065 17be 51c8 98bd
000000a0: a160 843e b22c 86be 5be0 d73d 2bd8 71bd
000000b0: fde0 983d 4428 ae3d a558 cc3d 9fbb c43d
000000c0: c02e b5bd 6ca4 5ebc 6943 0e3e 7e90 003e
000000d0: 68c4 15bc ca65 2d3e 8a49 343e f455 f53d
000000e0: 318f b4bd acd1 e83d b3fc f8bd eaa9 063e
000000f0: 9354 29bc c6b3 283d 6af7 8a3c 7068 eebc
00000100: c4e7 2a3e 8db3 7abd 5a07 a73d faa5 21be
00000110: 874c 6abe b788 1d3e 1d72 2a3e 167b e83d
00000120: 165d 073e 0ce8 7cbe 606b 02be 42da 23be
00000130: f7e4 cabc 05f3 553e 3eba 81bc ffd5 9bbb
00000140: 90ab 5f3e 3188 03be f0e2 43be 94c6 acbd
00000150: 5107 0abe 7698 c9bd 27bc 38be 43e7 14bc
00000160: 52b5 c63d 9b0f 6abe a56e 16be 90a0 0f3e
00000170: 9913 c439 e15a 2d3e 9788 903d 766b 62be
00000180: d805 0cbd e78c 8f3e d0ea 303d 9148 c7bd
00000190: f1e3 fcbd 86d6 aabe 68bd a9bd ce69 ee3b
000001a0: 8dee 233e c99b bd3d e972 1f3e 033f c3bd
000001b0: 2d2c 86bd bd70 49be fa15 a63d 0bf3 6e3e
000001c0: 3b81 d13c a7f3 3ebd e9ee 38bd fc57 00be
000001d0: 612c 6dbe 9f77 0cbe c683 723d 3412 38be
000001e0: fbb8 3dbd 0d0b 81be 013a 12be 417a 523e
000001f0: d088 023e 6c5f 5ebd 3a88 ff3d 7fab 813e
00000200: 4385 fb3d c453 1cbe 5671 aabc b172 d1bd
00000210: 81b4 d5bd 25ca 7e3d c105 2dbe 1303 7dbd
00000220: bc13 2c3e 86a1 4f3e 456b 0ebe cc48 a7bd
00000230: 9e78 62bd c6bd b13d bcbc 9e3d 4b48 063e
00000240: 2163 113e 6faa adbd 46d8 ff3c 24ec cfbd
00000250: 28c0 a5bc de00 103d 57ad 503c 907a 3f3d
00000260: 4208 cb3d 4f5d 303e d581 bcbd fac4 313e
00000270: 35f6 fc3d c1f4 323e ee5d abbd ffca d0bd
00000280: cdb6 c6bd 51b6 3b3d 3772 fbbc d1a5 363e
00000290: d2f0 5dbd 7f6d c4bd 0c46 d1bd 7b49 fc3d
000002a0: b8ef 08be bbcc 3cbd 7db7 2bbe 7e9a 1a3e
000002b0: 19b1 bf3d 9ac2 38be c401 3dbe 20c9 1b3e
000002c0: ccbf 283d b026 e5bd 2036 67bd 2931 1e3d
000002d0: ff2e 2bbe ed8e e83d 4b30 05be 44ef 1dbe
000002e0: 26be babd b7ce f13d 9de4 183e ca08 3abe
000002f0: 2a33 fa3d 6c49 d9bd ef7f b1bd 8e43 9c3d
00000300: 4360 b63d 8985 503d 5460 6e3d 7813 443e
00000310: c910 7cbd ab98 fdbb 98fc 85bd 6ad9 d4bd
00000320: 8e5b 1a3e fcb0 67bd 776e ffbc b715 313d
00000330: 82f2 473e 4c95 ebbc 0703 933d 3af9 f9ba
00000340: 20f6 b2bd c5cb fabd f89f 1e3e f293 15bd
00000350: 4c6e 723c c5b7 1f3e fe62 4bbd c23a c43d
00000360: 208f f13d d0c5 ffbc 8532 b7bd c7a3 193e
00000370: 9ce3 453e d99a 073e 531b 33bd aa50 a93c
00000380: 5933 103e 6a47 ddbc d90b 80bc 408c fb3d
00000390: 6a4c d8bd a0e2 6b3d 0445 14be 948d 6a3e
000003a0: 65e0 093e e1b7 eebd 18c7 0ebe 3e42 e13d
000003b0: 88ea 12be dcd0 063e 11e1 10be bc7d b4bc
000003c0: 5f24 10bd b6a7 0d3e 1f9d 52bd 1dc9 243e
000003d0: 96e6 8b3d da2e 413e 3fb1 193e 8890 343e
000003e0: 3179 f23d 6b01 aabd a525 28bd 1bac 7d3c
000003f0: 3b89 8d3d 70a5 07be f8f9 5dbe 610e f8bd

fc2.bias f4 [5]
0.1274153 -0.00034289627 0.1118069 -0.19641598 -0.02901482
00000000: 2879 023e c2c6 b3b9 04fb e43d 4521 49be
00000010: 7db0 edbc
