results/arousal/classification_3/20251209_065947_369020/best_model.pt (torch, 336757 bytes, 22 tensors)

conv1.weight f4 [128, 1, 3]
0	0x3e8cb22f	0.27479693
1	0x3f12fe68	0.57419443
2	0xbe1a9725	-0.1509672
3	0x3ee7f930	0.45307302
4	0xbe83f04c	-0.2576927
5	0x3ba88e0f	0.005143888
6	0xbe3e0175	-0.18555243
7	0x3e833c93	0.25632152
8	0x3efe5613	0.49675044
9	0xbf017cf0	-0.50581264
10	0x3ee0b67c	0.43889225
11	0x3e228454	0.15870792
12	0x3ee758af	0.45184848
13	0xbcd5359b	-0.026026538
14	0x3ebc0e1c	0.36729515
15	0xbda92d0a	-0.08260544
16	0x3f01a029	0.5063501
17	0x3d317bbd	0.043330897
18	0xbe848d30	-0.25888968
19	0x3e31cfcc	0.17364424
20	0xbe994a88	-0.29939675
21	0xbdd2ee2f	-0.10299336
22	0xbe9050f3	-0.2818676
23	0x3ee03999	0.43793944
24	0xbe961dec	-0.29319704
25	0xbe87f756	-0.2655589
26	0xbd956b2f	-0.07295834
27	0xbe366579	-0.17812146
28	0x3e195f3d	0.14977737
29	0xbf27c13e	-0.6552924
30	0x3eef7616	0.4676978
31	0xbf1bddc9	-0.6088529
32	0x3e949bf9	0.29025248
33	0x3d58aae7	0.05289736
34	0xbe015530	-0.12630153
35	0x3ec63b9d	0.38717356
36	0x3dcc1b02	0.09966089
37	0x3ebd2110	0.36939287
38	0x3db10b30	0.08644712
39	0xbe5ab6f3	-0.21358852
40	0x3e83081c	0.25592124
41	0xbdbec4bc	-0.09314868
42	0x3e762075	0.24035819
43	0x3ef1ab0a	0.47200805
44	0x3e99901c	0.2999276
45	0xbe4acaf0	-0.19803977
46	0x3ec87d3f	0.39158055
47	0x3dde295b	0.10847732
48	0x3ea14925	0.31501117
49	0xbeb9746a	-0.3622163
50	0xbf0f5f59	-0.56004864
51	0xbe5fda70	-0.21860671
52	0xbef13a88	-0.47114968
53	0x3ed92127	0.42408106
54	0x3dc0c5c8	0.09412724
55	0x3ea70e88	0.32628274
56	0x3e884f7a	0.26623136
57	0xbde0b73d	-0.1097245
58	0x3f0873d7	0.5330176
59	0xbebd452b	-0.36966833
60	0x3e00d114	0.12579757
61	0xbf05fdd6	-0.5234045
62	0x3e169eee	0.14709064
63	0xbe722be8	-0.23649561
64	0x3e660bbc	0.22465414
65	0xbce02962	-0.027363483
66	0x3ecd3f6f	0.40087458
67	0xbee01c6e	-0.4377169
68	0xbe3d3661	-0.18477775
69	0xbec71960	-0.38886547
70	0x3efb836a	0.49123698
71	0x3e42c885	0.19021805
72	0x3f0c289c	0.54749465
73	0xbf13d64a	-0.57748854
74	0xbf01a58d	-0.50643235
75	0xbed18c23	-0.40927228
76	0xbeb70bad	-0.35751095
77	0x3e959bb0	0.29220343
78	0x3da2dd6c	0.07952389
79	0x3f0a7b63	0.54094523
80	0xbeac21d3	-0.33619556
81	0xbe82cc63	-0.2554656
82	0x3ec961c4	0.39332402
83	0xbe620ea7	-0.22075902
84	0x3e825cae	0.25461334
85	0xbe9a3a46	-0.30122584
86	0x3e8c25ce	0.27372593
87	0xbecabeea	-0.3959878
88	0xbe9ae944	-0.30256093
89	0x3e846d65	0.2586471
90	0x3dc015f2	0.09379186
91	0xbe50b273	-0.20380573
92	0x3ecd460e	0.4009251
93	0x3ee1ebea	0.441253
94	0xbee393bb	-0.44448647
95	0xbe6dd12a	-0.23224321
96	0x3f0b74d5	0.54475147
97	0xbdd2161c	-0.10258123
98	0xbdf01a75	-0.11723796
99	0xbf39cdf2	-0.7257987
100	0xbe3ae7f4	-0.18252546
101	0x3e038f52	0.12847641
102	0xbc212e72	-0.009837734
103	0xbefb367b	-0.49065003
104	0x3d75f293	0.06004579
105	0xbe9753f4	-0.2955624
106	0xbee7dbe0	-0.4528494
107	0xbe5a9595	-0.21346124
108	0xbeef6462	-0.46756274
109	0xbe9dbe8e	-0.30809444
110	0x3f1cc147	0.6123242
111	0x3dcb095e	0.09913896
112	0x3e14bab7	0.14524351
113	0xbf0daf17	-0.5534529
114	0xbec0b016	-0.37634343
115	0xbe563991	-0.20920397
116	0x3dd07d6c	0.10180172
117	0xbef15fcc	-0.471434
118	0xbe3e3353	-0.18574266
119	0xbe772deb	-0.2413861
120	0x3e0d7dc3	0.13817506
121	0xbe9337cf	-0.28753516
122	0x3d38bf97	0.04510459
123	0xbe4c71dc	-0.19965309
124	0xbec8b25d	-0.3919858
125	0xbe612d6d	-0.21989985
126	0xbe5263e4	-0.20545918
127	0xbef91651	-0.4864984
128	0x3ef8e54b	0.48612437
129	0x3b06ca3c	0.0020567318
130	0x3efea1ee	0.49732918
131	0xbd0ffc5a	-0.03515277
132	0xbeff6c32	-0.49887234
133	0x3ee67c3d	0.4501666
134	0xbe298d14	-0.16557723
135	0xbd8e173e	-0.06938027
136	0xbecc3495	-0.39883867
137	0xbf073fa0	-0.5283146
138	0x3e3fb33a	0.18720713
139	0xbe8bfd61	-0.2734175
140	0x3e3167a3	0.1732469
141	0xbec1837c	-0.37795627
142	0x3f0dd12a	0.55397284
143	0xbecc42a3	-0.3989459
144	0xbd648175	-0.055787522
145	0x3dbdc4db	0.09266063
146	0x3eb31f27	0.34984705
147	0x3ea6a0d5	0.3254458
148	0x3eedd90d	0.4645466
149	0xbf0e3b38	-0.5555911
150	0x3e4d09db	0.20023291
151	0xbe6caba0	-0.23112345
152	0xbdf3e433	-0.1190876
153	0xbea6a36b	-0.32546553
154	0x3f193f3e	0.59862125
155	0xbec0b70a	-0.37639648
156	0x3eaad583	0.33366022
157	0x3e1f60bc	0.15564245
158	0x3e5e852a	0.21730486
159	0xbe90c72b	-0.28276953
160	0x3f1f549f	0.62238497
161	0x3d5d5cbb	0.054043513
162	0x3dfc6c2f	0.12325322
163	0xbf159b81	-0.58440405
164	0x3e6e3c29	0.23265137
165	0xbda7ef20	-0.08199906
166	0xbe6c6809	-0.23086561
167	0x3f17429d	0.5908602
168	0x3d93171a	0.07182141
169	0xbeea0a03	-0.45710763
170	0xbe769c83	-0.24083142
171	0xbd404878	-0.04694411
172	0x3eaa9b58	0.33321643
173	0xbe72a9d0	-0.23697591
174	0xbeb41bb0	-0.35177374
175	0xbe1b0439	-0.1513833
176	0xbec4f5a0	-0.38468647
177	0x3e026616	0.12734255
178	0x3ed5ba6e	0.41743797
179	0xbef71c33	-0.48263702
180	0xbdc67cde	-0.09691785
181	0x3e9d9c8c	0.30783498
182	0x3d07fc3a	0.033199526
183	0xbe6e3ef3	-0.232662
184	0x3e1bb15c	0.15204376
185	0x3eef06ce	0.4668488
186	0x3e6e5ca9	0.23277535
187	0xbd2bf305	-0.04197981
188	0xbd96a737	-0.073561125
189	0x3e18f24d	0.1493618
190	0xbe5cbbec	-0.21556062
191	0xbe097767	-0.13424455
192	0x3e5d0432	0.21583632
193	0x3f0b1db1	0.5434218
194	0xbdbec3af	-0.093146674
195	0xbe3b91a9	-0.18317284
196	0xbd9a8ef9	-0.07546801
197	0xbdca1a94	-0.098683506
198	0x3e67c4a4	0.22633606
199	0x3d9f3c04	0.07775119
200	0xbf178072	-0.59180367
201	0xbe151288	-0.1455785
202	0x3ea0cc50	0.31405878
203	0x3e9af750	0.3026681
204	0xbb4a275b	-0.0030846212
205	0xbecc4746	-0.39898127
206	0xbe935e86	-0.28783053
207	0xbf1faf4a	-0.62376845
208	0xbddebf95	-0.10876385
209	0x3e3e1fbe	0.18566796
210	0x3ea5ca87	0.3238108
211	0x3e5412e2	0.20710328
212	0xbf187cc7	-0.59565395
213	0xbe9eb408	-0.30996728
214	0xbc3b7342	-0.011441054
215	0x3f21bfee	0.63183486
216	0x3dc8a1f2	0.097965136
217	0xbe17763e	-0.147912
218	0x3e9efa82	0.31050497
219	0xbe1f08ca	-0.15530697
220	0xbeac1c41	-0.33615306
221	0x3ecccec3	0.40001497
222	0xbd27d86d	-0.040977884
223	0x3d5cb71e	0.05388557
224	0xbf36676c	-0.7125156
225	0x3ed7dd01	0.421608
226	0x3ea15bd2	0.31515366
227	0x3cad52e8	0.021157697
228	0xbe963ee8	-0.2934487
229	0xbecd3cf7	-0.40085575
230	0xbee97070	-0.45593596
231	0x3ec2e241	0.38063243
232	0xbc851b60	-0.016248405
233	0x3f0b9183	0.5451891
234	0x3ead8363	0.33889303
235	0x3e347d3f	0.17625903
236	0xbd1c7a43	-0.038202535
237	0xbe9e6ca3	-0.30942258
238	0xbe79fb3e	-0.24412248
239	0xbf05a689	-0.5220724
240	0x3e903d4b	0.28171763
241	0xbea24f6d	-0.31701222
242	0xbdb60b6a	-0.08888896
243	0xbe737560	-0.23775244
244	0xbcfbba96	-0.03072862
245	0xbeadde50	-0.33958673
246	0xbe9f6eef	-0.31139323
247	0x3e5761c7	0.21033393
248	0xbe67388e	-0.22580168
249	0x3eaef312	0.34169823
250	0xbdcb4843	-0.09925892
251	0xbeec7359	-0.46181753
252	0x3d0670f5	0.032822568
253	0xbed750af	-0.42053744
254	0xbdb1d15f	-0.086825125
255	0xbefc2472	-0.49246556

conv1.bias f4 [128]
0	0xbe542c64	-0.20720059
1	0x3eec15eb	0.46110472
2	0xbf1df97e	-0.6170882
3	0xbe7ec270	-0.2487886
4	0x3ba06457	0.004894774
5	0xbe748b41	-0.23881246
6	0xbe9156fa	-0.2838667
7	0xbe87ee83	-0.26549158
8	0x3eae3e6e	0.34032005
9	0x3e558c4c	0.208543
10	0x3ebeff70	0.37304258
11	0xbeecbe0d	-0.46238747
12	0xbf1e2351	-0.6177264
13	0x3ed5729c	0.41689003
14	0xbc399579	-0.011327141
15	0xbebda79e	-0.37041944
16	0xbd995855	-0.07487551
17	0x3eedc68b	0.4644054
18	0xbdff3612	-0.12461485
19	0x3dee1610	0.11625302
20	0xbe379eee	-0.1793172
21	0xbf1371fa	-0.5759579
22	0xbf2c1961	-0.67226225
23	0xbea551e6	-0.32289046
24	0xbca33638	-0.019923314
25	0x3e7dbfcd	0.24780197
26	0xbe607ac1	-0.21921827
27	0xbee26914	-0.44220793
28	0x3efdef86	0.49596804
29	0x3e598141	0.21240713
30	0x3eb5e3a6	0.35525244
31	0xbea50f0a	-0.32238036
32	0xbed765ec	-0.42069948
33	0x3d524397	0.05133399
34	0xbed6337f	-0.41836163
35	0xbeef1a99	-0.4669998
36	0x3dcf2780	0.10114956
37	0xbec4f145	-0.38465324
38	0xbf02f73e	-0.5115851
39	0x3ddcbf28	0.10778648
40	0x3f00a0a6	0.5024513
41	0x3d9535ba	0.07285638
42	0xbd5a7581	-0.053334717
43	0xbf253531	-0.6453429
44	0xbe59d319	-0.21271934
45	0x3db1e4f9	0.08686251
46	0x3ed4cb1b	0.41561207
47	0xbd43de17	-0.047819223
48	0xbeb00469	-0.34378365
49	0x3e7e35bd	0.24825187
50	0xbf0d0d12	-0.5509807
51	0x3f11d648	0.5696759
52	0xbe9d9750	-0.30779505
53	0x3ce080ec	0.027405225
54	0x3e05d5a1	0.13069774
55	0x3df89508	0.121378005
56	0xbe76b858	-0.24093759
57	0x3efabedd	0.48973742
58	0xbe033b26	-0.12815532
59	0x3f59ec87	0.8512654
60	0x3e9b1c76	0.3029515
61	0xbea57a9f	-0.32320115
62	0xbf0d6eb4	-0.55247045
63	0x3ee66d53	0.45005283
64	0x3e8e1bb7	0.2775552
65	0xbeff21be	-0.4983043
66	0x3d9461b5	0.07245199
67	0xbf3d2ebe	-0.7389945
68	0xbf0bb97e	-0.54579914
69	0x3d6d3d1f	0.057919618
70	0x3e34e537	0.17665564
71	0x3e25d1ed	0.16193362
72	0xbe9336b3	-0.2875267
73	0x3f4dfe27	0.8046593
74	0x3e0889e2	0.13333848
75	0xbef5fe9d	-0.48045817
76	0x3d9ec1a3	0.07751777
77	0xbe244c42	-0.16044715
78	0x3d1206c1	0.035650972
79	0xbf01dc88	-0.5072713
80	0x3ed2f38d	0.4120144
81	0xbf01de21	-0.50729567
82	0xbf1ab4a7	-0.60431904
83	0xbee22376	-0.4416768
84	0x3eefab45	0.46810356
85	0x3ef5590f	0.4791951
86	0x3e9079e4	0.28217995
87	0x3eccb583	0.39982232
88	0x3e852864	0.26007378
89	0xbde0d9df	-0.109790556
90	0xbecaa441	-0.3957844
91	0x3dee614a	0.1163965
92	0xbe85ee70	-0.26158476
93	0xbee5f98b	-0.4491695
94	0xbe9c4152	-0.30518585
95	0x3eb66f65	0.35631862
96	0x3e62d69e	0.22152182
97	0xbe832cd9	-0.25620154
98	0xbe6ad294	-0.22931892
99	0x3db30ff3	0.087432764
100	0xbee95467	-0.45572206
101	0xbf0a8438	-0.54108
102	0x3f05f658	0.52329016
103	0xbe174b9b	-0.14774935
104	0x3f0a5516	0.5403608
105	0x3ebb989a	0.36639863
106	0x3e86143e	0.2618732
107	0x3e05b33b	0.13056652
108	0x3dd41746	0.103560016
109	0xbd48523c	-0.04890655
110	0xbe681e3a	-0.2266778
111	0xbd8345c9	-0.06409795
112	0x3eb72865	0.35773006
113	0x3f0e2f8c	0.555413
114	0xbcb7f7f0	-0.022457093
115	0xbe665999	-0.22495116
116	0xbd8fd5df	-0.070232145
117	0xbf0778d3	-0.5291874
118	0x3ebc8afa	0.3682478
119	0x3e83f2ff	0.2577133
120	0x3eafa5f6	0.34306306
121	0x3e0f6303	0.14002614
122	0xbeeaf956	-0.45893353
123	0xbeb1cb9e	-0.3472566
124	0xbd8ac484	-0.06775764
125	0xbda13a68	-0.07872468
126	0x3e7462bd	0.2386579
127	0xbf1b18d6	-0.6058477

bn1.weight f4 [128]
0	0x3f83bd5c	1.0292163
1	0x3eff67df	0.49883935
2	0x3f981372	1.1880934
3	0x3f589919	0.8460861
4	0x3ec7632b	0.38942847
5	0x3f895c4d	1.0731293
6	0x3f44f5b2	0.769374
7	0x3f6fd142	0.9367868
8	0x3d4ca37a	0.04996059
9	0x3eebae6f	0.4603152
10	0x3f6c2513	0.9224407
11	0x3fbf9380	1.4966888
12	0x3fc45156	1.5337322
13	0x3f01b1b6	0.5066179
14	0x3edf7250	0.436419
15	0x3f7d2d98	0.98897696
16	0x3f0f1ec4	0.5590632
17	0x3f405054	0.7512257
18	0x3ef2b512	0.4740377
19	0x3f4c0201	0.7969056
20	0x3f82a59f	1.0206794
21	0x3f8e9140	1.1138077
22	0x3fa1b01c	1.2631869
23	0x3f4eb20b	0.8074042
24	0x3f53de9d	0.82761556
25	0x3f2000ee	0.6250142
26	0x3f94a43f	1.1612624
27	0x3fa71ad9	1.3055068
28	0x3ec9d983	0.3942376
29	0x3f03efd8	0.5153785
30	0x3f06e61f	0.52694887
31	0x3f750913	0.9571697
32	0x3f9ac723	1.2092022
33	0x3f1450ed	0.5793598
34	0x3f8fb71e	1.1227758
35	0x3f032ac3	0.51237124
36	0x3f1e27aa	0.6177927
37	0x3f990907	1.195588
38	0x3f94dce6	1.1629913
39	0x3dc74f79	0.09731955
40	0x3f0cfc3f	0.55072397
41	0x3d3b143a	0.045673586
42	0x3f20ca91	0.6280909
43	0x3fd806a7	1.687703
44	0x3f571b28	0.8402581
45	0x3e80eba2	0.25179774
46	0x3f1fd77d	0.62438184
47	0x3f17ee04	0.5934756
48	0x3f90432f	1.1270503
49	0x3f01c011	0.50683695
50	0x3f9d52f7	1.2290944
51	0x3f622764	0.88341355
52	0x3f340caf	0.70331854
53	0x3f2aa838	0.6666293
54	0x3f70f0b3	0.9411728
55	0x3f6cf89e	0.9256686
56	0x3f56ed48	0.8395581
57	0x3f3b7f29	0.73240906
58	0x3e751808	0.23934948
59	0x3f50b129	0.81520325
60	0x3d90ba34	0.070667654
61	0x3f89bd4e	1.0760896
62	0x3fc8f1bf	1.5698775
63	0x3f2701fd	0.6523741
64	0x3e3127ed	0.17300387
65	0x3f4da660	0.80331993
66	0x3f80b06b	1.0053838
67	0x3fe54245	1.7910849
68	0x3fa43aae	1.2830408
69	0x3eda7888	0.42670083
70	0x3f4e0ecd	0.80491334
71	0x3f709cf1	0.93989474
72	0x3f936809	1.1516124
73	0x3f18c56e	0.59676254
74	0x3f08d9cf	0.5345735
75	0x3f5918c1	0.84803396
76	0x3ea137c1	0.3148785
77	0x3f3a3751	0.72740656
78	0x3d5bae04	0.05363275
79	0x3ecf7fe3	0.40527257
80	0x3f9c341d	1.2203404
81	0x3f8b2d55	1.0873209
82	0x3f74348a	0.9539267
83	0x3fa397a8	1.2780657
84	0x3e8fef86	0.2811243
85	0x3f27859e	0.6543826
86	0x3e59d374	0.21272069
87	0x3f7140ee	0.942397
88	0x3eb38e64	0.35069573
89	0x3f6dddd2	0.92916596
90	0x3faf7e9b	1.3710512
91	0x3e78590f	0.24252723
92	0x3f81a8ba	1.0129616
93	0x3f6700e0	0.9023571
94	0x3f36afd0	0.7136202
95	0x3f3dcadd	0.7413767
96	0x3f51fcf4	0.820266
97	0x3e4a5db7	0.19762312
98	0x3f524260	0.8213253
99	0x3e942e47	0.28941557
100	0x3f9ae8d5	1.2102305
101	0x3fa1ccde	1.2640646
102	0x3ec4fadf	0.3847265
103	0x3f75885b	0.95911187
104	0x3f59714b	0.84938496
105	0x3e81886a	0.25299388
106	0x3f30a705	0.6900485
107	0x3eece431	0.46267846
108	0x3d915b60	0.070975065
109	0x3ef2c193	0.4741331
110	0x3f8e8179	1.1133262
111	0x3edce4d2	0.43143326
112	0x3f5f3001	0.87182623
113	0x3e59c1d1	0.21265341
114	0x3bb2cc86	0.00545651
115	0x3f5603a1	0.8359929
116	0x3f4d92ae	0.8030194
117	0x3fb33f9d	1.4003788
118	0x3f01c55a	0.5069176
119	0x3f4fa82c	0.81115985
120	0x3d637b78	0.05553767
121	0x3f059aec	0.5218952
122	0x3f71a7a7	0.9439644
123	0x3f8e8f14	1.1137414
124	0x3e911956	0.28339642
125	0x3f85d326	1.0455062
126	0x3f8142cb	1.0098509
127	0x3fbe723c	1.4878612

bn1.bias f4 [128]
0	0x3cedd785	0.029033432
1	0xbc86645d	-0.016405279
2	0x3eab6974	0.33478892
3	0x3c9b2fd8	0.018943712
4	0x3d419ce9	0.04726878
5	0x3e275816	0.16342196
6	0x3d4d33b8	0.05009815
7	0x3e74fdee	0.23924991
8	0x3d14035c	0.036136016
9	0xbb9e24df	-0.0048261727
10	0xbe5f1fdf	-0.21789502
11	0x3e834164	0.25635827
12	0x3e80c12d	0.2514738
13	0xbded2da4	-0.11580971
14	0x3db3aefc	0.0877361
15	0x3e2693e5	0.16267355
16	0x3d262aa7	0.04056802
17	0x3e0869ba	0.13321581
18	0x3db74d78	0.08950323
19	0xbd4d431a	-0.05011282
20	0xbe0b28b2	-0.13589743
21	0x3e0ca5d1	0.13735129
22	0x3eb4cc2c	0.3531202
23	0x3bb8b787	0.0056371125
24	0x3e309742	0.172452
25	0x3e74df2d	0.2391326
26	0x3d064cc7	0.032788064
27	0x3e63caf5	0.2224539
28	0xbe069dd5	-0.13146146
29	0x3e54ca16	0.20780215
30	0x3cb8ea83	0.022572761
31	0x3e02c05e	0.12768695
32	0x3e8ed57a	0.27897245
33	0x3e00ad0e	0.12566015
34	0x3e6741fe	0.22583768
35	0x3e0b37e4	0.1359554
36	0x3e483fa0	0.19555521
37	0x3e355c92	0.17711094
38	0x3e5dd079	0.21661557
39	0x3cae8045	0.021301398
40	0x3d144683	0.036200058
41	0x3c9ed376	0.019387942
42	0x3e210d02	0.15727618
43	0x3e548aaa	0.20756021
44	0xbcbe58ec	-0.02323576
45	0x3e4e8883	0.20169263
46	0xbe3af576	-0.18257698
47	0xbdc18f4d	-0.094511606
48	0x3e8b1140	0.27161598
49	0xbdaeb208	-0.085300505
50	0x3e00baf7	0.12571321
51	0xbc925fb3	-0.017867899
52	0x3dfad64e	0.122479066
53	0x3e15d076	0.14630303
54	0xbe4ac324	-0.19801003
55	0x3de93c0b	0.113884054
56	0x3e22d69c	0.1590218
57	0x3d936321	0.07196642
58	0x3d853088	0.06503397
59	0x3d41eab8	0.047342986
60	0x3cb24d78	0.021765456
61	0x3e92002a	0.2851575
62	0x3e6e1b24	0.23252541
63	0x3e88edb3	0.2674385
64	0x3d7b59da	0.061364986
65	0x3b6572e5	0.003501111
66	0xbcd95d80	-0.026533842
67	0x3ed71933	0.42011413
68	0x3e365f56	0.17809805
69	0x3d9145dd	0.070934035
70	0x3dc775d3	0.0973927
71	0x3ea0a9ed	0.31379643
72	0x3e5323a0	0.20619059
73	0x3dba7a2a	0.09105332
74	0x3ddb1a89	0.106984206
75	0x3e4f4695	0.20241769
76	0x3e7dd407	0.24787913
77	0x3df8d22d	0.12149463
78	0x3b56233b	0.0032674808
79	0x3e464a66	0.19364318
80	0x3e812541	0.25223735
81	0x3decf823	0.11570766
82	0x3e3890da	0.18024006
83	0x3ecb6b07	0.39730093
84	0x3e0387fb	0.12844841
85	0x3e34494e	0.17606089
86	0x3de8cbde	0.113670096
87	0x3d43d211	0.047807757
88	0x3e0b535f	0.13606022
89	0x3e2284e3	0.15871005
90	0x3e5a1083	0.21295361
91	0xbd4c4e66	-0.049879454
92	0x3e6835f8	0.22676837
93	0x3e03d621	0.12874652
94	0x3dacb9bc	0.084338635
95	0xbc951c44	-0.018201955
96	0x3b5cefa0	0.0033712164
97	0x3d77d50e	0.06050592
98	0x3df22607	0.118236594
99	0x3dcdb16b	0.100436054
100	0x3e5c62ed	0.21522112
101	0x3e6660e6	0.22497901
102	0xbd4647b7	-0.048408236
103	0x3e383bdc	0.17991585
104	0x3e9c9c6f	0.305881
105	0x3e42d074	0.19024831
106	0x3c61698c	0.0137580745
107	0x3e7d190b	0.24716584
108	0x3d0f4ca8	0.034985214
109	0x3d5222b2	0.05130262
110	0x3e8d9be1	0.2765799
111	0xbc283561	-0.010266633
112	0xbe29ba90	-0.16575074
113	0x3e3c741d	0.18403669
114	0x3b4db9e9	0.0031391329
115	0xbdc71a6f	-0.09721839
116	0x3d8fd4f1	0.07023037
117	0x3eae7e2c	0.34080637
118	0x3e3daf4c	0.18523902
119	0x3d08fb19	0.03344259
120	0x3d7536ed	0.059866834
121	0x3d98f41a	0.07468434
122	0x3e546472	0.20741442
123	0x3ea9cada	0.33162576
124	0x3df365df	0.11884665
125	0x3e7f0cf1	0.2490728
126	0xbe5d94e9	-0.21638836
127	0x3ebb64b5	0.3660027

bn1.running_mean f4 [128]
0	0x3e4352c6	0.19074544
1	0x3ef49555	0.4777018
2	0x3d88364d	0.06650982
3	0x3dc52e05	0.09627918
4	0x3e7c36ab	0.24630229
5	0x3dde8b23	0.10866382
6	0x3cf0693e	0.029347058
7	0x3d5ee484	0.05441715
8	0x3edd2d8a	0.43198806
9	0x3ebd679d	0.36993113
10	0x3edc6af4	0.4305035
11	0x3cad0eec	0.02112528
12	0x3d0b4b04	0.034007087
13	0x3ed6b56d	0.41935292
14	0x3ea2ee34	0.3182236
15	0x3d3b7c53	0.04577286
16	0x3e745092	0.2385886
17	0x3f07ea2e	0.53091705
18	0x3e2f3a9e	0.17112204
19	0x3e64093a	0.22269145
20	0x3daa76be	0.083234295
21	0x3a390789	0.0007058313
22	0x3c812720	0.015765727
23	0x3db8c7bc	0.09022471
24	0x3e9c2b51	0.30501798
25	0x3ec46565	0.38358608
26	0x3ddea890	0.108719945
27	0x3c2a5a1a	0.010397458
28	0x3eff874f	0.4990792
29	0x3eaec947	0.34137937
30	0x3ec0c2d8	0.37648654
31	0x3d9922a7	0.074773125
32	0x3d6fbd7f	0.058530327
33	0x3ea9acc6	0.33139628
34	0x3d00daf4	0.03145881
35	0x3de26286	0.11053948
36	0x3ea1e979	0.31623438
37	0x3d2971a6	0.04136815
38	0x3cb3ff11	0.021972211
39	0x3eaee758	0.34160876
40	0x3f01656c	0.5054538
41	0x3e9b46ea	0.3032754
42	0x3e3a2914	0.18179733
43	0x3d0497f1	0.032371465
44	0x3da4deeb	0.08050331
45	0x3ec23ab4	0.37935412
46	0x3ed54633	0.4165512
47	0x3e1eb124	0.15497261
48	0x3d4bad26	0.049725674
49	0x3ec3dcc5	0.3825437
50	0x3ae682e4	0.0017586616
51	0x3f176a49	0.59146553
52	0x3ddda72c	0.10822901
53	0x3e6aaf28	0.2291838
54	0x3e82b386	0.2552759
55	0x3e80e688	0.2517588
56	0x3df1bf90	0.11804116
57	0x3efba952	0.4915262
58	0x3e521e1d	0.205193
59	0x3f5bf96a	0.8592745
60	0x3ea12fe3	0.31481847
61	0x3db94c08	0.09047705
62	0x3a9ed12a	0.0012116779
63	0x3eec92b5	0.4620568
64	0x3eccf5fa	0.40031415
65	0x3aa6d056	0.0012726884
66	0x3e7e6472	0.24843004
67	0x3cd3aa29	0.025837975
68	0x3d23581c	0.03987895
69	0x3e8d89b5	0.27644125
70	0x3ea4681c	0.3211068
71	0x3ea2a12c	0.3176359
72	0x3cd6e274	0.026231028
73	0x3f506f49	0.8141981
74	0x3eadf503	0.33975992
75	0x3dcd9ba5	0.100394525
76	0x3ecf1d92	0.40452248
77	0x3e5c17d3	0.21493463
78	0x3e3e78c1	0.18600751
79	0x3df3fb36	0.11913149
80	0x3ede81ee	0.43458503
81	0x3cbcb42b	0.02303513
82	0x3ae9b39a	0.0017830015
83	0x3d28484d	0.041084576
84	0x3f04d6ea	0.5189043
85	0x3f0372fb	0.5134732
86	0x3ee360c9	0.4440978
87	0x3ee053c1	0.438139
88	0x3ecb6327	0.39724085
89	0x3e5316b0	0.20614123
90	0x3d3ffd3a	0.046872355
91	0x3e9c57a5	0.30535617
92	0x3dd583c5	0.10425524
93	0x3ddde17c	0.10834023
94	0x3d1721e4	0.036897555
95	0x3edac1e0	0.4272604
96	0x3e943346	0.2894537
97	0x3e4a1065	0.19732817
98	0x3e2e7e16	0.17040285
99	0x3e7ed490	0.24885774
100	0x3befc630	0.007317327
101	0x3d3424f2	0.043980546
102	0x3f0599db	0.5218789
103	0x3e6af98f	0.22946762
104	0x3f19ac5a	0.6002861
105	0x3f028fe3	0.51000804
106	0x3ea29cc2	0.31760222
107	0x3e922fae	0.28552002
108	0x3eb1d975	0.3473622
109	0x3ea07717	0.31340858
110	0x3de4311a	0.11142178
111	0x3e2c7979	0.16843213
112	0x3ebe4842	0.37164503
113	0x3f0e924e	0.55691993
114	0x3e22f533	0.15913849
115	0x3dba6dc3	0.09102967
116	0x3df739a3	0.1207154
117	0x3d6fe338	0.058566302
118	0x3edc7904	0.43061078
119	0x3eb4200b	0.35180697
120	0x3eef44f4	0.46732295
121	0x3e8be029	0.27319458
122	0x3dc0a6a6	0.09406786
123	0x3e2d9916	0.16952929
124	0x3e6b3d03	0.22972493
125	0x3e3d4df1	0.18486764
126	0x3ea9d481	0.3316994
127	0x3d399f4b	0.04531793

bn1.running_var f4 [128]
0	0x3e1f79d2	0.15573815
1	0x3dee2fb2	0.11630191
2	0x3d53100e	0.051528983
3	0x3d69f4b5	0.057118136
4	0x3e25aea1	0.16179897
5	0x3d7e6c57	0.06211504
6	0x3be8057e	0.007080733
7	0x3cbbec66	0.022939872
8	0x3e0e0eb2	0.13872793
9	0x3e192e89	0.14959158
10	0x3e2584fc	0.16164011
11	0x3c0c0b94	0.008547682
12	0x3c950f9d	0.018195922
13	0x3d23f493	0.040028166
14	0x3e921e7e	0.2853889
15	0x3cbc3c33	0.022977924
16	0x3df3c6e8	0.11903173
17	0x3e3590dc	0.1773104
18	0x3ddea4ef	0.10871302
19	0x3db0f092	0.08639635
20	0x3cc36fde	0.023857053
21	0x390ea710	0.00013604411
22	0x3be07519	0.0068498966
23	0x3d7b9a6f	0.061426576
24	0x3e404f6f	0.18780302
25	0x3e17449e	0.14772269
26	0x3d879164	0.06619528
27	0x3b41ca47	0.002957003
28	0x3daae10f	0.08343708
29	0x3df7225b	0.120671
30	0x3dc29829	0.095016785
31	0x3d0e9968	0.03481427
32	0x3d05d36c	0.03267233
33	0x3e30e830	0.17276073
34	0x3c0f1c69	0.008734801
35	0x3d6280ec	0.05529873
36	0x3e330efd	0.17486186
37	0x3c5c2aeb	0.013437967
38	0x3bd109a2	0.006379322
39	0x3e24f1a2	0.161078
40	0x3d419b7d	0.047267426
41	0x3e04f3b2	0.12983587
42	0x3dabfa10	0.08397305
43	0x3c8f6048	0.017501965
44	0x3cf900a5	0.030395815
45	0x3e53e70d	0.20693608
46	0x3d3b97d8	0.045799106
47	0x3d764bff	0.06013107
48	0x3cc05a6e	0.02348062
49	0x3e67a955	0.22623189
50	0x39bff6f1	0.00036614345
51	0x3e2a78f7	0.16647707
52	0x3d8794ef	0.06620204
53	0x3e0f4651	0.13991667
54	0x3da4add3	0.08040967
55	0x3e00306e	0.12518474
56	0x3d39bc50	0.045345604
57	0x3d893b91	0.067008145
58	0x3dc3cbf0	0.09560382
59	0x3e4f105e	0.20221087
60	0x3d94b969	0.07261927
61	0x3d6f0299	0.058352087
62	0x39a42c0d	0.00031313338
63	0x3d698efd	0.05702113
64	0x3e86493c	0.26227748
65	0x39316725	0.0001691846
66	0x3dbc9e1f	0.09209847
67	0x3c8462d2	0.016160402
68	0x3c70c08b	0.014694343
69	0x3df0c17b	0.117556535
70	0x3e1316d6	0.1436418
71	0x3e485538	0.19563758
72	0x3c0fe1e6	0.008781886
73	0x3e199e98	0.15001905
74	0x3e182cda	0.1486086
75	0x3d9cf834	0.076645285
76	0x3e7839f8	0.24240863
77	0x3e2d21e6	0.16907462
78	0x3dbaf868	0.09129411
79	0x3d8812f1	0.06644238
80	0x3d9f7df9	0.07787699
81	0x3bde5f32	0.0067862505
82	0x39b1045a	0.00033763313
83	0x3c809306	0.015695106
84	0x3e075a40	0.13218021
85	0x3e0fdc81	0.1404896
86	0x3ead4a75	0.3384587
87	0x3e01e3bc	0.1268453
88	0x3e8b6a04	0.2722932
89	0x3dc38a07	0.09547811
90	0x3cc18544	0.023623116
91	0x3e598f64	0.21246105
92	0x3d4ff7b8	0.050773352
93	0x3d613e1e	0.05499088
94	0x3c1c655e	0.009545652
95	0x3e1510a1	0.14557125
96	0x3dce44e6	0.10071735
97	0x3dd9f811	0.10643018
98	0x3daa04f8	0.08301729
99	0x3da5fc83	0.081048034
100	0x3ab78b97	0.0014003393
101	0x3ca32b88	0.019918218
102	0x3d43c6e4	0.0477971
103	0x3e46f042	0.19427589
104	0x3eaaad7c	0.33335483
105	0x3ed143ee	0.4087214
106	0x3d96eccc	0.07369384
107	0x3e369211	0.17829157
108	0x3e291a5f	0.16513966
109	0x3e370ac3	0.17875199
110	0x3d825d45	0.06365446
111	0x3d84d83b	0.06486555
112	0x3d831806	0.064010665
113	0x3d410543	0.04712416
114	0x3d392ee7	0.045210745
115	0x3d36b33d	0.04460453
116	0x3d4593a7	0.048236515
117	0x3d12d162	0.035844214
118	0x3e1d3ae3	0.15354495
119	0x3e35aaf6	0.17740998
120	0x3e38ce2f	0.18047403
121	0x3e1d00d8	0.15332353
122	0x3d38dfd3	0.04513533
123	0x3e1ad6f5	0.15121062
124	0x3dd7adf0	0.10531223
125	0x3e015c49	0.1263286
126	0x3e05c7fb	0.13064568
127	0x3ce222f5	0.02760456

conv2.weight f4 [128, 128, 3]
0	0x3d26d9a0	0.040734887
1	0xbe1e9d47	-0.15489684
2	0xbe36a728	-0.17837203
3	0xbd09cd1b	-0.03364287
4	0x3c5183b3	0.012787747
5	0xbe878564	-0.26468956
6	0xbddd6d44	-0.108118564
7	0xbca3eded	-0.020010913
8	0x3e9609b5	0.2930428
9	0x3d13e06d	0.0361027
10	0xbe16ac38	-0.14714134
11	0x3db72857	0.08943241
12	0x3ca526cb	0.0201601
13	0xbef10cf3	-0.47080192
14	0xbe815072	-0.25256687
15	0xbddc5a33	-0.10759392
16	0xbdb1bdd2	-0.086787835
17	0xbe39f48b	-0.18159692
18	0xbe89639f	-0.26833817
19	0x3d0e5ff4	0.034759477
20	0x3e1d70c3	0.15375046
21	0xbdb6fe44	-0.08935216
22	0x3e21335d	0.1574225
23	0x3df22f23	0.11825397
24	0xbd71cdf4	-0.059034303
25	0xbceae3f6	-0.028673153
26	0xbcb982e9	-0.02264543
27	0xbe26d496	-0.16292033
28	0xbc89330c	-0.016747974
29	0x3d4f654b	0.05063371
30	0x3d90c0a8	0.07067996
31	0xbd990033	-0.07470741
32	0xbd838322	-0.06421496
33	0x3e07ad94	0.13249809
34	0x3a8bad21	0.0010656455
35	0x3d8779da	0.06615038
36	0xbde1b2a6	-0.110204026
37	0x3cb007ca	0.02148809
38	0xbcfdfa6a	-0.031003196
39	0xbd14361c	-0.036184415
40	0x3e37d7d2	0.17953423
41	0x3cbbaf09	0.022910612
42	0xbd421ee2	-0.047392733
43	0xbe4cbfd1	-0.19995047
44	0xbd826c42	-0.06368305
45	0x3c6d68c8	0.014490314
46	0xbe6fef79	-0.23431195
47	0x3d1851b8	0.037187308
48	0xbd8bd734	-0.06828156
49	0x3e1dc990	0.15408921
50	0xbde44bff	-0.111473076
51	0xbdffbb00	-0.12486839
52	0xbea34839	-0.3189104
53	0x3dad59e8	0.08464414
54	0xbe2e62d9	-0.17029895
55	0xbe952395	-0.2912871
56	0xbdc545dd	-0.09632466
57	0xbe38e868	-0.18057406
58	0x3d4e4fa3	0.050368916
59	0x3ddb781d	0.10716269
60	0x3b96cf0a	0.0046023177
61	0x3ca9fefe	0.020751473
62	0x3e485d34	0.19566804
63	0x3e188581	0.14894678
64	0x3d728840	0.05921197
65	0xbe0b7315	-0.13618119
66	0xbe08cdcb	-0.13359754
67	0x3e080129	0.13281693
68	0xbee23da7	-0.44187662
69	0x3d85de82	0.065365806
70	0xbdf27e9a	-0.118405536
71	0x3da35069	0.079743214
72	0xbd748632	-0.05969829
73	0x3d9dae1a	0.07699223
74	0xbe073190	-0.132025
75	0xbd8a04d4	-0.06739202
76	0xbe37c9ac	-0.17948025
77	0x3e446c02	0.19181827
78	0x3d5ae76b	0.053443354
79	0xbd780e74	-0.06056066
80	0xbe42602f	-0.18982004
81	0xbe264aa3	-0.16239409
82	0xbe5a26a5	-0.21303804
83	0xbd304422	-0.043033727
84	0x3d87f884	0.066391975
85	0xbe86fc41	-0.2636433
86	0xbcb7207a	-0.022354353
87	0xbd84a339	-0.06476445
88	0xbe40de2c	-0.18834752
89	0x3e4b68d9	0.19864215
90	0xbe1a8c5e	-0.15092608
91	0xbec61aa7	-0.3869221
92	0x3c92dd7f	0.017927883
93	0x3d9d5cb9	0.07683701
94	0x3d65cd2d	0.056103874
95	0xbe31869f	-0.1733651
96	0xbe7bc352	-0.24586228
97	0xbd837f51	-0.06420768
98	0xbe322772	-0.1739786
99	0xbc85c0c9	-0.016327279
100	0xbda9520f	-0.082676046
101	0x3dd87557	0.10569256
102	0xbcfff5e5	-0.031245181
103	0x3d46e0b2	0.04855413
104	0x3e149784	0.14510924
105	0xbd640059	-0.055664394
106	0xbe282e45	-0.164239
107	0xbdd21a03	-0.102588676
108	0xbd8cccbe	-0.06874989
109	0xbd39c909	-0.045357738
110	0x3e806536	0.25077218
111	0xbe80146e	-0.25015587
112	0xbbe74c88	-0.007058684
113	0x3c01eb64	0.007929657
114	0x3c6c0a42	0.0144067425
115	0xbe44ee21	-0.19231464
116	0xbe04f6a2	-0.12984708
117	0xbd10900f	-0.035293635
118	0xbc333c26	-0.0109396335
119	0xbd9b955e	-0.07596849
120	0x3d90ce03	0.070705436
121	0x3d7d02f2	0.061770387
122	0xbdcc68bc	-0.09980914
123	0xbc734fa9	-0.014850535
124	0xbc17a4e0	-0.009255618
125	0xbd3a335c	-0.045459136
126	0xbdd046dc	-0.10169765
127	0xbe4db3bc	-0.20088094
128	0x3e67c1f6	0.22632584
129	0xbe56a88f	-0.20962738
130	0xbdc6719d	-0.09689639
131	0xbd8d2585	-0.06891922
132	0xbe3b8879	-0.18313779
133	0x3e85a4da	0.26102334
134	0x3d8e7aa6	0.06956987
135	0xbd8145d2	-0.06312145
136	0x3dcdf4ca	0.100564554
137	0xbdb8f826	-0.090317056
138	0x3e039e12	0.12853268
139	0xbe405e81	-0.1878605
140	0xbd2ca2fb	-0.042147618
141	0xbd775a07	-0.06038859
142	0x3e407666	0.18795165
143	0x3e04fae0	0.12986326
144	0xbdd136a8	-0.10215503
145	0xbd998858	-0.07496709
146	0x3e7561ec	0.23963135
147	0xbd56f9de	-0.052484386
148	0xbe426c0c	-0.18986529
149	0x3e751776	0.23934731
150	0xbe59de91	-0.21276309
151	0xbb172978	-0.0023065489
152	0xbe17fc26	-0.14842281
153	0xbcafc6d3	-0.021457111
154	0x3e0267f9	0.12734975
155	0x3d980e6e	0.07424627
156	0xbdab81bb	-0.083743535
157	0xbe67f8e9	-0.22653545
158	0xbde426ed	-0.11140237
159	0xbd21375b	-0.03935943
160	0xbda21f25	-0.079160966
161	0xb977c324	-0.00023628451
162	0x3bbd34fb	0.005774138
163	0xbd32ba16	-0.043634497
164	0x3e0f73cd	0.14009018
165	0xbe47d24e	-0.19513819
166	0xbe43a31f	-0.19105195
167	0x3e0bcc46	0.13652143
168	0x3d9cc062	0.076538816
169	0x3dddc807	0.10829168
170	0xbd79c824	-0.060981885
171	0xbdf23670	-0.118267894
172	0xbc5fff17	-0.013671658
173	0x3d8b102b	0.06790193
174	0xbe37a3f6	-0.1793364
175	0x3bbebba6	0.0058207093
176	0x3d0e9f82	0.034820087
177	0xbe4a1be0	-0.19737196
178	0xbe0060a6	-0.12536868
179	0xbcfd0c8f	-0.030889777
180	0xbd2bb531	-0.041920844
181	0x3d91dabc	0.071217984
182	0x3c509cda	0.012732709
183	0x3e0458d5	0.12924512
184	0xbd9f193e	-0.077684864
185	0x3e54bf9d	0.2077622
186	0xbe1229d9	-0.14273776
187	0x3e8912e7	0.26772234
188	0xbce7086a	-0.028202254
189	0x3d06edc9	0.032941613
190	0x3c286a87	0.010279304
191	0xbd215bc4	-0.039394155
192	0xbd8c74f9	-0.06858248
193	0xbe2b6dea	-0.16741148
194	0xbd98492f	-0.07435834
195	0x3e23abe3	0.15983538
196	0x3da1fb82	0.079092994
197	0xbc896193	-0.01677016
198	0xbdb55f7e	-0.08856104
199	0xbccac233	-0.024750805
200	0x3de25159	0.11050672
201	0xbc47e095	-0.012199541
202	0x3e22d756	0.15902457
203	0x3e800a3a	0.25007802
204	0xbea48a3c	-0.32136714
205	0xbd8a3bf4	-0.067497164
206	0xbd1ad158	-0.037797302
207	0xbb4267f6	-0.0029664016
208	0xbd76441b	-0.060123544
209	0x3e189338	0.1489991
210	0xbd8eda6a	-0.06975253
211	0xbe033ccf	-0.12816165
212	0x3e7ad13a	0.24493876
213	0xbe0d285d	-0.13784929
214	0xbd99cf3d	-0.07510231
215	0x3e59edd4	0.2128213
216	0xbbf94b16	-0.007607828
217	0x3c54420a	0.012955198
218	0x3d98d463	0.074623846
219	0xbdc87b4f	-0.09789144
220	0xbeb3727e	-0.35048288
221	0x3e003809	0.12521376
222	0xbdfa3811	-0.12217725
223	0x3dc28399	0.094977565
224	0x3c1f5827	0.009725607
225	0xbdd712f0	-0.10501659
226	0xbe3bd2ba	-0.18342105
227	0x3ccdd45b	0.025125673
228	0xbb78e717	-0.0037979537
229	0x3bbdb04e	0.0057888394
230	0xbd94cc31	-0.07265509
231	0xbcd18f0a	-0.025580902
232	0xbef41905	-0.47675338
233	0xbe994bde	-0.29940695
234	0x3ca8234d	0.020524645
235	0xbd26c423	-0.040714394
236	0xbdb7c1c0	-0.08972502
237	0xbd4ec796	-0.05048331
238	0x3d2dc7f9	0.042427037
239	0xbd864879	-0.06556792
240	0x3d138e0f	0.03602415
241	0x3d895f10	0.06707585
242	0xbd3a4af4	-0.045481637
243	0xbe5a542b	-0.2132117
244	0xbe50023d	-0.20313354
245	0x3d03f3e2	0.032215007
246	0xbcc9a00d	-0.024612451
247	0xbe0b7545	-0.13618954
248	0xbe4ac6b2	-0.19802359
249	0xbdda7aff	-0.10667991
250	0xbd407ffd	-0.04699706
251	0xbcb11732	-0.021617506
252	0xbce723a8	-0.028215244
253	0x3db7358b	0.089457594
254	0x3d2e7435	0.042591292
255	0xbdd8bd27	-0.10582953

conv2.bias f4 [128]
0	0xbe5e5f99	-0.21716155
1	0xbb5a749e	-0.003333367
2	0xbddf1973	-0.10893526
3	0xbe731a22	-0.23740438
4	0xbe54e0ef	-0.2078893
5	0xbe738f54	-0.23785144
6	0x3dea79b1	0.11448992
7	0xbe827eb3	-0.2548729
8	0xbea5402c	-0.32275522
9	0x3a89ebbe	0.0010522527
10	0xbe0ccfde	-0.1375117
11	0xbdb47404	-0.08811191
12	0xbee47291	-0.44618657
13	0xbe5eb510	-0.21748757
14	0xbdcf7467	-0.10129624
15	0xbe348e9c	-0.17632526
16	0xbe08e5b5	-0.13368876
17	0xbdd6507c	-0.1046457
18	0xbe49ea0d	-0.1971819
19	0xbdfaa6de	-0.12238859
20	0xbde8a682	-0.11359884
21	0xbdc7e52b	-0.09760507
22	0xbeb0d03c	-0.3453387
23	0xbdd90285	-0.10596184
24	0xbe8a102f	-0.26965472
25	0xbdef7069	-0.116913624
26	0xbd1c3499	-0.0381361
27	0xbd6f120b	-0.058366816
28	0xbd9e3ecb	-0.077268206
29	0xbdda553e	-0.1066079
30	0xbe4e9c58	-0.20176828
31	0xbd8f4a35	-0.06996576
32	0xbe0019b6	-0.12509808
33	0xbe586ef5	-0.21136077
34	0x3dafff69	0.085936375
35	0x3dd6531b	0.1046507
36	0xbd24c28e	-0.040224604
37	0x3cfbcc92	0.030737195
38	0xbdb7b7ca	-0.08970602
39	0xbe19012d	-0.14941855
40	0xbe00a014	-0.12561065
41	0xbde702ec	-0.11279854
42	0xbe2343dd	-0.15943857
43	0xbcd659f2	-0.026165936
44	0xbe21d93c	-0.15805525
45	0xbe63c704	-0.22243887
46	0xbe1fafe9	-0.15594448
47	0xbea26faa	-0.31725818
48	0xbddfc27e	-0.10925768
49	0xbe062e10	-0.13103509
50	0xbe03d97b	-0.12875931
51	0xbe5ff4ad	-0.2187068
52	0xbe28f165	-0.16498335
53	0xbe970ce2	-0.29502016
54	0xbc8bff31	-0.017089458
55	0xbc4b485f	-0.012407391
56	0xbe83607b	-0.25659546
57	0xbe850e64	-0.25987542
58	0xbe263b62	-0.1623359
59	0xbdf2bf16	-0.11852853
60	0xbe8afe5f	-0.27147195
61	0x3e39702f	0.18109201
62	0xbe83a8a9	-0.25714615
63	0xbe265bf5	-0.16246016
64	0xbe33f338	-0.1757325
65	0xbe454892	-0.19265965
66	0xbe87793d	-0.26459685
67	0xbe5c68df	-0.2152438
68	0xbdffa076	-0.12481777
69	0x3e8c214d	0.27369156
70	0xbcc4563a	-0.023966897
71	0xbe456717	-0.19277607
72	0xbde4b4d6	-0.11167304
73	0xbd9c97d6	-0.07646148
74	0xbe0fb382	-0.1403332
75	0xbe6c4ef3	-0.23076992
76	0xbda7314e	-0.08163701
77	0xbd7cd6d2	-0.061728306
78	0xbe29f4ae	-0.16597244
79	0xbc46185e	-0.0120907705
80	0x3c1b5366	0.009480333
81	0xbe3ae8e1	-0.18252899
82	0x3d8ca767	0.06867867
83	0xbe8661b1	-0.26246408
84	0xbe0731f6	-0.13202652
85	0xbd88afb3	-0.06674137
86	0x3db4c86f	0.08827292
87	0xbead9f4a	-0.3391059
88	0x3dd36ab2	0.10323085
89	0xbe7db0d5	-0.24774487
90	0xbea0fc2f	-0.314424
91	0xbe495577	-0.19661509
92	0xbe14aa96	-0.14518198
93	0xbe060985	-0.13089569
94	0xbdf8acb4	-0.121423155
95	0xbe433501	-0.19063188
96	0x3b93fcfa	0.004516241
97	0x3ed59853	0.41717777
98	0xbe1d3707	-0.15353023
99	0xbe050f71	-0.12994172
100	0xbeb57cd9	-0.35446814
101	0xbd50ff4c	-0.05102472
102	0xbe02f202	-0.12787631
103	0xbdeeb062	-0.11654736
104	0xbe6b39c5	-0.22971256
105	0xbe235749	-0.15951265
106	0xbe10fb72	-0.14158419
107	0xbe155c1e	-0.14585921
108	0x3c89976f	0.016795842
109	0xbe66669b	-0.22500078
110	0xbe97473c	-0.29546535
111	0xbe84ac4f	-0.2591271
112	0xbe68382a	-0.22677675
113	0x3d307086	0.04307606
114	0xbe927ba8	-0.28609967
115	0xbe6c392f	-0.23068689
116	0xbdd3a399	-0.10333938
117	0xbe2ad7c5	-0.16683872
118	0xbe3e0ada	-0.18558827
119	0xbe10ee76	-0.14153466
120	0xbe5c400c	-0.21508807
121	0xbdc1f136	-0.094698355
122	0xbdb91bb6	-0.090384886
123	0xbde5ae51	-0.11214889
124	0xbe107dd7	-0.14110504
125	0x3df2767d	0.11839006
126	0xbea6e247	-0.3259451
127	0x3bbce8c2	0.0057650516

bn2.weight f4 [128]
0	0x3f753434	0.9578278
1	0x3f511992	0.8167964
2	0x3f73091c	0.94935775
3	0x3f54a8d4	0.8307011
4	0x3f821b9b	1.0164675
5	0x3f8b0ae4	1.0862699
6	0x3f69b7c2	0.9129602
7	0x3f5d3e59	0.8642326
8	0x3f871191	1.0552236
9	0x3f552b5c	0.83269286
10	0x3f816095	1.01076
11	0x3f41ae33	0.7565643
12	0x3f84619a	1.0342286
13	0x3f8813f0	1.0631084
14	0x3f4b4502	0.7940217
15	0x3f24e0cc	0.6440551
16	0x3f8a1e46	1.0790489
17	0x3f7f5266	0.99735105
18	0x3f854b6e	1.0413644
19	0x3f6ba383	0.92046374
20	0x3f57aaca	0.8424498
21	0x3f83579d	1.0261112
22	0x3f81d319	1.0142547
23	0x3f5d08c3	0.86341494
24	0x3f75da42	0.9603616
25	0x3f8162a8	1.0108232
26	0x3f70bacf	0.9403505
27	0x3f5c4ec1	0.8605767
28	0x3f56a341	0.83842856
29	0x3f5b79ca	0.8573271
30	0x3f4e723c	0.8064306
31	0x3f56a6f6	0.8384851
32	0x3f51f18a	0.82009184
33	0x3f40112e	0.75026214
34	0x3f51d154	0.81960034
35	0x3f680d2d	0.90645105
36	0x3f860496	1.047015
37	0x3f7feef1	0.9997397
38	0x3f616a9c	0.880533
39	0x3f647ebf	0.892559
40	0x3f4fbaf6	0.81144655
41	0x3f69e3d8	0.91363287
42	0x3f9016ce	1.125696
43	0x3f7645c8	0.9620023
44	0x3f8beed4	1.093226
45	0x3f5d6b2d	0.8649166
46	0x3f6ebe12	0.93258774
47	0x3f5fe5a9	0.8745981
48	0x3f6906db	0.91026086
49	0x3f7e8f43	0.9943735
50	0x3f65706c	0.8962467
51	0x3f63b952	0.8895465
52	0x3f788911	0.97084147
53	0x3f78df16	0.972154
54	0x3f65d047	0.8977093
55	0x3f5e50a5	0.86841804
56	0x3f7c51a7	0.9856209
57	0x3f4cfbf1	0.8007193
58	0x3f453381	0.77031714
59	0x3f415e48	0.75534487
60	0x3f5a35a3	0.85238093
61	0x3f523017	0.8210463
62	0x3f835e0c	1.0263076
63	0x3f81716f	1.0112742
64	0x3f62e0ec	0.88624454
65	0x3f9064f1	1.1280805
66	0x3f786ae8	0.97038126
67	0x3f4d61b1	0.8022719
68	0x3f612a35	0.8795503
69	0x3f7fcb4b	0.99919575
70	0x3f44a67e	0.76816547
71	0x3f4a4dbe	0.79024875
72	0x3f6c6749	0.923451
73	0x3f8af0f1	1.085478
74	0x3f6b985e	0.9202937
75	0x3f4ee998	0.80825186
76	0x3f7069e2	0.93911564
77	0x3f67df50	0.9057512
78	0x3f77285e	0.9654597
79	0x3f3eaa71	0.7447882
80	0x3f7fe6d4	0.9996159
81	0x3f808d29	1.0043079
82	0x3f3bd835	0.7337678
83	0x3f239061	0.6389218
84	0x3f722eec	0.9460285
85	0x3f558406	0.83404577
86	0x3f7c1c41	0.9848061
87	0x3f5fc89a	0.8741547
88	0x3f51fe79	0.8202892
89	0x3f599c80	0.85004425
90	0x3f8ffd9f	1.1249274
91	0x3f418847	0.7559857
92	0x3f6ab828	0.9168725
93	0x3f7dfc7f	0.99213403
94	0x3f377b46	0.71672475
95	0x3f862034	1.0478578
96	0x3f6276dd	0.8846262
97	0x3f7acc88	0.9796834
98	0x3f69888d	0.91223985
99	0x3f498285	0.7871478
100	0x3f7e388c	0.99305034
101	0x3f756646	0.9585918
102	0x3f8186dc	1.0119281
103	0x3f763483	0.96173877
104	0x3f5862ff	0.84526056
105	0x3f7dc40d	0.99127275
106	0x3f45230a	0.7700659
107	0x3f507d74	0.81441426
108	0x3f64ebca	0.89422286
109	0x3f4caee4	0.7995436
110	0x3f6d8ed9	0.92796093
111	0x3f8cb8c6	1.0993888
112	0x3f956dab	1.1674093
113	0x3f33c8ff	0.7022857
114	0x3f50b450	0.81525135
115	0x3f77fe1c	0.96872115
116	0x3f4b436c	0.7939975
117	0x3f7bb0cd	0.9831665
118	0x3f6a3808	0.91491747
119	0x3f650378	0.8945842
120	0x3f387259	0.7204948
121	0x3f708ea0	0.9396763
122	0x3f72d59a	0.9485718
123	0x3f8fc461	1.1231805
124	0x3f4e7e5b	0.80661553
125	0x3f6cf1e4	0.92556596
126	0x3f7c5b5d	0.9857691
127	0x3f858060	1.0429802

bn2.bias f4 [128]
0	0xbe0a55c0	-0.13509274
1	0xbd001f62	-0.03127993
2	0xbce01edc	-0.027358465
3	0xbd78e3ea	-0.06076423
4	0xbc85f0ce	-0.016350176
5	0x3e482485	0.19545181
6	0xbdb54a81	-0.08852101
7	0x3dd73848	0.10508782
8	0x3d0a7e74	0.033812
9	0x3e2edf27	0.17077313
10	0x3d8eb2b2	0.06967677
11	0x3e0859c5	0.13315494
12	0x3d05ed5a	0.03269706
13	0xbd8c2b2e	-0.06844173
14	0xbe3f1a5c	-0.18662399
15	0xba0ab019	-0.0005290523
16	0x3da77f80	0.081786156
17	0xbe000c6b	-0.12504737
18	0xbc79e043	-0.015251222
19	0xbb849f41	-0.004047305
20	0xbd2427e6	-0.040077113
21	0xbe881d30	-0.26584768
22	0x3d983b2d	0.07433162
23	0x3cf63420	0.030054152
24	0xbda962da	-0.082708076
25	0x3d7ef1f5	0.062242467
26	0xbd5ac252	-0.053407975
27	0xbdd8fa0c	-0.10594568
28	0x3d511564	0.05104579
29	0x3d1f2521	0.03885377
30	0xbd450582	-0.048100956
31	0x3de37b2a	0.11107476
32	0x3d551e05	0.052030582
33	0x3bf3d3f5	0.0074410387
34	0xbe274c44	-0.16337687
35	0xbe2a7ba3	-0.16648726
36	0x3d3d5bd7	0.046230163
37	0x3e3aab69	0.1822945
38	0x3db6e543	0.08930447
39	0x3dd5907e	0.1042795
40	0xbd0929d1	-0.033487145
41	0xbd859e4a	-0.06524332
42	0xbb5787bb	-0.0032887298
43	0x3e197231	0.14984967
44	0x3e659ab7	0.224223
45	0xbd4ca647	-0.049963262
46	0x3b13706b	0.0022497426
47	0x3e13f668	0.14449465
48	0x3ddc522e	0.10757862
49	0x3d13e4c1	0.03610683
50	0x385cade8	5.261405e-05
51	0x3e3dc289	0.1853124
52	0x3d6c779e	0.057731263
53	0x3ced7b66	0.028989505
54	0xbe2c7824	-0.16842705
55	0xbdd8884f	-0.10572874
56	0x3b6d3a5a	0.003619811
57	0x3e53759b	0.20650332
58	0x3ccd4514	0.025057353
59	0xbd6b1832	-0.05739612
60	0x3e02e3da	0.12782231
61	0xbd81d105	-0.063386954
62	0x3da7caf9	0.08193011
63	0xbab1b0f8	-0.0013556769
64	0x3e3505dd	0.17678018
65	0xbe170b65	-0.1475044
66	0xbe0d6509	-0.13808073
67	0xbd90a053	-0.070618294
68	0xbdccbe4e	-0.09997235
69	0x3c9a4e81	0.018836262
70	0x3d5ec416	0.05438622
71	0xbc48b67b	-0.012250538
72	0x3dc3ae91	0.0955478
73	0x3e140269	0.14454044
74	0x3c7b7162	0.015346857
75	0xbd439c5f	-0.04775655
76	0x3c03e994	0.008051295
77	0xbc9b77af	-0.018977968
78	0x3dd0ff33	0.102049254
79	0xbc15905a	-0.009128654
80	0xbe475477	-0.19465815
81	0x3da9688b	0.08271893
82	0xbe0f2e72	-0.13982561
83	0x3c4c05c9	0.012452551
84	0x3e183957	0.14865623
85	0x3e3377d5	0.17526181
86	0x3ce6b856	0.02816407
87	0x3c6f05f4	0.014588822
88	0xbd84d2c7	-0.06485515
89	0x3de64b30	0.1124481
90	0x3e0ebf0d	0.13940068
91	0x3cb4ecfe	0.022085663
92	0x3d4a2e03	0.049360286
93	0x3d73874d	0.059455205
94	0xbcf79f4b	-0.030227324
95	0x3d93c13c	0.07214591
96	0x3ca4c866	0.020115089
97	0xbe3f78bc	-0.186984
98	0xbda9f913	-0.0829946
99	0xbdad8aad	-0.08473716
100	0x3cb09aa8	0.02155812
101	0x3dd02809	0.10163886
102	0xbe1a7252	-0.15082672
103	0xbde5bcbc	-0.11217639
104	0x3d59ec73	0.05320401
105	0x3e946464	0.28982842
106	0xbd7de4f5	-0.06198593
107	0x3dae6af8	0.085164964
108	0x3b97fc33	0.004638219
109	0xbdb95027	-0.09048491
110	0x3df82c6f	0.1211785
111	0x3ccfb306	0.02535392
112	0x3e38c457	0.18043648
113	0xbd9e25fc	-0.07722089
114	0x3e3b90a3	0.18316893
115	0x3d9f837c	0.077887505
116	0xbccab246	-0.02474321
117	0x3e06166b	0.1309449
118	0x3e01b537	0.12666784
119	0x3e4cb319	0.19990195
120	0xbd247a92	-0.040155955
121	0xbb1d66f4	-0.0024017664
122	0xbce3e612	-0.027819667
123	0xbb98f7ee	-0.0046682274
124	0x3d8e5fd4	0.069518715
125	0x3c4a0805	0.012331014
126	0x3e5fceda	0.21856251
127	0x3d9a00d5	0.0751969

bn2.running_mean f4 [128]
0	0x3fa81ac0	1.3133163
1	0x3ff1e311	1.889742
2	0x3eee0b06	0.46492785
3	0x3f7f339c	0.99688125
4	0x3efcc9a7	0.493726
5	0x3f52813f	0.82228464
6	0x3fe96988	1.823533
7	0x3e4e1f30	0.20129085
8	0x3f04166a	0.515967
9	0x3ebb6bef	0.36605784
10	0x3ecbe8dd	0.39826098
11	0x3fccae9c	1.5990787
12	0x3f15ce3c	0.58517814
13	0x3f55f778	0.8358073
14	0x3f32d8ac	0.69861865
15	0x400d53dc	2.2082434
16	0x3f66e38e	0.9019097
17	0x3fa59a90	1.2937794
18	0x3ee6228b	0.4494823
19	0x4026fdb4	2.6092348
20	0x3f899da2	1.0751231
21	0x3f024d3a	0.5089909
22	0x3ed8619e	0.42261976
23	0x3f8274d3	1.0191902
24	0x3e7f48f7	0.24930178
25	0x3f295673	0.66147536
26	0x3f9b6cf2	1.2142622
27	0x3f51076a	0.8165194
28	0x3ef97fa0	0.48730183
29	0x3e2adfb9	0.16686906
30	0x3f093f1d	0.5361193
31	0x3e34dd13	0.17662458
32	0x3f538b59	0.826345
33	0x3e321934	0.17392427
34	0x3f8e03ba	1.1094887
35	0x4026f0a5	2.6084378
36	0x3f36da52	0.7142688
37	0x3f845c37	1.0340642
38	0x3f708717	0.9395613
39	0x3f0b1c6f	0.5434026
40	0x3f6948bc	0.9112661
41	0x3f375f48	0.7162976
42	0x3f4c44bd	0.79792386
43	0x3efdd2f5	0.4957501
44	0x3e547f69	0.20751728
45	0x3efba4b0	0.49149084
46	0x3ee2eeb4	0.4432274
47	0x3ed7984d	0.42108384
48	0x3f54f901	0.8319245
49	0x3e28a51e	0.16469237
50	0x3f017f2e	0.50584686
51	0x3e29ec70	0.165941
52	0x3f22907d	0.6350172
53	0x3f612988	0.87953997
54	0x3f82561f	1.0182532
55	0x3f7e4c0d	0.99334794
56	0x3f9e3d4c	1.2362456
57	0x3e3b5774	0.1829508
58	0x3f8a9770	1.0827465
59	0x3f88e116	1.0693691
60	0x3eac5419	0.3365791
61	0x4010a83f	2.260269
62	0x400becde	2.1863322
63	0x3f78bdf5	0.9716485
64	0x3eff1656	0.49821728
65	0x3f7451c0	0.9543724
66	0x3ee40307	0.4453356
67	0x3e7dea0c	0.24796313
68	0x3f02f46a	0.51154196
69	0x404f7941	3.2417758
70	0x3de2bd12	0.110712186
71	0x3eeb4f1e	0.459588
72	0x3ef61c30	0.4806838
73	0x3e9eabdd	0.30990496
74	0x3eed3978	0.46332908
75	0x3f0ea8c2	0.55726254
76	0x3f12c96f	0.57338613
77	0x3f0fe80a	0.5621344
78	0x3e9771c7	0.29578993
79	0x3f3a3d1b	0.7274949
80	0x3f5cc630	0.8623991
81	0x3f22c8b2	0.63587487
82	0x3f9cd5b8	1.2252722
83	0x3e951c38	0.29123092
84	0x3f2829f4	0.65689015
85	0x3ebf3bed	0.37350407
86	0x3f912b57	1.1341351
87	0x3e7478d5	0.23874219
88	0x40078bb7	2.1179025
89	0x3e6e607e	0.23278996
90	0x3f3590af	0.70923895
91	0x3ea7f68c	0.32805288
92	0x3ed03c10	0.40670824
93	0x3f9070a9	1.1284381
94	0x3ec18d60	0.37803173
95	0x3e514881	0.20437814
96	0x3fa39124	1.2778668
97	0x4055fd13	3.3435714
98	0x3f57e9b5	0.84340984
99	0x3f67f399	0.90606076
100	0x3f4ed647	0.8079571
101	0x3f83014d	1.0234772
102	0x3f21b9ae	0.6317395
103	0x3ef08a53	0.46980533
104	0x3f7bf73f	0.9842414
105	0x3f4bb905	0.7957919
106	0x3eb7d228	0.35902524
107	0x3e34b9a6	0.17648944
108	0x3f9c70eb	1.222196
109	0x3f787f0d	0.97068864
110	0x3ef2f96a	0.47455913
111	0x3ed54ccd	0.41660157
112	0x3e55fca3	0.20897155
113	0x3fbe96c8	1.4889765
114	0x3e11ddd7	0.14244781
115	0x3fe756f4	1.8073411
116	0x3f147846	0.5799602
117	0x3f1ea3a5	0.6196845
118	0x3e1505f8	0.14553058
119	0x3f5e710c	0.86891246
120	0x3ecb0b42	0.39657027
121	0x3f2b1850	0.6683397
122	0x3f3db91b	0.74110574
123	0x3f1cf118	0.6130538
124	0x3efb67f0	0.49102736
125	0x3f89d448	1.0767908
126	0x3e660c9f	0.22465752
127	0x3f13f8a8	0.57801294

bn2.running_var f4 [128]
0	0x4105fad7	8.37374
1	0x40dba866	6.8643064
2	0x3f88cc6e	1.0687387
3	0x40662d4e	3.5965152
4	0x3fde0016	1.7343776
5	0x40ba2d51	5.818032
6	0x40f30eda	7.595563
7	0x3f5585a6	0.83407056
8	0x405bef77	3.4364908
9	0x3f7aa0e6	0.9790176
10	0x3f87cf2e	1.0610101
11	0x40e19308	7.049198
12	0x40670820	3.609871
13	0x407698b1	3.8530695
14	0x40206e86	2.5067458
15	0x410ff956	8.998373
16	0x40e716c1	7.2215276
17	0x40d0a8ae	6.520591
18	0x3fd207aa	1.6408589
19	0x41807829	16.058672
20	0x4081272a	4.036031
21	0x3f9f908e	1.246599
22	0x401cf8ca	2.4526849
23	0x40c41270	6.1272507
24	0x3f50b8e8	0.81532145
25	0x3fef8aa3	1.8714184
26	0x408695af	4.205772
27	0x4015c55c	2.3401709
28	0x3fa73f1e	1.3066137
29	0x3e94d337	0.29067394
30	0x40124eae	2.2860522
31	0x3ea5a561	0.32352737
32	0x404df948	3.21834
33	0x3edcc260	0.43117046
34	0x405e555f	3.4739606
35	0x41351406	11.317389
36	0x401c59d9	2.4429839
37	0x401c5c1d	2.4431221
38	0x408374c2	4.1080027
39	0x3ff36a74	1.9016862
40	0x402fcaba	2.7467484
41	0x3fda0507	1.7032784
42	0x4063793e	3.554275
43	0x3fab3454	1.3375344
44	0x3f3aee8b	0.7302024
45	0x3fb53fc5	1.4160086
46	0x3f99c7c2	1.2014086
47	0x40383ecc	2.8788328
48	0x40aed58b	5.4635673
49	0x3f07f66d	0.5311039
50	0x406cec8f	3.7019384
51	0x3ef53b09	0.47896603
52	0x40274b66	2.613977
53	0x4056d555	3.3567708
54	0x40286f92	2.6318097
55	0x4049bcad	3.1521409
56	0x40b7fbc0	5.749481
57	0x3f1c7527	0.6111626
58	0x4075e777	3.8422525
59	0x40947317	4.639049
60	0x3fb846bc	1.4396586
61	0x4133a9c3	11.228946
62	0x412e9228	10.910683
63	0x406f17cb	3.7358272
64	0x3fca38d4	1.5798593
65	0x4084969c	4.143385
66	0x3fa14ff3	1.2602524
67	0x3f08157e	0.53157794
68	0x3ff092d8	1.8794813
69	0x415ede62	13.929293
70	0x3e2e4439	0.17018212
71	0x3fd94c59	1.6976424
72	0x3f9218ee	1.1413858
73	0x3f406c00	0.75164795
74	0x3f9aa317	1.2081021
75	0x402c6173	2.6934478
76	0x3fd95c8a	1.6981366
77	0x4001c373	2.0275543
78	0x3f87d790	1.061266
79	0x40315240	2.7706451
80	0x40445979	3.067961
81	0x4031399f	2.769142
82	0x4093bc4b	4.616735
83	0x3f0d3c24	0.5516989
84	0x400b5fb8	2.1777172
85	0x3f861e3f	1.047798
86	0x408ccf01	4.400269
87	0x3f32b6e7	0.69810337
88	0x412c73b9	10.778253
89	0x3f560a4d	0.8360947
90	0x4030f400	2.7648926
91	0x3fbe01be	1.4844282
92	0x3f87cdd2	1.0609686
93	0x408815ba	4.252652
94	0x3f6d115c	0.92604613
95	0x3f0a6e75	0.54074794
96	0x4093e072	4.621148
97	0x4123b37d	10.23132
98	0x4012aa44	2.2916422
99	0x40744fff	3.8173826
100	0x40ae70c3	5.451265
101	0x403ea3d7	2.97875
102	0x4019e669	2.4046881
103	0x3fb88d88	1.4418192
104	0x40a0e347	5.027744
105	0x40555c08	3.3337421
106	0x3fc42128	1.5322618
107	0x3ea95633	0.33073577
108	0x408c2ae2	4.3802347
109	0x40583938	3.3784924
110	0x3fedbf7d	1.8574063
111	0x3f9de74f	1.2336215
112	0x3f9d383a	1.2282784
113	0x40a4bd8c	5.148138
114	0x3eb34d0e	0.35019726
115	0x40feccfe	7.9625235
116	0x4009c59c	2.152686
117	0x3fe60870	1.7971325
118	0x3ea42a58	0.32063556
119	0x40665691	3.5990336
120	0x3fac8efd	1.3481137
121	0x400bc94e	2.1841617
122	0x4041c371	3.0275538
123	0x401dce76	2.4657264
124	0x3fb84dfe	1.4398801
125	0x40989377	4.768001
126	0x3f97b8eb	1.1853307
127	0x3ffedd95	1.9911371
