results/valence/classification/20251225_112423_231865/best_model.pt (torch, 358837 bytes, 16 tensors)

conv1.weight f4 [16, 1, 3, 3]
0.30603692 0.38891366 -0.21636613 0.12004985 -0.26087722 0.018471453 -0.19275802 0.20366505
0.44864765 -0.3032186 0.39903638 0.1580802 0.24436337 0.14671506 0.2146978 -0.074920036
0.33099845 -0.14880154 0.010548934 0.1823276 -0.24890429 -0.12997933 -0.1262965 0.43852943
-0.15088217 -0.17985637 -0.15637164 -0.11867229 0.09274023 -0.423242 0.2536649 -0.36270407
0.35142842 0.10225191 -0.15374266 0.36067116 0.04278073 0.34748054 0.12007954 -0.17650652
0.035218466 -0.4055635 0.16564769 0.30381545 0.10331144 -0.002790212 0.37802792 0.11042648
0.09349004 -0.25332165 -0.38081637 -0.06497932 -0.26048148 0.416653 0.078769565 0.2557194
0.10370767 -0.012177955 0.29723102 -0.41946617 -0.0049330844 -0.2877181 0.13193299 -0.081544966
0.033369653 -0.038536355 0.19241862 -0.2158205 -0.36137924 -0.15596381 0.48054335 0.29663545
0.30525863 -0.34384683 -0.23179598 -0.18360752 -0.3305723 0.1611106 0.14039308 0.5160389
-0.07615956 -0.0011271815 0.36032155 -0.12632474 0.132515 -0.050785035 0.33475515 -0.24266395
-0.36876538 0.21704847 -0.12513001 -0.12370156 0.48579338 0.21186614 -0.180335 -0.2323885
0.34311855 -0.09101328 -0.199956 -0.0070620896 -0.20137683 0.27906072 0.078765936 -0.43566814
0.19696358 -0.18060507 -0.5150591 -0.11219683 -0.14757067 -0.30076575 0.46925646 0.1253719
0.10364594 -0.4613267 -0.1346381 -0.07652126 0.14029129 -0.34887913 -0.09086376 -0.17092262
0.038623985 -0.01856321 -0.10510867 -0.3753114 -0.26795834 -0.36789006 -0.09233506 -0.4438126
0.35539153 0.008661853 0.42225686 0.069048755 -0.18896629 0.17685601 -0.2044943 -0.081561446
-0.44656038 -0.44516763 0.07668741 0.010512218 0.3125027 -0.109613866 0.37273654 -0.20880833
00000000: dfb0 9c3e b11f c73e 158f 5dbe b2dc f53d
00000010: b391 85be 7251 973c 5c62 45be 928d 503e
00000020: 25b5 e53e 783f 9bbe 7f4e cc3e c7df 213e
00000030: 643a 7a3e 793c 163e bdd9 5b3e ad6f 99bd
00000040: a178 a93e 6e5f 18be 70d5 2c3c 16b4 3a3e
00000050: c4e0 7ebe 4d19 05be df53 01be ee86 e03e
00000060: db80 1abe 452c 38be e31f 20be 750a f3bd
00000070: 97ee bd3d 2db3 d8be 5ee0 813e 59b4 b9be
00000080: 6dee b33e 7369 d13d b76e 1dbe e4a9 b83e
00000090: d93a 2f3d f8e8 b13e 43ec f53d 20be 34be
000000a0: 3d41 103d 05a6 cfbe 8c9f 293e b38d 9b3e
000000b0: f394 d33d fddb 36bb e08c c13e 4727 e23d
000000c0: b577 bf3d 60b3 81be 5dfa c2be e113 85bd
000000d0: d45d 85be 8b53 d53e f051 a13d a7ed 823e
000000e0: b064 d43d 0c86 47bc aa2e 983e 45c4 d6be
000000f0: b6a5 a1bb c94f 93be 7119 073e 0c01 a7bd
00000100: 9eae 083d 4cd8 1dbd 6309 453e 0d00 5dbe
00000110: b306 b9be fab4 1fbe c709 f63e 9ae0 973e
00000120: dc4a 9c3e b10c b0be ed5b 6dbe 9c03 3cbe
00000130: c640 a9be 2dfa 243e 34c3 0f3e 201b 043f
00000140: 8bf9 9bbd efbd 93ba 117c b83e 465b 01be
00000150: 03b2 073e f803 50bd 0765 ab3e e67c 78be
00000160: d1ce bcbe f441 5e3e 1522 00be 3e57 fdbd
00000170: e9b9 f83e 70f3 583e bda9 38be 40f7 6dbe
00000180: 3cad af3e 2c65 babd 44c1 4cbe 1a69 e7bb
00000190: ba35 4ebe 0ce1 8e3e 0950 a13d e50f dfbe
000001a0: d2b0 493e 89f0 38be eada 03bf 74c7 e5bd
000001b0: c41c 17be f8fd 99be 6242 f03e 7e61 003e
000001c0: 5344 d43d 0333 ecbe 92de 09be 2eb7 9cbd
000001d0: 85a8 0f3e 49a0 b2be c716 babd 5706 2fbe
000001e0: 2f34 1e3d df11 98bc 3743 d7bd d128 c0be
000001f0: d631 89be 165c bcbe 2a1a bdbd 683b e3be
00000200: e1f5 b53e 72ea 0d3c 0d32 d83e 6f69 8d3d
00000210: 6180 41be be19 353e f466 51be b009 a7bd
00000220: 90a3 e4be 03ed e3be 4a0e 9d3d 703b 2c3c
00000230: 5b00 a03e 3c7d e0bd 53d7 be3e dad1 55be

conv1.bias f4 [16]
0.00086600217 -0.0013838493 -0.0012667746 -0.0013269713 -0.000990772 0.0010910847 0.00017805569 -0.0013078112
-0.0015823726 -0.001229397 0.00063775654 0.00080078864 -0.0014072417 0.0004571971 -0.0012006836 0.0018984844
00000000: 6c04 633a 4762 b5ba e709 a6ba c5ed adba
00000010: cbdc 81ba ba02 8f3a 76b4 3a39 dd6a abba
00000020: 9d67 cfba b823 a1ba 1e2f 273a 04ec 513a
00000030: 3273 b8ba f5b3 ef39 4260 9dba 91d6 f83a

bn1.weight f4 [16]
1.0601518 0.7664275 0.83637685 1.0319728 0.9662926 1.054362 1.3008109 1.070809
0.94497883 1.1219298 0.9406011 0.80874944 0.73339134 0.63832355 1.1763897 1.0322547
00000000: 0eb3 873f 9834 443f cb1c 563f af17 843f
00000010: f45e 773f 56f5 863f f980 a63f 4510 893f
00000020: 22ea 713f 659b 8f3f 3ccb 703f 340a 4f3f
00000030: 89bf 3b3f 2c69 233f f093 963f ec20 843f

bn1.bias f4 [16]
-0.34052446 -0.2655809 -0.26927722 -0.12268843 -0.22697414 -0.021357078 -0.31823897 -0.11893978
-0.11301331 -0.2839019 -0.13927831 -0.30293894 -0.0719888 -0.18084268 -0.26481682 0.054536708
00000000: 3959 aebe 38fa 87be b4de 89be 1244 fbbd
00000010: e96b 68be 0af5 aebc 38f0 a2be b396 f3bd
00000020: 8673 e7bd 975b 91be f99e 0ebe d01a 9bbe
00000030: dd6e 93bd d32e 39be 1296 87be e261 5f3d

bn1.running_mean f4 [16]
-0.008866958 -0.015945068 0.0039819153 0.00026804578 -0.005173218 0.0027359417 -0.001291604 -0.002114653
0.0005285632 -0.0062166303 0.00247199 0.014214359 0.0034159613 0.020012159 -0.0037239308 0.0048857573
00000000: b846 11bc 3b9f 82bc ba7a 823b 7f88 8c39
00000010: 1984 a9bb 7c4d 333b 0a4b a9ba fd95 0abb
00000020: 478f 0a3a e0b4 cbbb 1c01 223b 58e3 683c
00000030: 52de 5f3b 8af0 a33c 310d 74bb b418 a03b

bn1.running_var f4 [16]
0.29078087 0.6108302 0.1346521 0.1590289 0.25355846 0.14393947 0.13336436 0.15300211
0.21337636 0.20006058 0.17448056 0.762447 0.11652477 0.90319175 0.16743828 0.26333
00000000: 3be1 943e 5e5f 1c3f 3de2 093e 79d8 223e
00000010: 6ad2 813e de64 133e ab90 083e 96ac 1c3e
00000020: 557f 5a3e aedc 4c3e 08ab 323e ba2f 433f
00000030: 8aa4 ee3d 9337 673f f174 2b3e 31d3 863e

conv2.weight f4 [32, 16, 3, 3]
0.30162084 0.1499674 -0.09700431 -0.12157467 -0.09408953 0.11088178 0.09643389 -0.07162697
0.010215211 -0.04972441 -0.16169819 -0.08685338 -0.018076334 -0.14589246 0.19369535 -0.12315185
-0.46462685 0.08783171 0.16724329 -0.13486895 0.24291049 -0.0111768395 -0.06488994 -0.41889322
0.020344058 -0.011457774 0.14231429 0.065699756 0.069398604 0.16738923 -0.1228085 -0.40982962
0.049463928 0.15363102 0.10196464 -0.0068446477 0.13656808 -0.07580026 -0.31590703 0.085460186
-0.26530665 -0.14805366 0.14024088 0.15735845 -0.5349105 -0.13003895 -0.104161344 0.034427967
0.01618511 0.004732701 -0.12747708 0.13850334 0.03654763 0.074102014 -0.005728646 -0.015591805
-0.27279675 0.03159778 0.08368778 -0.1169657 -0.06232571 0.0026426732 0.13502853 -0.1670073
-0.23622511 0.37951916 -0.06111673 -0.29283756 -0.04545087 -0.2235081 -0.3318883 -0.04071559
0.13159615 0.03127724 -0.1467948 -0.09908184 0.0031230585 0.07085187 -0.17710893 -0.21387239
-0.12959519 0.04347065 -0.30986378 -0.3297839 0.117259786 -0.12920842 -0.16956352 -0.010704349
0.16254637 0.0021569119 -0.1677142 -0.28428468 0.21947207 -0.043068778 0.17321733 0.039824877
0.13915876 0.12228938 0.08919364 -0.089657485 0.24515463 -0.029975336 -0.12915137 -0.4486725
0.23313841 0.09557523 -0.19902869 -0.10550186 -0.090677 -0.1179255 0.16891235 0.06446618
0.2749415 -0.07173581 0.21183507 0.03032681 -0.118942045 0.094475195 0.08561399 -0.3557924
-0.07142349 0.06054422 0.063239835 0.0105597265 -0.15028529 -0.10138344 -0.45647374 0.29256198
0.13289085 -0.16873199 -0.15385951 0.022401683 -0.0072156778 -0.04976144 0.22345826 -0.0039252015
-0.09573793 0.122936696 0.03263073 0.002472268 -0.01913619 0.061887864 -0.07740882 -0.06379234
-0.16466261 0.06461347 0.11758681 -0.006396034 -0.17783128 0.2414737 0.23814656 -0.03208138
0.005367349 0.12913583 0.017769285 -0.0025642533 0.08836584 -0.07400056 -0.23184387 0.00035143684
-0.005509912 -0.68047655 -0.0021844031 -0.13640124 0.03288691 -0.27338117 0.041271508 -0.0104143955
-0.17282256 -0.08048124 0.17253539 -0.14968143 -0.27160507 -0.2149898 0.042227443 -0.3127583
0.016859716 -0.022436896 0.09496297 -0.05780676 0.00697191 0.1547373 0.029480692 -0.029078344
-0.17953509 0.004709172 -0.05342713 0.10331593 -0.058164883 -0.1286951 -0.017703105 -0.10429586
0.04145444 -0.030817937 -0.11392319 -0.115907215 0.5113594 0.17815036 0.093962334 -0.017303137
-0.07449221 0.16873626 -0.1989306 -0.052134965 -0.041251138 0.047641486 -0.055801693 -0.057847038
-0.14001548 0.013922184 0.046931945 -0.03312377 0.04587147 -0.15178467 -0.18884306 -0.47022384
0.3180127 0.062222227 0.09341168 -0.17497726 -0.10278203 -0.04618714 0.124461345 0.17290112
0.03659693 0.12437431 -0.20731409 0.112411134 0.069628485 0.13179216 0.09135499 -0.14667381
0.1695165 -0.13827795 0.18793248 -0.21260364 0.08263319 0.02050401 0.04091077 -0.37815782
-0.018399635 0.12585515 0.2651636 -0.07902484 0.016089693 -0.42899397 -0.11974951 -0.38407013
-0.6067112 0.07869039 0.05458258 -0.057470396 0.39819357 0.04146924 0.010796237 -0.07563282
00000000: 0c6e 9a3e 0e91 193e 32aa c6bd 24fc f8bd
00000010: 03b2 c0bd fd15 e33d 227f c53d 29b1 92bd
00000020: b35d 273c d3ab 4bbd 3694 25be 2fe0 b1bd
00000030: d214 94bc d564 15be 1358 463e 0a37 fcbd
00000040: 92e3 edbe 1de1 b33d d341 2b3e 161b 0abe
00000050: 87bd 783e 101f 37bc 04e5 84bd 2c79 d6be
00000060: 95a8 a63c 63b9 3bbc d6ba 113e 988d 863d
00000070: db20 8e3d 1568 2b3e 0683 fbbd 30d5 d1be
00000080: b09a 4a3d 7351 1d3e d6d2 d03d 1149 e0bb
00000090: 81d8 0b3e 2b3d 9bbd 91be a1be c005 af3d
000000a0: 46d6 87be 619b 17be 4e9b 0f3e 9322 213e
000000b0: e5ef 08bf ee28 05be 8b52 d5bd 5704 0d3d
000000c0: a396 843c c614 9b3b 5a89 02be d2d3 0d3e
000000d0: f8b2 153d ccc2 973d 5eb7 bbbb c574 7fbc
000000e0: 04ac 8bbe ac6c 013d 8064 ab3d b78b efbd
000000f0: 3e49 7fbd b330 2d3b eb44 0a3e f603 2bbe
00000100: ffe4 71be 5650 c23e 8955 7abd ceee 95be
00000110: b12a 3abd 4fdf 64be 43ed a9be 64c5 26bd
00000120: 24c1 063e 901c 003d 6051 16be 6beb cabd
00000130: 3aac 4c3b c91a 913d 0b5c 35be 5d01 5bbe
00000140: 9ab4 04be 480e 323d 77a6 9ebe 6fd9 a8be
00000150: e625 f03d 364f 04be 0fa2 2dbe 4b61 2fbc
00000160: 8e72 263e fa5a 0d3b 45bd 2bbe c38d 91be
00000170: 49bd 603e e368 30bd e25f 313e 691f 233d
00000180: a27f 0e3e db72 fa3d 28ab b63d 589e b7bd
00000190: d109 7b3e d68e f5bc 4240 04be 67b8 e5be
000001a0: d6bb 6e3e f2bc c33d 2dce 4bbe 5c11 d8bd
000001b0: ddb4 b9bd ed82 f1bd 5cf7 2c3e d806 843d
000001c0: 22c5 8c3e 39ea 92bd 4beb 583e ee6f f83c
000001d0: e397 f3bd 367c c13d 6356 af3d 6c2a b6be
000001e0: 7b46 92bd 37fd 773d e383 813d b402 2d3c
000001f0: 63e4 19be 1fa2 cfbd edb6 e9be afca 953e
00000200: 8a14 083e 14c8 2cbe 598d 1dbe bc83 b73c
00000210: 7e71 ecbb a7d2 4bbd 3ed2 643e fa9e 80bb
00000220: 3f12 c4bd 3cc6 fb3d cda7 053d c605 223b
00000230: 80c3 9cbc 217e 7d3d 8488 9ebd 8fa5 82bd
00000240: 519d 28be 1154 843d 5ad1 f03d d295 d1bb
00000250: 6719 36be e244 773e b1dc 733e c467 03bd
00000260: 96e0 af3b 2f3c 043e e490 913c 080d 28bb
00000270: 26f9 b43d 9b8d 97bd 7b68 6dbe 0e41 b839
00000280: 7e8c b4bb b633 2ebf 3428 0fbb c4ac 0bbe
00000290: 6db4 063d 9ef8 8bbe 500c 293d 24a1 2abc
000002a0: 66f8 30be 59d3 a4bd 1ead 303e 1746 19be
000002b0: d20f 8bbe 4926 5cbe aff6 2c3d db21 a0be
000002c0: 631d 8a3c 95cd b7bc f27b c23d c8c6 6cbd
000002d0: 9f74 e43b 7473 1e3e 7e81 f13c b535 eebc
000002e0: 0cd8 37be 664f 9a3b 68d6 5abd 4d97 d33d
000002f0: 4d3e 6ebd a6c8 03be 1a06 91bc 1199 d5bd
00000300: 22cc 293d e675 fcbc 9050 e9bd c360 edbd
00000310: 73e8 023f 0c6d 363e 536f c03d 4fbf 8dbc
00000320: 5f8f 98bd 33c9 2c3e 77b4 4bbe 798b 55bd
00000330: f4f6 28bd b823 433d 5190 64bd 04f1 6cbd
00000340: 3860 0fbe df19 643c b63b 403d caac 07bd
00000350: b9e3 3b3d 716d 1bbe 1360 41be 2ec1 f0be
00000360: 90d2 a23e bcdc 7e3d 9f4e bf3d 3d2d 33be
00000370: 637f d2bd ba2e 3dbd 97e5 fe3d fe0c 313e
00000380: aae6 153d f5b7 fe3d 254a 54be cf37 e63d
00000390: 6199 8e3d 86f4 063e 5318 bb3d a931 16be
000003a0: bc95 2d3e bc98 0dbe 5f71 403e c5b4 59be
000003b0: 973b a93d 07f8 a73c 0d92 273d e79d c1be
000003c0: d5ba 96bc 2ce0 003e 86c3 873e c6d7 a1bd
000003d0: 88ce 833c 19a5 dbbe 3b3f f5bd d7a4 c4be
000003e0: 6d51 1bbf 6d28 a13d fc91 5f3d 1466 6bbd
000003f0: 07e0 cb3e a6db 293d b3e2 303c 61e5 9abd

conv2.bias f4 [32]
0.0012704192 -0.0016113335 0.00079548283 -0.000953278 -5.3784817e-05 8.974864e-05 -0.00057035725 -0.0012684782
-0.00079714623 0.00040156493 -0.0009933868 -0.0009673097 -0.0003241679 0.000520359 -0.00096125394 -0.00021289772
0.0010265813 -0.0007511761 -0.0014688895 -0.00011153796 7.835457e-05 -0.00056589086 0.00015502059 -0.00012263081
0.00061926973 -9.090609e-05 -0.00032892672 -0.0018280635 0.0003798558 -0.00021622794 0.0005979348 0.00040145486
00000000: 3284 a63a 6133 d3ba f387 503a 67e5 79ba
00000010: 0297 61b8 6f37 bc38 0784 15ba 1143 a6ba
00000020: 94f7 50ba 2289 d239 8834 82ba 0e93 7dba
00000030: 14f5 a9b9 b468 083a a9fc 7bba 4c3d 5fb9
00000040: 5a8e 863a 93ea 44ba c187 c0ba 7ce9 e9b8
00000050: 4a52 a438 4b58 14ba 068d 2239 7596 00b9
00000060: 7d56 223a d6a4 beb8 cc73 acb9 a29b efba
00000070: 6227 c739 3fbb 62b9 babe 1c3a 5c7a d239

bn2.weight f4 [32]
1.7833493 1.7301195 1.8196024 1.7937038 1.7126216 1.6555831 1.7967917 1.7596434
1.783789 1.8572 1.8368016 1.785305 1.8643798 1.8552295 1.7085452 1.7119647
1.6985105 1.7743238 1.789616 1.6367764 1.9222001 1.7172285 1.6514708 1.6661546
1.6686522 1.7800069 1.8095278 1.6678846 1.6898454 1.7481371 1.6622097 1.8298973
00000000: ca44 e43f 8e74 dd3f bbe8 e83f 1698 e53f
00000010: 2f37 db3f 26ea d33f 45fd e53f ff3b e13f
00000020: 3353 e43f bbb8 ed3f 511c eb3f e084 e43f
00000030: ffa3 ee3f 2978 ed3f 9cb1 da3f a921 db3f
00000040: cb68 d93f 0b1d e33f 2312 e53f e481 d13f
00000050: a70a f63f 25ce db3f 6563 d33f 8e44 d53f
00000060: 6596 d53f 44d7 e33f 9b9e e73f 3e7d d53f
00000070: db4c d83f f5c2 df3f 4ac3 d43f 133a ea3f

bn2.bias f4 [32]
-0.62707233 -0.77374774 -0.9226344 -0.7861584 -0.99397635 -0.8267814 -0.92815214 -0.899523
-0.7954038 -1.0862296 -0.8948898 -0.93678933 -0.6994682 -1.1203039 -0.7392014 -0.7602066
-0.93350375 -0.7094485 -0.7406366 -0.7145219 -0.98081934 -0.81646967 -0.8292907 -0.7997611
-0.40261278 -0.82332695 -0.966437 -0.8379279 -0.7877564 -0.5691166 -0.5362868 -0.89275277
00000000: d087 20bf 5514 46bf c531 6cbf ad41 49bf
00000010: 3c75 7ebf f2a7 53bf 619b 6dbf 2447 66bf
00000020: 959f 4bbf 9209 8bbf 7f17 65bf 6dd1 6fbf
00000030: 5910 33bf 1e66 8fbf 4e3c 3dbf e69c 42bf
00000040: 1afa 6ebf 6b9e 35bf 5c9a 3dbf e8ea 36bf
00000050: fa16 7bbf 2804 51bf 654c 54bf 25bd 4cbf
00000060: 4323 cebe 8ec5 52bf 6a68 77bf 7182 56bf
00000070: 67aa 49bf a0b1 11bf 174a 09bf 728b 64bf

bn2.running_mean f4 [32]
-1.0219054 -0.43380502 -0.069702595 -0.90033245 0.5516758 -0.49773997 0.17773621 0.5575869
-1.1174098 0.56815225 -0.5744065 0.5403178 -0.71361554 0.70786786 -0.80138266 -0.21510547
0.43058383 -0.6107132 -0.2163921 -0.18281072 0.3920763 -0.805837 -0.276582 -0.14614823
-1.0076771 -0.63583195 0.32227916 -0.52564263 0.0030428853 -0.98101646 -0.8176496 0.52200526
00000000: cccd 82bf b11b debe 3cc0 8ebd 307c 66bf
00000010: a03a 0d3f c6d7 febe 7b00 363e 04be 0e3f
00000020: 4907 8fbf 6d72 113f 4e0c 13bf 4452 0a3f
00000030: 82af 36bf d436 353f 6a27 4dbf 9c44 5cbe
00000040: 7c75 dc3e b357 1cbf e495 5dbe bc32 3bbe
00000050: 3abe c83e 554b 4ebf 289c 8dbe e2a7 15be
00000060: 90fb 80bf e2c5 22bf c601 a53e 8490 06bf
00000070: 256b 473b e523 7bbf 7c51 51bf 23a2 053f

bn2.running_var f4 [32]
0.87985903 0.5453834 0.42904356 0.6039523 0.56969404 0.4667906 0.4981246 0.52205104
0.6590108 0.45125785 0.50865686 0.6598878 0.62217546 0.44791177 0.56886464 0.49939805
0.39527246 0.56813586 0.40333274 0.57919276 0.6350822 0.6929634 0.5770646 0.6830665
0.545169 0.49963015 0.7253415 0.5792775 0.5285728 0.74316764 0.60181266 0.45265627
00000000: 713e 613f 3f9e 0b3f 99ab db3e 9e9c 1a3f
00000010: 78d7 113f 2dff ee3e 300a ff3e 23a5 053f
00000020: efb4 283f 450b e73e 5637 023f 68ee 283f
00000030: e446 1f3f b154 e53e 1da1 113f 1ab1 ff3e
00000040: 2761 ca3e 5a71 113f a181 ce3e fa45 143f
00000050: bf94 223f 0d66 313f 81ba 133f 72dd 2e3f
00000060: 3290 0b3f 86cf ff3e fbaf 393f 884b 143f
00000070: 8c50 073f 3c40 3e3f 6510 1a3f 90c2 e73e

fc1.weight f4 [128, 640]
0.23214246 0.2785877 0.10475704 0.045909736 0.24441382 0.13701169 -0.20740756 -0.043503407
-0.121655725 0.26304093 -0.1559721 0.032274783 0.1616546 0.3202773 0.31552333 -0.07830683
0.18156317 -0.12001147 -0.09497968 0.06716356 0.478661 -0.15674958 -0.42317832 -0.079772614
-0.04792035 0.19327903 -0.22597732 -0.16176505 0.14165963 0.20273161 0.011495776 0.03340557
-0.12897035 0.17971624 -0.21936189 0.02727638 0.076816194 0.14824256 0.059763905 0.23178986
-0.17427906 0.23865525 0.3828757 -0.21967097 0.12887745 -0.000749198 0.27489626 -0.111077
-0.24228778 -0.23102054 0.06026445 -0.27946275 0.108914495 -0.28120843 0.077393405 0.08750071
0.059788298 -0.28783065 -0.19327903 0.02192032 -0.13898906 0.03242908 -0.050245874 0.3420301
0.08991494 -0.01617421 0.11960601 0.28759515 0.22224163 -0.132427 -0.067403406 0.11960279
-0.026530694 -0.22262916 0.07958627 -0.21898834 -0.18463588 0.13274686 -0.04201804 -0.35785207
0.015766786 -0.17969935 -0.101632416 0.07957477 0.017850734 -0.17576933 -0.07007409 -0.22087133
-0.06713115 -0.1700089 -0.0023197494 -0.030774685 0.17971946 0.1457417 0.10155048 -0.064957276
-0.09603734 -0.18855436 0.0779204 0.24701671 -0.043575507 0.007896831 -0.17590982 -0.00050725776
0.040318206 -0.21912245 0.035398852 0.16655171 -0.012606949 -0.10339792 0.15732658 0.06771869
-0.15613765 -0.10742484 -0.1021627 0.0672566 0.13270266 0.18762676 0.027273027 0.0060609863
-0.09020574 -0.017759671 0.010885032 -0.24672739 0.1440104 -0.015719503 -0.08273974 -0.20433857
0.05479054 -0.1556297 0.26395062 -0.10459356 -0.008000814 -0.17973097 0.103841566 -0.44404256
0.09936208 -0.102751546 0.11900521 -0.18342 -0.029319553 -0.13900582 -0.06568684 -0.37971613
0.031184841 -0.08249477 0.028526023 0.15519522 -0.3042625 -0.14562671 0.068565816 0.032247934
0.25264737 -0.2542408 -0.17327105 -0.033548284 0.0070785787 -0.11692913 0.050198376 -0.10125149
-0.026499558 0.044283785 -0.044653166 -0.014104647 0.013215843 -0.008696091 0.084314 0.15430318
-0.04728026 -0.13866846 0.05992793 0.0654735 -0.56288606 -0.33944353 0.4966911 0.13330919
-0.14591269 0.03866646 -0.01971545 0.03762663 0.1823228 0.15123326 0.08625264 0.029449876
0.25673446 0.13410105 0.040611397 0.040979005 0.16296022 0.2769108 -0.06893194 -0.01846679
-0.1575151 0.14252588 0.10887139 0.14139852 0.115404464 -0.058514412 0.12230003 0.2922268
0.20132878 0.1819555 -0.19407684 -0.24907206 0.27920675 0.05114961 -0.19231021 0.14358865
-0.24961805 0.055552132 0.1479821 0.12360519 -0.12028297 -0.15788695 -0.450946 0.03782426
-0.19511953 0.07022138 0.11248317 -0.032275237 -0.021857893 -0.0035212003 -0.16953902 0.053016372
0.24006088 -0.0030325989 0.011162888 0.13903393 0.12561809 -0.4630645 0.15634923 0.15476651
-0.2370529 0.2737975 0.19809978 -0.1929439 0.22534536 0.2074996 -0.015926272 0.012065368
-0.036383387 0.2573059 0.08637275 0.1792883 0.26056078 -0.22155471 0.04829602 0.30340302
-0.13955253 -0.4655973 0.18440981 -0.082314625 -0.112590924 0.023880895 -0.14702056 -0.07141256
00000000: c1b6 6d3e 0ca3 8e3e dc8a d63d d90b 3c3d
00000010: 9e47 7a3e cb4c 0c3e a662 54be a130 32bd
00000020: a326 f9bd 4dad 863e 26b7 1fbe 9032 043d
00000030: c988 253e 63fb a33e 468c a13e 555f a0bd
00000040: b2eb 393e 93c8 f5bd b584 c2bd 0c8d 893d
00000050: 0e13 f53e f682 20be d4aa d8be d35f a3bd
00000060: 2148 44bd f0ea 453e 9966 67be bda5 25be
00000070: 390f 113e e098 4f3e c758 3c3c 47d4 083d
00000080: ce10 04be 8907 383e 67a0 60be b772 df3c
00000090: cf51 9d3d e6cc 173e ffca 743d 525a 6d3e
000000a0: 3676 32be 0b62 743e 4908 c43e 6df1 60be
000000b0: 73f8 033e d465 44ba 34bf 8c3e 577c e3bd
000000c0: 4a1a 78be a690 6cbe dbd7 763d be15 8fbe
000000d0: 900e df3d 8dfa 8fbe 6f80 9e3d 9233 b33d
000000e0: 93e4 743d 8a5e 93be f0ea 45be 3e92 b33c
000000f0: 2653 0ebe 5bd4 043d 9ece 4dbd 921e af3e
00000100: 5325 b83d c77f 84bc fff3 f43d ac3f 933e
00000110: 4f93 633e f29a 07be cc0a 8abd 4ff2 f43d
00000120: e656 d9bc e6f8 63be 20fe a23d 7b3e 60be
00000130: 3011 3dbe cbee 073e 1c1b 2cbd 6338 b7be
00000140: 5929 813c 1b03 38be a824 d0bd 19f8 a23d
00000150: b43b 923c e0fc 33be 0183 8fbd 182c 62be
00000160: 0e7c 89bd d016 2ebe f006 18bb 311b fcbc
00000170: 6108 383e 503d 153e b3f9 cf3d 5208 85bd
00000180: 3aaf c4bd 6514 41be bb94 9f3d f3f1 7c3e
00000190: 3b7c 32bd b661 013c b421 34be 7ef9 04ba
000001a0: b424 253d a361 60be 63fe 103d 888c 2a3e
000001b0: 608d 4ebc 4ac2 d3bd 381a 213e 19b0 8a3d
000001c0: 8ce2 1fbe 8e01 dcbd ad3a d1bd d4bd 893d
000001d0: 35e3 073e 3b21 403e af6b df3c 3d9b c63b
000001e0: c9bd b8bd bb7c 91bc 2257 323c 1ba6 7cbe
000001f0: 7677 133e 30c6 80bc 7473 a9bd 213e 51be
00000200: 0c6c 603d 645d 1fbe 8924 873e 2635 d6bd
00000210: d915 03bc 650b 38be e3aa d43d 8c59 e3be
00000220: 597e cb3d 676f d2bd 01b9 f33d 74d2 3bbe
00000230: 8f2f f0bc 8b57 0ebe d286 86bd 276a c2be
00000240: 5a77 ff3c 05f3 a8bd 68af e93c 7feb 1e3e
00000250: 4bc8 9bbe 2b1f 15be 3c6c 8c3d 6916 043d
00000260: ff5a 813e da2b 82be f76d 31be ed69 09bd
00000270: 6cf3 e73b 8a78 efbd d09c 4d3d f15c cfbd
00000280: 9a15 d9bc ea62 353d 3de6 36bd 2d17 67bc
00000290: 4387 583c 0d7a 0ebc d2ac ac3d a701 1e3e
000002a0: f2a8 41bd 1bff 0dbe fd76 753d f816 863d
000002b0: 4d19 10bf 8bcb adbe 4c4e fe3e 3482 083e
000002c0: 236a 15be b960 1e3d 4c82 a1bc 621e 1a3d
000002d0: d4b2 3a3e e4dc 1a3e 39a5 b03d de40 f13c
000002e0: b372 833e c951 093e 2358 263d 9ad9 273d
000002f0: 0bdf 263e 41c7 8d3e 302c 8dbd aa47 97bc
00000300: a34b 21be 4ef2 113e f7f7 de3d c6ca 103e
00000310: 2d59 ec3d cfac 6fbd 7078 fa3d c09e 953e
00000320: 2229 4e3e 8b52 3a3e 14bc 46be bf0c 7fbe
00000330: 30f4 8e3e 4182 513d f8ec 44be e708 133e
00000340: e09b 7fbe a28a 633d 9f88 173e b824 fd3d
00000350: eb56 f6bd 1ead 21be 65e2 e6be 9ced 1a3d
00000360: 6acd 47be 3ad0 8f3d 945d e63d 0a33 04bd
00000370: 530f b3bc f0c3 66bb a39b 2dbe b227 593d
00000380: 85d2 753e 91be 46bb 8ce4 363c e95e 0e3e
00000390: 07a2 003e ca16 edbe 031a 203e 1d7b 1e3e
000003a0: ffbd 72be 302f 8c3e abda 4a3e 1693 45be
000003b0: efc0 663e c67a 543e d077 82bc d2ad 453c
000003c0: bf06 15bd 99bd 833e 32e4 b03d 5a97 373e
000003d0: 3968 853e 3ddf 62be 0cd2 453d a457 9b3e
000003e0: dce6 0ebe c562 eebe edd5 3c3e 9294 a8bd
000003f0: 1296 e6bd dea1 c33c 8f8c 16be c040 92bd

fc1.bias f4 [128]
0.027547048 0.026192626 0.10323791 -0.010298067 0.0075719533 0.044259354 0.1116535 -0.03648329
0.021282347 0.10387934 -0.039268307 -0.08043329 -0.07885321 -0.014895749 -0.059790764 0.012203859
-0.06829106 0.11447119 0.08538195 0.11734058 0.028446682 -0.0015952532 0.015302751 -0.094333366
0.09140915 0.020792555 -0.0135435 0.0560794 -0.07271427 -0.003591485 0.021588456 -0.046740185
0.0051882914 -0.021497808 -0.06671188 0.023901109 -0.018433914 -0.0152478805 0.09956299 0.019106897
0.0041975924 -0.057260185 -0.14020452 -0.048836183 0.12306141 -0.050107826 0.041488007 0.009881375
0.04007396 0.018249026 -0.117884316 0.062965535 0.052948903 -0.15184341 0.07271741 -0.038637083
-0.00033222025 -0.053370487 -0.043765843 0.07426471 -0.015179896 -0.1678466 -0.049849752 0.13068901
0.0561855 -0.05155522 0.112962976 -0.08041869 -0.0781951 -0.17155427 -0.05222698 -0.052641924
0.02628651 0.046304792 0.037463874 -0.011393724 -0.09391213 0.09105026 0.09679514 0.10286895
-0.03273099 0.04139181 -0.15017945 -0.07208733 0.019961186 0.060663 -0.04704998 -0.02440478
-0.020226276 0.0007222042 -0.12286611 -0.09632636 0.046035778 3.4094242e-05 0.09036561 0.08458761
0.0068352805 -0.089973874 -0.06512269 -0.0363908 0.06304609 -0.07671855 -0.056602843 -0.02272951
-0.055999566 0.08286538 -0.059839103 -0.018095685 -0.0067955703 -0.09026748 0.011992133 0.033105172
-0.044504166 0.062805064 0.05865811 0.0025564963 -0.014727272 0.02788929 -0.0022532986 -0.060139943
0.03790228 0.03865687 0.054322165 -0.011625845 0.039236873 -0.02612157 -0.00266683 0.06354657
00000000: 59aa e13c eb91 d63c 666e d33d 39b9 28bc
00000010: 261e f83b 4c49 353d 97aa e43d 816f 15bd
00000020: 5158 ae3c b1be d43d ced7 20bd 35ba a4bd
00000030: cb7d a1bd 4d0d 74bc 29e7 74bd b2f2 473c
00000040: 2fdc 8bbd df6f ea3d bbdc ae3d 4250 f03d
00000050: 0409 e93c d117 d1ba 64b8 7a3c da31 c1bd
00000060: b834 bb3d 2655 aa3c 8ee5 5dbc 83b3 653d
00000070: 38eb 94bd 1f5f 6bbb 46da b03c a372 3fbd
00000080: 8b02 aa3b 2c1c b0bc 3da0 88bd 42cc c33c
00000090: b802 97bc 3fd2 79bc aee7 cb3d 1186 9c3c
000000a0: f58b 893b a889 6abd c691 0fbe 7308 48bd
000000b0: 9f07 fc3d dd3d 4dbd 54ef 293d 7ee5 213c
000000c0: 9824 243d fb7e 953c 556d f1bd 13f4 803d
000000d0: f3e0 583d d77c 1bbe deec 943d eb41 1ebd
000000e0: d92d aeb9 039b 5abd d043 33bd 1918 983d
000000f0: 19b5 78bc fbdf 2bbe 412f 4cbd 57d3 053e
00000100: c422 663d 912b 53bd 2259 e73d 8eb2 a4bd
00000110: c124 a0bd ecab 2fbe f5eb 55bd 0f9f 57bd
00000120: cf56 d73c 18aa 3d3d b873 193d beac 3abc
00000130: 0155 c0bd 8f78 ba3d 883c c63d f5ac d23d
00000140: ee10 06bd 758a 293d a4c8 19be 86a2 93bd
00000150: a485 a33c c479 783d 7bb7 40bd 88ec c7bc
00000160: 93b1 a5bc 4e52 3d3a 3aa1 fbbd c146 c5bd
00000170: 0390 3c3d 6a00 0f38 9b11 b93d 453c ad3d
00000180: 7dfa df3b 3944 b8bd 0b5f 85bd 850e 15bd
00000190: 4f1e 813d 9d1e 9dbd 62d8 67bd 3d33 babc
000001a0: cd5f 65bd 53b5 a93d d919 75bd 673d 94bc
000001b0: 60ad debb 28de b8bd a77a 443c 4a99 073d
000001c0: 004a 36bd f19f 803d 7d43 703d e48a 273b
000001d0: a84a 71bc 1578 e43c 14ac 13bb 4d55 76bd
000001e0: 6c3f 1b3d ab56 1e3d eb80 5e3d 547a 3ebc
000001f0: d8b6 203d e7fc d5bc fcc5 2ebb b424 823d

fc2.weight f4 [9, 128]
-0.01058127 0.1414812 -0.0396334 0.010597735 0.09714718 -0.06627344 0.1342794 0.07508972
0.106339924 0.119732276 -0.15225802 0.12122639 0.02675617 -0.00057007297 0.19289088 -0.035861522
0.15869923 0.03845856 -0.07700545 0.16683944 -0.08799906 0.118086085 0.038243465 0.09173249
0.0051598856 -0.03635688 -0.14169152 -0.002239734 0.014146209 -0.13593464 0.057091765 0.030792627
-0.1252613 0.05434052 0.11898425 0.052122235 0.08961772 0.021364693 -0.04498349 -0.006933351
0.12463887 -0.06357977 0.08395093 0.0754122 -0.1267829 0.19273168 0.04040227 0.114338905
-0.13703603 -0.04710698 -0.033359453 0.11150842 0.04452644 0.12421944 -0.09345204 0.11940166
-0.06019665 -0.06957545 -0.05350687 0.03667224 0.019998902 0.09725162 0.026761219 0.011983328
0.10248137 0.07503159 0.067255504 0.096289046 -0.07343593 0.11628063 0.17177887 0.046490896
0.053804785 -0.06894179 -0.14145625 -0.21661152 -0.026484767 0.048048425 -0.113178715 -0.061560534
0.19844931 -0.09801864 0.12687588 -0.15932304 -0.107451096 -0.10709904 -0.00591819 -0.08665445
0.049012505 -0.14011513 -0.019438379 0.061785456 -0.12013388 0.051445544 -0.011770915 -0.053109277
0.048363704 0.10388929 -0.078197345 -0.10465681 -0.097375326 -0.0023484821 -0.05027842 0.031185212
0.14217886 -0.0021947413 0.15579532 -0.01817651 -0.09144052 -0.015198202 0.036162093 0.113159284
0.025854567 -0.056593843 -0.024950027 -0.049163956 0.021364566 -0.030150939 0.00016154695 -0.0154482415
-0.18206613 -0.17556825 -0.06725515 0.10899659 -0.036846768 -0.08235346 0.03016818 0.05850495
0.081920765 -0.07604397 -0.031031417 -0.15506443 -0.09875081 0.06824804 -0.12288381 -0.034321073
0.059637032 0.15131718 -0.062564075 -0.06472536 -0.08314591 0.07672596 0.11619333 0.06450545
0.05819463 -0.017107382 0.05338124 -0.08834607 -0.0019683638 0.04225342 0.09269879 0.07114193
0.0025427397 0.13004252 0.02414235 0.0905547 0.01672111 0.01975648 -0.05137346 -0.080610454
-0.038498577 -0.04303235 0.02568987 0.05063082 0.0022874442 -0.10830223 0.010356137 0.115010545
0.028592706 -0.13327906 -0.11841146 0.1926597 0.02799507 -0.09930885 -0.068726875 0.110710315
0.024950005 -0.0047004754 -0.10762839 0.034303587 -0.12561518 -0.09103801 -0.14249241 -0.031446368
-0.09788222 0.13624215 0.18943933 -0.035964876 0.06592854 -0.06606121 -0.110388234 0.007243298
0.076504335 0.12431475 0.057239164 0.052908435 -0.06958866 0.07161815 -0.037471447 -0.04335876
0.13932042 -0.1389775 0.091430224 -0.023258569 0.0073433835 0.066080935 0.13917574 0.025767803
-0.093238495 -0.09787899 0.08490415 -0.12825593 0.11336241 0.010827374 -0.10716327 0.09791138
0.1439265 0.05103192 0.093769535 0.053774588 0.122727975 0.049888104 -0.099031284 -0.016771238
0.110479966 0.05115243 0.10014181 0.11065255 0.065049276 -0.06372507 -0.059449732 0.1417464
0.08575324 -0.11183763 -0.15015453 0.11898563 0.007976273 0.115799874 -0.10065326 -0.03391284
-0.08344737 0.093666576 0.03517143 0.09887486 0.09041738 0.1279276 0.14072432 0.113814734
0.07551816 -0.07438532 0.033397935 0.06657674 0.07510208 -0.0506727 -0.06617662 -0.06664621
00000000: 105d 2dbc 73e0 103e a256 22bd 1fa2 2d3c
00000010: 1af5 c63d 5fba 87bd 8a80 093e a4c8 993d
00000020: bfc8 d93d 3236 f53d 87e9 1bbe 8b45 f83d
00000030: c12f db3c f370 15ba 3085 453e 88e3 12bd
00000040: 0d82 223e b986 1d3d 09b5 9dbd f5d7 2a3e
00000050: da38 b4bd 1ed7 f13d 2ea5 1c3d 3ede bb3d
00000060: 4214 a93b f4ea 14bd 9517 11be 80c8 12bb
00000070: 80c5 673c 7332 0bbe 0ed9 693d d240 fc3c
00000080: 8044 00be 2a94 5e3d 04ae f33d 207e 553d
00000090: 7f89 b73d 0205 af3c 9c40 38bd 2a31 e3bb
000000a0: aa42 ff3d 1c36 82bd 77ee ab3d b671 9a3d
000000b0: 60d3 01be 745b 453e da7c 253d 842a ea3d
000000c0: 2c53 0cbe 40f3 40bd eca3 08bd 875e e43d
000000d0: 5b61 363d c366 fe3d c863 bfbd dc88 f43d
000000e0: c390 76bd 937d 8ebd 052a 5bbd a135 163d
000000f0: bdd4 a33c db2b c73d 583a db3c b855 443c
00000100: c1e1 d13d 2aaa 993d 41bd 893d 3133 c53d
00000110: 9465 96bd 8a24 ee3d cde6 2f3e 3d6d 3e3d
00000120: 6862 5c3d 5a31 8dbd e8d9 10be 69cf 5dbe
00000130: 95f6 d8bc 6dce 443d 3eca e7bd e626 7cbd
00000140: 4c36 4b3e ffbd c8bd c0eb 013e 9425 23be
00000150: 520f dcbd be56 dbbd 60ed c1bb e377 b1bd
00000160: 56c1 483d 577a 0fbe 3c3d 9fbc bf12 7d3d
00000170: c008 f6bd 90b8 523d ccda 40bc 1d89 59bd
00000180: 0519 463d e8c3 d43d ee25 a0bd 4f56 d6bd
00000190: b76c c7bd fee8 19bb bff0 4dbd 2178 ff3c
000001a0: 5697 113e a6d5 0fbb cf88 1f3e e8e6 94bc
000001b0: 2b45 bbbd e101 79bc b41e 143d 0ec0 e73d
000001c0: f5cc d33c f2ce 67bd 0064 ccbc 2560 49bd
000001d0: be04 af3c 1aff f6bc ee64 2939 9f1a 7dbc
000001e0: 8b6f 3abe 2ac8 33be 11bd 89bd 9b39 df3d
000001f0: a3ec 16bd eea8 a8bd 4223 f73c e3a2 6f3d
00000200: 13c6 a73d f1bc 9bbd 9935 febc 36c9 1ebe
00000210: dd3d cabd a1c5 8b3d 82aa fbbd 4194 0cbd
00000220: f645 743d e4f2 1a3e 9821 80bd bb8e 84bd
00000230: 6748 aabd 8022 9d3d c5f6 ed3d 6f1b 843d
00000240: 7e5d 6e3d c824 8cbc 4aa6 5a3d c9ee b4bd
00000250: aaff 00bb ec11 2d3d ddd8 bd3d dcb2 913d
00000260: 18a4 263b de29 053e 2dc6 c53c be74 b93d
00000270: b6fa 883c 57d8 a13c fa6c 52bd 1817 a5bd
00000280: afb0 1dbd b042 30bd 9073 d23c 4362 4f3d
00000290: f2e8 153b 8fcd ddbd c9ac 293c a68a eb3d
000002a0: 403b ea3c 4e7a 08be b581 f2bd 9648 453e
000002b0: eb55 e53c 7062 cbbd adc0 8cbd 17bc e23d
000002c0: f463 cc3c 7206 9abb 466c dcbd eb81 0c3d
000002d0: 44a1 00be 2372 babd 88e9 11be e8cd 00bd
000002e0: 7976 c8bd 1083 0b3e 62fc 413e e84f 13bd
000002f0: 8b05 873d 1a4b 87bd 3a13 e2bd 3059 ed3b
00000300: 4eae 9c3d bb98 fe3d 9d73 6a3d 84b6 583d
00000310: 8084 8ebd 89ac 923d a97b 19bd f598 31bd
00000320: 03aa 0e3e 1e50 0ebe c53f bb3d c188 bebc
00000330: c4a0 f03b 7155 873d 1684 0e3e 0017 d33c
00000340: d3f3 bebd c874 c8bd 3ae2 ad3d 8655 03be
00000350: 8d2a e83d 4c65 313c 6b78 dbbd c385 c83d
00000360: 7861 133e d906 513d 3e0a c03d be42 5c3d
00000370: ce58 fb3d 7857 4c3d ead0 cabd d663 89bc
00000380: 5243 e23d 3685 513d 2617 cd3d ce9d e23d
00000390: 8e38 853d 4a82 82bd 9081 73bd f825 113e
000003a0: 659f af3d 210b e5bd 1cc2 19be bdae f33d
000003b0: eaae 023c 7c28 ed3d 4c23 cebd 31e8 0abd
000003c0: 74e6 aabd 43d4 bf3d eb0f 103d e77e ca3d
000003d0: bf2c b93d 74ff 023e 091a 103e b317 e93d
000003e0: 44a9 9a3d 5557 98bd 46cc 083d 6359 883d
000003f0: 1fcf 993d 2d8e 4fbd 9c87 87bd cf7d 88bd

fc2.bias f4 [9]
-0.058699474 0.049564306 0.025008826 0.011074001 -0.04018992 0.07816217 0.17692141 0.03332358
-0.44659236
00000000: dc6e 70bd f103 4b3d 4fdf cc3c ba6f 353c
00000010: 309e 24bd 7d13 a03d e32a 353e 4e7e 083d
00000020: c1a7 e4be
