results/valence/classification_5/20251224_110313_591757/best_model.pt (torch, 353269 bytes, 22 tensors)

conv1.weight f4 [128, 1, 3]
00000000: 51cf c63e 9c38 f43e 0e87 42be 467a ef3e
00000010: 2289 5ebe c4ad 2b3d ce54 97be 6f8d b13e
00000020: f9c5 063f 298a e2be 9efb 003f f8f8 f43d
00000030: 39cb e63e 4fc4 b4bd 24f3 7e3e 6013 2cbe
00000040: 38a0 eb3e 70b6 ec3c f854 b6b8 2263 48bc
00000050: 2678 96b8 92ab 17bd a8bb 4ebe ec24 db3e
00000060: 7d58 f6be e997 a3be 12dd 31be 9495 babe
00000070: 5a64 023c b90f 16bf d55f 063f 8fd2 16bf
00000080: 3bad 993e 9251 b73d f19a d3bd d499 b13e
00000090: 7e18 f73d df7b f83e e7cf b13d 99dc 4abe
000000a0: 2f74 313e 3139 28be a96a 2f3e 06d7 e53e
000000b0: 80db d93e 569b 6abe 1551 b63e 4414 d33d
000000c0: 515d 953e f462 8fbe c500 01bf bfb5 01be
000000d0: 95ba e9be 01d4 fb3e a0fe 3f3e f24a f03d
000000e0: 711f 7f3e 2ab2 8bbd b674 e33e ae57 d9be
000000f0: 35d9 4abc 7a83 a2bb c7b6 0439 0fab 62b4
00000100: 52f9 a731 58a3 21a4 39dc 963c 7268 bfba
00000110: 062a cbba 2088 a5be a792 043f 29f8 553e
00000120: d271 163f 637f dcbe ea19 1dbf 9322 d4be
00000130: 13a5 e8be 6b71 503e 8cc5 1e3e 478f ff3e
00000140: 2f39 91be 2ee0 9fbd ea3c ac3d f7ff 58bd
00000150: 946b b53e ae6a 3cbe 6eda 983e 1b0c dfbe
00000160: bdd8 bfbe d4ae 1c3e 259b 093e 0839 61be
00000170: 42ad 7c3e ce32 563e 10bc 44be b6fa 98bd
00000180: 07d4 053f aa9b 48be 5154 13be c5be 0abf
00000190: 19bb c2be bfef 283e 021d ee9c 5fe2 ffbb
000001a0: 6c42 b919 dc31 a3bb 2ee1 abbc 1c5b 34ba
000001b0: ffab 02bf 7f6f ddbe b971 0c3f 68d4 013e
000001c0: 4a67 453e d506 a7be b9a1 6ebb ce0e acb3
000001d0: fd02 951f e846 edbe f2ca 8cbe dc14 c1be
000001e0: 5e97 dd3c dd66 88be 91aa fb3c aa2f aebe
000001f0: c3d8 e7be 1e08 b1be c06e 2dbe 9930 fdbe
00000200: 8f4b f93e f597 14be e20e f03e 922f 213e
00000210: 6759 b8be 712b e83e 2f85 d5bd d9ff 37be
00000220: 6236 06bf a3b5 16bf 4694 e93d 66ab 46be
00000230: 0fcc 5a3e ef77 cebe 429a f23e b041 d8be
00000240: edc6 0cbe 1974 ce3d 70c5 923e a6fa d63e
00000250: c62e ef3e 8fc0 08bf 750e 0caa 54ca cbb7
00000260: 0b14 2f9c 844a c3be f333 173f bce4 c7be
00000270: 4982 a73e 3dfe 183e f409 593e c566 c2be
00000280: 9f8b f43e 6273 343b 792a 123e c5d0 02bf
00000290: 615f 893e 1b63 533b 8495 a7be e87e e43e
000002a0: bd4b 51a6 bed4 3dba 2103 87b9 3600 6dbd
000002b0: a794 973e 7dc2 36be 4327 83ba 3829 42b4
000002c0: 1029 1cbc 15f2 1c3e 923d e43e 6d93 0ebf
000002d0: 9ea2 063d b7ce c23e fec7 de3d 103a 28be
000002e0: 7acc a73e 96e6 ab3e 18d8 d735 34a8 77a0
000002f0: c29c 282b 8290 d53d 4ec9 00be 1fdb efbd
00000300: ebf6 b33e 826e f53e 2e4c fabd 0516 8426
00000310: 7853 c719 56e7 3c9b 4ca1 1d3e 0a0e 313e
00000320: 9266 06bf e802 76be d0db f03e eb5c 593e
00000330: 4b7f 0f1a af21 e1ba 3bf2 00bb c183 0abf
00000340: 540c 12be 00a3 513e 67ae b63e c4e3 883e
00000350: c3df 02bf eed9 babe 1865 1dbd 6160 0c3f
00000360: e42a e23d 3b53 dabd 418a 823e f660 02be
00000370: ffa1 babe f758 ec3e 4a3e 6cbe 8822 afbd
00000380: ee4b 12bf 0bb0 c23e 046b e63e e764 363e
00000390: b3e3 bebb c1a5 3abd a634 85bc 9ceb e03e
000003a0: 0845 413e 806f fd3e 7fa8 9c3e 61db a83d
000003b0: ebda e5bd 68f3 2fbc 1ca7 b5bc 9241 10bd
000003c0: 546c 8a3e e4a5 91be 48ee 0ebd 5d26 8fba
000003d0: c5d5 c621 c6b0 ccbb 8bc1 64bb 8433 9b33
000003e0: 15f6 bfb0 1d16 bb3d 6bde d1bc f2c0 09bc
000003f0: afea 3fbd a908 b5be aad1 10be 7fc1 04bf
0.38830045 0.4769944 -0.18996832 0.46772975 -0.21732 0.041913763 -0.29556888 0.34678218
0.5264583 -0.44246033 0.5038394 0.119615495 0.45076922 -0.088265054 0.24897438 -0.16804266
0.46020675 0.028895587 -8.694263e-05 -0.012230666 -7.174937e-05 -0.037028857 -0.20188773 0.42801607
-0.48114386 -0.31951836 -0.17369488 -0.36442244 0.007958496 -0.5861774 0.5248998 -0.58915037
0.30014977 0.08951105 -0.10332287 0.34687674 0.120652184 0.48532006 0.08682232 -0.19810714
0.17329477 -0.16428067 0.17130531 0.44890612 0.42550278 -0.22910818 0.35608736 0.103066
0.29172757 -0.28005183 -0.503918 -0.12666987 -0.45650163 0.49185184 0.18749475 0.11733045
0.24914338 -0.068210915 0.4442498 -0.42449707 -0.012380888 -0.004959521 0.00012656591 -2.1110121e-07
4.888684e-09 -3.5049667e-17 0.018415557 -0.0014603271 -0.0015500195 -0.32330418 0.51786274 0.20895447
0.58767426 -0.43065938 -0.61367667 -0.41432628 -0.45438442 0.20355766 0.15505046 0.49914
-0.2836394 -0.07806431 0.08410056 -0.052978482 0.35433638 -0.1840007 0.2985415 -0.43563923
-0.37470046 0.15301067 0.13438089 -0.21994412 0.24675468 0.20917818 -0.19212365 -0.07469694
0.52276653 -0.19590631 -0.14387633 -0.5419734 -0.3803337 0.16497706 -1.5757017e-21 -0.007808968
1.915538e-23 -0.004980309 -0.020981397 -0.00068800314 -0.51043695 -0.43249127 0.54861027 0.12678683
0.19277683 -0.326224 -0.0036412312 -8.012067e-08 6.31089e-20 -0.4634316 -0.27498585 -0.37711227
0.027049717 -0.26640978 0.03072098 -0.3402074 -0.45282564 -0.34576505 -0.16936779 -0.4945114
0.4869046 -0.14511092 0.46886355 0.15740803 -0.3600571 0.45345643 -0.104257934 -0.17968692
-0.5242673 -0.58870906 0.11405234 -0.19401321 0.21366905 -0.40325877 0.47383314 -0.42237616
-0.13747759 0.100807376 0.28666258 0.41988105 0.46715373 -0.5341882 -1.2439514e-13 -2.4293702e-05
-5.792855e-22 -0.38142788 0.59063643 -0.39041698 0.32716587 0.14940734 0.21195203 -0.37969032
0.47762772 0.0027534594 0.14274015 -0.5109981 0.2683058 0.0032255116 -0.3273126 0.44628072
-7.2614086e-16 -0.0007241479 -0.00025751538 -0.05786153 0.296056 -0.17847629 -0.0010006208 -1.8082653e-07
-0.009531274 0.15326722 0.44578224 -0.55693704 0.032869928 0.38048336 0.10877989 -0.16428399
0.3277319 0.3357436 1.608164e-06 -2.0977368e-19 5.9903135e-13 0.10427953 -0.12576792 -0.11711716
0.3514932 0.47935873 -0.12221561 9.165308e-16 2.060983e-23 -1.5625744e-22 0.15393561 0.17290512
-0.5250026 -0.24024546 0.47042704 0.21226852 2.9674533e-23 -0.0017176176 -0.001967563 -0.5410729
-0.14262515 0.20472336 0.35679933 0.2673627 -0.51122683 -0.36494392 -0.03842649 0.5483456
0.11043337 -0.10660406 0.25496104 -0.127323 -0.36451718 0.46161625 -0.23070636 -0.08551508
-0.5714711 0.38024935 0.4500352 0.17811929 -0.0058254837 -0.04556823 -0.016260456 0.43929756
0.1887399 0.4949913 0.30597302 0.08244968 -0.11223396 -0.010739185 -0.02217441 -0.035218783
0.27035773 -0.28446877 -0.03489521 -0.0010921467 1.3473586e-18 -0.006246659 -0.00349054 7.2271206e-08
-1.396702e-09 0.09135077 -0.025618752 -0.008407818 -0.04685467 -0.3535817 -0.1414248 -0.5185775

conv1.bias f4 [128]
00000000: d899 113d 379f f63d 401c f3be c443 5cbe
00000010: 84f9 973c e0da aabd 9978 86bc 2420 4bbe
00000020: c7a2 ba3e ff09 8b3e beb1 b0bc a0a7 91be
00000030: 5f12 e7be 4668 313d 1823 04b8 6495 85be
00000040: 8aa1 40bd 07ba b03e 39fb 87ba 77a6 c4bb
00000050: 5410 9fbc 41d5 f4bc 510b 14bd 0bee 91be
00000060: c4e4 84be a399 323e f98d 3bbe 81ab 9cbd
00000070: 39f5 1e3d c6cb 2f3e b1a3 893d b16f 3cbe
00000080: 43c2 83be 9ba9 4a3e 8e15 86bb 9d97 65bb
00000090: c109 0bbd a1d2 51be ddd9 1fbc 9324 b23e
000000a0: 007c 453e f589 e43d d12d a5bd b2d9 0bbf
000000b0: 4286 21be 11e9 153e 51c5 a63d 173e 25bd
000000c0: 0d71 7cbe ae99 1d3e d155 6cbc 0622 753e
000000d0: 77aa 66be 8a4c 11bb e302 55bd 9dd1 953d
000000e0: 40ef 41b1 06be aa3d 5891 3d1a b571 4e3e
000000f0: fcfb 243d 6f84 87be fd82 04bc 93f6 413e
00000100: 10bf a63c 69a4 34bc 4686 ffbc a5d7 0ebf
00000110: 4ba3 8bbc ac85 d43d 7279 453e 1bb6 ff3d
00000120: 5116 23be a8a9 9b3e 5376 f93d a5d1 b0be
00000130: 698a cd1a 414e 5239 160c 7d3d dec1 d3bb
00000140: adf5 1a3e df93 97b9 4783 98bc fc82 b0bd
00000150: ab18 ec3e c408 de3e 6f71 e63c cafb 453e
00000160: a0d2 513d 10f5 b6bc d337 91be e5c3 4d3d
00000170: 3919 8bbe 047a 94bb 3f85 b9b2 cc76 fd3d
00000180: 54d3 243e 882b 74b6 d8d9 b2ba 9df3 a43d
00000190: 596e b5ba fde0 22be 2354 383e 2cc7 bdbd
000001a0: a9e9 873e dca4 2e3d e9ec fd3d 36ee af3d
000001b0: 9a74 343e bc15 9dbc 53f0 acbd 0b60 d43a
000001c0: 8571 0c3e 9959 5d3e eeb6 3b2b d933 55be
000001d0: 35bb 20be 5e9e 9dbe 51cc d43d 4c29 343e
000001e0: 43d0 e03e ac3b b53b 42de 0cbc 88a6 aabe
000001f0: a28a a2bc 546a fcbd 7196 c9bc 53b4 00bf
0.035547107 0.120420866 -0.4748249 -0.21510226 0.018551596 -0.08342528 -0.016414927 -0.1983648
0.36452314 0.27156064 -0.02156913 -0.284482 -0.45131204 0.043312334 -3.1503936e-05 -0.26090539
-0.047029056 0.34516928 -0.0010374553 -0.0060012895 -0.019416966 -0.029886844 -0.036143605 -0.28501925
-0.25955784 0.1744142 -0.18315877 -0.07649899 0.03880808 0.17167577 0.06720675 -0.18401982
-0.25734147 0.19791262 -0.004091925 -0.0035032996 -0.03394485 -0.20490505 -0.0097565325 0.3479353
0.19285583 0.11159126 -0.080653794 -0.5462905 -0.15773872 0.14639689 0.08143104 -0.040342417
-0.246525 0.15390655 -0.014424757 0.2393876 -0.22525965 -0.0022170865 -0.052004706 0.07315371
-2.8221194e-09 0.08337025 3.9201692e-23 0.20160563 0.040279374 -0.26468226 -0.008087871 0.18941717
0.020354778 -0.011025527 -0.031191956 -0.557978 -0.017045638 0.103770584 0.19284609 0.12485906
-0.15926482 0.30402875 0.12180772 -0.34534946 8.5009626e-23 0.00020056312 0.061779104 -0.0064623198
0.1513278 -0.00028911137 -0.018617285 -0.08618733 0.4611257 0.43366063 0.028130261 0.19334331
0.05122626 -0.022333652 -0.28362903 0.050235648 -0.2716768 -0.004531147 -2.1597428e-08 0.12376174
0.1609624 -3.6384172e-06 -0.0013645245 0.08054278 -0.001384209 -0.15906139 0.18000846 -0.09266505
0.26545456 0.04263769 0.12398703 0.08590357 0.17622605 -0.019175403 -0.08444276 0.001620294
0.1371518 0.2161621 6.668961e-13 -0.2082056 -0.15696414 -0.30784887 0.10390533 0.17593879
0.4390889 0.005530795 -0.008597912 -0.33330178 -0.019841496 -0.12324968 -0.024607869 -0.5027515

bn1.weight f4 [128]
00000000: 196c 583f ac41 6d3f bb50 843f daae 873f
00000010: 475a 5c3f 68c2 683f d583 9d3e de93 6e3f
00000020: a728 693f a954 7e3f 61c7 8b3f 7c55 373f
00000030: 2aa6 8b3f 7a63 843f 984b 433f db6a 7b3f
00000040: d4c2 6b3f e173 723f eec2 4a3f 5619 873f
00000050: 309e 9d3e 2a84 9d3e 2a84 9d3e e9ea 753f
00000060: b6bd 6f3f 4de8 7d3f 67fd 8f3f c661 a93e
00000070: e855 6d3f 7b25 743f d490 813f ec71 9d3e
00000080: 42a4 823f b7b7 743f 2a84 9d3e 2a84 9d3e
00000090: 9594 8a3f f777 6d3f 2a84 9d3e e84a 783f
000000a0: dd4c 803f 4665 833f 0003 873f 2755 353f
000000b0: faad 6c3f 4fd7 873f f299 7c3f 5ef0 843f
000000c0: acde 723f f01c 783f 2a84 9d3e 1957 883f
000000d0: 067d 5f3f 453a 833f ba8c 843f 2a83 773f
000000e0: 2a84 9d3e c332 7c3f 2a84 9d3e fe0a 803f
000000f0: 2c51 4c3f 66d6 8b3f 2a84 9d3e 4905 673f
00000100: c672 4d3f 2a84 9d3e 624b 8e3f 1ecc 303f
00000110: 2a84 9d3e 4fe7 6a3f 94e4 7d3f 83c3 693f
00000120: b1be 7b3f 136e 6d3f 3b83 813f fe7a 713f
00000130: 2a84 9d3e 0e1e 4b3f 5c72 583f 2a84 9d3e
00000140: fd76 8b3f 2a84 9d3e 2a84 9d3e d291 9d3e
00000150: dcab 5d3f 164f 783f 3a27 583f a176 8e3f
00000160: 7f4a 5f3f 2a84 9d3e 3e19 4f3f b9da 633f
00000170: f6cd 733f 2a84 9d3e 2a84 9d3e bc50 823f
00000180: 938b 783f 2a84 9d3e 2a84 9d3e cf18 913f
00000190: 2a84 9d3e 95d8 9c3e 71f2 863f 79e9 503f
000001a0: ed72 6f3f 7e47 4f3f 5733 763f 2373 6a3f
000001b0: cd67 853f 7d5d 9e3e dc58 8d3f bf09 843f
000001c0: b512 823f 4400 673f 2a84 9d3e e15e 843f
000001d0: 2b73 6d3f 3d5e 5b3f 1625 6e3f 6004 7c3f
000001e0: 1056 5d3f ff9b 4f3f 2a84 9d3e ac34 6f3f
000001f0: 2a84 9d3e 7734 813f 8aec 933f de4c 513f
0.84539944 0.9267833 1.0337137 1.0600235 0.8607525 0.9092164 0.30764642 0.9319438
0.91077656 0.9934793 1.0920221 0.71614814 1.0910084 1.0342858 0.7628722 0.98209924
0.9209416 0.9470807 0.7920369 1.0554607 0.3078475 0.30764896 0.30764896 0.9606157
0.9364885 0.9918259 1.1249207 0.33082408 0.9270921 0.9536969 1.0122323 0.30750978
1.0206378 0.95592827 0.30764896 0.30764896 1.0826594 0.92761177 0.30764896 0.969893
1.0023457 1.0265281 1.054779 0.7083306 0.9245297 1.0612582 0.986724 1.0385854
0.9487102 0.96919155 0.30764896 1.065158 0.87300146 1.0252157 1.0355446 0.96684515
0.30764896 0.98514956 0.30764896 1.0003355 0.7981136 1.0924804 0.30764896 0.9024244
0.80253255 0.30764896 1.1116755 0.6906146 0.30764896 0.917592 0.9917691 0.9131395
0.98337847 0.92746085 1.0118173 0.94328296 0.30764896 0.79342735 0.845495 0.30764896
1.0895687 0.30764896 0.30764896 0.30775315 0.8659036 0.96995676 0.84434855 1.1129953
0.87223047 0.30764896 0.8089789 0.8900562 0.95236146 0.30764896 0.30764896 1.0180888
0.97087973 0.30764896 0.30764896 1.1335696 0.30764896 0.3063399 1.0542737 0.8160625
0.9353474 0.80968463 0.9617209 0.91581935 1.0422302 0.309307 1.1042743 1.0315474
1.0161959 0.9023478 0.30764896 1.0341455 0.9275386 0.8569067 0.9302534 0.98444176
0.86459446 0.81097406 0.30764896 0.93439746 0.30764896 1.0094136 1.1556561 0.81757915

bn1.bias f4 [128]
00000000: 72c9 4a3d 32a4 59bc f01d 7c3d 0dbe f53d
00000010: 802c ed3c 9ae6 763c 7062 cc3a 3a30 b13d
00000020: b1bb 513d a303 f83c 6155 193b 0fc0 7e3d
00000030: e201 c33d ce9e 8abc 5ed7 273d 5463 b83c
00000040: 9af0 81bd 399f 0f3b 5d3f 1a3d b5dc 0a3d
00000050: 451a a23d f22b 83bd e356 7fbd e5d5 db3d
00000060: bb99 22bd bd1e cdbb 5186 3b3d a0a0 56bd
00000070: 7cb5 9b3c 20ed c93c 0280 f93c 02d2 a4bd
00000080: de87 243d d1d4 b03c 3e26 0c3d 70cd 7d3d
00000090: a1be f33d 465c 923d e54d 493d b815 13bd
000000a0: 8dcd 81bd e1fa 7a3d d07f a33d 9c0e 6abb
000000b0: 034c d33d 218b 5d3d 0df8 40bd a710 d23d
000000c0: 2010 5b3d 8392 5dbc dbb4 74bd f564 7e3c
000000d0: 1994 833d c396 113d bd92 823d b232 a83b
000000e0: cc30 8a3d 48b5 81bd ac7f acbd 16d6 cabc
000000f0: 8636 2a3d 0d92 033e 0c5b 9a3d 2854 663d
00000100: c62a 9d3b 1e47 b0bd e6d5 433b 9b7d ff3a
00000110: ccc9 8f3d 4121 503c 7694 123d b10a c23c
00000120: dc7b b73d 49ff 1a3c f301 61bd 8fcd 343d
00000130: 2824 833d 3bb1 133d 2174 433c 64cc 823d
00000140: c7d2 683d c3b1 b7bd eb4c 583d b063 54bd
00000150: 4437 05bb 766f 94bc 4db5 793d ceab 933c
00000160: 5004 ed3c 767f 94bd 0d05 103c 7ce0 843c
00000170: 725d 3a3d 5b98 3e3d 8cd0 913d 1df6 bdbc
00000180: d97e 1a3c 4a4a b5bd fd2b 993d ffef 1abc
00000190: c8ae a4bd 68a4 b93c f0e0 123c 8a03 103d
000001a0: 921d 583c 07ce 263c 69c6 313c a752 9f3d
000001b0: f7ac f93d 1db0 95bd 2a4b b73d 65d3 a13d
000001c0: bb39 c7bd 9059 833c ff07 8a3d 2228 9dba
000001d0: d70c 1d3d aefd ab3d cc79 5a3d c4a4 4ebd
000001e0: 4eea bfba b496 ec3c 4c22 8cbd 4288 80bc
000001f0: 698e 8d3c 575c 2c3e c538 343d a975 c53c
0.04950852 -0.013283776 0.061551988 0.1199914 0.028951883 0.015069628 0.0015593302 0.086517766
0.051204387 0.030275172 0.0023396837 0.06219488 0.095218435 -0.016921427 0.040976875 0.0225083
-0.06344719 0.0021914972 0.037658084 0.03390189 0.07915167 -0.06404866 -0.06233872 0.107341565
-0.03969739 -0.006259768 0.04578239 -0.052399278 0.019007437 0.024649203 0.030456547 -0.08047868
0.040168636 0.021585854 0.034216158 0.0619635 0.11901594 0.07146506 0.04914655 -0.035909384
-0.06338034 0.061274413 0.07983363 -0.0035714274 0.103172325 0.05408776 -0.04711156 0.102570824
0.053482175 -0.013523701 -0.05974279 0.015527 0.06424732 0.03554417 0.06375644 0.0051329965
0.067475885 -0.06333405 -0.08422789 -0.024760287 0.041555904 0.12848683 0.07536897 0.0562326
0.0047963588 -0.086073145 0.0029882132 0.0019492389 0.070209116 0.012703241 0.035786115 0.023686739
0.08959171 0.009460279 -0.0549335 0.04414135 0.06403381 0.036057692 0.011929543 0.06386641
0.056841638 -0.08969452 0.05280773 -0.051852882 -0.002032713 -0.018119555 0.060963918 0.018026259
0.02893272 -0.07250874 0.008790267 0.016220324 0.045499273 0.046532016 0.07119855 -0.023188645
0.009429657 -0.0885206 0.07479093 -0.009456634 -0.080411494 0.022661403 0.008964762 0.035159625
0.013190644 0.010180957 0.010850527 0.077794366 0.121911936 -0.073089816 0.08949883 0.079016484
-0.09727808 0.016033918 0.067398064 -0.001199011 0.038342323 0.08397995 0.05333881 -0.0504501
-0.0014641972 0.028880455 -0.06842479 -0.015689973 0.01727982 0.168321 0.043999452 0.024103956

bn1.running_mean f4 [128]
00000000: c9d5 873e 881e 593e a602 9d3a f4e3 6f3b
00000010: 7638 623e 2c51 393d 25e5 1007 8078 7839
00000020: f0fc 903d bcd0 d23c e331 813d 414c d636
00000030: 3770 763a 8616 bd3b 18b6 b33e 1660 ec38
00000040: d41a 1d3a 21b3 9b3e 14ad 3a3e ca2b a93c
00000050: 4fd2 b602 0000 0000 0000 0000 fabc 783b
00000060: 7236 4238 6d3c 9f3c 916e 493c 479a e817
00000070: 8886 443e 22e2 903c dafc e33d 2b14 6e2d
00000080: 5ef4 d939 7894 c13c 0000 0000 0000 0000
00000090: cf2f 9e3b ed76 7636 0000 0000 7200 1f3d
000000a0: 52d1 f03d 1056 6938 7a7f 053b c3fa fb34
000000b0: 7377 8939 2a6c dc39 229b f53d c556 ab39
000000c0: c155 0f39 86d9 8d3e 0000 0000 9239 423e
000000d0: b3d2 033d 9477 4c3d da9d ac3a 0f09 df3d
000000e0: 0000 0000 5647 d43d 0000 0000 a8c8 633e
000000f0: d98a 613e 356d d63b 0000 0000 04cf 0e3e
00000100: 06ad 853e 0000 0000 f4e0 b93b 406c 5835
00000110: 0000 0000 9d98 973c 0ffa 703e d883 2d3e
00000120: cdf2 0a3a 37f3 923e 19f9 cc3a 637f 323d
00000130: 0000 0000 7cf9 be3e 3cdc 1b3e 0000 0000
00000140: e7f6 003e 0000 0000 0000 0000 ec73 5200
00000150: ee77 8d3e bd60 9c3e 2869 ad3e e4c1 f93d
00000160: 4590 633e bfb1 8316 784a f137 0336 893e
00000170: 4110 003a 0000 0000 0000 0000 dc0c 413d
00000180: f0f8 423e 0000 0000 0000 0000 6ddc d83a
00000190: 0000 0000 7f10 5a28 a543 0d3e ee8f 183e
000001a0: f662 bb3e 6cc3 c73e 136a 963c 4ef1 673e
000001b0: c161 763a b054 6832 c2b6 533c 18a3 4038
000001c0: 9044 eb3d abc5 003e 0000 0000 e38b 2f39
000001d0: 5482 5f38 b5b8 793d a079 973d ff87 7d3e
000001e0: f210 cf3d fc1a 013e 0000 0000 97ef bd3c
000001f0: 2131 0514 2ff6 133c 5c66 493d 70f3 4c38
0.26530293 0.21203053 0.0011978939 0.0036604377 0.2209185 0.045243427 1.0900695e-34 0.00023696013
0.07079494 0.025734298 0.06308343 6.386574e-06 0.00094008766 0.0057705073 0.35099864 0.00011271254
0.00059930724 0.30410102 0.18230087 0.020650763 2.6863208e-37 0.0 0.0 0.0037954436
4.630391e-05 0.019437993 0.0122944275 1.5031594e-24 0.19191945 0.017685954 0.11132212 1.3533212e-11
0.00041571533 0.023630366 0.0 0.0 0.0048274766 3.672608e-06 0.0 0.038818784
0.11758675 5.563168e-05 0.0020370171 4.6934846e-07 0.00026219673 0.00042042258 0.1199248 0.0003268031
0.00013669489 0.2770502 0.0 0.18967274 0.03218336 0.049918726 0.0013169602 0.108904
0.0 0.10365169 0.0 0.22244513 0.22025622 0.00654378 0.0 0.13946158
0.2610857 0.0 0.0056725685 8.0623795e-07 0.0 0.018505389 0.2353289 0.16944826
0.00053004624 0.28701183 0.0015638202 0.043578517 0.0 0.37299716 0.15220731 0.0
0.12594186 0.0 0.0 7.572096e-39 0.27630562 0.30542555 0.3386929 0.12195185
0.22223003 2.1276365e-25 2.8764116e-05 0.2679902 0.00048852345 0.0 0.0 0.047131404
0.19040275 0.0 0.0 0.0016545184 0.0 1.2105008e-14 0.13795336 0.14898655
0.3659894 0.39016283 0.018361127 0.22650644 0.0009398722 1.3523433e-08 0.012921991 4.592826e-05
0.11487687 0.12575404 0.0 0.00016741412 5.328872e-05 0.060967166 0.07396245 0.2475891
0.10110654 0.1260795 0.0 0.023185534 6.724473e-27 0.009030863 0.049169883 4.886411e-05

bn1.running_var f4 [128]
00000000: 7bf1 353c f8d8 913b c3ef f238 3cd0 9c39
00000010: 0c80 bb3b dc94 2d3b 60f0 e100 23b8 2e37
00000020: d1ec a83b 4c45 063b 8ac0 733b 1c3a 3f34
00000030: cc14 9538 5118 2439 0dfe 813c 9f79 9536
00000040: b567 db37 4086 e13b 45b6 803b abd6 9a3a
00000050: 1f13 0300 5612 0000 5612 0000 bdd5 b339
00000060: 055b fb35 9f67 ad3a 55d8 8b3a db02 3b14
00000070: 03e9 6e3b 4e40 953a fe5e 9a3a 54f8 2d29
00000080: 9e7c cb37 dd9f f13a 5612 0000 5612 0000
00000090: 4aa9 d039 c20e 1034 5612 0000 d44b 4c3b
000000a0: 01cd 973a 8141 0036 0f42 0039 2be8 c332
000000b0: c74e 2e37 2cdd 9737 f96c 663a c9bb 4d37
000000c0: cbcc a636 894f 6c3c 5612 0000 2a79 a03b
000000d0: 44dd 2e3b 7f70 563b 354f 8338 db28 6e3b
000000e0: 5612 0000 c5d0 953a 5612 0000 73e3 053c
000000f0: fdeb 973b 3338 1a3a 5612 0000 b20a 903a
00000100: f4e6 283c 5612 0000 32ad af39 0b85 8933
00000110: 5612 0000 925f c33a d2bb 253c d0e0 283c
00000120: d1bd 8637 752b b93b e78e 9138 86e4 ba3b
00000130: 5612 0000 efd6 823c 0621 503b 5612 0000
00000140: 816b 183b 5612 0000 5612 0000 a9a4 0000
00000150: c6ad 9b3b 7179 bf3b 2237 3a3c efe4 8a3b
00000160: f2eb d43b b5dc 6902 c119 bf35 b5b7 3a3c
00000170: 612f 0338 5612 0000 5612 0000 393e 5e3b
00000180: 408e 873b 5612 0000 5612 0000 d0e6 2b38
00000190: 5612 0000 76cf 6325 6af9 993a acb4 233c
000001a0: 9470 833c 61f4 913c 4355 873a de80 d33b
000001b0: f637 3a38 109b 022e 0a52 863a 072c 8c35
000001c0: 2a57 b23a 72af 793a 5612 0000 d079 0c37
000001d0: ab13 ce35 9b34 f33b f359 df3b 90d0 bb3b
000001e0: 0993 093c ad09 2d3b 5612 0000 dbc4 333b
000001f0: 375a 1b04 9807 2c3a daec 423b 4082 3636
0.011104937 0.0044509135 0.00011584118 0.00029909785 0.0057220515 0.0026486432 2.0749217e-38 1.0414081e-05
0.005155184 0.0020488081 0.003719362 1.7809401e-07 7.1087474e-05 0.00015649317 0.015868211 4.4547046e-06
2.6155127e-05 0.006882459 0.003927978 0.0011813244 2.82366e-40 6.578e-42 6.578e-42 0.00034300788
1.8727447e-06 0.0013229734 0.001066933 9.4416505e-27 0.0036454804 0.0011386962 0.0011777577 3.8629107e-14
2.4257515e-05 0.0018434484 6.578e-42 6.578e-42 0.00039798982 1.3416414e-07 6.578e-42 0.0031173127
0.0011581482 1.9111615e-06 0.0001223164 2.2806566e-08 1.038955e-05 1.8103594e-05 0.0008790042 1.2262674e-05
4.9710266e-06 0.0144232595 6.578e-42 0.0048972564 0.0026682178 0.0032720861 6.26132e-05 0.003634027
6.578e-42 0.0011430016 6.578e-42 0.008171904 0.0046362863 0.0005883008 6.578e-42 0.0010989516
0.01030897 6.578e-42 0.00033507642 6.40376e-08 6.578e-42 0.0014905802 0.010115581 0.010307506
1.6062435e-05 0.0056509324 6.9407564e-05 0.0057035116 6.578e-42 0.015971629 0.0031757965 6.578e-42
0.0023257437 6.578e-42 6.578e-42 5.9069e-41 0.00475094 0.0058433344 0.011365684 0.004238717
0.0064978534 1.7181476e-37 1.4238104e-06 0.011396338 3.127696e-05 6.578e-42 6.578e-42 0.00339116
0.0041368306 6.578e-42 6.578e-42 4.0984538e-05 6.578e-42 1.9759402e-16 0.0011747305 0.009991806
0.016044892 0.017816724 0.0010325093 0.006454571 4.4397973e-05 2.96963e-11 0.0010247838 1.0443626e-06
0.0013606299 0.00095247396 6.578e-42 8.373012e-06 1.535392e-06 0.0074220425 0.0068161427 0.0057316497
0.008396872 0.0026403472 6.578e-42 0.0027430567 1.8261587e-36 0.0006562411 0.0029743225 2.7195929e-06

conv2.weight f4 [128, 128, 3]
00000000: 0960 74bc 1b21 2abd 49ef 9ebd f0ed 79bd
00000010: f563 113d 852a 88bc ea68 b73d ccd7 90bd
00000020: 32e8 713d 8861 ed3c 0d77 0abd 03be 933d
00000030: aadf f93c 767d 0abd c6ba b73c d467 83bc
00000040: 7099 8f3c 8cf1 30bc c2b5 843c 90d1 8d3c
00000050: 2865 0a3c 7fe1 e13d aa97 343d 4f7c 1fbd
00000060: 33f9 95bd 6ed4 3cbd 9c6e 49bd 5604 423d
00000070: 407e 7dbd 44b8 8139 dbc9 3fbd b2b8 90bc
00000080: e649 aa3d ca93 9f3d f54b a8bd 91f2 123d
00000090: 3f30 d93d 3e7c 1f3d a015 44bd 3e41 923b
000000a0: 7dbf 12bd 1833 063d d276 5abc 6fd5 b5bc
000000b0: 9cd8 003c 975f f33d eb73 ecbc b3c1 ad3d
000000c0: 09ed b13d 13bd 023d e4d1 a9bc 1eea 9cbd
000000d0: b474 60bd 1321 10bd 5885 3fbd f10b 4abc
000000e0: ffbe 6bbd 30c1 46bd d277 37bd 0037 c3bd
000000f0: 83c2 8bbd 70ed 61bd 5846 8cbc b743 523d
00000100: bc97 623d 64df 023d 31b8 383d 4f91 4a3d
00000110: 3664 0e3d c38f 85bd bf10 72bd 4ea4 a93d
00000120: 2fd4 453d 6628 3a3d eff1 6abd 9129 8cbc
00000130: 8a81 78bc 9417 8a3b 5502 153c 9798 983d
00000140: fae8 92bd 6d9b 4b3d 934b 433d e50b af3c
00000150: 00c5 2ebc 7d4e 08bd cd70 333d 5f3b 5bbc
00000160: 0cf5 11bd 892e 933c 5b81 89bd 5ff2 b5bc
00000170: 9ed3 90bb 9f20 1c3d df21 413d 7637 e33c
00000180: 468d ca3c 09e8 a53d 882c b7bc 8a52 4ebd
00000190: 53b6 f9bc 7920 0e3d 0d0d 1dbd 912f 38bd
000001a0: cfe2 a9bc 65b5 78bd 3a86 75bd d4bd 91bc
000001b0: df8e 80bd 487a 4539 3d2a 44bd b2fa a6bd
000001c0: 0bd5 12bd 6676 943d 8d3c 49bd 2ccb 44bd
000001d0: 065d 0ebd cf2a ba3c 81df 70bd a2cf 19bd
000001e0: 52c7 fabb 4559 bdbc ef5d 933c 9abc 2cbd
000001f0: 9dba 42bd 8485 15bd 2659 a0bd f52b 89bc
00000200: 3404 d23c a99b c0bc fa89 e23c bd14 383d
00000210: f89a 1dbd 64ac 6dbd 5dec e4bc e83d c03c
00000220: 7738 67bc e957 dcbc 3d3c eb3c 39dd fdbc
00000230: fd8b 493d 6aa2 fcbc 9c13 2fbd 6536 393d
00000240: 809a aa3d 6b09 95bd 979e 1e3d a3f2 1bbc
00000250: 37c1 3bbd 2ed1 75bd c5ff 163d 710b 873d
00000260: 3ac8 0b3d 8b4f 32bd dd96 a6bc 83af f1bc
00000270: befa f53c 186a 9fbb edc1 2abc 59f1 0abc
00000280: 74d4 133d 51f7 9f3c 98cf b1bc ca08 843d
00000290: 0369 6d3c 024d 29bd 460f 4abd 700d 82bc
000002a0: 07e3 2ebd aa44 69bd 9f77 20bd db14 01bd
000002b0: 3368 f3bc 4d29 20bc 7a76 263d c892 6d3d
000002c0: 445f 4d3c 33b4 8fbd 43b2 963b 6043 17bd
000002d0: beed 963b ae92 6c3d f3f3 79bc e3a7 fa3c
000002e0: dc02 d73b 6592 d03d 0e38 8bbd 05af 2dbd
000002f0: d923 a0bc 4eda 7cbd 732f 9ebd 0f83 85bc
00000300: fadf d3bb 75b4 36bd 5b90 9ebc 829a 883d
00000310: b1c5 303d 908d 1d3d e4da 8abc 26c5 ab3b
00000320: c311 ff3c e665 fbbc 7e4c 5c3c 80d5 4c3d
00000330: 945f 45bd 8b6c 9bbd 6e2f 12bd 60d4 08bd
00000340: 8611 c4bc 2719 243d 5ae4 38bd 4f55 b83c
00000350: 68f7 a4bd e2cc 75bc 58f0 c33c c2ae 16bd
00000360: 7a1b 3c3d 8868 be3c 38ae 6abc ca24 acbd
00000370: 209c 85bd 03e1 a73c 165f 913d ffad 773d
00000380: c574 b1bd e5a4 12bd 1d8c 7b3d 5fa4 c83c
00000390: 0ef0 40bd 7fd9 6abd a0f3 debc c1ec 393d
000003a0: 1263 87bc ae87 01bd 50bd 543b 8da2 1fbd
000003b0: 2541 25bd 788f 3bbd 5218 64bd 8530 e4bc
000003c0: f070 89bd 1137 82bd e5cc d73d 928f 443d
000003d0: 75b7 833d 4bc1 2c3d 9e29 63bd 0348 2dbd
000003e0: ab8a f6bc d7c0 483d 7cf2 563d cc10 a53c
000003f0: 846e 84bd 1414 d9bc d00f 0c3d 6814 91bd
-0.014915475 -0.041535478 -0.07760484 -0.06101793 0.035495717 -0.016621837 0.08955558 -0.0707241
0.05905933 0.02897717 -0.033804942 0.07213976 0.03050216 -0.033811055 0.022427928 -0.01604072
0.01752922 -0.010799777 0.01619995 0.017311841 0.008446969 0.11029338 0.04408995 -0.03893691
-0.073229216 -0.046101026 -0.04917775 0.047367416 -0.06188798 0.00024742086 -0.046823364 -0.017666195
0.08314876 0.077918604 -0.08217613 0.03587586 0.10604905 0.038936846 -0.047872186 0.004463344
-0.03582715 0.03276357 -0.013333993 -0.0221965 0.007864144 0.11883467 -0.028863868 0.08484211
0.08687789 0.031918596 -0.020729966 -0.07661842 -0.054798797 -0.035187792 -0.046758026 -0.012331949
-0.057555195 -0.04852408 -0.044792004 -0.09531975 -0.068242095 -0.05515808 -0.017123386 0.05133411
0.055320486 0.031951323 0.045097534 0.049454983 0.034763537 -0.06521561 -0.059098 0.08283292
0.048298057 0.045448683 -0.057359632 -0.017109664 -0.015167603 0.0042142365 0.009094794 0.07450979
-0.07173343 0.049708772 0.047679495 0.021367976 -0.010667086 -0.033277977 0.043808747 -0.013380854
-0.035634086 0.017966526 -0.06714126 -0.022210298 -0.004419758 0.038117047 0.047151443 0.027736407
0.024725568 0.08100898 -0.022360101 -0.050371684 -0.030482447 0.034698937 -0.038342524 -0.044967238
-0.020738034 -0.060719866 -0.05994246 -0.017790712 -0.062772505 0.00018832937 -0.047891844 -0.08153285
-0.035847705 0.07249145 -0.04913001 -0.048045322 -0.034756683 0.02272549 -0.0588069 -0.03755153
-0.0076531554 -0.023113856 0.017989127 -0.042172052 -0.04754125 -0.036504284 -0.07829504 -0.016744593
0.02563677 -0.023511725 0.027653683 0.044941653 -0.038477868 -0.058025733 -0.027944738 0.02346702
-0.014112583 -0.026897388 0.028715247 -0.030989276 0.04920577 -0.030839164 -0.04274331 0.04521789
0.0833025 -0.07277187 0.03872546 -0.009518298 -0.04583856 -0.060013942 0.036865015 0.06593979
0.034126498 -0.04353289 -0.02033561 -0.029502636 0.03002679 -0.0048649423 -0.010422212 -0.008480393
0.036091283 0.01952711 -0.021705434 0.06446989 0.014490369 -0.041333206 -0.049330972 -0.015875548
-0.04269698 -0.05695025 -0.03917658 -0.03151403 -0.029712772 -0.009775472 0.04064033 0.05800131
0.01253492 -0.07016792 0.004598887 -0.03692949 0.004605978 0.057757072 -0.015255916 0.030597633
0.00656162 0.101841725 -0.06797801 -0.04240324 -0.019548343 -0.06173163 -0.07723894 -0.016297845
-0.006465909 -0.04460569 -0.019355943 0.06670095 0.043157283 0.038465083 -0.016950078 0.005242008
0.0311364 -0.030688237 0.0134459715 0.050008297 -0.048186854 -0.07589062 -0.035689764 -0.03340566
-0.023934137 0.04006305 -0.045139648 0.022501616 -0.080550015 -0.015002461 0.023918316 -0.036787756
0.04592464 0.023243204 -0.014323764 -0.084054545 -0.06523919 0.020493036 0.07098214 0.06046867
-0.0866485 -0.035801787 0.06141292 0.02449244 -0.047103934 -0.057336327 -0.027215779 0.0453918
-0.016526733 -0.031623535 0.0032461472 -0.03897338 -0.04034533 -0.04579112 -0.055687256 -0.027855167
-0.06710994 -0.06358159 0.105371274 0.04798848 0.06431476 0.042176526 -0.05545961 -0.042305004
-0.030095419 0.04901203 0.052477345 0.020149611 -0.06466392 -0.026498832 0.034194767 -0.0708397

conv2.bias f4 [128]
00000000: 9e5e cabc 469c f03c 2d70 513c f0ac 6dbd
00000010: 548d c4bd 8789 dabd f6be 3fbd 3a90 513a
00000020: 4d68 a4bd c933 453d 70c1 233c 40c9 67bd
00000030: ea30 2abd df2e 54bd 7fe7 4fbd 2dd1 d5bc
00000040: 0a20 323d 1792 30bb ab46 a33d ef03 333b
00000050: 7cea 50bd 6210 a9bc e93e f4bd 5bef 34bd
00000060: 8739 b5bc 1f39 c93a 6e07 ddbd cbe6 b73d
00000070: 0dd7 4f3c f84b d5bd 23be 0a3d 719c 033c
00000080: 182b 6a3c f05b 9dbd 6ac6 e9bd 3a52 ebbd
00000090: 3302 9aba 22cd df3b 5805 143b f145 373d
000000a0: 5861 183d 1325 0dbe 2d6d 3dbd 9d66 2e3d
000000b0: 0648 713d 52f1 1e3d 04b3 a3bd 7cf5 8cba
000000c0: d010 9abd e8ac 56bc 24dd a4bd acc4 433d
000000d0: 4c9e 0abd 2f52 d23c 9b2f 85bd 1f4d e7bb
000000e0: 6c11 343d 3927 9fbd da87 e6bd 9e90 0b3d
000000f0: babf 043d ee5c a73c 56e3 a1bd 1eff a2bd
00000100: b312 c1bd e113 a2bd 1a77 18be 914d a3bd
00000110: e63b e6bc a1e0 aebd 1661 09bd 6bf6 9fbc
00000120: d517 33bc 0035 1dbd 6795 66bd e7b4 5c3d
00000130: 5f8e 2cbd 6d0f d73c 19fc 59bd 8ae1 dfbc
00000140: 02f9 86b9 9d3f 7bbd 15bf 053c 339f 6abd
00000150: 3ed5 6fbd 36f8 d7bd fc28 98bd d6a2 33bc
00000160: a155 6fbd 4a48 b9bd b49e 5ebc 10f2 11bd
00000170: 73e1 97bc c346 7fbd 34fb fd3c e734 1ebc
00000180: 4e14 0ebd 1a70 65bd 397f ccbd 59b4 883d
00000190: 07b1 a6bd 4506 acbd cc2a d2bd 6f82 efbd
000001a0: 2798 3abd 6ef5 2abd 13e8 a2bd d32a 87bd
000001b0: 3c22 5f3c 3ffd b4bd 68de 5dbd 713c f5bc
000001c0: 7c02 d53c 0125 01bd c30a 7ebd bce2 4cbc
000001d0: e3c7 8fbd f1b8 92bd 5a91 aa3c 6fcb 08bd
000001e0: 91e4 113d 15ed bbbd 88bc 77bd e70f 8bbd
000001f0: 1028 7bbd bd63 d63b fec9 96bd 9c45 2fbc
-0.02470332 0.029371392 0.012783092 -0.058026254 -0.09597269 -0.106707625 -0.046812974 0.0007994209
-0.08027706 0.04814509 0.00999485 -0.05658841 -0.041550554 -0.051802512 -0.05075788 -0.02610072
0.043487586 -0.0026942545 0.07972463 0.0027315577 -0.05100487 -0.020637695 -0.11926062 -0.04417358
-0.022122158 0.0015352106 -0.10792433 0.08979567 0.012685549 -0.104148805 0.033872735 0.008032904
0.014292501 -0.07683551 -0.114147976 -0.11490293 -0.0011749923 0.0068298737 0.0022586193 0.044744436
0.03720221 -0.13783674 -0.046246696 0.04257833 0.058906578 0.03880436 -0.07993129 -0.0010754312
-0.07522738 -0.0131027475 -0.08049992 0.047794983 -0.03384237 0.025673954 -0.06503221 -0.007058754
0.043961927 -0.07771153 -0.112563804 0.034073465 0.032409407 0.020430055 -0.07904689 -0.07958816
-0.09427395 -0.07913948 -0.14889184 -0.07973779 -0.028104734 -0.08538938 -0.033539854 -0.019526681
-0.010930975 -0.038380623 -0.056294825 0.05388346 -0.042127963 0.026252473 -0.053218935 -0.027329225
-0.00025743997 -0.061339963 0.008163233 -0.05728073 -0.058552973 -0.10545389 -0.07429692 -0.010964116
-0.05843127 -0.09046991 -0.013587642 -0.03563124 -0.01854012 -0.062323343 0.031003572 -0.009656168
-0.034687333 -0.05601511 -0.09985203 0.066750236 -0.08139234 -0.08399633 -0.10262069 -0.116948
-0.04555526 -0.041737966 -0.07954421 -0.06599965 0.013619002 -0.08837365 -0.05416718 -0.029936047
0.026002161 -0.03152943 -0.062021982 -0.01250523 -0.07020547 -0.07164181 0.020821262 -0.033397134
0.03561837 -0.09176079 -0.06048253 -0.067901425 -0.061317503 0.0065426514 -0.07362746 -0.0106977485

bn2.weight f4 [128]
00000000: 9608 783f dba8 7d3f 230a 763f 4c5e 743f
00000010: 8f3a 893f b735 793f 165c 733f 8a0e 5a3f
00000020: 2a8a 733f 4c31 7f3f d173 803f aa40 823f
00000030: e8cf 6b3f 1024 753f 31e1 813f bbab 8c3f
00000040: 4f9f 5b3f a085 8a3f 7078 743f d9b7 853f
00000050: fd37 893f fecc 753f 76e5 8f3f f955 753f
00000060: 2667 813f ff1d 793f 46c6 7f3f 5cf8 703f
00000070: 8220 7f3f d399 6e3f 030e 833f 1bbc 823f
00000080: a753 783f b995 863f 2ab4 6e3f aa9c 6f3f
00000090: 6d06 8b3f 1cda 7e3f b184 833f c3c9 893f
000000a0: 122b 843f d460 7e3f dc91 7b3f beba 703f
000000b0: 25dc 5c3f 2ab7 8f3f 0ee2 673f 9e0f 663f
000000c0: af75 7a3f ebd4 843f 682a 5f3f 85e1 823f
000000d0: 4e6e 823f 10bc 863f 47c8 813f ea6d 603f
000000e0: 3a3e 753f afcb 7d3f 6a22 6a3f d951 803f
000000f0: e0a8 6e3f debc 693f 8cfd 703f 2202 883f
00000100: 6fed 6a3f 2a64 713f 196b 603f 3c93 833f
00000110: 8f4f 7a3f 37b3 883f 0368 8a3f 3baf 823f
00000120: 1959 853f b266 7a3f c312 873f 46db 7b3f
00000130: 9e47 783f e212 743f a1cb 933f 72a2 8e3f
00000140: bf4b 693f fc95 883f 6fc6 873f 0d50 5d3f
00000150: 5294 863f 337d 6e3f fe59 733f 4eff 8a3f
00000160: 4d16 843f 6f4c 813f c0fd 7c3f 0adb 8f3f
00000170: 37f2 7a3f ab77 893f 6a45 803f 78ae 7d3f
00000180: 57fd 723f 96a1 693f df00 813f 8614 793f
00000190: 4fc4 823f 280b 7b3f a6f8 813f 7acd 823f
000001a0: 7de5 5d3f cf80 743f 3f39 723f 125a 6f3f
000001b0: d808 6e3f cfb5 8c3f 02d3 8f3f 1737 863f
000001c0: e26c 6d3f c893 833f 20be 743f 3915 883f
000001d0: fb5d 613f 8b2b 743f 6eac 783f 00e6 5c3f
000001e0: 4dc9 693f 9d4f 613f 80f6 753f 4d67 803f
000001f0: fbe3 823f d76a 893f 455b 7d3f 1cc3 853f
0.968881 0.9908578 0.9610922 0.95456386 1.0720996 0.9734759 0.95062387 0.85178435
0.95132697 0.99684596 1.0035344 1.0175984 0.92114115 0.9575815 1.0146848 1.0989908
0.8578996 1.0822029 0.95496273 1.0446731 1.0720211 0.9601592 1.1241901 0.9583431
1.0109603 0.97311395 0.99911916 0.94128966 0.9965898 0.9320347 1.0238651 1.0213655
0.97002643 1.0514442 0.9324366 0.93598425 1.0861336 0.9955156 1.0274869 1.0764698
1.0325644 0.993665 0.9826944 0.94034946 0.86273414 1.1227772 0.9057931 0.8986758
0.9783582 1.0377477 0.8717408 1.0225073 1.0189912 1.0526142 1.0139245 0.87667716
0.95798075 0.9913892 0.9145876 1.0024978 0.9322643 0.91303813 0.9413688 1.0625651
0.91768545 0.94293463 0.8766342 1.0279307 0.97777647 1.0679692 1.0812992 1.0209726
1.0417815 0.9781295 1.0552601 0.9838146 0.9698428 0.9534131 1.1546518 1.1143324
0.91131204 1.0670772 1.0607432 0.8645027 1.0514014 0.9315979 0.9505919 1.0859163
1.0319306 1.0101451 0.9882469 1.123872 0.9802584 1.0739645 1.0021183 0.99094343
0.94917816 0.91262186 1.0078391 0.9729694 1.0216159 0.980639 1.0154006 1.0218956
0.86678296 0.95509046 0.946186 0.9349681 0.92982244 1.0992984 1.123627 1.0485562
0.92744267 1.0279474 0.9560261 1.0631477 0.8803403 0.9537894 0.97138107 0.8628845
0.91322786 0.88012105 0.96079254 1.0031525 1.0225824 1.073573 0.9896739 1.0450168

bn2.bias f4 [128]
00000000: c703 e63c 9daf a9bc abe1 26bd 7996 333c
00000010: 8d9c 62bd f8b5 5abd 5517 4ebd e44d d5bc
00000020: c13c 42bd 69e9 903b b9b2 b93d 45e5 083c
00000030: 09fa c83c da35 76bd 9a24 d4bd e219 cdbc
00000040: 7d45 8039 f6af ca3b cb27 fcbc 9ae9 80bc
00000050: 2deb 93bc dae3 2ebd cad5 2fbd 185f 0d3c
00000060: dead 77bd 180c 5ebc 6dfc db3c 5a03 453d
00000070: 1d89 96bd 30db 73bd ba1a c6bc 1cf7 5abb
00000080: 0865 d039 c112 a1ba 203f 54bd c5be b9bc
00000090: 33cb 04bd 0d4c 89bc c7f6 5d3b 933a 863c
000000a0: dc8e c8bc 4244 49bc c3a7 1cbd 7733 aa3c
000000b0: 018c 313b d0b9 ce3c 3d6c dd3c cc7b ee3c
000000c0: ae7f f43c 4ffa 78bd d4b7 08bd d167 403d
000000d0: 74cf 2ebb 8a9e 27bd bea7 83bd 0365 e9bc
000000e0: 1982 88bc 9b53 02bd e459 a63a adf6 cabd
000000f0: 421d c6bc 87db 85bd d5f3 b7bd e102 eebc
00000100: 4d34 3cbc 5c51 84bc b92b 973c 7267 c5bc
00000110: 6a5d d1bb acf4 c2bb ee38 bdbb 8c3f 013c
00000120: eede 563c be3a 10bd b4d3 1ebc 859f c1bd
00000130: 8f5e 81bd cb3f 98bc 41cd 4fbd b0e9 943d
00000140: b16b ebbc 73bf 5ebd 7547 2fbd 4b32 2dbc
00000150: 1277 05bd 8f47 533c 9e60 52bc 73d1 c2bc
00000160: ed7e 18bd 02d4 92bd 4998 23bd b330 abbc
00000170: 026c 26ba f393 e8bc 7f47 183c 3f23 f7bc
00000180: c42a fa3c 5bbb d2bc 95e0 23bd 2616 f0bc
00000190: da03 90bd 3264 313c d3d2 d53b 933a febb
000001a0: 2443 b33c c4e1 d83c be00 cbbc d6d8 563c
000001b0: ef31 aebc b0ab 4fbd 05aa 203d 7541 80ba
000001c0: 40e2 2abd ca53 14bd 8d6a 1dbd a119 b03d
000001d0: 2938 05bd 64e2 c13b 35a2 873c 2a42 ebbc
000001e0: 8019 cdbd c553 83bd a475 773d d0b3 9fbd
000001f0: b930 8a3c fb1b 973d 3a5b aabd e5a7 04bd
0.028077973 -0.020713622 -0.040742557 0.010961168 -0.05532508 -0.053396195 -0.05031522 -0.026038118
-0.04742122 0.004422356 0.09067292 0.008355443 0.024533289 -0.06010995 -0.10358544 -0.025036756
0.00024465835 0.006185527 -0.030780694 -0.01573639 -0.018056476 -0.042697765 -0.042928495 0.008628629
-0.060468547 -0.013552688 0.026853764 0.0480989 -0.07350371 -0.059535205 -0.024182666 -0.0033411449
0.00039748126 -0.0012288914 -0.051818013 -0.022673974 -0.03242035 -0.016759897 0.0033869015 0.016385352
-0.024482183 -0.01228434 -0.038245928 0.020776493 0.0027091505 0.025235087 0.027029151 0.029111765
0.029846039 -0.060785588 -0.033378437 0.046974007 -0.0026673945 -0.04092268 -0.06428479 -0.028490549
-0.016663598 -0.031818014 0.0012691584 -0.09910331 -0.024183873 -0.06536012 -0.08982054 -0.029054107
-0.011487079 -0.016152076 0.018453466 -0.024097178 -0.0063893097 -0.0059495773 -0.005774609 0.007888686
0.013114674 -0.03521227 -0.009694029 -0.09454254 -0.06316864 -0.018585106 -0.050732855 0.07271135
-0.028737875 -0.0543818 -0.042792756 -0.010571073 -0.032584257 0.012895479 -0.012840418 -0.023781514
-0.03723042 -0.071693435 -0.039940152 -0.020897245 -0.0006348492 -0.02839086 0.00929439 -0.030168174
0.03053797 -0.025724104 -0.0400091 -0.029307436 -0.070319846 0.010827111 0.0065253763 -0.0077584474
0.021882601 0.026474841 -0.024780627 0.013113221 -0.021264045 -0.050700843 0.039224643 -0.0009785133
-0.041719675 -0.03621272 -0.038431693 0.08598638 -0.03252426 0.0059168804 0.016556839 -0.028718073
-0.10014629 -0.06412462 0.060414925 -0.077979684 0.016868936 0.07378384 -0.08318181 -0.03238668

bn2.running_mean f4 [128]
00000000: e4a8 903d 3401 963f 2f3f 7f3e b2ad c13e
00000010: 7420 233e 96ca d03e 4ea1 283e 19a1 a53e
00000020: 0ab3 6b3e ce5b dc3d c9f7 9f3e 649f a13e
00000030: 741d e13e 130b 743e ca87 c63d ee8b 313e
00000040: 1d8e 9d3f b079 e33c aad4 4c3f e7d7 c43e
00000050: 5215 a53d 6ccf 753d 8843 523d 280c 593e
00000060: 7e58 153e a4f2 4b3e 7de4 873d 5679 223f
00000070: f7c4 233f f5d1 3a3e 0773 183e e6ce 453f
00000080: ed12 313f de3a c43c a43f 083f df46 ab3d
00000090: 061e 723d 0056 663c cc55 e53c ab16 833d
000000a0: 9f4a 413e cc31 ad3d 85cd a83d 2759 1f3f
000000b0: de80 133f 5b6d 533d 2edc 0f3d 339f 653e
000000c0: 5ca0 803c 9c18 8b3e db9a d93e 1b23 c73e
000000d0: 19a6 6b3d 2860 823e 9dc4 883d 5ba6 983f
000000e0: b654 b83f 930c c73e 22df 4f3e a856 013f
000000f0: 4f89 a93e 6ef4 5f3f ccb8 bd3e 653f b93e
00000100: 2991 b93e 5f0c 373f 56b6 983c 0ed6 003e
00000110: ee17 743e 9f05 283e 9c6e b63c b662 003e
00000120: 4ccc 1e3e 1a6e 883e b92d 583c 4f77 423f
00000130: 53ca d83d dc56 ec3e 2742 ec3c bc50 e23c
00000140: 324c 923e 7333 e83c 6906 333e 3dbe 123e
00000150: 8a50 033e 9e04 e23c a633 eb3e 6b43 be3e
00000160: 06b9 803e a9b0 d93d e33e 003f a673 253d
00000170: 0903 7d3e f45e fd3d a8ed 563f 0a2c 783e
00000180: 014a 503f f1fa 4a3f e3d9 883c 2a11 f13e
00000190: 24df d13d b41c 213e 4002 243d bee0 4d3e
000001a0: 4477 6c3f 1016 1b3e 2565 c33e 2fdb d93e
000001b0: 178e 0f3f d431 d93d 5248 4c3e 2150 733e
000001c0: 025c 553e 86d7 223e d266 3b3e 4733 4f3e
000001d0: 9ce2 5e3f 0a4b 943e 9029 d93e 1797 6e3f
000001e0: 65a4 9d3f f121 a33b cd62 6a3e 7631 3c3e
000001f0: 010d 163e a4e7 273d becc 143d 9c0d ac3d
0.07063463 1.1719117 0.24926446 0.37827832 0.15930349 0.4077956 0.16467783 0.3234947
0.23017517 0.10759698 0.31243733 0.31566918 0.43967783 0.2383235 0.096938685 0.17338535
1.2308995 0.027767986 0.80012 0.3844597 0.08060707 0.060012266 0.051333934 0.21196043
0.14584538 0.19916779 0.066353776 0.63466394 0.6397242 0.18244155 0.1488763 0.77268827
0.69169503 0.023953851 0.5322211 0.08363127 0.059110664 0.01405859 0.027995013 0.06400808
0.18876122 0.084567636 0.08242325 0.6224541 0.5761851 0.05161796 0.03512209 0.22424011
0.015701465 0.27167213 0.42500958 0.3889397 0.05753145 0.25463986 0.06678126 1.1925768
1.4400852 0.3887678 0.20299962 0.5052285 0.3311257 0.87482345 0.3705505 0.3618118
0.3624356 0.7150325 0.018641632 0.12581655 0.23837253 0.16408394 0.02226954 0.12537655
0.1550762 0.266465 0.013194495 0.759633 0.10585465 0.46160018 0.028840138 0.027626388
0.28573757 0.028344845 0.17482914 0.14330383 0.12823692 0.027590092 0.45937842 0.3716081
0.25141162 0.106293984 0.5009596 0.040393494 0.24708189 0.123716265 0.83956385 0.2423555
0.8136292 0.79289156 0.016705459 0.47083408 0.10247639 0.15733606 0.04004121 0.20105264
0.92369485 0.15145135 0.38163105 0.42550036 0.56076187 0.10605207 0.19949463 0.23761036
0.2083588 0.15902528 0.18300942 0.20234405 0.8706453 0.289635 0.42414522 0.93199295
1.2315794 0.0049784114 0.22889252 0.18378243 0.14653398 0.040992394 0.03632807 0.08401033

bn2.running_var f4 [128]
00000000: efcf c13e b7c2 1d40 de57 8c3e 871e da3e
00000010: dfd9 203e bb2f 463f 9a00 413e 3626 113f
00000020: 34e0 d63e 2166 ba3d 831d 8e3e c996 883e
00000030: c749 443f b824 ff3e 2240 a23d 0e27 513e
00000040: 0343 1140 9aa9 a73c db4e 953f d7e3 f93e
00000050: 45d8 be3d abd6 013e a04b 253d 016d aa3e
00000060: 98ff 133e 842c 773e 94a3 bb3e d0b5 323f
00000070: eff6 213f 99f9 183f c745 063e c4b0 5d3f
00000080: 13d0 9a3f 17e8 b13c 7c88 623f 77aa 413e
00000090: 890a 683d 92c8 fa3b e85c c83c 8e36 533d
000000a0: 1f7d 493e 2b2c de3d 8ae4 9b3d 39db 4c3f
000000b0: 4b12 823f 0592 1f3d fc87 b73d 711b a83e
000000c0: 4f61 6a3c cbd2 753e cae1 493f 40d5 bb3e
000000d0: f7f2 8c3d 81fa 4c3e 3741 7d3d fd66 4b40
000000e0: b404 ea3f b773 be3e a5d5 813e 0885 2d3f
000000f0: cb9d f13e 02d4 6c3f e811 f13e 78c0 e03e
00000100: 756a 1b3f 8e98 453f 836e 223d 4975 3f3e
00000110: 0b29 a33e b34e 173e a35c 783c 3284 033e
00000120: db6f 363e d454 a73e cfe9 ea3b 020c 333f
00000130: 7570 093e 6412 033f bd66 933c 7f40 fc3c
00000140: e4bb 143f 321b b63c b343 273e a080 8c3e
00000150: a80f 243e a7f8 013e 0642 323f b5ae 9f3e
00000160: b35a 913e d223 103e 47e6 133f 23fd 103d
00000170: ecb1 b63e aad6 d33d 6a55 7d3f e838 803e
00000180: fb58 923f 9cb3 b63f 0421 b83c edf5 143f
00000190: 024c 073e c047 9a3e 2f27 f13c c388 973e
000001a0: 1d0b 1740 493b 963e c16f fc3e bcd2 c53f
000001b0: ae0a 9d3f ab6d 013e 6bc3 2e3e 3a3c 6e3e
000001c0: 3850 663e 83de 233e 7e99 a83e 1aa1 533e
000001d0: 2829 4a40 c603 313f ab70 ed3e ecb6 a73f
000001e0: b6b0 0040 5e38 8a3b 41c8 933e 6e49 893e
000001f0: d49b 163e f656 e93c fabf 133d 399b b33d
0.37853953 2.4650095 0.27410787 0.42601416 0.15708111 0.7741658 0.18847886 0.5669893
0.41967928 0.09101511 0.2775689 0.2667754 0.76675075 0.49832702 0.079223886 0.20425054
2.269715 0.020466615 1.166469 0.4880664 0.09318594 0.12679546 0.040355325 0.33286288
0.1445297 0.24138075 0.36648238 0.69808674 0.63267416 0.59755856 0.13112555 0.8659785
1.2094749 0.021717114 0.8848951 0.18912683 0.056650672 0.0076533044 0.024458364 0.0515657
0.19676636 0.10848268 0.0761195 0.8002201 1.0161833 0.038957614 0.08961484 0.32833436
0.014305427 0.24006192 0.7886015 0.36686134 0.06882279 0.20017435 0.06182977 3.178161
1.8282685 0.37197658 0.2535831 0.67781115 0.471907 0.92511 0.47083974 0.43896842
0.60709316 0.77185905 0.039656173 0.18697084 0.3186725 0.14776115 0.015158805 0.12843397
0.17816107 0.32681906 0.0071689854 0.699402 0.13421805 0.51199937 0.017993325 0.030792473
0.580992 0.022229765 0.16334419 0.27441883 0.16021597 0.1269251 0.69631994 0.31187978
0.2838951 0.14076164 0.5777325 0.03539766 0.3568262 0.10343678 0.98958457 0.25043416
1.1433405 1.4273562 0.02247668 0.5818775 0.13212588 0.30132866 0.02943763 0.29596528
2.3600533 0.29342106 0.4930401 1.5454936 1.2268884 0.12639491 0.17066734 0.23265162
0.22491539 0.1600285 0.32929605 0.20666924 3.158762 0.6914638 0.4637502 1.3102698
2.0107856 0.0042181453 0.2886372 0.26813835 0.14707881 0.028483849 0.036071755 0.08769841

conv3.weight f4 [64, 128, 3]
00000000: f738 103c 4813 62bd 6930 b9bd a0ad f33b
00000010: c97d bfbc 3f73 42bc 3341 3b3d e87d a9b9
00000020: 6e2b 66bc ca64 aebd 0efe 7d3b 031c aa3a
00000030: 859b 083e 06b2 09bc f4ea 593d f997 99bd
00000040: fef4 023d 39b5 a2bc 8c0c a3bc 0ef5 3f3c
00000050: 12cc 4abd 671c b1bb ff65 50bd 3e89 63bc
00000060: 748e 92bc 459a 083d e8d2 3a3c f6a0 49bd
00000070: d347 e8bc 0a3f 0cbc efdf 14bd 1fd1 1bbd
00000080: 66fa a3bc bf93 fcbb a0c6 013d 4ef6 09bd
00000090: 4dd7 36bd c307 4abd 6ae7 6fbd aab7 21bd
000000a0: ad7b 9cbd 58b3 713d f9ff 92bd 0c9f d4ba
000000b0: e584 d1bc f488 133c 4cf4 55bd db1b acbc
000000c0: 7e19 033d bb59 47bd 8afc bf3c 72aa 96bd
000000d0: 202e 073d 0116 9cbc cf13 cabd 5326 e0ba
000000e0: 965e e43c 5092 30bd 9f30 44ba f860 503d
000000f0: 8bab 9fbd 1f72 90bc 78d5 203d 52a1 5cbd
00000100: 8064 8abd 7714 f63d f22b 15bc 9556 6d3d
00000110: fb51 b33d 6a39 bdbd 1551 19bd a92b ec3b
00000120: 048b 87bd aa4b e9bc 9c12 053d cd22 40bd
00000130: ee74 e43b efe4 08be eb1d 81bd 8cf0 d5bd
00000140: e17e 643c fad8 4c3c 1ab7 b1bd 1b59 ac3b
00000150: 4548 62bc f61c 653d a107 cb3c cc50 243c
00000160: d7a0 dc3b 3723 29bd 25df 89bb e220 d9bc
00000170: 81b5 17be a729 00bd 64cf c7bb aa85 533d
00000180: 2273 3cbb 8648 173d 9e47 c2b9 86cb bcbc
00000190: 1df5 84bc 2e7b 2a3c a2d7 b3bb e45d 97bc
000001a0: afd3 133d ff21 203c 3806 79b9 9bea 223d
000001b0: c151 e6bd b02b 8e3d 9d37 c3bb 7bc2 b1bd
000001c0: 79df 4a3c 0e99 8c3d 2b2b 3dbc 05ae fabc
000001d0: 3f1e 6d3d c044 6a3c 2a76 58ba 4a42 04be
000001e0: f282 c3bd 8bbc 08be 5f80 af3c a287 12bd
000001f0: afef b5bc d501 49bd 27a6 3f3d fadb f03c
00000200: b1d6 93ba 7fd2 b2bb 91df 4f3d 29ef 16bd
00000210: f1b9 30bd 164a c53c cfa4 fc3c 5c5a 01bd
00000220: cd96 54bd 6634 d0bc 9964 b63c 4e3b 6fbc
00000230: b3d0 553c f2c2 81bb 5173 2abd faa1 003b
00000240: 6029 903c 4cb9 14bd 27e0 fb3d 597c e1bc
00000250: 91bf b63d 57b5 e83b fca9 88bc c16b 563d
00000260: b743 ca3b c530 69bc 1c5b 84bd 7502 a6bd
00000270: 9677 94bd 7158 823d b898 2abd 3c77 11bd
00000280: 701d 7b3d da61 023d 2f03 e0bd c890 42bb
00000290: 55a3 713c 17dc b3bd 0a14 bf3b a051 803c
000002a0: 2162 bcbd f381 c0bc 87de 39bc 8a77 16bd
000002b0: cb0b 1e3c 135a 89bd 0ee7 753d 40b5 31bc
000002c0: 2f0b bb3c cd96 48bd 302b c1bc 8b17 d6bc
000002d0: a2db afbd d01e bd3c 41dc 043d fe76 aebd
000002e0: 1b7f 5a3d 482b 983c f6e2 53bc 9ab4 843d
000002f0: 9760 b43b d187 103c 2461 523c 8312 993d
00000300: 465b 9f3b 15c2 f3bc 3ec3 1ebd 9375 5b3d
00000310: e3d2 bcbc bb55 8b3c 7bf8 4f3d aadc c7bb
00000320: 2cf1 d7bc f5f6 babd 239f 82bd 3809 b1bc
00000330: e4eb 87bd c946 7cbd 87eb 113d 26d0 a3bc
00000340: 004a 503c 3c25 8bbc 7180 083d b829 183d
00000350: da6a b03d ac96 d2ba 46e4 a7bc fc75 443d
00000360: c238 b5bc 6b39 873d d12e 5cbd 077a e5bd
00000370: dccb 093d 3bfb 643d 6e82 913c 8ca7 d13d
00000380: 5338 e5bc cef4 253c 3a27 36bd ccc0 9d3d
00000390: 9257 b5bc 68e6 b7bc f110 cc3d e329 c7bc
000003a0: 6265 9c3c 8999 3b3d 27d3 26be 3060 b3bd
000003b0: 6444 b03d 6df8 81bd 0b75 a9bd 03ba 173d
000003c0: 0d95 2bbd 5415 593d 2b3f 44ba 64c0 8ebd
000003d0: ea52 383d fefd 003e d0f7 643d b799 c73c
000003e0: b79d c23c 876c 10bd 0515 963c 1eba f23b
000003f0: 3bb7 a2bd 6afb d4bb 7874 3a3d ca3e 03bd
0.008802644 -0.05519417 -0.09042437 0.007436469 -0.023375409 -0.011868297 0.045716476 -0.00032328
-0.01404844 -0.08515318 0.0038756165 0.0012978319 0.13340576 -0.0084042605 0.053202584 -0.074996896
0.031971924 -0.019861804 -0.019903444 0.01171614 -0.049511023 -0.005404997 -0.05087852 -0.013887702
-0.017890193 0.033350248 0.011402823 -0.04922577 -0.028354561 -0.008559952 -0.036346372 -0.03804123
-0.02001686 -0.0077080424 0.031683564 -0.03368216 -0.04463892 -0.04932381 -0.058570303 -0.039481796
-0.07640777 0.059008926 -0.07177729 -0.0016221716 -0.025576064 0.00900482 -0.052234933 -0.021009376
0.032006733 -0.048669558 0.02343585 -0.073567286 0.033002973 -0.019053461 -0.098670594 -0.0017101265
0.027877133 -0.043108284 -0.0007484052 0.050873727 -0.07796391 -0.017632542 0.03926608 -0.053864785
-0.0675745 0.12015622 -0.009104716 0.0579439 0.08755871 -0.092394665 -0.03743084 0.007207353
-0.06618312 -0.028478462 0.03248845 -0.04690819 0.006971947 -0.13368581 -0.063045345 -0.10446271
0.013946266 0.012502903 -0.08677502 0.0052596456 -0.013811176 0.055935822 0.024783911 0.010029029
0.006733041 -0.04129335 -0.004207509 -0.026504938 -0.14815332 -0.031289723 -0.006097721 0.051641144
-0.0028755148 0.036934398 -0.00037055922 -0.023046266 -0.01623016 0.010405345 -0.005488352 -0.018477388
0.03609055 0.00977373 -0.00023748807 0.03977452 -0.11246062 0.069419265 -0.0059575574 -0.08679672
0.012382382 0.0686513 -0.011545937 -0.030600557 0.057890173 0.014298618 -0.0008257354 -0.12915912
-0.0954646 -0.13353173 0.021423517 -0.03577388 -0.022209017 -0.049074013 0.046789315 0.029401768
-0.0011279193 -0.005457222 0.05075032 -0.036849175 -0.043146078 0.024083178 0.030840306 -0.031580314
-0.051901627 -0.02541561 0.022264766 -0.014601542 0.013050246 -0.003960007 -0.04161388 0.0019627796
0.017597854 -0.036309525 0.12298613 -0.027525114 0.08923257 0.0071016955 -0.016682617 0.052348856
0.006172623 -0.014232819 -0.0646269 -0.081059374 -0.07249372 0.06364525 -0.04164955 -0.0355141
0.06130737 0.0318316 -0.10938107 -0.0029688347 0.014748414 -0.08782213 0.0058312463 0.015663922
-0.09198404 -0.023499465 -0.011344559 -0.036735095 0.009646366 -0.067066334 0.060034804 -0.010846436
0.022832481 -0.04897194 -0.023580164 -0.026134273 -0.085868135 0.023085982 0.032436613 -0.0851879
0.053343873 0.018575326 -0.01293253 0.064797595 0.0055046785 0.008821444 0.012840543 0.07474234
0.0048631756 -0.029755631 -0.038760416 0.053578924 -0.023049777 0.017008653 0.05077408 -0.0060993033
-0.026360117 -0.091291346 -0.06378009 -0.021610841 -0.066367894 -0.061590943 0.035625007 -0.019996714
0.0127129555 -0.016985528 0.033325616 0.03714916 0.0861413 -0.0016066632 -0.020494591 0.04796408
-0.02212179 0.066027485 -0.053755585 -0.112049155 0.03364168 0.055903655 0.017762389 0.10237035
-0.027980959 0.010129167 -0.044471003 0.07702789 -0.022136483 -0.022448733 0.09964169 -0.024311965
0.019091312 0.04580072 -0.16291486 -0.08758581 0.086067945 -0.063462116 -0.08274277 0.03704263
-0.041890193 0.052998856 -0.00074862194 -0.06970289 0.045000948 0.1259689 0.055900395 0.02436529
0.023756845 -0.03525975 0.01832057 0.007407441 -0.07945105 -0.0064996975 0.04552123 -0.032042302
