results/arousal/classification_3/20251226_094817_973415/best_model.pt (torch, 519605 bytes, 16 tensors)

conv1.weight f4 [16, 1, 3, 3]
0.34511736 0.39832866 -0.23023736 0.22728606 -0.2062708 0.06623801 -0.27002993 0.15132509
0.3432481 -0.2704077 0.3677811 -0.24001741 0.36656094 0.11185757 0.15837754 -0.10792464
0.17170827 0.18743666 -0.028142124 0.09701515 -0.25239348 -0.09105264 -0.091736466 0.4870408
-0.17627446 -0.11076178 -0.20385566 -0.18823472 -0.08799969 -0.3667833 0.3350026 -0.32969728
0.38635007 0.08423613 -0.12371075 0.30980515 -0.08238561 0.2838408 0.18956347 -0.20637444
0.027574392 -0.39820802 0.07575612 0.35329148 0.1476069 -0.041331153 0.3000864 -0.0035755693
0.1000118 -0.3106072 -0.32987148 -0.068604164 -0.41924012 0.40472102 0.11700295 0.32255894
0.15401253 0.01328558 0.2663336 -0.40208158 0.008432463 -0.30582714 0.049149465 -0.16597043
0.041395053 -0.04673251 0.31930745 -0.17696054 -0.42993748 -0.1319023 0.3847658 0.26404572
0.20818804 -0.4462475 -0.40604565 -0.17324123 -0.21558417 0.08799186 0.037584983 0.5296458
-0.018901661 -0.2238983 0.24175474 -0.27042085 0.20230275 0.045429476 0.31783247 -0.1762277
-0.38483408 0.12804922 0.03589603 -0.07248101 0.43599448 0.16393502 -0.38606063 -0.1897566
0.32404914 -0.0655754 -0.16206712 -0.30116764 -0.13221335 0.33286184 -0.051833138 -0.47831202
0.045552164 -0.21237491 -0.27217376 -0.058729287 -0.18344213 -0.20170236 0.51836526 0.0456553
0.22511841 -0.40263206 -0.21805687 -0.102857724 -0.029403394 -0.34082377 0.13086656 -0.37348443
0.05599325 -0.07194914 0.025360918 -0.3064258 -0.05484874 -0.36933866 -0.13842654 -0.40257645
0.35005242 -0.011821098 0.32035616 0.20914331 -0.274816 0.3030581 -0.060883265 -0.040981162
-0.40818742 -0.19469583 0.13571736 -0.17607848 0.28856295 -0.22850676 0.3568935 -0.38171846
00000000: 39b3 b03e bcf1 cb3e 58c3 6bbe adbd 683e
00000010: a738 53be cba7 873d 5d41 8abe f7f4 1a3e
00000020: 37be af3e e172 8abe ce4d bc3e 20c7 75be
00000030: e0ad bb3e 9515 e53d b92d 223e 9807 ddbd
00000040: 4bd4 2f3e 65ef 3f3e 508a e6bc e1af c63d
00000050: b839 81be ce79 babd 54e0 bbbd 695d f93e
00000060: 4b81 34be 12d7 e2bd 8abf 50be 9ac0 40be
00000070: 2e39 b4bd 05cb bbbe 7685 ab3e 15ce a8be
00000080: adcf c53e fe83 ac3d 105c fdbd c89e 9e3e
00000090: c9b9 a8bd 9553 913e ed1c 423e d253 53be
000000a0: b1e3 e13c ece1 cbbe 0626 9b3d 9fe2 b43e
000000b0: 4326 173e db4a 29bd eda4 993e 1954 6abb
000000c0: fdd2 cc3d e807 9fbe eae4 a8be 5780 8cbd
000000d0: a4a6 d6be 9837 cf3e 3e9f ef3d 7226 a53e
000000e0: 76b5 1d3e c3ab 593c e15c 883e a3dd cdbe
000000f0: 5028 0a3c 6095 9cbe f350 493d 27f4 29be
00000100: dc8d 293d 976a 3fbd 447c a33e 2535 35be
00000110: c420 dcbe 6611 07be 0600 c53e 0031 873e
00000120: 3f2f 553e 8d7a e4be 37e5 cfbe 2666 31be
00000130: 19c2 5cbe 1435 b43d b6f2 193d de96 073f
00000140: a8d7 9abc 9945 65be 8e8e 773e 9a74 8abe
00000150: 7428 4f3e 4214 3a3d f0ba a23e 0975 34be
00000160: f908 c5be 561f 033e b707 133d ec70 94bd
00000170: ab3a df3e 95de 273e bda9 c5be 8e4f 42be
00000180: c5e9 a53e 654c 86bd ecf4 25be a532 9abe
00000190: f062 07be de6c aa3e fc4e 54bd 50e5 f4be
000001a0: e894 3a3d cf78 59be 5c5a 8bbe 1f8e 70bd
000001b0: 41d8 3bbe 108b 4ebe 96b3 043f 0d01 3b3d
000001c0: 7185 663e ca25 cebe 4d4a 5fbe 12a7 d2bd
000001d0: 63df f0bc 7480 aebe e201 063e 5a39 bfbe
000001e0: 2e59 653d 125a 93bd b3c1 cf3c d8e3 9cbe
000001f0: 13a9 60bd f519 bdbe b0bf 0dbe 801e cebe
00000200: 123a b33e 47ad 41bc b905 a43e aa29 563e
00000210: afb4 8cbe 6e2a 9b3e bb60 79bd dddb 27bd
00000220: f1fd d0be 585e 47be 7ef9 0a3e eb4d 34be
00000230: 86be 933e adfd 69be bfba b63e 9a70 c3be

conv1.bias f4 [16]
-0.00047911474 -9.043263e-05 0.0022784036 -0.0016223266 0.0024334071 0.0022845354 -0.0009564598 -4.3263324e-05
0.0010640076 0.00073083973 -0.0009180668 0.0005664184 0.00074050785 0.0016930292 0.0008938163 0.00041900465
00000000: b131 fbb9 a6a6 bdb8 4551 153b 3fa4 d4ba
00000010: cc79 1f3b 25b8 153b eeba 7aba a475 35b8
00000020: 2c76 8b3a d395 3f3a 6caa 70ba b27b 143a
00000030: a41e 423a a2e8 dd3a ff4e 6a3a daad db39

bn1.weight f4 [16]
0.7371951 0.67573076 1.0051713 1.0702267 0.98860496 1.1111858 1.2986051 1.0660715
1.2020011 0.9911952 1.0168008 0.65431863 0.95033467 0.9021384 0.94978017 0.9240162
00000000: d1b8 3c3f b1fc 2c3f 74a9 803f 30fd 883f
00000010: 3715 7d3f 563b 8e3f b138 a63f 0875 883f
00000020: 2cdb 993f f8be 7d3f 8726 823f 6d81 273f
00000030: 2249 733f 8bf2 663f cb24 733f 538c 6c3f

bn1.bias f4 [16]
-0.18878753 -0.20251322 -0.14529444 0.010299344 -0.15223096 -0.20185293 -0.11043132 -0.21030548
-0.20379934 -0.24062242 0.010011918 -0.14271064 -0.09882837 -0.29447666 -0.16699362 -0.2382184
00000000: 8551 41be a05f 4fbe 11c8 14be 94be 283c
00000010: 6fe2 1bbe 89b2 4ebe d129 e2bd 525a 57be
00000020: c6b0 50be b965 76be 0709 243c bd22 12be
00000030: 8766 cabd a5c5 96be 6000 2bbe 86ef 73be

bn1.running_mean f4 [16]
0.005765873 0.006559712 -0.00070866337 -0.0014612001 0.0039114803 -0.001634486 -0.0012430565 -0.0011239127
-0.003787745 0.0005799145 -0.0017209329 -0.0078974515 -0.0020161604 -0.009571012 0.0036658652 -0.00494884
00000000: a6ef bc3b daf2 d63b 98c5 39ba bd85 bfba
00000010: e02b 803b 403c d6ba 0eee a2ba 4150 93ba
00000020: d13b 78bb 6705 183a ed90 e1ba 5064 01bc
00000030: 8f21 04bb bccf 1cbc 033f 703b e129 a2bb

bn1.running_var f4 [16]
0.4011922 0.4398455 0.14914069 0.21727152 0.26620576 0.26567543 0.19822767 0.18606336
0.37155545 0.14900881 0.24164498 0.95959806 0.17166376 0.5955113 0.32723063 0.27537537
00000000: 1069 cd3e 6e33 e13e 56b8 183e 6d7c 5e3e
00000010: 1f4c 883e 9c06 883e 32fc 4a3e 6587 3e3e
00000020: 843c be3e c495 183e c871 773e 38a8 753f
00000030: a0c8 2f3e 6e73 183f c68a a73e 00fe 8c3e

conv2.weight f4 [32, 16, 3, 3]
-0.033643633 0.12565923 0.256484 0.12412351 -0.053977225 -0.061020028 0.10216164 0.06908379
-0.0025582446 -0.022795798 -0.0202849 0.07825157 -0.0060882345 -0.17574048 -0.06362027 0.25152907
-0.27885342 -0.069966905 -0.10195946 -0.097822204 0.050610706 0.16326389 0.01842873 -0.282551
0.029105285 0.05891159 -0.059235558 -0.061323915 -0.20642619 0.16569227 -0.18523912 0.2113371
0.2825257 0.19732372 0.07882034 0.030628411 0.028843911 -0.123474576 0.07300041 0.014554501
-0.1131353 0.011382686 0.02271837 0.1583004 0.28793687 0.04179174 -0.51663154 -0.526343
0.07762563 -0.27434078 -0.021890422 -0.021898516 -0.16791013 -0.34783888 -0.025063856 0.22032602
0.3405875 0.05828371 -0.09084058 -0.19190623 -0.014993511 0.05696406 -0.13461585 -0.17985879
-0.30249918 0.18334308 0.114402354 0.1807246 -0.16374773 -0.048394848 -0.19018783 0.098116264
-0.025111528 -0.049809333 0.089867234 0.038384754 0.17579924 -0.4724611 -0.1889352 -0.107368894
0.10102014 -0.1596227 -0.13251856 -0.1123253 -0.02261371 -0.25971058 -0.28483638 -0.04044013
-0.21043183 0.12911232 0.12841131 -0.14148124 -0.096989214 -0.052107032 -0.2008873 -0.34418547
0.049560636 -0.23687524 0.005286693 -0.02986155 0.21001086 0.04658501 0.20108849 -0.14047606
0.018992743 0.09974723 -0.08856345 0.07466692 -0.060006585 0.036112424 0.10574914 -0.0005838303
0.11878101 0.27582023 0.07721241 -0.042508397 -0.19654319 -0.21772526 0.36579937 0.07680722
0.048185233 -0.00984067 0.17128925 0.051290236 0.21130988 0.1635443 0.1145531 0.10928934
0.13429353 -0.02952758 0.023847923 -0.1274241 -0.34156784 -0.3689897 0.07454177 0.0291517
-0.0052596973 0.12748446 -0.07175435 0.05457107 -0.19981448 0.01634311 0.05895377 0.0041448683
-0.065021075 0.16470951 0.28917715 -0.2520159 -0.38851213 0.24205609 0.06507179 0.20370461
0.11088284 -0.06749403 0.050313946 0.095872924 0.014523423 -0.12975274 -0.5163125 0.03811531
-0.0031015028 -0.3129901 -0.11424772 -0.04000553 -0.18520807 0.077674106 -0.07564644 -0.2123465
-0.04996124 0.046670493 0.3025783 0.0784085 -0.033896506 -0.08143681 0.034793805 -0.3398239
-0.040387157 0.09765146 -0.08524718 -0.025124738 -0.06315497 -0.03172585 0.116280295 -0.039584152
-0.16774777 -0.10450627 -0.10330442 -0.12686934 0.21617441 0.112485036 -0.048371416 0.14967337
0.078999564 0.1386779 -0.16952485 0.041806366 0.1320971 0.020285033 -0.21299683 0.32462123
0.00704689 -0.13475434 0.08485534 0.2312532 0.2263046 0.09422556 0.0699627 0.14934796
-0.19299303 -0.40522754 0.28909978 0.075778686 -0.34230757 0.012588214 -0.25496536 -0.05738239
0.27448368 0.058393795 0.15635136 -0.03878342 0.3734982 0.032875195 0.032615617 0.1454149
0.064625986 0.05199042 -0.044189975 -0.016205763 0.060522303 0.02697774 -0.013503217 -0.2906675
-0.095615454 0.1379141 -0.10831909 -0.09489758 -0.3293661 0.18740027 -0.077026084 0.090996355
-0.007344808 -0.0754482 0.13532043 -0.093645036 -0.02403877 -0.11434811 -0.2149974 -0.22100729
-0.3178274 0.09748856 0.22733909 -0.0174262 0.14973885 0.08756347 0.2354848 -0.10181191
00000000: e8cd 09bd d0ac 003e df51 833e 7834 fe3d
00000010: 3917 5dbd 23f0 79bd 1f3a d13d cd7b 8d3d
00000020: 39a8 27bb 41be babc 852c a6bc 5c42 a03d
00000030: d07f c7bb 50f5 33be 584b 82bd 6bc8 803e
00000040: e0c5 8ebe cf4a 8fbd 1fd0 d0bd 0257 c8bd
00000050: 2c4d 4f3d a62e 273e d9f7 963c 86aa 90be
00000060: 356e ee3c 484d 713d fca0 72bd c92e 7bbd
00000070: 6361 53be 3cab 293e 53af 3dbe c168 583e
00000080: 35a7 903e 3b0f 4a3e 8f6c a13d 6fe8 fa3c
00000090: 114a ec3c 3de0 fcbd 3d81 953d 0076 6e3c
000000a0: 7bb3 e7bd 727e 3a3c e01b ba3c 8019 223e
000000b0: 766c 933e d12d 2b3d f741 04bf 6abe 06bf
000000c0: 30fa 9e3d 6576 8cbe 8b53 b3bc 8464 b3bc
000000d0: a2f0 2bbe f017 b2be b752 cdbc 259d 613e
000000e0: 7c61 ae3e e6ba 6e3d a00a babd 1183 44be
000000f0: 58a7 75bc 2553 693d bdd8 09be e72c 38be
00000100: 2ce1 9abe 4abe 3b3e c84b ea3d df0f 393e
00000110: 7cad 27be ad39 46bd 99c0 42be 2ef1 c83d
00000120: b1b6 cdbc df04 4cbd 500c b83d 5539 1d3d
00000130: b704 343e 6ce6 f1be 3b78 41be 39e4 dbbd
00000140: a6e3 ce3d 2274 23be f2b2 07be cf0a e6bd
00000150: 6340 b9bc c9f8 84be 13d6 91be 8da4 25bd
00000160: 717b 57be 0536 043e 417e 033e 75e0 10be
00000170: 48a2 c6bd 2f6e 55bd 66b5 4dbe 1439 b0be
00000180: 1800 4b3d 6c8f 72be ff3b ad3b 36a0 f4bc
00000190: 160d 573e eccf 3e3d 24ea 4d3e f5d8 0fbe
000001a0: ab96 9b3c 4748 cc3d c160 b5bd f8ea 983d
000001b0: 77c9 75bd 9fea 133d 0193 d83d 300c 19ba
000001c0: 7543 f33d 4f38 8d3e 8a21 9e3d 491d 2ebd
000001d0: 9e42 49be 5ff3 5ebe 0e4a bb3e 1b4d 9d3d
000001e0: e15d 453d c33a 21bc 7366 2f3e b615 523d
000001f0: 9e61 583e 2878 273e d19a ea3d 17d3 df3d
00000200: 3e84 093e d3e3 f1bc b85c c33c 777b 02be
00000210: fbe1 aebe 38ec bcbe 5ba9 983d 8ccf ee3c
00000220: 8a59 acbb 498b 023e f2f3 92bd ea85 5f3d
00000230: 2b9c 4cbe fce1 853c 8279 713d add1 873b
00000240: c529 85bd 9ca9 283e 070f 943e 3a08 81be
00000250: 10eb c6be 8ddd 773e 5c44 853d f197 503e
00000260: 8b16 e33d 4f3a 8abd ff15 4e3d 0659 c43d
00000270: a7f3 6d3c e7dd 04be 0e2d 04bf cd1e 1c3d
00000280: 9542 4bbb 3d40 a0be b5fa e9bd d7dc 23bd
00000290: 2fa7 3dbe 9a13 9f3d 85ec 9abd 5c71 59be
000002a0: 28a4 4cbd 8f29 3f3d 8beb 9a3e a394 a03d
000002b0: 10d7 0abd 58c8 a6bd f383 0e3d 66fd adbe
000002c0: 016d 25bd 7dfd c73d 1396 aebd 65d2 cdbc
000002d0: 6557 81bd f7f2 01bd 5d24 ee3d fe22 22bd
000002e0: 12c6 2bbe 6207 d6bd 4591 d3bd 09ea 01be
000002f0: d35c 5d3e 8e5e e63d 1b21 46bd fa43 193e
00000300: 86ca a13d 9401 0e3e ec97 2dbe 273d 2b3d
00000310: 7644 073e cc2c a63c d71b 5abe c134 a63e
00000320: 99e9 e63b 0bfd 09be a3c8 ad3d a4cd 6c3e
00000330: 65bc 673e 55f9 c03d 9b48 8f3d acee 183e
00000340: f79f 45be fc79 cfbe e304 943e db31 9b3d
00000350: f042 afbe cc3e 4e3c d28a 82be cc09 6bbd
00000360: 2089 8c3e 552e 6f3d 921a 203e 5ddb 1ebd
00000370: 283b bf3e 24a8 063d f497 053d a5e7 143e
00000380: a15a 843d e8f3 543d 8c00 35bd f3c1 84bc
00000390: 3ce6 773d 6c00 dd3c 993c 5dbc 5fd2 94be
000003a0: 09d2 c3bd 5b39 0d3e 66d6 ddbd aa59 c2bd
000003b0: aca2 a8be dbe5 3f3e dabf 9dbd 4c5c ba3d
000003c0: b7ac f0bb 9684 9abd 7091 0a3e f8c8 bfbd
000003d0: f4ec c4bc 582f eabd 4728 5cbe bc4f 62be
000003e0: 46ba a2be 15a8 c73d 94cb 683e 64c1 8ebc
000003f0: 2455 193e 7a54 b33d ed22 713e c382 d0bd

conv2.bias f4 [32]
-0.00033307076 0.0010339067 0.00012949662 0.0012384625 0.0006320526 -0.00044494873 -0.00036265407 -0.0005411002
1.9897307e-06 -0.00033154018 -0.00036581326 0.0007081867 -0.00024661818 -0.00035702303 -0.0009856002 -0.00020301339
-0.00013420108 0.00045036015 0.0012287188 0.0007185362 0.00022228432 -0.0012823422 0.0005225355 0.0003781285
-0.0006491667 -0.0006225297 1.5653524e-05 0.0006448021 -0.0018079671 -0.0011343064 -0.00047879078 1.1057637e-05
00000000: 00a0 aeb9 2784 873a 7cc9 0739 e853 a23a
00000010: 55b0 253a 0248 e9b9 9b22 beb9 9fd8 0dba
00000020: 5087 0536 92d2 adb9 a0ca bfb9 9ba5 393a
00000030: 884c 81b9 d22e bbb9 412f 81ba fedf 54b9
00000040: 54b8 0cb9 511e ec39 f60c a13a 265c 3c3a
00000050: fe14 6939 4414 a8ba c4fa 083a 8c3f c639
00000060: d72c 2aba 4331 23ba b04f 8337 f007 293a
00000070: 4ff9 ecba 02ad 94ba 3606 fbb9 3084 3937

bn2.weight f4 [32]
2.1134033 1.9185157 1.9785582 1.9510772 1.9224864 1.8019407 1.9787672 2.0851731
1.8736472 1.9496254 2.0092678 1.8759942 2.0854943 1.9822237 1.794329 1.9779953
1.9150772 1.7974648 2.2751095 1.9150741 2.0666418 1.9660985 1.9079735 1.9325744
2.029291 2.1034367 1.8334612 1.9919186 1.9746284 2.077009 1.8353612 1.9416413
00000000: 0042 0740 ec91 f53f 6541 fd3f e6bc f93f
00000010: 0914 f63f fea5 e63f 3e48 fd3f 7a73 0540
00000020: acd3 ef3f 538d f93f d897 0040 9420 f03f
00000030: bd78 0540 82b9 fd3f 93ac e53f f32e fd3f
00000040: 4021 f53f 5413 e63f 659b 1140 2621 f53f
00000050: dc43 0440 1ea9 fb3f 7a38 f43f 995e f73f
00000060: e7df 0140 b59e 0640 dbae ea3f 30f7 fe3f
00000070: a0c0 fc3f b7ed 0440 1eed ea3f b487 f83f

bn2.bias f4 [32]
-0.66455644 -0.57598627 -0.87476856 -0.6709431 -0.76923954 -0.6125686 -0.53195685 -1.0303049
-0.49223134 -0.8090984 -0.87816626 -0.7505341 -0.8385624 -0.9324287 -0.46359628 -0.8048572
-0.6900497 -1.0501477 -0.8216422 -0.78599125 -0.7299477 -0.91625196 -0.8202337 -0.70487756
-0.7742009 -0.67557406 -0.9607669 -0.9020787 -0.79543686 -0.6988776 -0.39827088 -1.0365775
00000000: 5f20 2abf d673 13bf d5f0 5fbf edc2 2bbf
00000010: e2ec 44bf 4cd1 1cbf 532e 08bf 08e1 83bf
00000020: bf05 fcbe 1321 4fbf 81cf 60bf 0123 40bf
00000030: 07ac 56bf a6b3 6ebf 7e5c edbe 1f0b 4ebf
00000040: 19a7 30bf 3d6b 86bf 2557 52bf b936 49bf
00000050: dadd 3abf 7d8f 6abf d6fa 51bf db72 34bf
00000060: 0832 46bf 6cf2 2cbf d2f4 75bf a1ee 66bf
00000070: c0a1 4bbf a4e9 32bf 29ea cbbe 92ae 84bf

bn2.running_mean f4 [32]
-0.71934164 -0.29077682 -0.061739698 -0.59792477 -0.060907926 -0.5680853 0.09210315 0.19522461
-0.81595325 0.5872073 -0.20049557 0.3418051 -0.533792 0.24823718 -0.99510837 -0.3271889
0.13176563 0.8348655 -0.803866 -0.23223834 -0.20244446 -0.45620838 -0.38222408 -0.9088063
-0.8143653 -0.553239 0.8528391 0.15065941 -0.0839621 -0.94392246 -0.8175242 0.5193341
00000000: c626 38bf b3e0 94be c4e2 7cbd 9911 19bf
00000010: 977a 79bd 0a6e 11bf 94a0 bc3d f6e8 473e
00000020: 50e2 50bf 3853 163f b64e 4dbe 1401 af3e
00000030: 98a6 08bf e331 7e3e 6cbf 7ebf 4e85 a7be
00000040: 92ed 063e bfb9 553f 2aca 4dbf e3cf 6dbe
00000050: 9a4d 4fbe 2594 e9be e0b2 c3be 88a7 68bf
00000060: 3f7a 50bf 12a1 0dbf aa53 5a3f 7646 1a3e
00000070: 52f4 abbd e7a4 71bf 4449 51bf 14f3 043f

bn2.running_var f4 [32]
0.5755069 0.5187901 0.47782376 0.64118 0.73845917 0.69844115 0.57429904 0.56974137
0.71979713 0.6020627 0.7051059 0.6184417 0.58193535 0.6494237 1.2335161 0.5051375
0.5894468 0.7213509 0.8405505 0.58908045 0.44939485 0.6463588 0.49546373 0.5593593
0.92400616 0.5370642 0.61136895 0.5424677 0.4956301 0.809116 0.693114 0.54132736
00000000: 6c54 133f 6ecf 043f 51a5 f43e 5f24 243f
00000010: a90b 3d3f 0acd 323f 4305 133f 92da 113f
00000020: a044 383f c820 1a3f d281 343f 3252 1e3f
00000030: b7f9 143f a240 263f dbe3 9d3f b150 013f
00000040: fce5 163f 74aa 383f 512e 573f facd 163f
00000050: 1517 e63e c577 253f 6cad fd3e 2c32 0f3f
00000060: ab8b 6c3f 0a7d 093f ad82 1c3f 2adf 0a3f
00000070: 3ac3 fd3e 3a22 4f3f eb6f 313f 6e94 0a3f

fc1.weight f4 [128, 960]
0.10782256 -0.15373354 -0.24665156 0.09637991 -0.1432044 -0.20057842 -0.16441163 0.17972814
-0.05570369 -0.17486821 -0.042246133 0.05370785 0.0967206 0.0081805615 -0.12613362 0.023042463
0.18542457 -0.15308985 0.30047017 0.2242457 -0.22266418 -0.05043449 0.16923814 0.064131446
0.023761168 0.15854274 -0.02568212 0.11777358 -0.16602644 -0.17156553 0.0050747953 0.11292013
-0.14601082 0.17125496 0.028458092 -0.09496036 -0.030002879 0.3534415 0.21057257 -0.032636367
-0.2096707 0.039337076 -0.08080065 -0.12746835 0.027591323 -0.06084351 0.06852899 -0.039327096
0.06285635 0.28578046 0.14856967 0.1307123 -0.14362144 -0.31055441 -0.027524363 0.0894016
0.045880478 -0.27659523 0.009684523 -0.09469235 0.09482455 0.21100923 -0.02513193 0.24458036
0.26317838 -0.18978043 -0.088031225 0.023186667 -0.12590492 0.03753256 0.124104135 -0.0018612655
-0.0078594955 -0.098644026 0.21925108 -0.121494144 0.1031011 -0.10476363 -0.27720106 -0.169194
0.044274908 0.047484595 -0.12656367 -0.16483979 -0.11534801 -0.06732172 -0.07677539 0.0010328442
-0.22261812 0.22555427 -0.043392397 -0.12952478 -0.15111437 -0.28970903 -0.17483108 0.1467006
0.0807866 0.0955777 -0.2902979 -0.061401013 -0.046190053 -0.003435286 -0.12323424 0.07623203
0.19174998 0.19223619 -0.17759366 -0.2157089 0.08556365 0.17929886 0.013511082 -0.052985422
0.08311454 0.025980987 0.19737427 -0.06018444 -0.28840217 0.053462014 -0.26625365 0.30481583
0.10919724 0.0039720307 0.07608781 0.23736177 0.054048184 -0.092585295 0.032209683 -0.16161251
0.09402446 0.022685159 0.08706488 0.060686428 0.22079441 0.009982041 0.15665823 0.23472705
-0.07965402 -0.028448442 -0.29368013 0.23232068 -0.034767207 0.27677652 0.020299528 -0.0129472045
0.15784901 0.1673248 0.046359487 -0.15842031 -0.07352622 0.01899837 -0.065069444 -0.17005679
0.12564045 -0.1394773 -0.07900461 -0.18159339 -0.29020458 -0.28256053 -0.013464838 0.16053975
0.09884633 0.17175312 -0.061330818 0.01260801 0.08304593 -0.13922787 0.24430494 -0.11766885
0.07822873 0.13568412 -0.065876774 0.33890834 -0.066698365 0.22518748 0.0644716 -0.09672674
-0.1211419 0.03611716 0.035820488 -0.031899802 0.12777795 -0.018159408 0.43829772 -0.26441422
0.46464562 0.35527048 0.072816044 0.026256038 -0.018683046 0.29317644 0.12668934 -0.006603051
0.1115068 0.34957337 0.16008875 -0.13238494 -0.017153868 -0.12413148 -0.012783053 -0.11379586
0.06050804 -0.09479192 -0.003368374 0.013777241 0.07069146 0.050325714 0.030526482 0.3881797
0.05867709 0.07200658 -0.15661862 -0.13323957 0.16800343 0.06122348 0.10285538 -0.40978268
0.2637458 0.098634034 -0.074309334 0.17599839 0.5230175 0.1830103 -0.24556483 0.12104611
0.055091407 0.07377203 0.092784 -0.17073403 -0.12397094 -0.25256628 -0.5070208 -0.04351112
0.28931156 0.1365498 0.03846613 -0.0767704 -0.27003613 -0.03884493 0.28287047 0.23346974
0.0075171557 0.12029117 0.023640111 -0.24752833 -0.40882242 -0.13280322 -0.21026835 -0.07019434
0.026679987 -0.09476248 -0.3227145 0.24332246 -0.11037605 0.08925801 -0.015922925 0.038103644
00000000: 13d2 dc3d 536c 1dbe 3a92 7cbe d562 c53d
00000010: 2da4 12be 6e64 4dbe 865b 28be a70a 383e
00000020: 8d29 64bd a710 33be 480a 2dbd c3fc 5b3d
00000030: 7315 c63d c307 063c 2c29 01be 8cc3 bc3c
00000040: f0df 3d3e 96c3 1cbe 3ad7 993e aaa0 653e
00000050: 1402 64be 6594 4ebd c34c 2d3e 5957 833d
00000060: c8a6 c23c 0759 223e 4f63 d2bc 4633 f13d
00000070: d602 2abe e0ae 2fbe 784a a63b ab42 e73d
00000080: dc83 15be 765d 2f3e f220 e93c 947a c2bd
00000090: 99c8 f5bc 49f6 b43e 56a0 573e b6ad 05bd
000000a0: eab3 56be ea1f 213d d07a a5bd 1087 02be
000000b0: 3307 e23c 0b37 79bd ed58 8c3d 7315 21bd
000000c0: d4ba 803d d151 923e a622 183e 72d9 053e
000000d0: 8011 13be fd00 9fbe c67a e1bc 3018 b73d
000000e0: 2bed 3b3d e49d 8dbe d5ab 1e3c 10ee c1bd
000000f0: 6033 c23d ce12 583e 7ae1 cdbc 4673 7a3e
00000100: 51bf 863e cd55 42be b749 b4bd f7f1 bd3c
00000110: 38ed 00be bebb 193d 4f2a fe3d b5f5 f3ba
00000120: 1dc5 00bc e105 cabd 5b83 603e ecd1 f8bd
00000130: ab26 d33d 508e d6bd 4ced 8dbe 3141 2dbe
00000140: 9b59 353d 357f 423d e899 01be c3cb 28be
00000150: 943b ecbd f8df 89bd 6a3c 9dbd 8060 873a
00000160: 01f6 63be b3f7 663e 3abc 31bd 25a2 04be
00000170: babd 1abe be54 94be eb06 33be af38 163e
00000180: 7273 a53d 3ebe c33d eda1 94be a17f 7bbd
00000190: c831 3dbd 8922 61bb 3c62 fcbd 8a1f 9c3d
000001a0: 1b5a 443e 90d9 443e 1ddb 35be cbe2 5cbe
000001b0: ff3b af3d 1f9a 373e 965d 5d3c 3e07 59bd
000001c0: f537 aa3d 14d6 d43c 7b1c 4a3e f683 76bd
000001d0: 73a9 93be fcfa 5a3d 6652 88be d210 9c3e
000001e0: cda2 df3d cf27 823b edd3 9b3d f70e 733e
000001f0: a161 5d3d 5c9d bdbd 4dee 033d c07d 25be
00000200: e58f c03d 3ad6 b93c 124f b23d 5592 783d
00000210: ee17 623e b78b 233c 046b 203e 4a5c 703e
00000220: a621 a3bd b50c e9bc 3e5d 96be 79e5 6d3e
00000230: 0f68 0ebd a7b5 8d3e 324b a63c 8320 54bc
00000240: 2ca3 213e 3157 2b3e 72e3 3d3d ef38 22be
00000250: ea94 96bd 78a2 9b3c 2143 85bd 5e23 2ebe
00000260: e4a7 003e 23d3 0ebe 2bcd a1bd 9ef3 39be
00000270: b295 94be c6ab 90be a09b 5cbc 8864 243e
00000280: f26f ca3d 0de0 2f3e 0636 7bbd d491 4e3c
00000290: fc13 aa3d c091 0ebe 132b 7a3e 5efc f0bd
000002a0: 6236 a03d c7f0 0a3e 67ea 86bd 6585 ad3e
000002b0: 2799 88bd 8c97 663e b009 843d ab18 c6bd
000002c0: 3f19 f8bd 96ef 133d 81b8 123d 5ea9 02bd
000002d0: 39d8 023e 0ac3 94bc 8f68 e03e 4d61 87be
000002e0: 08e6 ed3e 03e6 b53e 9420 953d e716 d73c
000002f0: 300d 99bc 391b 963e daba 013e 685e d8bb
00000300: ad5d e43d 48fb b23e 4eee 233e eb8f 07be
00000310: 4586 8cbc a538 febd 0370 51bc ce0d e9bd
00000320: 47d7 773d 4422 c2bd f0bf 5cbb f0b9 613c
00000330: afc6 903d 5622 4e3d ac12 fa3c 7dbf c63e
00000340: 6357 703d 3078 933d a260 20be f46f 08be
00000350: 1709 2c3e 79c5 7a3d d7a5 d23d 09cf d1be
00000360: b109 873e a400 ca3d 7e2f 98bd ec38 343e
00000370: 7ae4 053f 0d67 3b3e 5975 7bbe 06e7 f73d
00000380: 87a7 613d ca15 973d 8a05 be3d e7d4 2ebe
00000390: 7ae4 fdbd 5e50 81be 1dcc 01bf b738 32bd
000003a0: a520 943e b6d3 0b3e a98e 1d3d cd39 9dbd
000003b0: 2d42 8abe dc1b 1fbd 66d4 903e b112 6f3e
000003c0: 7952 f63b 385b f63d e8a8 c13c 1178 7dbe
000003d0: 2c51 d1be 91fd 07be 9650 57be 0dc2 8fbd
000003e0: fd8f da3c d512 c2bd d63a a5be 8629 793e
000003f0: d70c e2bd e7cc b63d cb70 82bc 9112 1c3d

fc1.bias f4 [128]
-0.052136716 -0.046234053 -0.0419313 0.009444453 -0.08849958 -0.046534505 -0.00035218423 0.105966434
0.047386527 -0.102098435 -0.019295998 0.06256426 -0.09073947 -0.038653784 -0.055498295 -0.064655505
-0.031325575 0.04766012 0.0045369524 0.01441281 0.010269516 0.046962958 0.022483569 -0.07387514
0.043774407 -0.030653698 -0.08032203 0.061589856 0.0054134685 -0.008723332 0.013292065 -0.014201047
0.08144827 0.092426814 -0.04244302 0.024932515 0.00034539678 0.045064718 -0.041897476 0.05694569
-0.029848889 -0.04356663 -0.009292841 8.4029205e-05 0.007603224 0.0073943418 0.08432627 0.032767043
-0.041642837 0.085683316 0.018775754 0.05770067 0.042678516 0.019716091 0.047003902 0.014926995
0.029303927 -0.065164484 0.092428155 0.030032866 0.001027397 0.05413472 -0.09640534 0.051051788
-0.06802464 0.00822502 -0.013688423 -0.022935312 -0.009427904 0.014701458 0.03667241 0.065646656
-0.043979585 0.04124571 -0.09341413 -0.06281854 0.012212302 -0.020810734 0.057840593 0.10731243
0.039649963 0.03294042 -0.012458158 -0.014562056 -0.05155571 -0.02480181 0.0323237 0.021089314
-0.03155075 0.013760926 -0.03386324 -0.020316988 -0.051125076 -0.041003577 0.07185473 0.0037109836
0.003814687 0.036679607 0.017153198 0.05393406 -0.008372454 -0.003430614 -0.023765936 0.008417374
-0.008656977 -0.020493511 -0.024363084 0.00981418 -0.06985821 0.012795477 -0.024292314 -0.046254963
0.033161998 -0.015415108 0.042528864 -0.008458334 0.09406597 0.04916007 -0.033590205 -0.047581356
0.04102557 0.016624194 -0.04529267 -0.037491534 -0.03618187 0.018416144 -0.0051642335 0.023082506
00000000: 4f8d 55bd eb5f 3dbd 28c0 2bbd e8bc 1a3c
00000010: 453f b5bd f79a 3ebd 5ea5 b8b9 ee04 d93d
00000020: 6018 423d fc18 d1bd a412 9ebc b121 803d
00000030: 9ed5 b9bd 6e53 1ebd 2e52 63bd 1b6a 84bd
00000040: 3f4f 00bd 4237 433d b7aa 943b b523 6c3c
00000050: 7941 283c 3b5c 403d 762f b83c d94b 97bd
00000060: cb4c 333d 771d fbbc e07f a4bd a545 7c3d
00000070: 7763 b13b 4eec 0ebc f6c6 593c 82ab 68bc
00000080: 5ace a63d 454a bd3d bbd8 2dbd 463f cc3c
00000090: 5f16 b539 c895 383d b09c 2bbd e23f 693d
000000a0: a885 f4bc ec72 32bd 0041 18bc d638 b038
000000b0: 7724 f93b 3c4c f23b 40b3 ac3d bc36 063d
000000c0: ae91 2abd bc7a af3d 9ccf 993c 8a57 6c3d
000000d0: abcf 2e3d a483 a13c 2a87 403d 5b90 743c
000000e0: ca0e f03c f574 85bd f94a bd3d 7c07 f63c
000000f0: b9a9 863a 5ebc 5d3d 2a70 c5bd ae1b 513d
00000100: 8150 8bbd 3cc2 063c 6845 60bc d6e2 bbbc
00000110: 7f77 1abc 62de 703c cf35 163d c171 863d
00000120: f023 34bd 43f1 283d e84f bfbd 02a7 80bd
00000130: 1b16 483c 467b aabc 42ea 6c3d 9fc6 db3d
00000140: 0068 223d 89ec 063d 4d1d 4cbc b195 6ebc
00000150: 152c 53bd 2a2d cbbc db65 043d 7fc3 ac3c
00000160: 5c3b 01bd 8275 613c 2eb4 0abd d06f a6bc
00000170: 8768 51bd 5ef3 27bd 9328 933d f933 733b
00000180: d4ff 793b 5b3d 163d dd84 8c3c f6e9 5c3d
00000190: 9e2c 09bc 27d4 60bb c8b0 c2bc 07e9 093c
000001a0: fed5 0dbc 02e2 a7bc 1795 c7bc a8cb 203c
000001b0: d211 8fbd 1fa4 513c ad00 c7bc d875 3dbd
000001c0: e0d4 073d a68f 7cbc bf32 2e3d d394 0abc
000001d0: a9a5 c03d 125c 493d e295 09bd abe4 42bd
000001e0: 6e0a 283d 762f 883c cf84 39bd b990 19bd
000001f0: 7133 14bd 74dd 963c bb38 a9bb 8617 bd3c

fc2.weight f4 [3, 128]
-0.059449665 0.0764706 0.0036970382 0.106196836 0.13409649 -0.08539186 0.080231674 -0.005422386
-0.07378737 0.1562515 -0.052417476 0.15236531 -0.0011213967 -0.029244568 -0.016903821 0.02341684
0.18224496 -0.012411421 -0.09590579 0.1307483 -0.10087196 0.09938787 0.20370722 0.11270793
-0.11074822 0.06088822 -0.11016583 -0.12451166 -0.11966166 -0.11649172 0.099612296 0.06522195
-0.10971267 -0.091043614 0.1020968 0.08394468 0.10020146 0.14395025 0.092526615 -0.08984911
0.13627636 -0.18498802 0.1585335 -0.10231451 0.08528071 0.049705233 -0.009227962 0.15885094
-0.12618825 -0.06581989 0.05730931 -0.05216111 0.13909681 0.1693538 0.081182115 0.080130905
0.05548706 -0.10296264 -0.11948737 0.12294418 -0.10848657 -0.021668097 0.05059015 0.042284552
0.13921753 0.05063138 0.03978725 -0.081642166 -0.17423482 0.111580566 0.16218956 0.18053451
0.053907923 -0.040888336 -0.15427697 -0.14187518 -0.019546729 0.09787099 -0.03907157 -0.081698716
0.068794675 -0.036604937 -0.047661837 -0.094676204 -0.14096458 -0.10475168 -0.005780007 -0.032467354
0.062714696 -0.1445532 -0.06730941 0.13357209 -0.09958745 -0.02920982 0.11181737 0.028732348
0.029415658 0.055816125 0.10055671 -0.070413426 -0.13741054 -0.14967573 -0.07241849 0.10654334
0.007552107 0.046956465 0.06747938 -0.07625294 0.051146664 -0.119629115 0.07647127 0.11983755
0.08430323 0.0020616583 -0.08698923 -0.10632696 -0.16174363 -0.018435292 0.13571489 -0.092735976
-0.08168165 -0.17568786 -0.031924535 0.13151805 -0.07880257 0.011109704 0.028975222 0.11269416
0.09928101 -0.08953096 -0.09264647 -0.123288974 -0.07439911 0.13007548 -0.063897066 -0.024360739
0.090793595 0.07086144 -0.11807178 -0.07373614 -0.069919474 0.120414026 0.13219191 0.06424687
0.040127985 -0.07842964 0.097201586 0.021928249 -0.0034703314 -0.053768575 0.007514615 0.06887811
-0.02933727 0.05322022 0.040539633 0.065504335 0.07323258 0.06715342 -0.02977082 -0.07445997
0.05116659 0.058537506 -0.038378745 0.028072957 -0.029955411 -0.08173767 -0.124195345 0.083245024
-0.05144299 0.022861473 -0.075615056 0.09539056 0.045291986 -0.10941722 -0.12637483 0.09440876
0.04375399 -0.029576771 -0.10355267 0.13386166 -0.090386994 -0.0052802744 -0.11379581 -0.06901165
-0.10940605 0.102214575 0.10962245 -0.07221743 0.118133225 -0.053459775 -0.13055298 0.0968922
0.036663543 0.04670023 0.05122528 0.1146287 0.0063179 0.03292673 -0.05669461 -0.008847076
0.071389176 -0.07422208 0.020037368 0.021935994 0.12131671 0.008183463 0.0034420684 0.025728995
-0.08544846 -0.09669661 0.16566668 -0.037544616 0.03191646 0.086195655 -0.054791603 0.13006823
0.09746899 0.05895346 0.0072406833 0.022682216 0.13990961 0.12332708 -0.06784673 0.03562649
0.12852369 0.12936874 0.059343144 0.017513037 -0.0053348555 0.020317059 -0.038874667 0.064491294
0.12793976 -0.0052742464 -0.10079645 0.10536184 -0.10594959 0.06637607 -0.07912678 -0.022526976
-0.07086325 0.09662538 -0.011464007 0.047302317 0.0671459 0.057469945 0.08948507 0.12938258
0.06835772 0.024572555 -0.05766973 -0.045125708 0.13359186 -0.093490675 -0.08695828 -0.054895043
00000000: 7e81 73bd 9e9c 9c3d 024a 723b ba7d d93d
00000010: 9750 093e ede1 aebd 8150 a43d 45ae b1bb
00000020: d51d 97bd 6500 203e b5b3 56bd a705 1c3e
00000030: d4fb 92ba 4e92 efbc e279 8abc acd4 bf3c
00000040: 6c9e 3a3e 4659 4bbc 416a c4bd e2e2 053e
00000050: f595 cebd de8b cb3d a098 503e 6ad3 e63d
00000060: f6cf e2bd ed65 793d 9f9e e1bd f8ff febd
00000070: 2c11 f5bd 3693 eebd 8801 cc3d 1693 853d
00000080: 09b1 e0bd 1375 babd 2118 d13d 30eb ab3d
00000090: 6c36 cd3d b267 133e 987e bd3d cf02 b8bd
000000a0: 088c 0b3e 806d 3dbe 9b56 223e 458a d1bd
000000b0: a7a7 ae3d b797 4b3d e130 17bc d2a9 223e
000000c0: 7e37 01be 94cc 86bd 2bbd 6a3d e3a6 55bd
000000d0: 656f 0e3e 156b 2d3e cf42 a63d ac1b a43d
000000e0: 6646 633d 14de d2bd cbb5 f4bd 29ca fb3d
000000f0: 352e debd 4b81 b1bc 9e37 4f3d 9132 2d3d
00000100: 0a8f 0e3e da62 4f3d f5f7 223d 0234 a7bd
00000110: 9d6a 32be 5a84 e43d 0515 263e 0ade 383e
00000120: 8ece 5c3d 877a 27bd c8fa 1dbe ba47 11be
00000130: 7620 a0bc 9670 c83d 8309 20bd a851 a7bd
00000140: 39e4 8c3d 0fef 15bd 0f39 43bd 99e5 c1bd
00000150: 0559 10be 0c88 d6bd 3766 bdbb 7dfc 04bd
00000160: 9070 803d c105 14be 84d9 89bd 1fc7 083e
00000170: 81f4 cbbd 6f49 efbc 8100 e53d 1a60 eb3c
00000180: 1bf9 f03c 739f 643d adf0 cd3d ea34 90bd
00000190: 59b5 0cbe 9844 19be 2550 94bd 6533 da3d
000001a0: aa77 f73b 6c55 403d a132 8a3d 802a 9cbd
000001b0: 2a7f 513d 1c00 f5bd f89c 9c3d 646d f53d
000001c0: 2ca7 ac3d e31c 073b 6927 b2bd f3c1 d9bd
000001d0: 1fa0 25be 9c05 97bc d8f8 0a3e 5cec bdbd
000001e0: b548 a7bd 85e7 33be 4dc3 02bd abac 063e
000001f0: 3e63 a1bd 7a05 363c 725d ed3c 32cc e63d
00000200: d853 cb3d 025c b7bd 6fbd bdbd ee7e fcbd
00000210: 905e 98bd 8232 053e 77dc 82bd 2c90 c7bc
00000220: fef1 b93d cd1f 913d 9ecf f1bd f902 97bd
00000230: f131 8fbd a19b f63d 515d 073e dd93 833d
00000240: 3e5d 243d b89f a0bd a011 c73d dfa2 b33c
00000250: 806e 63bb 703c 5cbd 293d f63b f70f 8d3d
00000260: b754 f0bc 72fd 593d e30c 263d 2327 863d
00000270: f7fa 953d bb87 893d efe1 f3bc 787e 98bd
00000280: 0f94 513d 06c5 6f3d 0833 1dbd 42f9 e53c
00000290: 0d65 f5bc 1466 a7bd 215a febd 5e7c aa3d
000002a0: e2b5 52bd fc47 bb3c 11dc 9abd 205c c33d
000002b0: 1784 393d 2316 e0bd 6768 01be 6159 c13d
000002c0: 6237 333d fc4a f2bc 6c13 d4bd 0813 093e
000002d0: d11c b9bd 2706 adbb c70d e9bd fb55 8dbd
000002e0: 4710 e0bd e055 d13d bc81 e03d bbe6 93bd
000002f0: d5ef f13d a3f8 5abd aeaf 05be 6b6f c63d
00000300: 832c 163d be48 3f3d 99d1 513d 74c2 ea3d
00000310: 6306 cf3b 2ede 063d 9b38 68bd 54f3 10bc
00000320: 7d34 923d bf01 98bd 6825 a43c 1db3 b33c
00000330: e574 f83d ee13 063c 5394 613b 9dc5 d23c
00000340: 9aff aebd df08 c6bd 87a4 293e 62c8 19bd
00000350: d5ba 023d 5987 b03d 296d 60bd 9b30 053e
00000360: d29d c73d 2f79 713d 4143 ed3b 0ed0 b93c
00000370: 7744 0f3e e892 fc3d 3af3 8abd 15ed 113d
00000380: b79b 033e 3d79 043e cc11 733d 8077 8f3c
00000390: 03d0 aebb f66f a63c 0b3b 1fbd 0314 843d
000003a0: a402 033e 96d3 acbb 5f6e cebd f3c7 d73d
000003b0: 19fc d8bd 2df0 873d 390d a2bd 7e8a b8bc
000003c0: c020 91bd 87e3 c53d 88d3 3bbc 13c0 413d
000003d0: ca83 893d 9b65 6b3d f343 b73d de7c 043e
000003e0: 22ff 8b3d 624c c93c 1837 6cbd bcd5 38bd
000003f0: 4ecc 083e 0a78 bfbd 2f17 b2bd a0d9 60bd

fc2.bias f4 [3]
0.17339659 -0.16089056 -0.079011805
00000000: e08e 313e 7fc0 24be f1d0 a1bd
