results/arousal/classification_5/20251223_101945_311866/best_model.pt (torch, 336885 bytes, 22 tensors)

conv1.weight f4 [128, 1, 3]
0.43357924 0.45258415 -0.16845019 0.45596173 -0.23435684 0.044311672 -0.2622526 0.30898678
0.56654865 -0.401323 0.54631275 0.14126725 0.46093693 -0.016057087 0.24574311 -0.08590235
0.46049896 0.09481596 -1.4372985e-07 -0.007196028 -2.0556506e-06 -0.020874644 -0.23058617 0.39518684
-0.47973695 -0.32347906 -0.14273117 -0.2989011 0.017922701 -0.6600251 0.4704746 -0.54929465
0.41828573 0.019444823 -0.102951296 0.24564125 0.11506309 0.4644779 0.059614588 -0.15080704
0.16831471 -0.21105029 0.21207638 0.34358776 0.45283493 -0.24117555 0.35361326 0.123707876
0.03838757 -0.015937243 -0.042165644 -0.14949937 -0.5049731 0.43911895 0.19218747 0.1416612
0.21431454 -0.037208166 0.45386156 -0.41827276 -0.009441492 -0.0013796996 0.0067216055 -5.9073346e-13
-7.404697e-17 -3.8805897e-25 0.0018259505 -2.3501385e-05 -2.6099202e-05 -0.34108067 0.53213644 0.22523072
0.55279785 -0.3731324 -0.4747603 -0.40478748 -0.40570113 0.27866334 0.1869475 0.5143611
-0.26921335 -0.0030696932 0.048913553 -0.012518402 0.3638127 -0.22994849 0.24629158 -0.44370198
-0.3133656 0.1983162 0.075938314 -0.21406154 0.30819625 0.14272459 -0.15695833 -0.08768206
0.50133085 -0.21439493 -0.22121626 -0.53032357 -0.42698285 0.09014681 1.4161709e-29 -0.00042917512
-2.1313323e-31 -0.00019870636 -0.0022696485 -6.1932064e-06 -0.540056 -0.45908216 0.5166032 0.035228208
0.06580366 -0.0052184304 -0.00011576712 -4.3487837e-14 2.7077347e-28 -0.51163524 -0.31161442 -0.34837615
0.08653375 -0.19953597 -0.009999599 -0.37890962 -0.36310557 -0.3101011 -0.15351523 -0.48743603
0.4885818 -0.066595234 0.52208716 0.20679422 -0.30066708 0.42858332 -0.11908997 -0.12299357
-0.41689134 -0.5319855 0.1008882 -0.17546281 0.23595364 -0.35364503 0.41811454 -0.46568748
-0.07938664 0.1320669 0.32195076 0.30746666 0.48417744 -0.55467486 -6.683669e-22 -1.3012433e-08
5.8615377e-30 -0.37575886 0.5957806 -0.39332473 0.26715627 0.15115601 0.19882192 -0.33725613
0.45983675 0.22894381 0.14929853 -0.5287957 0.2526825 -0.05728705 -0.253892 0.50715476
3.6589485e-05 -6.7852957e-06 -1.0557861e-06 -0.04864552 0.26371565 -0.20770667 -1.2054809e-05 -4.0127564e-13
-0.00060231244 0.17446561 0.42730552 -0.56584024 0.080281556 0.38126522 0.09341624 -0.17399313
0.3181906 0.3096715 5.7504654e-11 3.0947273e-27 -1.19757254e-20 0.12548834 -0.054553017 -0.16049662
0.41588378 0.39587668 -0.16728605 -4.7752034e-24 -1.2007736e-31 -9.468068e-31 0.15001796 0.17295831
-0.53010696 -0.20029148 0.47363237 0.22905602 2.0237891e-31 -3.1256495e-05 -3.9659106e-05 -0.5022267
-0.22548164 0.1577334 0.26567212 0.2719914 -0.55021966 -0.22505072 -0.020939393 0.66756475
0.08377289 -0.15155442 0.2584905 -0.13362928 -0.40481362 0.41705942 -0.31117576 -0.11457276
-0.4768149 0.3742365 0.40666443 0.19800805 -0.0002600798 -0.008133414 -0.0014827008 0.4272333
0.13985175 0.52100265 0.3321586 0.020458085 -0.1264984 -0.00073728367 -0.002488354 -0.005341372
0.2500107 -0.33910406 -0.040766656 -1.40754755e-05 -6.5653496e-27 -0.00029311964 -0.000107599364 3.1688116e-14
-8.398978e-18 0.00069639465 -0.00043597014 -0.0004867165 -0.08447145 -0.28533083 -0.18943426 -0.4996294
00000000: 19fe dd3e 1cb9 e73e 357e 2cbe d173 e93e
00000010: 3dfb 6fbe 2880 353d f945 86be 8433 9e3e
00000020: 5509 113f 357a cdbe 27db 0b3f 5da8 103e
00000030: edff eb3e 278a 83bc 15a4 7b3e 92ed afbd
00000040: 85c6 eb3e df2e c23d 2954 1ab4 a8cc ebbb
00000050: cff3 09b6 4d01 abbc c81e 6cbe ee55 ca3e
00000060: 15a0 f5be 0c9f a5be 1f28 12be 9109 99be
00000070: a1d2 923c 68f7 28bf 0ce2 f03e 939e 0cbf
00000080: 8c29 d63e c04a 9f3c 21d8 d2bd 6189 7b3e
00000090: 33a6 eb3d 0cd0 ed3e 6d2e 743d 296d 1abe
000000a0: b15a 2c3e 911d 58be 8d2a 593e bcea af3e
000000b0: fbd9 e73e b9f6 76be cc0c b53e 8e5a fd3d
000000c0: 493c 1d3d d28e 82bc e2b5 2cbd 5d16 19be
000000d0: eb45 01bf 33d4 e03e cbcc 443e a20f 113e
000000e0: 4575 5b3e 9767 18bd 8b60 e83e d927 d6be
000000f0: 7db0 1abc 09d7 b4ba ea40 dc3b d546 26ab
00000100: 9ebd aaa4 6632 f096 bb54 ef3a d724 c5b7
00000110: 9cef dab7 20a2 aebe 183a 083f e2a2 663e
00000120: 2984 0d3f 360b bfbe c813 f3be 4e40 cfbe
00000130: 0fb8 cfbe f6ac 8e3e 2a6f 3f3e 2bad 033f
00000140: 55d6 89be e82c 49bb 9459 483d fc19 4dbc
00000150: a945 ba3e 9e77 6bbe dc33 7c3e e82c e3be
00000160: 7571 a0be 6713 4b3e 8c85 9b3d f332 5bbe
00000170: e6cb 9d3e 6526 123e afb9 20be a792 b3bd
00000180: 3857 003f 588a 5bbe 8486 62be 49c3 07bf
00000190: 7f9d dabe e49e b83d e69d 8f0f e902 e1b9
000001a0: d554 8a8c d55b 50b9 62be 14bb 3dcf cfb6
000001b0: 1c41 0abf d10c ebbe 1b40 043f 744b 103d
000001c0: 12c4 863d 5eff aabb 00c8 f2b8 10da 43a9
000001d0: 829f ab11 87fa 02bf ed8b 9fbe 5c5e b2be
000001e0: 9b38 b13d 2853 4cbe 5cd5 23bc 7100 c2be
000001f0: f9e8 b9be 92c5 9ebe 1933 1dbe 3791 f9be
00000200: 6527 fa3e 1563 88bd 81a7 053f ddc1 533e
00000210: 09f1 99be 466f db3e 71e5 f3bd 0ee4 fbbd
00000220: c872 d5be 3430 08bf 799e ce3d 86ac 33be
00000230: d59d 713e f610 b5be 1c13 d63e 976e eebe
00000240: 7695 a2bd 8c3c 073e bbd6 a43e 456c 9d3e
00000250: 1be6 f73e 2cff 0dbf 6200 4a9c 498d 5fb2
00000260: b0c5 ed0e 7763 c0be 1485 183f dc61 c9be
00000270: b5c8 883e a4c8 1a3e f997 4b3e d6ac acbe
00000280: b96f eb3e 3f70 6a3e b7e1 183e 285f 07bf
00000290: 9a5f 813e d3a5 6abd 22fe 81be e5d4 013f
000002a0: a977 1938 3fad e3b6 89b4 8db5 8640 47bd
000002b0: bd05 873e 0fb1 54be 033f 4ab7 eae5 e1aa
000002c0: 81e4 1dba 1da7 323e cac7 da3e e8da 10bf
000002d0: a86a a43d 3235 c33e 0351 bf3d 412b 32be
000002e0: e1e9 a23e 438d 9e3e 7ce8 7c2e 8730 7513
000002f0: 0e37 629e 0480 003e fc72 5fbd 3a59 24be
00000300: b8ee d43e 59b0 ca3e 094d 2bbe 53bb b898
00000310: 8cde 1b8c d1a0 998d 4f9e 193e fc1b 313e
00000320: 17b5 07bf 3619 4dbe f17f f23e a98d 6a3e
00000330: f759 830c 6819 03b8 a457 26b8 ee91 00bf
00000340: a9e4 66be dd84 213e 2d06 883e 7542 8b3e
00000350: 32db 0cbf b273 66be 1789 abbc 86e5 2a3f
00000360: 1f91 ab3d 1531 1bbe de58 843e 1dd6 08be
00000370: bb43 cfbe d088 d53e 6e52 9fbe 20a5 eabd
00000380: 1521 f4be ed9b bf3e 5236 d03e 9fc2 4a3e
00000390: 525b 88b9 0342 05bc 2f57 c2ba 53be da3e
000003a0: 4c35 0f3e 6e60 053f b110 aa3e b797 a73c
000003b0: cc88 01be 4546 41ba a713 23bb ad06 afbb
000003c0: 6701 803e 0c9f adbe f0fa 26bd b525 6cb7
000003d0: 470a 0294 daad 99b9 f8a6 e1b8 e9b5 0e29
000003e0: 0def 1aa3 418e 363a ec92 e4b9 fc2d ffb9
000003f0: 5eff acbd e216 92be 0efb 41be 6dcf ffbe

conv1.bias f4 [128]
0.0037123566 0.13654421 -0.4677859 -0.18310216 0.002881159 -0.11997188 -0.015257979 -0.2219409
0.36584643 0.24651252 0.14872336 -0.25918946 -0.4633952 0.055194132 0.00012666648 -0.24938147
-0.03783151 0.36009327 0.00012858855 0.023708845 -0.0099063255 -0.004078196 -0.0055731363 -0.26179394
-0.16882108 0.19441795 -0.16528833 -0.047117297 0.058914542 0.19761106 0.11796865 -0.079484485
-0.26915154 0.21135347 -0.00014163743 -0.000108281456 -0.042202845 -0.11601813 -0.0006266582 0.32598513
0.17288744 0.12716682 -0.093941525 -0.5134197 -0.19207235 0.21528482 0.068992056 -0.072877966
-0.21748154 0.15795788 -0.0012126749 0.28350425 -0.2631138 0.05794168 -0.024343941 0.1432888
-0.0023521641 0.08719838 -1.9875117e-31 0.21362837 0.006711556 -0.28247446 -0.0004556137 0.18370405
0.018658707 -0.0007708469 -0.0061929356 -0.55452967 -0.001604552 0.14633268 0.22120841 0.13332531
-0.15254581 0.33083004 0.05900096 -0.365028 -8.033242e-31 -1.412337e-05 0.07922574 -0.00031064998
0.06322921 -1.302552e-06 -0.0018594819 -0.001154672 0.40787762 0.41047645 0.0036944444 0.27914435
0.0092619145 -0.00018971504 -0.32124436 0.02072225 -0.29636127 -0.00016886911 5.7327036e-16 0.19257317
0.1676594 -3.1068792e-10 -2.0854459e-05 0.08808708 -2.1387446e-05 -0.12985872 0.1989114 -0.026225474
0.13859649 0.0072326907 0.19918339 0.04113874 0.18167174 -1.35327e-31 -0.112334065 0.019206483
0.0236343 0.21441661 5.9583096e-22 -0.25709364 -0.17315148 -0.28152665 0.0864034 0.18201251
0.41689035 0.007839504 -0.0005055824 -0.26033783 1.018368e-24 -0.15712653 -0.0077948673 -0.46189445
00000000: 024b 733b 3fd2 0b3e a281 efbe 227f 3bbe
00000010: d4d1 3c3b d1b3 f5bd 9afc 79bc 7a44 63be
00000020: 3950 bb3e c76d 7c3e f04a 183e 7bb4 84be
00000030: 2342 edbe 3e13 623d c6d1 0439 db5d 7fbe
00000040: 37f5 1abd 255e b83e bad5 0639 0d39 c23c
00000050: 244e 22bc 63a2 85bb db9e b6bb db09 86be
00000060: 6fdf 2cbe 8015 473e 5841 29be 11fe 40bd
00000070: 6050 713d 8e5a 4a3e 8c99 f13d c3c8 a2bd
00000080: 3bce 89be 0b6d 583e 8284 14b9 2a15 e3b8
00000090: e4dc 2cbd ea9a edbd 5246 24ba 86e7 a63e
000000a0: 6809 313e 0538 023e 6a64 c0bd 796f 03bf
000000b0: 9dae 44be a073 5c3e b54b 8d3d 0b41 95bd
000000c0: 7bb3 5ebe b6bf 213e 9ef2 9eba 7827 913e
000000d0: dab6 86be 4154 6d3d f26c c7bc 4dba 123e
000000e0: c426 1abb 1095 b23d 34ff 808c 65c1 5a3e
000000f0: 9dec db3b 7ea0 90be 70df eeb9 ea1c 3c3e
00000100: 25da 983c a912 4aba 1cee cabb a8f5 0dbf
00000110: d54f d2ba 3cd8 153e 7584 623e 6e86 083e
00000120: f834 1cbe 8e62 a93e feaa 713d f3e4 babe
00000130: c858 828d 6af3 6cb7 1b41 a23d bcde a2b9
00000140: 517e 813d 59d3 aeb5 dcb9 f3ba 5d58 97ba
00000150: 56d5 d03e f829 d23e 7e1e 723b 02ec 8e3e
00000160: 49bf 173c 3eee 46b9 247a a4be b5c1 a93c
00000170: aabc 97be 7512 31b9 e33b 2526 e731 453e
00000180: e8ae 2b3e 70cd aaaf 9cf0 aeb7 0067 b43d
00000190: 3169 b3b7 aff9 04be 6eaf 4b3e ced6 d6bc
000001a0: 3dec 0d3e 3500 ed3b bbf6 4b3e 1881 283d
000001b0: 2808 3a3e 1caa 2f8c 670f e6bd ea56 9d3c
000001c0: b89c c13c 0790 5b3e 3014 341c c7a1 83be
000001d0: 9f4e 31be 4324 90be 44f4 b03d 7d61 3a3e
000001e0: a772 d53e 4371 003c 0f89 04ba 004b 85be
000001f0: b695 9d17 c7e5 20be 166c ffbb 6e7d ecbe

bn1.weight f4 [128]
0.73918647 1.0186915 1.0574509 0.96145225 0.82186294 0.9787645 0.1550634 0.85717756
0.87175834 1.1810391 0.9835731 0.15621994 0.74762833 0.9259312 0.7385036 0.8666023
0.20490852 0.94226754 0.75092673 1.1014861 0.15540214 0.15501547 0.15501547 0.9513442
0.8944123 0.9950433 1.0112519 0.1549861 0.9216185 0.9359262 1.0071948 0.15731117
0.94115627 1.1285369 0.15501547 0.15501547 1.066001 0.15676601 0.15501547 1.0770133
1.0017887 0.95839554 1.0146688 0.9942828 0.9464532 1.1880771 0.8647758 1.0481198
1.0167601 0.9015905 0.15501547 0.986065 0.9834354 0.93368465 1.065229 0.89767003
0.15501547 1.0874221 0.15501547 0.95280117 0.77645916 1.0090442 0.15501547 0.8777758
0.7543472 0.15501547 1.1387887 0.630663 0.15501547 0.9659472 0.92535466 0.94866467
0.85230404 0.9162331 0.7639112 0.97966075 0.15501547 0.7703242 0.80822396 0.15501547
1.1574243 0.15501547 0.15501547 0.15504082 0.9107016 0.8700169 0.8077463 0.97530335
0.8464309 0.15501547 0.46226883 0.7617704 0.86373943 0.15501547 0.15501547 0.9806799
1.0274163 0.15501547 0.15501547 1.2492211 0.15501547 0.18850537 0.9664842 0.83896434
0.93793875 0.9009148 1.0261073 0.92325217 1.1770185 0.15501547 1.119881 0.97955954
1.082086 0.85097474 0.15501547 1.0081495 0.9305626 0.770376 0.930147 0.96622926
0.89452714 0.84324145 0.15501547 0.9080902 0.15501547 0.93120676 1.092374 0.9816247
00000000: 533b 3d3f 7c64 823f 8d5a 873f bc21 763f
00000010: 9c65 523f 4f90 7a3f f1c8 1e3e fd6f 5b3f
00000020: 8e2b 5f3f 4a2c 973f 72cb 7b3f 1ff8 1f3e
00000030: 9264 3f3f d409 6d3f 920e 3d3f a6d9 5d3f
00000040: 8ad3 513e 7238 713f bc3c 403f 7ffd 8c3f
00000050: bd21 1f3e 60bc 1e3e 60bc 1e3e 4b8b 733f
00000060: 34f8 643f 28bb 7e3f b470 813f adb4 1e3e
00000070: 31ef 6b3f dc98 6f3f c2eb 803f 2e16 213e
00000080: 9eef 703f e673 903f 60bc 1e3e 60bc 1e3e
00000090: b972 883f 4587 203e 60bc 1e3e 92db 893f
000000a0: 9d3a 803f 6959 753f abe0 813f 5189 7e3f
000000b0: c24a 723f e912 983f f261 5d3f ca28 863f
000000c0: 3225 823f a3ce 663f 60bc 1e3e c16e 7c3f
000000d0: 6cc2 7b3f f505 6f3f 6d59 883f b4cd 653f
000000e0: 60bc 1e3e a630 8b3f 60bc 1e3e c7ea 733f
000000f0: 07c6 463f 5c28 813f 60bc 1e3e eab5 603f
00000100: e61c 413f 60bc 1e3e d4c3 913f 2173 213f
00000110: 60bc 1e3e 5148 773f 0be4 6c3f b0db 723f
00000120: 9930 5a3f 418e 6a3f af8f 433f 0ccb 7a3f
00000130: 60bc 1e3e f733 453f c4e7 4e3f 60bc 1e3e
00000140: 7b26 943f 60bc 1e3e 60bc 1e3e 05c3 1e3e
00000150: bd23 693f 6db9 5e3f 76c8 4e3f 7bad 793f
00000160: b2af 583f 60bc 1e3e 80ae ec3e 6303 433f
00000170: 071e 5d3f 60bc 1e3e 60bc 1e3e d70d 7b3f
00000180: 6182 833f 60bc 1e3e 60bc 1e3e 7ae6 9f3f
00000190: 60bc 1e3e 8d07 413e 826b 773f 5ec6 563f
000001a0: c11c 703f 5aa2 663f 7c57 833f 415a 6c3f
000001b0: 8ba8 963f 60bc 1e3e 4358 8f3f 6ac4 7a3f
000001c0: cb81 8a3f 7bd9 593f 60bc 1e3e 0b0b 813f
000001d0: 5a39 6e3f 5d37 453f 1d1e 6e3f cd5a 773f
000001e0: bbff 643f acde 573f 60bc 1e3e 9978 683f
000001f0: 60bc 1e3e 9163 6e3f e9d2 8b3f c24b 7b3f

bn1.bias f4 [128]
0.019814245 -0.012176155 0.06937671 0.074296884 -0.0060964744 0.11054408 -0.0028588113 0.0032810296
0.025424387 0.034719244 -0.009924969 -0.03356921 0.023733381 -0.026298126 0.055955473 0.06720142
-0.013436042 0.03235951 0.026586795 0.009434254 -0.020666402 0.0022417228 0.06410122 0.07769394
0.03891549 0.114576355 0.07826999 0.0051937997 0.00052248803 0.057155773 0.05412744 -0.060924955
0.0123091405 0.095352076 0.0036376268 0.0039745998 0.08972156 -0.05962925 -0.04472568 0.05824305
-0.069460355 0.03725649 0.07545866 0.045019813 0.027824482 0.06002904 -0.088639155 0.020839734
0.0976744 -0.02376308 0.004846677 0.03044819 0.13206485 0.020222483 0.042030014 -0.004015913
-0.03467507 0.005640316 0.031012788 -0.016630221 0.058191694 0.13896878 0.0012515393 -0.027257798
0.016988356 -0.03402122 0.039910592 -0.019056855 0.0021781633 0.07599368 0.02832698 0.10926797
0.03154378 -0.006564322 -0.0025060726 0.07736883 -0.0023083473 -0.014796148 0.0046691312 -0.0023650122
0.017027864 -0.010403245 -0.0021820688 0.004960179 0.029998247 0.026338398 0.0768303 -0.05001788
0.10495819 0.012354984 0.00808729 0.033380065 0.040256415 -0.0051037646 -0.004765195 0.029160123
0.0032320793 -0.017981231 -0.004646357 0.043738164 -0.038743075 0.0002435536 0.015314564 0.047522184
0.046932537 0.09080789 -0.013413048 0.048750713 0.027158193 0.0014521021 0.029825259 0.10476989
-0.085254915 -0.04890806 -0.018815786 0.003069688 0.0028098682 0.09772097 0.07819925 0.0006605737
0.041547973 0.029828664 -0.0043236744 0.09870495 0.0032897028 0.16320653 -0.025379322 0.09778746
00000000: 7c51 a23c 7f7e 47bc 6015 8e3d f728 983d
00000010: efc4 c7bb ef64 e23d e55a 3bbb 8b06 573b
00000020: ce46 d03c c435 0e3d 569c 22bc de7f 09bd
00000030: 826c c23c 2b6f d7bc 9131 653d e6a0 893d
00000040: d822 5cbc 688b 043d 8dcc d93c 2192 1a3c
00000050: 964c a9bc dee9 123b 8047 833d 001e 9f3d
00000060: d965 1f3d 02a7 ea3d 044c a03d c030 aa3b
00000070: 94f7 083a 2c1c 6a3d bcb4 5d3d 728c 79bd
00000080: 47ac 493c f347 c33d 4065 6e3b 5c3d 823b
00000090: f0bf b73d cd3d 74bd 4632 37bd 4490 6e3d
000000a0: 3b41 8ebd 439a 183d 128a 9a3d b266 383d
000000b0: 2bf0 e33c 03e1 753d 7288 b5bd 17b8 aa3c
000000c0: 8409 c83d caaa c2bc e0d0 9e3b 7c6e f93c
000000d0: 023c 073e 9fa9 a53c aa27 2c3d eb97 83bb
000000e0: 7207 0ebd 66d2 b83b 880e fe3c 1a3c 88bc
000000f0: 6a5a 6e3d d54d 0e3e b10a a43a bf4b dfbc
00000100: 2a2b 8b3c d659 0bbd 4a79 233d 1f1d 9cbc
00000110: 84bf 0e3b 93a2 9b3d fc0d e83c e3c7 df3d
00000120: 0d34 013d 8619 d7bb ec3c 24bb 8d73 9e3d
00000130: a447 17bb 8b6b 72bc 83ff 983b 52fe 1abb
00000140: 057e 8b3c 5f72 2abc 0a01 0fbb ff88 a23b
00000150: e2be f53c a0c3 d73c 3459 9d3d 8cdf 4cbd
00000160: 52f4 d63d 8f6c 4a3c 8e80 043c 89b9 083d
00000170: e9e3 243d 7b3d a7bb 5a25 9cbb 36e1 ee3c
00000180: 4bd1 533b 604d 93bc 7840 98bb ca26 333d
00000190: 0fb1 1ebd 6c62 7f39 f0e9 7a3c 9fa6 423d
000001a0: 553c 403d 7df9 b93d 67c2 5bbc d4ae 473d
000001b0: dc7a de3c 7654 be3a 1a54 f43c 9991 d63d
000001c0: 219a aebd d153 48bd 9023 9abc d22c 493b
000001d0: c425 383b ef21 c83d ee26 a03d 5a2a 2d3a
000001e0: 352e 2a3d 3e5b f43c 9cad 8dbb d225 ca3d
000001f0: 0e98 573b 9d1f 273e 4ce8 cfbc cb44 c83d

bn1.running_mean f4 [128]
0.26214787 0.22708271 0.0015095996 0.014069569 0.2352813 0.056058362 6e-45 1.264902e-05
0.068865426 0.019800479 0.2501588 6e-45 0.00013179623 0.009764882 0.34354165 0.00051634957
7.489194e-09 0.27473885 0.18600437 0.042158064 6e-45 0.0 0.0 0.010036998
0.00018504364 0.03820618 0.027813597 1.6199276e-22 0.18222918 0.033505313 0.16318344 6e-45
2.4679055e-05 0.012090209 0.0 0.0 0.0018325566 4.323e-42 0.0 0.022261575
0.13002527 0.0006799052 0.0006020023 0.00015811577 9.697454e-05 0.00924407 0.11756114 3.4827506e-05
0.0031722435 0.25630042 0.0 0.23532157 0.010154468 0.18146577 0.0013809769 0.19798772
2.3389335e-24 0.09033518 0.0 0.24216607 0.20101765 0.0035253405 0.0 0.15514362
0.2525522 0.0 0.009521997 4.015039e-06 0.0 0.015459221 0.23024495 0.26574168
0.00010944441 0.27808395 6.879126e-05 0.031165816 0.0 0.36585 0.16238396 0.0
0.032134682 0.0 0.0 6.8115685e-18 0.21938068 0.24386457 0.31368223 0.20967755
0.20223473 6e-45 1.9444286e-09 0.29102892 6.8951325e-05 0.0 0.0 0.11321687
0.22602516 0.0 0.0 0.0056253034 0.0 6e-45 0.14236477 0.24958585
0.2922026 0.336349 0.10239616 0.21423352 0.0028049396 0.0 0.0009295121 0.00091150764
0.016716668 0.13731138 0.0 1.5565549e-05 2.570588e-06 0.09714727 0.054377325 0.21505585
0.07047564 0.13538565 0.0 0.08387528 0.0 0.0034947535 0.062269326 0.0010021742
00000000: 3f38 863e 5f88 683e c2dd c53a 0d84 663c
00000010: 95ed 703e 749d 653d 0400 0000 2137 5437
00000020: 5109 8d3d 9d34 a23c d014 803e 0400 0000
00000030: c832 0a39 e2fc 1f3c b1e4 af3e a25b 073a
00000040: d3a9 0032 92aa 8c3e ee77 3e3e efad 2c3d
00000050: 0400 0000 0000 0000 0000 0000 3972 243c
00000060: 4608 4239 157e 1c3d 57d9 e33c 55d6 431b
00000070: 499a 3a3e de3c 093d 8f19 273e 0400 0000
00000080: de05 cf37 0316 463c 0000 0000 0000 0000
00000090: 6532 f03a 0d0c 0000 0000 0000 e85d b63c
000000a0: 5825 053e aa3b 323a b1cf 1d3a e1cb 2539
000000b0: cf5e cb38 7174 173c e5c3 f03d c013 1238
000000c0: 6ae5 4f3b cf39 833e 0000 0000 23f8 703e
000000d0: ed5e 263c 2ad2 393e e501 b53a 4bbd 4a3e
000000e0: 5af7 3418 a701 b93d 0000 0000 62fa 773e
000000f0: 92d7 4d3e 6609 673b 0000 0000 f8dd 1e3e
00000100: 864e 813e 0000 0000 2602 1c3c ecb8 8636
00000110: 0000 0000 ac48 7d3c 55c5 6b3e 4b0f 883e
00000120: 8585 e538 0561 8e3e 0744 9038 744f ff3c
00000130: 0000 0000 b150 bb3e fb47 263e 0000 0000
00000140: a89f 033d 0000 0000 0000 0000 724d fb22
00000150: 54a5 603e a2b7 793e f59a a03e b6b5 563e
00000160: 9f16 4f3e 0400 0000 c09e 0531 be01 953e
00000170: f699 9038 0000 0000 0000 0000 3fde e73d
00000180: 2473 673e 0000 0000 0000 0000 7754 b83b
00000190: 0000 0000 0400 0000 12c8 113e 6f93 7f3e
000001a0: 949b 953e f035 ac3e 14b5 d13d 0860 5b3e
000001b0: 14d3 373b 0000 0000 80aa 733a 3ef2 6e3a
000001c0: 65f1 883c 5b9b 0c3e 0000 0000 c392 8237
000001d0: 5e82 2c36 26f5 c63d c2ba 5e3d 9a37 5c3e
000001e0: 8855 903d 89a2 0a3e 0000 0000 cec6 ab3d
000001f0: 0000 0000 3c08 653b 1f0e 7f3d 635b 833a

bn1.running_var f4 [128]
0.010685805 0.004566407 0.00014225018 0.0016033102 0.0069499267 0.0035508377 6e-45 3.7297437e-07
0.0052737757 0.0022902517 0.0062049013 6e-45 6.612212e-06 0.00029976055 0.014293955 2.8262482e-05
5.389311e-11 0.005933492 0.0038212303 0.0018969912 6e-45 6e-45 6e-45 0.0010871631
1.0208446e-05 0.0026945528 0.002263374 7.4904995e-25 0.0032890758 0.0023247427 0.0015596407 6e-45
8.8043737e-07 0.00078342116 6e-45 6e-45 0.00014106488 6.9e-44 6e-45 0.0022623145
0.0007415607 2.7488257e-05 3.18342e-05 9.675454e-06 4.680558e-06 0.0009280604 0.0009800071 1.2480574e-06
0.00018629957 0.01017469 6e-45 0.0050614453 0.000710125 0.008629247 5.536965e-05 0.004861783
1.0849001e-38 0.0009214517 6e-45 0.007417175 0.0046995883 0.0002744744 6e-45 0.001242032
0.009097459 6e-45 0.00053980434 2.1937083e-07 6e-45 0.0011482836 0.008113381 0.01253495
3.0745407e-06 0.004640408 1.1086717e-06 0.0036522963 6e-45 0.015307833 0.0032868064 6e-45
0.0010272176 6e-45 6e-45 6.419168e-22 0.004509519 0.0064304904 0.012094279 0.003893438
0.0061934 6e-45 1.663424e-11 0.011189174 2.7106225e-06 6e-45 6e-45 0.004747801
0.004114956 6e-45 6e-45 0.00022017155 6e-45 6e-45 0.0011483482 0.011354494
0.017993543 0.018400528 0.002989389 0.008938221 0.00018782244 6e-45 4.2426418e-05 2.7166678e-05
0.00052850315 0.00091566885 6e-45 6.7942585e-07 3.616995e-08 0.009774417 0.006140384 0.0047353795
0.0077802246 0.0026416474 6e-45 0.009295917 6e-45 0.00021764755 0.0031380984 8.690567e-05
00000000: 8413 2f3c cca1 953b fe28 1539 2a26 d23a
00000010: 36bc e33b 2cb5 683b 0400 0000 353d c834
00000020: a3cf ac3b 0c18 163b 7c52 cb3b 0400 0000
00000030: 78de dd36 2e29 9d39 3131 6a3c 3815 ed37
00000040: 3f06 6d2e bd6d c23b 9b6d 7a3b 76a4 f83a
00000050: 0400 0000 0400 0000 0400 0000 247f 8e3a
00000060: f144 2b37 1897 303b 1d55 143b dad1 6717
00000070: 898d 573b b65a 183b dc6c cc3a 0400 0000
00000080: 3257 6c35 815e 4d3a 0400 0000 0400 0000
00000090: d1ea 1339 3100 0000 0400 0000 5743 143b
000000a0: 4c65 423a 9596 e637 b685 0538 c253 2237
000000b0: b00d 9d36 1449 733a 9573 803a ed82 a735
000000c0: 6959 4339 beb3 263c 0400 0000 7bda a53b
000000d0: af27 3a3a af61 0d3c b63c 6838 974f 9f3b
000000e0: 9a22 7600 948d 713a 0400 0000 c60b f33b
000000f0: 01ff 993b 55e7 8f39 0400 0000 aecb a23a
00000100: 820d 153c 0400 0000 a881 0d3a 328c 6b34
00000110: 0400 0000 0182 963a fded 043c 645f 4d3c
00000120: 3554 4e36 900e 983b abcd 9435 5d5b 6f3b
00000130: 0400 0000 b5cd 7a3c 7667 573b 0400 0000
00000140: b4a3 863a 0400 0000 0400 0000 e801 421c
00000150: 96c4 933b ddb6 d23b 1527 463c 0d29 7f3b
00000160: 01f2 ca3b 0400 0000 fb50 922d cc52 373c
00000170: 24e8 3536 0400 0000 0400 0000 7193 9b3b
00000180: c1d6 863b 0400 0000 0400 0000 dadd 6639
00000190: 0400 0000 0400 0000 2c84 963a 3308 3a3c
000001a0: 3267 933c b4bc 963c a0e9 433b 9e71 123c
000001b0: 34f2 4439 0400 0000 05f3 3138 ffe3 e337
000001c0: 3f8b 0a3a 7f09 703a 0400 0000 ca61 3635
000001d0: 4859 1b33 e024 203c 4635 c93b 3e2b 9b3b
000001e0: 41f1 fe3b 7d1f 2d3b 0400 0000 e74d 183c
000001f0: 0400 0000 5238 6439 8ea8 4d3b 2041 b638

conv2.weight f4 [128, 128, 3]
0.037135124 -0.06278678 -0.039148886 -0.01504227 -0.02677454 0.003400797 0.046658564 0.06415752
-0.07686829 0.05625943 -0.049323376 0.14689054 0.042674415 -0.041210376 0.044049125 0.02693565
-0.015126863 0.0722981 0.0082738595 0.0006247423 0.00093902915 0.011952756 -0.072649784 0.007881036
-0.09538512 0.008093278 -0.06724958 0.024841951 0.041032728 0.03210697 0.0035430733 -0.05517367
0.10399077 0.02887628 0.031726643 0.03465293 -0.041213237 -0.029725498 0.0513514 0.047817707
-0.01579931 0.05539653 -0.028147185 -0.018591087 0.02160875 -0.0012094419 -0.034171347 0.019250652
-0.017727531 0.0010575671 -0.055036187 -0.0973506 -0.083810106 -0.022082819 -0.051052444 -0.0096598
-0.0571905 -0.029860841 -0.013922103 -0.023904035 0.022002356 0.030918298 0.03664741 0.010453609
0.044471987 0.044533934 -0.04418697 -0.044166066 -0.025256306 -0.004100712 -0.041347153 0.09789676
0.16569299 -0.08949791 -0.049949545 -0.06597037 -0.020065753 0.003881921 0.033342797 0.04223583
-0.027042 -0.0017909039 0.0038639184 0.0041562407 0.0035566355 -0.061437774 0.07609166 -0.04865529
-0.042638022 0.006465663 -0.09253625 -0.053053048 0.022175837 0.018218694 0.020100482 0.03338706
0.07850816 0.058423188 0.001156423 -0.12557544 -0.03622653 0.0044501573 -0.015872806 -0.025247665
-0.024981368 -0.014742672 -0.021800984 -0.02075771 -0.057140842 0.022884788 -0.09649547 0.025849711
0.036978107 0.024322009 0.030692415 0.03535233 0.021156494 -0.04874549 -0.028959703 0.0026000086
0.02965137 -0.033026896 0.023332506 0.035737947 0.057243746 -0.0014603862 -0.03590421 -0.006787318
0.043541662 0.049181357 0.057039175 -0.035431556 -0.07061691 -0.06468664 0.06850345 0.019197661
-0.043196928 0.0036051727 0.025365204 -0.048644364 0.08121959 -0.09936993 -0.007926129 0.08034593
-0.004622321 -0.0016106141 0.01625309 0.07078554 -0.0660259 -0.0068424977 0.0033246696 0.030268922
0.030329717 0.0069645396 0.030972145 0.056755137 0.04868657 -0.0006485762 0.017002987 0.02688882
0.01758278 0.091623105 -0.14167939 -0.0046509937 0.040803958 -0.063568376 -0.08079324 -0.008284351
0.043625098 0.033179212 0.022361852 0.035248455 -0.0072714225 0.08028223 -0.040057722 -0.03127521
-0.042202566 -0.0055032475 -0.001882541 0.038202405 0.0031682758 0.04343151 0.03196756 0.061033823
0.07011854 0.06127265 -0.012953523 -0.022642767 -0.022513367 -0.0070286477 -0.043969024 -0.06704394
0.036590904 -0.062346492 0.017040838 0.034542188 0.018652981 0.034404274 -0.111399055 0.050800428
0.038359214 0.0009999097 0.071796134 0.03909518 -0.012024277 -0.01160753 -0.009920028 -0.05909001
0.0021037918 -0.064144984 0.046850104 0.0073372843 -0.061603706 -0.0093635935 0.0067564286 -0.068566374
-0.05842053 0.031605486 -0.023004059 -0.09244861 -0.08915428 0.034619264 0.031629786 0.053791653
-0.0145689985 -0.020903634 0.057265747 0.066958 0.018912632 0.014103365 0.0151843075 0.036904436
-0.013119146 -0.02776833 0.0803677 -0.075082846 -0.054139696 0.015438862 0.010400934 0.010622887
0.012109908 -0.107371345 0.09991444 0.004066098 0.00084836554 0.000841401 0.0116665 0.014827766
0.009427605 -0.016802944 -0.02963986 -0.030148612 -0.12047684 0.02580193 0.0039764317 -0.061217155
00000000: 001b 183d 5b96 80bd 955a 20bd da73 76bc
00000010: 4856 dbbc e8df 5e3b 0d1d 3f3d 0565 833d
00000020: 1f6d 9dbd 4a70 663d 4f07 4abd 796a 163e
00000030: 5ecb 2e3d 36cc 28bd db6c 343d 27a8 dc3c
00000040: a9d6 77bc 0711 943d 158f 073c bfc5 233a
00000050: 2e29 763a 7ed5 433c 69c9 94bd 761f 013c
00000060: 4659 c3bd ab99 043c 26ba 89bd 5981 cb3c
00000070: ef11 283d 9982 033d e832 683b c9fd 61bd
00000080: 1df9 d43d f38d ec3c ccf3 013d 3bf0 0d3d
00000090: 36cf 28bd e382 f3bc d855 523d 80dc 433d
000000a0: 8e6d 81bc 79e7 623d ed94 e6bc 564c 98bc
000000b0: d504 b13c 2386 9eba 41f7 0bbd 8bb3 9d3c
000000c0: 5439 91bc 109e 8a3a a06d 61bd c05f c7bd
000000d0: a2a4 abbd 07e7 b4bc 5e1c 51bd 2344 1ebc
000000e0: 9640 6abd b99e f4bc 8819 64bc 65d2 c3bc
000000f0: 493e b43c 5f48 fd3c 981b 163d 9d45 2b3c
00000100: 4228 363d 3769 363d 65fd 34bd 7ae7 34bd
00000110: 50e6 cebc 445f 86bb a25b 29bd 197e c83d
00000120: 6cab 293e ae4a b7bd e597 4cbd 791b 87bd
00000130: ef60 a4bc d467 7e3b 7592 083d 7aff 2c3d
00000140: 2f87 ddbc c3bc eaba cb39 7d3b 1331 883b
00000150: 7116 693b 2da6 7bbd f2d5 9b3d c54a 47bd
00000160: 35a5 2ebd eadd d33b a583 bdbd 274e 59bd
00000170: 1aaa b53c 5f3f 953c c4a9 a43c dfc0 083d
00000180: e3c8 a03d 274d 6f3d 1e93 973a d996 00be
00000190: 4562 14bd a0d2 913b b007 82bc 31d4 cebc
000001a0: baa5 ccbc 408b 71bc fa97 b2bc 130c aabc
000001b0: 840c 6abd e178 bb3c 6b9f c5bd c6c2 d33c
000001c0: 5b76 173d f33e c73c a96e fb3c 9bcd 103d
000001d0: 6250 ad3c 5aa9 47bd e63c edbc e864 2a3b
000001e0: 6ee7 f23c 3647 07bd d023 bf3c f461 123d
000001f0: 6b78 6a3d 6e6a bfba 4b10 13bd 2668 debb
00000200: be58 323d 6472 493d e9a1 693d ae20 11bd
00000210: 999f 90bd 6e7a 84bd 894b 8c3d 6a44 9d3c
00000220: 43ef 30bd c344 6c3b b0ca cf3c 503f 47bd
00000230: 7556 a63d 7682 cbbd 98dc 01bc 688c a43d
00000240: d776 97bb 3e1b d3ba 3325 853c 02f8 903d
00000250: 9638 87bd 0837 e0bb b3e2 593b 88f6 f73c
00000260: 0776 f83c cb36 e43b 4cb9 fd3c 1378 683d
00000270: 926b 473d 3605 2aba d949 8b3c f145 dc3c
00000280: c309 903c e5a4 bb3d 6714 11be 5d67 98bb
00000290: 0d22 273d 2330 82bd ed76 a5bd 16bb 07bc
000002a0: 3bb0 323d ede6 073d 3430 b73c af60 103d
000002b0: 1d45 eebb 036b a43d 9113 24bd 6f1a 00bd
000002c0: 99dc 2cbd 9654 b4bb 98bf f6ba 207a 1c3d
000002d0: d9a2 4f3b 3de5 313d 6bf0 023d 9afe 793d
000002e0: 4f9a 8f3d 08f9 7a3d 033b 54bc 537d b9bc
000002f0: f46d b8bc 9250 e6bb dd18 34bd 554e 89bd
00000300: 58e0 153d 095f 7fbd 3a99 8b3c 1c7c 0d3d
00000310: 23ce 983c 7feb 0c3d 3025 e4bd 1c14 503d
00000320: 8d1e 1d3d 670f 833a da09 933d 4422 203d
00000330: 7901 45bc 822d 3ebc 9d87 22bc 5e08 72bd
00000340: c5df 093b 725e 83bd e5e5 3f3d 9a6d f03b
00000350: 2b54 7cbd c269 19bc 0865 dd3b 876c 8cbd
00000360: 5e4a 6fbd c174 013d 0273 bcbc b255 bdbd
00000370: 8596 b6bd eecc 0d3d 3c8e 013d a354 5c3d
00000380: cfb2 6ebc 193e abbc 7d8f 6a3d 4721 893d
00000390: aaee 9a3c cd11 673c 9ac7 783c 1b29 173d
000003a0: b0f1 56bc 697a e3bc d297 a43d 09c5 99bd
000003b0: 96c1 5dbd 48f3 7c3c ae68 2a3c 9e0b 2e3c
000003c0: a368 463c 82e5 dbbd f19f cc3d e73c 853b
000003d0: d964 5e3a 7791 5c3a d924 3f3c 29f0 723c
000003e0: 3e76 1a3c 54a6 89bc 4bcf f2bc 39fa f6bc
000003f0: 90bc f6bd 925e d33c ba4c 823b d7be 7abd

conv2.bias f4 [128]
-0.007015442 -0.039766576 -0.074665256 -0.08249774 -0.0024166834 0.014570832 -0.042764682 -0.0148977
-0.055892218 0.040122073 -0.116300054 -0.037661377 -0.014732645 -0.012608642 0.015559762 -0.07804367
0.014135117 -0.01747668 0.050773036 -0.07201762 -0.054936755 0.11768898 -0.0910673 0.0047472706
0.014203108 0.01597593 -0.05366254 -0.0132772075 -0.06615335 -0.0801745 0.028880604 -0.08195502
-0.011265736 -0.029418893 -0.09144423 -0.15198478 -0.03992825 0.000112304464 -0.007113592 0.057447504
-0.0019190216 -0.030478762 0.009585369 0.05245562 0.019478438 -0.0029723977 -0.048663337 -0.055954862
0.023958787 -0.07251149 -0.076090924 -0.019175667 -0.046436276 0.00873527 -0.027968846 -0.03857357
-0.015053019 -0.09800746 -0.05850665 -0.010763464 -0.007598137 -0.07708356 -0.11310892 -0.045225535
-0.12946825 -0.02709409 -0.12056682 -0.059869006 0.08315423 -0.10913783 -0.02195185 -0.054774404
-0.0269566 -0.035030458 -0.10241415 -0.032925583 -0.03581411 0.0048301173 0.011659134 0.018263334
0.032713793 -0.07966096 -0.005462249 0.039883804 -0.069010295 -0.11272436 -0.11983185 -0.057875473
-0.064334996 -0.08816571 0.01280144 -0.0155742895 0.026557937 -0.0366905 0.0008444749 0.042141784
-0.04680041 -0.045900114 0.0031064495 0.043882497 -0.08490612 -0.08638836 -0.027151942 -0.11865528
-0.039246723 -0.08253978 -0.08236148 -0.09212938 -0.0040512187 -0.049860876 -0.04153307 -0.07466138
0.014899145 -0.0042888992 -0.027749121 -0.016756177 -0.102954924 -0.022458162 -0.05766548 -0.04234266
-0.005854053 -0.008871945 0.0085048955 -0.04197568 -0.06040871 -0.09779753 -0.040827766 -0.04675064
00000000: cbe1 e5bb 47e2 22bd 19ea 98bd 93f4 a8bd
00000010: 3861 1ebb 80ba 6e3c 052a 2fbd 7c15 74bc
00000020: 3def 64bd 0b57 243d b92e eebd d142 1abd
00000030: 3161 71bc 7a94 4ebc 5fee 7e3c 5cd5 9fbd
00000040: fa96 673c 412b 8fbc 63f7 4f3d f97d 93bd
00000050: 5d05 61bd ec06 f13d 7e81 babd fe8e 9b3b
00000060: 27b4 683c f4df 823c 40cd 5bbd a588 59bc
00000070: 687b 87bd 8732 a4bd 0497 ec3c 09d8 a7bd
00000080: ec93 38bc e4ff f0bc 1d47 bbbd e6a1 1bbe
00000090: ce8b 23bd 0085 eb38 2219 e9bb 134e 6b3d
000000a0: ae87 fbba 99ae f9bc f40b 1d3c b4db 563d
000000b0: 3f91 9f3c 8fcc 42bb 3553 47bd ed30 65bd
000000c0: 3845 c43c e780 94bd 8fd5 9bbd 4a16 9dbc
000000d0: f733 3ebd 611e 0f3c ec1e e5bc 52ff 1dbd
000000e0: f0a0 76bc 23b8 c8bd aba4 6fbd 3d59 30bc
000000f0: cbf9 f8bb fcdd 9dbd a6a5 e7bd 693e 39bd
00000100: 5393 04be 6df4 ddbc bdeb f6bd 3439 75bd
00000110: c44c aa3d a883 dfbd 5ed4 b3bc 205b 60bd
00000120: 16d4 dcbc 197c 0fbd 83be d1bd fadc 06bd
00000130: d1b1 12bd f645 9e3b f405 3f3c fd9c 953c
00000140: e6fe 053d 4925 a3bd aafc b2bb 335d 233d
00000150: 4555 8dbd 07dc e6bd 676a f5bd d50e 6dbd
00000160: 11c2 83bd 3990 b4bd 22bd 513c 4e2b 7fbc
00000170: 0890 d93c c748 16bd c05f 5d3a dd9c 2c3d
00000180: c9b1 3fbd c201 3cbd 9395 4b3b 22be 333d
00000190: 43e3 adbd 61ec b0bd c06d debc 8a01 f3bd
000001a0: 2cc1 20bd 9e0a a9bd 23ad a8bd 54ae bcbd
000001b0: 16c0 84bb eb3a 4cbd 951e 2abd 11e8 98bd
000001c0: 8b1b 743c e589 8cbb 2052 e3bc 4044 89bc
000001d0: 08da d2bd 2efa b7bc a332 6cbd 7f6f 2dbd
000001e0: 5bd3 bfbb a25b 11bc 1e58 0b3c b1ee 2bbd
000001f0: 206f 77bd 124a c8bd 043b 27bd 997d 3fbd

bn2.weight f4 [128]
1.0096548 0.9900994 1.0083437 0.9657082 0.9042822 0.90046734 0.95376444 1.0572977
1.0118934 0.8680075 1.1015352 0.90459174 0.9890843 1.0378718 0.9353339 0.9844431
1.0046611 1.032941 0.9904648 0.86485475 1.0080056 0.8043231 1.0389557 1.0095937
0.8615798 0.9620231 1.03847 0.9915212 1.022509 1.1041263 0.99366945 1.0176326
1.0141412 0.9792395 0.96580833 1.0105445 1.0421009 1.1707655 0.9734411 0.9491418
0.9681073 0.94981265 0.974377 0.9107045 1.0583845 0.9587984 1.01795 1.1726851
0.9220841 1.0091739 0.8815036 0.9386045 0.92892426 1.0156095 0.8569663 0.8875207
0.9871996 0.97015536 0.9818992 1.0339305 1.0243578 0.9116962 1.0342422 0.95043606
1.0187442 0.98719895 1.0149376 0.97715324 0.9680849 1.0542353 1.0494525 1.0691762
1.0881381 1.1319611 0.9574709 0.9914401 0.9937697 0.9575013 1.0710616 1.0236112
1.00729 0.9616407 1.0315537 0.90680313 0.9506685 0.8793119 0.9444987 0.9685755
1.056423 0.94983554 0.9290258 1.1319318 1.0500648 0.9509049 0.9711518 0.92397124
0.9643034 0.9408448 0.8952878 1.0232441 0.9101376 1.0136092 0.8978898 1.0373262
1.0616218 1.0676267 1.0491582 1.0167798 0.9888504 0.8810625 0.9528901 0.9072042
0.9987265 0.99324816 0.9911454 0.9610604 1.056813 0.94196934 1.0240426 1.0297513
1.1186773 1.0058517 0.92364424 1.0430909 1.0098461 0.8880989 1.0865957 1.0080118
00000000: 5e3c 813f 2777 7d3f 6811 813f a738 773f
00000010: 0a7f 673f 0785 663f e829 743f 8855 873f
00000020: b985 813f bd35 5e3f 1bff 8c3f 5393 673f
00000030: a134 7d3f fcd8 843f 0b72 6f3f 7704 7c3f
00000040: bc98 803f 6937 843f 1a8f 7d3f 1f67 5d3f
00000050: 5406 813f 1ee8 4d3f 80fc 843f 5e3a 813f
00000060: 7e90 5c3f 2547 763f 96ec 843f 55d4 7d3f
00000070: 93e1 823f 0354 8d3f 1f61 7e3f c941 823f
00000080: 61cf 813f 71af 7a3f 373f 773f 8659 813f
00000090: 9063 853f a5db 953f 7033 793f f5fa 723f
000000a0: e1d5 773f ec26 733f c570 793f ee23 693f
000000b0: 2579 873f d073 753f 304c 823f 8c1a 963f
000000c0: b40d 6c3f 9c2c 813f 38aa 613f 6248 703f
000000d0: fbcd 6d3f 7eff 813f 2562 5b3f 8e34 633f
000000e0: 1db9 7c3f 1a5c 783f bf5d 7b3f d657 843f
000000f0: 281e 833f ec64 693f 0c62 843f c74f 733f
00000100: 3666 823f 12b9 7c3f 7ae9 813f b726 7a3f
00000110: 69d4 773f 2ff1 863f 7654 863f c4da 883f
00000120: 1c48 8b3f 1ae4 903f d01c 753f 05cf 7d3f
00000130: b167 7e3f ce1e 753f 8c18 893f b105 833f
00000140: e1ee 803f 162e 763f f409 843f 4024 683f
00000150: 035f 733f 961a 613f abca 713f 90f4 773f
00000160: de38 873f 6c28 733f a3d4 6d3f 24e3 903f
00000170: 8668 863f 816e 733f 689d 783f 6189 6c3f
00000180: 96dc 763f 34db 703f 9531 653f aaf9 823f
00000190: c7fe 683f f2bd 813f 1bdc 653f 1bc7 843f
000001a0: 39e3 873f fea7 883f d14a 863f d725 823f
000001b0: 4d25 7d3f 508d 613f 9bf0 733f 893e 683f
000001c0: 8aac 7f3f 8345 7e3f b4bb 7d3f 0e08 763f
000001d0: a645 873f e724 713f d413 833f e4ce 833f
000001e0: d130 8f3f c0bf 803f f373 6c3f 0184 853f
000001f0: a342 813f 735a 633f 9115 8b3f 8806 813f

bn2.bias f4 [128]
-0.05914965 -0.011149364 -0.0075745215 -4.7371228e-05 -0.03117915 -0.04554212 -0.031239534 -0.052919213
-0.027252564 -0.023333177 -0.00450136 0.03267583 0.0143514285 -0.035930965 -0.0868613 -0.039508466
-0.012565066 0.03482384 -0.04186782 -0.008379189 0.034125257 -0.076596014 -0.033943146 0.0120413685
-0.07281462 -0.013588715 -0.04256205 0.0011426159 0.055917345 0.015589167 -0.037195448 -0.04711923
0.0024413802 -0.058908854 0.0080031 0.076445654 0.084444955 0.018867858 6.7821875e-06 -0.02664537
0.04009237 -0.034131665 -0.030277723 -0.007837293 -0.019745043 -0.015335585 -0.023929155 0.05673879
-0.03362882 -0.017183058 -0.0016086411 0.048854254 -0.03574919 0.03391478 -0.07727018 -0.08619463
-0.058872964 0.04407491 -0.0024228082 -0.010555486 0.025067342 -0.029809901 -0.0072500766 0.027643658
0.08998581 -0.0070722336 -0.06527325 -0.0151555175 -0.017130122 0.03009743 -0.015631361 0.002772951
0.008045273 0.03558001 -0.010228874 0.0033673386 0.021438193 0.0052049286 -0.051795628 0.014777755
-0.021548523 -0.019209193 0.00367721 -0.0021193526 0.022766976 0.01592037 -0.006675989 0.0025709497
0.025139268 -0.06096928 -0.068986155 -0.05832743 -0.023049135 -0.009603521 -0.012124971 -0.031274244
-0.0013234043 0.0046539665 0.061527558 0.007887136 -0.0354414 -0.01951095 -0.01703065 0.082587406
-0.0041190595 0.015967984 0.031255573 0.007759237 -0.040453408 0.069127865 -0.022252968 -0.006611061
-0.044367723 0.02019866 -0.013586283 -0.017838819 -0.076926425 -0.05766702 0.025129566 -0.0068105566
-0.016372621 -0.04722115 0.014496792 -0.037019745 -0.017651653 0.015028852 -0.039573222 0.025183976
00000000: e746 72bd d2ab 36bc b133 f8bb 78b0 46b8
00000010: 6b6b ffbc 608a 3abd 0dea ffbc d1c1 58bd
00000020: c540 dfbc 3825 bfbc 2580 93bb 17d7 053d
00000030: 4122 6b3c 592c 13bd 56e4 b1bd a1d3 21bd
00000040: b5dd 4dbc 71a3 0e3d 977d 2bbd de48 09bc
00000050: edc6 0b3d 5fde 9cbd f807 0bbd 2949 453c
00000060: d51f 95bd 34a3 5ebc 8b55 2ebd d4c3 953a
00000070: 9609 653d b569 7f3c 415a 18bd 1800 41bd
00000080: 90ff 1f3b 694a 71bd 6f1f 033c 8a8f 9c3d
00000090: 7af1 ac3d c490 9a3c 8c92 e336 6447 dabc
000000a0: e637 243d a5cd 0bbd fd08 f8bc fd67 00bc
000000b0: 5bc0 a1bc 1b42 7bbc 1307 c4bc ef66 683d
000000c0: 60be 09bd 7cc3 8cbc 0ad9 d2ba 661b 483d
000000d0: be6d 12bd 39ea 0a3d d43f 9ebd cf86 b0bd
000000e0: c724 71bd e587 343d fac7 1ebb ebf0 2cbc
000000f0: 075a cd3c e533 f4bc 0d92 edbb f474 e23c
00000100: 7b4a b83d 32be e7bb fbad 85bd d94e 78bc
00000110: 7854 8cbc e38e f63c 570d 80bc 66ba 353b
00000120: 52d0 033c 58bc 113d 0297 27bc 91ae 5c3b
00000130: 269f af3c 1b8e aa3b a727 54bd 661e 723c
00000140: 8786 b0bc 995c 9dbc 59fd 703b d6e4 0abb
00000150: cf81 ba3c 706b 823c 41c2 dabb 617d 283b
00000160: def0 cd3c ecba 79bd 9d48 8dbd bee8 6ebd
00000170: 8ad1 bcbc 1658 1dbc d0a7 46bc 6c19 00bd
00000180: 1476 adba 4d80 983b 5204 7c3d 0c39 013c
00000190: 002b 11bd 6ed5 9fbc dd83 8bbc 9623 a93d
000001a0: 2df9 86bb 4acf 823c d805 003d 3341 fe3b
000001b0: 79b2 25bd e992 8d3d db4b b6bc 99a1 d8bb
000001c0: eeba 35bd a977 a53c 0099 5ebc b722 92bc
000001d0: 9a8b 9dbd 4134 6cbd 85dc cd3c 172b dfbb
000001e0: e01f 86bc f76a 41bd f483 6d3c 04a2 17bd
000001f0: 339a 90bc 933b 763c 8817 22bd a04e ce3c

bn2.running_mean f4 [128]
0.2150108 0.14753951 0.11260818 0.23991802 0.34040704 0.7750451 0.01949232 0.06815746
0.05772852 0.14390689 0.09513996 0.1297428 0.6932128 0.24383293 0.22378145 0.010674661
0.14566784 0.030111458 0.4586564 0.14763553 0.101113245 0.7098036 0.10402994 0.14812782
0.81449455 0.44902655 0.15084705 0.076878615 0.020379541 0.092038706 0.33884153 0.12300955
0.1513741 0.193832 0.4689362 0.08199071 0.040016703 0.11801681 0.59331375 0.7423943
0.07341331 0.8199485 0.38865593 0.42758778 0.19460095 0.29558825 0.02678673 0.034884144
0.59587604 0.03572275 0.43683833 0.2586388 0.56205714 0.10781461 0.4658559 1.0778145
0.25525254 0.036143158 0.12671757 0.17022729 0.10005531 0.7204909 0.20419891 0.7019081
0.050446067 1.4086512 0.15031981 0.5257644 0.9441954 0.35942972 0.2094102 0.1269624
0.038450513 0.18252842 0.41961068 0.065428235 0.21762088 0.49275678 0.271171 0.09726918
0.29843408 0.114072815 0.19439751 0.4708531 0.19979805 0.19768506 0.28626987 0.2201673
0.12732723 0.18890092 0.8418483 0.28329927 0.44937724 0.4785662 0.25172147 0.9361517
0.42782405 0.31981656 0.34745854 0.30062622 0.22992808 0.113102406 0.4361514 0.05412006
0.18386135 0.11590494 0.18043952 0.19489488 0.18673599 0.43088597 0.47818843 0.33247563
0.22032735 0.07011988 0.38850942 0.40393326 0.13661085 0.2946595 0.2333668 0.33901113
0.32076308 0.54128087 0.51737505 0.10362046 0.5186326 0.17072411 0.051203337 0.12807158
00000000: cb2b 5c3e 9914 173e 1e9f e63d 12ad 753e
00000010: d549 ae3e 5b69 463f 5cae 9f3c 2396 8b3d
00000020: be74 6c3d 545c 133e bdd8 c23d 4cdb 043e
00000030: 6576 313f 57af 793e f726 653e c6e4 2e3c
00000040: f329 153e 4eac f63c 03d5 ea3e c52d 173e
00000050: 7614 cf3d b0b5 353f a60d d53d d2ae 173e
00000060: b782 503f cfe6 e53e a677 1a3e 8972 9d3d
00000070: fff2 a63c ca7e bc3d a37c ad3e 6eec fb3d
00000080: d001 1b3e e57b 463e 6818 f03e bfea a73d
00000090: 8ee8 233d ccb2 f13d 69e3 173f 8e0d 3e3f
000000a0: b859 963d 25e8 513f e9fd c63e c9ec da3e
000000b0: 7945 473e 5857 973e d86f db3c ade2 0e3d
000000c0: 558b 183f 0552 123d 46a9 df3e 4e6c 843e
000000d0: fae2 0f3f e8cd dc3d aa84 ee3e d3f5 893f
000000e0: 76b0 823e d90a 143d 40c2 013e 1050 2e3e
000000f0: cce9 cc3d 1772 383f 8519 513e 40b0 333f
00000100: 89a0 4e3d af4e b43f 70ed 193e 7f98 063f
00000110: cab6 713f 2c07 b83e a16f 563e 6e02 023e
00000120: 497e 1d3d bbe8 3a3e 36d7 d63e 3dff 853d
00000130: 02d8 5e3e 9e4a fc3e edd6 8a3e 1035 c73d
00000140: 5acc 983e 029f e93d 2410 473e a813 f13e
00000150: dc97 4c3e f46d 4a3e f791 923e 8973 613e
00000160: 1262 023e 3e6f 413e 5f83 573f 9a0c 913e
00000170: c614 e63e a106 f53e a3e1 803e a3a7 6f3f
00000180: c10b db3e ffbe a33e 16e6 b13e aeeb 993e
00000190: 4472 6b3e 3ca2 e73d 3c4f df3e ffac 5d3d
000001a0: 2646 3c3e 925f ed3d 23c5 383e 8692 473e
000001b0: b837 3f3e 169d dc3e 1dd5 f43e 3f3a aa3e
000001c0: 7e9d 613e 039b 8f3d b5ea c63e 57d0 ce3e
000001d0: b7e3 0b3e 9cdd 963e b5f7 6e3e de92 ad3e
000001e0: 0f3b a43e 6291 0a3f b172 043f f736 d43d
000001f0: 1bc5 043f 4dd2 2e3e 97ba 513d 3225 033e

bn2.running_var f4 [128]
0.40006205 0.14317401 0.09316724 0.21789847 0.46610513 0.73286027 0.01379154 0.044276264
0.035454087 0.16604143 0.06722561 0.14913818 1.0807024 0.21477248 0.16453971 0.010132462
0.11708019 0.034097098 0.5854613 0.25350454 0.12543893 1.014226 0.090439096 0.14196783
1.1752173 0.59294915 0.24368404 0.06479558 0.019556934 0.09607513 0.43920037 0.18227737
0.14669444 0.15428223 0.6049261 0.10598295 0.0393014 0.117798895 0.8000834 0.8900842
0.062021215 1.068801 0.3770236 0.5224322 0.21507408 0.37828666 0.017079866 0.026948245
0.89046127 0.029550152 0.85927606 0.30975044 1.1955127 0.09035535 0.68496114 2.1571836
0.28789347 0.03892723 0.07770906 0.15019198 0.09525082 1.3460993 0.28992188 1.010948
0.06012767 1.0726849 0.12740773 0.68124384 1.3171148 0.5731504 0.22087818 0.11438744
0.022573821 0.1706779 0.80883515 0.095380746 0.2756751 0.63444334 0.24878934 0.1104292
0.4132451 0.24592768 0.18858175 0.63242817 0.2717374 0.46054107 0.42438284 0.2509963
0.13971207 0.22563063 1.2976081 0.3056149 0.50614345 0.55625063 0.24380895 1.1950883
0.6080764 0.48455524 0.5224268 0.30846873 0.2346501 0.08746022 0.48885757 0.093784325
0.19196351 0.13820828 0.20315205 0.31075507 0.19451971 0.634142 0.6510381 0.47153473
0.31270948 0.03997298 0.39470607 0.8096194 0.13956957 0.28500292 0.23734221 0.37250838
0.4306057 0.68470925 0.94370276 0.073405705 0.41764084 0.5934216 0.03638934 0.24906504
00000000: efd4 cc3e 359c 123e 77ce be3d c720 5f3e
00000010: 55a5 ee3e bb9c 3b3f e9f5 613c 075b 353d
00000020: 4e38 113d c406 2a3e 95ad 893d aeb7 183e
00000030: 7554 8a3f 51ed 5b3e 197d 283e a002 263c
00000040: bdc7 ef3d 66a9 0b3d cbe0 153f 59cb 813e
00000050: 1073 003e 28d2 813f 2238 b93d 0460 113e
00000060: 856d 963f 84cb 173f 4f88 793e 8cb3 843d
00000070: dd35 a03c 0ac3 c43d dfde e03e eba6 3a3e
00000080: 1137 163e 29fc 1d3e 70dc 1a3f 970d d93d
00000090: 81fa 203d 8c40 f13d 44d2 4c3f 8fdc 633f
000000a0: f509 7e3d 79ce 883f 3d09 c13e 1ebe 053f
000000b0: 613c 5c3e caae c13e 13eb 8b3c 91c2 dc3c
000000c0: 45f5 633f 2913 f23c 84f9 5b3f 9c97 9e3e
000000d0: 8f06 993f 3a0c b93d 9d59 2f3f 4c0f 0a40
000000e0: c666 933e 2972 1f3d ed25 9f3d edcb 193e
000000f0: dd12 c33d fb4c ac3f a470 943e be66 813f
00000100: 6f48 763d bd4d 893f 2c77 023e ff65 2e3f
00000110: 3897 a83f fcb9 123f e42d 623e f643 ea3d
00000120: bcec b83c 30c6 2e3e d20f 4f3f fb56 c33d
00000130: 4925 8d3e e16a 223f a2c2 7e3e b428 e23d
00000140: dd94 d33e 77d4 7b3e 931b 413e d0e6 213f
00000150: 2a21 8b3e 0acc eb3e b548 d93e 9682 803e
00000160: ae10 0f3e b70b 673e 0618 a63f 8e79 9c3e
00000170: 9e92 013f 7166 0e3f 0ea9 793e a7f8 983f
00000180: e5aa 1b3f a017 f83e c3bd 053f 9def 9d3e
00000190: 1e48 703e 581e b33d 8a4b fa3e ff11 c03d
000001a0: 1592 443e 7986 0d3e 1707 503e 4a1b 9f3e
000001b0: 2d30 473e 2157 223f 6faa 263f 006d f13e
000001c0: 751b a03e b5ba 233d ea16 ca3e 3843 4f3f
000001d0: 53eb 0e3e e7eb 913e d609 733e 6bb9 be3e
000001e0: 5a78 dc3e 1b49 2f3f 8196 713f bb55 963d
000001f0: 05d5 d53e 7aea 173f fd0c 153d e80a 7f3e

conv3.weight f4 [64, 128, 3]
0.0147460755 0.042727467 -0.05699876 -0.0104448525 0.014810249 -0.13168642 0.11089295 -0.09880016
0.022806952 -0.072492585 -0.05946562 -0.009337636 0.14257373 -0.0450816 -0.0034489378 -0.09018385
-0.03536164 -0.0079302285 0.08218968 -0.0026331134 -0.03327439 0.016850777 -0.09779825 -0.013655371
0.094282776 -0.035329714 -0.05101241 -0.05218924 -0.036796574 -0.06716178 0.0131142 -0.07445985
-0.04619115 0.026130546 -0.0542166 -0.035699207 -0.01206665 -0.085138865 -0.026617315 -0.04757636
-0.12689851 -0.04909635 -0.013933794 -0.00512283 -0.098896496 0.01221332 0.024240322 0.1411198
0.06749289 -0.033214748 -0.08428969 -0.09184892 0.041183323 -0.024858583 0.050763745 0.010390151
0.016420944 0.02236062 0.024889333 -0.009445364 -0.04416872 0.0007031489 0.07295198 -0.042795688
-0.07966944 0.06393847 0.022584677 -0.076078996 -0.016539082 -0.025137922 -0.06449208 0.0026279876
-0.0039062905 -0.019307151 -0.019414896 -0.034581617 -0.025318902 -0.07188959 0.0038774242 -0.02192773
-0.050508883 0.117535524 -0.034083847 0.0643664 -0.030885722 -0.039468933 0.120277874 0.038475804
-0.006987749 -0.06619265 -0.0002563523 -0.03069214 -0.01805427 -0.0058133276 -0.03398915 0.017423676
0.07936431 -0.074340545 -0.020243295 0.009282335 -0.02573451 -0.07381717 -0.046672124 -0.03744715
-0.025370432 -0.050473783 -0.027102789 -0.021178635 -0.09442221 -0.025716655 0.012562341 0.0070138103
0.044814296 0.03945812 0.07193778 0.017619196 0.012421589 -0.0024252129 -0.0124042705 -0.013553824
0.10260276 -0.013763135 0.008742178 0.0452705 0.0050339745 -0.0361624 0.053981647 0.009922672
0.004851235 0.0064739906 -0.06382655 -0.036139756 -0.042392693 0.033847358 -0.0049529057 -0.030714337
0.021157837 -0.074152045 0.08186731 0.04291781 -0.030655928 -0.03710263 0.02765291 0.10850154
-0.049062084 -0.033070695 0.003651942 0.022657344 0.03667943 0.059778985 0.026966717 0.0015144409
-0.034991246 -0.05829494 -0.027081603 0.012278653 0.080291845 0.078521736 -0.017817484 0.062499117
0.042649426 -0.0016252644 0.013283562 -0.057695806 0.013440734 0.0041539934 0.0725959 -0.022584785
-0.11733849 -0.010145553 0.005736476 -0.06560786 -0.033259317 0.018523183 -0.03903334 -0.00036583137
-0.02087854 -0.021870108 -0.023947863 0.040155787 0.049300775 0.036954194 0.04340867 -0.033024557
0.08719238 0.03516425 0.0239413 0.018033108 -0.01617341 0.050657872 -0.032572176 0.09068234
0.008199533 -0.0636242 0.051424272 -0.01412304 -0.045901444 0.10674151 0.06419172 0.062410295
-0.04695901 -0.054011974 -0.048685838 -0.011499811 -0.04226816 -0.03037184 0.016465027 -0.053020805
0.027343195 -0.021201458 -0.0138168335 0.044401314 -0.11641638 0.028314304 -0.09442385 -0.05607075
0.025003314 0.05595762 -0.11272302 0.015116544 -0.018857675 0.126667 0.025454838 0.05850521
0.037943393 0.0684863 -0.018390907 0.06586927 -0.012913999 -0.09106014 0.071544096 -0.014734229
-0.069585405 0.11520306 0.007308111 -0.072857 -0.02089432 0.0031207951 -0.08186752 -0.022769468
-0.017702995 0.021040766 -0.05800759 0.015126665 0.064361624 0.016157148 0.027629534 0.033686336
-0.06483411 -0.030837381 -0.0322033 -0.054250117 0.059016846 -0.038796738 -0.012391442 0.04359821
00000000: 8699 713c ff02 2f3d 8877 69bd e320 2bbc
00000010: b0a6 723c ced8 06be d81b e33d bd57 cabd
00000020: a5d5 ba3c fe76 94bd 3992 73bd e2fc 18bc
00000030: d9fe 113e 7ca7 38bd 9307 62bb 4fb2 b8bd
00000040: 5ed7 10bd caed 01bc 1053 a83d 5090 2cbb
00000050: ba4a 08bd a40a 8a3c 734a c8bd c7ba 5fbc
00000060: 5417 c13d e4b5 10bd 64f2 50bd 62c4 55bd
00000070: 01b8 16bd 1e8c 89bd f1dc 563c 687e 98bd
00000080: ee32 3dbd ba0f d63c 3a12 5ebd 5539 12bd
00000090: 33b3 45bc 495d aebd 8e0c dabc 6edf 42bd
000000a0: aff1 01be 4119 49bd 914a 64bc 6add a7bb
000000b0: 3f8a cabd 601a 483c a493 c63c b581 103e
000000c0: b639 8a3d 300c 08bd 13a0 acbd 491b bcbd
000000d0: d8af 283d 3aa4 cbbc a5ed 4f3d 743b 2a3c
000000e0: 3785 863c 9e2d b73c b7e4 cb3c bac0 1abc
000000f0: 42ea 34bd 8653 383a d967 953d 884a 2fbd
00000100: bb29 a3bd 2cf2 823d 8003 b93c 4ecf 9bbd
00000110: f87c 87bc 0bee cdbc 6c14 84bd 513a 2c3b
00000120: 5700 80bb 082a 9ebc fd0b 9fbc 74a5 0dbd
00000130: 9669 cfbc d93a 93bd 621c 7e3b c8a1 b3bc
00000140: 67e2 4ebd 77b6 f03d 819b 0bbd 88d2 833d
00000150: 0e04 fdbc 2daa 21bd 3f54 f63d ce98 1d3d
00000160: 7df9 e4bb 0390 87bd 0667 86b9 156e fbbc
00000170: 8ce6 93bc ba7d bebb 3538 0bbd 19bc 8e3c
00000180: c189 a23d db3f 98bd 44d5 a5bc ef14 183c
00000190: 2ed1 d2bc 752d 97bd 452b 3fbd 2f62 19bd
000001a0: a7d5 cfbc 99bd 4ebd ab06 debc d17e adbc
000001b0: 6e60 c1bd bcab d2bc 47d2 4d3c 1bd4 e53b
000001c0: 328f 373d d69e 213d 1d54 933d 2256 903c
000001d0: ec83 4b3c 52f0 1ebb 483b 4bbc dc10 5ebc
000001e0: 6521 d23d c67e 61bc 5a3b 0f3c 8f6d 393d
000001f0: 0af4 a43b 061f 14bd dc1b 5d3d b492 223c
00000200: 1cf7 9e3b c523 d43b 7fb7 82bd 4807 14bd
00000210: f6a3 2dbd 87a3 0a3d fc4b a2bb a29c fbbc
00000220: 3353 ad3c 07dd 97bd 0caa a73d 96ca 2f3d
00000230: 2422 fbbc edf8 17bd 5b88 e23c 0e36 de3d
00000240: 53f5 48bd 2375 07bd 6b55 6f3b e59b b93c
00000250: 2c3d 163d cfda 743d 4ee9 dc3c 3480 c63a
00000260: fb52 0fbd adc6 6ebd 3dda ddbc 672c 493c
00000270: 0d70 a43d 01d0 a03d f9f5 91bc 13ff 7f3d
00000280: 2ab1 2e3d d306 d5ba 4ca3 593c 7052 6cbd
00000290: 8636 5c3c 391e 883b 29ad 943d ba03 b9bc
000002a0: 2a4f f0bd 8939 26bc 0cf9 bb3b 6a5d 86bd
000002b0: ec3a 08bd eebd 973c 6ce1 1fbd 0ecd bfb9
000002c0: 7909 abbc f128 b3bc 4f2e c4bc 657a 243d
000002d0: 9cef 493d 485d 173d 4acd 313d c244 07bd
000002e0: eb91 b23d 6308 103d 8c20 c43c 2bba 933c
000002f0: 197e 84bc a17e 4f3d 676a 05bd aab7 b93d
00000300: 5657 063c 684d 82bd 42a2 523d 5364 67bc
00000310: 2703 3cbd 4b9b da3d f376 833d f0a1 7f3d
00000320: 1758 40bd a93b 5dbd cd6a 47bd b469 3cbc
00000330: 6121 2dbd 5dce f8bc aae1 863c 582c 59bd
00000340: d6fe df3c aeae adbc 0060 62bc 27de 353d
00000350: b66b eebd 66f3 e73c 4b61 c1bd 71aa 65bd
00000360: c0d3 cc3c d133 653d 54db e6bd 62ab 773c
00000370: 697b 9abc feb4 013e aa86 d03c 29a3 6f3d
00000380: 886a 1b3d 8c42 8c3d 87a8 96bc 78e6 863d
00000390: 3d95 53bc bd7d babd b685 923d d667 71bc
000003a0: cb82 8ebd 95ef eb3d e178 ef3b 0d36 95bd
000003b0: 912a abbc 4186 4c3b 29aa a7bd 0987 babc
000003c0: df05 91bc af5d ac3c 5e99 6dbd d5d5 773c
000003d0: 07d0 833d ff5b 843c 5557 e23c affa 093d
000003e0: bfc7 84bd ad9e fcbc 9ce7 03bd 5f35 5ebd
000003f0: a6bb 713d 54e9 1ebd 7a05 4bbc 0994 323d
