results/arousal/classification_5/20251225_154216_583714/best_model.pt (torch, 192949 bytes, 16 tensors)

conv1.weight f4 [16, 1, 3, 3]
00000000: a461 843e c315 a33e 900f 79bd 9394 a23e
00000010: 75cc d5bd bc80 a43d 23d0 86be 54d3 933e
00000020: c538 d43e 4f3f 87be 36c9 ed3e 4eed 533e
00000030: 7401 873e 5f40 03be d83c 343e cee0 973d
00000040: 3531 7d3e 318f 243e 3d96 8cbe 09b6 203c
00000050: b656 3cbe 9466 27be 8da9 02be 1a9a c23e
00000060: 5f0f 96be 8cb2 0fbe b21b aabd b3a7 9dbd
00000070: 429b 21bd 67d8 6fbe 07f8 a43e 4f50 c4be
00000080: 9f8b f53e 5f0d 2e3d 664e d7bd 3705 453e
00000090: 7b04 47bd 6262 f93e 39f3 0ebe 7210 eabd
000000a0: d4bf ca3d e309 59be f269 f13c a92b a63e
000000b0: 440e 7f3e 510a 1abd 3770 a83e f764 5d3e
000000c0: f79e 3c3e 76ce 38be 8850 cabe 8675 9bbd
000000d0: bb8b 8fbe ef88 d73e 549c 4a3e 047e 3c3e
000000e0: 35f5 0c3e 0fed 57bc adb7 c33e d5d4 b1be
000000f0: 2505 303d 580c 76be 133c f23d 1619 6fbe
00000100: 44bd 853e cf0c 2bbe 0330 613e e7f7 d3bd
00000110: 9556 cebe dfba 57be 6d7b d03e a758 d43d
00000120: 3e6e e73e 2059 98bd c6cf 88be 3f62 02be
00000130: dcb3 9fbe b486 213e f63c 3c3e cfb8 e73e
00000140: 243c a4be a704 3fbe a143 f93d 8e0b 9cbe
00000150: c13d 833e 497b aabd 56d1 b13e 8bc1 76be
00000160: 554b a8be d4ca c43d d16c 923d 8736 c3bd
00000170: ce90 953e d9ef 7c3e 5a6d a3be 0d40 9abe
00000180: c51b 8f3e 233c b9bd 28d9 a7be 5793 74be
00000190: efd3 a5be c59d 703e bbf5 ce3d 6107 9bbe
000001a0: c420 863e 4b19 c5bd 7b96 bfbe 3a49 2bbe
000001b0: 5c3b 0dbe 6df1 b4be 281b 163f f1e0 c63d
000001c0: 6d0e 0f3e 9561 94be 4586 6dbe 3da2 44bd
000001d0: 9739 5cbd 30ca 94be 20d4 90be 526d 9abe
000001e0: d768 8a3d 91e4 4cbd cca5 febd a431 87bd
000001f0: fbe6 eabe f83e 90be 6f52 8bbe 1f9b 3ebe
00000200: 3547 8c3e a135 c7bd c184 ff3e b0c6 a33d
00000210: 6dda 86be 7b71 553e 0f9d 4abe effd c5bd
00000220: ab43 9abe 57f0 afbe 4de6 d03d 8213 8cbd
00000230: ea26 943e bf78 62be 1249 c43e 1625 d1be
0.25855744 0.3185254 -0.060805857 0.31753978 -0.10439388 0.08032367 -0.2633067 0.28872168
0.41449562 -0.26415488 0.46442574 0.20695993 0.26368296 -0.12817524 0.17601335 0.07415925
0.24725802 0.16070248 -0.27458373 0.009809026 -0.18392453 -0.16347724 -0.12759991 0.38008195
-0.29308602 -0.14032954 -0.08306064 -0.07698002 -0.039454706 -0.23422395 0.3222048 -0.3834252
0.47958085 0.04249322 -0.10513 0.1924027 -0.048588257 0.48707873 -0.1395997 -0.11428918
0.098998696 -0.21195178 0.029469464 0.32455185 0.24907786 -0.037607495 0.32898113 0.21620546
0.18420015 -0.18047509 -0.39514565 -0.07590775 -0.28036293 0.4209666 0.19786197 0.18407446
0.13765414 -0.013179078 0.3822607 -0.3473269 0.042973656 -0.24028146 0.118278645 -0.23349413
0.2612096 -0.16704105 0.21990971 -0.10350018 -0.40300432 -0.2106738 0.40719166 0.103684716
0.45201296 -0.07438874 -0.2672102 -0.1273279 -0.3119191 0.15774041 0.1838263 0.45258185
-0.32077134 -0.18654118 0.12171102 -0.30477566 0.25633052 -0.08324296 0.34730023 -0.24097268
-0.32869974 0.09608999 0.07149661 -0.09531885 0.2921204 0.2470087 -0.31919366 -0.30126992
0.27950874 -0.09044673 -0.32782865 -0.2388433 -0.32388255 0.23497684 0.10105463 -0.30279067
0.26196873 -0.09623965 -0.37419495 -0.16727152 -0.13792175 -0.35340443 0.5863519 0.09710873
0.13970347 -0.289807 -0.23195751 -0.048006285 -0.05376586 -0.29060507 -0.2828684 -0.3016153
0.06758278 -0.050022665 -0.12433967 -0.06601265 -0.4587935 -0.2817304 -0.2721133 -0.18613862
0.27398077 -0.09727026 0.4990597 0.07996881 -0.2633852 0.2084407 -0.19786476 -0.096675746
-0.30129752 -0.34363052 0.102001764 -0.06839658 0.2893594 -0.22116373 0.38336998 -0.40848607

conv1.bias f4 [16]
00000000: 8a4f 4337 6758 cfb8 8a72 22b9 723f 61ba
00000010: 6684 a4b8 f844 6a38 597c 3dba a453 033a
00000020: c314 ebb8 aa00 8739 7d3b 8f39 d0c9 f3b8
00000030: 43fc 40ba 721e 2cba 6ea0 813a f36d 86ba
1.1641425e-05 -9.8869954e-05 -0.00015492193 -0.0008592523 -7.8447905e-05 5.585418e-05 -0.0007228307 0.0005009717
-0.000112095404 0.000257497 0.00027319408 -0.000116247335 -0.00073618087 -0.0006565816 0.0009889731 -0.0010256156

bn1.weight f4 [16]
00000000: 22ff 653f 1fff 413f 5900 843f e41a 783f
00000010: f24e 8d3f 836c 7b3f fbcd 703f 0e56 733f
00000020: d802 5e3f 9901 723f 617f 943f 5fb6 6f3f
00000030: 8c90 6a3f 7b92 353f 78b1 7f3f 39fa 873f
0.89842427 0.7577991 1.0312606 0.9691603 1.1039717 0.9821245 0.940643 0.95053184
0.8672309 0.9453369 1.1601373 0.9363765 0.9162681 0.70926636 0.9988017 1.0623237

bn1.bias f4 [16]
00000000: 10e1 cbbe 15cd 8dbe 3bd9 fbbe 826b 88be
00000010: a787 d6be fef0 30be 9c71 09be d431 98be
00000020: cea8 4bbe cce0 47be 94a7 cbbd 090e 94be
00000030: 9908 08be 322d 3abc 6757 7abe 9cbb 86be
-0.39820147 -0.27695528 -0.4918917 -0.26644522 -0.4190037 -0.17279431 -0.13422245 -0.29725516
-0.19888613 -0.19519347 -0.09944072 -0.28916958 -0.1328453 -0.011363314 -0.24447404 -0.2631501

bn1.running_mean f4 [16]
00000000: 3706 38bb 1e6b 05bb 68e5 ab3a 9ec2 42bb
00000010: 749f 12ba 288b 7ab9 afcd 023a d07d ed38
00000020: 4aa0 86ba a4d5 56ba 00bc da3a fa4a f03a
00000030: a58a 083a 55d2 d73a 7466 453a 03be 0dba
-0.0028079876 -0.0020358036 0.0013114633 -0.0029718052 -0.00055932184 -0.00023893698 0.00049897557 0.00011324475
-0.0010271159 -0.0008195287 0.0016688108 0.0018332892 0.0005208648 0.0016465882 0.00075302203 -0.0005407037

bn1.running_var f4 [16]
00000000: 128a be3e 8362 a83e e122 6f3e 15c2 413e
00000010: 9044 333e ad04 263e 60da 483e 5ed0 313e
00000020: 5e7c 153e 013a fb3d 6162 b03e 9cf4 aa3e
00000030: a8ea e43d 3960 073f 7470 8b3e 6882 1a3e
0.37214714 0.32887658 0.23353149 0.18921693 0.17506623 0.16212721 0.19614553 0.17364642
0.14598224 0.12266923 0.34450057 0.33389747 0.1117757 0.528812 0.27234232 0.15088809

conv2.weight f4 [32, 16, 3, 3]
00000000: 2ec9 b7bd e29a 40be 7dd4 873d 9c59 acbd
00000010: d334 7f3d e984 143d 00f0 653e 9d15 113e
00000020: f41c 9bbe 500b 8ebe f90c 86be d25f 6ebe
00000030: 77bd 1a3e 9512 8dbd 0552 62be a292 b43d
00000040: e34b d6be a0a2 9f3e 70e8 c73d a8ce bf3c
00000050: a915 0f3e 7548 873e aadb 7d3c 82e6 703c
00000060: 3f30 1fbd 7a69 81bd 3020 8dbe f49f 383c
00000070: 6d59 21be 5aea 46bd fd5b abbd d81c 3dbe
00000080: a57c f6bb ef2b 893d ee24 2abd ab11 2f3e
00000090: 7243 97bc db2c 98ba 8f86 e2bd 3aba 7e3e
000000a0: 1b37 40be ccdc 4abd 6e6c 0cbd 3df4 d0bd
000000b0: b457 893e d447 b6bc 20ac 923d 1b60 f3be
000000c0: 3a57 0cbe 5497 8d3e 4f8b 063e af84 253b
000000d0: cd33 44bd 4a96 29be e53d 0c3e 2db7 77bd
000000e0: be59 49bc f3b9 db3b f630 a1bc f2da 28be
000000f0: 5df8 7f3d 0aef 263e 3985 bfbd aa93 293e
00000100: 0dad 43bd 7702 8a3e e797 b73c 45d3 eb3c
00000110: e093 72be 75d5 b2bd a144 ed3d d85d 943c
00000120: 3969 553e 7b61 f53c 5610 aa3d 39aa 98bd
00000130: f444 be3c 5381 28bd e17a 61be 6645 bbbd
00000140: bc1c bd3d 7732 7c3d 2449 2a3d 20ae 103e
00000150: 7117 72be 1c15 4d3e b6b2 393c 5ed1 97be
00000160: 1197 8b3e 5724 a73e 93bf 483e 2d47 33be
00000170: f0fd 7a3e 612e d1bc 3777 b33d be34 cfbe
00000180: 6ec0 a0ba 17fb cebe fa2c 013d 8724 24be
00000190: 05eb fa3d baf7 c7be 945c e73d a04e d0bd
000001a0: 97ec c03e 7cb3 be3d e0d7 a63c 908d 3ebc
000001b0: 7fb9 9a3d c9e0 30be 560e 30be 62b5 56be
000001c0: ce52 903d 0cee 653c 5a99 86bd 4d08 84bc
000001d0: e4e9 e0bd 848b 8f3c 152b a53a c147 3fbe
000001e0: 10dc 9cbd 4e70 c5be a5fa 383c 6695 923b
000001f0: 63c3 7bbd 526f 07bc 3bf0 563e ac52 2abe
00000200: 1678 4b3d 35cf 933d a262 3e3d fe93 5a3e
00000210: 52ed 7abd deab 3e3e beb9 c4be 9e10 9d3c
00000220: 736e d5bd cdae d7bd 5022 d1bc 5d41 16be
00000230: 8ac2 63bd 4e13 29be cda6 c83d 6f23 01bd
00000240: 7cb9 32be 07f3 b1bd 7dab 573d f5dd 843d
00000250: 07be b7be 876c 0fbe 5fe4 9d3c c452 01bd
00000260: 2475 78be 4419 283e 888b b3bd adaf a43d
00000270: 8526 f83c 4a85 7b3e a0ab 123d 2538 af3d
00000280: be95 e83c 00a5 f8be 62df 483e 7611 7abe
00000290: 2cd5 3a3e 6e98 80be a00f e8be 02dd 87bd
000002a0: 27fc 4fbd 1ee8 05bd 8a56 e53d 1d43 ae3d
000002b0: 818f edbe 83a8 d5be 91a6 243e f9c9 f1bd
000002c0: 4774 673d 2c70 483e 47b8 ddbc 915a 0b3e
000002d0: eb59 1fbe a9ee 563c e63a 83bd 33d6 a8bd
000002e0: e82e babc d577 8ebe a388 0a3d e6cb 58bd
000002f0: 9aa7 8fbc b1d1 143e e90c 3d3d d717 0c3e
00000300: 2537 4c3e 3ee0 6ebe e8d6 8e3e c121 e33d
00000310: 0a59 4fbe e59f b93d e966 af3b d82e 153e
00000320: 5b04 81be f6d9 053e e68f 67bd 8c16 3f3e
00000330: 9e79 013e bf39 fcbb cfb8 90bd d103 43be
00000340: 6fd8 debb d79a a7be ff52 563d 2b80 83bb
00000350: 3aab b1bd b7c0 1e3e a1b4 96be a4e7 9bbc
00000360: 59da ef3c fb09 643e 3bb0 d23d ea8a bd3d
00000370: f445 f93c 703a aabe adaf 80bc 5bb0 ffbc
00000380: 125c f83d 01e5 06bd fd8d 96bd b7c4 2ebd
00000390: 5377 25be 4d7c b43d 4cc1 f6bd 78a3 253e
000003a0: 5347 98be ff96 9a3d ae82 09bd d8ca 66be
000003b0: 36eb 06bf 1a71 3f3d 79cd bf3c 1059 18be
000003c0: cfc8 023e 220e 31be 0bdb 2cbd d873 2e3d
000003d0: 013f fa3d 1fce 3ebe d500 17be 7153 823b
000003e0: 740e 7ebb c1dd e93d ea2a 053e 885d 73be
000003f0: ff04 523e 8509 0cbe c633 d73d 596e 98bd
-0.08973919 -0.18809083 0.06632326 -0.08415529 0.062306236 0.036259566 0.22454834 0.14168401
-0.30295527 -0.27743006 -0.26181772 -0.2327874 0.15111338 -0.0688831 -0.221016 0.088170305
-0.41854772 0.3117876 0.09761131 0.023413971 0.13973106 0.26422468 0.0154942665 0.014703395
-0.03886437 -0.06318946 -0.2756362 0.011268605 -0.1575677 -0.04856334 -0.08367155 -0.18468034
-0.007522183 0.06697833 -0.041539125 0.17096584 -0.018464778 -0.0011610048 -0.11060821 0.24875727
-0.18771021 -0.049526975 -0.034283094 -0.10202835 0.26824725 -0.022251047 0.071617365 -0.4753426
-0.1370515 0.27654517 0.1313908 0.0025256088 -0.047900964 -0.16561237 0.13695486 -0.060477424
-0.012289463 0.0067055165 -0.019676667 -0.16489771 0.062492717 0.16302124 -0.09351582 0.16560236
-0.047772456 0.26955006 0.0224113 0.028787265 -0.23689222 -0.0873212 0.115853556 0.018111154
0.2084092 0.029953709 0.08303897 -0.074543424 0.023226239 -0.04113896 -0.22019531 -0.09144096
0.09233996 0.061571565 0.04157366 0.14128923 -0.23641755 0.20027584 0.011334112 -0.29651922
0.27263692 0.32644913 0.1960433 -0.1750762 0.24510932 -0.02553481 0.08762973 -0.40469927
-0.001226438 -0.4042594 0.031537034 -0.16029559 0.12251858 -0.39056188 0.11296955 -0.101712465
0.37680504 0.09311578 0.02036661 -0.011630431 0.07554912 -0.17273249 -0.17192969 -0.2096763
0.07047044 0.014033806 -0.06572218 -0.01611724 -0.10982111 0.01752258 0.001260134 -0.18679716
-0.07659161 -0.38562244 0.011290227 0.004473376 -0.061465632 -0.008266287 0.20990078 -0.166331
0.04967507 0.07217256 0.046480782 0.21345517 -0.061261483 0.1862025 -0.3842296 0.019172963
-0.10421457 -0.105313875 -0.025529057 -0.14673372 -0.05560545 -0.1651127 0.0979744 -0.031527933
-0.17453569 -0.08688932 0.05265378 0.064876474 -0.35887167 -0.14006244 0.019273935 -0.031573072
-0.24263436 0.16415888 -0.08766848 0.0804132 0.030291805 0.24562564 0.035808206 0.085556306
0.028391715 -0.48563385 0.19616464 -0.24420723 0.18245381 -0.25116295 -0.4532442 -0.06633951
-0.05077758 -0.032692067 0.11198147 0.085088946 -0.46398547 -0.41730127 0.16079165 -0.11806101
0.056507375 0.1957404 -0.02706541 0.13608767 -0.15561645 0.013118424 -0.06407718 -0.0824398
-0.022727445 -0.278258 0.033821713 -0.052928828 -0.017535973 0.14533116 0.04615489 0.13680969
0.19942911 -0.23327729 0.27898335 0.110904224 -0.2024881 0.090637006 0.005352844 0.1456865
-0.25198635 0.13071427 -0.056533717 0.18660945 0.1264405 -0.0076973136 -0.070664994 -0.19044425
-0.0068007032 -0.3273532 0.052325245 -0.0040130815 -0.08675237 0.15503202 -0.29434684 -0.019031353
0.029278921 0.22269432 0.102875195 0.092550114 0.030428864 -0.3324771 -0.015708769 -0.031212023
0.12126936 -0.03293324 -0.07351301 -0.04266807 -0.161588 0.08812771 -0.12048587 0.1617564
-0.29741916 0.075483315 -0.03357189 -0.22538316 -0.52702653 0.04673872 0.023413407 -0.14877725
0.12771915 -0.17290547 -0.042201083 0.042590946 0.12219048 -0.18633316 -0.14746411 0.003977232
-0.003876594 0.11419249 0.13004652 -0.23766148 0.20509718 -0.13675506 0.10507922 -0.07442922

conv2.bias f4 [32]
00000000: f4c2 b0b9 6bf6 aa38 da54 6f39 fcac 3aba
00000010: 6d18 023a cb72 51b9 f9d0 973a cd1b 3739
00000020: e4d5 b9b8 b1c7 a6b9 34ac 5cba 83a5 8639
00000030: 6cad 6a39 62f8 5eb8 4b36 5fb9 8314 4dba
00000040: b82f 28ba e4f2 223a 201e 8739 3454 083a
00000050: beaf be39 d65e 4c3a 832f a03a 4bcb deb9
00000060: bc91 a2b9 c8e1 bdb8 3c5c 163a 38f8 bcb9
00000070: 276c ae39 98f4 13ba 3539 ca38 cddb 59ba
-0.00033714587 8.1521306e-05 0.00022824426 -0.00071211136 0.0004962746 -0.00019974557 0.0011582664 0.00017462597
-8.861328e-05 -0.0003181077 -0.0008417994 0.00025681788 0.00022380584 -5.316025e-05 -0.00021287163 -0.0007823186
-0.0006415802 0.0006216003 0.0002577165 0.00052005355 0.00036370562 0.0007796114 0.0012221191 -0.00042494605
-0.00031007628 -9.054277e-05 0.000573579 -0.00036043092 0.00033268446 -0.0005644052 9.642766e-05 -0.0008310646

bn2.weight f4 [32]
00000000: 8c29 893f 33ae 9b3f b807 8e3f e6db 903f
00000010: edb6 923f 7b35 983f 49f8 9b3f 17a5 a53f
00000020: 458e a03f 9e50 903f 636b ab3f e05f bf3f
00000030: 4d9e 853f 5d09 943f c64b 9b3f 196c 983f
00000040: c95e 8f3f 58c9 913f 6356 9b3f 0efa 873f
00000050: 86c3 993f 3ef8 923f a3ea 8a3f 78fb 883f
00000060: c17e a63f 15ee 993f a24c 9b3f bf2e 913f
00000070: 74c7 983f 0186 a63f 1c10 913f 4b8c 973f
1.0715804 1.2162536 1.1096106 1.1317108 1.1462075 1.1891321 1.2185146 1.2941006
1.2543417 1.1274602 1.3392147 1.4951134 1.0438935 1.1565357 1.2132499 1.1907989
1.1200801 1.138957 1.2135738 1.0623186 1.2012794 1.1482008 1.0852855 1.0701742
1.3007432 1.2025782 1.2132761 1.1342391 1.1935868 1.3009645 1.1333041 1.1839689

bn2.bias f4 [32]
00000000: e7fb 20bf aef4 dbbe 59d0 15bf 74be b7be
00000010: 0aea fdbe fe17 b0be 0a35 3dbf dd11 32bf
00000020: d7ce 04bf ee95 03bf 9732 64bf af10 60bf
00000030: 9e9c 19be 8e56 22bf 75c7 d4be 2989 d2be
00000040: 823f efbe 07e9 4fbf 4046 07bf e01c 16bf
00000050: 0a35 0bbf 72aa 1abf 36c1 babe 5821 aabe
00000060: 7f71 41bf 477a 3dbf 30c0 71bf 7688 09bf
00000070: a8d9 06bf 8773 a5be 413d e6be d7b4 33bf
-0.6288437 -0.42960113 -0.5852104 -0.35887492 -0.4959262 -0.34393305 -0.73909056 -0.6955851
-0.5187811 -0.5140065 -0.89139694 -0.8752546 -0.15001151 -0.6341332 -0.41558424 -0.4112027
-0.4672814 -0.81214947 -0.5284157 -0.5863781 -0.54377806 -0.6041633 -0.36475533 -0.33228564
-0.75563806 -0.74014705 -0.9443388 -0.5372385 -0.5267587 -0.32314703 -0.44968608 -0.70197815

bn2.running_mean f4 [32]
00000000: aece debe 4ef6 3ebf 7923 0cbe 9694 29bf
00000010: c09f 1ebf cfa6 4dbf df72 4e3f 6a8b 243e
00000020: b5a6 3dbf 5f2b 41be c43b 163f 243b 403f
00000030: 1220 eabe a853 593f 22a7 51bf 23ab 3dbf
00000040: b90b 3bbf f4b3 afbd 9a5e c2be 5c13 1b3d
00000050: d8b3 35be 6865 23be 6605 36bf b895 36bf
00000060: 782b 77be d675 23be de8f a33e a55a 06bf
00000070: 6e9c a7be 9563 76bf 49ec 0bbf 59b0 30be
-0.4351706 -0.7459458 -0.13685407 -0.6624235 -0.6196251 -0.80332655 0.8064403 0.16068807
-0.740825 -0.18864201 0.58684945 0.7509024 -0.45727593 0.84893274 -0.8189565 -0.7408926
-0.7306476 -0.08579245 -0.379628 0.03786026 -0.17744386 -0.15956652 -0.7110199 -0.713222
-0.24137676 -0.1596292 0.319457 -0.5248206 -0.32736534 -0.962457 -0.5465742 -0.17254771

bn2.running_var f4 [32]
00000000: 1dbc bd3e f84d 2e3f a23d c33e a567 f43e
00000010: 5d92 033f 5c45 0c3f 02f1 003f fdc8 033f
00000020: 5963 1d3f 02dc 023f 7e4e e23e d265 053f
00000030: ff91 323f e2d4 da3e 7622 2c3f d8ed df3e
00000040: 56fe 033f 2424 d13e 4d1e 003f c06f bd3e
00000050: b3dc cb3e afa5 f03e 5c61 023f a546 6c3f
00000060: caff bf3e 6768 a23e 7437 d93e d060 b13e
00000070: 7c74 ee3e 9e29 243f 374f 1b3f 913f 6d3e
0.37057582 0.6808772 0.3813296 0.47735325 0.5139521 0.54793334 0.5036775 0.5147856
0.6147972 0.51116955 0.4420051 0.5210849 0.6975402 0.42740542 0.67240083 0.43736148
0.5155996 0.40847886 0.50046235 0.3699932 0.39816818 0.47001407 0.5092981 0.92295295
0.3749984 0.31720278 0.4242512 0.34644175 0.46573246 0.64126 0.6066775 0.2316878

fc1.weight f4 [128, 320]
00000000: ce08 34bc 80b1 03be 8d54 56be 952b 7f3b
00000010: ee5e 97bd c438 10be 7ca1 56bd 71dc fc3d
00000020: 4caf 843d 746d dd3c f673 0a3d 8aa8 6d3b
00000030: afb0 29be af74 ddbd a1eb e73d 5a76 89bd
00000040: bb43 c83e 7ce9 cdbd 86cc 793e 8c80 283d
00000050: bdb6 25be 93f2 c33d ddd4 c0bc 125d d9bd
00000060: 0f09 953c f427 c73b dd28 273e 6956 943e
00000070: bbb8 cebd 5539 e9bd 5d86 5f3e cd5e 8e3d
00000080: 879a 713b 2f6d d03e ceb6 963d db4f b5bd
00000090: affd 7f3c b0aa 3ebe ec1f ab3e adee a43d
000000a0: 237b 373e 1480 f93c 3a6d eb3c 15c9 783d
000000b0: 9bad 983d 3000 9e3d b28d 52be 643e 723e
000000c0: c89e f83d e027 34be e919 e4bd 97c3 0bbd
000000d0: a3b7 f23d 2887 9f3e 4e5d 953d 75d2 0dbd
000000e0: 0d6a 233e 5097 5a3e 0d7d d0be 0f6b 0d3e
000000f0: e726 293e a253 e2bc 6cd9 de3d bea9 ac3c
00000100: cc6f 5c3e f4ec d3bc 8f8f c9bc 7459 a9b9
00000110: 41b7 c6bd 5cca 2e3d f55c 6a3e 4d9c 043c
00000120: 4b62 87be 70d3 0a3e dbea 5c3e 9dad 6fbc
00000130: c96f bdbd a6ef 4a3e f83b 1eba 1e90 7fbe
00000140: 42db bd3d 0322 cb3d 66b4 89be 19c2 aa3e
00000150: 8b50 dd3e 8a84 22be b0ec 383c 968b a4be
00000160: 9ddb 5cbe 417d 083f 180d 1c3e 9ddf bebc
00000170: 7de5 04be 73e8 443e 18d1 d8bc e460 413a
00000180: a640 b83e b8c0 d73e d41e 78bc 4804 9c3e
00000190: c10c 25be 418b 0bbe 23e2 afbe 7d3f 0dbe
000001a0: fb5b 59be 375a 503e 5bcb 54bc fc0f a8bd
000001b0: de2f a53e f5a9 0abc a909 973d 26d1 ec3d
000001c0: 8a9e 8dbe ce11 2e3e 712a 7abb 7547 81bd
000001d0: dee6 18bd a21b d4bd 59b6 b23e 0657 a6be
000001e0: 40f7 43bd 4367 503e 1553 c2bb 2e29 343e
000001f0: 21a4 87bd e9c4 313d fb05 1bbd 656c 54bd
00000200: e45f 0cbe 284a 14be a815 2dbe 297b 98bc
00000210: d937 d53d 4583 d73d da41 a3bb 3338 283e
00000220: 2e34 b1bd 2b82 6e3d 3600 99be b1a6 81be
00000230: 3da6 b13e 8ae9 c93e 7522 44bd 7001 b53d
00000240: 7aa9 5b3c ebef f4bd 0cad 4a3b ea72 09be
00000250: 9129 04be d5e3 6cbc d23b 32ba 230a 1c3d
00000260: fc0a 5e3e 4b1f d6be 927f d83d ea31 bb3d
00000270: 80ff bc3d fc89 9bbd eb23 1f3e 2913 60be
00000280: 434b 3dbb a43e 13be 0f46 0cbe 7c02 db3d
00000290: 7355 133d d666 bf3b e50c cc3d e429 4d3e
000002a0: 791f acbd a59d 2c3d 916e 353d dc5a ad3d
000002b0: c8f3 243e e4c4 9c3d 1e42 d0bd f3cd 31bd
000002c0: f49d 14bd d59d a33e aad3 e63d 20cb 953e
000002d0: 00ed 9dbd dc6d 77be 98e8 e03d ecee 17bd
000002e0: 0c84 cdbd 9805 ccbd 7dd7 373d cd06 c8be
000002f0: b77a e23d 5cac da3d 63dc c83c 1e8f b2bd
00000300: ae5e 5b3c 0590 d8bd 8725 3fbe c047 aa3d
00000310: 46a6 be3c 3111 29bd 53a8 43be 229b 98bd
00000320: e245 703e c703 313e d8e1 02be 370f 68bd
00000330: 4f59 03be bc96 853c 1278 f03d 36bc 61bd
00000340: fd34 b5bc 7576 da3d 54af c7bd 6e5f bdbd
00000350: 95a0 c93d 6187 183e 8a9c cdbd 8a2a 5e3e
00000360: 88f1 ca3c 9880 38bc 7cc7 733d c07a aa3d
00000370: f236 233e 327c 9c3e 0b88 ac3d 9196 76ba
00000380: dfab 603e 60d5 b63c 4772 7f3e b8ac 99be
00000390: 07f7 54bd 715a 8bbd 6146 0f3e b85e e6bc
000003a0: 223a 74be a6f8 3bbe df63 5c3e 5902 d1be
000003b0: 2ef5 6a3c 3833 f03e d44a 343e 03b1 e53d
000003c0: a9e3 b9bc 76ce a6bd af3e 02bd 8edd 713d
000003d0: 194c babd b7df dd3d 567a 23be 4e2d 15bf
000003e0: f3ac ff3d 0182 943e ce84 323e 25db 1fbc
000003f0: 0aad 24be d01f 903e 956c 35bd a7f2 6f3c
-0.010988427 -0.1286068 -0.20930691 0.003893589 -0.07391153 -0.14084154 -0.052400097 0.12346733
0.06478748 0.02702973 0.033801995 0.0036263787 -0.16571306 -0.10813271 0.113242395 -0.06712027
0.39114174 -0.10054299 0.24394426 0.041138217 -0.1618299 0.09567752 -0.023539001 -0.10613455
0.018192796 0.006077761 0.16324182 0.28972176 -0.10093828 -0.11387888 0.218286 0.069516756
0.0036865787 0.407083 0.07359086 -0.08853122 0.015624448 -0.186198 0.33422792 0.08053336
0.17918067 0.03045658 0.028738607 0.06073864 0.074549876 0.077148795 -0.20561865 0.23656613
0.1213966 -0.17593336 -0.111377545 -0.034122076 0.11851432 0.31157804 0.07293187 -0.034624536
0.15958424 0.21346784 -0.40720406 0.13810371 0.16518746 -0.02762777 0.10881314 0.021077033
0.21527022 -0.025869824 -0.024604587 -0.0003230084 -0.09702922 0.042673454 0.22887023 0.008093906
-0.2644218 0.1355722 0.21573965 -0.014628795 -0.09249837 0.19817981 -0.0006036158 -0.2495732
0.09270336 0.099185966 -0.26895446 0.3335121 0.43225512 -0.15870872 0.011286899 -0.32137746
-0.21568151 0.5331612 0.1523937 -0.023299986 -0.12978168 0.19229297 -0.026466891 0.00073768036
0.35986823 0.4213922 -0.015144069 0.30472016 -0.16118146 -0.1362734 -0.34352216 -0.1379375
-0.21226494 0.20346914 -0.012987937 -0.08206174 0.32263082 -0.0084633725 0.073748894 0.115633294
-0.27660018 0.1699898 -0.003817227 -0.063124575 -0.037329547 -0.10356833 0.34904745 -0.3248827
-0.047843218 0.20351891 -0.0059303143 0.17593834 -0.06623102 0.04340068 -0.0378475 -0.051861186
-0.13708454 -0.14481413 -0.16902792 -0.018613415 0.10411043 0.105230846 -0.0049822154 0.16427688
-0.086525306 0.058229607 -0.29882973 -0.25322488 0.34697142 0.3943599 -0.047884423 0.08838165
0.013407106 -0.11959823 0.0030925898 -0.13422742 -0.12906481 -0.014458616 -0.0006799075 0.038095605
0.21683878 -0.4182075 0.10571207 0.0914038 0.0922842 -0.07594678 0.15541045 -0.21882309
-0.002888397 -0.14379364 -0.136986 0.10693833 0.035970163 0.0058411164 0.09963397 0.20035511
-0.084044404 0.04214253 0.044294897 0.08464596 0.1610862 0.076547414 -0.10168861 -0.0434093
-0.03628345 0.31956354 0.112708405 0.29256535 -0.0771122 -0.24163002 0.10981864 -0.037093088
-0.100349516 -0.099620044 0.04488324 -0.3906769 0.11058562 0.10677406 0.024519151 -0.08718704
0.013389273 -0.105743445 -0.1866666 0.083144665 0.023272645 -0.04127616 -0.1910718 -0.07451464
0.23464158 0.17286597 -0.12781465 -0.056655135 -0.12827037 0.016307227 0.117416516 -0.055111133
-0.022119993 0.10667125 -0.09750238 -0.092467174 0.09845082 0.14895393 -0.10039623 0.21695915
0.024773374 -0.011261128 0.059516415 0.08324194 0.15938929 0.30563504 0.08424386 -0.00094065914
0.21940564 0.022318542 0.24945937 -0.30014586 -0.051993396 -0.0680436 0.13991691 -0.028121337
-0.23850301 -0.1835657 0.21522473 -0.40822104 0.014340682 0.46914077 0.1760667 0.11215403
-0.022691565 -0.08144848 -0.03179806 0.05904918 -0.09096546 0.10833686 -0.15964636 -0.58272254
0.12484159 0.29005435 0.17433473 -0.009756838 -0.16081634 0.2814927 -0.044293005 0.014645255

fc1.bias f4 [128]
00000000: 6284 36bd ebfb 2cbd 36d4 9fbd 76c7 ac3d
00000010: c18e a13d 59b2 8fbd e0b7 9b3d d0c7 a13d
00000020: 7132 e0bd 929e d23c 051c a13c eb0a 9abb
00000030: b84c f03c 21a8 333c 4bcd 0b3c f945 abbd
00000040: 4ca9 f23c 294e 0dbc d367 0c3d 2396 9e3c
00000050: 8fdb 1e3d 348c 703d 3dc8 433d 52e5 01be
00000060: b66d c5bd 0414 af3d 8060 433c 1c75 59bd
00000070: 7b20 903c ac85 d4bd d929 54ba 907e 843c
00000080: 4f64 a9bb 3b27 f83b 3887 73bd 5332 a5bd
00000090: 0d49 c8bd e7df 4c3d 9bca 9abd 2510 b0bd
000000a0: 006d cdbc 0364 14bd e287 9a3d 0688 03bc
000000b0: 847f f0bd 3b7b 4d3d a5f3 31bd 6993 3fbd
000000c0: 00d7 a53c 9ed0 693d 58f7 2dbd eae5 6dbd
000000d0: 9581 9dbc 7dbe 853d aa3c bd3c d9a6 313d
000000e0: 1292 363d 257e 0a3d 9b79 eebc d247 d63c
000000f0: e9a6 4f3d 5829 6fbb 422b c03b 4a72 45bd
00000100: 627c 0bbc 5e45 cc3c 7d06 0ebc 7bea c2bc
00000110: 6402 3d3c 008f dcbd 1a0b 293d 129e 4ebc
00000120: 8e27 55bd dfde 543c ec66 dbbc 4bdc 6dbd
00000130: e751 093d 1b00 38ba f495 59bc ed06 923b
00000140: dc42 ae3c b125 2b3d ce3c 513d af17 983d
00000150: 67f4 b7bb 0695 e5bb 4ebf 643d 7012 17bd
00000160: a92c ac3d 7ed7 ae3d 166e e53d 4e9c c4bd
00000170: a15f 1abd 4267 d23b 0980 67bd 7194 8bbd
00000180: 106d bc3c a196 d43c 2045 1fbd e88e 043b
00000190: 3569 ddb8 b3db c1bd 3df3 853d fe5d 70bd
000001a0: f0da a6bd 7e2c 75bd 8c48 cb3d 5f35 cc3c
000001b0: 5aed 6d3d 5e94 72bd 75c3 a3bd 1cc3 c6bc
000001c0: b1d2 d6bd 7043 f3bc ae39 01bd 67e0 b9bd
000001d0: 19a7 50bd 18dc 4fbd 5cfe 97bc 976d d0bb
000001e0: 2e95 05bd c8b0 a23c e91c 493d 4c51 29bc
000001f0: 8fec 273d a17c 6e3d 9e77 9c3d dfcf 4f3d
-0.044559844 -0.042232435 -0.07804148 0.08436482 0.07888556 -0.07016439 0.07603431 0.07899439
-0.10947121 0.025710378 0.019666681 -0.0047010086 0.029333457 0.010965378 0.008532832 -0.083629556
0.029621743 -0.008624592 0.034278702 0.0193587 0.038783606 0.058727458 0.047798384 -0.12685135
-0.09640066 0.085487396 0.011924863 -0.0530902 0.017593613 -0.103770584 -0.0008093394 0.016173631
-0.0051694284 0.007573036 -0.059455127 -0.08066239 -0.09779558 0.050018217 -0.07558175 -0.08596829
-0.02507639 -0.03622819 0.07545449 -0.008028036 -0.11743072 0.05016635 -0.04344525 -0.04677144
0.020244122 0.05708372 -0.042472214 -0.05808059 -0.019226829 0.065304734 0.023100216 0.04337201
0.044572897 0.033811707 -0.02911072 0.026157293 0.050696287 -0.0036493149 0.0058645317 -0.048204698
-0.008513542 0.02493542 -0.008668539 -0.02379345 0.0115362145 -0.107694626 0.041270353 -0.012610929
-0.052039675 0.01299259 -0.026782475 -0.058071416 0.033525374 -0.00070190587 -0.0132803805 0.004456392
0.021272115 0.041783992 0.05108338 0.07426392 -0.005613852 -0.0070062904 0.055846505 -0.036882818
0.08406956 0.085371956 0.11202638 -0.09600125 -0.037688855 0.0064210007 -0.05651859 -0.06815422
0.023001224 0.025950732 -0.038884282 0.002022678 -0.000105576975 -0.094657324 0.06540535 -0.058683388
-0.08147228 -0.059856884 0.099259466 0.024927793 0.058087684 -0.059223525 -0.07996265 -0.024262957
-0.10489405 -0.029695243 -0.03154915 -0.090760045 -0.050940607 -0.050747007 -0.018553905 -0.0063607204
-0.032612972 0.019859686 0.049099836 -0.010334324 0.040997084 0.058224324 0.07640003 0.05073535

fc2.weight f4 [5, 128]
00000000: 48ff 0ebd bcc6 573d c2fe ad3b 3085 e13c
00000010: 4258 903d bf2e 263c ff5c 083d a357 153d
00000020: f8e7 f4bb e7bd 363d 1f91 37bd d580 bc3d
00000030: 080e 3ebd 3544 dbbc 2794 e43d 36f5 b3bb
00000040: 13bf 5f3d f6dd babd 4279 93bd 6573 483d
00000050: f5ef 97bd 8788 3a3d a979 863d f2e8 a33d
00000060: d9b4 c1bd faba 36ba 8a3a 7fbd f5cb d3bd
00000070: 2b9d 7bbd bb0f 97bd 44b9 5b3c ef7b 4a3d
00000080: 5c32 31bc cc4b fcbb cc96 c73d 8632 1cbd
00000090: 67f0 073e 2fc8 783d 8100 cebc 0921 c5bc
000000a0: 79e2 9b3d dde7 83bd 7182 973d 3545 8a3b
000000b0: 903e 54bc 3e40 c03c 9b5d 4c3d ab4d 443d
000000c0: 4791 dabc 7a75 9fbc 7bfa 9ebc 80dc 3f3d
000000d0: b2f8 903c 32d4 9e3d 4c51 f5bc 996a 9f3d
000000e0: 72ca 6abd 0b71 f5bc 8577 833c 8fa7 313d
000000f0: 2e28 403c 0ad2 a03b 9974 ec3c c84f 0ebd
00000100: 90c6 013e f66e 1e3d 1619 ea3d 5694 96bd
00000110: fef5 0ebd 69f2 593d d955 503d c41e b43d
00000120: bcb1 ac3c b1da 5fbd b615 7abb e93c 10bd
00000130: 785e 7abb 96c1 9e3d c148 3a3d d209 bb3b
00000140: b8e0 433c 8f72 4abc 7245 543d 7d6f 4dbd
00000150: 6acb 99bd 5ab1 04bd fb97 123d 1108 583d
00000160: 0365 bd3d 09e2 31bd d76a 28bb 5c96 553d
00000170: 8f67 42bc ac76 b43d 3497 d53c ca5d a93c
00000180: 7fe5 1b3d 961d 073e 96ba babc c882 d0bc
00000190: 8c1a babd d4b7 fdbd 2508 ad3b 6807 923d
000001a0: ea96 f43d 40c8 35bc 2d2e 493d 5485 3fbd
000001b0: 2caf 673c 9fdc 7ebc c1b7 473d ca6d 093d
000001c0: 3265 f43a 8651 e7bc 03ff 15bc e71a 83bd
000001d0: a9b7 91bd e82d c6bd bc6b 593d 4855 d9bc
000001e0: e8b4 2cbd df08 02be 1591 7fbd f9bf 843d
000001f0: f676 333d b823 58bc cdbb 923c 19fe 743d
00000200: f7ec 5a3d ff78 5cbd 89ac 05ba b466 87bd
00000210: ce20 17bd 66f6 2a3d 54b8 99bd 8814 8fbb
00000220: bb10 ed3c 4d2f 283d 1856 adbd 53f8 3dbd
00000230: cd8f 7abc 1eb4 a93d bb87 b0bc e3d9 483d
00000240: a230 773d 3c61 a03c aeda 6b3d dd8d b63a
00000250: d622 893d 51e4 78bc 05db 1b3d 579f 803c
00000260: 0933 153d b586 453d f40b 96bc 1983 233d
00000270: 4496 393d 025e 993c 0809 1ebd 56bd 01bd
00000280: 5e50 083d 832d aaba 9dc3 fc3c 92ba 4c3d
00000290: 0d69 973d ee61 1cbd 9eba f7bc d151 d23c
000002a0: ca21 58bd 6d30 d4bb 4133 a5bc 7e89 953c
000002b0: 9330 883d 520a 8cbd 4b20 9abd 8ce2 853d
000002c0: 1a29 273d ce1b 82bc 797a 47bd e916 143d
000002d0: be80 e7bc c6f6 303c 32f4 82bd ce5e d1bc
000002e0: 7e1d 51bd 9d73 4f3d 8abe 323d 4282 2cbd
000002f0: 203f 353c 3247 bfbc 2d96 03bd 3b2b 9f3c
00000300: b3e7 443c 47cb 253b f256 993b f96b b13d
00000310: bb26 dfbc 21ea 343d d7ae b83c 75c5 dd3c
00000320: ed93 273d a928 27bd 20c6 e73c 1199 1bbd
00000330: 833c 693d 8810 ecbb fba8 8b3c 306a 463d
00000340: 2233 31bd fa47 7cbd 8c31 543d ba5b 13bd
00000350: c38c 1b3d 18b2 b13c 5562 b5bc f4b3 953d
00000360: 0b8d a2bc 7aaa 61bd 4432 28bc eaea f13c
00000370: 8c6f 6b3c cbaa 063c cbc0 94bc c12f 99bc
00000380: 1a68 2d3d 525f 493d 84b0 843c bd47 0c3d
00000390: 2daf 773b cfab 1e3b f085 e3bc 442d a73d
000003a0: c46c 013d 6341 d03b 6756 4dbd 0e0b 8b3d
000003b0: ee0b a2bc e0df 673d 7e3c 98bd 2741 43bc
000003c0: 2db2 bd3c 6ec4 703d f6c6 58bb b67b 653d
000003d0: 7fec de3b 0d5b 8d3c ce30 533d 64bd 3c3d
000003e0: 692a 9d3d 52bb 1cbc a20a 0bbd 2f69 c63b
000003f0: 0af2 433d 622a d8bc 9def 8dbd 1f19 67bd
-0.034911424 0.052679762 0.0053099105 0.027529329 0.07048084 0.010142981 0.033291813 0.03646053
-0.007473942 0.0446147 -0.044816133 0.0920426 -0.0464001 -0.026765922 0.1116107 -0.005491878
0.054625582 -0.09124367 -0.072008625 0.048938174 -0.07418815 0.04554036 0.065661736 0.08003415
-0.09458322 -0.00069706107 -0.062311687 -0.10341636 -0.061429184 -0.07376047 0.01341087 0.0494346
-0.010815229 -0.0076994654 0.09745559 -0.03813412 0.132753 0.060737785 -0.025146725 -0.024063604
0.076115556 -0.06440709 0.073979266 0.004219676 -0.012954369 0.023468133 0.049893957 0.047925632
-0.026680602 -0.019465197 -0.019406548 0.046841145 0.017696712 0.07755317 -0.029945992 0.07784004
-0.057321973 -0.02996113 0.016048202 0.043372687 0.01172833 0.004907851 0.028864192 -0.034744054
0.12673402 0.03868004 0.11430566 -0.073525116 -0.034902565 0.053209696 0.05086312 0.087949306
0.021080844 -0.05465192 -0.0038159913 -0.03521434 -0.003820328 0.07751767 0.04547954 0.005707958
0.011955433 -0.012356414 0.05182404 -0.05015515 -0.07509501 -0.032395698 0.03578947 0.052742068
0.09247782 -0.043428455 -0.0025698447 0.052145347 -0.011865511 0.08811697 0.026073076 0.020674605
0.03806066 0.1319488 -0.02279405 -0.025452986 -0.09087095 -0.12388578 0.005280512 0.07130319
0.11942847 -0.011095107 0.049116302 -0.04675801 0.014140885 -0.01555553 0.048759226 0.03355197
0.0018645881 -0.028237116 -0.009155038 -0.064016156 -0.071151085 -0.09676725 0.05308126 -0.026529923
-0.042164713 -0.12698697 -0.06239422 0.064819284 0.043814622 -0.01319211 0.017911816 0.05981264
0.053448644 -0.05382633 -0.0005099257 -0.06611386 -0.03689652 0.04173889 -0.07505861 -0.004366461
0.028938642 0.041060735 -0.08463687 -0.0463794 -0.015293074 0.08286308 -0.021549096 0.049035918
0.060349114 0.019577615 0.057581596 0.0013927777 0.066960976 -0.015191154 0.03805067 0.01570098
0.036425624 0.04822417 -0.018316247 0.039919946 0.04530932 0.018721584 -0.03858283 -0.031674705
0.03327977 -0.0012983534 0.030854994 0.049982615 0.07393084 -0.03817933 -0.030240353 0.025673779
-0.0527666 -0.0064754994 -0.020166041 0.018254038 0.0664989 -0.06837906 -0.07525691 0.06537351
0.040810682 -0.015882399 -0.048700783 0.03615466 -0.028259631 0.010801023 -0.06394233 -0.025557902
-0.051053517 0.050647367 0.043638743 -0.04211641 0.011062413 -0.023349378 -0.03212564 0.019429794
0.012018132 0.0025298165 0.004679554 0.08663172 -0.027240148 0.044168595 0.022544308 0.027071694
0.040912557 -0.04081026 0.028292716 -0.037987772 0.056942474 -0.007204119 0.01704835 0.048441112
-0.043261655 -0.06159208 0.051805064 -0.03597615 0.037976038 0.021691367 -0.022141615 0.07309714
-0.019842645 -0.05509422 -0.0102658905 0.029530961 0.014369857 0.008219431 -0.018158337 -0.018699529
0.042335607 0.04916317 0.01619745 0.034248102 0.0037793622 0.0024211293 -0.027773827 0.081629306
0.031597868 0.006355451 -0.050131228 0.06789218 -0.01978108 0.05660999 -0.07433413 -0.011917389
0.02315625 0.05878108 -0.0033077574 0.056026183 0.006803095 0.01725533 0.051560216 0.046079054
0.07674105 -0.009566145 -0.033945687 0.0060550193 0.04783825 -0.026387397 -0.06930468 -0.05642044

fc2.bias f4 [5]
00000000: 3ec9 d2be 40d4 7ebd 02e8 0bbe 5975 703e
00000010: e99d ad3d
-0.4116916 -0.062214136 -0.13662723 0.23482265 0.084773846
