results/arousal/classification_3/20251225_120326_344646/best_model.pt (torch, 355765 bytes, 16 tensors)

conv1.weight f4 [16, 1, 3, 3]
0.33512175 0.32338116 -0.26741585 0.26186034 -0.24997753 0.01848998 -0.26005316 0.18622588
0.31793386 -0.3775092 0.2179436 -0.21506834 0.15342839 0.0024653065 0.3490339 0.016618663
0.40921366 0.08239129 -0.0582373 0.19993037 -0.2660037 -0.110904865 -0.16083062 0.43975434
-0.11794667 -0.17019853 -0.12902202 -0.11068362 -0.028711488 -0.5240584 0.23387095 -0.28944832
0.34957594 0.051995017 -0.035191182 0.35977936 -0.004644985 0.28257933 -0.112827785 -0.2434647
-0.014813853 -0.320015 0.12231013 0.29694462 0.33591187 0.082773514 0.2120248 0.17302449
0.1374864 -0.2570562 -0.3793051 -0.1535519 -0.3930467 0.42146873 0.172216 0.20874016
0.13263135 -0.012781032 0.32279548 -0.30453974 -0.110731594 -0.37541327 0.048307803 -0.13215381
0.0059773745 -0.13155885 0.17343152 -0.21009064 -0.36848018 -0.16544853 0.5095946 0.20469643
0.11419715 -0.16596892 -0.52977914 -0.09878648 -0.39070556 0.2785845 0.12798573 0.49778402
-0.07674365 -0.17086823 0.18850264 -0.10462069 0.2529648 -0.008506112 0.41936976 -0.33379245
-0.3125309 0.11505624 0.1017156 -0.08425662 0.4723798 0.152739 -0.3352133 -0.33455703
0.26248348 -0.05523848 -0.13055311 -0.22673963 -0.2868385 0.33536306 0.1567546 -0.44100568
0.17054193 -0.08841439 -0.21444498 -0.20541042 -0.21843658 -0.265951 0.52288485 0.10462025
0.18484803 -0.43093422 -0.082805075 -0.0686773 0.020348463 -0.4183302 0.082223095 -0.5165866
-0.06029022 -0.13769124 -0.110598445 -0.2142177 -0.06020955 0.014703632 -0.008736225 -0.36973938
0.38029808 -0.14829975 0.34994513 0.10722815 -0.23892541 0.27860904 -0.241796 -0.027718721
-0.35893032 -0.42459616 0.04216076 0.029226923 0.32216913 -0.16206214 0.37243214 -0.3342835
00000000: 1495 ab3e 3792 a53e bbea 88be 8f12 863e
00000010: 1cfa 7fbe 4c78 973c b025 85be ffb1 3e3e
00000020: 3ac8 a23e e348 c1be 9b2c 5f3e e03a 5cbe
00000030: 551c 1d3e fb90 213b 92b4 b23e dd23 883c
00000040: 7484 d13e c4bc a83d 3c8a 6ebd 8cba 4c3e
00000050: a331 88be 1722 e3bd c8b0 24be 7b27 e13e
00000060: 068e f1bd 8648 2ebe 591e 04be 18ae e2bd
00000070: 5b34 ebbc b128 06bf de7b 6f3e 9232 94be
00000080: 9efb b23e baf8 543d a124 10bd 0035 b83e
00000090: f534 98bb 3dae 903e 4112 e7bd cf4e 79be
000000a0: ceb5 72bc 02d9 a3be bc7d fa3d 2009 983e
000000b0: a4fc ab3e 2985 a93d 071d 593e 552d 313e
000000c0: 3cc9 0c3e df9c 83be 4734 c2be b63c 1dbe
000000d0: 6b3d c9be c0ca d73e 6459 303e fbbf 553e
000000e0: 83d0 073e 8967 51bc 7345 a53e a2ec 9bbe
000000f0: 3fc7 e2bd 2b36 c0be 67de 453d 5453 07be
00000100: dadd c33b 5db7 06be 0898 313e 0022 57be
00000110: 6fa9 bcbe 576b 29be cb74 023f f19b 513e
00000120: 32e0 e93d c2f3 29be 9b9f 07bf 9150 cabd
00000130: 8f0a c8be a1a2 8e3e b10e 033e 8cdd fe3e
00000140: c62b 9dbd 15f8 2ebe d606 413e 5f43 d6bd
00000150: 9a84 813e 385d 0bbc a2b7 d63e d8e6 aabe
00000160: 0d04 a0be 9ba2 eb3d 4550 d03d bc8e acbd
00000170: c4db f13e 9d67 1c3e 14a1 abbe 0f4b abbe
00000180: 3c64 863e bf41 62bd b7af 05be 6f2e 68be
00000190: 7fdc 92be b5b4 ab3e 4784 203e 7fcb e1be
000001a0: 8ba2 2e3e 9b12 b5bd 7797 5bbe 1c57 52be
000001b0: d7ad 5fbe bb2a 88be c8db 053f 2443 d63d
000001c0: cd48 3d3e 69a3 dcbe b595 a9bd afa6 8cbd
000001d0: d2b1 a63c 602f d6be 9564 a83d 053f 04bf
000001e0: e1f2 76bd effe 0cbe 7081 e2bd e25b 5bbe
000001f0: 4a9e 76bd 81e7 703c 6222 0fbc 7b4e bdbe
00000200: 6eb6 c23e e4db 17be 022c b33e 6f9a db3d
00000210: dda8 74be d8a5 8e3e 5f99 77be 5f12 e3bc
00000220: b7c5 b7be ab64 d9be c3b0 2c3d 4d6d ef3c
00000230: 5af3 a43e 9ef3 25be 6daf be3e 3527 abbe

conv1.bias f4 [16]
-0.00023824227 -0.0007231879 0.002521536 -0.0002003939 -4.1076673e-06 0.000523199 -5.7377867e-05 -0.0004991141
-0.001050419 0.001907103 -0.00028954362 -0.00023946716 -1.3527373e-05 8.298469e-05 -0.0004367651 -0.00086772966
00000000: acd0 79b9 5294 3dba 5b40 253b d420 52b9
00000010: 98d4 89b6 4a27 093a 04a9 70b8 fbd6 02ba
00000020: 37ae 89ba c2f7 f93a e3cd 97b9 7a19 7bb9
00000030: a0f3 62b7 1108 ae38 9ffd e4b9 5a78 63ba

bn1.weight f4 [16]
0.7946174 0.79843694 0.90296227 1.0636955 0.96962065 1.0734874 1.2211609 1.0929761
1.2476892 0.95825166 1.1579372 0.8203438 0.7653995 0.7104584 0.9716548 0.98583585
00000000: 0c6c 4b3f 5d66 4c3f 8928 673f 2d27 883f
00000010: 0f39 783f 0968 893f 004f 9c3f a4e6 8b3f
00000020: 48b4 9f3f fb4f 753f 4937 943f 0d02 523f
00000030: 39f1 433f 9ae0 353f 5ebe 783f bd5f 7c3f

bn1.bias f4 [16]
-0.2892386 -0.27491254 -0.10405291 -0.10453434 -0.21111448 0.017441109 0.062815465 -0.1317373
-0.29832816 -0.14813362 -0.15073653 -0.26110834 -0.017984595 -0.2488431 -0.1985552 -0.10687695
00000000: 1517 94be 56c1 8cbe b119 d5bd 1a16 d6bd
00000010: 652e 58be a8e0 8e3c 65a5 803d 25e6 06be
00000020: 78be 98be 57b0 17be ad5a 1abe feaf 85be
00000030: 6e54 93bc bad0 7ebe 0e52 4bbe 4de2 dabd

bn1.running_mean f4 [16]
-0.0031525744 -0.0035278625 0.0032339464 -0.001630381 -0.00090701855 0.0019146069 -0.00021202076 -0.00013041997
-0.0003818795 -0.00044555397 0.001784516 0.0039015643 0.0007893303 0.00590888 -0.0010243013 -0.00043985771
00000000: 6c9b 4ebb b633 67bb 9ef0 533b 82b2 d5ba
00000010: fcc4 6dba 8cf3 fa3a e451 5eb9 58c1 08b9
00000020: 0037 c8b9 3e99 e9b9 6ce6 e93a 63b1 7f3b
00000030: 0feb 4e3a 479f c13b d941 86ba b49c e6b9

bn1.running_var f4 [16]
0.25632858 0.3825621 0.13206463 0.17918804 0.2067326 0.22180374 0.15000401 0.19698948
0.26652014 0.21453789 0.24084112 0.52171445 0.11573358 0.6567133 0.18377426 0.22177361
00000000: 803d 833e 2edf c33e f33b 073e 127d 373e
00000010: b6b1 533e 8520 633e a79a 193e 9cb7 493e
00000020: 5475 883e d2af 5b3e 0e9f 763e 148f 053f
00000030: ba05 ed3d 5d1e 283f 522f 3c3e 9f18 633e

conv2.weight f4 [32, 16, 3, 3]
0.22545487 0.076452196 0.07155173 -0.06406891 0.16322738 0.016980182 0.08316069 0.2111673
0.089258924 0.0034356606 -0.4052491 -0.29604194 0.07370957 0.02403355 -0.23650597 -0.14048693
-0.33444124 -0.093727075 -0.071894616 -0.02947883 0.24106282 0.05269378 0.06823546 -0.20389663
-0.049689133 0.26437718 0.13086846 -0.23348571 -0.3065044 0.04476559 -0.12022945 0.027580282
0.043019883 0.064267375 0.068907395 -0.12093509 -0.08254717 -0.020179262 -0.08153168 0.11029119
-0.16399087 0.06322243 -0.023604967 0.09088664 -0.00013122386 -0.031972196 -0.41244394 -0.14199172
-0.18606587 0.13282429 -0.23166479 -0.046318438 -0.30655468 0.07254097 0.104762055 0.014295018
0.16061945 0.087061964 -0.002377971 -0.27224585 -0.07796089 0.103398375 -0.15325812 -0.20564355
0.01573075 0.2979205 0.074877165 -0.16146243 -0.5369859 -0.3368638 -0.03164883 0.13874933
-0.043274216 0.20429863 0.3320005 -0.08174196 0.013580645 0.0049523036 0.041684162 -0.28554118
0.232416 -0.15374245 0.20681773 0.03163952 -0.11454874 0.042385254 0.06580759 0.11575429
0.068007 0.276883 -0.10683691 -0.110502444 -0.19213596 0.008918325 -0.107037224 -0.2498341
0.095279895 0.22326066 0.022604125 -0.14387368 0.28146243 0.034073513 0.09505321 -0.18776022
-0.10681026 0.108718604 0.12866087 -0.19726053 -0.26890522 0.017180951 0.11873661 -0.02198352
0.052758694 0.16760716 0.047185592 -0.17769201 0.07454052 0.07375847 0.2111598 -0.07059936
-0.02949052 -0.20592353 -0.023841152 0.052164633 0.008227164 -0.28602418 -0.14058234 0.28417394
0.2248912 0.19053115 -0.11418542 -0.061739374 -0.07804919 -0.3807139 0.104756616 -0.03264076
0.09533159 -0.16107959 0.14829946 0.24598941 0.014298607 -0.039110385 -0.14214262 0.082104675
0.08659193 0.070033215 -0.07579157 -0.043910332 -0.09809456 0.28102595 0.39263594 0.026024338
-0.22280206 0.023526466 0.08494339 0.28720486 0.064948834 0.13682316 -0.062112905 -0.061536808
-0.11063325 -0.2846836 -0.0011538264 0.13127989 -0.053871453 -0.059242558 -0.15573706 -0.3665882
-0.32243335 -0.17643972 0.046580296 -0.022561712 -0.38756233 -0.1688257 0.038108367 0.010983061
-0.014471423 0.14070268 -0.117203176 -0.40404406 0.07391868 0.07271027 -0.078723766 -0.044962525
0.18306014 -0.23578796 0.046212625 -0.07756148 -0.09326254 0.10059915 -0.04006047 0.10261131
0.18835932 0.21613204 -0.35183606 -0.080131695 0.015371262 0.05887947 0.09043315 -0.11783937
-0.11931533 -0.05471409 -0.039309036 0.0397283 0.06935292 -0.21179183 0.15031357 -0.13093328
-0.2120678 0.23896354 -0.056183185 -0.004694307 -0.23341034 -0.019875111 -0.603485 -0.04983347
-0.22298287 0.08067807 -0.056885347 0.17096215 0.1561976 -0.4564843 0.123966515 -0.056884415
0.115448214 0.08439602 -0.24965934 0.1310817 0.019541295 -0.20332931 0.076523244 -0.05744417
0.101299934 -0.32148045 0.069950774 -0.04752784 -0.165172 -0.08523807 -0.07036507 -0.03597647
-0.046907295 0.18272017 0.040846206 -0.14619422 -0.11033863 -0.39602068 -0.027949816 -0.17178866
-0.15978374 -0.0087931175 0.07727474 -0.008047236 0.22932464 0.026551379 -0.07520413 0.16011277
00000000: a4dd 663e f892 9c3d b789 923d 9036 83bd
00000010: 1425 273e 061a 8b3c 2750 aa3d 3e3c 583e
00000020: 62cd b63d d228 613b cf7c cfbe cf92 97be
00000030: 0bf5 963d 02e2 c43c 9f2e 72be cedb 0fbe
00000040: e23b abbe fbf3 bfbd 7c3d 93bd 967d f1bc
00000050: 2cd9 763e 6fd5 573d 08bf 8b3d 47ca 50be
00000060: d586 4bbd 725c 873e 6202 063e e116 6fbe
00000070: 25ee 9cbe 205c 373d dc3a f6bd 0bf0 e13c
00000080: 9e35 303d 9d9e 833d 521f 8d3d d1ac f7bd
00000090: 7e0e a9bd fb4e a5bc 15fa a6bd 59e0 e13d
000000a0: 39ed 27be c37a 813d 345f c1bc c622 ba3d
000000b0: 2399 09b9 47f5 02bd da2b d3be 4766 11be
000000c0: 0d88 3ebe 1703 083e 8939 6dbe 67b8 3dbd
000000d0: bcf4 9cbe 5c90 943d 7d8d d63d a735 6a3c
000000e0: 6d79 243e 8b4d b23d bcd7 1bbb cf63 8bbe
000000f0: f6a9 9fbd 87c2 d33d b2ef 1cbe 3994 52be
00000100: c6dd 803c 0989 983e 3359 993d 6856 25be
00000110: e877 09bf 6979 acbe 34a2 01bd 4e14 0e3e
00000120: 4e40 31bd a933 513e f8fb a93e 5468 a7bd
00000130: 5b81 5e3c ef46 a23b 03bd 2a3d 7432 92be
00000140: 76fe 6d3e a96e 1dbe 07c8 533e 7198 013d
00000150: 8898 eabd 299c 2d3d 21c6 863d 9610 ed3d
00000160: 4147 8b3d 9cc3 8d3e 4fcd dabd 1b4f e2bd
00000170: 4abf 44be 2b1e 123c 5536 dbbd 83d4 7fbe
00000180: 1b22 c33d 719e 643e 492c b93c 9f53 13be
00000190: d81b 903e ab90 0b3d 42ab c23d 3744 40be
000001a0: 56bf dabd dca7 de3d adbf 033e aafe 49be
000001b0: f2ad 89be 11bf 8c3c 2e2c f33d c816 b4bc
000001c0: 8019 583d 36a1 2b3e ae45 413d e5f4 35be
000001d0: b3a8 983d ae0e 973d 463a 583e 6696 90bd
000001e0: 1a96 f1bc 9edd 52be 854e c3bc 95aa 553d
000001f0: 3acb 063c c371 92be d1f4 0fbe 3f7f 913e
00000200: e149 663e 991a 433e 0cda e9bd 6de2 7cbd
00000210: 41d8 9fbd efec c2be a38a d63d 51b2 05bd
00000220: 353d c33d 0cf2 24be d0db 173e a6e4 7b3e
00000230: b444 6a3c 3632 20bd d68d 11be 7f26 a83d
00000240: 1c57 b13d 936d 8f3d 9c38 9bbd 52db 33bd
00000250: cde5 c8bd a2e2 8f3e 9407 c93e fe30 d53c
00000260: 3926 64be 93ba c03c cdf6 ad3d 840c 933e
00000270: e503 853d 5f1b 0c3e 1a6a 7ebd 050e 7cbd
00000280: af93 e2bd 0cc2 91be fd3b 97ba 3c6e 063e
00000290: 50a8 5cbd 53a8 72bd 8979 1fbe 73b1 bbbe
000002a0: fc15 a5be 9dac 34be fbca 3e3d 57d3 b8bc
000002b0: 926e c6be a5e0 2cbe 8517 1c3d 4cf2 333c
000002c0: 8c19 6dbc 5d14 103e 3808 f0bd ddde cebe
000002d0: ad62 973d 1fe9 943d ed39 a1bd a02a 38bd
000002e0: 1e74 3b3e 6672 71be 7349 3d3d 8ed8 9ebd
000002f0: 6e00 bfbd ed06 ce3d 7316 24bd e125 d23d
00000300: 44e1 403e b851 5d3e db23 b4be 161c a4bd
00000310: bfd7 7b3c 992b 713d 0435 b93d c555 f1bd
00000320: 995b f4bd e21b 60bd 8302 21bd 24ba 223d
00000330: e708 8e3d f5df 58be cdeb 193e 6013 06be
00000340: 4d28 59be dcb2 743e 5720 66bd b4d2 99bb
00000350: 1f03 6fbe 21d1 a2bc fe7d 1abf 2e1e 4cbd
00000360: 9f55 64be 8b3a a53d 9c00 69bd b410 2f3e
00000370: 43f2 1f3e 4fb8 e9be 28e2 fd3d a2ff 68bd
00000380: 1d70 ec3d d2d7 ac3d b3a6 7fbe 483a 063e
00000390: 1115 a03c 8f35 50be 38b8 9c3d 944a 6bbd
000003a0: 5776 cf3d 1699 a4be 5a42 8f3d 8dac 42bd
000003b0: d922 29be 4c91 aebd 901b 90bd 105c 13bd
000003c0: dd21 40bd ff1a 3b3e 5a4e 273d f0b3 15be
000003d0: 38f9 e1bd 39c3 cabe 03f7 e4bc 5ee9 2fbe
000003e0: 599e 23be 0211 10bc 3842 9e3d 8ed8 03bc
000003f0: 14d4 6a3e 4782 d93c 9f04 9abd 9af4 233e

conv2.bias f4 [32]
0.00040731693 0.0008413987 0.0009650792 0.0005141361 -9.5268595e-05 0.00045030031 0.0004868686 0.002059277
0.00010181869 -0.0009155001 -0.0014411958 0.00050994614 -0.0007491851 -0.00015583611 0.00051810616 0.0010122387
-0.00044278282 0.0009043573 -0.0005498642 0.00047596643 0.0003017743 0.0005047569 -0.00063825544 0.0006825675
0.0002035438 0.00040842098 -0.0004083198 -0.00015017317 0.0003488316 -4.7728343e-05 0.000520274 -4.282264e-05
00000000: 278d d539 5091 5c3a 5efd 7c3a 17c7 063a
00000010: f0ca c7b8 4916 ec39 6642 ff39 eff4 063b
00000020: 7e87 d538 2cfe 6fba 82e6 bcba e8ad 053a
00000030: f664 44ba f067 23b9 84d1 073a 18ad 843a
00000040: 4e25 e8b9 6412 6d3a c324 10ba 228b f939
00000050: 7637 9e39 aa51 043a 9950 27ba 54ee 323a
00000060: 5f6e 5539 5621 d639 c113 d6b9 ce77 1db9
00000070: 63e3 b639 eb2f 48b8 ff62 083a 769c 33b8

bn2.weight f4 [32]
1.7591416 1.7708905 1.7915761 1.6938584 1.7612307 1.7813426 1.5933563 1.805655
1.7084346 1.82511 1.8150057 1.6916001 1.8839937 1.6232702 1.6626115 1.991552
2.0040984 1.5733193 1.9186959 1.7013017 1.6936244 1.6181346 1.5973266 1.7011353
1.7637943 1.8736727 1.5801352 1.6955506 1.6086102 1.8290293 1.5889516 1.826878
00000000: 8d2b e13f 8aac e23f 5e52 e53f 5ad0 d83f
00000010: 0270 e13f 0903 e43f 19f3 cb3f b41f e73f
00000020: fcad da3f 349d e93f 1b52 e83f 5a86 d83f
00000030: b526 f13f 51c7 cf3f 74d0 d43f 2deb fe3f
00000040: 2643 0040 8762 c93f d497 f53f 41c4 d93f
00000050: afc8 d83f 091f cf3f 3375 cc3f cdbe d93f
00000060: 03c4 e13f 82d4 ef3f df41 ca3f cd07 d93f
00000070: f0e6 cd3f a21d ea3f c462 cb3f 23d7 e93f

bn2.bias f4 [32]
-0.47227296 -0.5573438 -0.4310112 -0.5428626 -0.7413942 -0.52267 -0.760449 -0.5450684
-0.6396989 -1.0404688 -0.6238266 -0.7844022 -0.7246115 -0.78902125 -0.5818581 -0.77460986
-1.0035545 -0.5606613 -0.7937197 -0.51892495 -0.6272194 -0.50320673 -0.6650061 -0.65333146
-0.99586606 -0.6648811 -0.8348518 -0.68243146 -0.70371187 -0.5169361 -0.45468423 -0.83088464
00000000: c3cd f1be 15ae 0ebf 80ad dcbe 0bf9 0abf
00000010: 03cc 3dbf b3cd 05bf c9ac 42bf 9a89 0bbf
00000020: 4fc3 23bf 152e 85bf 1ab3 1fbf 95ce 48bf
00000030: 2480 39bf 4cfd 49bf a7f4 14bf d54c 46bf
00000040: 7974 80bf 8087 0fbf 3731 4bbf 44d8 04bf
00000050: 7391 20bf 28d2 00bf d73d 2abf bb40 27bf
00000060: 14f1 7ebf a635 2abf d9b8 55bf d4b3 2ebf
00000070: 7626 34bf ed55 04bf 5fcc e8be dbb4 54bf

bn2.running_mean f4 [32]
-0.6692498 -0.69400555 -0.39278686 -0.91080153 -0.19458352 -0.70598924 -0.47488767 -0.4479495
-1.105304 0.734553 -0.70096195 -0.13720506 -0.8515764 0.6720378 -0.7679428 -0.25410587
0.9079329 -0.6486339 -0.53466195 -0.43673652 0.26556912 -0.47300145 0.36513355 -0.30595103
0.3742947 0.09007588 0.3835721 -0.4706552 0.1487394 -1.1111697 -0.6686288 0.71832484
00000000: f453 2bbf 59aa 31bf 5c1b c9be 4a2a 69bf
00000010: e740 47be b6bb 34bf 7a24 f3be a359 e5be
00000020: 9a7a 8dbf aa0b 3c3f 3e72 33bf 7c7f 0cbe
00000030: e900 5abf ab0a 2c3f e697 44bf 2a1a 82be
00000040: 4a6e 683f df0c 26bf 9bdf 08bf ee9b dfbe
00000050: adf8 873e 3f2d f2be c9f2 ba3e 9da5 9cbe
00000060: 8ea3 bf3e b479 b83d 9063 c43e b8f9 f0be
00000070: 244f 183e cf3a 8ebf 422b 2bbf 23e4 373f

bn2.running_var f4 [32]
0.5248771 0.634203 0.5336246 0.60642713 0.5586064 0.54844964 0.5463419 0.4553585
0.7598214 0.5184941 0.62539995 0.5537979 0.7768795 0.66144824 0.64881134 0.488522
0.5680385 0.7063554 0.5593078 0.573691 0.45247227 0.566088 0.65836364 0.58441377
0.4758787 0.4683105 0.5714755 0.50231314 0.39361846 0.7611782 0.694294 0.39461973
00000000: 585e 063f 215b 223f 9f9b 083f cf3e 1b3f
00000010: d400 0f3f 3267 0c3f 10dd 0b3f c024 e93e
00000020: a883 423f 08bc 043f 361a 203f b3c5 0d3f
00000030: 93e1 463f ac54 293f 8018 263f 8e1f fa3e
00000040: f96a 113f b5d3 343f cc2e 0f3f 6add 123f
00000050: 72aa e73e 25eb 103f 858a 283f 249c 153f
00000060: 5fa6 f33e 65c6 ef3e 384c 123f 9897 003f
00000070: 5c88 c93e 93dc 423f 40bd 313f 990b ca3e

fc1.weight f4 [128, 640]
0.12568174 0.031949885 -0.031318344 0.36198235 0.15435937 -0.07394048 0.1546558 0.17635311
-0.2011812 -0.024935491 0.14255051 -0.3366136 0.26912114 0.29209036 0.019959968 0.07487356
-0.12522787 0.10142287 -0.026508015 -0.070861444 -0.044859257 0.115913056 0.32208288 0.19784099
0.15524273 0.029152976 -0.12251131 0.2443242 -0.16404933 0.048575148 0.08317507 0.013265419
-0.23279543 0.08615374 0.03419304 -0.16453873 0.04330872 0.04936891 0.09784442 -0.047755405
0.1884301 0.25181735 -0.02749046 -0.15612873 -0.020864313 -0.09516317 -0.003647256 0.08020298
-0.029482873 0.2314775 -0.057347186 0.048086107 0.14115092 0.003128204 0.0063574472 0.027190395
0.33897325 -0.17306195 -0.15505655 -0.011922251 -0.0143214045 -0.05253956 -0.15083574 0.3124617
0.25840124 0.25328758 -0.16898692 0.30784756 -0.046670187 0.003934763 -0.05416456 -0.08601585
0.07221531 -0.1501779 -0.081407666 -0.05743634 -0.10903562 -0.45456418 0.09210799 -0.10961029
-0.14157505 0.051808037 0.020847695 0.06546765 0.0013231082 -0.31330773 -0.115520306 0.06595188
0.30247763 -0.21403041 0.112095356 0.052294426 0.07940099 -0.27139175 0.027455103 -0.09114092
0.11769339 0.20280217 -0.020060394 0.04028822 0.18343395 -0.18987706 0.07509228 -0.27036935
0.082346 0.020475563 -0.03404558 0.23911682 -0.05179317 0.104642116 -0.3675597 0.086242974
-0.21591811 0.07265595 -0.039873153 -0.25881016 0.17465346 -0.0141037125 -0.15362392 -0.03515377
0.097973116 -0.057182785 -0.09930047 -0.03803725 -0.1845513 -0.016219262 0.16370276 -0.12206903
0.058471486 -0.06971368 -0.052302655 -0.09132358 -0.105052814 -0.1966676 -0.28649074 0.010002591
0.026201159 0.2086914 0.11190529 -0.13026743 0.044754926 0.15347672 -0.11801989 0.19142197
0.34693354 -0.58405185 -0.13010794 -0.1334083 0.1673538 -0.082209654 0.36784855 0.24929206
0.32695785 0.046012994 0.18768476 0.51487744 0.13804829 0.12010545 0.010764252 0.10406839
0.078235604 0.016092788 0.058854774 -0.063968174 0.17863576 0.19216189 0.1290125 -0.00031657456
0.096038 0.047437243 -0.1311211 0.24869922 -0.2187153 0.055530768 0.086908534 -0.0026291835
0.18806915 -0.4786306 0.15009083 -0.09812349 0.0059077134 0.051601138 0.16060807 0.22098403
0.0702323 -0.06248429 -0.13454902 0.12185462 0.2428091 -0.2922994 0.07583458 -0.22776541
-0.07396461 -0.030539654 0.02745875 0.103146404 -0.12559871 -0.06703441 -0.117443174 -0.051717494
-0.26913887 0.20645642 -0.047297537 0.042126823 0.09264718 -0.14184713 0.14669557 -0.1268906
-0.056229092 -0.14250006 -0.23082137 0.48454672 -0.1234483 -0.17567632 0.28166875 0.033907052
0.120393574 0.022535138 -0.09859293 0.009701657 0.16603889 -0.116051205 0.10495128 0.18923369
0.4055511 -0.06941127 -0.12335924 -0.21415123 -0.01471285 -0.1483668 -0.18663429 0.038692757
0.10734362 0.075689174 -0.26657805 0.10352947 0.22252624 0.07527145 0.021819465 0.07962344
0.07387004 0.00827276 -0.07714457 0.05992243 -0.14963841 -0.06518503 0.08355339 0.35208327
-0.02295699 -0.10543864 -0.07067628 0.07034611 -0.024862606 0.27873245 -0.026646284 0.2967583
00000000: b7b2 003e e2dd 023d aa47 00bd c055 b93e
00000010: 6210 1e3e 1b6e 97bd 175e 1e3e e995 343e
00000020: 7202 4ebe 8445 ccbc c3f8 113e 9e58 acbe
00000030: 3fca 893e de8c 953e 1683 a33c 4f57 993d
00000040: bc3b 00be cbb6 cf3d 5627 d9bc ce1f 91bd
00000050: 57be 37bd d363 ed3d 0ce8 a43e d496 4a3e
00000060: f3f7 1e3e 39d2 ee3c 36e7 fabd 2030 7a3e
00000070: 8cfc 27be bcf6 463d b157 aa3d 3357 593c
00000080: ed61 6ebe 5f71 b03d 000e 0c3d d77c 28be
00000090: 7c64 313d 0e37 4a3d a862 c83d 2c9b 43bd
000000a0: d2f3 403e 34ee 803e ac33 e1bc 36e0 1fbe
000000b0: a3eb aabc e8e4 c2bd cd06 6fbb 7641 a43d
000000c0: 1186 f1bc 7008 6d3e e2e4 6abd f0f5 443d
000000d0: de89 103e 8e02 4d3b 2252 d03b 64be de3c
000000e0: e78d ad3e 2737 31be 25c7 1ebe 8c55 43bc
000000f0: 53a4 6abc b933 57bd af74 1abe fbfa 9f3e
00000100: 2b4d 843e e9ae 813e e80a 2dbe 329e 9d3e
00000110: 3d29 3fbd 2fef 803b a8db 5dbd 1429 b0bd
00000120: 9fe5 933d 3cc8 19be 10b9 a6bd 5e42 6bbd
00000130: 114e dfbd a3bc e8be 1da3 bc3d 5c7b e0bd
00000140: 0df9 10be aa34 543d c9c8 aa3c e713 863d
00000150: 256c ad3a df69 a0be e995 ecbd c711 873d
00000160: 59de 9a3e ca2a 5bbe 4092 e53d ae32 563d
00000170: fc9c a23d dcf3 8abe 86e9 e03c 17a8 babd
00000180: 3b09 f13d 5fab 4f3e b255 a4bc 4305 253d
00000190: 1cd6 3b3e 226f 42be fbc9 993d da6d 8abe
000001a0: 05a5 a83d 5ebc a73c 6173 0bbd 0adb 743e
000001b0: 1325 54bd 9b4e d63d c930 bcbe 28a0 b03d
000001c0: a319 5dbe a5cc 943d 0852 23bd c482 84be
000001d0: 5bd8 323e 4213 67bc 974f 1dbe 66fd 0fbd
000001e0: 21a6 c83d 7f38 6abd 0b5e cbbd f3cc 1bbd
000001f0: 04fb 3cbe 42de 84bc b2a1 273e 54ff f9bd
00000200: cc7f 6f3d 0cc6 8ebd 4f3b 56bd db07 bbbd
00000210: ee25 d7bd 3b63 49be eaae 92be e8e1 233c
00000220: d0a3 d63c 33b3 553e 9a2e e53d d364 05be
00000230: f150 373d 0029 1d3e 69b4 f1bd 1f04 443e
00000240: 46a1 b13e 6c84 15bf 043b 05be 2f9c 08be
00000250: cb5e 2b3e 895d a8bd a556 bc3e 6b46 7f3e
00000260: 0567 a73e 1f78 3c3d 6f30 403e 02cf 033f
00000270: 885c 0d3e d9f9 f53d 8c5c 303c cf21 d53d
00000280: fd39 a03d 06d5 833c b411 713d bf01 83bd
00000290: 4bec 363e 16c6 443e da1b 043e ebf9 a5b9
000002a0: 92af c43d 8e4d 423d 9c44 06be 02ab 7e3e
000002b0: e7f6 5fbe 3b74 633d 1afd b13d 614e 2cbb
000002c0: 3395 403e 120f f5be 69b1 193e f8f4 c8bd
000002d0: 7e95 c13b b75b 533d 7176 243e a349 623e
000002e0: f4d5 8f3d 87ef 7fbd 38c7 09be ea8e f93d
000002f0: f3a2 783e 44a8 95be 294f 9b3d 563b 69be
00000300: c27a 97bd 4c2e fabc 2cf1 e03c 6c3e d33d
00000310: f39c 00be 5649 89bd 0c86 f0bd b9d5 53bd
00000320: 92cc 89be 5069 533e 10bb 41bd 2d8d 2c3d
00000330: cebd bd3d 6040 11be 5d37 163e 9cef 01be
00000340: 7a50 66bd 89eb 11be 705c 6cbe 8216 f83e
00000350: 76d2 fcbd 7ee4 33be e336 903e 1fe2 0a3d
00000360: e890 f63d 9c9b b83c 17eb c9bd b3f3 1e3c
00000370: 1906 2a3e 41ac edbd b2f0 d63d 7ac6 413e
00000380: 65a4 cf3e 7f27 8ebd c5a3 fcbd 764a 5bbe
00000390: 2a0e 71bc 77ed 17be 0f1d 3fbe 4c7c 1e3d
000003a0: f9d6 db3d ed02 9b3d eb7c 88be 4207 d43d
000003b0: ebdd 633e eb27 9a3d bcbe b23c 9d11 a33d
000003c0: 2d49 973d 788a 073c f9fd 9dbd 3971 753d
000003d0: d03a 19be bb7f 85bd 0a1e ab3d 4244 b43e
000003e0: 4c10 bcbc 37f0 d7bd babe 90bd 9f11 903d
000003f0: aaac cbbc 05b6 8e3e 4f49 dabc b4f0 973e

fc1.bias f4 [128]
-0.07987211 0.027654968 -0.08993527 0.028547928 0.0151172485 -0.049582653 -0.016796818 0.08656154
-0.033669632 0.063354686 -0.077666335 -0.060601044 1.0345771e-05 -0.093376115 -0.020199746 0.027571917
0.012900188 -0.020967336 -0.055048663 0.053428993 0.023534892 -0.006442433 0.048715636 0.018026395
0.0038072157 -0.068588175 0.00047421438 0.028701603 -0.009727054 0.018387293 0.057978127 0.026602529
-0.018006973 -0.06785348 -0.0036404293 -0.011134795 0.030553041 0.045039974 0.06256016 -0.017611833
0.026382394 -0.022101354 -0.0017402066 -0.04821532 -0.023290155 0.036406226 -0.090843394 -0.07710597
0.00959152 -0.07161432 -0.06957696 0.04490294 0.08737738 0.06632498 0.03160833 -0.03901541
0.038371358 -0.14385948 0.06390895 0.13096441 -0.10073443 0.029482204 0.05999186 -0.015171484
-0.055874385 0.05171134 0.0109435 0.004194353 0.03205561 0.033776585 0.14585888 -0.007875978
-0.04263429 -0.012754115 -0.0030073 -0.03520024 -0.044483818 0.028882181 0.045193467 -0.050484702
-0.0010298291 -0.020829706 -0.0746843 -0.106817126 -0.0075534913 0.04711334 0.014728302 -0.07140942
-0.040583342 -0.046237394 -0.012524931 -0.04565627 -0.122414246 0.0059670685 -0.057844453 -0.028829096
-0.011489928 -0.015388894 -0.0812629 -0.0947995 -0.03823248 -0.14107707 0.06379615 -0.015321641
0.05104996 0.10960504 0.043948114 -0.032809805 0.07062389 -0.026245909 0.013818368 -0.072890885
-0.010599965 -0.11215954 -0.03691446 -0.13271457 0.015803337 -0.027111463 -0.008189171 -0.06819917
-0.046371523 -0.04199381 0.11249314 0.047777534 0.0064197043 -0.080695845 0.03079735 -0.0046809334
00000000: fd93 a3bd ac8c e23c fc2f b8bd 58dd e93c
00000010: 56ae 773c 2e17 4bbd 7b99 89bc 2d47 b13d
00000020: 2be9 09bd 1ac0 813d 870f 9fbd cd38 78bd
00000030: c092 2d37 fa3b bfbd f079 a5bc 80de e13c
00000040: 4f5b 533c b1c3 abbc b57a 61bd 5cd8 5a3d
00000050: 3fcc c03c 0c1b d3bb 0c8a 473d 17ac 933c
00000060: 7b82 793b f577 8cbd fa9f f839 a01f eb3c
00000070: 395e 1fbc f3a0 963c 797a 6d3d 8ced d93c
00000080: 5c83 93bc c4f6 8abd 4594 6ebb b76e 36bc
00000090: 5f4a fa3c d67b 383d 8b1f 803d b146 90bc
000000a0: e41f d83c e60d b5bc a517 e4ba 6d7d 45bd
000000b0: ffca bebc b21e 153d 1a0c babd bce9 9dbd
000000c0: c025 1d3c 87aa 92bd 5d7e 8ebd 25ec 373d
000000d0: e9f2 b23d 64d5 873d bc77 013d 9fce 1fbd
000000e0: 492b 1d3d e64f 13be b2e2 823d 891b 063e
000000f0: da4d cebd aa84 f13c 06ba 753d d191 78bc
00000100: 8adc 64bd 45cf 533d 5e4c 333c c870 893b
00000110: be4c 033d 5159 0a3d 085c 153e 3f0a 01bc
00000120: 4ba1 2ebd a3f6 50bc 1f16 45bb 202e 10bd
00000130: aa34 36bd 539a ec3c c91c 393d 0cc9 4ebd
00000140: 55fb 86ba 0fa3 aabc 15f4 98bd f0c2 dabd
00000150: 4783 f7bb ebf9 403d fa4e 713c 1a3f 92bd
00000160: b83a 26bd 6c63 3dbd 5e35 4dbc 1202 3bbd
00000170: 52b4 fabd 6687 c33b 4eee 6cbd ff2a ecbc
00000180: 4040 3cbc b321 7cbc 2a6d a6bd 3e26 c2bd
00000190: a999 1cbd 8276 10be 8ea7 823d 9f07 7bbc
000001a0: c319 513d 9b78 e03d f002 343d 9363 06bd
000001b0: 42a3 903d a901 d7bc 7066 623c d147 95bd
000001c0: 7aab 2dbc e7b3 e5bd 9e33 17bd 54e6 07be
000001d0: 0076 813c dc18 debc df2b 06bc 02ac 8bbd
000001e0: 11f0 3dbd b401 2cbd ce62 e63d 60b2 433d
000001f0: 625c d23b dd43 a5bd b94a fc3c 8462 99bb

fc2.weight f4 [3, 128]
-0.055241153 0.002544173 -0.1158109 0.09717541 0.08452627 -0.06149878 0.048257984 0.101407275
-0.07695308 0.14218283 -0.08814805 0.1010602 -0.052111577 -0.01850132 0.043270614 0.05496691
0.10872883 -0.072066456 -0.06777532 0.10815129 -0.03710772 0.04141658 0.15859114 0.09405819
-0.09274801 -0.058846258 -0.14433742 -0.07029714 -0.0417087 0.017663106 0.06434938 0.08634756
-0.099951796 -0.026643781 0.10413078 0.063012116 0.049605943 0.12538005 -0.07273271 -0.053881403
0.08530461 -0.13288975 0.054325562 -0.063814424 -0.0071419077 0.06602431 -0.14253348 -0.04497821
-0.048715856 -0.0716474 -0.08188799 0.1069282 0.07338807 0.111305185 0.058451653 0.074884705
0.029634992 -0.0388852 -0.05121569 0.081041194 -0.08470536 0.054482244 0.061721716 0.057392634
0.13035765 -0.0034835464 0.08775176 0.023406185 0.017884668 0.036564026 0.06266572 0.1286245
0.10811881 -0.0501181 -0.08726327 -0.05906029 0.03061829 0.032974236 -0.043498397 -0.06617399
0.021789141 -0.01659157 -0.044261023 -0.082955584 -0.083781525 -0.044893853 0.03749002 0.025150346
0.063706346 -0.07498664 0.010007207 0.1133229 -0.05554367 0.07297466 -0.0145768635 -0.08178001
0.014419444 0.12577794 -0.065568164 -0.032458507 -0.08274227 -0.09466257 0.014435421 0.008721637
0.08096514 0.06714068 0.08842581 0.060467616 -0.017804405 -0.03187703 0.051563635 0.08439543
0.04822096 0.0048527736 -0.03589427 -0.078424014 0.001459348 -0.084275834 0.14962228 -0.07740048
-0.050172996 -0.12484677 -0.0129756555 0.09615189 -0.048966657 -0.10637286 0.065479465 0.081218876
0.06844148 -0.07071686 0.03802077 -0.054387428 -0.06389392 0.05048651 -0.083716035 -0.04441207
0.06408302 0.042248033 -0.086436786 -0.023485266 -0.03654563 0.09276218 0.088523075 -0.0018259926
0.07114939 -0.022856565 0.061397597 -0.00233436 -0.016914064 -0.012927932 0.019092191 0.026851427
-0.014777912 0.07473682 0.014914191 0.0611241 0.07723803 0.025253521 -0.024494184 -0.0521119
0.041058343 0.035234824 -0.017956294 0.014525693 0.004226476 -0.024140988 -0.09427595 0.05544865
-0.016606575 -0.018648757 -0.04523045 0.07544383 0.07266167 -0.06793387 0.002372616 0.11503402
-0.012273951 -0.026800523 -0.051725034 0.0732048 -0.0509349 0.06413868 -0.092262425 -0.062806986
-0.080752276 0.10964181 0.112902425 -0.060711857 0.08294841 -0.054016292 -0.070848405 0.042840205
0.025680117 0.06052125 -0.04110358 0.0687194 -0.09193658 0.06389384 -0.054156385 -0.007084548
-0.010369825 -0.041854743 0.054655448 -0.0029635374 0.07183791 0.031043915 0.022347655 0.07251837
-0.041951414 -0.07255305 0.08804446 -0.016769972 0.013476405 0.046760496 -0.051927224 0.108562544
0.05337233 -0.06988509 -0.003638859 -0.014447258 0.0941529 0.056680597 -0.023124577 0.057572354
0.107929565 0.061186258 0.08921694 0.030866204 -0.037360698 0.062031787 -0.06954757 0.09040868
0.07656879 -0.076533645 -0.0628779 0.028256606 -0.05349029 0.013875763 -0.08284347 -0.034682404
-0.028825296 0.08866948 -0.023224812 0.057935663 0.03638516 0.04275311 0.019332409 0.06469792
0.06392889 -0.014058457 -0.051113747 0.0057857377 0.087023325 0.019284507 -0.059259802 -0.07367614
00000000: 8c44 62bd 24bc 263b 442e edbd e703 c73d
00000010: 1c1c ad3d 25e6 7bbd 2aaa 453d 9eae cf3d
00000020: 9499 9dbd 6098 113e f786 b4bd a6f8 ce3d
00000030: f372 55bd 1590 97bc 873c 313d fc24 613d
00000040: 39ad de3d 9497 93bd c9cd 8abd 6c7e dd3d
00000050: 44fe 17bd 6fa4 293d b765 223e 95a1 c03d
00000060: abf2 bdbd c608 71bd 30cd 13be f2f7 8fbd
00000070: bed6 2abd 38b2 903c 9cc9 833d fdd6 b03d
00000080: 87b3 ccbd 0f44 dabc 8542 d53d 7f0c 813d
00000090: 9a2f 4b3d a163 003e e3f4 94bd bfb2 5cbd
000000a0: 2fb4 ae3d 4014 08be 7b84 5e3d 23b1 82bd
000000b0: aa06 eabb c137 873d 4cf4 11be 123b 38bd
000000c0: 478a 47bd dfbb 92bd e4b4 a7bd 2cfd da3d
000000d0: 7c4c 963d f9f3 e33d 006b 6f3d 275d 993d
000000e0: 15c5 f23c 1646 1fbd 8bc7 51bd edf8 a53d
000000f0: 017a adbd c628 5f3d e9cf 7c3d 8a14 6b3d
00000100: 7a7c 053e 364c 64bb 32b7 b33d 54be bf3c
00000110: de82 923c 29c4 153d e356 803d 24b6 033e
00000120: 656d dd3d a348 4dbd 16b7 b2bd 34e9 71bd
00000130: 35d3 fa3c fe0f 073d 602b 32bd 3b86 87bd
00000140: 247f b23c 0beb 87bc 0c4b 35bd 9ee4 a9bd
00000150: a695 abbd 9ee2 37bd 238f 193d 1908 ce3c
00000160: 7978 823d 9892 99bd 45f5 233c d615 e83d
00000170: c281 63bd bd73 953d ccd3 6ebc 477c a7bd
00000180: 883f 6c3c efcb 003e 9a48 86bd 36f3 04bd
00000190: c774 a9bd 73de c1bd 8b82 6c3c 32e5 0e3c
000001a0: 0dd1 a53d 0e81 893d 9718 b53d e4ac 773d
000001b0: 8bda 91bc 7d91 02bd 6434 533d 83d7 ac3d
000001c0: 5783 453d 0404 9f3b df05 13bd c59c a0bd
000001d0: 9847 bf3a cf98 acbd 9536 193e 2584 9ebd
000001e0: 3382 4dbd aaaf ffbd d897 54bc 48eb c43d
000001f0: 4391 48bd 04da d9bd 191a 863d 1556 a63d
00000200: 0c2b 8c3d 00d4 90bd abbb 1b3d 5ac5 5ebd
00000210: d1da 82bd f1ca 4e3d 5073 abbd 6ee9 35bd
00000220: f53d 833d 460c 2d3d c505 b1bd 2c64 c0bc
00000230: dfb0 15bd 19fa bd3d 964b b53d 2556 efba
00000240: c5b6 913d b13d bbbc 0c7c 7b3d 10fc 18bb
00000250: 5d8f 8abc adcf 53bc 3a67 9c3c 86f7 db3c
00000260: 0e1f 72bc 9e0f 993d a75a 743c 445d 7a3d
00000270: f92e 9e3d 79e0 ce3c 07a8 c8bc 4a73 55bd
00000280: cb2c 283d 6452 103d 1419 93bc 2cfd 6d3c
00000290: 407e 8a3b 52c3 c5bc c013 c1bd 201e 633d
000002a0: 830a 88bc 47c5 98bc 9043 39bd 4b82 9a3d
000002b0: a4cf 943d ea20 8bbd e47d 1b3b f596 eb3d
000002c0: af18 49bc c58c dbbc a1dd 53bd 66ec 953d
000002d0: 1da1 50bd 245b 833d 15f4 bcbd f3a0 80bd
000002e0: 7361 a5bd e38b e03d 6339 e73d ffac 78bd
000002f0: dbe0 a93d 3040 5dbd f818 91bd 3679 2f3d
00000300: 1c5f d23c 21e5 773d 3a5c 28bd c2bc 8c3d
00000310: 3f49 bcbd c6da 823d 16d3 5dbd 7f25 e8bb
00000320: 33e6 29bc e16f 2bbd 64de 5f3d e837 42bb
00000330: c11f 933d cf4f fe3c 6e12 b73c 8384 943d
00000340: 3fd5 2bbd b296 94bd a750 b43d 2e61 89bc
00000350: 24cc 5c3c ef87 3f3d a4b1 54bd 0a56 de3d
00000360: f29c 5a3d ea1f 8fbd ec79 6ebb 31b4 6cbc
00000370: 3cd3 c03d ea29 683d c16f bdbc fdd0 6b3d
00000380: 2d0a dd3d 719e 7a3d 5fb7 b63d 1fdb fc3c
00000390: 8807 19bd 0b15 7e3d f56e 8ebd 3028 b93d
000003a0: 19d0 9c3d acbd 9cbd 21c6 80bd 667a e73c
000003b0: a218 5bbd 2b57 633c d6a9 a9bd 230f 0ebd
000003c0: 0723 ecbc 5898 b53d f641 bebc f24d 6d3d
000003d0: 9b08 153d e31d 2f3d 005f 9e3c 5880 843d
000003e0: 26ed 823d 7155 66bc a65c 51bd 4996 bd3b
000003f0: 4939 b23d 8bfa 9d3c 68ba 72bd 84e3 96bd

fc2.bias f4 [3]
0.07129197 -0.07778802 -0.08541169
00000000: 8601 923d 534f 9fbd 53ec aebd
