results/arousal/classification_3/20251226_101240_754417/best_model.pt (torch, 519605 bytes, 16 tensors)

conv1.weight f4 [16, 1, 3, 3]
000000 1d 3c 0d 3e f2 7a ac 3e b7 ed 80 be 27 b6 89 3e
       0.13792463 0.3368755 -0.25181362 0.26896784
000010 83 b4 83 bd 75 1e 65 3d 4f a3 31 be 38 62 74 3e
       -0.06430914 0.05593725 -0.17347454 0.23865592
000020 a2 0e 07 3f 12 79 cb be a9 03 ae 3e 3b e7 8b 3e
       0.527567 -0.39740807 0.33987167 0.27324852
000030 4d 8f 78 3e ba b3 a0 bc f5 8c ff 3d 8b 96 69 3d
       0.24273415 -0.01961695 0.12478057 0.057028335
000040 57 1c 8e 3e a1 11 c9 bd 07 b1 81 bd b3 80 6b 3d
       0.27755997 -0.098178156 -0.063325934 0.057495784
000050 e9 ed 57 be 28 8a 20 be 9f 62 db bd c0 19 f6 3e
       -0.2108685 -0.15677702 -0.1071217 0.4806652
000060 50 fa 57 be 0a 2a 26 be 60 47 d1 bd b2 dd e0 bd
       -0.2109158 -0.16226974 -0.10218692 -0.10979785
000070 32 d5 6d bd aa a5 fb be b9 09 8d 3e 53 4d ab be
       -0.058064647 -0.4914983 0.2754648 -0.3345743
000080 fa cd 92 3e 46 4c 14 3e ba 38 95 bd 7f 4c cb 3e
       0.28672773 0.14482221 -0.0728621 0.397068
000090 41 57 46 bd 0c 3b ae 3e 50 df 9c bc 1d c0 36 be
       -0.048423056 0.34029424 -0.019149452 -0.17846723
0000a0 e0 1c 99 3d 05 fe ae be e3 fe 0a 3d df 71 d2 3e
       0.074762106 -0.34178177 0.033934485 0.41102502
0000b0 20 33 68 3e 58 9f bd bd b3 93 84 3e 17 2c e4 3d
       0.22675753 -0.09258908 0.25893936 0.11141222
0000c0 66 00 0e 3e 1f d2 72 be 89 30 c4 be 1f b8 97 bd
       0.1386734 -0.23712967 -0.3831828 -0.07408165
0000d0 b1 81 cb be 1a 73 cd 3e 9d 84 86 3d 7c d3 89 3e
       -0.39747384 0.40126878 0.06568263 0.26919162
0000e0 3c b4 98 3d 16 b2 85 3c bc 7a ab 3e dc 4f cd be
       0.07456252 0.01632027 0.33492076 -0.4009999
0000f0 95 e0 f0 bd e8 f3 93 be 6b 2a 30 bb 33 58 bb bd
       -0.117615856 -0.28897023 -0.0026880752 -0.09147682
000100 92 5e 5b 3d 1e fe 9c bd b4 d8 80 3e 1c 5e 41 be
       0.053556986 -0.076656565 0.2516533 -0.18883556
000110 30 71 ec be 12 21 19 be 77 a3 d3 3e 52 49 70 3e
       -0.46180105 -0.14954022 0.4133565 0.2346547
000120 51 fe 8e 3e 52 d3 82 be 16 a5 ae be 74 e0 5d be
       0.27928403 -0.2555185 -0.34110326 -0.21667653
000130 2f 16 c9 be e3 91 02 3e ae c2 12 3e 80 7f f2 3e
       -0.39274737 0.12750964 0.14332077 0.473629
000140 a2 92 04 be 3e dc 8b be a2 c7 71 3e 2d 0a 69 be
       -0.12946561 -0.2731647 0.2361131 -0.22757788
000150 d3 50 86 3e 55 30 0d ba c2 52 c3 3e e0 55 5c be
       0.2623354 -0.0005385925 0.38149077 -0.21517134
000160 e0 97 89 be a4 22 27 3d 25 cb 32 bb 33 08 11 bd
       -0.26873684 0.04080452 -0.0027281728 -0.03540821
000170 ed 9d ed 3e 6d 9b 3c 3e 30 54 78 be 69 58 9b be
       0.4640955 0.18418665 -0.24250865 -0.3034089
000180 d4 72 8c 3e 7d 86 bc bc 67 3b 91 be 92 20 6a be
       0.27431357 -0.023013348 -0.28365633 -0.22863987
000190 56 5d 95 be 75 51 a6 3e b6 27 a9 3c df 3d 76 be
       -0.29172772 0.32484022 0.020648818 -0.2404704
0001a0 ff 48 08 3e 78 41 f6 bd 44 66 0a bf 13 09 92 bd
       0.13309096 -0.12024206 -0.54062295 -0.07130637
0001b0 a8 55 06 be f7 f7 8b be 8f 80 08 3f b5 8a 12 3d
       -0.13118613 -0.2733762 0.53321165 0.035776813
0001c0 30 e5 2f 3e 5f e9 e8 be da a6 15 be 91 15 c8 bd
       0.17177272 -0.45490548 -0.1461443 -0.097697385
0001d0 67 fe 24 bb 19 6e b7 be 53 41 b1 3d 33 53 f3 be
       -0.002517605 -0.35826185 0.08655038 -0.47524413
0001e0 59 4a 4a 3d 9c 33 1d be 9f bf 3c be 77 8d 41 be
       0.04938731 -0.15351719 -0.18432473 -0.18901621
0001f0 5b 00 85 be 3f b5 61 bd f7 3b e3 bd 8d 3d ac be
       -0.25976834 -0.05510449 -0.11095422 -0.3364071
000200 15 75 c4 3e 58 5f 6b bd 17 bb b6 3e 98 d2 c0 3d
       0.38370577 -0.057463974 0.35689613 0.094151676
000210 5b b4 84 be 09 56 b6 3e 5f 66 fb bd 38 89 32 be
       -0.2591885 0.35612515 -0.12275385 -0.17435157
000220 c0 50 db be 06 e0 d3 be 9d fe e6 3d 4c ca 5b 3d
       -0.42835045 -0.41381854 0.112790324 0.053659722
000230 d8 1d 71 3e 4c 93 10 be 27 b0 a1 3e b0 50 b6 be
       0.2354654 -0.1411869 0.31579706 -0.35608435

conv1.bias f4 [16]
000000 59 a2 3b 3b 9a d4 61 b9 b8 ad 0c 3a 0a 3c f2 3a
       0.0028630702 -0.00021536872 0.0005366462 0.0018481028
000010 de 6a 9c ba b1 32 13 3a eb aa 27 ba 3e fd bd b9
       -0.0011933704 0.00056151586 -0.0006396013 -0.0003623757
000020 85 b5 e7 ba 94 de be 37 93 90 af 3a 73 be 69 3a
       -0.0017677998 2.2753411e-05 0.0013394527 0.0008916624
000030 4e 1a 07 b9 62 e3 26 b9 4a 5e 25 b9 a1 7c 89 ba
       -0.00012884403 -0.000159157 -0.00015770752 -0.0010489413

bn1.weight f4 [16]
000000 c4 0b 7c 3f 05 d7 57 3f 22 70 5d 3f 1d 45 8f 3f
       0.9845545 0.8431247 0.86499226 1.1192967
000010 bf 7c 8a 3f 50 33 79 3f 48 fc 9b 3f 65 d7 80 3f
       1.081932 0.9734392 1.2186365 1.0065733
000020 28 89 7a 3f a6 55 57 3f c7 36 89 3f 91 bf 4c 3f
       0.97865534 0.84115064 1.0719842 0.7997981
000030 e2 1e 88 3f 24 96 44 3f 51 e7 6f 3f f7 25 8f 3f
       1.0634425 0.76791596 0.93712336 1.1183461

bn1.bias f4 [16]
000000 2c d7 8f be d7 e2 0f be 92 01 68 be d8 d8 0f be
       -0.2809385 -0.14051376 -0.22656849 -0.14047563
000010 64 ba 20 be 30 4f ed bd 83 3f 32 be 88 6e a1 bd
       -0.15696102 -0.115873694 -0.1740704 -0.0788241
000020 ae 9e a3 bd 59 74 68 be f3 9c ea bd d3 7f 0c be
       -0.0798925 -0.22700633 -0.11455717 -0.13720636
000030 ad a1 9f be 43 e3 33 be ce 5b de 3b 68 7e 14 be
       -0.31178036 -0.17567162 0.0067858463 -0.14501345

bn1.running_mean f4 [16]
000000 7d 17 a7 b9 36 a8 6b b9 d7 f6 02 3b 8e 26 c9 3a
       -0.00031870222 -0.0002247401 0.0019983554 0.0015346573
000010 b2 3e d6 ba 37 30 5f b8 f0 c9 c3 b8 48 b4 08 ba
       -0.0016345589 -5.3212247e-05 -9.3359384e-05 -0.0005214852
000020 c8 89 f8 ba 96 5d bb 3a a4 82 82 39 1e d2 27 3b
       -0.001896196 0.0014294859 0.00024892867 0.0025607417
000030 16 1a c5 39 45 62 27 3b 4c 02 6c ba 40 97 16 b8
       0.00037594204 0.002554075 -0.0009003028 -3.590365e-05

bn1.running_var f4 [16]
000000 57 35 1b 3f a7 99 d5 3e 52 58 73 3e 88 d4 80 3e
       0.60628265 0.4171879 0.2376416 0.25162148
000010 5a 15 b2 3e 0b d5 79 3e d2 b7 44 3e 6f 9f 61 3e
       0.34781915 0.24397676 0.19210747 0.22033475
000020 2b b5 b0 3e c0 c2 2e 3e 2b 93 76 3e 0a 9f 51 3f
       0.3451322 0.17066479 0.24079578 0.818833
000030 03 78 42 3e 95 7e 63 3f f3 7d 9b 3e 42 08 db 3e
       0.18991093 0.88865024 0.3036953 0.42779738

conv2.weight f4 [32, 16, 3, 3]
000000 3d c7 e2 3d db 0f 98 bd b9 be 91 3e fc cc ce 3d
       0.11073158 -0.07424899 0.28465822 0.100976914
000010 c3 42 66 bd 9c 98 91 be 30 ef e8 ba 09 cb 0c 3e
       -0.056216013 -0.28436744 -0.0017771479 0.13749327
000020 1a e2 76 bc 4f 6c f4 bc d8 99 4f 3e 7e 5c 17 bd
       -0.015068555 -0.029836802 0.2027353 -0.03695344
000030 41 5c 1d 3e ff 11 78 bd 60 c8 a1 bd 4e 4e cb bd
       0.15367223 -0.060564037 -0.078995466 -0.09927045
000040 3f 1a d4 bd 06 cd 91 3c 6f a4 f9 3d 5e 5c a1 bd
       -0.103565685 0.017797958 0.12189566 -0.07878946
000050 fb 43 39 3e 38 dc 9a 3d 47 37 98 3d eb a1 8d be
       0.18092339 0.07561535 0.07432418 -0.27662596
000060 83 5d ff bd ec a8 aa 3d cd 20 8a 3d 79 ab be 3c
       -0.12469008 0.083330005 0.067445375 0.023275124
000070 83 64 05 be 4d 07 e9 3d f5 2d d8 bd e2 80 db bc
       -0.13026623 0.11378346 -0.105556406 -0.026794855
000080 a7 8f 39 3e 8f 63 c5 3e e1 89 31 3e 17 e7 18 3d
       0.18121205 0.3855252 0.17337753 0.03732976
000090 2d 51 f6 3d 3d 03 4d be 1e 5d 69 3e d8 ee 1d 3e
       0.12027202 -0.20020767 0.22789428 0.15423143
0000a0 8c 5f b2 be a9 13 a8 3d 18 31 a6 3d 82 26 3b bc
       -0.3483852 0.08206875 0.08114833 -0.011422755
0000b0 0f 10 05 3e d3 83 81 be 2f 9e 67 be 25 3c ba be
       0.12994407 -0.25295886 -0.22618936 -0.36374012
0000c0 19 7e b9 bc 44 58 47 be f3 e5 21 3c 31 d2 33 3e
       -0.022643136 -0.19467264 0.009881484 0.1756065
0000d0 c8 f9 8f 3d 23 d9 da 3c c5 d3 fc bb 04 81 0d bd
       0.07030064 0.026714867 -0.0077156746 -0.034546867
0000e0 f3 42 87 bc a9 b0 05 be b6 35 96 3d 0e d1 57 3d
       -0.016511416 -0.13055672 0.07334463 0.052689604
0000f0 cc b7 e6 bd c2 e3 dd 3d 4e c5 1d be b4 bf fa bd
       -0.11265525 0.10834457 -0.15407297 -0.12243596
000100 0d 0e d1 be 1d 4c 9b 3e 37 21 d7 3c 11 2a 52 3e
       -0.40831032 0.30331507 0.026260955 0.2052386
000110 99 4c 5f be 0f 75 69 3d 92 18 8f bd d0 0c 13 3e
       -0.21806563 0.0569964 -0.06987108 0.14360356
000120 12 fd 4a 3d d2 22 23 3e fc 13 cd 3d 74 c0 8b 3e
       0.049557753 0.15931252 0.10013577 0.27295268
000130 13 54 5c be c3 21 ec bc 44 c9 07 be 2c f9 c2 bd
       -0.21516447 -0.028824693 -0.1326037 -0.09520182
000140 91 37 16 bd bf dc 26 be 8f 47 60 bd b7 03 25 be
       -0.036674086 -0.16295145 -0.054755744 -0.16114698
000150 03 4f ff 39 29 3c 43 bd 6f d8 97 bd db e0 12 be
       0.00048696258 -0.047664795 -0.07414328 -0.14343588
000160 06 50 fb 3c db 50 61 3e 5a 3f f3 3c 24 38 27 be
       0.030677807 0.220035 0.029693294 -0.1633001
000170 ed 6a f9 bd fb 76 57 be 37 d9 74 be 94 1a d0 be
       -0.121785976 -0.21041481 -0.23910986 -0.40645278
000180 04 79 0a 3e 55 7e 1f 3d 56 82 8d 3d 3e d4 bf 3d
       0.13522726 0.03893884 0.06909625 0.09366654
000190 0a f8 96 3e 18 37 30 be 93 17 9a 3d 2d 41 eb bd
       0.29486114 -0.17208517 0.07524028 -0.11487041
0001a0 03 f9 95 bd 87 9b b6 3d 04 64 ac bc fd d1 ab ba
       -0.07322886 0.08916383 -0.021043785 -0.0013108846
0001b0 99 6e 32 be 6b fd aa bd 9b cd 89 3e 55 9e 39 be
       -0.17425002 -0.08349117 0.26914677 -0.18126805
0001c0 76 61 9e 3e e2 5d 2d 3e d1 89 ce bc 38 d9 94 bd
       0.30933732 0.16930345 -0.0252122 -0.07267994
0001d0 3f 8b 97 3c e0 66 2f be 81 33 c0 3e f2 76 99 bd
       0.018499015 -0.17129087 0.37539294 -0.0749339
0001e0 5b 6a 50 be 77 1a a6 be 29 6b 83 3e 64 6d 94 bd
       -0.20353071 -0.32442066 0.25667694 -0.07247427
0001f0 82 0f 1b be eb 41 e9 3d 62 2c 33 3d b4 30 ab 3b
       -0.15142635 0.11389526 0.0437435 0.0052243117
000200 e8 56 9e 3d d2 3a 72 3c 44 12 71 be e3 b3 c2 be
       0.0773142 0.014784532 -0.23542124 -0.38027868
000210 7d 15 ed bd e0 ad 68 be 22 5c 42 3e 48 c0 a1 3c
       -0.11576364 -0.22722578 0.18980458 0.019745007
000220 38 4f 7c be 93 e8 db bd a5 7c 90 bc 48 df 9a be
       -0.24639595 -0.107377194 -0.01763756 -0.30248475
000230 32 4f 3a 3d d8 82 80 3c 87 5d 29 3d 23 c7 87 be
       0.045485683 0.015687391 0.04134896 -0.26519117
000240 7b 14 c5 3b e3 cd 80 3e 12 00 91 3c 95 40 77 bd
       0.0060144044 0.2515708 0.017700229 -0.060364325
000250 d7 ce af bd dc 93 53 3e 68 66 1d 3e d3 cf bc bd
       -0.085843734 0.20661873 0.15371096 -0.09219327
000260 7c da 09 be 78 fe cf bd 63 5b b1 3d e6 db fb 3d
       -0.13462251 -0.10155958 0.08660009 0.12297802
000270 cc 2a 82 3d f4 38 50 3e 8d 61 fd bd 55 03 46 bd
       0.06355819 0.20334226 -0.12372122 -0.04834302
000280 2f b9 48 bd 29 ee 14 3e bc 04 73 3d 3c 0e 1a be
       -0.04900473 0.14543976 0.059330687 -0.15044492
000290 4c 7f 11 3d 8e c9 46 bc a8 7c 0e be 48 39 9e be
       0.03552179 -0.012133015 -0.1391474 -0.30903077
0002a0 ff fd 36 be 27 b1 dc bd d4 f3 5a be 42 6e 17 3e
       -0.1787033 -0.10775977 -0.21382076 0.14788154
0002b0 3c 49 aa be d5 91 6e be 5e 15 a1 bd a6 89 55 be
       -0.33258998 -0.23297818 -0.078654036 -0.2085329
0002c0 aa c5 b6 3d 6c 05 a6 3d 9a 37 43 be 15 30 9f bd
       0.0892442 0.08106503 -0.19064179 -0.07772843
0002d0 54 4e b4 3d af c1 29 bb 82 de 28 bd 1f ca 92 3d
       0.088040024 -0.0025902798 -0.041227825 0.07167458
0002e0 62 1c 2a be 9b 94 0d be 05 40 dd 3d ef 40 71 be
       -0.1661239 -0.1382622 0.108032264 -0.23559926
0002f0 5f 84 bb bc e8 00 b0 3d 26 48 48 bd ae 0b c1 bd
       -0.022890268 0.08593923 -0.04889693 -0.09426056
000300 9a 4d b9 3c 17 e2 1a 3e 84 d6 f0 be e6 c0 f1 3d
       0.022620011 0.15125309 -0.47038662 0.118043706
000310 c7 e1 ec 3d e8 e4 6a 3c 07 3d 4e be 39 61 32 3d
       0.11566501 0.014336802 -0.20140468 0.04354975
000320 b2 72 50 3e fc d2 60 be 1e 68 02 be 56 f3 23 3e
       0.20356253 -0.21955484 -0.1273503 0.16010794
000330 00 1e b0 3d fc f1 7b 3e 72 5f ca bd 70 83 37 bd
       0.08599472 0.24604028 -0.09881486 -0.044803083
000340 65 9c 48 bd ce d6 69 3e c5 7f 61 3e 9f 81 6d bd
       -0.048977274 0.22835848 0.22021396 -0.057984944
000350 ef d7 bb be 99 36 2a 3e 3a ab 27 be ff 2d 92 be
       -0.36688182 0.1662239 -0.16373911 -0.28550717
000360 5f f3 00 3c a5 da 9c 3c 7b b1 8f 3e 68 78 38 be
       0.007870524 0.019147227 0.28065094 -0.18014681
000370 2f 0b 83 bc 1a d1 fe bc f1 88 33 3e fb d9 6a bd
       -0.015996544 -0.031105567 0.17532708 -0.05733679
000380 1f 48 14 3e a9 fd 9f 3e 07 56 a3 bd 28 09 f5 bd
       0.14480637 0.31248215 -0.07975393 -0.11964637
000390 b7 f0 05 3e bf 52 2b bc f3 ce b9 3d 2f 31 04 be
       0.13080107 -0.01045674 0.090726756 -0.12909387
0003a0 55 a7 43 3c 5f 02 3f 3d f4 c2 99 3d 65 49 60 be
       0.0119417505 0.04663312 0.075078875 -0.21902998
0003b0 75 08 f7 bd 07 76 9b bd 72 20 80 3e 24 5d c2 3c
       -0.1206216 -0.07590871 0.25024754 0.023726054
0003c0 a7 95 bc bd 5c 6c ca bd f9 7e 8f bd ba 27 38 be
       -0.092082314 -0.09883949 -0.0700664 -0.17983904
0003d0 71 0c 8b be 37 21 85 3d cd 15 02 be 56 49 0b bd
       -0.2715793 0.06500476 -0.12703629 -0.034005485
0003e0 93 b3 f3 3c 82 c5 de 3d c9 ed 37 3e e6 ac 1e bf
       0.029748714 0.108775154 0.17961802 -0.6198257
0003f0 27 ef 27 3e ca 53 cf bd ac 3b d5 3e 4a 3c 8a bc
       0.16399823 -0.10123403 0.4164709 -0.016874451

conv2.bias f4 [32]
000000 40 53 5a b7 c4 68 cb b9 04 97 5b 39 49 de e2 b8
       -1.3013196e-05 -0.00038797234 0.00020941725 -0.000108179236
000010 c2 20 4b 3a fd a2 18 3a b5 ca b6 3a c0 a0 9a b6
       0.0007748717 0.0005822627 0.001394591 -4.6082714e-06
000020 9a ac 23 3a 24 6a c4 3a f3 cf a9 39 b9 69 90 3a
       0.0006243676 0.0014985246 0.00032389126 0.0011017836
000030 08 5b 7d 3a d4 44 08 3b d3 f4 41 b9 f1 95 c2 b8
       0.0009664749 0.0020792978 -0.00018497118 -9.2785696e-05
000040 da 0e 7e 3a e4 5b 41 ba 48 a3 d9 b8 14 7f c9 39
       0.0009691544 -0.00073760585 -0.0001037778 0.00038432388
000050 2a 8d 56 3a 75 3a 1e 3a e4 53 ce b8 28 86 36 ba
       0.0008184487 0.00060359325 -9.838471e-05 -0.000696274
000060 4c 09 c4 b8 64 bb 25 3a 78 b7 90 b9 64 d0 fb 38
       -9.34774e-05 0.0006322174 -0.00027602515 0.000120074284
000070 f2 b3 b8 38 15 ed 6e ba b0 e0 1f 39 e0 f4 7e 39
       8.807321e-05 -0.00091143075 0.00015247124 0.0002431455

bn2.weight f4 [32]
000000 41 39 05 40 ac 75 05 40 5b 6c 00 40 a2 7e f5 3f
       2.0816195 2.0853071 2.0066135 1.917927
000010 9e ca f8 3f 82 97 f3 3f 02 33 02 40 52 1e 07 40
       1.9436834 1.9030612 2.0343633 2.1112256
000020 16 cc f4 3f 95 df e8 3f aa 68 f1 3f 00 83 ea 3f
       1.9124782 1.8193232 1.8860066 1.8321228
000030 e9 0f 02 40 47 69 ef 3f 57 7e f4 3f 39 5a 01 40
       2.032221 1.8704003 1.9101056 2.0211318
000040 89 c7 00 40 ee ef f7 3f 13 cd f9 3f 9d 5f 01 40
       2.0121787 1.9370096 1.9515709 2.0214608
000050 c4 f4 06 40 2f c5 eb 3f 73 e7 f7 3f 70 22 fb 3f
       2.1086893 1.8419551 1.9367508 1.9619884
000060 49 9c fb 3f 38 5a f7 3f 1f d4 e7 3f 28 f1 ff 3f
       1.965707 1.9324408 1.8111609 1.999547
000070 3f 50 f1 3f 5c fb f9 3f 8e 65 fc 3f 2a 5b 00 40
       1.8852614 1.9529834 1.9718492 2.0055642

bn2.bias f4 [32]
000000 80 7b 29 bf 24 d0 32 bf 82 d4 58 bf 63 b6 31 bf
       -0.6620407 -0.6984885 -0.8469926 -0.69418925
000010 c5 60 58 bf 22 89 4b bf c9 fe 8c bf 55 ce 6e bf
       -0.8452266 -0.79506123 -1.1015254 -0.9328359
000020 91 34 15 bf ea a4 10 bf 36 ee 24 bf 2a c3 37 bf
       -0.58283335 -0.5650164 -0.6442598 -0.7178217
000030 cb 2f 3c bf f7 0b 73 bf 91 62 15 bf 60 62 4f bf
       -0.73510426 -0.9494013 -0.58353525 -0.81009483
000040 bf 21 23 bf fd 63 4b bf 6a 6f 2d bf b5 62 97 bf
       -0.6372337 -0.79449445 -0.6774813 -1.1826998
000050 ce 5d 2b bf cb 7c 33 bf 65 80 78 bf 36 6b 0a bf
       -0.6694001 -0.70112294 -0.97070915 -0.5406984
000060 27 a6 20 bf 81 ca 5a bf 07 d7 3e bf 79 93 70 bf
       -0.6275353 -0.85465246 -0.74546856 -0.93975025
000070 bf 6e 3c bf 42 4e 32 bf bf 28 3e bf bf f9 2c bf
       -0.73606485 -0.6965066 -0.74280924 -0.6756858

bn2.running_mean f4 [32]
000000 65 e6 51 bf f4 85 17 bf 35 c1 38 3f f0 2b d6 be
       -0.8199218 -0.5918877 0.7216981 -0.41830397
000010 10 e6 49 be 0d f8 2d bf 1e fc 31 3f 1d 08 35 3e
       -0.19716668 -0.6795662 0.69525325 0.17678876
000020 5c ee 68 bf 6f 7b ee 3e 14 09 6a be ee bf 3d 3e
       -0.9098871 0.46578547 -0.22855026 0.18530247
000030 1c a3 00 bf d8 ad b7 3e cf 20 6a bf a6 b6 87 be
       -0.50248885 0.3587482 -0.9145631 -0.26506537
000040 3c 45 ef be a1 fe ff 3e cc f1 7b bf cf 41 48 3f
       -0.4673251 0.49998954 -0.9841583 0.78225416
000050 5f 66 29 bf 0c f4 a9 be 1d f8 0b 3e 56 7f 35 bf
       -0.6617183 -0.33194005 0.13668866 -0.70897424
000060 ec 02 7a bf 3a c7 42 be 69 38 d6 3e db 64 cf bd
       -0.9766071 -0.19021311 0.41839913 -0.101266585
000070 9f b6 1b bd ae 33 26 bf 00 c8 40 bf ca 0a 29 be
       -0.038015958 -0.64922607 -0.75305176 -0.16508022

bn2.running_var f4 [32]
000000 12 5c 1f 3f 7e 27 14 3f 50 44 00 3f c0 5c 04 3f
       0.62249863 0.5787276 0.50104237 0.51704025
000010 c9 e7 dc 3e 8d 92 26 3f 5c 12 0f 3f 48 f1 01 3f
       0.43145588 0.6506737 0.5588739 0.5075879
000020 3f 05 49 3f d3 1d 1c 3f b9 43 e8 3e ab 4f 28 3f
       0.7852363 0.6098301 0.45364168 0.65746564
000030 78 36 19 3f 8b 1c c5 3e 9f d3 2a 3f 53 ab 16 3f
       0.5984874 0.3849834 0.6672916 0.5885517
000040 1f 72 37 3f 3e a5 28 3f 62 a7 36 3f dd 3b 2f 3f
       0.7165851 0.6587714 0.71349156 0.6845072
000050 d2 35 0e 3f ca d4 3d 3f 8c b3 da 3e 0f be 37 3f
       0.55550873 0.74152815 0.42715108 0.7177438
000060 54 52 24 3f f9 4b d8 3e e9 bb 03 3f 91 6e e5 3e
       0.6418812 0.42245463 0.51458603 0.44810918
000070 33 17 12 3f ba 21 63 3f 68 24 3d 3f 93 d8 09 3f
       0.5706665 0.8872334 0.73883677 0.5384609

fc1.weight f4 [128, 960]
000000 a8 c8 ca bd 17 27 45 3d fb de 1a be a7 7c 03 3d
       -0.099015534 0.048132982 -0.15124123 0.0321013
000010 41 13 bd bd 48 08 7d bd dd b8 74 3e 91 ab 89 be
       -0.09232188 -0.061775476 0.23898645 -0.26888707
000020 60 de 8d 3d 97 98 dd bd cd 0e 61 3c 81 eb 07 bd
       0.0692718 -0.1082012 0.013736439 -0.03318358
000030 39 3c 4e 3d c7 32 88 be 82 3f ad be 82 79 cc 3d
       0.0503504 -0.2660124 -0.33837515 0.09984113
000040 a3 9d 07 3d 26 3d b7 bd 17 69 59 bd 7e 58 78 3e
       0.03310932 -0.0894721 -0.053078737 0.24252507
000050 1a aa 63 3d 93 d5 f7 bd fb d2 0d 3d 86 22 4d 3e
       0.055582143 -0.12101283 0.034625035 0.20032701
000060 d1 e1 8a 3d 7c 6c c1 bd 96 82 ef bc ad 2a 82 3d
       0.06781352 -0.0944452 -0.029237073 0.06355796
000070 21 dc 8d bb f4 eb a2 bd 8a 6e b4 3d 90 7c 5a 3d
       -0.00432922 -0.07955161 0.08810146 0.05334145
000080 18 79 1a 3e 71 8e 60 3e 3b 67 f3 3d 35 27 ae bd
       0.15085256 0.21929337 0.11884924 -0.08503572
000090 0d d5 32 3c 1f a2 3b 3e fa b7 89 be 2c 7a 7a 3c
       0.010915053 0.18323563 -0.26898175 0.015287917
0000a0 7e 1a d2 bd e3 11 7d 3e 77 27 8d 3c dd d5 aa be
       -0.10258959 0.24713854 0.017230732 -0.3336629
0000b0 7b 03 b5 3c 9e 25 8b 3d ef 98 45 be 4f 1d 6e bc
       0.022096386 0.06794284 -0.19296621 -0.014533355
0000c0 12 28 87 3d 0e 52 ba bd d6 5a a0 bd f6 49 37 bd
       0.0659944 -0.09097682 -0.078298256 -0.04474827
0000d0 ee fd 25 3d a9 1f 1b be 66 6b 0c 3e f3 17 19 bc
       0.04052537 -0.15148796 0.13712844 -0.009344089
0000e0 1e 0d d9 3d 9c 13 ed 3d 98 3d ce bd 0f 4a e0 bd
       0.10598205 0.11576006 -0.10070342 -0.109516256
0000f0 20 06 99 3e 65 01 13 3e d8 a7 2e 3e 95 d3 4c 3e
       0.29887486 0.14356 0.17056215 0.20002587
000100 23 0a 07 3e 83 72 90 be a1 01 e4 bd c6 42 2e be
       0.1318746 -0.28212366 -0.11133123 -0.1701766
000110 89 d9 94 be 2e c9 40 3f 03 48 e1 bd 2e 4f 03 be
       -0.29072216 0.75306976 -0.11000063 -0.12823173
000120 29 05 d5 3d 15 55 65 bd aa 41 04 3e c5 71 e7 3d
       0.10401375 -0.055989344 0.12915674 0.11300997
000130 3b 64 82 3b 94 da 3f bd 53 7e 84 be c8 a0 ab 3e
       0.0039792336 -0.04683931 -0.25877628 0.33521104
000140 9a 02 c9 3d de da a9 3d 75 44 32 3e 39 cb c8 3d
       0.09814949 0.08293699 0.17408927 0.09804387
000150 28 fa 17 be a9 0b 85 bd 06 c4 47 bd 6b 48 04 be
       -0.14841521 -0.064963646 -0.048770927 -0.1291825
000160 5b a2 ba ba 28 c9 97 3d 51 7e f6 3d 4c 0f 86 3d
       -0.001423906 0.074114144 0.12035812 0.065458864
000170 15 e4 11 be 42 7d fa bd 31 ed 5a 3e a8 9d bd 3c
       -0.14247163 -0.12230922 0.21379544 0.023146465
000180 4b 70 14 3e b3 24 3c be be 01 20 3e aa 27 1e be
       0.14495961 -0.18373375 0.15625665 -0.15444818
000190 30 aa 52 3e c8 49 16 3d d5 57 a4 3d 8b 1b 8a bc
       0.20572734 0.036691457 0.08024565 -0.016858837
0001a0 30 86 9a 3d ba 6b 27 bc 64 f1 b3 be b0 62 8f 3d
       0.075451255 -0.010218555 -0.35145104 0.07001245
0001b0 2d 38 81 3d 09 cc 20 3e 5f 7f 59 be 18 c0 10 bd
       0.06309543 0.15702833 -0.21239994 -0.035339445
0001c0 c4 cb 21 be 3f a7 89 3d a3 5d a9 3e b3 33 1e 3e
       -0.15800387 0.06721353 0.33079252 0.15449409
0001d0 bb 94 84 be 97 db 4b bd 60 1d 8a 3d 31 bf 15 be
       -0.25894722 -0.049769964 0.06743884 -0.14623715
0001e0 1c 84 11 be c1 90 a7 3d 6e 1f b7 bd 41 14 9d be
       -0.14210552 0.081819065 -0.089415416 -0.30679515
0001f0 6e 7b de 3d 63 b1 e7 3c d6 66 45 3e c7 fa 6f be
       0.10863386 0.028282827 0.1927751 -0.23435508
000200 be a1 64 3e a8 83 1c 3e 50 2e d9 bd 03 94 a5 3e
       0.22327325 0.15284598 -0.106045365 0.32339486
000210 f2 0e 99 3d b0 0c 36 3d a5 10 44 3e f4 17 23 be
       0.07473554 0.044445693 0.19146974 -0.15927106
000220 e0 db 9f bd a2 52 2f bd 89 d4 ff 3d 7a 84 5a 3e
       -0.0780561 -0.042803414 0.1249171 0.21339598
000230 29 db 04 3e b7 54 95 3e 3e 2d 00 3c 08 ae 93 3e
       0.12974228 0.29166195 0.007823287 0.28843713
000240 7b a8 a6 bd eb e4 ee 3d 92 de 74 be 41 fa 93 3c
       -0.08137604 0.116647564 -0.23913029 0.018063666
000250 4f 4c 5c be 4b 45 aa 3e d3 d7 93 3e 3f 15 60 be
       -0.21513484 0.3325599 0.28875598 -0.21883105
000260 eb 1d 89 3d 14 d2 f4 3d 1f ce 3a 3e 27 06 58 3e
       0.066951595 0.11954132 0.18242691 0.21096097
000270 d2 c5 4a 3e cf e3 04 be ba 4f 38 3e a5 84 44 be
       0.19802025 -0.12977527 0.17999163 -0.19191225
000280 40 7b c3 bd c9 54 05 be de fb 51 3d f9 6c 14 bd
       -0.095449924 -0.13020624 0.05126559 -0.036236737
000290 dd e0 ca bd 63 01 42 be 2c 21 b8 bd 71 a3 22 be
       -0.099061705 -0.18945841 -0.08990702 -0.1588266
0002a0 7b 46 34 be 6d df 90 3e eb 3c bd bc 32 bd 02 3e
       -0.17605011 0.2829546 -0.023100337 0.12767485
0002b0 12 4b b6 3e 94 9d 16 39 0d ab 78 bd 09 bf 80 be
       0.3560415 0.00014363817 -0.06071 -0.25145748
0002c0 04 5e ec bd b3 49 4a be d9 b7 6f 3e 78 e1 8c be
       -0.115413696 -0.19754677 0.23409976 -0.2751577
0002d0 f7 9b d9 bb c4 15 69 be 6a c5 5b be b2 b7 0e be
       -0.006640907 -0.22762209 -0.21462026 -0.13937262
0002e0 a0 75 d1 3d 43 73 5e 3c 19 4d 2c be 27 5c 06 3c
       0.10227513 0.013577285 -0.16826285 0.008200682
0002f0 7b ac a0 3e 94 af 9e 3e 96 54 5e be 38 6c a1 3d
       0.31381592 0.3099333 -0.21711954 0.07881969
000300 c5 aa f1 bc ae 6a 82 3a 6d 49 68 3d 85 52 bf bc
       -0.029500375 0.0009950006 0.05671065 -0.023354778
000310 fa 6c 09 be bf de 7c bd 86 32 08 be 98 7c cc 3d
       -0.13420478 -0.061735865 -0.13300523 0.09984702
000320 80 31 38 be eb 3c a6 3b ed 07 f0 3c d4 1d 24 be
       -0.17987633 0.00507318 0.029300654 -0.16027004
000330 38 db a8 3e 06 bc 42 3d b2 68 65 3e 71 79 ec 3d
       0.3297975 0.047542594 0.2240322 0.115466006
000340 f0 4e 26 3d ee 04 cf bb a9 f9 8b 3d 5b be 09 be
       0.040602624 -0.0063177263 0.06834728 -0.13451521
000350 e3 d0 6f be fe 4d 1b be ee 7d 66 3e 3e bc b5 3d
       -0.23419528 -0.1516647 0.22508976 0.08873795
000360 a4 e9 d6 3c 0a 82 1f 3e 7f 51 aa 3d ca 56 0f 3f
       0.026234455 0.1557695 0.083163254 0.55991805
000370 38 69 e4 3d 30 56 13 bd cb 6c cc 3d 4d d8 e8 3d
       0.111528814 -0.035970867 0.09981688 0.11369381
000380 90 b1 93 bd 83 d5 b9 3e a3 28 73 bd 39 32 d6 bd
       -0.07211602 0.3629571 -0.059364926 -0.10458798
000390 32 60 80 be 3f 0b bf 3e 2c 4c 83 be 70 7f e4 bd
       -0.2507339 0.37313268 -0.25644052 -0.11157119
0003a0 50 97 11 be 02 a2 62 3d f0 19 92 bd 6e 1e 3f 3d
       -0.14217877 0.055330284 -0.071338534 0.04665988
0003b0 61 c5 b3 bd 81 cb 15 bd d0 f6 33 3e fd 5d 2c 3d
       -0.087778814 -0.03657103 0.1757462 0.04208182
0003c0 16 f6 38 3d 65 d4 a7 bc 86 5c 94 bd 8c 08 4e bc
       0.04515656 -0.02048702 -0.0724421 -0.01257528
0003d0 0d da 1a bf d8 59 59 be 44 23 4f bd 07 d3 2f be
       -0.6048897 -0.21225679 -0.05057074 -0.17170344
0003e0 d9 ea d5 3d 1a 79 52 be 3d ce e5 bd 5d 5d b5 bd
       0.10445184 -0.20554009 -0.112209775 -0.08855698
0003f0 4a b7 1b 3e 06 60 98 3e bb 4f 0a bd fc 4d 16 3e
       0.15206638 0.2976076 -0.033767443 0.14678186

fc1.bias f4 [128]
000000 e1 dc 03 bd 2c 93 16 bd 84 99 a4 bc a7 60 ea 3c
       -0.03219307 -0.036761448 -0.020092733 0.02861054
000010 78 97 df bc ca 1c bf 3d 6b 64 a9 3c bf 84 8a 3c
       -0.027293906 0.09331663 0.020677766 0.016909001
000020 6f 2f f0 bc 7d 75 8b bc 66 11 a7 bd c2 f5 06 bd
       -0.029319493 -0.017023796 -0.08157615 -0.032949217
000030 bf f3 46 3d 02 ef 90 3d dc 6e 46 3d b4 1e ff 3c
       0.0485723 0.07076837 0.048445567 0.03114257
000040 24 82 29 bd 01 e6 3b 3d 62 55 65 3c c3 99 0a bc
       -0.041383877 0.045873646 0.013997408 -0.008459511
000050 c0 96 ae ba a3 6f 56 bd 46 87 0e 3c 83 eb 1e 3a
       -0.0013320073 -0.05235256 0.008699244 0.00060623157
000060 03 80 0c 3d 0b 08 39 3d 24 60 6d bd d0 03 2d bb
       0.03430177 0.045173686 -0.057953015 -0.0026399978
000070 c0 27 07 3c bb 2a e4 ba b1 24 a1 bb 94 28 20 3c
       0.008249223 -0.0017407754 -0.004917704 0.0097753
000080 bd 49 81 bd 9d 9e 31 3c 8c ac 3b bc 5c 70 00 3d
       -0.063128926 0.010841039 -0.011454713 0.031357154
000090 72 c7 b4 bd 8c 35 2e 3d 97 cb bc bd 95 f6 ac 3c
       -0.08827104 0.042531535 -0.09218519 0.021113673
0000a0 6a 44 a8 bd e3 1c 5b bc ce b3 13 bd d6 f3 ae 3d
       -0.08216174 -0.013373586 -0.036060147 0.08542602
0000b0 f8 ba fa 3c d7 9b 6f bc 36 7d b2 3b 2f 1f 08 bc
       0.030606732 -0.014624557 0.005447055 -0.008308216
0000c0 98 9e e6 3b be f9 db 3c f7 cc f6 bc b4 b1 fe 3c
       0.007037949 0.026852485 -0.030127032 0.031090595
0000d0 98 c7 91 3c 2c 18 89 3d 3e 96 95 3c 7a cf 3e 3c
       0.017795369 0.066940635 0.018260118 0.011646146
0000e0 71 59 c2 bc 8b 0f d7 bd d2 35 ff 3c 43 41 13 3d
       -0.02372429 -0.105010115 0.031153593 0.03595091
0000f0 a7 7c c5 bb 37 8a ed bc 55 1f 65 bd b0 64 b3 3d
       -0.0060268226 -0.02899657 -0.055938084 0.08759439
000100 1a 4f 96 3c 65 14 89 bb b9 06 70 3c 4e bf da 3c
       0.018348265 -0.0041833394 0.01465004 0.02670255
000110 6c 99 96 bd fd 89 3f 3d 22 8b 7a 3d da 3c 82 3d
       -0.07353482 0.046762455 0.061167844 0.06359263
000120 ad d2 97 bc 6d 8e 96 3c f6 da cc 3c 37 b4 dc 3c
       -0.018533075 0.01837846 0.025006752 0.026941402
000130 b0 b6 5d 3d c9 4c b3 bc 74 06 bd bb cd 1f 64 bd
       0.054129303 -0.0218872 -0.0057685915 -0.05569439
000140 68 e9 65 3d 3e 9b 74 bd 78 06 0b bc 33 e1 3c bd
       0.056130797 -0.059718363 -0.008485429 -0.046113204
000150 98 6f b1 ba d3 39 4c 3d 59 71 2c bd 74 0c 8b 3c
       -0.0013537286 0.049859833 -0.042100284 0.016973712
000160 74 2e 9d 3d 72 75 b3 3c c4 c3 7b bd a2 53 62 bc
       0.07674876 0.021906588 -0.061465994 -0.013813885
000170 d5 0c 20 3c 60 ca d4 3b f3 a0 a3 3c 98 0a c0 bc
       0.009768684 0.0064938515 0.019974208 -0.023442551
000180 48 f1 98 bc af d7 8d 3d a9 ab ab 3c f1 79 69 bd
       -0.01866974 0.06925904 0.020955877 -0.057001058
000190 5f 3e 73 bd 28 9d 36 bd fc d9 5d bc 74 13 8c 3d
       -0.059385654 -0.04458347 -0.013540741 0.06839648
0001a0 8e a3 b1 3d d1 e6 30 bb 82 c8 9b 3c 54 18 8b 3d
       0.08673774 -0.0026993046 0.019016508 0.067917496
0001b0 29 f5 07 bc 8e 89 58 3d 86 e5 55 bd 53 fd 79 3d
       -0.008298197 0.052865557 -0.052220844 0.061032604
0001c0 55 5d 86 3c 29 b7 eb bc 66 d1 b9 bd 31 bb 3b 3d
       0.016401926 -0.028773861 -0.09073143 0.045832817
0001d0 07 28 a0 3d 3d 70 47 3d 2e 9a 1a 3d a0 2f df 3c
       0.078201346 0.048691023 0.037744693 0.027244389
0001e0 94 0b 74 bd e4 4b c9 bc 9b 8f 38 bd 05 56 b3 ba
       -0.059581354 -0.02457232 -0.045058828 -0.0013682252
0001f0 31 23 59 3c 85 aa c3 3c 98 b0 c3 bc c8 fe 85 b8
       0.013253019 0.023885021 -0.023887917 -6.389391e-05

fc2.weight f4 [3, 128]
000000 13 e3 99 bd 6f 64 02 3e f8 c4 a6 bd 96 d2 ff 3d
       -0.07514014 0.12733625 -0.081430376 0.12491338
000010 7c 24 12 3e 3c ce 98 bd bd e4 ea 3d a0 b9 95 3d
       0.1427173 -0.07461211 0.114694096 0.07310796
000020 bf c7 07 be 29 22 1a 3e f8 b2 61 bd b3 8c 25 3e
       -0.13259791 0.15052094 -0.05510232 0.16166954
000030 af c2 8b bd 07 2d 8b bd 4e 83 b4 3d 6f 98 41 3d
       -0.06824242 -0.06795698 0.08814107 0.047264513
000040 24 2a f2 3d 59 b7 e8 bd db 68 15 be 02 95 22 3e
       0.11824444 -0.11363096 -0.1459078 0.15877154
000050 a4 bd 00 be 47 14 b3 3d 23 1d 3f 3e cc 7e 09 3e
       -0.12572342 0.08744102 0.18663459 0.13427275
000060 62 c5 cf bd aa cd aa bb 9f 03 38 be 54 13 2d be
       -0.1014507 -0.0052125053 -0.17970131 -0.16901904
000070 50 71 dc bd 87 26 30 be d5 83 e0 3d aa 34 88 3d
       -0.107638 -0.17202197 0.10962645 0.0665067
000080 0a ce 31 be e5 49 34 bd c2 6f 62 3e 18 10 b1 bd
       -0.17363754 -0.044015784 0.22112945 -0.08645648
000090 b4 8f 03 3e be ea 23 3e 11 9a 55 3d b9 bf e0 bd
       0.12847787 0.16007516 0.052148882 -0.10974068
0000a0 2a eb 2a 3e 61 e2 e2 bc 68 19 16 3e de 81 00 be
       0.1669127 -0.027695836 0.14658129 -0.1254954
0000b0 98 c7 fb 3d f9 04 39 3d b4 00 82 bd 42 46 61 3e
       0.12293929 0.045170758 -0.0634779 0.21999457
0000c0 a5 1e 12 be 91 56 df bd 9a be 89 3c 95 c4 08 3e
       -0.14269502 -0.10905183 0.016814519 0.1335624
0000d0 fd 23 ef 3d e0 f6 32 3e fa 91 1a 3d a8 8e c9 3d
       0.11676786 0.17476988 0.03773687 0.09841663
0000e0 6e d2 17 3d bc 21 bd bd b1 64 d8 bd 5c 4c 07 3e
       0.037065916 -0.0923495 -0.1056608 0.13212723
0000f0 02 d5 b7 bd 60 96 d9 bc 4c 07 ea 3d a5 c3 42 bc
       -0.08976175 -0.026560962 0.11427173 -0.011887466
000100 72 e6 08 3e f8 2a c2 ba 56 7d 9e 3d 11 55 ba bd
       0.13369158 -0.0014813831 0.0773875 -0.090982564
000110 78 98 98 bd 37 43 0e 3e b9 37 38 3e bc 95 38 3e
       -0.07450956 0.13892828 0.17990007 0.18025869
000120 85 4e 68 3d 28 8d 8c 3c 89 45 07 be 8d ba 44 be
       0.056715507 0.017157152 -0.1321012 -0.19211788
000130 f3 70 55 bd 74 5c 13 3e ad bf 89 bd 1a b9 f6 bd
       -0.05210967 0.14390737 -0.067260124 -0.12047024
000140 47 1d 26 3e ed dc 8c bd 8d bb 85 bd ea 70 1b bd
       0.16222106 -0.06878076 -0.06529913 -0.03794948
000150 e7 19 31 be 84 b3 6f bd ad a1 f7 3a e5 9f 5b bd
       -0.17295037 -0.05852081 0.0018892788 -0.053619284
000160 da 54 0d 3e 76 2b 08 be 63 5d c8 bd 22 ff 02 be
       0.138019 -0.13297829 -0.09783437 -0.12792638
000170 da 51 aa bd 41 c9 98 bd b9 50 1d bc ca 38 c2 3d
       -0.08316393 -0.07460261 -0.009601765 0.09483488
000180 e6 57 ba 3d af 73 30 3e a6 f6 14 3e 1c 8c fc bd
       0.090987965 0.1723163 0.14547214 -0.12331411
000190 79 ef b8 bd 50 f4 2e be 0c c2 fb bd 5d 07 3c 3d
       -0.09030051 -0.17085385 -0.12292871 0.04590546
0001a0 12 85 11 3e 56 3b fb 3c 24 06 ee 3d c9 07 d7 bd
       0.14210919 0.030667942 0.11622265 -0.10499532
0001b0 12 df d3 bd 27 fc ef bd 98 1c f6 3d b2 42 03 3e
       -0.10345282 -0.11718016 0.120171726 0.12818411
0001c0 82 50 93 3d 89 3b 9b 3d 27 4f 01 be a9 66 e2 bd
       0.0719309 0.07579715 -0.1262785 -0.11054737
0001d0 38 29 07 be be ba 92 ba d1 6c 1e 3d 0f b9 d6 bd
       -0.13199317 -0.001119457 0.038677994 -0.10484516
0001e0 f2 c3 e7 bd f5 27 3d be e1 7d e8 bd 67 32 ea 3d
       -0.113166705 -0.18472274 -0.113521345 0.11435395
0001f0 d6 92 b5 3b 45 c3 a1 bd e4 7b 40 3d 63 26 16 3e
       0.005541186 -0.07898573 0.04699315 0.14663081
000200 d6 47 cb 3d b1 fa e2 bd e1 77 3e bd af b5 95 bd
       0.09925811 -0.11082972 -0.046501044 -0.07310044
000210 c3 22 da bd 95 02 12 3e 96 f7 be bd fc ba 82 bd
       -0.106511615 0.14258797 -0.09324567 -0.06383321
000220 50 71 bf 3d 1a ba bb 3d 11 e1 ff bd 09 8f d5 bd
       0.093477845 0.091663554 -0.124941 -0.104276724
000230 93 10 89 bd 00 15 0b 3e d8 a3 e0 3d 62 45 6f 3d
       -0.066926144 0.1358223 0.10968751 0.058415778
000240 01 69 a7 3d a8 16 00 bd 82 4d d8 3d e8 20 b0 3c
       0.08174325 -0.031271607 0.105616584 0.021500066
000250 88 f3 33 3d c3 1f 80 bd 88 92 4a bd 87 d9 3d 3d
       0.04393342 -0.06256058 -0.04945615 0.04635003
000260 0e af 59 bd db c4 cb 3d d0 69 16 3d 1e 4c 1b 3d
       -0.05314546 0.099496566 0.036722004 0.037914388
000270 f4 f3 fc 3d 4f 17 a6 3d 29 39 d5 bc e3 b0 ab bd
       0.12351218 0.081099145 -0.026028233 -0.08383348
000280 be 12 4b 3d 9e 41 86 3d 1d b0 21 bd 51 65 f2 3d
       0.04957842 0.06555484 -0.039474595 0.11835731
000290 34 77 48 bd 3b 1d 5c bd cd d0 18 be 0d 97 5d 3d
       -0.048941806 -0.053738814 -0.14923401 0.05409913
0002a0 34 73 9e bd 29 e0 08 be a1 63 b6 bd 9d 66 c1 3d
       -0.07736817 -0.1336676 -0.089057215 0.094434
0002b0 b2 1d 0e 3d 14 5a f3 bd 9e ff ec bd 9f 3c 3d 3c
       0.03469629 -0.118824154 -0.115721926 0.011550098
0002c0 83 66 90 3d 44 84 f6 bc bc 8f fc bd b1 e4 ce 3d
       0.070508026 -0.030092366 -0.12332103 0.10102213
0002d0 8f c9 04 bd 87 5d df 3c 61 12 01 be 89 9c c3 bd
       -0.032418784 0.027266277 -0.12604667 -0.09551341
0002e0 64 92 e4 bd 28 64 ee 3d 82 77 cf 3d ae 33 ca bd
       -0.11160734 0.11640197 0.10130216 -0.09873138
0002f0 f1 44 eb 3d dc c5 64 bd 9f 4c ef bd b0 af 05 3e
       0.11487759 -0.055852756 -0.11684536 0.130553
000300 c1 04 91 3d cb a9 9a 3d 48 5d 25 3d ff c6 e3 3d
       0.07080985 0.07551917 0.040372163 0.1112194
000310 5d 9b b7 bd 56 45 2b 3c 61 16 26 bd 7e cc c5 3c
       -0.0896518 0.010453543 -0.040548686 0.024145361
000320 f4 eb 8f 3d 58 f3 d7 bd a0 5f c0 3d 87 aa fd 3c
       0.07027426 -0.10544461 0.09393239 0.030965103
000330 44 a7 0a 3e fc 2c e6 bc 14 03 93 3c 2e 82 6e 3d
       0.1354037 -0.028097622 0.017945804 0.058229618
000340 d3 9d 72 bd 53 7d ad bd 0c 34 35 3e 97 3b a4 bd
       -0.059232544 -0.08471169 0.17695636 -0.08019178
000350 f4 7b a5 3d 40 bf 98 3d 04 79 55 bd cd 6a 1f 3e
       0.08080283 0.07458353 -0.052117363 0.15568085
000360 7a c1 0d 3d 8c b8 8c 3d 2a 56 f8 3c 32 a5 58 3d
       0.03460834 0.06871137 0.030314524 0.052891918
000370 70 69 1a 3e 13 8e 0f 3e 65 d2 37 bd 46 48 ba bc
       0.15079284 0.14019041 -0.044878382 -0.02273954
000380 07 20 bd 3d a7 14 7a 3d b0 7f 0c bd 29 7c 04 3e
       0.09234624 0.06105485 -0.03430146 0.12937988
000390 a2 14 81 bd 75 b8 3d bb f8 76 d7 bb 23 d7 e0 3d
       -0.063027635 -0.0028949056 -0.0065754615 0.10978534
0003a0 eb d1 a6 3d b4 ad 9e 3c 67 2f de bd 3a 01 e5 3d
       0.081455074 0.019369937 -0.10848885 0.111818746
0003b0 84 6f 21 bd ca 35 63 3d 9b 41 01 be ac 8d 02 bd
       -0.03941299 0.05547122 -0.12622683 -0.03187339
0003c0 dd b9 a4 bd 61 f7 9b 3d 39 2f a1 3c 3e 74 05 3e
       -0.08043263 0.07615543 0.019675838 0.13032624
0003d0 f7 40 9f 3d e1 ec 99 3d bb 85 20 3e ce 92 16 3e
       0.07776063 0.07515884 0.15676014 0.14704439
0003e0 f2 68 ab 3d 18 09 80 3c c5 6d 92 bc ff 57 b8 3c
       0.08369626 0.015629336 -0.017874608 0.022502897
0003f0 0b 33 05 3e 2c a2 73 bd eb 47 c9 bd 34 84 9a bd
       0.13007753 -0.05948083 -0.098281704 -0.07544747

fc2.bias f4 [3]
000000 e4 97 6a 3e 61 3a 24 be 3e 07 00 be
       0.22909504 -0.16037895 -0.12502763
