results/valence/classification/20251225_120550_471017/best_model.pt (torch, 358837 bytes, 16 tensors)

conv1.weight f4 [16, 1, 3, 3]
00000000: 5c79 923e e250 b53e 5e39 84be e6ea 133e
00000010: 6483 e53b 940a 1b3c e010 84be 9bdc ff3d
00000020: 0233 053f 4945 b8be 7ae9 403e f8c4 683d
00000030: 0cc1 a53e 3a4a a63e 314d 933e 31e6 0ebe
00000040: c46f 5e3e 95da bdbd 3449 12bd 7890 0b3e
00000050: 45a6 6cbe 3e73 ecbd b1a5 63be e9d1 d73e
00000060: e812 2abe a236 8dbe 1920 0dbe fe6f 76bc
00000070: 02f0 4d3c a24b eabe d91e 693e fbd6 b2be
00000080: ba13 b23e b2ad 0c3e afcc 63be 3162 b93e
00000090: 6f0e 2ebd 9ab1 de3e c718 a63d ecad 0dbe
000000a0: 08c1 c9bc d923 8ebe 81d5 34bb c90a e03e
000000b0: 44a2 2f3e 90cd 983b 4c52 5e3e 26c3 3c3e
000000c0: d436 a53d 1e13 4ebe caaa ebbe 6c86 76bd
000000d0: ea62 aabe 777f e33e 22de 41ba 1aef 623e
000000e0: 1129 333e 63b1 d63c 64dd a83e 4100 d9be
000000f0: 1099 05bd 87bf 88be cc68 163e 60a1 dbbd
00000100: f5ec debc dc10 05bd 589b 8d3e d3a8 f2bd
00000110: 6581 dabe 5b2a cbbd 3e53 ec3e 0082 873e
00000120: 31e0 983e 4cc1 85be acaf dbbe 93a1 a1be
00000130: 3c97 6cbe 292d 613e 33ee 0f3e f521 d03e
00000140: 6bc4 75be 37c4 cbbd f343 d93d c9a6 adbd
00000150: 76bb 723e 79f8 ef3b c9b2 a23e d11d 77be
00000160: 98fa 03bf b4d7 723e 6b53 ad3b 2b31 2dbd
00000170: ddb0 043f 28da 3c3e 3007 a4be def7 21be
00000180: 6445 8b3e 9efc 71bd 4252 94be 1a21 ad3d
00000190: adaa a4be e9bc d63e 669a 053b 3b01 62be
000001a0: efa6 123e df56 2cbe eff7 f6be 90f8 f4bd
000001b0: 7650 edbd 9cd7 69be 96e7 f13e 4e04 f6b8
000001c0: 13bc 4a3e 04a2 ffbe 3d8a 53be 9bf0 9fbd
000001d0: e7be 473c 44a7 b3be 6b14 8cbb 1d69 8ebe
000001e0: 993f c0bd 6a93 4d3c 741c 033e 47a0 92bc
000001f0: fe6e dbbe 0f5a c1be 0234 07be 75ff cabe
00000200: 5f47 ce3e 789f 9ebd f798 923e c1c5 b93e
00000210: 460e 18be 0462 593e a037 5cbe 5249 c6bd
00000220: fc60 9abe f60d f7be ffb4 063d c2fc 823d
00000230: 1686 483e b373 6dbe 7294 d53e 2df5 a1be
0.28608215 0.3541327 -0.25825018 0.14445075 0.0070041884 0.009462971 -0.25794125 0.12493249
0.52030957 -0.3599036 0.18839064 0.05682847 0.32373846 0.32478505 0.2876983 -0.13954999
0.21722323 -0.09270207 -0.035714343 0.13629329 -0.23110302 -0.11545418 -0.22231175 0.42152336
-0.16608775 -0.27580744 -0.13781776 -0.015041349 0.012569429 -0.45760828 0.22765674 -0.34929642
0.34780675 0.13738135 -0.2224605 0.36207727 -0.042494234 0.43494874 0.08110195 -0.13835877
-0.024628177 -0.27761725 -0.0027593079 0.43758228 0.17151743 0.004663177 0.21711081 0.18433818
0.08067098 -0.2012448 -0.4602874 -0.06018679 -0.3327859 0.44433185 -0.0007395466 0.22161523
0.17496134 0.026207631 0.32981408 -0.42383006 -0.032616675 -0.26708624 0.14688414 -0.10724139
-0.0272126 -0.03248678 0.2765758 -0.11848607 -0.42676845 -0.09920188 0.4615726 0.2646637
0.29858544 -0.26124036 -0.42907465 -0.31568584 -0.23104566 0.21989883 0.1405571 0.40650907
-0.24000709 -0.099495344 0.106086634 -0.08479077 0.23704323 0.0073233214 0.31777027 -0.24132468
-0.5155425 0.23715097 0.005289485 -0.04228322 0.5183237 0.18442595 -0.32036734 -0.1581721
0.27201378 -0.059078805 -0.28969008 0.08453579 -0.32161465 0.41941002 0.0020386218 -0.22070782
0.14321493 -0.16830014 -0.48236033 -0.11961472 -0.11587612 -0.22836155 0.47247 -0.00011730996
0.19798307 -0.49928296 -0.20658202 -0.07809564 0.012191511 -0.3508855 -0.004274895 -0.2781457
-0.0938713 0.012547353 0.12803823 -0.017898692 -0.42858118 -0.37764022 -0.13203433 -0.39648023
0.40288827 -0.0774526 0.28632328 0.36283687 -0.14849195 0.21228796 -0.21505594 -0.096819535
-0.30152118 -0.4825284 0.032887455 0.06395866 0.195824 -0.23188667 0.41714817 -0.31632367

conv1.bias f4 [16]
00000000: 143c 75ba f6a2 0dbb 158f b13a 8f03 84b9
00000010: dcb3 333b e82a 75b9 26f7 c5ba 4d57 cdba
00000020: 4e77 d939 269c 80ba cf15 0bba 7181 253a
00000030: 849b 5f3a 02f3 99b8 f2b6 243b a01e e9ba
-0.00093549606 -0.0021612025 0.001354667 -0.00025179653 0.0027420437 -0.00023381005 -0.0015103563 -0.0015666276
0.00041478354 -0.0009812161 -0.0005305679 0.0006313539 0.00085299485 -7.340872e-05 0.0025133458 -0.0017785616

bn1.weight f4 [16]
00000000: 8aca 613f f7af 713f d766 4b3f b324 833f
00000010: d7f0 863f 88ff 8c3f 9a58 a83f f039 933f
00000020: ec0f 613f 45bf 863f 7d1c 6d3f 183d 413f
00000030: f031 613f 3a09 3d3f 5bdc 913f f93a 783f
0.88199675 0.94409126 0.79453796 1.0245575 1.0542248 1.1015482 1.3152039 1.1502056
0.8791492 1.0527121 0.92621595 0.75483847 0.87966824 0.73842204 1.1395372 0.96964985

bn1.bias f4 [16]
00000000: 9302 9bbd b8b1 88be 676b d6bd 8ec5 2cbc
00000010: 54dd 8abd d87b f0bd eaac dcbe f087 89be
00000020: 8d75 4fbd 6298 a0be af49 48bd a7d2 06be
00000030: d162 98bd ecd8 4fbe 4b1d 6dbe 8e3e a8bd
-0.0756885 -0.2669809 -0.10469704 -0.010545148 -0.06780496 -0.11742371 -0.43100673 -0.26861525
-0.050649215 -0.3136626 -0.048898395 -0.13166295 -0.07440723 -0.20297593 -0.23155706 -0.08215056

bn1.running_mean f4 [16]
00000000: ad89 8abb 084e dbbb 8cb7 443b 9314 99ba
00000010: feb6 8bba 5a4a 5a3b ee60 48ba 31bb 36bb
00000020: 6922 e83a 6246 973a c73b 093b fe38 923b
00000030: cdb6 263b 3cfd ae3b 8c19 e8ba 2987 633a
-0.004227838 -0.0066926517 0.003001663 -0.0011679105 -0.0010659394 0.0033308477 -0.0007643838 -0.002788257
0.001771045 0.0011541361 0.002094017 0.0044623604 0.0025438548 0.0053402465 -0.0017707809 0.0008679503

bn1.running_var f4 [16]
00000000: 7dba e23e 647e 163f 780e 8a3e 4e21 4a3e
00000010: dd49 9c3e 05c5 4c3e 6d13 0f3e 9d1c 6a3e
00000020: 002d 923e f4ff 5e3e f865 633e 98e7 083f
00000030: e8c8 2e3e 203a 253f bad5 a93e e609 983e
0.44282904 0.58786607 0.26964164 0.19739267 0.30525103 0.19997032 0.13972254 0.22862478
0.28549957 0.21777326 0.22206867 0.53478384 0.17068827 0.64541817 0.33170873 0.29695052

conv2.weight f4 [32, 16, 3, 3]
00000000: 53a3 7c3e 2797 303e a894 c13d 6a4c 853c
00000010: 444c 4dbd 7a15 383d decf 8a3d 8561 703e
00000020: 7ef7 873e a51a 5a3b c5bb 80be 9079 103e
00000030: eb94 f4bd fe90 d83c 3e9e 4fbe 6f55 88be
00000040: b623 71be e313 9a3e 95e7 c63d 8137 5bbc
00000050: 117d 433e 8bbd 803d 8efc 45be 090a 4ebd
00000060: 0056 783e 5a30 2e3d 51e8 173e 7545 a13c
00000070: 502e ddbd 676c 8cbe 152d 79bc c24a 87be
00000080: 9d16 d43d 6821 1c3e 02e4 5a3e a0ff b33c
00000090: 972f ca3d cec6 033e 01bb f3bd aa1d ab3d
000000a0: 00c7 9abe d2cd 31bc 9ca8 8f3e 5a71 373e
000000b0: 24c6 8bbc ab42 f4bd 5205 8e3d 1891 83be
000000c0: 22f7 27be d993 d7bd 8141 8e3c 7813 1ebd
000000d0: 8343 babc 90ef 76bd 216e 70bd 7bfe c43e
000000e0: 9b66 73bd f853 e6bd 4204 11bd d3f9 a8bd
000000f0: d84a df3d 02d1 323e 57f2 aabd 01db 753d
00000100: f195 f0be 8be6 d13e ed15 0abc 90e1 d6be
00000110: ba84 13bf f526 813d 79e6 99be 0cf1 043e
00000120: 611b 8c3b efe9 4f3e 75d3 de3c 64a4 a2bd
00000130: f699 013e d81a 93be bd30 15be 7f39 8bbd
00000140: 59cf ec3d 46bc 893d a424 ab3d 62c0 3abe
00000150: 1e6d 23bd 259a 59bd 8c43 2ebe e7a1 4abc
00000160: 2203 153c e73b bb3e c533 d83c 9763 2dbe
00000170: 11ce 5d3d 333b 463e 3de7 00be 60be 71be
00000180: c53b a5bd 4c04 a43d 6593 923e 8923 91bb
00000190: 4c8b d63d 2ff4 12be 04c1 9c3c b65a d13d
000001a0: 7e35 d73d 1c59 153e 33dd 0cbe 1459 443d
000001b0: d6a6 3bbd d4e7 2cbc 6c35 6d3e 2eeb 063d
000001c0: 31ff 083e 4006 b13e 1d1f 043e e55c 10be
000001d0: c617 17be bddb c6bd bb9b ccbc 1f6a eb3d
000001e0: dc4f 2bbd 028c bdbb 1169 8d3d 7a92 8a3d
000001f0: 58d6 253e c9df 923d 446f 10be fa48 fc3d
00000200: 3579 6b3e ea32 33bd f872 6e3d 647d 81bc
00000210: 4a4e 9cbc 1616 f4be 5fb1 01be 9547 dbbc
00000220: 06d9 0e3d 9e80 063d eb26 9dbd 65f0 133e
00000230: 3233 37be 095f aebd 88fb 8abe 8186 f9bd
00000240: 4cac fcbe 96bd a33d 966b 5abe 7067 3c3e
00000250: 1e85 3b3c 26ea 173e c241 3dbc fb29 9d3c
00000260: edae cbbe bfda 983e 8b5b 903e d63d 5ebe
00000270: 50a5 153e 8b2a 813e d480 18be 2132 1abc
00000280: 5c22 843e 01ce d4bd bfa0 53bd 03ab 1a3c
00000290: 903b e43c 3312 a9be c857 94be 0e95 4dbe
000002a0: 52bf 07be 5853 b8bc cfc5 e7bc 0f27 f43d
000002b0: 6b18 6b3d a371 c9be 1543 923e 683f 113e
000002c0: c0a3 dd3d dd91 e63d c9cc 473d 43e3 4dbe
000002d0: c600 22be 3cd3 ac3d cd40 803c aa65 a5bd
000002e0: 92d2 49be ffbf 85be 9889 b9bb ad8e 4ebe
000002f0: 5973 80be 20e1 66bd 00d1 853c a0f1 153e
00000300: 7201 4bbd 3fa4 13be d1fa 73be 4021 5f3e
00000310: ee51 243e 8b4c 61bd 408f e13d d65b 5ebd
00000320: 7ba0 f9bc a917 6d3d 2b59 62be bf63 113e
00000330: 46a8 403e bbf6 323c 57dd 8cbe cb62 0fbe
00000340: 2e38 673d a2b2 ac3e 741f 313c 60f1 033d
00000350: 1eec b5bd 5f1b 6ebd b4cd f83c 5639 d1bc
00000360: 0dc3 963c 56e3 bb3c 5a93 0c3e 827c 9dbd
00000370: 2ac3 3d3d 507f d4bd 96e3 9cbd d2f6 853c
00000380: aba5 8dbe df95 683d 8344 40be e402 5ebc
00000390: 82f6 ac3d b98b bbbd 9d4e 89bd fc60 bfbd
000003a0: a2d4 013e 0512 e33c 7421 b9bd e081 6fbe
000003b0: 82c9 a43c 0eac 96bd 29b2 1abc 57a3 90be
000003c0: d1a9 363e c7f4 323e 333e 803d f3be f0bc
000003d0: 628b ccbd 241c 4bbe 40bb a8be 86ba b93c
000003e0: 39b6 9abe a240 9ebd 4763 8a3c bd0b 62bd
000003f0: 601f 543e b570 ffbc 46f8 cc3d 4a52 9dbc
0.24671678 0.1724516 0.09452182 0.016271789 -0.05012156 0.044942357 0.06777929 0.23474701
0.2655601 0.0033280042 -0.25143257 0.14108872 -0.11942466 0.026436325 -0.20275208 -0.2662768
-0.23548779 0.30093297 0.097121395 -0.013379932 0.19090678 0.062861525 -0.19334623 -0.05030254
0.24251556 0.04252658 0.14834715 0.01968644 -0.10799849 -0.27426454 -0.015208502 -0.26424223
0.10355876 0.15247118 0.2137604 0.021972477 0.09872358 0.12868807 -0.119009025 0.08355267
-0.3022995 -0.010852294 0.28058326 0.17914334 -0.017062254 -0.119267784 0.069346085 -0.25696635
-0.16402867 -0.105262466 0.01736522 -0.038592786 -0.02273727 -0.06028706 -0.058698777 0.38475403
-0.059424024 -0.112464845 -0.03540445 -0.08250775 0.10902947 0.17462543 -0.08347004 0.06002331
-0.46989396 0.40996203 -0.008428079 -0.41968966 -0.576244 0.063062586 -0.3005865 0.12982577
0.0042757248 0.20304082 0.02720044 -0.07941511 0.12656388 -0.28731418 -0.14569373 -0.06798076
0.11562986 0.067253634 0.08356598 -0.1823745 -0.039898984 -0.05312552 -0.17017955 -0.012367702
0.009094985 0.3656914 0.026391873 -0.16932522 0.0541516 0.1935852 -0.1258821 -0.23607779
-0.08068041 0.08008632 0.28628078 -0.004429285 0.104757875 -0.14350961 0.019135006 0.1022238
0.1050825 0.14584774 -0.13756256 0.047936514 -0.045813404 -0.010553319 0.2316491 0.03293913
0.13378598 0.3457508 0.12902494 -0.14097936 -0.14755163 -0.097098805 -0.024976602 0.1149485
-0.041824207 -0.0057845125 0.069048055 0.067662194 0.16195047 0.0717159 -0.14104944 0.12318607
0.22995456 -0.043749727 0.05821511 -0.015806861 -0.0190803 -0.476731 -0.12665318 -0.026767531
0.03487494 0.032837503 -0.07673439 0.14447172 -0.17890623 -0.0851422 -0.27145028 -0.12183858
-0.49350202 0.07995145 -0.21330103 0.18398833 0.011445312 0.14835414 -0.011551322 0.019185057
-0.39781895 0.2985439 0.28194842 -0.21703276 0.14613843 0.2522777 -0.14892894 -0.009411366
0.25807464 -0.103908546 -0.05166697 0.009440186 0.027860433 -0.33021697 -0.28973222 -0.20076391
-0.13256577 -0.022500679 -0.028292565 0.11921512 0.057396334 -0.3934451 0.28566805 0.14184344
0.108222485 0.1125829 0.048779283 -0.20106225 -0.15820608 0.08438727 0.0156559 -0.080760315
-0.19709232 -0.26123044 -0.0056621544 -0.20171614 -0.25088003 -0.05636704 0.01633501 0.14642954
-0.049561925 -0.14418124 -0.23826148 0.21790028 0.16046879 -0.055004638 0.11013651 -0.0542868
-0.03047203 0.057883892 -0.22104327 0.14198206 0.18814191 0.010923083 -0.2751262 -0.1400253
0.05645006 0.33730036 0.010810722 0.032212615 -0.088829264 -0.05813157 0.030371524 -0.025540035
0.018403554 0.02293555 0.13728085 -0.076897636 0.0463287 -0.103758454 -0.07660596 0.016353045
-0.27665457 0.056783553 -0.18776135 -0.013550494 0.08445455 -0.09157509 -0.067044474 -0.0934467
0.12678769 0.027718553 -0.09039584 -0.23389387 0.020115618 -0.073570356 -0.009441891 -0.28249618
0.17838217 0.17476188 0.062618636 -0.029387927 -0.09987523 -0.19834954 -0.3295536 0.02267195
-0.3021715 -0.077271715 0.016893042 -0.055186976 0.20715094 -0.031181673 0.10008292 -0.019204278

conv2.bias f4 [32]
00000000: 5f0a 9539 6292 f839 48e9 65ba 124d 073a
00000010: 069e 70b9 cc8d edba 402b 8539 1d7a 653a
00000020: 72e5 c0b9 f8b7 abb8 7ce9 8638 85a3 70b9
00000030: 1c57 803a cc51 323b 8eba 943a 9780 a639
00000040: 53a2 103a 5f3c 84ba fe98 bcb9 cd94 2a3a
00000050: 2ed1 293a 006e 063b 14af 09b9 dcc3 1eba
00000060: b055 6cb8 a9a5 a339 1da5 3a39 72f9 d8ba
00000070: 6f24 643a 1758 b83a 7737 11ba e183 743a
0.00028427222 0.0004741131 -0.00087704184 0.00051613257 -0.00022947052 -0.0018123924 0.0002539996 0.0008753853
-0.00036792044 -8.188182e-05 6.433108e-05 -0.000229491 0.0009791586 0.00272094 0.0011347102 0.00031757794
0.0005517352 -0.0010088793 -0.00035972142 0.00065071584 0.00064780086 0.0020512342 -0.0001313056 -0.0006056407
-5.6346587e-05 0.0003121321 0.00017799852 -0.0016553833 0.0008702939 0.0014064339 -0.0005539576 0.0009327513

bn2.weight f4 [32]
00000000: 45a9 f73f 3c0b e23f 7ce2 e93f 85fe fc3f
00000010: 6e59 e73f 0475 e93f 26fa de3f 5585 e83f
00000020: 7a6d e33f df20 0d40 bc8c f83f ca32 ed3f
00000030: 1b6e f13f f062 f43f b981 eb3f fbed f43f
00000040: 6aac e03f 6351 eb3f 583a e23f e1ed e03f
00000050: 2ef4 0940 1f77 e63f 81ce ec3f f09c fb3f
00000060: 9ae8 ef3f f380 0140 6fd6 e53f e919 eb3f
00000070: 65de f53f 77bf e93f 9aab f03f cec9 f83f
1.9348532 1.7659678 1.8272243 1.9765173 1.8074167 1.8238835 1.7420089 1.816569
1.7767785 2.2051313 1.9417949 1.8531125 1.8861727 1.9092693 1.8398963 1.9135126
1.7552617 1.8384212 1.7674055 1.7572595 2.1555285 1.8005103 1.850052 1.9657269
1.8742859 2.0234954 1.7956065 1.8367282 1.9208494 1.8261555 1.8802369 1.9436586

bn2.bias f4 [32]
00000000: b417 24bf c70e 41bf 5c96 64bf 703f 48bf
00000010: 1173 4ebf 4693 53bf 319d 54bf 5d52 65bf
00000020: 6b4f 30bf 287d b5bf 3b53 3cbf 56c8 7bbf
00000030: 08fa 3fbf eec7 80bf 0349 54bf 5234 5abf
00000040: 3295 47bf a6de 3abf 43af 3dbf 7237 82bf
00000050: cada b0bf 8d9f 58bf c98b 5cbf d65c 4ebf
00000060: 5cc4 2cbf 851d 72bf 9eaa 5dbf 4fd7 48bf
00000070: 38f5 4fbf 2c1d 4abf 4619 0fbf 67a0 bbbf
-0.6409867 -0.75413173 -0.8929193 -0.782218 -0.8064433 -0.82646596 -0.83052355 -0.895788
-0.6887118 -1.417882 -0.735645 -0.98352563 -0.7499089 -1.0061014 -0.8292391 -0.85236084
-0.7796203 -0.72995985 -0.74095553 -1.017317 -1.3816769 -0.84618455 -0.86150795 -0.80610406
-0.6748712 -0.94576293 -0.86588466 -0.78453535 -0.8123355 -0.7895076 -0.5589794 -1.4658326

bn2.running_mean f4 [32]
00000000: 88de c2be 125d 0bbf 015b 393e 4001 86bf
00000010: 8f57 85be 94da 18bf 2cf7 0e3f dfa4 acbe
00000020: 9bf6 0bbf e04f b13f e9b5 0dbf b2de 623e
00000030: e3a2 5fbf 2238 7e3e bfb5 e0be e823 073e
00000040: 7c1f a33d 339e 01bf 1f4f cdbe a69a 343f
00000050: 5ca4 c33e 5061 f1be e141 433e 1c66 2cbf
00000060: 7a4c 21bf c69a 02bf d7e5 d43e 3e22 7abe
00000070: 146c c3bd 39ab 1ebf 4d2d 88bf d454 053f
-0.38060403 -0.5443889 0.18101121 -1.0469131 -0.26043364 -0.59708524 0.55845904 -0.33719537
-0.54673165 1.3852501 -0.553557 0.22155264 -0.8735792 0.248261 -0.4388866 0.13197291
0.079649895 -0.5063202 -0.40099427 0.70548475 0.38211334 -0.47144556 0.190681 -0.67343307
-0.6300732 -0.51017416 0.41581604 -0.24427125 -0.09542099 -0.61980015 -1.0638825 0.5208256

bn2.running_var f4 [32]
00000000: 80b7 5f3f 6257 613f fa86 d83e bf9f 8a3f
00000010: a67b 133f 7daa 1b3f 7a8b 0c3f fa6b d23e
00000020: ed5c 1a3f 933a 583f c1fd 1c3f 8781 2a3f
00000030: 0f2a 2b3f 45cb 293f 2db2 083f 0a68 073f
00000040: 16a8 063f 8464 b93e f1df 1e3f 04e6 253f
00000050: a85e 073f 80df 233f af2c 213f 1695 413f
00000060: c1be 0c3f 5ca1 1a3f d00b 003f 6add 223f
00000070: bd56 f43e 78f7 243f 32a1 233f 9676 043f
0.87389374 0.8802396 0.4229048 1.0830001 0.5761055 0.6080702 0.54900324 0.41098005
0.60298043 0.8446438 0.613247 0.66603893 0.6686105 0.6632579 0.53396875 0.52893126
0.5260023 0.362095 0.6206046 0.648041 0.5287881 0.6401291 0.62958807 0.7561811
0.5497857 0.60402465 0.50018024 0.636191 0.47722426 0.6444011 0.6391784 0.5174345

fc1.weight f4 [128, 640]
00000000: 17dd 73be 6be5 3abe 8ee2 dfbd f6cd e7bc
00000010: b232 cdbe 2ac1 7e3d eeb3 e43d cc50 d1bd
00000020: 03da f5bc 137a ce3e 936a 02bc e48b e73d
00000030: 6bd8 3ebd df14 b7be 2b79 7ebc 6548 333d
00000040: d955 babd c866 2c3d 8e4c 98bc 5527 a23e
00000050: f968 26bd 7abd aa3c 051a 07be 65d8 f83e
00000060: 5765 a2bd 2415 503e ac2c dbbd fe83 5cbe
00000070: 9941 ba3e 9100 0b3c a181 35be ba75 35be
00000080: 3157 583e 8bcb cebd d777 5bbe 10b9 46bd
00000090: d80b 883d a61f 1e3d 6c6a 49be 4912 8e3e
000000a0: 73c4 0e3a 44c0 5fbd 8ac3 b3bd dc21 94b9
000000b0: eb3a 81be a104 35be 496f 2cbe 7e15 523d
000000c0: 2149 61bd 5d4b 97be b2f4 f83d c638 39be
000000d0: 2cb8 493d 665c 523d e88a 233e e397 713e
000000e0: 5937 503e cb3b 613e 872e e4bc 45d6 b93d
000000f0: 71aa 533e abfa 00be 1b5a 4c3e 73f4 883e
00000100: 0e06 a7bd 6147 d9bb e772 19bd 848e da3d
00000110: d6e2 7b3e bfaa a7be 9c48 98bc ede7 803d
00000120: 13a6 5fbe a53c fcbd 1b43 3d3e cfc5 603d
00000130: 59c3 1fbe 74d8 613d d2a5 58be 91d3 4b3d
00000140: 8be5 12bd 7938 afbd 0ae7 94be 3d2d 61be
00000150: 4573 81be 10f9 edbe 9e8f 55be 4bbd 93bc
00000160: 3d6a ee3e 5757 b3bd 585a c13d c1ca 6c3e
00000170: 3542 6fbb e0b6 c9bd 9944 cf3a 990c 463d
00000180: b497 fdbd 611d 4cbc 8f0d 973d 22b0 b0bc
00000190: cb78 d83c 06cf 253e 2693 abbe 7360 673e
000001a0: 4363 5a3e 4283 073d 3d15 bd3d 70e3 833e
000001b0: 19c3 f23e e95a 1b3e 07db 7cbd a517 d5bd
000001c0: 9a5f ad3e a6e9 723e 2741 de3b abf8 2cbe
000001d0: a80a 5c3e 7e8d 79bb 729e 3a3e f30b 3ebd
000001e0: 5814 603d 86b9 083e 8bb8 a4be e9e8 49be
000001f0: 65f2 c7be 2ccb 18be 74e5 833d 8816 82bd
00000200: daf6 a1be df1b c13e d5e1 313e a99a 48bd
00000210: 845d d0bd 68b5 44be a18f f3bd 99fe 6f3e
00000220: 4fd5 58be d572 973e 3c6e a63d 1418 613e
00000230: ce20 c9bd e60c 683e 0652 8bbd 0b79 b5bd
00000240: 71cb 0c3e c4bb d4bd eeb7 253d 8e00 213e
00000250: 8ab1 f93d d4bd c7be 389a 553d 3bee eabc
00000260: 0f14 90bd d3ed 533d bfa4 6e3e b3b4 7d3c
00000270: dcbd b2be 8f8d 103e 3429 583e ab05 3c3d
00000280: ec4b 203d 2acf 4bbe 2ca1 953d 5985 bdbd
00000290: 11af 633e 981b bd3d c0a8 b73d d086 223e
000002a0: 3fa7 86bd c088 c53d 84ab 823d 956f 1f3e
000002b0: 2754 32be aa0a 1f3e 5ac9 a33d 8063 8dbe
000002c0: 9994 763e 9281 6f3e 6e0e 3d3d 789d 84be
000002d0: 772c 123e 0698 53be 8a1e 00be c15c d8be
000002e0: 0a47 25bf 1c79 233e 827a 09bb 5814 393e
000002f0: f19e 053e c5f3 d4bd 680e 1a3d 8cc7 b63d
00000300: fcf2 893d 9d18 dd3d a979 b0bd d379 5c3e
00000310: a938 afbb fef2 463e 9fac 8c3e a477 23bc
00000320: 55a4 c03b 163d 4d3e b4eb 7cbd 8675 c43e
00000330: 3a62 b9bc 90fc 48bd f130 5ebe 9b1e 49bd
00000340: b381 953e 916c 773e c46f 073d 16e3 723d
00000350: 6dcc 4c3e c045 2d3e db6b e1bd 9d36 c7bd
00000360: 25ed 863c 1e70 973b 37f2 923e b491 e73c
00000370: 7751 8b3e 7416 703e 9fb7 ffbe bae0 81be
00000380: 11bd 353e 2f3d 333c 39ec b8be 10da 3e3d
00000390: f160 4bbe 5e05 b3be 8be2 173d a2ed 9b3e
000003a0: 217a 013e d233 44be 0e88 10bf d8ad f2bc
000003b0: 2bff b73e 3796 a13e fb7c 3abe e91c 87be
000003c0: be74 503d add8 d93d e53c a1bd 120f c33e
000003d0: c204 faba 4aaf d53d 8a87 74be aa2d a2bd
000003e0: 175e d1be 7fde 903d 31c1 0a3d 9d40 85be
000003f0: eaae 073e be3d 5bbe cf22 7abe f356 f6bd
-0.23814808 -0.18251579 -0.10931884 -0.028296452 -0.4007774 0.062195934 0.11167131 -0.10220489
-0.030011183 0.4032751 -0.00795998 0.11305979 -0.04659311 -0.3575811 -0.015531818 0.043770213
-0.090984054 0.042090207 -0.018591192 0.31670633 -0.040627453 0.020842303 -0.1319352 0.48602596
-0.07929485 0.20320565 -0.1070188 -0.21534726 0.36378172 0.008484022 -0.17725231 -0.1772069
0.21127011 -0.100974165 -0.21432434 -0.048516333 0.06642884 0.0386044 -0.19669503 0.27748325
0.00054461433 -0.05462672 -0.087775305 -0.00028253987 -0.25240263 -0.17677547 -0.16839327 0.051290028
-0.05500138 -0.29549685 0.12156047 -0.18088064 0.049247906 0.05135765 0.15970957 0.23593096
0.20333613 0.21995465 -0.027854217 0.09074072 0.20670487 -0.12595622 0.19956248 0.26749
-0.08155452 -0.0066308235 -0.037463095 0.10671714 0.2459825 -0.32747456 -0.01858931 0.06294236
-0.21840696 -0.123162545 0.1848263 0.054876145 -0.15601863 0.055138066 -0.21157005 0.049762312
-0.03586344 -0.08555693 -0.2908252 -0.21989913 -0.25283256 -0.46479082 -0.20855567 -0.018034598
0.46565428 -0.08756893 0.0944106 0.2312422 -0.0036507968 -0.09849334 0.001581329 0.048351858
-0.12382451 -0.012458176 0.07375633 -0.021568362 0.026424786 0.16192254 -0.33510703 0.22595386
0.21326928 0.03308416 0.092325665 0.2575946 0.47414473 0.15171398 -0.06173232 -0.104049005
0.33862 0.23721942 0.006782669 -0.16891734 0.2148844 -0.003807872 0.18224505 -0.046398114
0.0547069 0.13352022 -0.32172045 -0.19717754 -0.3905212 -0.14921254 0.06440249 -0.06351954
-0.31633645 0.37716576 0.17371304 -0.04897562 -0.10174087 -0.19209826 -0.118926294 0.23436965
-0.21175121 0.29579797 0.08126494 0.21981841 -0.0982071 0.2266117 -0.06802754 -0.08860978
0.13749482 -0.10387376 0.040458612 0.15722868 0.12192066 -0.39012015 0.052149028 -0.02867805
-0.07035076 0.05174048 0.23305033 0.015484977 -0.34910476 0.141165 0.21109468 0.045903843
0.039134905 -0.19903246 0.07306132 -0.0925395 0.22234751 0.09233779 0.089677334 0.1587174
-0.065748684 0.096452236 0.0638037 0.15569909 -0.17414914 0.15531412 0.07997389 -0.27614975
0.24080123 0.23389271 0.04615634 -0.2590139 0.14274774 -0.20663461 -0.1251165 -0.42258266
-0.6456152 0.15964168 -0.0020977561 0.18074167 0.13048913 -0.10398058 0.037611395 0.08924779
0.06735799 0.1079571 -0.08616955 0.21530847 -0.0053473306 0.19428632 0.2747545 -0.009977255
0.005878965 0.20042834 -0.06174822 0.38370913 -0.022629846 -0.049068987 -0.21698357 -0.049101453
0.29200515 0.24162509 0.033065572 0.059298597 0.19999857 0.16921139 -0.110069 -0.097272135
0.016470501 0.0046215197 0.2870042 0.028267719 0.2721059 0.23446065 -0.4994478 -0.25366765
0.17747904 0.01093988 -0.36117724 0.04659468 -0.19861199 -0.34965032 0.037081283 0.30454737
0.12644245 -0.19160393 -0.564576 -0.02962391 0.35936865 0.31559917 -0.18211739 -0.26389244
0.050892584 0.10637031 -0.07872943 0.38097435 -0.0019074904 0.10433824 -0.23879829 -0.07918866
-0.40892097 0.07073688 0.033875648 -0.2602586 0.13250318 -0.21410272 -0.24427341 -0.12028303

fc1.bias f4 [128]
00000000: 9b31 bfbd e8b5 5cbd 046f bd3d 462f c73c
00000010: cd51 d1bd 3ebd bbbd e310 e8bc 57c7 dcbd
00000020: a370 1f3d 84fd d33c 1f0b 893d 6b16 813d
00000030: 8729 093b f46b 033d 8fed 91bd 5ebd c5bc
00000040: 5908 35bd a123 9f3d 23b5 12bd 23eb 563c
00000050: 96dd a83d 78b8 603d 9bdc a7bc 0c7f a5bd
00000060: e52f 0a3b 1837 1d3d 4543 81bc 1bd1 c93c
00000070: 7a14 36be ac0e 9dbd 888e a5bd cd4c 69bc
00000080: cc78 393b 52d0 fd3d 8e34 14bd 08ee 60bd
00000090: 6f40 2abb 5e2c 7b3d 7cc1 083d aedf 413c
000000a0: da80 ec3c 351c 173d 6110 5d3d 65fe b7bd
000000b0: 51a9 b63d 6495 d83c b64e 66bc 4ad4 0bbd
000000c0: 0218 603c 4369 073c 1364 6abd 6be6 09bd
000000d0: 3452 a83b c4ac e2bd 844e 81bd 4566 0a3c
000000e0: e321 b1bd b2d6 7a3d 6b78 ba3d b5ef 933c
000000f0: 23f3 323b 216a 9fbc 3868 103d a82b 3abd
00000100: c292 adbd 2b92 f8bd 5ef6 42bd fa25 2fbd
00000110: e67d 353d efc7 353d 8c89 9fbd 7872 07be
00000120: a50c 083c e5d1 9abc 34ef b73c df3e 7d3d
00000130: 6c13 bbbb 5f7c 8a3c 1131 1c3c 5a6a 793d
00000140: 01d9 863c 0a0d c03c e43f 8bbd c5fe 0abc
00000150: 33f4 9d3c 2a54 fbba de02 053e d62c e7bc
00000160: 9d21 abbd 8fe2 9ebc a60f c13b 4635 a7ba
00000170: 4fcd 613d b58c b53d f353 85bc 4ef8 323b
00000180: 28fa 073d 292a a83b 6db0 bcbc 0764 90bc
00000190: fd71 8d3d 719c 993d 09a0 913d 494f 08be
000001a0: acf3 dbbd 6fee 313d 33b3 483b 918d 1ebd
000001b0: 64dc 733d 8c8b a6bd 8936 b63c b764 d33c
000001c0: 4234 5c3c b456 c2bd a4c7 96bc 63ed 0e3c
000001d0: 7b89 94bd 1de3 bdbd 6ab5 8bbd cddf 84bd
000001e0: c7b8 ad3c e6aa c3bd 6479 483b 425d 99bd
000001f0: ab63 aabb 3cc6 59bd a24c 8fbd 17f8 36bc
-0.09335633 -0.053884417 0.0924969 0.024314534 -0.102206804 -0.091669545 -0.028328365 -0.107802086
0.038925778 0.025877722 0.06691574 0.06303104 0.0020929293 0.032085374 -0.07125389 -0.024138149
-0.044197414 0.077704675 -0.035817277 0.013117584 0.08245389 0.054863423 -0.020490935 -0.08080873
0.0021085676 0.03838262 -0.015779147 0.024635842 -0.17781249 -0.07668814 -0.08083826 -0.014239502
0.002830076 0.123932496 -0.036182933 -0.054914504 -0.0025978347 0.06132161 0.033387646 0.011833115
0.028870035 0.036892135 0.0539707 -0.08984069 0.08919013 0.026438423 -0.014056852 -0.034138
0.013677599 0.008264842 -0.057224344 -0.03366701 0.0051367525 -0.11068109 -0.06313804 0.0084472345
-0.086490415 0.061239906 0.09104999 0.018058637 0.0027305565 -0.019459786 0.03525564 -0.04545179
-0.084752575 -0.12137254 -0.047598235 -0.042760827 0.04430952 0.044380125 -0.07789907 -0.1322726
0.008303796 -0.018898914 0.022452928 0.061827537 -0.0057091024 0.016905008 0.009533183 0.06089244
0.016460897 0.023443718 -0.067992955 -0.008483593 0.019281482 -0.0019174863 0.12989375 -0.028219622
-0.083560206 -0.01939514 0.005891758 -0.0012756966 0.05512744 0.08864728 -0.016275382 0.0027308646
0.033197552 0.005131979 -0.023033345 -0.017625822 0.06906507 0.07500542 0.071106024 -0.13311495
-0.10739836 0.04344028 0.003062439 -0.038709227 0.059536353 -0.08132085 0.022242801 0.02580486
0.013440194 -0.094891936 -0.018405743 0.00872359 -0.07252785 -0.09271834 -0.06821711 -0.06487999
0.021206273 -0.09554081 0.0030589933 -0.07488491 -0.0051998696 -0.053167567 -0.069970384 -0.011167548

fc2.weight f4 [9, 128]
00000000: fe88 3a3d 5a69 c33d 8b29 ccbc 55ad a33c
00000010: 1f94 393e d8c0 3fbd bcc9 2c3e 7c30 813d
00000020: 0411 32bb fb47 e23c 51ec 05be dccd 513d
00000030: 36ea 103c 0f69 6b3d be9b 133e 6576 a6bd
00000040: 458b 1c3e 733b 913c 3436 02be 992a 6c3e
00000050: ed88 32be f08b c53d 833c 0a3e 6051 bb3d
00000060: 705d 68bb 9cc5 9fbd 8fda a9bd e05e dcbd
00000070: 501e aebc f94f 0ebe 2266 073e 8186 a93c
00000080: 82f4 cfbd ee1c 423c 1e3e f73d 945e 0fbe
00000090: dabb 083e e2f9 33bc 218b fdbc 8598 e7bc
000000a0: c9dd 543e df02 8dbd af61 913d 6863 a4bd
000000b0: 14ed 8a3d 4651 b63d 6200 a6bc 7fb3 563d
000000c0: 7dfb c2bd 3244 47be fbf2 adbc 33fc 953d
000000d0: 4314 393d e7e8 093e 996e 2d3d 7ce8 3c3e
000000e0: c706 01bd 6635 1ebd a758 bd3d b745 253e
000000f0: 7bf9 ffbc c491 4a3e 20a5 da3d 8f9a d2bd
00000100: fc63 cc3d 8d17 fe3d c465 e23d e0ef 51bd
00000110: 7a5f ecbc 52e4 fc3d 0708 fb3d 6a4e a43d
00000120: cb1f de3d bd48 20be 5d2f cabc a339 1dbe
00000130: 4bda 373e 2f96 923c bd6f dbbc faa6 273d
00000140: 4a6e 883d dab2 06be 8d16 913d 2351 1dbe
00000150: 6a6b 06be 797d 91bd 5480 06bd 73dd 95bd
00000160: 2d29 473e d36f c3bd 4bf6 113b 6c2c 163e
00000170: e40c 0bbe b9a4 71bc 9dfe 213e b6f3 7fbd
00000180: bc7d 313e 14c2 3f3d 2755 f83d 92ac 39be
00000190: c810 5ebd 6167 27be e5d0 c9bd 1edd 663e
000001a0: c4d2 643d ccd3 b7bd 06d8 f93d 241b 21bd
000001b0: 0f36 dd3c 70fa 03bd 5735 073e cf50 143e
000001c0: 653f 18bd a04e 85bd b1d7 cfbd 6d99 9fbd
000001d0: a4f8 20bd 4bbe c53c bafe 5e3e 5b69 23be
000001e0: f2be c6bd 1ad9 41be 7c5c 01be 86c8 043e
000001f0: bd59 8d3d 9ca8 cabd 4d07 a73d 88e1 5b3d
00000200: 528d 363e bc9b 03be b2b6 1c3d 24cb 55be
00000210: e2fd 2bbe 92f5 123d df7c d2bd ad0f 883c
00000220: 3461 7c3d 336d 293d 6e35 2ebd 24c9 00be
00000230: 729f 40bd 9631 b13d f0d9 5b3e 0984 003e
00000240: d09f 8f3d 3178 4abd f894 573d f2f4 22bd
00000250: c805 183c ae9c c23d a99f b1bc 6fb1 143d
00000260: 38fa 96bd 6dbb 323d 6519 43bd 7e6e 143d
00000270: cca3 883d ddfc 103e 6772 c5bd 5aa0 8fbd
00000280: 8d7e 69bd b78d 0c3d 95a4 ef3d 2898 4b3d
00000290: e001 573d 100f 11be 10e2 5dbd c9a8 f13d
000002a0: f6e5 9abd 6398 ab3c 39fc 31bd 4e8c 1f3e
000002b0: f7de 8e3d 7054 573c 143b a8bc 25c9 e33d
000002c0: e117 dc3d d582 b33c fca4 03be a760 98bb
000002d0: 9850 98bd 3308 68bd f7c1 2bbe f9b6 cabd
000002e0: f98e fcbd 09cb db3d 3035 1a3e dd7f 60bd
000002f0: e40f 313d dbc7 8b3d bd35 3fbd 5a73 313d
00000300: 5cac 273e d9fe e73d 1a6e 303c cc33 a73d
00000310: 550a e7bd c754 7b3d 8947 c0bb 1d4e 3a3d
00000320: eaaa e03d 0e38 b8bd 4a2b c73d 1341 93bd
00000330: e465 523c ac0a e9bb 39e1 173e acdb 193a
00000340: 59cb 483d eb7f 0bbe 4a2f 193e ef5e 40be
00000350: a4c5 8bbc f345 aa3d 2b34 dabd b6b2 153e
00000360: 2468 433e 5de9 3fbd d83c d13d a6be d3bc
00000370: 6889 223e 8b10 113e 4309 8dbd 1cee 97bd
00000380: 8b21 cc3d e3d7 b83d 38c5 ce3d 694e 143e
00000390: e541 0dbd 6e98 57bd c779 10be aa5a 2c3e
000003a0: 9067 2f3e 02a5 c9bd 3372 96bd f85b 043e
000003b0: 246b b3bd 8d87 2b3e dc08 86bd 358c 6dbc
000003c0: d2c9 9fbd 687b 203e 978b 943d 1872 923d
000003d0: 2583 e03d f314 183e 80d3 af3d 6ce0 dd3d
000003e0: 5735 fe3d a5d7 adbd 616a 9dbd 96df b83c
000003f0: 4907 a33d f604 533c 63cc a6bd 654b 6ebd
0.045540802 0.095415786 -0.024922153 0.019980112 0.1812291 -0.04681477 0.1687383 0.06308076
-0.0027170787 0.027622214 -0.13078429 0.051221713 0.008844903 0.05747324 0.1441488 -0.08128051
0.15287502 0.017728543 -0.1271599 0.23063125 -0.17435046 0.096458316 0.13499646 0.091463804
-0.0035456084 -0.07801363 -0.0829364 -0.107602835 -0.021254689 -0.13897695 0.13222554 0.02069402
-0.10154058 0.011847718 0.12072395 -0.14000922 0.1335291 -0.01098487 -0.03095013 -0.02827097
0.2078773 -0.06885313 0.0709871 -0.08026773 0.067835 0.089022204 -0.020263854 0.052417275
-0.09520624 -0.19459608 -0.021234026 0.07323494 0.04518534 0.13467751 0.042341802 0.18448061
-0.031500604 -0.038625143 0.09245425 0.16139875 -0.031246891 0.19782168 0.10676026 -0.10283386
0.09980008 0.12406836 0.110545665 -0.051254153 -0.02885412 0.12348236 0.122573905 0.08022769
0.10845908 -0.15652747 -0.024680788 -0.15354018 0.17954366 0.017893879 -0.02678668 0.040930726
0.06661661 -0.13154164 0.07084379 -0.15362982 -0.13126913 -0.0710401 -0.032837227 -0.07317629
0.19449301 -0.09542813 0.0022272046 0.14665383 -0.13579136 -0.014748746 0.15819784 -0.06248828
0.1733312 0.046815947 0.121256165 -0.18132237 -0.054215223 -0.1634803 -0.098542966 0.22545287
0.055865064 -0.08975944 0.12199406 -0.039332524 0.027003316 -0.032221258 0.13203941 0.14483951
-0.037169833 -0.06509137 -0.10148562 -0.077929355 -0.039299622 0.02413859 0.21776858 -0.15958159
-0.09704389 -0.18930474 -0.12632936 0.12967119 0.06901882 -0.09895441 0.081556894 0.05368188
0.17827347 -0.12852377 0.03826017 -0.20878273 -0.16796067 0.035878725 -0.102777235 0.016609037
0.061616138 0.041363906 -0.042531423 -0.12576729 -0.04702706 0.08652036 0.21469855 0.12550367
0.07012904 -0.04943103 0.052632302 -0.03978438 0.009278722 0.095025405 -0.021682577 0.036302026
-0.07371944 0.043635774 -0.04763164 0.036238186 0.06671867 0.1415896 -0.09640961 -0.070130065
-0.057005454 0.034314837 0.117013134 0.049705654 0.052492023 -0.14165902 -0.054170668 0.11799771
-0.07563393 0.020946687 -0.04345343 0.15580866 0.06976121 0.01314269 -0.020535983 0.1112235
0.10746742 0.021912972 -0.12855905 -0.0046501937 -0.07437247 -0.056648444 -0.1677321 -0.098981805
-0.12331957 0.10732085 0.15059352 -0.05480944 0.043228045 0.06825229 -0.04668211 0.0433229
0.16374344 0.11327905 0.010768438 0.08164176 -0.112812676 0.061360147 -0.0058679027 0.04548465
0.10970099 -0.089950666 0.097250536 -0.07190146 0.012841675 -0.007111868 0.1483201 0.00058692205
0.049022052 -0.13623016 0.14959446 -0.18786214 -0.017062016 0.08314123 -0.106544815 0.14618954
0.19082695 -0.046853412 0.10216683 -0.025847744 0.15872729 0.14166467 -0.06886532 -0.07418463
0.09967335 0.09025552 0.1009621 0.14483036 -0.03448667 -0.052635603 -0.14108954 0.1683146
0.1712935 -0.09845926 -0.073460005 0.12925708 -0.0876067 0.16750927 -0.065446585 -0.01449876
-0.07802166 0.15672076 0.07253187 0.07150668 0.10962514 0.14851741 0.08585262 0.10833821
0.124125175 -0.084883966 -0.07686306 0.022567552 0.07960374 0.012879601 -0.081444524 -0.05817737

fc2.bias f4 [9]
00000000: 672c 37be b4bf 083d 4a98 063e e65d 943c
00000010: c3a1 dfbd a6ae eb3c 7529 473e 9b3a c63d
00000020: 2e80 d4be
-0.17888032 0.033385947 0.13144031 0.01811118 -0.109195255 0.028769802 0.19449408 0.09679147
-0.41504043
