results/arousal/classification_5/20251225_180528_538655/best_model.pt (torch, 438709 bytes, 16 tensors)

conv1.weight f4 [16, 1, 3, 3]
0.30320847 0.3000028 -0.09165339 0.2130233 -0.21317697 0.016734328 -0.34189495 0.23219925
0.38623452 -0.31018138 0.4725045 0.016547516 0.1902394 0.12381492 0.26266742 -0.1632102
0.26542845 -0.026925953 -0.1745797 0.21421221 -0.30105698 -0.0861376 -0.0978239 0.3822421
-0.054185502 -0.21337374 -0.14635141 -0.15729797 -0.02974529 -0.49180347 0.2588556 -0.2878884
0.30905887 0.084528185 -0.105452724 0.40221906 0.015345828 0.34846264 0.10690106 -0.15205868
0.01641327 -0.38920748 0.099953845 0.27799952 0.27489415 -0.04640993 0.26927927 0.15397067
0.03932644 -0.30655855 -0.40739736 0.013383073 -0.38275307 0.37251368 0.052788656 0.23032466
0.10515302 -0.008890255 0.3452526 -0.39972246 -0.029760621 -0.29301763 0.022271184 -0.07454468
0.0015913423 -0.08266439 0.2425417 -0.118563436 -0.44971004 -0.097395755 0.3988269 0.310494
0.37266734 -0.30577257 -0.2870569 -0.2185459 -0.42224655 0.19919947 0.1275572 0.35165334
-0.18217964 -0.18706878 0.30214778 -0.18569317 0.22422196 -0.07148043 0.30482277 -0.27149007
-0.3092862 0.15220201 0.072954975 -0.04088077 0.3604575 0.1541443 -0.30534515 -0.22002792
0.40488505 -0.13608524 -0.1986595 -0.097800046 -0.2469908 0.33052725 -0.02510421 -0.45936936
0.094929904 -0.1607018 -0.3351157 -0.251886 -0.22247642 -0.22992724 0.47484368 0.068084575
0.21450405 -0.42129818 -0.1871461 -0.107726336 0.04336594 -0.30416632 -0.03723663 -0.2780153
-0.05072187 0.042412218 -0.23334125 -0.23966846 -0.24424015 -0.3978465 -0.09048278 -0.34704387
0.2659287 -0.045381896 0.42655605 0.2635046 -0.2498852 0.24947561 -0.20585425 -0.10367891
-0.25945327 -0.41556713 0.16563211 0.026848128 0.18945625 -0.30237544 0.31673488 -0.38920647
00000000: 243e 9b3e f899 993e c6b4 bbbd c822 5a3e
00000010: 104b 5abe 6e16 893c db0c afbe a4c5 6d3e
00000020: 88c0 c53e 18d0 9ebe 1cec f13e a88e 873c
00000030: 1ece 423e ad92 fd3d 587c 863e 9320 27be
00000040: 3de6 873e d193 dcbc 05c5 32be 725a 5b3e
00000050: 2424 9abe e968 b0bd e657 c8bd 3db5 c33e
00000060: 9ef1 5dbd a57e 5abe 25dd 15be b812 21be
00000070: 65ac f3bc aacd fbbe b988 843e 1c66 93be
00000080: f73c 9e3e 1d1d ad3d 99f7 d7bd a8ef cd3e
00000090: 116d 7b3c b269 b23e f1ee da3d 45b5 1bbe
000000a0: 1f75 863c 3446 c7be 9ab4 cc3d f455 8e3e
000000b0: edbe 8c3e 5718 3ebd f9de 893e 7daa 1d3e
000000c0: c314 213d 3ef5 9cbe 6396 d0be ad44 5b3c
000000d0: 36f8 c3be 1dba be3e eb38 583d 3ada 6b3e
000000e0: 775a d73d 6fa8 11bc f3c4 b03e 6ca8 ccbe
000000f0: 8ccc f3bc 6806 96be 0f72 b63c e2aa 98bd
00000100: 9694 d03a f34b a9bd da5c 783e 63d1 f2bd
00000110: 6540 e6be 6d77 c7bd 0a33 cc3e 12f9 9e3e
00000120: 41ce be3e 398e 9cbe 1ff9 92be 7fca 5fbe
00000130: b330 d8be f2fa 4b3e 5b9e 023e e80b b43e
00000140: 4d8d 3abe f58e 3fbe 1db3 9a3e 5a26 3ebe
00000150: 719a 653e 5564 92bd bb11 9c3e bf00 8bbe
00000160: c35a 9ebe d8da 1b3e 6b69 953d 9872 27bd
00000170: e38d b83e 01d8 1d3e 3356 9cbe 004f 61be
00000180: 184d cf3e ee59 0bbe 656d 4bbe 644b c8bd
00000190: 28eb 7cbe de3a a93e 58a7 cdbc 7632 ebbe
000001a0: 9c6a c23d 038f 24be 4994 abbe 34f7 80be
000001b0: dcd0 63be 0c72 6bbe b61e f33e ed6f 8b3d
000001c0: f3a6 5b3e 65b4 d7be 3aa3 3fbe a09f dcbd
000001d0: 7ca0 313d b0bb 9bbe 7085 18bd 0558 8ebe
000001e0: bcc1 4fbd 6fb8 2d3d 02f1 6ebe a66b 75be
000001f0: 171a 7abe 89b2 cbbe 094f b9bd bcaf b1be
00000200: ce27 883e 5ee2 39bd 8e65 da3e 13ea 863e
00000210: e8e1 7fbe 8976 7f3e 75cb 52be 9c55 d4bd
00000220: 0fd7 84be 37c5 d4be 779b 293e 9bf0 db3c
00000230: d200 423e f4d0 9abe 132b a23e 1246 c7be

conv1.bias f4 [16]
0.0014454741 -0.00041309852 0.0022794106 -0.002633353 -0.0010622682 -0.0005852636 0.0022223569 0.00011404849
-0.002219375 0.00024736047 0.000692544 0.0015852443 -0.0002739307 -0.00036917176 0.0017881535 -0.0012731133
00000000: 1076 bd3a 2595 d8b9 2a62 153b 5594 2cbb
00000010: ce3b 8bba 606c 19ba f6a4 113b 512d ef38
00000020: ef72 11bb 29b0 8139 d78b 353a f9c7 cf3a
00000030: 5b9e 8fb9 658d c1b9 7a60 ea3a 98de a6ba

bn1.weight f4 [16]
0.800972 0.8729805 0.9698477 1.1661401 0.93131006 1.1031455 1.1438918 1.1102452
0.99242425 0.8803721 1.0761062 0.97008145 0.8697809 0.7279156 1.1154867 0.9479905
00000000: 800c 4d3f a67b 5f3f f047 783f 1444 953f
00000010: 566a 6e3f df33 8d3f 0c6b 923f 841c 8e3f
00000020: 840f 7e3f 1160 613f d9bd 893f 4257 783f
00000030: f6a9 5e3f ad58 3a3f 45c8 8e3f 81af 723f

bn1.bias f4 [16]
-0.21069151 -0.27655 -0.25723872 -0.09353263 -0.1640114 -0.052747745 -0.110235706 -0.14306158
0.09308135 -0.022405611 -0.049455725 -0.41028258 -0.08212226 -0.065332934 -0.20573957 -0.09110405
00000000: 84bf 57be f697 8dbe cbb4 83be 098e bfbd
00000010: 9bf2 27be 050e 58bd 42c3 e1bd bc7e 12be
00000020: 6fa1 be3d f98b b7bc 1692 4abd 8f10 d2be
00000030: b72f a8bd 46cd 85bd 65ad 52be c394 babd

bn1.running_mean f4 [16]
0.005467279 0.0037239832 -0.0014310763 -0.0013770482 0.0027304804 0.00072916085 0.000641258 0.00037035125
-0.0036309927 -0.0006951241 0.0031019957 -0.0059051234 -0.0023803615 -0.009877434 0.00017323787 -0.0055808984
00000000: dc26 b33b 120e 743b f492 bbba 127e b4ba
00000010: dcf1 323b 2825 3f3a 191a 283a b42b c239
00000020: f3f5 6dbb fd38 36ba da4a 4b3b c47f c1bb
00000030: d7ff 1bbb f6d4 21bc 30a7 3539 f8df b6bb

bn1.running_var f4 [16]
0.35826945 0.5644913 0.14426571 0.2465818 0.27716509 0.29797342 0.17512 0.22806177
0.3404367 0.16544671 0.27538463 0.91971034 0.15959935 0.99673474 0.3313423 0.2995618
00000000: 186f b73e 8082 103f 64ba 133e f07f 7c3e
00000010: 95e8 8d3e f98f 983e a852 333e 0689 693e
00000020: b84d ae3e dd6a 293e 37ff 8c3e 2372 6b3f
00000030: 036e 233e 022a 7f3f b3a5 a93e 2a60 993e

conv2.weight f4 [32, 16, 3, 3]
0.10240991 0.010260518 0.06618726 -0.049130555 0.1022197 0.16160509 -0.043908663 0.020758765
0.18785138 -0.036971696 -0.26156798 -0.045673374 0.17031778 -0.13761945 -0.24051322 0.10121341
-0.18869299 0.10743136 0.0027232098 -0.002658822 0.43519035 0.109443404 0.08382227 -0.06177678
-0.0037893108 0.2705981 0.023959344 0.009108374 -0.2702368 0.03547565 -0.12500061 -0.19692245
0.11519756 0.22004318 -0.11314273 -0.054511577 -0.048598927 -0.1798819 0.080202416 0.046686288
-0.16135211 -0.019847738 0.20552154 0.16827056 0.17945284 -0.119359374 0.12441953 0.009890795
-0.12107062 0.09536601 0.32031628 -0.039399296 -0.13870971 -0.27841744 -0.085311554 0.11193832
-0.024871007 -0.08928656 0.11197508 -0.07022767 0.07798252 0.052372668 -0.0062790937 0.025194101
-0.1614338 0.37253422 0.32124788 -0.07631705 -0.43153068 -0.15077148 -0.24877141 0.08680558
0.015615067 0.20739086 0.09738491 0.004308776 -0.061266314 -0.55719364 -0.08974399 -0.14349896
0.19673377 0.10122485 0.1277957 -0.24294573 0.17352578 -0.09687854 -0.28214777 0.03921919
0.023398785 0.09672427 0.15967785 -0.16086973 0.008972153 -0.16227332 -0.35543808 -0.12896626
0.11056142 -0.084017225 0.074265525 0.10948448 -0.22065228 -0.12320024 0.17840537 -0.5125624
0.18110238 0.14231221 -0.116699785 0.18624483 0.23197727 -0.08614732 0.04197584 -0.13229918
0.06802473 0.25614193 0.15214199 -0.09210782 -0.14927183 -0.09997655 0.1279583 0.08414262
-0.18349423 -0.1974955 0.30347672 -0.055787403 -0.04769742 -0.12866315 -0.16223137 -0.03919354
0.25201163 -0.15874305 -0.09693038 -0.081003875 -0.124786615 0.069636986 0.07830941 0.0356801
-0.13623263 -0.08449296 -0.24936324 -0.06763072 -0.12888232 -0.00013550064 -0.086077645 -0.2630895
-0.34007356 0.2002597 0.021991076 0.13610514 -0.25404653 0.15975763 0.15018278 0.095342055
0.0034697738 -0.021016095 -0.090918384 0.1737256 0.0899171 0.2483517 0.23290382 0.042348295
-0.31208768 -0.35934335 0.17956313 0.16318908 -0.044359393 -0.11352398 -0.15503518 -0.48557508
-0.34855196 -0.063389756 0.014913785 0.16894968 -0.32128885 -0.33592165 0.026803415 -0.20654057
-0.0139475055 0.060346816 0.07076396 0.09105713 0.16906859 -0.06832876 -0.1469683 0.019748667
-0.019196447 -0.16960602 0.17288426 -0.095338956 -0.18118834 0.00040850893 -0.087894395 0.053882293
0.15976349 -0.002005382 -0.4022742 -0.014139613 0.24209957 0.011901993 -0.08054566 0.067560986
-0.0039523724 -0.030057346 -0.033086617 0.0062682643 0.12380214 -0.20285647 0.12803994 -0.08587902
-0.1406483 0.17299028 0.17686068 -0.049793944 -0.31044742 -0.17421348 0.16627432 -0.015680557
-0.07588764 -0.010387519 0.22880332 -0.13742898 0.14879626 0.01873834 0.095398955 -0.053781766
0.15650727 0.07755781 -0.20291233 0.35490134 0.092775546 0.053611744 0.017876621 -0.3144369
0.09275238 0.08229687 0.22659838 -0.067457385 -0.05239706 -0.20940362 -0.096071675 -0.018370897
0.088403456 0.31586915 -0.25001135 -0.035597753 -0.18864127 0.042594574 -0.12257701 -0.473751
-0.107633404 -0.047116783 0.023309043 -0.13870236 0.12509267 -0.010277297 0.2397832 -0.026961379
00000000: 49bc d13d bb1b 283c 308d 873d 1f3d 49bd
00000010: 9058 d13d ce7b 253e 92d9 33bd 490e aa3c
00000020: 1d5c 403e a26f 17bd 3dec 85be 0114 3bbd
00000030: c967 2e3e 1dec 0cbe 1949 76be fa48 cf3d
00000040: bc38 41be f904 dc3d e177 323b a23f 2ebb
00000050: 45d1 de3e dd23 e03d 03ab ab3d a609 7dbd
00000060: 1656 78bb d68b 8a3e 6346 c43c 4a3b 153c
00000070: 7a5c 8abe ea4e 113d 2900 00be 0aa6 49be
00000080: b3ec eb3d 0053 613e 60b7 e7bd 8847 5fbd
00000090: ab0f 47bd f632 38be 2a41 a43d 1f3a 3f3d
000000a0: 7d39 25be b997 a2bc 3d74 523e 1e4f 2c3e
000000b0: 7cc2 373e b072 f4bd abcf fe3d 000d 223c
000000c0: e0f3 f7bd 414f c33d 7f00 a43e 2861 21bd
000000d0: eb09 0ebe bb8c 8ebe d3b7 aebd eb3f e53d
000000e0: 48be cbbc dfdb b6bd 3153 e53d 86d3 8fbd
000000f0: 4db5 9f3d b984 563d dbc0 cdbb dc63 ce3c
00000100: e74e 25be cebc be3e 9a7a a43e 1d4c 9cbd
00000110: 97f1 dcbe d763 1abe efbd 7ebe 20c7 b13d
00000120: 57d6 7f3c 455e 543e bd71 c73d a230 8d3b
00000130: 63f2 7abd 3ea4 0ebf b2cb b7bd 64f1 12be
00000140: 9474 493e f94e cf3d e0dc 023e c4c6 78be
00000150: beb0 313e 4268 c6bd ac75 90be 4da4 203d
00000160: cfae bf3c 6017 c63d 9782 233e 09bb 24be
00000170: f0ff 123c fa2a 26be fbfb b5be bb0f 04be
00000180: 076e e23d 3911 acbd 8618 983d 6639 e03d
00000190: acf2 61be 6850 fcbd e6af 363e 4a37 03bf
000001a0: e772 393e 4bba 113e 4c00 efbd f7b6 3e3e
000001b0: 738b 6d3e 026e b0bd dcee 2b3d 7079 07be
000001c0: 8d50 8b3d 0925 833e 1ccb 1b3e 06a3 bcbd
000001d0: b7da 18be 81c0 ccbd 8007 033e f752 ac3d
000001e0: e9e5 3bbe 433c 4abe 4d61 9b3e 5581 64bd
000001f0: 5f5e 43bd 46c0 03be fb1f 26be 6889 20bd
00000200: ab07 813e 8a8d 22be 6f83 c6bd 5ce5 a5bd
00000210: 2090 ffbd d69d 8e3d af60 a03d 4c25 123d
00000220: 9180 0bbe a50a adbd 1459 7fbe fa81 8abd
00000230: baf9 03be 2d15 0eb9 7a49 b0bd abb3 86be
00000240: 1f1e aebe e110 4d3e a126 b43c 255f 0b3e
00000250: 6312 82be 8197 233e 84c9 193e b242 c33d
00000260: 2565 633b f229 acbc 6b33 babd 20e5 313e
00000270: 7526 b83d e84f 7e3e 577e 6e3e 6875 2d3d
00000280: f5c9 9fbe dafb b7be 66df 373e 0a1b 273e
00000290: 32b2 35bd 437f e8bd 8bc1 1ebe 4c9d f8be
000002a0: 6775 b2be 7dd2 81bd f358 743c 2501 2d3e
000002b0: f97f a4be ecfd abbe d692 db3c 5f7f 53be
000002c0: 1484 64bc 392e 773d b2ec 903d 297c ba3d
000002d0: 5120 2d3e f3ef 8bbd dc7e 16be f5c7 a13c
000002e0: de41 9dbc 33ad 2dbe 9208 313e 1241 c3bd
000002f0: 7089 39be 242d d639 fa01 b4bd aeb3 5c3d
00000300: 0a99 233e ba6c 03bb e2f6 cdbe d6a9 67bc
00000310: f3e8 773e 9400 433c 1ff5 a4bd 6a5d 8a3d
00000320: e782 81bb d33a f6bc d585 07bd 0366 cd3b
00000330: fa8b fd3d 9bb9 4fbe e71c 033e 57e1 afbd
00000340: 1c06 10be 5d24 313e f71a 353e bcf4 4bbd
00000350: f7f2 9ebe 0565 32be d143 2a3e 8374 80bc
00000360: fb6a 9bbd 6a30 2abc 6b4b 6a3e 2fba 0cbe
00000370: 0c5e 183e 2681 993c 8760 c33d 454a 5cbd
00000380: 7143 203e a1d6 9e3d 40c8 4fbe a1b5 b53e
00000390: 1b01 be3d fd97 5b3d fe71 923c e0fd a0be
000003a0: f6f4 bd3d 438b a83d 6809 683e 1927 8abd
000003b0: 4d9e 56bd e76d 56be 3ac1 c4bd 907e 96bc
000003c0: df0c b53d 9ab9 a13e 7d01 80be f3ce 11bd
000003d0: 2d2b 41be a677 2e3d a809 fbbd 7e8f f2be
000003e0: e76e dcbd 87fd 40bd 9bf2 be3c fe07 0ebe
000003f0: 4b18 003e 1c62 28bc ba89 753e 1cde dcbc

conv2.bias f4 [32]
-0.0011835863 -4.540498e-05 -1.0335891e-05 0.00087927777 0.0005938143 0.0007341673 0.0014820549 -0.00022721273
-0.00032457948 -0.0016850189 0.0009908503 0.00051170087 0.0010835552 -8.687978e-05 0.00034097343 0.00031016028
-0.0009361098 -0.00029376382 0.0008636829 0.0029316454 0.00020521213 -0.00042288186 0.00048014027 -0.00016538094
0.00065050425 0.000556397 8.77546e-07 0.0010767211 -0.0007521031 -0.00029248628 0.0006079647 -0.00047722322
00000000: 9122 9bba 3a71 3eb8 5068 2db7 557f 663a
00000010: 34aa 1b3a 2275 403a 8341 c23a f43f 6eb9
00000020: 522c aab9 dadb dcba 6bdf 813a aa23 063a
00000030: 1406 8e3a 3a33 b6b8 aec4 b239 029d a239
00000040: 4465 75ba 5004 9ab9 c768 623a d920 403b
00000050: 362e 5739 3eb6 ddb9 56bb fb39 1c6a 2db9
00000060: 9a86 2a3a 2cdb 113a 8090 6b35 c420 8d3a
00000070: c928 45ba d858 99b9 d25f 1f3a d133 fab9

bn2.weight f4 [32]
2.0173285 1.9102412 2.0406978 1.8835543 1.9904442 2.022888 2.039828 2.0037775
1.9081144 1.8772315 2.1084473 2.0675304 1.9388208 1.8980459 2.0320263 2.0827649
1.9128895 1.9549792 1.9423528 1.9240342 2.1153064 1.9949545 1.9155749 2.0254383
2.0659406 2.081195 1.8552821 1.9300874 1.9031975 1.9081756 1.9289991 2.1015735
00000000: e91b 0140 c982 f43f cb9a 0240 4f18 f13f
00000010: e0c6 fe3f ff76 0140 8b8c 0240 e43d 0040
00000020: 183d f43f 1f49 f03f cdf0 0640 6b52 0440
00000030: 482b f83f 2bf3 f23f b80c 0240 054c 0540
00000040: 90d9 f43f c23c fa3f 049f f83f c146 f63f
00000050: 2e61 0740 ab5a ff3f 8f31 f53f c8a0 0140
00000060: 5f38 0440 4d32 0540 e279 ed3f 1b0d f73f
00000070: fa9b f33f 193f f43f 71e9 f63f 2e80 0640

bn2.bias f4 [32]
-0.6776711 -0.69383675 -1.129194 -0.5792076 -0.69837403 -0.9020182 -0.8395201 -0.92346936
-0.5628985 -0.8511662 -0.9750955 -0.8978598 -0.6077452 -0.99455345 -0.7975084 -0.7240333
-0.8518878 -0.75384843 -0.6156003 -0.7545185 -0.96671176 -0.69693726 -0.7632109 -0.7340814
-0.7579459 -0.8672969 -0.809326 -0.7781523 -0.6734905 -0.64301085 -0.68986994 -1.0418476
00000000: da7b 2dbf 499f 31bf 6e89 90bf f346 14bf
00000010: a4c8 32bf aaea 66bf caea 56bf 7d68 6cbf
00000020: 1e1a 10bf 07e6 59bf dc9f 79bf 24da 65bf
00000030: 3095 1bbf 0e9b 7ebf 8329 4cbf 3f5a 39bf
00000040: 5215 5abf 36fc 40bf fb97 1dbf 2028 41bf
00000050: 6c7a 77bf 7b6a 32bf ca61 43bf c2ec 3bbf
00000060: be08 42bf 2b07 5ebf fd2f 4fbf fd34 47bf
00000070: e069 2cbf 5c9c 24bf 519b 30bf 435b 85bf

bn2.running_mean f4 [32]
-0.7794077 -0.5046484 0.14796253 -1.0532104 -0.78468204 -0.8806005 0.3640513 -0.52519023
-0.61208856 0.5727511 -0.8180695 0.023459103 -1.0320832 0.31486827 -0.8107794 -0.66571474
0.7879188 -0.445113 -0.35194063 -0.0095220925 -0.103729315 -0.2222453 -0.055687513 -1.0087297
-0.9928667 -0.636136 0.3386984 -0.123855844 0.53889656 -0.9101432 -0.39472598 0.6422633
00000000: 4387 47bf a330 01bf 7d83 173e 99cf 86bf
00000010: ece0 48bf 096f 61bf ef64 ba3e de72 06bf
00000020: d6b1 1cbf d19f 123f 016d 51bf 4e2d c03c
00000030: 4d1b 84bf 6a36 a13e 3d8f 4fbf 486c 2abf
00000040: 0cb5 493f dae5 e3be 9031 b4be 8d02 1cbc
00000050: 0970 d4bd 4694 63be 9718 64bd 0e1e 81bf
00000060: 832c 7ebf cfd9 22bf e069 ad3e 22a8 fdbd
00000070: 20f5 093f 25ff 68bf 8619 cabe 5e6b 243f

bn2.running_var f4 [32]
0.52306604 0.69041204 0.5440659 0.68318963 0.6369857 0.663465 0.7351074 0.5226441
0.6377895 0.55127203 0.7590757 0.82242906 0.6541095 0.7148949 0.90567875 0.4613298
0.5436671 0.5420758 0.8394752 0.4615599 0.54865223 0.6899314 0.5935005 0.76796347
0.6175043 0.5931588 0.6642979 0.61026907 0.5128564 0.7730167 0.57941717 0.54823756
00000000: a8e7 053f d8be 303f e747 0b3f 84e5 2e3f
00000010: 7f11 233f d8d8 293f 0030 3c3f 01cc 053f
00000020: 2c46 233f 2a20 0d3f c952 423f b68a 523f
00000030: b873 273f 5a03 373f 90da 673f 6b33 ec3e
00000040: c42d 0b3f 7bc5 0a3f d9e7 563f 9451 ec3e
00000050: 7974 0c3f 589f 303f a6ef 173f 4199 443f
00000060: c314 1e3f 41d9 173f 6d0f 2a3f 983a 1c3f
00000070: 8f4a 033f 6ce4 453f af54 143f 4c59 0c3f

fc1.weight f4 [128, 800]
-0.054809872 0.21200502 0.06795318 -0.05173548 0.2791187 -0.064751476 0.100828215 0.18792585
0.12434516 -0.13574794 -0.2877161 0.057888485 -0.035920788 -0.1134154 -0.11603695 0.111858875
0.09289435 0.07902544 0.33731958 0.5320686 0.015160025 -0.23167828 0.08615078 -0.03675367
0.2639794 0.36066002 -0.07932144 0.047536366 -0.0014369208 0.0032441292 0.21944605 0.067309715
-0.038781058 -0.08449728 0.1806372 -0.01620281 -0.12567866 0.036088545 0.10381196 0.084702075
0.149446 -0.42479745 0.13369198 0.47286835 0.010583036 -0.019760473 0.23542796 -0.29140988
0.43950036 0.21153244 0.08842248 0.36895153 0.08648738 -0.06437791 -0.0022097565 -0.25268123
0.017178208 0.012516755 -0.31413636 -0.14652161 -0.12557603 -0.11159976 -0.10388991 -0.041132204
0.08096373 -0.12851518 0.03834468 0.1775089 -0.10616368 0.12079605 -0.32973832 0.034721885
0.014053306 0.015259163 0.03805984 0.09474847 0.15688945 -0.045276035 0.123486124 -0.015602928
-0.12563786 0.11132654 -0.077263795 0.008820166 0.11816633 0.15861337 -0.22830275 -0.020522071
0.18388738 0.14297482 -0.097160764 0.03749891 -0.1823299 0.01769251 0.0701142 0.0192847
0.014251423 0.43149874 -0.31656075 0.1871277 0.1100755 0.10720371 0.12252738 0.0036333473
-0.03235925 -0.26389536 -0.09352539 -0.06855738 0.2205766 0.055947833 -0.04673957 0.07194091
0.15380147 -0.15774027 -0.38428313 0.012945967 0.1579398 -0.07974357 0.10480721 0.04857277
-0.021203028 0.30637428 0.020589232 0.0685388 -0.016297115 -0.09317136 -0.15028922 0.18592751
0.16410667 -0.11490995 0.021987585 0.080704734 0.29178664 -0.1305945 0.3708205 -0.15294619
-0.049114842 0.03329146 -0.020493308 -0.038064655 0.1620587 -0.04613016 -0.12036623 -0.053884923
0.24273826 0.1534406 -0.10701319 0.1225694 -0.21963397 -0.2617606 -0.12732364 -0.035054456
-0.058649894 -0.26576298 0.20551363 0.2927629 -0.017427558 -0.2621797 -0.16709352 -0.101534165
-0.048007455 -0.10391253 0.27016875 0.05127411 0.13956112 -0.32060707 0.29354018 -0.248347
0.10976819 0.27511498 0.24390593 -0.15192556 0.22119226 -0.25122985 -0.22663847 0.27084678
-0.0027552547 -0.123625815 -0.02462315 0.28213218 -0.088395864 -0.035556845 0.05947445 -0.30740964
-0.23929335 0.28058353 -0.094997376 -0.2999085 -0.0633927 0.11811825 0.06889447 -0.03450417
-0.01671558 -0.3633642 -0.049945973 -0.2980311 -0.16531247 0.20452759 -0.29236954 -0.1005925
-0.04454905 0.031308267 -0.03351312 0.24499607 -0.13598298 0.15603817 0.14410694 -0.33631343
0.19777775 -0.1489441 0.048682828 0.062285867 -0.081524365 -0.06810911 -0.15175259 0.39891735
0.20114332 -0.030949125 -0.004767256 0.09455508 0.21566282 -0.074919365 0.17740753 0.084539056
0.034922685 0.090247445 -0.15186858 0.010039439 -0.07499632 -0.32858327 -0.007250391 -0.0026914394
-0.009257691 -0.03458997 0.01698163 -0.053192906 0.03184104 -0.05823513 0.1432018 -0.12694836
0.045953736 -0.025460467 -0.056145042 0.13283293 0.24208507 -0.018648364 -0.20972261 0.020719895
-0.06447361 -0.21813385 -0.0070181335 -0.06654871 0.08162593 0.08751784 -0.2000387 -0.083040215
00000000: 5180 60bd d817 593e 092b 8b3d 95e8 53bd
00000010: a5e8 8e3e 6c9c 84bd 067f ce3d a26f 403e
00000020: ada8 fe3d 8201 0bbe 864f 93be 7a1c 6d3d
00000030: ad21 13bd 5546 e8bd c8a4 edbd 4416 e53d
00000040: 653f be3d 17d8 a13d 27b5 ac3e a635 083f
00000050: c161 783c 123d 6dbe d26f b03d 048b 16bd
00000060: 4f28 873e 6ea8 b83e 4773 a2bd 7eb5 423d
00000070: 1057 bcba 759b 543b 77b6 603e add9 893d
00000080: e3d8 1ebd e90c adbd f5f8 383e c1bb 84bc
00000090: e8b1 00be 95d1 133d 5d9b d43d 4878 ad3d
000000a0: 5f08 193e 0d7f d9be 8de6 083e cd1b f23e
000000b0: 7864 2d3c b7e0 a1bc 0714 713e ad33 95be
000000c0: 3106 e13e f69b 583e d816 b53d 37e7 bc3e
000000d0: 4c20 b13d 91d8 83bd 90d1 10bb 6f5f 81be
000000e0: 50b9 8c3c 1313 4d3c 7bd6 a0be c309 16be
000000f0: 0197 00be 6a8e e4bd 3cc4 d4bd 3e7a 28bd
00000100: 50d0 a53d 7c99 03be 500f 1d3d e5c4 353e
00000110: 586c d9bd eb63 f73d 76d3 a8be 8938 0e3d
00000120: d63f 663c 9201 7a3c a3e4 1b3d 7c0b c23d
00000130: a1a7 203e 5d73 39bd 4be6 fc3d 6ca3 7fbc
00000140: 36a7 00be 2bff e33d 7b3c 9ebd 7582 103c
00000150: 3001 f23d 8b6b 223e 32c8 69be e71d a8bc
00000160: f94c 3c3e fe67 123e 39fc c6bd 7598 193d
00000170: b0b4 3abe e2ef 903c 0998 8f3d f2fa 9d3c
00000180: cd7e 693c 67ed dc3e 4014 a2be 679e 3f3e
00000190: 446f e13d 9e8d db3d a3ef fa3d 741d 6e3b
000001a0: 228b 04bd 4b1d 87be 3d8a bfbd d067 8cbd
000001b0: d5de 613e 8e29 653d fe71 3fbd c155 933d
000001c0: 227e 1d3e aa86 21be c2c0 c4be 521b 543c
000001d0: f9ba 213e 9950 a3bd 2aa5 d63d 3ef4 463d
000001e0: f9b1 adbc 17dd 9c3e c0aa a83c 125e 8c3d
000001f0: 8781 85bc a0d0 bebd 6be5 19be c863 3e3e
00000200: 940b 283e e855 ebbd 4f1f b43c 8648 a53d
00000210: 0f65 953e 91ba 05be 2fdc bd3e ed9d 1cbe
00000220: a52c 49bd a05c 083d 95e1 a7bc afe9 1bbd
00000230: b7f2 253e fbf2 3cbd 9282 f6bd 70b6 5cbd
00000240: 6190 783e 881f 1d3e bb29 dbbd aa05 fb3d
00000250: bae7 60be 7c05 86be 2161 02be 4395 0fbd
00000260: df3a 70bd 1612 88be 2a72 523e 05e5 953e
00000270: 3dc4 8ebc 6b3c 86be 901a 2bbe 25f1 cfbd
00000280: 77a3 44bd 18d0 d4bd 8f53 8a3e cd04 523d
00000290: 1ce9 0e3e 9c26 a4be e64a 963e ad4e 7ebe
000002a0: 25ce e03d dfdb 8c3e 7ac2 793e 6092 1bbe
000002b0: 3980 623e 33a1 80be ea13 68be 6eac 8a3e
000002c0: 8191 34bb 882f fdbd 7db6 c9bc a173 903e
000002d0: e408 b5bd 0ea4 11bd 7b9b 733d cc64 9dbe
000002e0: 5109 75be a5a8 8f3e fc8d c2bd 9b8d 99be
000002f0: 08d4 81bd fbe7 f13d 8b18 8d3d 3f54 0dbd
00000300: 1def 88bc df0a babe 2694 4cbd 8897 98be
00000310: ac47 29be ae6f 513e 76b1 95be 7103 cebd
00000320: 1179 36bd 193d 003d 0e45 09bd 40e0 7a3e
00000330: 1f3f 0bbe 78c8 1f3e c590 133e 4631 acbe
00000340: 4086 4a3e cd84 18be a567 473d 771f 7f3d
00000350: 3ff6 a6bd ca7c 8bbd 0865 1bbe e53e cc3e
00000360: 84f8 4d3e 0589 fdbc a436 9cbb 18a6 c13d
00000370: b7d6 5c3e 536f 99bd 52aa 353e d022 ad3d
00000380: 170b 0f3d a7d3 b83d 7083 1bbe 767c 243c
00000390: ac97 99bd 113c a8be b094 edbb dc62 30bb
000003a0: 92ad 17bc 36ae 0dbd 0f1d 8b3c cee0 59bd
000003b0: c06b 023d f687 6ebd 7ea3 123e c0fe 01be
000003c0: fc39 3c3d 7892 d0bc 58f8 65bd 5b05 083e
000003d0: 26e5 773e 74c4 98bc 86c1 56be c5bc a93c
000003e0: bd0a 84bd 7b5e 5fbe 5ff8 e5bb b14a 88bd
000003f0: 7f2b a73d 8e3c b33d f2d6 4cbe fd10 aabd

fc1.bias f4 [128]
0.058338247 0.006288493 -0.06531466 0.008766981 -0.10650215 0.03878391 -0.024256537 -0.12926324
0.007978226 -0.081641994 -0.018574316 -0.07378226 0.04550046 -0.013427266 -0.09593298 0.0005151525
-0.013984368 0.047498994 -0.057193466 -0.008953738 0.00055515865 0.062409874 0.031816207 0.031952754
-0.065267235 0.046095658 -0.030612294 0.09295889 0.08409301 -0.0680764 0.0029577347 -0.0032186247
-0.03425883 0.0062403055 -0.12958589 0.0376578 -0.007279242 -0.08662294 0.0065766033 -0.03522857
-0.027137121 0.039114114 0.0007760151 -0.115132846 0.07046116 -0.057179853 -0.03220456 0.014992268
0.057935033 0.023794297 -0.025591318 -0.08592227 0.039023653 0.024486678 0.043344513 -0.046722014
-0.020231357 -0.053440504 -0.055059575 -0.033519138 0.009347933 -0.07556906 0.010501028 0.062167816
-0.061082266 0.12306304 0.025398009 0.03989616 -0.015707636 -0.08871052 -0.05403354 -0.005533818
-0.00035508524 -0.07433335 0.11197399 0.0010015237 -0.005833855 0.01646503 -0.034009382 -0.028882772
-0.07929169 -0.027807303 -0.02346338 -0.05603806 -0.04465138 -0.011817308 -0.044374075 0.05679211
-0.06118171 -0.04753773 -0.051626988 0.012385815 0.0073478734 0.00040514857 0.031917732 0.0447182
-0.040266264 -0.0613544 0.015146002 0.048039295 -0.0077067353 0.0722845 -0.020675976 0.1080359
-0.022709003 0.030981295 0.024305345 0.049307235 -0.059458412 0.0071536447 0.03516555 0.0017572893
0.068138294 0.039647628 -0.017364781 0.032972846 -0.005608792 -0.012469222 -0.09447844 -0.09754284
-0.05400441 0.012997167 -0.08459572 -0.0002855681 0.029749183 0.049955465 -0.0430925 -0.00116448
00000000: 16f4 6e3d b40f ce3b b1c3 85bd 62a3 0f3c
00000010: cd1d dabd e1db 1e3d a5b5 c6bc 955d 04be
00000020: 1bb7 023c eb33 a7bd 2a29 98bc 271b 97bd
00000030: b15e 3a3d 09fe 5bbc 8378 c4bd 4d0b 073a
00000040: b11e 65bc 4e8e 423d b243 6abd b3b2 12bc
00000050: 1188 113a 7fa1 7f3d b651 023d e4e0 023d
00000060: d4aa 85bd cdce 3c3d a2c6 fabc 3b61 be3d
00000070: f538 ac3d a46b 8bbd 8ed6 413b 90ef 52bb
00000080: fd52 0cbd 7a7b cc3b 2ab2 04be 113f 1a3d
00000090: b586 eebb 5e67 b1bd 8c80 d73b d54b 10bd
000000a0: ab4e debc 1f36 203d 7e6d 4b3a c5ca ebbd
000000b0: f14d 903d 6c35 6abd eee8 03bd 21a2 753c
000000c0: 494d 6d3d 42ec c23c e2a4 d1bc 04f8 afbd
000000d0: 44d7 1f3d 4998 c83c 048a 313d 955f 3fbd
000000e0: 3bbc a5bc 6ee4 5abd 2686 61bd 5d4b 09bd
000000f0: 1328 193c f4c3 9abd 810c 2c3c aea3 7e3d
00000100: 6631 7abd 7a08 fc3d 7c0f d03c 286a 233d
00000110: 4dad 80bc dcad b5bd 4652 5dbd 0855 b5bb
00000120: bc2a bab9 153c 98bd 9f52 e53d 8f45 833a
00000130: ec29 bfbb ace1 863c 6c4d 0bbd 909b ecbc
00000140: ae63 a2bd 24cc e3bc 4636 c0bc 2a88 65bd
00000150: 5ee4 36bd 629d 41bc 97c1 35bd d89e 683d
00000160: ac99 7abd ecb6 42bd d276 53bd e0ed 4a3c
00000170: 6ec6 f03b 1f6a d439 2bbc 023d 6e2a 373d
00000180: 3dee 24bd c04e 7bbd f026 783c dac4 443d
00000190: c888 fcbb e509 943d aa60 a9bc ed41 dd3d
000001a0: 3b08 babc 7ccc fd3c 011c c73c 62f6 493d
000001b0: aa8a 73bd 1f69 ea3b c009 103d d854 e63a
000001c0: 178c 8b3d 8d65 223d 9640 8ebc 890e 073d
000001d0: f5c9 b7bb b54b 4cbc ea7d c1bd 8ac4 c7bd
000001e0: ba33 5dbd 12f2 543c 8540 adbd 4db8 95b9
000001f0: 8fb4 f33c 1a9e 4c3d c381 30bd 77a1 98ba

fc2.weight f4 [5, 128]
-0.06426882 0.233882 -0.07665454 0.16621377 0.17003627 -0.041388523 0.09768315 0.14709464
0.05581763 0.0804064 -0.1625887 0.1377961 -0.10097217 -0.045298137 0.23049083 0.06955506
0.17814818 -0.13653442 -0.13543773 0.10654479 -0.135964 0.05871527 0.19421926 0.17771202
-0.06327339 0.030608254 -0.09533851 -0.20134471 -0.05383283 0.012598397 0.13128053 -0.0699842
-0.14854224 -0.0019812363 0.12020188 -0.044882804 0.1340186 0.108430706 -0.06835821 -0.19355185
0.14121698 -0.036903135 0.011631174 -0.02592866 0.04370118 0.21797955 -0.089202255 0.07196214
-0.10576276 -0.18289943 0.021806445 0.15903817 0.1030513 0.06857079 0.11899863 0.13894288
-0.0016916014 0.04861855 -0.05773632 0.054314677 -0.08902612 -0.009614694 -0.1175911 0.023897676
0.18326066 0.0733896 0.006123053 -0.095672876 -0.08122228 0.05607899 0.010791347 0.049529802
0.0055406 -0.08071192 -0.19082992 -0.103052154 -0.10677541 0.12835886 -0.026858062 0.04544026
0.03691817 -0.03415094 -0.12485443 -0.0960498 -0.12080937 -0.07757799 -0.0789208 -0.0034333428
0.17803401 -0.08149448 -0.11489546 0.04398268 -0.035914976 -0.00038628507 0.058593273 -0.10651267
0.14866763 0.07948218 -0.029165642 -0.078519925 -0.09417783 -0.21063243 -0.029358191 -0.039597895
0.075717844 0.004022932 0.19284081 -0.11087525 0.033949107 0.035843447 0.108228095 0.071712896
-0.07106449 -0.03630204 -0.045838088 -0.057985526 -0.16981524 -0.0861071 0.09298411 0.09282755
-0.10945177 -0.030770103 -0.061768398 0.10461646 -0.018396446 -0.03572293 0.059539266 0.17904651
0.13359863 -0.08699413 -0.032476734 -0.009447606 -0.10068891 0.096313454 -0.08348515 -0.06009378
0.06813602 0.08868532 -0.09602972 -0.101013 -0.009530531 0.07996828 0.032134566 0.06004381
0.007664338 -0.044787534 0.07919029 -0.0043197772 -0.05110723 -0.011488321 -0.0043585123 0.01999081
-0.01368975 0.1396261 -0.029689178 0.09591609 0.06359938 0.04363659 -0.027629524 -0.073617026
-0.037859388 -0.0038220105 -0.0045307493 0.115998894 -0.061655473 -0.089098155 -0.04386695 0.06274175
0.02274351 -0.040154498 -0.08823135 0.06355143 -0.020105762 -0.013924855 -0.102571726 0.09952595
0.06552922 0.035949416 -0.09340019 0.06832267 -0.0957053 0.047912218 -0.123909116 -0.0830774
-0.12733161 0.08827805 0.10375995 -0.12437376 0.1386516 -0.09341696 -0.023584634 0.11295784
0.08075376 0.029657567 0.031048557 0.15296319 -0.09983804 -0.01305452 -0.028640961 0.07094935
0.10964351 -0.102119274 0.053056236 0.0063741384 0.0543334 0.0037028457 -0.009614027 0.038368262
-0.08904691 -0.10719185 0.14425729 -0.06342619 -0.012760478 0.10642025 -0.059210453 0.09019297
0.006021395 -0.055099856 -0.013390428 0.06309078 0.12043492 0.062835 -0.028499026 -0.032150637
0.0606184 0.057935555 0.08943811 -0.01654439 -0.024177082 0.029740654 -0.07596693 0.14539954
0.091059186 -0.027040562 -0.050360173 0.0936766 -0.0836748 -0.031310912 -0.08713853 -0.08982747
-0.02741308 0.094235174 0.0057621887 0.075563684 0.017931078 0.13442954 0.12722717 0.11429358
0.083907254 -0.1069916 -0.11287646 0.053271897 0.14476062 -0.07172743 -0.09005847 -0.00690669
00000000: 5f9f 83bd c37e 6f3e 0efd 9cbd f133 2a3e
00000010: fd1d 2e3e 0387 29bd 1a0e c83d fa9f 163e
00000020: 07a1 643d 1cac a43d a77d 26be 6c1a 0d3e
00000030: 7fca cebd 8a8a 39bd ca05 6c3e e272 8e3d
00000040: 7a6c 363e aecf 0bbe 30b0 0abe 2834 da3d
00000050: 263a 0bbe 6c7f 703d 6ae1 463e 24fa 353e
00000060: 7b95 81bd 29be fa3c d640 c3bd 4f2d 4ebe
00000070: d07f 5cbd 8269 4e3c 676e 063e e053 8fbd
00000080: 751b 18be a1d7 01bb 672c f63d 08d7 37bd
00000090: 2c3c 093e eb10 de3d 64ff 8bbd 7532 46be
000000a0: 2f9b 103e be27 17bd ae90 3e3c 5768 d4bc
000000b0: 0200 333d 0836 5f3e acaf b6bd e360 933d
000000c0: 259a d8bd fd49 3bbe 6ea3 b23c e7da 223e
000000d0: 8f0c d33d d86e 8c3d 8eb5 f33d 0b47 0e3e
000000e0: b9b8 ddba 3f24 473d eb7c 6cbd 1179 5e3d
000000f0: 5453 b6bd f386 1dbc 9ad3 f0bd 0fc5 c33c
00000100: afa8 3b3e 494d 963d e4a3 c83b 24f0 c3bd
00000110: de57 a6bd 15b3 653d 31ce 303c c3df 4a3d
00000120: ec8d b53b 4b4c a5bd eb68 43be 020d d3bd
00000130: 11ad dabd 8170 033e 7005 dcbc 911f 3a3d
00000140: 8237 173d dbe1 0bbd aeb3 ffbd c2b5 c4bd
00000150: e76a f7bd 36e1 9ebd 3aa1 a1bd ef01 61bb
00000160: 8c4e 363e 94e6 a6bd 504e ebbd 2f27 343d
00000170: 951b 13bd 4e86 cab9 80ff 6f3d 5123 dabd
00000180: 543c 183e 8ec7 a23d c9ec eebc 0ecf a0bd
00000190: 4ee0 c0bd 07b0 57be 9780 f0bc 6731 22bd
000001a0: f511 9b3d cdd2 833b 1078 453e 9012 e3bd
000001b0: 380e 0b3d 94d0 123d b1a6 dd3d 36de 923d
000001c0: 428a 91bd 73b1 14bd b8c0 3bbd 3b82 6dbd
000001d0: 0ce4 2dbe eb58 b0bd 746e be3d 5f1c be3d
000001e0: 4028 e0bd 9511 fcbc dc00 7dbd 2841 d63d
000001f0: 25b4 96bc 3552 12bd 72df 733d f857 373e
00000200: 14ce 083e fa29 b2bd 5306 05bd 22ca 1abc
00000210: fd35 cebd fd3f c53d 43fa aabd e524 76bd
00000220: e68a 8b3d a6a0 b53d 3bab c4bd e7df cebd
00000230: f225 1cbc 69c6 a33d 899f 033d 80f0 753d
00000240: 2125 fb3b 2273 37bd 852e a23d eb8c 8dbb
00000250: d155 51bd 8339 3cbc dad1 8ebb c4c3 a33c
00000260: f94a 60bc 25fa 0e3e b836 f3bc a86f c43d
00000270: 6440 823d 48bc 323d 5057 e2bc 86c4 96bd
00000280: 7212 1bbd b27a 7abb ae76 94bb d490 ed3d
00000290: 738a 7cbd 1879 b6bd d5ad 33bd bf7e 803d
000002a0: 9950 ba3c 0b79 24bd a3b2 b4bd 4127 823d
000002b0: d7b4 a4bc 1325 64bc 2011 d2bd 43d4 cb3d
000002c0: 2f34 863d b23f 133d 9948 bfbd c2ec 8b3d
000002d0: 2401 c4bd 9a3f 443d 10c4 fdbd 7c24 aabd
000002e0: 3863 02be 1fcb b43d 1980 d43d abb7 febd
000002f0: affa 0d3e 6451 bfbd 9034 c1bc 7156 e73d
00000300: 3a62 a53d 6df4 f23c 8b59 fe3c 62a2 1c3e
00000310: e377 ccbd a0e2 55bc 73a0 eabc e54d 913d
00000320: c78c e03d e923 d1bd 7f51 593d 26de d03b
00000330: b38c 5e3d 71ab 723b 2784 1dbc 0a28 1d3d
00000340: 3a5e b6bd 6787 dbbd 2fb8 133e 97e5 81bd
00000350: 5311 51bc dcf2 d93d a986 72bd 18b7 b83d
00000360: 1f4f c53b 63b0 61bd 8763 5bbc bd35 813d
00000370: 95a6 f63d a3af 803d ca76 e9bc 63b0 03bd
00000380: 004b 783d d54d 6d3d 542b b73d 1a88 87bc
00000390: 040f c6bc aca2 f33c 8d94 9bbd 9ee3 143e
000003a0: 3d7d ba3d 2b84 ddbc 7846 4ebd 84d9 bf3d
000003b0: b25d abbd df3f 00bd b075 b2bd 77f7 b7bd
000003c0: 6591 e0bc 5ffe c03d bed0 bc3b 22c1 9a3d
000003d0: 32e4 923c e6a7 093e d747 023e c112 ea3d
000003e0: 91d7 ab3d 691e dbbd c62b e7bd a233 5a3d
000003f0: 213c 143e d5e5 92bd 9370 b8bd 8451 e2bb

fc2.bias f4 [5]
0.12666418 0.034050554 0.03436899 -0.16320471 -0.03264827
00000000: 41b4 013e 9878 0b3d 80c6 0c3d 231f 27be
00000010: 31ba 05bd
