results/valence/classification_5/20251225_162651_197112/best_model.pt (torch, 274869 bytes, 16 tensors)

conv1.weight f4 [16, 1, 3, 3]
0	0x3ecb6b20	0.39730167
1	0x3e9e162c	0.3087629
2	0x3c3bdab3	0.011465716
3	0x3e8b7058	0.2723415
4	0xbddf52b0	-0.10904443
5	0x3d43d1c1	0.04780746
6	0xbe88164a	-0.26579505
7	0x3e2c62c6	0.16834554
8	0x3eeaf02e	0.45886368
9	0xbe7a20ba	-0.24426547
10	0x3ee6f376	0.4510762
11	0xbdebd177	-0.115145616
12	0x3e88934d	0.26674882
13	0x3e30ee1c	0.17278332
14	0x3eb282fa	0.34865552
15	0xbe40e004	-0.18835455
16	0x3d3babd0	0.04581815
17	0xbba31f76	-0.0049781157
18	0xbe7187c6	-0.2358695
19	0x3e1add63	0.15123515
20	0xbe78829f	-0.24268578
21	0xbdfc3a99	-0.12315864
22	0xbe22a386	-0.15882692
23	0x3ede2076	0.4338414
24	0xbe33a289	-0.17542471
25	0xbdc54889	-0.096329756
26	0xbd46841a	-0.048465826
27	0xbd154eb8	-0.036452025
28	0xba4a2f6a	-0.0007712754
29	0xbedf6645	-0.43632713
30	0x3e74dbd1	0.23911978
31	0xbeb8b33d	-0.36074248
32	0x3ed88170	0.42286253
33	0x3d9f98b7	0.077928
34	0xbe17f3b6	-0.14839062
35	0x3e9d79c9	0.30756977
36	0x3c9bd9fa	0.019024838
37	0x3edcd701	0.43132785
38	0xbd8ecba7	-0.06972437
39	0xbe3349ac	-0.17508572
40	0xbda981da	-0.0827672
41	0xbe80d941	-0.25165752
42	0x3d81fdd8	0.06347245
43	0x3ee0eef9	0.43932322
44	0x3e298435	0.16554339
45	0xbb994240	-0.004677087
46	0x3e6f0ed6	0.23345503
47	0x3e578d2f	0.21049951
48	0x3d94385f	0.072373144
49	0xbea8659e	-0.32890028
50	0xbec355d1	-0.3815141
51	0x3c1e4906	0.009660965
52	0xbeb254c0	-0.34830284
53	0x3eda33a5	0.42617527
54	0x3d60c134	0.054871753
55	0x3e6cc9f7	0.23123918
56	0x3e1eed6d	0.15520258
57	0xbd522f97	-0.051314916
58	0x3eb10c62	0.3457976
59	0xbeb312a3	-0.34975156
60	0x3d333186	0.0437484
61	0xbea30ff5	-0.31848112
62	0x3df9fab5	0.12206022
63	0xbdf6eac6	-0.12056498
64	0x3dac2aef	0.084066264
65	0xbd864d27	-0.065576844
66	0x3e388f7a	0.18023482
67	0xbe6614f9	-0.22468938
68	0xbed5ef61	-0.41784194
69	0xbe157c4a	-0.14598194
70	0x3edd831b	0.43264088
71	0x3ea19b60	0.31563854
72	0x3eaa996f	0.33320186
73	0xbd47177e	-0.04860639
74	0xbef1653a	-0.47147542
75	0xbe90a0dd	-0.2824773
76	0xbe8b9f9f	-0.2727022
77	0x3e4a4a90	0.19755006
78	0x3e5907ed	0.2119443
79	0x3ecda5da	0.40165597
80	0xbe8efb89	-0.2792628
81	0xbe2d83a9	-0.16944756
82	0x3e389da3	0.18028884
83	0xbd961663	-0.07328489
84	0x3e953830	0.2914443
85	0xbd940928	-0.07228309
86	0x3e88bad7	0.26705047
87	0xbe78b952	-0.24289444
88	0xbef2dc11	-0.47433522
89	0x3e2491fe	0.16071317
90	0x3dc47c20	0.095939875
91	0xbdf73bbe	-0.12071942
92	0x3ee1982c	0.4406141
93	0x3e3bb5e8	0.1833111
94	0xbe7755a3	-0.24153762
95	0xbe78feef	-0.24316
96	0x3e94998a	0.2902339
97	0xbda8d904	-0.082445174
98	0xbea77449	-0.32705906
99	0xbd5a1dee	-0.0532512
100	0xbeace459	-0.33767965
101	0x3ec64307	0.38723013
102	0x3d26a7df	0.040687438
103	0xbea76f98	-0.32702327
104	0x3e34e16d	0.17664118
105	0xbe375916	-0.17905077
106	0xbeb49253	-0.35267887
107	0xbe13287f	-0.14370917
108	0xbe2f9cef	-0.17149709
109	0xbe706a41	-0.23478033
110	0x3f01c9e4	0.50698686
111	0x3cea33ba	0.028589118
112	0x3dc3ac06	0.09554295
113	0xbef61823	-0.4806529
114	0xbe256812	-0.16152981
115	0xbcd27d8f	-0.025694637
116	0x3e13a232	0.14417341
117	0xbdc4f513	-0.09617057
118	0xbdbc9adc	-0.092092246
119	0xbec4168e	-0.38298458
120	0x3dc86fb9	0.097869344
121	0xbe05b7de	-0.13058421
122	0xbd37c8f6	-0.044869386
123	0xbe8c2a75	-0.27376142
124	0xbee09459	-0.4386318
125	0xbea608db	-0.3242863
126	0xbe496d8e	-0.19670698
127	0xbea192ab	-0.3155721
128	0x3e8a6b98	0.27035213
129	0xbd6683c2	-0.056277998
130	0x3ecb75ba	0.39738256
131	0x3e9639fd	0.29341117
132	0xbe69958b	-0.22810952
133	0x3e3956c8	0.1809951
134	0xbe972637	-0.29521343
135	0xbe4e431e	-0.2014279
136	0xbe396a18	-0.18106878
137	0xbf066978	-0.5250468
138	0x3e23d3ad	0.15998717
139	0xbc49fc63	-0.01232824
140	0x3e9af857	0.30267593
141	0xbdcfb41a	-0.101417735
142	0x3e966c9b	0.29379734
143	0xbec63f94	-0.3872038

conv1.bias f4 [16]
0	0x3a33fd18	0.0006866022
1	0x38245834	3.9182793e-05
2	0x3998be94	0.0002913369
3	0x39ffba33	0.0004877612
4	0xba991a5c	-0.0011680829
5	0xbab6cf77	-0.0013947327
6	0xbaa3f244	-0.0012508114
7	0xba739738	-0.00092922477
8	0xba04d143	-0.0005066583
9	0xba87f7a5	-0.0010373486
10	0x3ad2e063	0.0016088601
11	0xb928ca44	-0.00016097078
12	0xbb073c69	-0.0020635372
13	0xb94a1620	-0.00019272463
14	0x383d44a8	4.5125053e-05
15	0x39f2828a	0.00046255096

bn1.weight f4 [16]
0	0x3f65c533	0.8975403
1	0x3f5ccd9c	0.86251235
2	0x3f70baf4	0.9403527
3	0x3f8841c6	1.0645072
4	0x3f7b8bf2	0.98260415
5	0x3f8cf6ee	1.1012857
6	0x3f8e57d1	1.112055
7	0x3f972a50	1.1809788
8	0x3f878c00	1.05896
9	0x3f766cb1	0.962596
10	0x3f78cb79	0.97185475
11	0x3f7000e9	0.9375139
12	0x3f8648ab	1.0490927
13	0x3f32951a	0.6975876
14	0x3f7d27eb	0.98889035
15	0x3f7c0ad8	0.98454046

bn1.bias f4 [16]
0	0xbe6b2f01	-0.2296715
1	0xbeb49132	-0.35267025
2	0xbe1ed91e	-0.15512511
3	0xbd8ff8fa	-0.070299104
4	0x3b5b4354	0.0033456879
5	0xbdbc5c91	-0.09197343
6	0xbea47471	-0.32120088
7	0xbddd99a5	-0.10820321
8	0xbc6d6a29	-0.014490643
9	0xbd898f09	-0.06716735
10	0xbe177926	-0.14792308
11	0xbe2d1111	-0.16901042
12	0xbd1c0ddf	-0.038099166
13	0xbe2b4ecd	-0.16729279
14	0xbdfd6505	-0.123727836
15	0xbd8ff701	-0.07029534

bn1.running_mean f4 [16]
0	0xbbb3a342	-0.0054821083
1	0xbb3d62c4	-0.002889798
2	0x3b4c13b6	0.0031139678
3	0x3a9fa90c	0.0012181117
4	0xbb412818	-0.002947336
5	0xba8869b5	-0.001040748
6	0xbb8b0bf1	-0.004243367
7	0x3a0978c9	0.00052441336
8	0x3a0addb4	0.00052973186
9	0xb973b0f0	-0.000232402
10	0xbae02a95	-0.0017102534
11	0x3b1e0318	0.002411073
12	0xb9f4cfbc	-0.0004669408
13	0x3b687ae5	0.0035473641
14	0x3b247572	0.0025094417
15	0x3b85dc91	0.0040851315

bn1.running_var f4 [16]
0	0x3f08d740	0.53453445
1	0x3ee3baa2	0.44478327
2	0x3e4024b6	0.18764004
3	0x3e522903	0.20523457
4	0x3e741c7e	0.23838994
5	0x3e875441	0.26431468
6	0x3e23fb40	0.16013813
7	0x3e594cb3	0.21220665
8	0x3e7bc2b2	0.24585989
9	0x3e4a0305	0.19727714
10	0x3e895b7c	0.2682761
11	0x3f01baef	0.50675863
12	0x3e15922d	0.14606543
13	0x3f52521e	0.8215655
14	0x3e9cb41c	0.30606163
15	0x3e6b724e	0.22992823

conv2.weight f4 [32, 16, 3, 3]
0	0x3e7694ee	0.2408025
1	0x3cf4e91f	0.029896317
2	0x3e51d542	0.20491508
3	0xbdd44b78	-0.10365957
4	0x3d978304	0.07398036
5	0x3d5757b9	0.052573893
6	0xbe17503e	-0.14776704
7	0x3e2738c9	0.16330256
8	0x3ea2dd31	0.3180938
9	0xbe038e89	-0.12847342
10	0xbde6c1ab	-0.11267408
11	0xbcfcb70c	-0.030849002
12	0x3db52ead	0.08846793
13	0x3ac396ef	0.0014922301
14	0xbed14047	-0.40869352
15	0x3c689a1f	0.014196902
16	0xbe5fd852	-0.21859863
17	0x3d5ba291	0.053621832
18	0x3dd4b51e	0.10386108
19	0xbee2b90a	-0.442818
20	0x3da5f2c2	0.08102943
21	0xbc6645af	-0.0140547
22	0x3db9f37c	0.09079644
23	0xbd1011fd	-0.035173405
24	0x3e07793d	0.13229842
25	0x3dbb1cf0	0.09136379
26	0xbdea55ac	-0.11442122
27	0xbe072759	-0.13198604
28	0xbbf8b557	-0.007589977
29	0x3d41d8a6	0.047325753
30	0xbd1f8858	-0.038948387
31	0xbd48e240	-0.049043894
32	0x3db98804	0.09059146
33	0x3cb119f6	0.021618824
34	0x3c055d69	0.0081399465
35	0xbbce8f49	-0.006303702
36	0x3d8ec1d7	0.06970566
37	0xbdc9a5e1	-0.09846092
38	0x3ea19118	0.3155601
39	0x3c95dcbb	0.018293729
40	0xbe5fb984	-0.21848112
41	0x3e2eb462	0.17060998
42	0x3e253d67	0.16136704
43	0x3d53f520	0.05174744
44	0xbd7eb142	-0.062180765
45	0x3daca5d2	0.08430065
46	0xbe22b93f	-0.15890978
47	0x3d5a404c	0.053283975
48	0x3d029ff3	0.03189082
49	0x3def1aaa	0.11675008
50	0xbc697ee6	-0.014251446
51	0x3d4cbb27	0.04998317
52	0xbee507e5	-0.44732586
53	0x39f7d6f8	0.00047271675
54	0xbcc58ced	-0.02411505
55	0x3e2482a4	0.1606546
56	0x3ba2fafd	0.004973768
57	0xbd420f16	-0.04737767
58	0x3e13f461	0.14448692
59	0xbe92f682	-0.28703696
60	0xbc3d08b9	-0.011537724
61	0x3e93b548	0.28849244
62	0xbe1a0dc5	-0.15044315
63	0xbe392864	-0.18081814
64	0xbdd1ab3e	-0.1023774
65	0x3de94ec3	0.11391976
66	0x3c8d8993	0.017277515
67	0xbe3b198c	-0.18271464
68	0xbef83714	-0.4847952
69	0x3ddf082e	0.10890232
70	0x3e5b454c	0.21413153
71	0x3e1d29d4	0.15347987
72	0x3e45ba29	0.19309296
73	0x3dc91fba	0.098205045
74	0x3c13adeb	0.009013633
75	0x3d1bfba2	0.038081773
76	0xbdcd562f	-0.10026204
77	0xbdd69432	-0.10477485
78	0x3d8185bc	0.06324336
79	0xbead10b8	-0.33801818
80	0x3d4e1356	0.05031141
81	0xbcdbcdaf	-0.026831476
82	0x3c49b830	0.01231198
83	0xbe5789d7	-0.21048675
84	0xbd6f4b59	-0.058421466
85	0xbe99ffd3	-0.3007799
86	0xbe00773c	-0.12545484
87	0xbdc84b2b	-0.09779962
88	0xbe475038	-0.19464195
89	0x3e82c8ee	0.25543922
90	0xbdf2b902	-0.11851694
91	0xbee3afd1	-0.44470075
92	0xbe4d8db2	-0.20073584
93	0xbe0acc0b	-0.13554399
94	0xbd60247c	-0.054722294
95	0xbcd8f553	-0.026484167
96	0xbe65e6dd	-0.22451349
97	0x3c42bebf	0.011886298
98	0x3e2ae410	0.16688561
99	0x3e65a56f	0.22426389
100	0x3d184f80	0.037185192
101	0x3e1547ec	0.14578217
102	0xbcb3648f	-0.021898536
103	0xbc1fefd0	-0.009761766
104	0x3e1e8593	0.15480642
105	0x3d46d01f	0.048538323
106	0xbe4a6a7d	-0.19767185
107	0xbe33562d	-0.17513342
108	0xbcc5b8bb	-0.024135938
109	0xbe6515fe	-0.2237167
110	0xbdf89d2b	-0.121393524
111	0x3d10c9c1	0.035348658
112	0x3e09e62b	0.13466708
113	0x3e54cfad	0.20782347
114	0x3e4ee4c2	0.20204452
115	0xbe6814a1	-0.2266412
116	0xbe6baff8	-0.23016346
117	0xbdbe4e2d	-0.092922546
118	0xbdf5ee2b	-0.120083176
119	0xbdd4b43e	-0.10385941
120	0xbd0ca4f3	-0.034336995
121	0xbd50ecdf	-0.051007148
122	0x3e4c6a5f	0.19962452
123	0xbe06e687	-0.13173877
124	0xbdc1c92e	-0.094622
125	0x3c595304	0.013264421
126	0x3df677e1	0.12034584
127	0x3d490d9a	0.049085237
128	0x3e5781f5	0.21045668
129	0xbd238c55	-0.039928753
130	0xbdb05be7	-0.08611279
131	0xbec2113b	-0.3790377
132	0xbdced2eb	-0.10098823
133	0xbe435742	-0.19076255
134	0x3e66f41c	0.22554058
135	0x3d2a9310	0.041644156
136	0xbd200004	-0.039062515
137	0x3e94503a	0.28967458
138	0xbe358e80	-0.1773014
139	0x3d528f67	0.05140629
140	0x3e9e6b6b	0.30941328
141	0x3e57c33b	0.21070568
142	0xbdc5a857	-0.09651249
143	0xbd88532f	-0.06656491
144	0xbe29056a	-0.16505972
145	0x3e8fff02	0.28124243
146	0x3cce9d83	0.025221592
147	0xbe70f2e3	-0.23530154
148	0x3e16c2e9	0.1472279
149	0xbe09fa31	-0.13474347
150	0x3ecd4883	0.40094385
151	0x3d3931a2	0.04521335
152	0xbde5ba84	-0.11217216
153	0xbe0c6b0d	-0.13712712
154	0x3dae53f1	0.08512104
155	0xbe012747	-0.1261264
156	0x3cf26cfd	0.029592985
157	0x3d93a4cb	0.07209166
158	0xbda744e0	-0.08167434
159	0x3d67e74d	0.05661707
160	0x3b958e7e	0.0045641055
161	0xbdf87480	-0.121315956
162	0x3e540175	0.20703681
163	0x3e763b88	0.24046147
164	0xbdf9330e	-0.12167941
165	0xbc64aa5f	-0.013956635
166	0xbd62de8a	-0.05538801
167	0xbd761068	-0.06007424
168	0xbdf9e414	-0.122017056
169	0x3c91508d	0.017738605
170	0xbe366998	-0.17813718
171	0xbb1c2675	-0.0023826633
172	0xbe331c7a	-0.17491332
173	0x3d4b24cb	0.049595635
174	0x3e5e05ff	0.21681975
175	0x3bc3e45b	0.00597815
176	0xbdbf7d3f	-0.09350061
177	0x3dbddd0c	0.09270677
178	0xbcc55432	-0.024087999
179	0x3d495737	0.04915544
180	0x3de5a389	0.112128325
181	0x3d87436d	0.06604657
182	0x3d058624	0.03259863
183	0xbe4a3fcd	-0.197509
184	0xbe43f293	-0.19135503
185	0xbd108fa7	-0.035293248
186	0x3de029b5	0.10945455
187	0xbe307a48	-0.17234147
188	0xbe83ec13	-0.25766048
189	0x3d49f92e	0.049309902
190	0x3defb7d9	0.11704988
191	0x3dfe27b2	0.12409915
192	0x3c0aa931	0.00846319
193	0x3dd3042a	0.103035286
194	0xbeec1c4e	-0.46115345
195	0x3d90309b	0.07040521
196	0x3e66560f	0.22493766
197	0x3d52a66c	0.051428244
198	0xbdbdd743	-0.092695735
199	0xbdd4eb49	-0.103964396
200	0x3e023940	0.12717152
201	0x3e873e4b	0.26414713
202	0x3dd056cc	0.10172805
203	0x3e3c18a5	0.18368776
204	0x3e6573e5	0.22407492
205	0x3d19f47a	0.037586667
206	0x3d4b9c3f	0.049709555
207	0xbd80d0d6	-0.06289832
208	0xbe1285d1	-0.1430886
209	0xbe8be92a	-0.27326328
210	0x3e5ed938	0.2176255
211	0xbdc16bf9	-0.09444422
212	0x3e0bf0d1	0.13666083
213	0xbe55fdf4	-0.20897657
214	0xbd24e22b	-0.040254753
215	0xbd2c46a1	-0.042059544
216	0x3e3619ca	0.17783275
217	0xbd8fc436	-0.07019846
218	0x3ed43f1b	0.41454396
219	0xbebe604f	-0.37182853
220	0x3bbcaebb	0.005758134
221	0xbd4cfb46	-0.05004432
222	0x3ddfd4bb	0.10929247
223	0xbb958c46	-0.004563841
224	0x3e67c69f	0.22634362
225	0x3e13955b	0.14412443
226	0xbeb0ab17	-0.3450553
227	0xbb912a6b	-0.0044301054
228	0x3e7dd330	0.24787593
229	0xbb5d8756	-0.003380259
230	0xbe6995ff	-0.22811125
231	0xbdcdf549	-0.1005655
232	0x3dee6db5	0.11642019
233	0xbc51fcd1	-0.012816624
234	0xbd35ec5d	-0.044414867
235	0xbd5c1ed1	-0.053740326
236	0xbea87096	-0.32898396
237	0x3cfa326c	0.030541621
238	0x3db9a179	0.090640016
239	0xbe357797	-0.17721401
240	0xbdbd6bd9	-0.09249086
241	0x3e08247d	0.13295169
242	0xbd00b919	-0.031426523
243	0xbd3afdbb	-0.045652132
244	0x3e3e85f0	0.1860578
245	0xbe372ec5	-0.17888935
246	0xbd1b7b5d	-0.037959445
247	0x3d0dd178	0.034623593
248	0x3e09785b	0.13424818
249	0xbca85d61	-0.020552339
250	0xbe82274d	-0.2542061
251	0x3d8a7612	0.067608014
252	0xbc36c7a3	-0.011155996
253	0xbdcdbc79	-0.10045714
254	0x3e38e32e	0.18055412
255	0x3db5f2c1	0.08884192

conv2.bias f4 [32]
0	0x39f7cf2f	0.00047265875
1	0x3a1913ec	0.00058394554
2	0x3a18d35c	0.0005829835
3	0x3a49a816	0.0007692588
4	0x39bc0c84	0.0003586748
5	0xb926da4d	-0.00015912317
6	0x3a0e8487	0.0005436618
7	0xb79fb639	-1.9039131e-05
8	0x39b6081c	0.00034719787
9	0xb93b7c9e	-0.00017880133
10	0xba0229e6	-0.000496535
11	0x3a3cfcae	0.0007209283
12	0xba0c30ba	-0.0005347837
13	0xbab649a9	-0.001390745
14	0x385755d4	5.1339928e-05
15	0xb8be491b	-9.073523e-05
16	0x391f64a2	0.0001520091
17	0xb9fde844	-0.00048428972
18	0xb8fc7140	-0.00012037391
19	0xba34db86	-0.00068991666
20	0xb9295444	-0.00016148487
21	0xba43d829	-0.000747087
22	0xb930a151	-0.00016844763
23	0xba0cda8b	-0.00053731416
24	0x39d55999	0.0004069328
25	0x39ecad65	0.00045142617
26	0x382f12f8	4.1740917e-05
27	0xb8e014d6	-0.00010685033
28	0x3a4f203c	0.00079012266
29	0x399f2424	0.0003035377
30	0x3999e9bc	0.0002935658
31	0xb9b50869	-0.00034529276

bn2.weight f4 [32]
0	0x3fda703c	1.7065501
1	0x3fd7c95c	1.6858325
2	0x3fd6ea9e	1.679035
3	0x3fddfe0f	1.7343158
4	0x3fd2c269	1.6465579
5	0x3fca36a7	1.5797929
6	0x3fe47ef9	1.7851249
7	0x3fc42173	1.5322708
8	0x3fc31a0b	1.5242323
9	0x3fcc35ed	1.5953957
10	0x3fea0782	1.8283541
11	0x3fc8290a	1.5637524
12	0x3fcb3c7c	1.5877833
13	0x3fcf096a	1.6174748
14	0x3fdab82b	1.7087454
15	0x3fd95080	1.6977692
16	0x3fec9285	1.8482214
17	0x3fd1d3c5	1.6392752
18	0x3fd0ab6e	1.6302316
19	0x3fc021fc	1.5010371
20	0x3fcf5fc1	1.6201097
21	0x3fe1a258	1.7627668
22	0x3fc7562a	1.557317
23	0x3fc7d6c3	1.5612415
24	0x3fc3869f	1.5275458
25	0x3fcc0691	1.5939504
26	0x3fc738c3	1.5564197
27	0x3fd39229	1.652898
28	0x3fcf4604	1.6193242
29	0x3fd38782	1.6525729
30	0x3fe6ffb2	1.8046782
31	0x3fe78faa	1.8090718

bn2.bias f4 [32]
0	0xbf2dce5a	-0.6789299
1	0xbf4c8666	-0.79892576
2	0xbf918bd3	-1.1370796
3	0xbee90a6a	-0.45515758
4	0xbf261d9b	-0.64888924
5	0xbf2253d7	-0.6340918
6	0xbf6827f4	-0.90685964
7	0xbf107a58	-0.5643668
8	0xbefa89b8	-0.48933196
9	0xbf1485c9	-0.5801664
10	0xbf15a501	-0.584549
11	0xbf427af9	-0.7596889
12	0xbf084ff6	-0.5324701
13	0xbf1e5e11	-0.61862284
14	0xbee848ab	-0.4536794
15	0xbf49f1c4	-0.7888453
16	0xbf5f1eec	-0.8715656
17	0xbf187761	-0.5955716
18	0xbee7074b	-0.45122752
19	0xbf3db6f4	-0.7410729
20	0xbf36ffa4	-0.71483827
21	0xbf350e47	-0.7072491
22	0xbefe62c2	-0.4968472
23	0xbee3bee0	-0.44481564
24	0xbf256439	-0.6460605
25	0xbf341dc7	-0.70357937
26	0xbf36e042	-0.7143594
27	0xbf3fb0d9	-0.74879223
28	0xbf23854f	-0.6387529
29	0xbf18a8e9	-0.59632736
30	0xbf28d064	-0.6594298
31	0xbf75c37a	-0.960014

bn2.running_mean f4 [32]
0	0xbf255c71	-0.6459418
1	0x3cdadb66	0.026715945
2	0x3f149caa	0.5805155
3	0xbf55c883	-0.8350908
4	0xbf2b7cda	-0.66987383
5	0xbf1cd225	-0.61258155
6	0x3f850cc9	1.0394527
7	0xbeb2a9bb	-0.3489512
8	0xbf5d3d48	-0.8642163
9	0xbf4309e9	-0.76186997
10	0xbf6bb541	-0.92073447
11	0x3cf0c6a0	0.029391587
12	0xbf747829	-0.9549585
13	0x3eac1dba	0.3361643
14	0xbf35dfdb	-0.710447
15	0x3e6f85ea	0.23390928
16	0x3f88a45e	1.0675161
17	0xbf173a33	-0.5907318
18	0xbf36358f	-0.71175474
19	0xbca82639	-0.020526038
20	0xbe8e337a	-0.27773649
21	0x3e92fe4d	0.2870964
22	0xbf3623d2	-0.7114841
23	0xbf741f72	-0.9536048
24	0xbf052bc4	-0.52019906
25	0x3d97ddf8	0.07415384
26	0x3ebeff40	0.37304115
27	0x3ec8ce68	0.39219975
28	0x3e8edf5d	0.27904788
29	0xbeebf4f9	-0.46085337
30	0xbf312cec	-0.6920917
31	0x3f2e730c	0.681443

bn2.running_var f4 [32]
0	0x3efdd1c5	0.49574104
1	0x3f05a690	0.5220728
2	0x3eddea7a	0.43342954
3	0x3f5cc7c5	0.86242324
4	0x3f36987a	0.7132641
5	0x3f1dcb98	0.61638784
6	0x3f3e9f63	0.74461955
7	0x3f069e22	0.5258504
8	0x3f2312c0	0.63700485
9	0x3f1b9722	0.60777485
10	0x3f2b6945	0.66957504
11	0x3efa5f56	0.4890086
12	0x3f23abe2	0.6393415
13	0x3f0b0e24	0.5431845
14	0x3f0063ef	0.50152487
15	0x3ee0e8f4	0.4392773
16	0x3f1bee05	0.60910064
17	0x3ee35e91	0.44408086
18	0x3f2f1113	0.6838543
19	0x3f028c51	0.50995356
20	0x3f11edb0	0.5700331
21	0x3ee67c93	0.45016918
22	0x3f47ec52	0.7809497
23	0x3f2dea8a	0.67936003
24	0x3f19996c	0.5999973
25	0x3f02f550	0.5115557
26	0x3eee6153	0.46558627
27	0x3f14b62e	0.58090484
28	0x3ed359d4	0.4127947
29	0x3f0ae749	0.54259163
30	0x3edcccb4	0.43124926
31	0x3f03d91e	0.5150317

fc1.weight f4 [128, 480]
0	0x3e057c5c	0.1303572
1	0x3d651e3c	0.055937037
2	0xbd8e5898	-0.06950492
3	0xbdfd72ce	-0.12375413
4	0x3e600b46	0.218793
5	0x3dc0363a	0.09385343
6	0x3d242150	0.04007083
7	0xbf005d4c	-0.5014236
8	0xbf0dfc71	-0.5546332
9	0xbcf4a703	-0.029864794
10	0xbd9605df	-0.073253386
11	0x3ddeb16d	0.10873685
12	0x3df35812	0.118820325
13	0x3cdef54f	0.027216582
14	0xbd9c3d0e	-0.07628833
15	0x3d5a9db3	0.05337305
16	0xbea739f5	-0.32661405
17	0x3dc09952	0.094042435
18	0x3daf774c	0.08567676
19	0x3e4a9250	0.19782376
20	0x3de960ab	0.11395391
21	0xbe3aff4d	-0.18261452
22	0x3e14e35a	0.14539853
23	0xbe0ecb4b	-0.13944738
24	0x3ec78324	0.3896724
25	0xbdc82dfc	-0.09774396
26	0xbe0217d2	-0.12704399
27	0xbd1e8bbe	-0.038707487
28	0x3db9c7aa	0.09071286
29	0x3d179649	0.037008557
30	0xbd3554dc	-0.04427038
31	0xbe644e58	-0.22295511
32	0xbc19468a	-0.009355197
33	0x3efe1ff8	0.49633765
34	0x3d9233f6	0.07138817
35	0xbe70d154	-0.23517352
36	0x3dc5368e	0.09629546
37	0xbd1de447	-0.03854778
38	0x3d988a28	0.07448226
39	0x3ea497f5	0.32147184
40	0x3df932e3	0.12167909
41	0xbd210f4c	-0.03932123
42	0x3e03d072	0.12872484
43	0x3dccd3f7	0.100013666
44	0xbe708b78	-0.23490703
45	0x3e9c7065	0.305545
46	0xbe1ab7b4	-0.1510914
47	0xbdaaa0ec	-0.08331475
48	0x3ddba9a8	0.10725719
49	0x3dc5701d	0.096405245
50	0xbdacd7a5	-0.084395684
51	0xbcb5167a	-0.022105444
52	0x3d80e186	0.06293015
53	0xbea86173	-0.32886848
54	0x3eaf6807	0.34259054
55	0x3c20644b	0.009789537
56	0x3e26336a	0.1623055
57	0xbd299f0d	-0.04141145
58	0xbe8477cb	-0.25872645
59	0xbda4be7d	-0.08044145
60	0x3e78ed84	0.24309355
61	0xbdb8baff	-0.09020042
62	0x3e8885cd	0.26664582
63	0x3cefdbb0	0.02927956
64	0x3e206d9a	0.1566681
65	0x3d732951	0.059365574
66	0xbd439e65	-0.04775848
67	0x3e90f291	0.28310063
68	0x3d894578	0.06702703
69	0x3e7ef16d	0.24896784
70	0x3c8b6023	0.017013615
71	0x3d88d821	0.06681848
72	0xbd94c14c	-0.07263431
73	0xbd94db33	-0.072683714
74	0x3e3a7a98	0.18210828
75	0xbdb8e040	-0.09027147
76	0x3dbb2e3d	0.091396786
77	0xbd8153c4	-0.06314805
78	0xbda6da72	-0.08147134
79	0x3d4c5e01	0.049894337
80	0xbd4ebe01	-0.05047417
81	0x3e070a60	0.13187551
82	0x3d893306	0.06699185
83	0xbb8cf471	-0.0043016006
84	0xbe17e634	-0.1483391
85	0xbe566c18	-0.20939672
86	0xbd225aa8	-0.039637238
87	0x3e18371f	0.14864777
88	0x3e2e62be	0.17029855
89	0xbe0053da	-0.12531987
90	0x3e9d4212	0.3071447
91	0xbe183e11	-0.14867426
92	0x3e39df8a	0.1815168
93	0xbe5d2994	-0.21597892
94	0xbe6d4d34	-0.23173982
95	0xbdde7392	-0.10861887
96	0xbd789308	-0.060687095
97	0xbebf1b09	-0.37325314
98	0x3d979507	0.074014716
99	0xbe3272db	-0.17426626
100	0xbec57df1	-0.38572648
101	0x3d90bcea	0.070672825
102	0xbe34634f	-0.17616008
103	0x3e368a70	0.17826247
104	0xbcf14bf4	-0.029455163
105	0x3ccdb427	0.025110317
106	0x3de45dbe	0.111506924
107	0xbc3086f4	-0.010774363
108	0x3e43be75	0.19115622
109	0x3ec7dbdb	0.39034924
110	0xbc1753ca	-0.009236285
111	0x3dc1d31e	0.094640955
112	0xbde9409b	-0.11389276
113	0x3dd1ae07	0.10238271
114	0xbcda3379	-0.026635872
115	0x3ceb1343	0.028695708
116	0xbe1bd6c6	-0.15218648
117	0x3e2c3916	0.16818652
118	0x3e25569a	0.16146317
119	0xbe286b3d	-0.16447158
120	0x3d6ceb72	0.057841726
121	0xbe5a8da4	-0.21343094
122	0xbe6946c6	-0.22780904
123	0xbf3ecfb0	-0.74535656
124	0xbec0dd39	-0.3766878
125	0x3d57c9a8	0.05268255
126	0xbd8fbc84	-0.070183784
127	0xbe42ff08	-0.19042599
128	0xbe9fb57c	-0.3119315
129	0x3ef7692b	0.48322424
130	0xbd4d4a6e	-0.05011981
131	0xbd763165	-0.0601057
132	0xbd90e152	-0.070742264
133	0x3df51bce	0.11968194
134	0x3d5ea750	0.05435878
135	0xbde75100	-0.112947464
136	0x3cf125c5	0.029436955
137	0x3cfcbd51	0.030851992
138	0xbd95dad1	-0.073171265
139	0x3e7460d7	0.23865066
140	0x3d066450	0.03281051
141	0x3b984022	0.004646317
142	0xbdf59403	-0.119911216
143	0x3dd1b7c3	0.10240128
144	0x3d707804	0.058708206
145	0xbe2fa0cb	-0.17151181
146	0x3da489c6	0.08034091
147	0x3cc79cba	0.024366725
148	0xbe929962	-0.28632647
149	0x3dc30ce6	0.095239446
150	0x3d2cf9ef	0.042230543
151	0xbe8c97d5	-0.2745959
152	0xbe07db5f	-0.13267277
153	0x3d1f7698	0.03893146
154	0x3d554a42	0.05207277
155	0xbb9f728a	-0.004865949
156	0x3dd8e167	0.10589867
157	0xbcceef38	-0.025260553
158	0xbe2669bb	-0.1625127
159	0xbec89a56	-0.3918025
160	0x3b59ebd9	0.0033252148
161	0x3e19b0c6	0.1500884
162	0xbe49d138	-0.19708717
163	0x3e13e8cf	0.14444278
164	0x3bbbff0c	0.005737191
165	0xbe915054	-0.28381598
166	0xbe29b039	-0.1657113
167	0xbd164c40	-0.03669381
168	0x3e77ec26	0.24211177
169	0x3e024d27	0.12724744
170	0xbef44109	-0.47705868
171	0x3db7397d	0.08946512
172	0x3d8b497f	0.06801128
173	0x3e6baf19	0.23016013
174	0xbdbdcb39	-0.09267277
175	0x3eceeb09	0.40413693
176	0xbe500488	-0.20314229
177	0xbd604fe8	-0.054763705
178	0x3eac7aff	0.3368759
179	0x3e441c37	0.19151388
180	0x3e14cc16	0.14530978
181	0xbdb679ea	-0.08909972
182	0x3e466128	0.19373
183	0x3e0e1ef9	0.13879003
184	0x3eb7879c	0.3584565
185	0x3e6f3d83	0.23363309
186	0xbebf5b6e	-0.37374443
187	0xbe1e7537	-0.15474401
188	0x3dd941c1	0.10608245
189	0x3d2683cd	0.04065304
190	0x3e80f4ed	0.25186864
191	0x3ca445b3	0.020052766
192	0x3ec56a30	0.38557577
193	0x3eb1a784	0.34698117
194	0xbe45916f	-0.1929376
195	0xbe44ed7d	-0.1923122
196	0xbe8380ef	-0.25684306
197	0x3eaa1d82	0.33225638
198	0x3e1e3e84	0.15453535
199	0x3e0586d5	0.13039716
200	0xbe2d34db	-0.16914694
201	0xbe2eb646	-0.1706172
202	0x3e7a31dd	0.24433084
203	0x3e84bff5	0.25927702
204	0x3ebb2a89	0.3655589
205	0x3dc624d7	0.096749954
206	0xbe8a4bb1	-0.27010873
207	0x3e9f7b18	0.311486
208	0x3e7a351c	0.24434322
209	0xbe4d1421	-0.2002721
210	0xbe46c66f	-0.19411634
211	0x3e57004b	0.20996206
212	0xbca976f1	-0.020686598
213	0x3d8af69a	0.06785317
214	0xbe476968	-0.19473803
215	0x3e4c6f81	0.1996441
216	0xbe17f09d	-0.1483788
217	0x3dd50383	0.104010604
218	0xbc5c3c0e	-0.0134420525
219	0xbe8f6a92	-0.28010994
220	0xbe0ea792	-0.1393111
221	0xbd178348	-0.036990434
222	0xbeb2bc81	-0.34909442
223	0xbed0298d	-0.406567
224	0x3d793057	0.060837116
225	0xbe286e5b	-0.16448347
226	0x3e93f634	0.28898776
227	0xbcb4ba37	-0.02206145
228	0x3dc4e495	0.09613911
229	0x3f284a13	0.6573803
230	0x3df28974	0.11842623
231	0x3deda896	0.11604421
232	0x3cddf48f	0.027094154
233	0x3d5bfbc2	0.05370689
234	0xbe7ba0a2	-0.24572995
235	0xbe03167e	-0.12801549
236	0x3da87ac1	0.082265384
237	0xbe823182	-0.25428396
238	0x3edd888d	0.43268242
239	0x3db9484e	0.09046994
240	0xbe851932	-0.25995785
241	0xbd8cadfc	-0.068691224
242	0x3ddae1a5	0.106875695
243	0x3ef7e73e	0.4841861
244	0xbeb02384	-0.34402096
245	0x3d12c352	0.035830803
246	0x3e0f994b	0.1402332
247	0x3ead1efa	0.33812696
248	0x3ee269da	0.44221383
249	0xbed0b145	-0.40760246
250	0x3dd2d50a	0.1029454
251	0xbdae6c71	-0.08516777
252	0xbba2eece	-0.0049723154
253	0xbdc19d8b	-0.09453877
254	0xbebbff6c	-0.3671831
255	0x3c1ae96c	0.009455066

fc1.bias f4 [128]
0	0x3b1ac079	0.0023613258
1	0x3ca89264	0.020577617
2	0x3dca7597	0.0988571
3	0x3d073706	0.03301146
4	0x3d706a1e	0.05869495
5	0xbd6442a0	-0.0557276
6	0x3c19bbc5	0.009383147
7	0xbcc5910a	-0.024117012
8	0x3e02bbbf	0.12766932
9	0xba14739c	-0.0005662979
10	0x3c9b0379	0.018922554
11	0xbdb4428e	-0.08801757
12	0x3ddc47a9	0.107558556
13	0xbba5081d	-0.0050363676
14	0xbd3b966e	-0.045797758
15	0xbd6899d8	-0.05678734
16	0xbd83a7c6	-0.064284846
17	0x3ca382b4	0.019959785
18	0xbd024aac	-0.031809494
19	0xbcba406f	-0.022735802
20	0x3dd75131	0.10513533
21	0xbd93d674	-0.07218638
22	0xbdb34d60	-0.087549925
23	0xbc95982f	-0.018261043
24	0x3d44c967	0.048043635
25	0xbcf16b81	-0.029470207
26	0x3e0441dd	0.1291575
27	0x3d4647e4	0.048408404
28	0xbd050126	-0.0324718
29	0xbd5e65c1	-0.05429626
30	0x3b78ac47	0.0037944482
31	0x3e0392aa	0.12848917
32	0xbb22dc6f	-0.0024850627
33	0xbd6f10e4	-0.058365718
34	0x3d4f7aed	0.05065434
35	0xbd6d5e19	-0.057951067
36	0x3d68086d	0.05664866
37	0xbd1388d5	-0.036019165
38	0x3d7156a5	0.05892052
39	0x3c6e03e2	0.014527293
40	0xbd805be5	-0.062675275
41	0x3d779b9d	0.06045114
42	0x3db75b94	0.08953014
43	0xbd20efd9	-0.039291237
44	0x3d94f196	0.07272641
45	0xbc97cdf6	-0.018530827
46	0xbce0d4c8	-0.027445212
47	0x3bbf61d7	0.005840521
48	0x3d4364f9	0.047703717
49	0x3bae447f	0.005318224
50	0xbc618a1f	-0.013765841
51	0x3c71370c	0.014722597
52	0x3aa0f5e8	0.0012280317
53	0x3d38f4b0	0.045155227
54	0x3cfd546b	0.030924043
55	0xbde63cac	-0.11242041
56	0xbdb36263	-0.08759
57	0x3d6b4a9e	0.057444207
58	0xbd07a5d4	-0.03311713
59	0x3d8820a6	0.06646852
60	0x3d3d86b7	0.046271052
61	0x3d8f8ac9	0.07008893
62	0x3bbbb2ca	0.0057281004
63	0xbd310f6d	-0.0432276
64	0xbcbe8abb	-0.023259511
65	0x3d255371	0.04036278
66	0xbb2bf1be	-0.002623662
67	0xbb867f7e	-0.0041045537
68	0x3d84360c	0.06455621
69	0xbc26d8b9	-0.010183507
70	0x3dcce439	0.100044675
71	0xbd7fe444	-0.06247355
72	0x3d6c32b9	0.05766556
73	0x3d071c7a	0.03298614
74	0xbd100fc6	-0.035171293
75	0x3d95fd63	0.0732372
76	0xbc7a31d2	-0.015270667
77	0x3cc6d1c1	0.02426994
78	0x3d75b18b	0.05998377
79	0xbcb7300c	-0.022361778
80	0x3b29879c	0.0025868183
81	0x3c5a6558	0.013329826
82	0xbd4dd421	-0.05025113
83	0x3b60f7c0	0.0034327358
84	0xbbdb00d9	-0.0066834507
85	0x3ce7df2d	0.02830466
86	0x3da17f3f	0.078855984
87	0x3c5ba0d1	0.013405041
88	0x3c424dbe	0.0118593555
89	0x3cd278d1	0.025692375
90	0x3dca0051	0.098633416
91	0x3d4061a4	0.046968117
92	0xbd94a359	-0.072577186
93	0x3b35a92b	0.002771924
94	0xbd3dc007	-0.04632571
95	0x3d02abbe	0.031902067
96	0xbd9b57b9	-0.07585091
97	0xbc9b5101	-0.018959524
98	0xbd8901db	-0.06689807
99	0xbd4b7f4f	-0.049681958
100	0xbb19d2d9	-0.0023471622
101	0xbd3e9d67	-0.04653683
102	0xbb8dd82c	-0.004328748
103	0x3bbecc5e	0.0058227023
104	0x3da1f314	0.079076916
105	0xb9f978a2	-0.0004758286
106	0xbd561d7a	-0.052274205
107	0xba949c60	-0.0011338107
108	0x3d9dd946	0.07707457
109	0x3d129449	0.035785947
110	0x3cbbd1d2	0.022927199
111	0xbdb71fdd	-0.08941624
112	0x3d850811	0.06495679
113	0xbb5ec16c	-0.00339898
114	0x3ced60ff	0.028976915
115	0xbc991c76	-0.018690329
116	0xbbf1d574	-0.007380182
117	0x3d5c715d	0.05381905
118	0xbcb10991	-0.021611007
119	0x3c6adc98	0.01433482
120	0x3cd7b523	0.02633149
121	0x3dfc3b3b	0.12315985
122	0xba557a47	-0.0008143526
123	0xbaac7973	-0.0013158753
124	0xbd99601a	-0.07489033
125	0x3ce2ff4e	0.02770963
126	0xbde9b267	-0.11410981
127	0xbcae2ab3	-0.021260595

fc2.weight f4 [5, 128]
0	0xbd7be52b	-0.06149785
1	0x3d9b9840	0.07597399
2	0x3c04ca1f	0.00810483
3	0x3d357c2d	0.044307876
4	0x3e004468	0.12526095
5	0x3c4696e1	0.012120933
6	0x3da3c6fd	0.079969384
7	0x3da4fb49	0.08055741
8	0xbde7c304	-0.11316493
9	0x3d1a93e0	0.03773868
10	0xbda3148e	-0.07962905
11	0x3e0e8fd4	0.13922054
12	0xbdaa026c	-0.08301243
13	0xbd4246bd	-0.047430743
14	0x3c6fe5cc	0.01464219
15	0xbd84b6e4	-0.06480196
16	0x3dd5149b	0.10404321
17	0xbdab1427	-0.08353453
18	0xbda568d4	-0.08076635
19	0x3dc8862b	0.097912155
20	0xbdb8bf6a	-0.09020884
21	0x3d346300	0.044039726
22	0x3de8a36b	0.113592945
23	0x3d3fc10d	0.046814967
24	0xbd2d8287	-0.04236081
25	0x3dadbed6	0.08483665
26	0xbc3e204d	-0.011604381
27	0xbe0b8697	-0.1362556
28	0xbc3868fb	-0.011255498
29	0xbdc95a4b	-0.09831675
30	0x3d9c0c74	0.07619563
31	0x3c034e2b	0.008014242
32	0xbdc0d742	-0.09416057
33	0xbc6350b8	-0.013874225
34	0x3d8b1b0e	0.0679227
35	0x3d8f05af	0.06983506
36	0x3d838673	0.064221285
37	0x3e303a8c	0.17209834
38	0xbd8f2479	-0.069893785
39	0xbd814efe	-0.06313895
40	0x3dc4a800	0.09602356
41	0xbdb8f939	-0.090319104
42	0x3de146ba	0.10999818
43	0xbd18bb27	-0.037287857
44	0xbcf6f55e	-0.030146297
45	0x3d876362	0.06610753
46	0x3cdb22af	0.026749937
47	0x3daf8f08	0.08572203
48	0xbde2be54	-0.110714585
49	0xbdf56cb3	-0.11983623
50	0xbd997ce6	-0.074945256
51	0x3d83cdad	0.06435714
52	0x3d7176c7	0.058951166
53	0x3badfe0e	0.0053098267
54	0x3d0cb220	0.03434956
55	0x3d9f7fce	0.07788049
56	0xbd607cab	-0.054806393
57	0xbdabcb88	-0.0838843
58	0x3e0caae4	0.13737065
59	0x3d57ab14	0.052653387
60	0xbd140ea9	-0.036146794
61	0x3b9a7c08	0.0047144927
62	0x3dd64da3	0.10464027
63	0xbd7df35e	-0.06199967
64	0x3da3e85c	0.080033034
65	0x3dc7511b	0.097322665
66	0x3dea421b	0.1143839
67	0xbda51a7d	-0.08061693
68	0xbda43356	-0.08017604
69	0x3c532e6d	0.012889487
70	0x3db059dc	0.08610889
71	0x3e2375c1	0.15962888
72	0x3d360d63	0.04444636
73	0x3cf4642e	0.029832926
74	0x3bd31a88	0.0064423718
75	0x3cdd39b2	0.02700505
76	0xbc8e90b0	-0.017402977
77	0x3db56dc6	0.08858828
78	0x3cf16d8c	0.029471181
79	0xb8d999e7	-0.00010376033
80	0x3d2807dd	0.041023124
81	0xbdd37d0c	-0.10326585
82	0xbd907915	-0.070543446
83	0xbd5b0cd0	-0.053479016
84	0xbe05d3ae	-0.1306903
85	0xbd871fcb	-0.06597861
86	0xbd6646a2	-0.056219704
87	0x3cea1914	0.028576411
88	0x3ddac473	0.10682001
89	0xbd01e2da	-0.031710483
90	0xbd79e608	-0.06101039
91	0x3d6267be	0.055274718
92	0x3d2a432b	0.041567963
93	0x3bbe837a	0.005814013
94	0x3beb06ec	0.007172456
95	0x3cf537c7	0.029933823
96	0x3d39bb1c	0.045344457
97	0x3daf0c48	0.08547264
98	0xbda6de42	-0.08147861
99	0xbcf1c6b1	-0.029513689
100	0xbdd28d16	-0.10280816
101	0xbe13cb96	-0.1443313
102	0xbc11577c	-0.008870956
103	0x3ccc44b9	0.024935113
104	0x3d1b1c23	0.03786863
105	0xbd3ddfbd	-0.04635595
106	0x3e0452be	0.12922189
107	0xbdef274c	-0.11677417
108	0x3da37d27	0.07982855
109	0xbd1cab2b	-0.038249176
110	0x3db9ae6c	0.090664715
111	0x3deeed44	0.116663486
112	0xbc232049	-0.009956428
113	0xbdbade52	-0.091244355
114	0xbd97238d	-0.07379828
115	0xbd8cb786	-0.06870942
116	0xbdc00832	-0.09376563
117	0xbd09cb80	-0.03364134
118	0x3e32789a	0.17428818
119	0xbd8f9c07	-0.07012182
120	0xbd968156	-0.073488876
121	0xbe15f822	-0.14645436
122	0xbcc87986	-0.02447201
123	0x3d8f8760	0.070082426
124	0x3c79e7fb	0.015253062
125	0xbcde4022	-0.02713019
126	0x3c5403d8	0.01294037
127	0x3ddf7332	0.10910644
128	0x3d83897c	0.064227074
129	0xbddc0adb	-0.10744258
130	0x3cf3df94	0.029769696
131	0xbdddce78	-0.108303964
132	0xbdce6671	-0.10078133
133	0x3d1e8fcf	0.038711365
134	0xbd5c5fe3	-0.053802382
135	0xbcd39d59	-0.025831865
136	0x3b4219dd	0.0029617466
137	0x3dc0887a	0.09401031
138	0xbda5fdb1	-0.081050284
139	0xbc014395	-0.007889648
140	0xbcbf99a9	-0.0233887
141	0x3df4d27e	0.11954211
142	0x3dc4ee31	0.09615744
143	0x3cf73e21	0.030180993
144	0x3ddd550c	0.10807237
145	0xbc4cb860	-0.01249513
146	0x3d859966	0.06523399
147	0xbbd97ef8	-0.0066374503
148	0x3d2f32e0	0.042773128
149	0xbd00197a	-0.031274296
150	0x3b96e924	0.0046054292
151	0x3d8ebca8	0.06969577
152	0xbc85e861	-0.016346158
153	0x3da81c37	0.082085066
154	0x3c42452c	0.011857312
155	0x3d92a050	0.071594834
156	0x3dbf3d24	0.093378335
157	0x3d5e782f	0.054313835
158	0xbd6aa88d	-0.05728965
159	0xbd7a3d1e	-0.061093442
160	0x3bd4ef73	0.006498271
161	0x3d5120a2	0.05105651
162	0x3c78c3df	0.015183418
163	0x3d30b604	0.043142334
164	0xbced8b8c	-0.028997205
165	0xbce82a4f	-0.028340487
166	0xbcb3c083	-0.021942383
167	0x3da3a869	0.07991106
168	0xbc15c22c	-0.009140532
169	0xbd791f70	-0.060820997
170	0xbd49e92a	-0.04929463
171	0x3d9f7d17	0.07787531
172	0x3d7ad82d	0.061241318
173	0xbdc406de	-0.09571622
174	0xbdd9b752	-0.10630669
175	0x3d55b8eb	0.052178305
176	0x3d8d4173	0.06897249
177	0x3cf3043f	0.02966511
178	0xbd4a1ebe	-0.049345724
179	0x3bd6b57d	0.006552397
180	0xbd82325d	-0.06357262
181	0x3d961240	0.073277
182	0xbdbed155	-0.09317271
183	0xbd9aa73a	-0.07551427
184	0x3c18a5a4	0.009316836
185	0x3db1108e	0.08645736
186	0x3d2f5ceb	0.042813223
187	0xbdb02875	-0.086014666
188	0x3dcf3028	0.10116607
189	0xbcd25206	-0.025673877
190	0xbd0f890d	-0.03504281
191	0x3d925795	0.07145611
192	0x3d72ce8e	0.059279017
193	0x3d3c0055	0.045898754
194	0x3b515f42	0.0031947647
195	0x3d869b9c	0.06572649
196	0x390d3658	0.00013467052
197	0x3d932876	0.07185452
198	0xbd40b775	-0.04704996
199	0x3c6e82a8	0.014557518
200	0x3d90429a	0.07043953
201	0xbdc22cd3	-0.09481206
202	0x3daf5ba2	0.085623994
203	0xbd52017e	-0.051270954
204	0x3d535f66	0.05160465
205	0x3ccb01ab	0.024781069
206	0x3c8abc01	0.01693535
207	0x3cfa651f	0.030565796
208	0xbc486051	-0.012229995
209	0xbd920a6f	-0.07130896
210	0x3dc613fa	0.09671779
211	0xbd49171b	-0.0490943
212	0x3cddcc10	0.027074844
213	0x3d3b1acf	0.045679864
214	0x3ca8c96b	0.020603856
215	0x3d83a601	0.06428147
216	0x3d5addfe	0.053434364
217	0x3d0d0431	0.034427825
218	0xbcd6aa5d	-0.026204282
219	0x3ca43419	0.020044373
220	0x3cbbbf17	0.022918267
221	0x3d76b241	0.06022859
222	0x3b7d0f02	0.0038613682
223	0xbd548b19	-0.051890466
224	0x3d4b60f6	0.049653016
225	0x3cb1faab	0.021725973
226	0x3dcedff1	0.10101307
227	0x3c0e4165	0.008682583
228	0xbc8a2aa5	-0.016866038
229	0xbc75775e	-0.014982073
230	0xbd6e49ed	-0.05817597
231	0x3d984131	0.07434309
232	0x3d95f1c1	0.073215015
233	0xbcea383c	-0.028591268
234	0xbd32fe77	-0.043699708
235	0x3d1151d4	0.035478428
236	0xbda48a2d	-0.080341674
237	0x3cd53748	0.026027337
238	0xbd39c9e6	-0.04535856
239	0xbcb24d62	-0.021765415
240	0xbd24faeb	-0.040278357
241	0x3dcb6497	0.09931295
242	0xbd1e17f2	-0.038597055
243	0x3da8082c	0.08204684
244	0x3d2ebc6c	0.04266016
245	0x3d63b579	0.055592988
246	0x3d1f266a	0.038854994
247	0x3b4aa3a4	0.0030920291
248	0x3dd3a614	0.10334411
249	0x3c34805d	0.011016932
250	0xbc15973b	-0.009130294
251	0x3c0e4a97	0.008684776
252	0x3e132858	0.14370859
253	0xbd8022c4	-0.06256631
254	0xbd4d51ae	-0.050126724
255	0xbd4c31b2	-0.04985208

fc2.bias f4 [5]
0	0xbe4bef31	-0.19915463
1	0xbd0342c4	-0.032046095
2	0x3c4e1e36	0.012580445
3	0xbcb10419	-0.0216084
4	0x3dbfa05b	0.09356757
